logs/experiment/Discrete_A2C_1-5Box_10x10x10Bin-2022.08.09-15-00-00/PCT-Discrete_A2C_1-5Box_10x10x10Bin-2022.08.09-15-00-00_2022.08.09-18-37-40.pt (torch, 236314 bytes, 24 tensors)

actor.init_internal_node_embed.0.module.weight f4 [32, 6]
00000000: 7acd febe bc86 bd3c 1423 1dbf e7d8 1a3d
00000010: ebe9 43be c5de bebc 6779 b4bd 1845 163e
00000020: f455 afbe 444d 8cbe eea8 bcbe ecbf d1be
00000030: a946 f2bd 46b8 933d 5431 2f3e 74aa 803e
00000040: 479a c33d 6b29 29bf a67f ac3e 06ef 84be
00000050: ac9b 9d3e 81ac 09bf 2db9 71bd de80 1d3f
00000060: 6a09 adbd ac40 c2be 6bf6 303e d7e0 983d
00000070: 52df 913e 190c 513f 55d1 d2bb b7c7 113d
00000080: a76a 6c3e a659 a8bb 9cc4 43bd 48c4 6cbe
00000090: 1c75 943f df0b a0be e6e3 54bf 4e7b a8bf
000000a0: 9e49 123f 82f1 353f 2b6b b4be 88b4 b7be
000000b0: 9b83 803d 7d07 64be 9f9b 983e a0ed 143f
000000c0: 59fa 0cbe d29e d93e 7f1f 203f dcc3 2fbe
000000d0: 6a0e 83be 3cf3 9a3e 64c1 cc3e 91a7 98bd
000000e0: bb9e 093f 6b07 90bd 841b 67bd d726 23bd
000000f0: 67a4 d5be d754 9cbe 668b c7be 53de f03e
00000100: 52e9 8a3e a02e 77be 4a70 f5bd 84eb 243f
00000110: a4ab dcbe 35fb 163e 0d6d 24bf f6da e43e
00000120: 0c55 c23e cb79 15bf d0f9 77be ba41 3c3e
00000130: 8806 83be 2df4 353e 19ec 1c3e 888c 883e
00000140: 0a45 86bd db53 87be 7d07 89bd 085b 0cbe
00000150: ecbf 833e d457 b9bb 6c8b e33b 50b8 1abe
00000160: 6073 56bb 0ff6 073d efc1 b13e d297 0cbe
00000170: 5170 ac3e 8552 78be 41cc 32be 2463 613e
00000180: 23e8 02bf 56cf 0dbf 8594 bdbe 8da9 cebe
00000190: 04ae 1ebe f760 90be a8e5 b93b 607b 183e
000001a0: fad8 a63e abcc 9fbd 1a69 81bc 89eb c2bb
000001b0: c610 e6bd 06fa 2dbf 0ae2 25bf fc22 6abd
000001c0: 5bb2 32be eb02 1fbe 3c83 5d3e d48f b2bd
000001d0: 5cd8 45bf 9129 6abd 15c3 9dbd 19b6 be3e
000001e0: 5f9c a93b 1a0a 4dbe 108c 55bc a0df e2be
000001f0: 081f 2bbf 720d c63d 4794 c0bd a228 bcbe
00000200: 0a7a 25bf 2142 b23d 9d14 8a3e 1b34 1d3f
00000210: ae7c bdbe 0e02 bb3c 1e74 4abf 6964 a83e
00000220: 1f0e ff3e 3874 833c 2724 b03d 9714 f5bc
00000230: 0f0b e1be a0eb 14be 34d7 e1be f7b2 0fbf
00000240: 9fa5 1e3e 7f10 18be f68a 3f3f 6ca1 a4bb
00000250: 7a32 033e a08c e6bd d98c 873d b0ef 74be
00000260: 4a75 0bbf 5c35 673e e31a bf3e 4c90 09be
00000270: 920d 0d3f ba6b 763d a631 4e3e 1840 6a3e
00000280: f053 44be 6441 76be 7c7d ad3e 701c af3c
00000290: d9af 62be 346c ee3e f9ba b33d 2680 06be
000002a0: a54d efbd d66d 69be 9a95 0d3e 374f 0e3f
000002b0: 67b3 003f d5b8 54bf 415f 643e 68ce 55be
000002c0: b357 d4be 452b 55bd f09b 4c3d 3de6 d43b
000002d0: f3dc b0be 3f46 c7be 4f61 b33f 1c90 97bd
000002e0: 6812 7abe bd6b 893d c5a6 4f3e d3b7 e23d
000002f0: 85dc 85bd db91 b73d 76de 3fbe 2d43 04be
-0.4976614 0.023135535 -0.6138165 0.03780451 -0.19132201 -0.023299584 -0.08812218 0.14674795
-0.34245265 -0.274027 -0.36847633 -0.40966737 -0.118298836 0.07212882 0.17108661 0.25130045
0.095509104 -0.66078824 0.33691138 -0.2596361 0.3078283 -0.53778845 -0.059014488 0.6152476
-0.08449061 -0.37939966 0.17281501 0.0746476 0.28490692 0.81659085 -0.0064336457 0.035590854
0.2308756 -0.00513764 -0.047794923 -0.2312175 1.1598239 -0.31259057 -0.83160245 -1.316263
0.5714358 0.71071637 -0.35238013 -0.35879922 0.06275102 -0.22268482 0.2980623 0.58175087
-0.13767375 0.42503983 0.6254806 -0.17164558 -0.25596935 0.30263698 0.39991295 -0.07453836
0.5375783 -0.07032665 -0.056422725 -0.039831962 -0.41726992 -0.30533478 -0.3897354 0.4704462
0.27131134 -0.2413888 -0.11984308 0.6442187 -0.430997 0.14744265 -0.642289 0.44698304
0.3795551 -0.58388966 -0.2421639 0.18384448 -0.2559092 0.17768927 0.15324439 0.26669717
-0.06556137 -0.26431164 -0.066908814 -0.137066 0.25732362 -0.005656222 0.0069441106 -0.15109372
-0.0032722577 0.033193644 0.34718272 -0.1372979 0.3367944 -0.24250229 -0.17460729 0.22010475
-0.5113546 -0.55394495 -0.37027374 -0.40363732 -0.15496069 -0.28198978 0.005673129 0.14890814
0.32587415 -0.07802709 -0.015797187 -0.005948488 -0.11233668 -0.6795963 -0.64798033 -0.05716227
-0.1745085 -0.15528457 0.21632093 -0.08718839 -0.77283263 -0.057168547 -0.077032246 0.37248304
0.0051761116 -0.20023385 -0.013033882 -0.44311237 -0.66844225 0.09670533 -0.09403282 -0.3674975
-0.6463934 0.08704019 0.26968852 0.6140763 -0.37009186 0.022828128 -0.7908343 0.32889107
0.4981546 0.016046628 0.086006455 -0.029917045 -0.4395375 -0.14543009 -0.441095 -0.56132454
0.15492867 -0.14850043 0.7482141 -0.005024126 0.12812224 -0.11257291 0.066186614 -0.23919559
-0.54475844 0.22578949 0.373252 -0.13433951 0.5509883 0.06016133 0.20136127 0.22876012
-0.19172645 -0.24048382 0.338848 0.021375865 -0.22137393 0.46566927 0.087758966 -0.13134822
-0.116847314 -0.22795805 0.138266 0.5558962 0.50273746 -0.8309453 0.22301961 -0.20879519
-0.4147316 -0.05204322 0.0499534 0.006497173 -0.3454357 -0.3892078 1.4014071 -0.074005336
-0.24421084 0.067100026 0.20278461 0.11070218 -0.065362014 0.089633666 -0.18737206 -0.1291625

actor.init_internal_node_embed.0.add_bias._bias f4 [32, 1]
00000000: 729e 903c 2d8d 84be 3991 bcbb d61c b0bc
00000010: 3daf 153e b450 1a3d 9f22 be3b 8fd7 01bc
00000020: a20e 353d 3ab3 d73d 6d13 bb3b 1eb8 8a3c
00000030: 3161 27bb 78f7 cab9 fb0f 5abc 57c1 f33c
00000040: b019 9dbe a906 75bd b233 f43c e9ff d03a
00000050: 0a63 7fbe 54a3 6b3d 7bc6 503d 560d f33d
00000060: 6f2a 0a3d 9dfb 573b 1211 e03b 928d 913d
00000070: 094e dc3c faf4 42bd 0e43 8f3d 89a6 8ebd
0.017653678 -0.2588896 -0.0057546166 -0.021498125 0.1461763 0.03767462 0.005802467 -0.007924928
0.044203408 0.10532232 0.005709103 0.016933497 -0.0025540108 -0.0003871282 -0.013309474 0.029755278
-0.3068366 -0.059820805 0.029809806 0.0015945408 -0.24940124 0.05752881 0.050970536 0.11867778
0.033731874 0.003295637 0.0068379724 0.071070805 0.026892679 -0.04759691 0.069952115 -0.06965358

actor.init_internal_node_embed.2.module.weight f4 [64, 32]
00000000: ca4a ce3d 4feb 363e dfcb d7bd 2cb0 273e
00000010: 9f57 033d 25da da3d a4f7 303e 9d2c 143f
00000020: 0a65 913e 92bd f7bd 51cd 503f 0d8b fe3d
00000030: 08ba 803d b858 6abe 01cb 2cbf 010e a03e
00000040: bdb2 85bc b946 423e b434 a23c 21b9 693e
00000050: 900a 64be 73b2 453e 5737 8f3f ac54 91bd
00000060: 2364 133f b34f 8c3e c0b3 0e3e 8515 863e
00000070: f0af 573e 6e28 64bc 23d0 eabd 4c3c 13bc
00000080: 2822 a93e 537c ad3d 4546 04bf d162 0cbf
00000090: 6c76 0bbd 243e 8d3e b207 8e3d ab72 c0be
000000a0: 11e5 74be 39b0 3f3e 8945 f13e 4326 253e
000000b0: fcea a13e 7641 693d 0ed2 20bd 5641 8b3e
000000c0: 6a3c 6cbd 0bfb c9bb 3178 02be 0ac8 09be
000000d0: 6c14 1f3d b306 a43e f77b 6f3f f602 b53e
000000e0: 2151 1fbe 2996 a13d b96c 1f3c 926f 853d
000000f0: b76a 2d3f 1b3f 713e 445f 383d df63 fbbc
00000100: 3d86 92be e292 3abc fec9 063f 4f0d 0f3f
00000110: 9527 0e3f c431 dcbc 7335 91be 4ba3 883f
00000120: 4142 67be 01fa 5bbe 9329 f7be 26ee 2dbf
00000130: 645d 97bc 0526 623e 68f4 d63e c827 02bf
00000140: 2dd6 cebd eed4 a43d 3003 5e3c 507a debe
00000150: 1dc2 10bd 54c5 ea3e d8ca d3bd a7c1 8fbe
00000160: fdae 04bd 680f 90bd 6702 143e 7cf6 4a3d
00000170: 198b 3d3e 6b9e 23be a921 5d3e 5b72 c83d
00000180: 051c e6bc dd63 5fbe 4ccf 1a39 5059 cc3e
00000190: a765 a53d 6206 023c b1a2 973d 48b8 f73d
000001a0: 991f 383d fa34 323c 66a5 a73d e794 04bd
000001b0: 7b8f 81be 3e3c 893d e9ae a6be 9fa5 0f3d
000001c0: f2f6 e23d 833f 98be 37a5 053e ff8b ce3d
000001d0: ae4e 84be 6279 0d3f 59f4 05be 5c47 8f3e
000001e0: bfde 863e 81ab e23b 0bd2 273e cc97 c13e
000001f0: 503f 053e 4adc 8dbd 04a6 c7be 3e8a 3f3e
00000200: 5319 a63e 07b9 eabd f0b9 44be 363b e33d
00000210: 1e14 14bf 05d3 abbd 4fa6 c23e 0fec 07bf
00000220: 74d2 0bbf 402a e53e 59bb bd3e fef4 af3e
00000230: 8674 8bbd 5d00 5cbe 963d 733e 8420 efbd
00000240: 9ca3 b53b 5448 bdbd ced6 6d3c 8b88 b23c
00000250: 8a7f 10be 8e9c c73e 0a6d 213e 1047 2c3b
00000260: 2497 41be 6e92 733e a650 ae3e e633 fa3d
00000270: 9c0b 0f3f 7aca 213d a33d 3e3e aef3 f9bd
00000280: 4342 9cbe f02a dabd 4a46 a3bc 9377 613c
00000290: 70ff 5c3f c135 83be 0a2a 6ebe 76ee bb3e
000002a0: 314e 2c3e 9f8b 03be 4314 5a3f ee6f dabe
000002b0: e700 73ba bf50 36be 1712 2b3d 5c77 963e
000002c0: 7dd7 5b3e f43b 503e 6814 a2bd 6d02 5cbc
000002d0: f7b8 10bd 72ff ba3d c4df d73e 1fcd 11bf
000002e0: 7eca 043e e5e4 893e 2412 6b3e 6c92 e73e
000002f0: 04b3 66bb dc30 f3bd bb88 7e3d a79a 633e
00000300: d3a6 ad3e e3f2 0b3c b031 c53d 7cde c8bd
00000310: 8e6e cc3e fc0e 373d 5c65 80be f237 fb3d
00000320: 6587 83bb 48a7 0dbe 08ae 983e 14b7 39be
00000330: a18e b3be aee9 aebb cce3 803e a1ef f8be
00000340: 00e5 0a3c 7859 bcbe 6733 a43d 92d9 25bd
00000350: eedb 75ba 7fa0 273d f480 ae3c 57fb 7e3e
00000360: f9ae 38be b3b5 853d 9a91 33be 9f50 db3e
00000370: 4f42 a1be 5c5a 9c3d 71cc dcbe ca8b c5bd
00000380: efd8 c7bd e2fb f9bd 21be ddbe d80f a7be
00000390: ca7f cbbe a40a 28bc cce1 353e e1f1 cfbd
000003a0: 22a2 993d db13 8c3e a238 f33e 253d e43e
000003b0: f616 3cbe 66be 043e d215 24be 0b02 b3bd
000003c0: 7e0a 7dbd 8e5e 77be debb 633e b4f2 263e
000003d0: 38e6 bf3c 836e c0be bc16 2d3f bdab 163d
000003e0: 576d fcbe fd0f 013e 302a 9ebe d538 c3be
000003f0: 8535 293f c0f3 463e ca0a c73e cf6b a2bd
0.10072859 0.178632 -0.10536932 0.16375798 0.032065984 0.10686139 0.17281967 0.57880574
0.283974 -0.120967045 0.8156329 0.124288656 0.06285483 -0.22885406 -0.6749726 0.31260684
-0.01632058 0.18972291 0.019800521 0.22824527 -0.22269654 0.19306354 1.1188763 -0.07096228
0.5757467 0.27404556 0.13935757 0.26188293 0.21063209 -0.013925655 -0.1146548 -0.008986544
0.33033872 0.084709786 -0.5166972 -0.5483828 -0.034048483 0.27586472 0.069350615 -0.37587485
-0.23915507 0.18719567 0.47123364 0.16127877 0.3162459 0.056947194 -0.039262824 0.27198285
-0.057674803 -0.00616396 -0.12741162 -0.13455215 0.038837835 0.3203636 0.9354853 0.35353822
-0.15558292 0.07889969 0.009730511 0.06515421 0.6774096 0.23559229 0.045012727 -0.03068727
-0.2861804 -0.011387559 0.52651966 0.5587968 0.5552915 -0.026879199 -0.2836109 1.0674833
-0.22583868 -0.21482088 -0.48273906 -0.6794151 -0.01847715 0.22084816 0.41983342 -0.5084195
-0.100994445 0.080484256 0.013550565 -0.43452692 -0.03534137 0.45853674 -0.10341424 -0.28077433
-0.032393444 -0.070341885 0.14454041 0.049551472 0.18510093 -0.159784 0.21594872 0.097874366
-0.028089533 -0.21815439 0.00014763809 0.3991189 0.08076029 0.007936092 0.07404078 0.12095696
0.04495201 0.010876888 0.08185844 -0.032368567 -0.2530478 0.067009434 -0.3255532 0.035070058
0.11082257 -0.29735956 0.13051306 0.10085296 -0.25841278 0.5526334 -0.13081492 0.2798413
0.26341817 0.0069174175 0.16388719 0.37811124 0.13012433 -0.069267824 -0.38993847 0.18705079
0.32441196 -0.114610724 -0.19211555 0.11095278 -0.57843196 -0.08389858 0.38017508 -0.5309457
-0.54618 0.44758797 0.37056997 0.34366602 -0.068093345 -0.21484514 0.23753962 -0.11676124
0.0055431854 -0.09242311 0.014516545 0.021793624 -0.14111152 0.3898663 0.15764251 0.0026287474
-0.18905312 0.23786327 0.34045905 0.1221693 0.5587709 0.039499737 0.185782 -0.12204681
-0.30519304 -0.10652721 -0.019930977 0.013761419 0.86327267 -0.25626948 -0.23258224 0.3670537
0.16826703 -0.1284623 0.85187167 -0.4266352 -0.0009269849 -0.1780424 0.0417653 0.2938794
0.21468921 0.2033537 -0.079140484 -0.013428313 -0.035332646 0.091307536 0.42162907 -0.56953615
0.1296787 0.26932445 0.22956139 0.452289 -0.0035201916 -0.118745536 0.062142115 0.22226964
0.3391634 0.008541795 0.09628618 -0.098080605 0.39928097 0.044692025 -0.2507733 0.1226653
-0.004013943 -0.13833344 0.29820275 -0.18136245 -0.35069755 -0.0053379154 0.25173795 -0.48620322
0.008477449 -0.3678701 0.08017617 -0.040490694 -0.00093787804 0.040924545 0.021301724 0.24900566
-0.18035497 0.06528797 -0.17536011 0.42834947 -0.31495902 0.07634422 -0.43124726 -0.09645803
-0.09758174 -0.12206246 -0.4330912 -0.32629275 -0.39745933 -0.010256443 0.17761916 -0.101535566
0.075016275 0.273589 0.47504145 0.445779 -0.18368134 0.12963256 -0.16023949 -0.08740624
-0.061777584 -0.24157164 0.22239634 0.16303521 0.023425207 -0.37584314 0.67612815 0.036784876
-0.4930217 0.12603755 -0.30891562 -0.38129297 0.6609729 0.19428921 0.3887542 -0.07930719

actor.init_internal_node_embed.2.add_bias._bias f4 [64, 1]
00000000: 61d6 453e 31a5 943e 433c 39bd 1c0d ad3d
00000010: 5dc3 153e 8e97 9b3e 1841 033d 4296 f63d
00000020: 80b0 9dbd 7f3b d7bd dadb a33b 42cf bf3c
00000030: 52a5 89bd a24e c23d a62a 0d3e 4685 193e
00000040: e7fd c5bb 2f02 51be 5520 9f3c 2b66 bd3d
00000050: 72d1 c0bb d188 313d b284 59bd 754b adbd
00000060: e169 183e 80f4 0fbd c16d 06bd f645 483d
00000070: fe68 dbbd 6e8f 86bc dd6d 623b 4250 61bc
00000080: 3722 a13d 07e0 013d 4bfa 893e 6de6 a7bd
00000090: efb5 e53c 7598 1cbe 5049 bfbc b652 583e
000000a0: cc39 57bd 201a 73be 8c4d 1a3e b9c5 22bc
000000b0: 8d3c f5bd 374b 59bd 3a46 9ebe 441a 92be
000000c0: d4d5 8b3e 9c79 783c af65 bf3d 6042 4b3d
000000d0: cd50 8abb e73b b1bb 3e35 1ebd 28ad 5d3e
000000e0: 675b 683e 2daf a0bd 124e 9a3c 228a 803d
000000f0: 415b 803d ec0f f23d 4f13 09bd 6465 063d
0.1932006 0.2903228 -0.045223486 0.08449766 0.14625306 0.30389065 0.0320445 0.12040378
-0.0769968 -0.10509395 0.0050005736 0.023414258 -0.067209855 0.09487654 0.137858 0.14992246
-0.0060422304 -0.20410989 0.019424597 0.092480026 -0.005884343 0.04334337 -0.053105064 -0.08461658
0.1488414 -0.035145283 -0.032819513 0.048894845 -0.10713385 -0.016425814 0.0034550347 -0.013752045
0.07867854 0.03170779 0.2694877 -0.08198247 0.028040854 -0.15292533 -0.023350388 0.21125302
-0.052545354 -0.23740435 0.15068644 -0.009934836 -0.1197444 -0.053050246 -0.30912954 -0.28535664
0.27311575 0.015165713 0.093455665 0.049623847 -0.004221058 -0.0054087522 -0.038624994 0.21648085
0.22691117 -0.07845912 0.018836055 0.06276347 0.06267405 0.11819443 -0.03346568 0.032811537

actor.init_leaf_node_embed.0.module.weight f4 [32, 8]
00000000: f131 a0bd 6618 b0be 3d70 c9be 3eb6 90bd
00000010: 3250 2c3e 4cb7 bd3e aeba fd3e 6107 8a3e
00000020: ed32 c4be 5090 2abf 841a 98bd 3f3d aabe
00000030: 9ae2 80be d64d ae3e e4d3 b4bc e5bd ba3e
00000040: 550c 473e e87e bfbe 42a3 07be e704 d53e
00000050: 13ba 813b 9f87 a2be 082d 68bd 791e 8abd
00000060: 1cc8 cebe 911a 4dbe e513 79be 7455 81be
00000070: 638b ac3e f246 363d 990d e73e b1e4 e93d
00000080: 0576 2fbd 3623 3bbe 4b49 983d fc5c e73d
00000090: 537a c13e 6ad3 053e 0550 ffbe a052 c83e
000000a0: 1e07 bd3d 549f 163e 8ea5 08bf 5583 243e
000000b0: 0036 efbe c306 063f e4ad fabd 898a 83be
000000c0: 8283 b5be 2ed4 30be 582f 6dbd f786 553d
000000d0: 2786 c83d 1e08 4abe 6568 ccbd 8015 e0bd
000000e0: 2687 c13e 0665 e3be 002e 823e e00c e83e
000000f0: 3652 f6bc 4990 c73e 3e1e 383d 19c2 663e
00000100: 2ee0 d33d 1811 003e 84c7 2dbe ab42 ad3e
00000110: 378b cb3d bf9d af3d 6612 fb3e 082f b23e
00000120: fe49 afbd caee ac3e 04d0 34be c8e0 973e
00000130: b396 e03c a1c2 f0bd b2a1 e73e c905 99be
00000140: 9336 673d bde9 d03d 95b3 903e 3738 95bd
00000150: 90d1 ae3e 56e7 e3bc c8b2 45be e261 ad3c
00000160: 2d9b 8cbe 6631 023d 1700 3b3e 231c ae3d
00000170: a52e ef3e 2b7c ca3d 9283 88bc 1b41 b7be
00000180: d51c c73e ee14 923d b083 113f 5f08 afbe
00000190: 2335 a7bd a24a 88bd 2cf3 bb3e 20c1 eebd
000001a0: c210 65be 0a54 d23c 8347 8f3e 231b 16be
000001b0: 88a2 83be 346a 6dbe c32c b63e a32a 9c3d
000001c0: 7fd7 333e 521e d1bc deab 223e f709 e83e
000001d0: 3364 f93d c650 d23e 1243 e93d aff0 94bd
000001e0: c89f 003f 1862 073e d25d f2bd edca 05bf
000001f0: eb12 493e 0415 f13e 724a 123d cf02 9cbe
00000200: 44ae 5cbd f801 b93d 718d 93be 5ba2 b63e
00000210: 0160 3d3e b1d8 9f3c e4f7 77be b290 a03d
00000220: 7d39 b5bd 116d be3e 56ee dd3d 2144 a63d
00000230: fec8 8abe 5db1 b73d 66e4 3d3e c66e 933e
00000240: 2fe8 4cbe 5f2d 573d 1c5b 8a3d 522b b8be
00000250: f1a8 75be a7ff b83e 5cbb 483d 29d3 f43d
00000260: 766b c4be 7d74 023e 4554 cebd 7970 8d3e
00000270: 771d 793d 21d1 043f ae72 b7bd b71a d93d
00000280: f4a0 7bbe a839 8cbe a6b5 9bbe e9c1 3abd
00000290: b957 d53c 7e71 d53e a2a5 10be 682f 86be
000002a0: fd32 083e 6bf3 12be 4b85 f73e 2c23 e4bd
000002b0: 6549 ad3c 894e e3bd 4ea6 47be a499 6d3d
000002c0: 7c2c a3be 9d3b b63e 2206 9a3c 946a 9e3e
000002d0: bea0 793e 733a 3b3e c3c9 f13d 4163 073e
000002e0: 1401 95be 25c7 13be 4a51 963d eceb 9fbd
000002f0: 1788 e73e 8df7 32bd 7fa2 17bd 2a7b 7ebd
00000300: dbed 743d 92b6 a83d 7d40 833e c248 c4bc
00000310: 634a 633e eca1 843d 4cbb 8cbc d4e8 fc3e
00000320: 3fd2 9a3e 0f71 563e ef0d fcbe 18d3 a5be
00000330: 9ff4 373d be39 abbc 40cb 3f3d 0f97 99be
00000340: 9e9f 743e 67dc 30be 4265 ef3d a792 d63e
00000350: bbe7 1d3e 5fed f23d 36f3 e33e 1c7b 8ebe
00000360: 596f 223d 768c 32be 7494 c3be e433 0e3e
00000370: f1da 193f 66ea 7fbd ba31 5e3e ee74 ba3e
00000380: f17a 9d3e c10c fcbd a4eb fabd 0725 d4bd
00000390: 9969 fe3b 7276 d0be bd58 d13d 2506 503e
000003a0: b749 e23d 68c3 783e c2f4 3ebe 3d47 57be
000003b0: 943f 963e 3542 173c 3e4b 5ebe 8fdc 283e
000003c0: c94a 9b3e 4f8c f33e c370 01bf 6694 13be
000003d0: 7525 5fbe 5bab 2bbe 710d 10bd 599f e93e
000003e0: d779 e83d 6b1b d63e 5ff8 80bd f5f3 61be
000003f0: adbd eb3d c192 c83e 453c 303e b5d1 c6bd
-0.078220256 -0.34393615 -0.39343444 -0.0706601 0.16827467 0.37053907 0.49556488 0.26958755
-0.38320103 -0.66626453 -0.074269325 -0.33249852 -0.25172883 0.3404376 -0.022073694 0.36473003
0.19438298 -0.3740151 -0.13245872 0.41605303 0.0039589494 -0.31744096 -0.05668357 -0.067440934
-0.40387046 -0.20029666 -0.24323995 -0.25260508 0.33700094 0.044501252 0.45127562 0.114205725
-0.04283716 -0.1827515 0.074358545 0.11297032 0.37788638 0.1306893 -0.49865738 0.39125538
0.09229873 0.14709216 -0.53377616 0.16065724 -0.46720886 0.5235407 -0.12240198 -0.2569163
-0.35451895 -0.1726844 -0.05790648 0.052130666 0.097912125 -0.19729659 -0.09980849 -0.10941601
0.37798423 -0.44413012 0.2542572 0.45322323 -0.030068498 0.38977268 0.044950716 0.2253498
0.10345493 0.12506521 -0.1697064 0.33839926 0.099386625 0.085750096 0.49037474 0.34801507
-0.08559035 0.33775932 -0.17657477 0.29663682 0.027415609 -0.117558725 0.4524055 -0.29887226
0.05644853 0.10200832 0.2826201 -0.07286113 0.34144258 -0.02782027 -0.19306481 0.021164838
-0.2746214 0.03178539 0.18261753 0.085014604 0.46715274 0.098869644 -0.0166643 -0.3579186
0.38889185 0.07132898 0.56841564 -0.34186074 -0.08164432 -0.0665486 0.36708963 -0.116579294
-0.22369674 0.025674839 0.27984247 -0.1465879 -0.2570994 -0.23185045 0.35581025 0.0762532
0.17562674 -0.025527153 0.15885875 0.45320103 0.121773146 0.4107725 0.11389746 -0.07272469
0.50243807 0.13221014 -0.11834301 -0.52262765 0.19636123 0.47086346 0.035715528 -0.30470893
-0.05387713 0.09033579 -0.2881885 0.35670742 0.18493654 0.019512506 -0.24215657 0.078400984
-0.08848856 0.37192586 0.108364746 0.08118463 -0.2710647 0.08969376 0.18544158 0.2879545
-0.20010446 0.052533504 0.06755659 -0.3597055 -0.23990227 0.36132547 0.049006805 0.11954338
-0.38363236 0.12739749 -0.10074667 0.27624872 0.060819115 0.51881605 -0.0895742 0.106007986
-0.24573117 -0.27387738 -0.30412024 -0.045595083 0.026042806 0.4168815 -0.14125684 -0.26208043
0.133007 -0.14350669 0.48343882 -0.11139521 0.021153161 -0.11098964 -0.19497034 0.05800785
-0.31869876 0.35592356 0.018801752 0.30940688 0.24377725 0.18284015 0.11806061 0.13221456
-0.29102385 -0.14431436 0.073397234 -0.078086704 0.45221016 -0.043693114 -0.037020203 -0.062129177
0.05979715 0.082379475 0.25635138 -0.023960475 0.22196345 0.06476197 -0.017179154 0.49396384
0.3023853 0.20941566 -0.4922938 -0.32387614 0.044911023 -0.020901557 0.046824694 -0.2999806
0.23889014 -0.17271577 0.11689235 0.41908762 0.1542043 0.11861681 0.44521493 -0.278283
0.03965697 -0.17436394 -0.38199198 0.13886982 0.60099703 -0.0624794 0.21698657 0.36417335
0.3075786 -0.1230712 -0.12251976 -0.10358625 0.007764053 -0.40715367 0.102220036 0.20314844
0.11049216 0.24293292 -0.18648055 -0.21023269 0.2934538 0.009232094 -0.2170839 0.16490386
0.30330494 0.47567984 -0.50562686 -0.14412078 -0.21791632 -0.16764586 -0.03516907 0.45629385
0.11351364 0.41817793 -0.06297373 -0.22065718 0.11510787 0.39174464 0.17210491 -0.09707967

actor.init_leaf_node_embed.0.add_bias._bias f4 [32, 1]
00000000: 3534 403c 56be e43c bc41 d93b 682d 053c
00000010: 6003 efbd fc0b 703c 8efa e7bc b7a7 d4bc
00000020: e729 a03d 7ebb 103d 8812 223d 79ec f6bc
00000030: 7d85 e83a 8726 68bd 350f 043e 36ca 943a
00000040: 318a 21bd 2a2b 46bd 5166 3e3c 34d0 76bb
00000050: 2efc 123d 0db4 223d 9b4e f53d 4cb8 afbc
00000060: d281 413c 2c75 463c 3445 ba3d abc0 aebc
00000070: 2f41 b2bd b3f6 3b3b 987a 033c 58bf 1bbe
0.011731197 0.02792279 0.0066301506 0.0081285015 -0.116705656 0.014651295 -0.028317716 -0.025958879
0.07820492 0.035335056 0.039568454 -0.030142056 0.0017739978 -0.056677368 0.12896426 0.0011351767
-0.03943843 -0.04838101 0.011621074 -0.003766072 0.03588503 0.03972249 0.119778834 -0.021450184
0.011810737 0.012112897 0.09095231 -0.021332106 -0.08703839 0.002868098 0.008024834 -0.1520971

actor.init_leaf_node_embed.2.module.weight f4 [64, 32]
00000000: 2c52 473e 1031 e33e 9d36 313e eff9 503e
00000010: a951 7abe 841d c23e 39a5 9b3e 1424 83be
00000020: f458 7d3c 04f1 223e d959 a5bb 163e 37bc
00000030: f5cf bebe efe9 0bbe cde2 093e 8cf1 943d
00000040: 76bf 453e b2a5 19be 970b 333e 778c a93e
00000050: 7710 1f3f aeff d9be 73c6 213f f012 b93e
00000060: 7a4d ad3c aa7f f83c 7bb7 0cbc e4cf c73e
00000070: 771d 06be 4e1c 413e 0f6b bd3d aeb0 9ebe
00000080: 6e54 24be 33e4 6dbe a29a edbd 2eea 17be
00000090: cd18 81be 36c9 b43e 5939 6dbe 308d 693e
000000a0: 7264 a53e 9788 9fbe 2b92 d03d acac a4bd
000000b0: 4178 943e 6893 223d a753 163d 2d5d 323d
000000c0: d6e6 c73d 92ca 2b3e e9b8 aa3d 494c fcbe
000000d0: 6d9f cabe fdfc 113f 8db2 3c3e 6fc4 853e
000000e0: 2aab f43d 4f13 283e 0ff2 013e a6f6 f8bd
000000f0: 8a94 b83d 92e7 85ba e63a 953e 4597 37be
00000100: b6b3 69bd 9b09 5e3d a256 403e 8354 c2be
00000110: 53cd b93d 683f e3bd 79e7 e7bd fbb3 1ebd
00000120: 7cca b4be 99b6 cb3e 7767 ce3d 39d8 c63d
00000130: c43b 5cbe b745 273d 7d11 1e3e 1084 223e
00000140: 8f8f c4be 2bbf 3dbe ca00 d93d 93ef 1d3d
00000150: f9d1 1abc 6d83 ba3d 3dd1 f93d b1ab d43d
00000160: ca51 c13e feb8 033c b156 293e 66c3 b83c
00000170: 96c5 1dbe ba97 f9bc 14bc d5be df69 22be
00000180: 6d53 6dbe 5a6d e93d d9e1 c6be aa70 063f
00000190: d0a4 8abe 9489 f13d 070b 25be 3db1 323e
000001a0: 1752 cdbc 4cdd dc3d 7ae7 643e 0504 eb3d
000001b0: b433 253f f33b 87be d320 55bd e445 06be
000001c0: f0d3 27be 8a5f 9a3e 5f72 ccbb 7481 f33c
000001d0: 46b7 edbe e530 2cbd a8c8 f2bd b89c 35be
000001e0: d00a c53d 985d e9bd 8148 8e3e d9d9 683e
000001f0: bad8 503e 94e4 14bd e3c1 3fbd bc21 f43d
00000200: 89ad 9dbe f2d8 c4be 86c6 36be 05ac 02be
00000210: cf84 053d cee8 96be a8e1 6bbe 36fd 54be
00000220: a88f 1ebf 5d71 9f3e ac9a 2e3d 7d75 d6ba
00000230: 29cb e83e 1e20 87bc fb07 80be 15a0 1c3e
00000240: 9fae ad3d d7d5 31be 5d4f a4be 23e1 1dbe
00000250: 4aad 043e 8627 4a3e 9b95 ca3d 2bea 93bd
00000260: d713 2fbe fb0a b73d 09c3 27bd 50fe 123c
00000270: 99fd b4bd 0407 703c b177 593e 3758 13be
00000280: e45b 0cbe e12c 693e 4db6 22be 5fa0 babe
00000290: 37f8 0f3e f723 513e 06ad 9b3d b3b8 3abe
000002a0: d1fd a5be a5df d6bd eb47 1c3c 2613 893d
000002b0: 1545 1dbe 4f86 6bbe 7c36 e53e c826 85be
000002c0: 7ba9 6b3e b868 2e3d 4f34 163d 5b16 f5bc
000002d0: 5154 273b 5fba 93bd 0175 1cbe c70b 9ebe
000002e0: 6bb1 4abe 89f0 8b3d e761 333d 8bc5 8d3e
000002f0: babf 26bd 6526 ee3c f1db 57be 0d99 65bd
00000300: 657a 42be 603a dabe 22f4 bcbe b395 b23d
00000310: 6798 6cbe 5852 35be 8cda c33c 37d9 1e3d
00000320: 9be5 ea3a 4349 16bd 1ae1 223c 2138 66be
00000330: bb31 a13e 6d19 f03d 3cc7 4dbe cac1 44be
00000340: 5981 2fbe 95d0 153f d39c 9f3d cf0a 1abd
00000350: b25f f83d 6bd1 833e d942 1fbe 4042 ef3d
00000360: af2e e43d 9588 9c3e 9905 81be 49ef 343b
00000370: 8477 123e 3edf 76bd 2658 35be 109f b93d
00000380: 9d25 1f3d d889 923e 6e8a 98be 9566 91be
00000390: 5559 05bf cd00 8abe bec6 363e b4ce 69be
000003a0: 4488 8dbd fd87 0d3b a237 b939 46ec aebe
000003b0: fa90 4c3e 3f94 a7be ea79 e4be 1058 233d
000003c0: 3490 82be e1fd 503e 7a24 babd 194f 1ebe
000003d0: 555b 04bd 508d 303f 9e3e 71bd 3ca9 78be
000003e0: d786 94bd a04b fc3c 41d4 44be e697 93be
000003f0: f458 403e f64f e1be db8a 993e 1d6c 11bc
0.1946494 0.4437337 0.1730599 0.20407842 -0.24445213 0.37913144 0.30399492 -0.25613463
0.015463103 0.15912253 -0.005046111 -0.011184236 -0.37268034 -0.13663457 0.13465424 0.07272634
0.19311318 -0.15004614 0.1748489 0.3311498 0.621345 -0.4257788 0.63193434 0.3614726
0.021155108 0.030334312 -0.008588667 0.39025795 -0.13097177 0.18858454 0.092489354 -0.3099417
-0.16047832 -0.23231582 -0.116017595 -0.14835426 -0.25214234 0.35309762 -0.23166408 0.22807765
0.32303196 -0.31158897 0.10184129 -0.08040747 0.28997996 0.03969136 0.03670087 0.04354589
0.09760825 0.16776493 0.0833605 -0.4927695 -0.39574757 0.57026654 0.18427487 0.2612643
0.119467095 0.16413616 0.12689994 -0.121564195 0.090127066 -0.0010216108 0.29146498 -0.17928798
-0.05705615 0.05420838 0.18783048 -0.37955102 0.090723656 -0.11096078 -0.11323447 -0.03874586
-0.35310733 0.39787748 0.10078328 0.0970921 -0.21507174 0.04083797 0.15436359 0.1587069
-0.38390777 -0.18529956 0.105958536 0.038558554 -0.009449475 0.09107099 0.12198112 0.1038431
0.37757713 0.008039711 0.16536976 0.02255411 -0.15407404 -0.030467857 -0.41745055 -0.15860699
-0.23176356 0.1139781 -0.38844183 0.5251566 -0.27078867 0.11793819 -0.16117488 0.17450424
-0.025063558 0.107843965 0.22353926 0.11475376 0.6453202 -0.26412925 -0.052033257 -0.13112599
-0.16389441 0.30151016 -0.00623922 0.029724814 -0.4642889 -0.042038817 -0.118546784 -0.17735565
0.09621203 -0.11394805 0.2778969 0.22739352 0.20395175 -0.0363508 -0.046815764 0.11920497
-0.3079646 -0.38446766 -0.17849168 -0.12760933 0.03259736 -0.2947449 -0.230353 -0.20799717
-0.6193795 0.31141177 0.042627975 -0.0016361919 0.454675 -0.016494807 -0.2500609 0.15295441
0.08480572 -0.1736673 -0.320918 -0.15417914 0.1295673 0.1974164 0.09891816 -0.07222398
-0.17097412 0.08937641 -0.040957484 0.008971766 -0.088374324 0.01465011 0.21237065 -0.1438912
-0.13706928 0.22771026 -0.15889855 -0.36450478 0.1405953 0.20423876 0.07601361 -0.1823452
-0.3242021 -0.104918756 0.009538631 0.066931054 -0.15358384 -0.23000453 0.4476813 -0.2600615
0.2301387 0.042580336 0.03667098 -0.029917886 0.0025532434 -0.07213282 -0.15279008 -0.3086836
-0.19794242 0.06832988 0.04379454 0.27689776 -0.04071019 0.029071042 -0.21079995 -0.056054164
-0.18992002 -0.42622662 -0.3690501 0.08719959 -0.23105012 -0.17707193 0.023907922 0.03878137
0.0017921211 -0.03669096 0.009941364 -0.22482349 0.31483254 0.117235996 -0.20095533 -0.1921455
-0.17139186 0.58521396 0.07793584 -0.037607964 0.121276274 0.2574571 -0.15552844 0.11682558
0.11141717 0.30572954 -0.25199583 0.0027608445 0.14303404 -0.060271494 -0.17709407 0.09063542
0.03885423 0.2862079 -0.29793113 -0.28398576 -0.52089435 -0.26953736 0.17849252 -0.22832757
-0.06910756 0.0021595948 0.000353274 -0.34164637 0.19977179 -0.3273029 -0.44624263 0.039878905
-0.25500643 0.20409347 -0.090889886 -0.15459861 -0.032313664 0.68965626 -0.058897607 -0.24283308
-0.07252281 0.03079778 -0.19221593 -0.28826827 0.18783933 -0.44006318 0.2998875 -0.008875874

actor.init_leaf_node_embed.2.add_bias._bias f4 [64, 1]
00000000: 1ed3 8a3e 0e20 113e f119 293d e38a 233c
00000010: 18f9 39be d3be 653c 186f 55be de2b 8dbe
00000020: 91cd 31be a3f9 2abe 4613 8d3e 56ad 1abe
00000030: 04a0 c83d f5ba b9bd d2e9 d0bd 3e7d 9abd
00000040: 2b84 103e bcef 0fbe 44dc a3be 4f0a 11bd
00000050: 7f93 193d 6837 aa3d f9e3 2e3c e35e 3b3d
00000060: 1aae 703e edac 44bd 427e afbb d6a5 a9bd
00000070: f5fb 2dbe 10ee e73d ca80 12be b944 babc
00000080: 4cd1 e23d 32ba 76bd 219d 1fbe f01f 1b3e
00000090: 7821 683e 20fd 29bd b015 0dbd 6bf6 04be
000000a0: 41a3 763d 0467 febe 9792 3e3e fddf 703d
000000b0: 3dc7 11be 36a8 33bd dd8e 11be a7c6 2cbd
000000c0: 873a 6cbe da17 343d b848 6abd c930 7bbd
000000d0: 6a8c d43d 44ae 27be eab3 3fbe c1c5 d73d
000000e0: 1526 7b3c 442a 6dbe f0e7 443e 2119 8bbe
000000f0: 7181 073e a9bf 06be be0c 903d 03b1 b03c
0.27114195 0.14172384 0.041284505 0.009981844 -0.18161428 0.014022547 -0.2084316 -0.2757253
-0.17363574 -0.16696791 0.27553767 -0.15105185 0.097961456 -0.09068862 -0.10200848 -0.07543419
0.14112918 -0.14056295 -0.32003987 -0.03541022 0.03749418 0.08311349 0.01067447 0.045744788
0.23503914 -0.048016477 -0.0053556273 -0.08283584 -0.16990645 0.11324704 -0.14306942 -0.022737848
0.110750765 -0.060236163 -0.15587284 0.15148902 0.22669017 -0.041501164 -0.03444451 -0.12984626
0.060214285 -0.4968797 0.18610607 0.058807362 -0.1423616 -0.04386159 -0.14214654 -0.042181637
-0.23069201 0.04396806 -0.057198256 -0.061325822 0.10378344 -0.16375071 -0.18720976 0.105357654
0.015328904 -0.23160654 0.19229102 -0.2716761 0.13232972 -0.1315905 0.070336804 0.02156878

actor.init_next_embed.0.module.weight f4 [32, 6]
00000000: ac5a d13d b261 17be d209 99be 5004 00bf
00000010: 464e 7cbe de40 713c 1308 58be 51ff c7bd
00000020: 0851 3f3e 5c37 72be 3b96 df3c 4cd6 73be
00000030: 8d74 b93e 0d16 89be 7bfc 83be 634a 96bd
00000040: 5c60 71be be0a bd3e dcf3 02bc fffb 143d
00000050: 9595 07bd fd28 d93e a4e2 eabe de5a b6be
00000060: 7f0b e13d 5213 d8be 941b febd a2eb 80be
00000070: e097 bdbd d784 23be cf35 bbbc ccc5 13bf
00000080: bf29 913e f6f0 37bf 7be7 02be 2166 173e
00000090: e260 773f 8cc7 d23d 905a 913d ffde 24be
000000a0: c4af d6bc 6df9 c6be 8da7 b3bd c359 c93d
000000b0: b652 153e 6cce a93d 8f18 9dbe af5f 383e
000000c0: 6f97 a6be 7928 17bf 3854 7a3e cf91 993d
000000d0: 45b9 b23f 298a 39bf d573 d73d 8da0 95be
000000e0: 02a6 3abe 20c6 743d e2d6 aebe c60b e2be
000000f0: 9a19 a5be 3678 3a3e 4412 843c 866a ca3e
00000100: b519 8e3e 335d ddbe c5a3 213e a37c efbc
00000110: fb2c b1bc fb88 c73d bf06 0e3c e12d 143e
00000120: 420d b7be 917e 06bd 6350 153e 160e 963c
00000130: bae2 6abe b440 acbe e436 e33d 0aa8 153c
00000140: 5446 fe3d a510 a63d e43e 84be 8087 08be
00000150: d5ae a73f 2d89 69be da14 83be f972 16bf
00000160: 4fc5 33be a433 d73d a191 2ebe 103a 82bd
00000170: 696d 98be 5c6f 23be 7867 02bd fb06 1b3e
00000180: ef01 8ebe cc78 0bbd 7749 e6bd e46f 07be
00000190: d81d d5be 816a c33d c18f 123f 30f0 4ebd
000001a0: 52bc 493e 6a0c 82be c1dd 52bd f48a 133b
000001b0: d542 77bd 3d85 933e 1918 6a3e 668d 01ba
000001c0: bc9f 81bd bb19 873e cd43 6a3f 65fe 793e
000001d0: eba9 b7be 8fb5 8fbe 639a 3b3e 8bab d63d
000001e0: b890 883e 5055 d63c 59e4 14bd e3d7 08be
000001f0: 19e6 82be 6523 2b3e 7456 e1bc e210 58be
00000200: 23e0 37bf 7faf cbbd e31e ffbd 5a0c 06bd
00000210: e8b3 ee3d a445 17be a075 c7bd e74a 083e
00000220: 92c3 b1be 622e 7b3d 40a1 383f 0e27 88be
00000230: 3362 a93e d94f 0bbf 2c8f e03e cc2b da3e
00000240: fa76 bf3f 5fdc cbbd 22d6 3abe 8859 b0be
00000250: 72af febd 7634 da3d 4c33 2e3e b767 923e
00000260: a8c0 83bd e4fd 3fbe c7d6 3ebe 6310 c8be
00000270: 1600 643b 93fe a3be 6c75 393e 7b09 80bd
00000280: 5eb2 66be afa1 a9bc 5cf6 02bf a3c9 c3be
00000290: 824f 41be b0cc 41be bbca 033e 559e 1fbe
000002a0: 001f f33e 6597 523e 0aec 9bbc fd19 abbf
000002b0: e92e 563b aae9 653e ae6d fa3e ab43 6c3e
000002c0: cef5 afbe e06c 4bbf 6304 543c 4c0a 293e
000002d0: 5993 0fbe a4b2 84be ec67 973e 4921 803a
000002e0: e0b0 1dbb e018 71bd 73cc 5e3d 89e3 67be
000002f0: 9db3 f0be 63e6 04be 4128 a6bd d0e4 17bd
0.102223724 -0.14783362 -0.29890305 -0.5000658 -0.24639234 0.014724938 -0.2109683 -0.097654946
0.18683255 -0.2365393 0.027293315 -0.23812217 0.36221734 -0.26774636 -0.25778565 -0.07338407
-0.23571914 0.36922258 -0.007992711 0.036373135 -0.033101637 0.42414084 -0.45876038 -0.356162
0.10988521 -0.4220224 -0.12407604 -0.25179774 -0.092574835 -0.15968643 -0.022852806 -0.5772369
0.28352162 -0.7185205 -0.12783615 0.14785053 0.96632206 0.10291967 0.070973516 -0.16100691
-0.026206858 -0.38862172 -0.08772192 0.09831574 0.14582333 0.08291325 -0.306828 0.1800525
-0.3253741 -0.5904613 0.2444619 0.07498514 1.396279 -0.7247644 0.1052014 -0.29224053
-0.1822739 0.05975926 -0.34148318 -0.44149607 -0.32246095 0.1820992 0.016121991 0.39534396
0.27753988 -0.43235168 0.1578513 -0.029234236 -0.021627894 0.09742924 0.008668601 0.14470626
-0.35752302 -0.032835547 0.14581446 0.018317264 -0.22938052 -0.33643115 0.11094454 0.009134302
0.12415758 0.081086434 -0.25829232 -0.13332939 1.310023 -0.22806235 -0.25601846 -0.58769184
-0.17555736 0.105078965 -0.1704774 -0.06358731 -0.29770973 -0.15960449 -0.031836957 0.15139382
-0.2773585 -0.034050748 -0.11244481 -0.13226277 -0.4162433 0.095417984 0.572506 -0.05052203
0.19700745 -0.25400096 -0.051481012 0.0022513242 -0.06036647 0.2881259 0.22860755 -0.00049420295
-0.06329295 0.26386818 0.91509706 0.2441345 -0.35871825 -0.28068206 0.18320613 0.10481938
0.26672912 0.026163727 -0.03635058 -0.13363604 -0.25566176 0.1671272 -0.027507044 -0.2110019
-0.7182638 -0.099455826 -0.12457063 -0.032726623 0.11655408 -0.1477266 -0.09739232 0.13309823
-0.3471952 0.06132353 0.7212105 -0.26592296 0.33082733 -0.5441871 0.4385923 0.4261154
1.4958184 -0.09954142 -0.18245748 -0.34443307 -0.12435807 0.106545374 0.17011756 0.28594753
-0.06433231 -0.18749195 -0.18636619 -0.39075002 0.003479009 -0.32030162 0.18111199 -0.06251808
-0.22528979 -0.02070698 -0.51157165 -0.38239774 -0.18877986 -0.18925738 0.12870304 -0.15587743
0.4748459 0.20565565 -0.01903345 -1.3367306 0.003268177 0.22452417 0.48911804 0.23072688
-0.34367222 -0.79463005 0.012940499 0.16507834 -0.14021052 -0.25917542 0.29571474 0.0009775545
-0.0024061725 -0.058861613 0.054394197 -0.22645392 -0.47012034 -0.1297851 -0.081131466 -0.037083447

actor.init_next_embed.0.add_bias._bias f4 [32, 1]
00000000: 349e 263e 816e 5a3d 0d13 84bd 74a4 37bd
00000010: a5cb 9b3c 4c64 90be a9fd f23d afbf 8ebd
00000020: 9a3f 60be 6492 a7bc 74ea 08be e10c 9e3e
00000030: 720f 3eba 61ee 183e f6ed c23e 5a34 893e
00000040: cad7 d5bc 2cb8 46be 703e 83be 8ab9 b23e
00000050: d588 b4bd e0a2 643c 4f7e 6fbe a0dc 5ebd
00000060: 3816 813e a7a1 acbd 99c6 04be c403 083d
00000070: a364 413d d6fd 2a3e 8514 2a3e 65de 1d3e
0.16271287 0.05332804 -0.06448946 -0.04483457 0.019018004 -0.2820152 0.11864788 -0.069701545
-0.21899262 -0.020455547 -0.13370687 0.308692 -0.00072502263 0.14934684 0.38072175 0.26797754
-0.026103873 -0.19406193 -0.25633574 0.3490718 -0.08815161 0.013954848 -0.23388027 -0.054409623
0.25212264 -0.0842927 -0.12966384 0.033206716 0.047215115 0.16698393 0.1660939 0.15416868

actor.init_next_embed.2.module.weight f4 [64, 32]
00000000: c0ef ed3d 365a e0bd d363 253c a77b 373e
00000010: 0e09 183e bb35 9f3d bc5f 7abe dd04 6bbe
00000020: 62f8 b9bd cfb3 9f3e c605 a63d c8b9 eebe
00000030: 09e6 c23d 6403 c63e e154 d63d 761d 9cbe
00000040: 0b9e 17be 6021 873d 2c37 8bbc 0b29 60be
00000050: 92b2 823d 9ffb 6fbd 0caf f3be c1c2 d2be
00000060: 4f2d f2be 99dd b33e 3845 31be 68c4 babd
00000070: 5ae3 1f3e 84f7 cb3d 82e3 5c3e 513f e9bd
00000080: b2eb 8f3e ef50 6ebd c1f0 c8bd d750 8bbd
00000090: 1f57 b9bd db93 2bbe b667 8bbd 08f4 fbb9
000000a0: e17f b73e e233 2f3d af3d f43e e943 b13e
000000b0: aac3 b3bc 51a6 5fbd 5ec3 efbd 1da2 11bd
000000c0: 0499 3b3e 12d1 a83c 854c 97bd 870a 113f
000000d0: 5ac6 2e3e c428 ba3c 284b 613d 346d 4cbe
000000e0: e177 f1bd 1b45 5f3e 3136 1abc 5258 9fbe
000000f0: 6ef7 97bd bf1e 2fba 74d8 17bd 9406 67bd
00000100: b5fc 98bd ef6a 173d cd06 4d3e 47aa 0abe
00000110: dba9 84ba 6f24 493e 5bdd f9be 18b4 b3be
00000120: 55db acbe e9c8 0fbe a17a 183d 762b bc3e
00000130: d446 bb3d 3c43 93be abd9 38bf 52d6 163e
00000140: 3935 67be a02f 853d 5427 3f3e ef24 383e
00000150: 028d a1bd ce1a a3bd ce64 69bd 1aad cc3e
00000160: 8f17 c6be e644 c93d 06b8 59be 7222 26be
00000170: 5df6 00bf 42bc 30bf b964 87be 5b49 5bbe
00000180: 56ff 0dbe e121 2a3e 2fac b03e 6e0d c2bd
00000190: 68ec 9ebe 2d2d d13c 44df a9be 7f00 023e
000001a0: f449 c3bc c9ac 723e 8bf8 acbe c33b 5b3e
000001b0: 877a dd3d 36fc 393e 011b 86be 5601 81be
000001c0: b85d 28be 1282 4f3e 7277 fc3c 4b56 b5be
000001d0: cd90 8abc 1156 953d bd56 283e 38c6 373f
000001e0: 44bc b1be 66e0 dcbe 35a7 bfbd 1e65 a7be
000001f0: fea3 a2be 28ff 43be ad1d 923d 57ed 52be
00000200: 999a 4cbe 8d76 c5be e13e d9bd 1c8c 7b3e
00000210: f537 ef3d b296 2bbe 1e10 78bd fae9 a8bd
00000220: 8ad8 e23d 6272 fdbd bb22 7ebe c698 7a3d
00000230: cad8 05bd 3b21 2a3d 8425 313e e59b 2e3b
00000240: b735 273e cb1d 1b3e 4b5a 19be a00b a2be
00000250: 9418 30be 4b6b c23d 029a 1f3e 0538 563d
00000260: 683e 7b3e 30cb c1bd 30af e43e c5b8 4e3e
00000270: 1544 76be d6e6 05be 8529 8abd aa5d 653d
00000280: 14bd 2d3d 0d52 f4bc f2c9 ae3d 1c22 e3bd
00000290: bdcd ad3e 7bb6 503e bf55 723d 3c3a 103e
000002a0: 0844 0a3e b406 5b3e b80d 1c3d 40bd 383f
000002b0: fbb5 293d 449d 213e be54 77bd d6fc 0d3f
000002c0: aa8f f6bc d3d9 a43e 06f8 e43d 9734 693f
000002d0: bbd0 343d f5ff 09bd feab 843e c7f8 553e
000002e0: eb3d f93e 4abf acbd 71bf 8c3d 1124 b23e
000002f0: c5a3 1fbe f86a 98be 4f92 8d3e 72ae 13be
00000300: 8196 8c3d 5521 333e 374f 8e3c c887 363e
00000310: dd4a 95bd 6bd2 e43c dbd8 6fbe e9b1 a6be
00000320: fba7 343e da0a 653e 3af5 903d ea91 7e3e
00000330: f0dc cb3c 7a81 893b 5822 cbbd bfe7 9bbd
00000340: ac99 b3bc dd12 2b3e 449e 59be 35e9 ec3b
00000350: d4a4 4f3e aa03 8bbe 834a 2c3e a5b8 2f3e
00000360: 61d6 20be 150e 943d 7624 213d b535 67be
00000370: 95fa 14be a7c2 f7bd 68b3 163e 8ae8 94be
00000380: 0726 9cbe e11a 2b3d 19f8 b4be 401f af3c
00000390: 083f 653e 993c 95be ba49 07be 0f54 49be
000003a0: 9de8 bf3c cc0f 06bd 4f42 b83e 2486 b43e
000003b0: c5d8 c13d 4066 293e 6e59 e43e 1f21 fc3e
000003c0: 3562 823d ccdf b13e f393 4d3e 4eb1 b73e
000003d0: 4806 acbe 8d6f 603c cdd1 27be 2769 313f
000003e0: 30ea f33e d64a bc3c 2b99 c03d f3e9 c6bd
000003f0: 1d62 0a3d 23fa 883e 7f59 ba3d 3455 b93e
0.11617994 -0.10954706 0.010094601 0.17918263 0.14847204 0.0777392 -0.24450582 -0.22951074
-0.090805784 0.3119187 0.0810657 -0.46626115 0.09516532 0.38674462 0.10465408 -0.30491227
-0.14806382 0.06598163 -0.016994081 -0.21890657 0.06381716 -0.058589574 -0.47594488 -0.4116421
-0.47300193 0.35130003 -0.17311561 -0.09119493 0.15614071 0.09959319 0.21571162 -0.1138903
0.2810951 -0.058182653 -0.09811545 -0.06802528 -0.0904982 -0.16755621 -0.06806891 -0.00048056268
0.3583975 0.04277409 0.4770331 0.34622124 -0.021943886 -0.05460197 -0.11707185 -0.035554994
0.1832009 0.020607505 -0.07387642 0.5665669 0.17067853 0.022724517 0.055003315 -0.19963533
-0.11790443 0.21803705 -0.009412334 -0.3112207 -0.0742024 -0.0006680302 -0.03707166 -0.056402758
-0.07470075 0.036967214 0.20022126 -0.13541518 -0.0010121422 0.19642805 -0.48801693 -0.35098338
-0.33761087 -0.14041485 0.037226323 0.36751908 0.09144369 -0.28762233 -0.72207135 0.14730194
-0.22578897 0.065032244 0.18667346 0.17982839 -0.07888223 -0.07964097 -0.0569809 0.39975816
-0.3868985 0.098275945 -0.21261606 -0.16224077 -0.5037592 -0.6903726 -0.26444033 -0.21414702
-0.13866934 0.16614486 0.34506366 -0.09475218 -0.3103974 0.025534237 -0.3317815 0.12695502
-0.023838975 0.23698725 -0.33783373 0.21409516 0.10814386 0.18162617 -0.26192477 -0.25196332
-0.16442001 0.20264462 0.030818675 -0.354174 -0.01691475 0.072918065 0.16439338 0.7178683
-0.34713948 -0.43139952 -0.09358064 -0.32694334 -0.3176574 -0.19140303 0.071345665 -0.2059835
-0.1998085 -0.3856701 -0.10607696 0.24565166 0.11680595 -0.16756704 -0.060562246 -0.082477525
0.11076458 -0.123753324 -0.24817936 0.061180852 -0.03267745 0.041535597 0.17299467 0.0026643213
0.16329084 0.15148084 -0.1497585 -0.31649494 -0.17196876 0.09493121 0.15586093 0.05229952
0.24535525 -0.09462583 0.44664907 0.20187671 -0.24049409 -0.13076338 -0.067462005 0.055997528
0.042416647 -0.029824281 0.08534612 -0.1109049 0.33946028 0.20382111 0.059163805 0.14084715
0.13502514 0.21389276 0.03809902 0.7216377 0.041433316 0.15782648 -0.06038355 0.5546392
-0.030097801 0.32197437 0.11180119 0.9109587 0.044144373 -0.033691365 0.2591247 0.20895682
0.48680052 -0.08434923 0.06872452 0.3479314 -0.15589817 -0.2976911 0.27650687 -0.14422014
0.06864644 0.17493184 0.017371757 0.17825234 -0.0728967 0.027932366 -0.23422568 -0.3255761
0.17642204 0.22367421 0.07078023 0.2486035 0.024885625 0.004196343 -0.0991866 -0.076125614
-0.021923862 0.16706415 -0.2125178 0.007229949 0.2027772 -0.27151233 0.16825299 0.1716028
-0.15706779 0.072292484 0.039341412 -0.22579081 -0.14548714 -0.12097674 0.14716876 -0.29083663
-0.30497763 0.04177368 -0.35345533 0.021377206 0.22387326 -0.29147795 -0.13211718 -0.19660972
0.023426348 -0.03272991 0.3598809 0.3525859 0.09465174 0.16542912 0.4459948 0.4924402
0.06366388 0.34741056 0.2007597 0.3587746 -0.33598542 0.013698471 -0.16388626 0.69301075
0.47639608 0.022984903 0.094042145 -0.09712591 0.033784974 0.2675334 0.09099101 0.36197817

actor.init_next_embed.2.add_bias._bias f4 [64, 1]
00000000: 02e5 efbe cd9b 9dbe cd97 aabe 4312 c8be
00000010: b36c 3e3d dd74 943f caf5 8bbe 61dd 243f
00000020: c3ec 873f 20fa 19bf ed1f 2bbf 8a99 2f3e
00000030: 62d4 973f 06fa 90bf fbaf 81bf 4742 2fbf
00000040: 5da2 60bf 34a1 4e3f 3258 183f 28d4 0cbe
00000050: 0488 3abe d49e b3be fda8 a6bf 774a 133f
00000060: 9057 0ec0 91ec 53bf e425 6ebe 294a 80bf
00000070: cefc fd3e 03ba 8a3e ff08 1ebf ca18 41bf
00000080: 7c64 43be cb9e 513f 42e8 80be 4bf1 a5be
00000090: 7cac b73f 918b 2a3f 86b4 adbe 79f2 1c3f
000000a0: ab21 d2bf 17ca 8c3f c270 d2be 73e4 c4bf
000000b0: 1e2c ec3e a882 ab3f 8f0d 5a3f 0eef 2a3f
000000c0: 3129 d2be 81ea ad3e 4658 383f 1c41 f13e
000000d0: 20d3 c53e 9a18 94bd e3ef f7bd 9fb5 19bf
000000e0: c6ee f23d 9995 173f e004 f5be 7532 bf3e
000000f0: 66b9 c53e a24d 493f 3a92 32bd 327a 393e
-0.46854407 -0.3078293 -0.3331894 -0.39076433 0.046490382 1.1598164 -0.2733596 0.644003
1.0619129 -0.60147285 -0.6684559 0.17148414 1.1861689 -1.1326301 -1.013183 -0.68460506
-0.87747747 0.80714726 0.59509575 -0.13752806 -0.18215948 -0.35082114 -1.3020321 0.575355
-2.2240944 -0.82782847 -0.23256642 -1.0022632 0.49606937 0.2709504 -0.61732477 -0.7542845
-0.190813 0.81882924 -0.251772 -0.32410654 1.4349513 0.6661921 -0.3392679 0.61307484
-1.6416525 1.0999173 -0.41101652 -1.5382217 0.4612741 1.3399248 0.8517694 0.6677102
-0.41047052 0.33967975 0.72009695 0.47119987 0.38637638 -0.07231255 -0.12106302 -0.60042757
0.11861949 0.5921264 -0.47855282 0.37343183 0.3861801 0.78634083 -0.043596484 0.1811302

actor.embedder.layers.0.0.module.W_query.weight f4 [64, 64]
00000000: e3ea a03c 707f 83bd 007d 153e 1a27 1fbe
00000010: cc33 373d 929b e6bd 4922 a4bd f272 8abb
00000020: aec4 283e 6e24 0cbe f558 093e 0f91 623b
00000030: c8ad 373d 5237 b73c be35 e83c 02f3 4cbb
00000040: 8890 343d ebfd 5e3d 9c23 edbb 21c6 cf3d
00000050: 05dc e33c 8b64 a7bd 0f84 fa3d f8f2 553e
00000060: ade7 41be 2896 1f3e 8021 843d 72ec e8bc
00000070: cf2e d43c 59cd 3c3e 2c72 bbbb 8e90 113d
00000080: 1bee c03d 40de 1ebc 1ea9 44be 8ccf 023e
00000090: f571 8fbb 7022 d53d 4b52 d03d 8b2f 08bd
000000a0: d402 df3d 3268 1b3d 3fbc ccbc 65eb 163e
000000b0: aab5 a7bd efca eabd 692f 273e fd4a 84bd
000000c0: 318e 9dbd c52c d83a d8f5 2abd 929b d6bd
000000d0: f6c6 f0bd 6786 023d 70b5 773d 5aa7 82bd
000000e0: 154c c73d bf2b fabd 1e37 1d3e 8782 16bd
000000f0: 4030 8cbd 3372 aabd 5c98 72bd d961 f6bc
00000100: d62e a0be 2ecb 22be d0d2 0bbe 85b0 eabd
00000110: 9023 0dbd a9d5 22be fc12 213e 6d14 643e
00000120: 3c8a 773e 31eb bd3d e073 25be c9c2 2fbd
00000130: 0c83 3b3e b6bc 183d 1de0 2abc c45a 1abb
00000140: 8d06 cfbd d072 173e 76a0 8b3b 6ab7 8a3e
00000150: 4ea5 343d b786 f8bd 1b6d 92bd 7b1e 58be
00000160: 41a0 4dbe bd04 e7bd a822 423e 53a3 533d
00000170: 9009 f93d b67f 05be f527 123e a273 bebc
00000180: 0d60 35be 4625 d7bd 0062 5c3d 44ca 86bd
00000190: e6dc aebd f8e3 1fbe 29f3 25be b4b1 c9bd
000001a0: 991c 30be 2127 973e aee1 40be f306 d03c
000001b0: 29b0 413e 4eb6 b1bd a223 ebbc 4f77 143e
000001c0: fe97 4a3e 0c27 abbd af09 9dbd b682 45be
000001d0: af01 1fbe 5624 0a3e b466 81bc 2ddb 50be
000001e0: 6496 1abe 298c ab3e 67a5 49be 761f ab3e
000001f0: 6baa c0bd b3cc 3e3e 45d8 32be ff6a 023e
00000200: 8d7b 82be 146a a2bc a0c3 483c 7785 7a3d
00000210: a15d 043e 4969 4dbd 8a11 37bd d42a 6a3d
00000220: 0ce2 583c d679 953d 54d9 76bd 3935 5cbd
00000230: a5e6 d63d 93f3 863d 1645 423d bd52 0b3e
00000240: c5bc 033c 42d0 023e 643d e43d bfd8 993d
00000250: 5c09 d13d 4f3f b83c f673 d0bd 8364 e4bd
00000260: 606a a7bd 1e00 8abd 9f99 8e3d daa0 31bd
00000270: a8a6 a33a 5090 cbbc 194e 68bc 9bde 86bb
00000280: 9dee 36bd aa88 7bbd 5d07 27bb 34ca c63c
00000290: 99fb 923d 7442 2c3d a902 cd3c fcda 873c
000002a0: 0945 0c3d b59b c83d b376 81bc ec8a c83c
000002b0: d476 9b3d 868d c8bd 76c3 4a3e c40e 343e
000002c0: ad31 2dbd 98a5 14bd 760f 163d 39a2 8b3b
000002d0: 6c46 82bd 0f0d 563d d72c 003c 0b9d 923c
000002e0: 4b66 2bbd 4b76 a93d 07fa 92bd 9480 b9bc
000002f0: 3c33 06be d8f8 6e39 ac80 bfbd f1e7 7abd
00000300: 4519 80bd 5d3a 8d3d d116 29bd 4639 e63d
00000310: 5f98 d03d a0f7 2a3e d71c 403d 2afb c9bd
00000320: 968f 74bc 6bea f83b b5be 88bd 0b9c 1ebd
00000330: 9f57 2dbe 4044 193d fe62 a33c f915 433d
00000340: 8843 adbc 1626 f13c 4b0a 3c3b 2eee 943d
00000350: ae96 0ebe 159f 603d 9884 efbb 041a 21bd
00000360: b8b8 89bc fdd8 203d c99c a5bd 30f0 d93d
00000370: c90a 9a3d 40c4 38bd 095e a73d 3091 32bd
00000380: 7ee1 eabc dd20 19bd be97 65bc 8b51 2b3e
00000390: ade0 0fbd f348 543d c08e 063d 4dc8 6bbc
000003a0: 2c1c 04be 5af7 903d d3f2 2d3e c94a 3ebd
000003b0: f171 a03d 13c0 dfbd 3c6d cd3c 20ce 79bd
000003c0: 4a85 01bd e121 233d 90df a43d b8dc cabc
000003d0: cd18 383e 7d49 a83d e5f1 bd3d 4d14 633d
000003e0: 264b 303e 1917 cdbd 9ff4 51bd 225f 51bd
000003f0: 1e43 efbd 6c91 9bbd 6ea8 19ba 515a b5bd
0.019643253 -0.06420791 0.14598465 -0.1554226 0.04472713 -0.112601414 -0.08014352 -0.0042251283
0.16481277 -0.13685772 0.1341284 0.0034571325 0.044843465 0.022365246 0.028345939 -0.0031272774
0.04408315 0.054441374 -0.007236911 0.10145212 0.027814874 -0.08173474 0.122322194 0.20893466
-0.18936034 0.15584624 0.06451702 -0.028433058 0.025901226 0.18437709 -0.0057203975 0.03553825
0.09420415 -0.009696543 -0.19205138 0.12774485 -0.0043775984 0.10406959 0.10171946 -0.033248466
0.10889211 0.037941165 -0.024992106 0.14738233 -0.081889465 -0.11464488 0.1632668 -0.064596154
-0.076931365 0.0016492835 -0.04173836 -0.104788914 -0.11756699 0.031866457 0.060475767 -0.06379576
0.09731308 -0.12215375 0.15353057 -0.036745574 -0.068451405 -0.08322563 -0.059227332 -0.030075954
-0.31285733 -0.1589782 -0.13654637 -0.1145945 -0.034457743 -0.15901817 0.15729898 0.22273417
0.24173826 0.09273375 -0.16157484 -0.04291037 0.18311709 0.037289344 -0.010429409 -0.0023552636
-0.10108671 0.14789891 0.004261072 0.2709306 0.04410296 -0.1213507 -0.071497165 -0.21105377
-0.20080663 -0.11280201 0.18958533 0.05166943 0.12160027 -0.13036999 0.14273055 -0.023248497
-0.17712422 -0.10505156 0.053804398 -0.06581548 -0.08538227 -0.15614307 -0.1620604 -0.09848347
-0.17198409 0.2952204 -0.1883609 0.025393939 0.18914856 -0.0867735 -0.028703514 0.14498638
0.19784543 -0.08357057 -0.076678626 -0.19288144 -0.15527986 0.13490424 -0.015796043 -0.20396109
-0.15096432 0.3350537 -0.19692002 0.3342244 -0.09407505 0.18632774 -0.17465313 0.12736128
-0.25484887 -0.019825973 0.012253672 0.06116244 0.12926342 -0.050149236 -0.04469446 0.05716975
0.0132374875 0.07298629 -0.060265854 -0.053761695 0.10493211 0.06589427 0.047429167 0.13605781
0.008040612 0.12774757 0.11144522 0.07512044 0.10206863 0.022491125 -0.10178368 -0.111519836
-0.08174586 -0.067383036 0.06962895 -0.04336629 0.001248558 -0.024849087 -0.014178776 -0.004115892
-0.044661153 -0.06140963 -0.0025486567 0.02426634 0.07176895 0.042055562 0.025025683 0.016583912
0.034245525 0.09795324 -0.01580367 0.024480306 0.07591024 -0.097926185 0.19801125 0.17583758
-0.042283703 -0.036290735 0.03663584 0.004261282 -0.06361088 0.052258547 0.007823191 0.01789715
-0.0418456 0.08274516 -0.07176595 -0.022644319 -0.13105482 0.0002279015 -0.09350714 -0.061256353
-0.0625482 0.068958975 -0.041281525 0.11241393 0.101853125 0.16696024 0.046902504 -0.09862359
-0.014926812 0.007596304 -0.066769995 -0.038723033 -0.16927956 0.037418604 0.019944664 0.047628377
-0.021150365 0.029437106 0.0028692659 0.07271992 -0.13924667 0.054839212 -0.0073095076 -0.03933145
-0.016811714 0.039269436 -0.08086545 0.10641515 0.07521588 -0.045109034 0.08172233 -0.043595493
-0.028671976 -0.037384856 -0.014013229 0.16730325 -0.035126377 0.051827382 0.03285098 -0.014391017
-0.12901372 0.070784286 0.16987161 -0.04645804 0.078342326 -0.10925307 0.025076501 -0.06098759
-0.031621255 0.03982723 0.08050454 -0.02476345 0.17978211 0.08217142 0.09274653 0.055439282
0.17216167 -0.10014171 -0.05125868 -0.051116116 -0.116827235 -0.075960964 -0.0005861585 -0.08855117
