logs/experiment/Discrete_A2C_1-5Box_10x10x10Bin-2022.08.09-15-00-00/PCT-Discrete_A2C_1-5Box_10x10x10Bin-2022.08.09-15-00-00_2022.08.09-19-03-11.pt (torch, 236314 bytes, 24 tensors)

actor.init_internal_node_embed.0.module.weight f4 [32, 6]
0	0xbefcc449	-0.49368504
1	0x3cba031e	0.022706565
2	0xbf1cee7e	-0.6130141
3	0x3d095f88	0.03353837
4	0xbe43bf0b	-0.19115846
5	0xbc685406	-0.014180189
6	0xbda2e5ce	-0.07953988
7	0x3e17b525	0.14815195
8	0xbeb24bdb	-0.34823498
9	0xbe899b43	-0.26876268
10	0xbebaccb8	-0.36484313
11	0xbed64c56	-0.41855115
12	0xbddfdb8d	-0.10930548
13	0x3d8c9017	0.068634205
14	0x3e43d99f	0.19125985
15	0x3e7d173e	0.24715897
16	0x3dc9e059	0.09857244
17	0xbf2caadb	-0.67448205
18	0x3eae424a	0.3403495
19	0xbe783a1e	-0.2424092
20	0x3e9bdbeb	0.30441222
21	0xbf09c1a2	-0.53811085
22	0xbd9a1052	-0.07522644
23	0x3f20ba0b	0.6278388
24	0xbda3961e	-0.07987617
25	0xbec23dfb	-0.37937912
26	0x3e33116f	0.17487119
27	0x3d93b5ab	0.07212385
28	0x3e920bd4	0.2852465
29	0x3f5030b7	0.8132433
30	0xbca85db3	-0.020552492
31	0x3d3ea03b	0.046539526
32	0x3e6f28a2	0.23355344
33	0x3c2642c5	0.010147755
34	0xbd710d8b	-0.058850806
35	0xbe73cd58	-0.23808801
36	0x3f96ad5e	1.1771657
37	0xbea92a01	-0.3303986
38	0xbf55f939	-0.8358341
39	0xbfaa3af4	-1.3299241
40	0x3f15d073	0.58521193
41	0x3f384aa9	0.7198892
42	0xbeb35230	-0.35023642
43	0xbeb3e5f3	-0.35136375
44	0x3d682fb6	0.056686126
45	0xbe64bd7a	-0.22337905
46	0x3e94256c	0.289348
47	0x3f173c43	0.5907633
48	0xbe03e814	-0.128815
49	0x3eda74fd	0.4266738
50	0x3f1db005	0.6159671
51	0xbe379055	-0.17926152
52	0xbe83448e	-0.2563824
53	0x3e9f1350	0.31069422
54	0x3ece9522	0.40348154
55	0xbd95c76a	-0.07313426
56	0x3f075d2a	0.5287653
57	0xbd95ba07	-0.073108725
58	0xbd6c97a7	-0.057761814
59	0xbd06ffbc	-0.03295873
60	0xbed881df	-0.42286584
61	0xbe9b455f	-0.30326363
62	0xbeb85a74	-0.3600651
63	0x3ef23959	0.47309378
64	0x3e8c254a	0.273722
65	0xbe85c33f	-0.26125523
66	0xbde4b9c1	-0.11168242
67	0x3f25637e	0.6460494
68	0xbee0aad5	-0.43880334
69	0x3e12339b	0.14277498
70	0xbf243441	-0.64142233
71	0x3ee3d3d4	0.4449755
72	0x3ebc24a8	0.36746716
73	0xbf14491d	-0.5792406
74	0xbe79153c	-0.24324507
75	0x3e4a33d1	0.19746329
76	0xbe882953	-0.26594028
77	0x3e3395a4	0.17537552
78	0x3e288e63	0.16460566
79	0x3e82b9a1	0.2553225
80	0xbd8c9c58	-0.06865758
81	0xbe8beda8	-0.27329755
82	0xbd47ee3a	-0.048811175
83	0xbe149fed	-0.14514132
84	0x3e855375	0.26040235
85	0xbba05b3e	-0.0048936894
86	0x3bb48b85	0.005509796
87	0xbe1b808d	-0.15185757
88	0xbb96c85b	-0.004601521
89	0x3d0d33f7	0.034473386
90	0x3eb04dba	0.344343
91	0xbdfbe4c0	-0.1229949
92	0x3ea40638	0.32035995
93	0xbe762a3e	-0.24039552
94	0xbe45f0dc	-0.19330162
95	0x3e7a5fa9	0.24450554
96	0xbf0204a3	-0.50788325
97	0xbf0caf68	-0.5495515
98	0xbec04b61	-0.3755751
99	0xbecf1346	-0.40444392
100	0xbe14e7a8	-0.14541495
101	0xbe969630	-0.2941146
102	0x3c31f529	0.010861673
103	0x3e200ce8	0.15629923
104	0x3ea7a488	0.32742715
105	0xbda0502c	-0.078277916
106	0xbcadc89f	-0.021213828
107	0xbc36e7ff	-0.011163711
108	0xbdd2efac	-0.1029962
109	0xbf2e20bb	-0.6801869
110	0xbf25cf70	-0.6476965
111	0xbd764730	-0.060126483
112	0xbe313b36	-0.17307743
113	0xbe2d203d	-0.16906829
114	0x3e6386b2	0.22219351
115	0xbdbd79d1	-0.0925175
116	0xbf464e62	-0.7746335
117	0xbd74e19e	-0.059785478
118	0xbd9ce808	-0.07661444
119	0x3ec0eccb	0.3768066
120	0x3b75b2bb	0.0037490565
121	0xbe5347d7	-0.20632873
122	0xbc8782ae	-0.016541805
123	0xbedf901c	-0.43664634
124	0xbf29e627	-0.6636681
125	0x3dc6d3f9	0.09708399
126	0xbdba6cf9	-0.09102816
127	0xbebe826b	-0.37208876
128	0xbf245a28	-0.6420007
129	0x3dad81ef	0.084720485
130	0x3e8af488	0.27139688
131	0x3f1cff1d	0.6132677
132	0xbebb7154	-0.366099
133	0x3ca1e892	0.019764218
134	0xbf468394	-0.7754452
135	0x3ea97df8	0.3310392
136	0x3efd8d62	0.4952193
137	0x3bbcb2d0	0.005758621
138	0x3dc190b9	0.09451432
139	0xbd1c5330	-0.03816527
140	0xbee00186	-0.43751162
141	0xbe1ec0d2	-0.15503243
142	0xbedde520	-0.4333887
143	0xbf0ede7e	-0.55808246
144	0x3e23f760	0.16012335
145	0xbe1ab769	-0.15109028
146	0x3f3f1381	0.74639136
147	0xbc1e572f	-0.009664341
148	0x3e0522fe	0.1300163
149	0xbde16a50	-0.110066056
150	0x3d96cd33	0.073633574
151	0xbe7944fe	-0.24342725
152	0xbf0ac266	-0.5420288
153	0x3e61d8b0	0.22055316
154	0x3ec0238f	0.3752713
155	0xbe095a5e	-0.13413379
156	0x3f0f11b0	0.55886364
157	0x3d6006c5	0.054693956
158	0x3e4152c9	0.18879236
159	0x3e5ea876	0.2174395
160	0xbe3d369f	-0.18477868
161	0xbe679b3a	-0.22617808
162	0x3eaffee9	0.3437417
163	0x3cae8170	0.021301955
164	0xbe72825a	-0.23682538
165	0x3eea82cd	0.45802918
166	0x3db3c15a	0.08777113
167	0xbde4fbf8	-0.11180872
168	0xbddc8e35	-0.10769311
169	0xbe6e1145	-0.23248775
170	0x3e0f3ed0	0.13988805
171	0x3f0c0ae2	0.54704106
172	0x3f018df9	0.5060726
173	0xbf53a3b3	-0.8267166
174	0x3e693224	0.22773033
175	0xbe5b95a6	-0.21443805
176	0xbed38579	-0.4131277
177	0xbd6087a8	-0.054816872
178	0x3d5f3f8e	0.05450397
179	0x3b928875	0.0044718334
180	0xbeabc092	-0.33545357
181	0xbec5a967	-0.38605806
182	0x3faf83f7	1.3712147
183	0xbdab0f8a	-0.08352573
184	0xbe79213d	-0.24329086
185	0x3d9e1f59	0.07720823
186	0x3e5ad91f	0.21371888
187	0x3dcd3ecf	0.100217454
188	0xbd99af0a	-0.07504089
189	0x3da02104	0.07818797
190	0xbe3631ce	-0.17792436
191	0xbdf7bd76	-0.12096684

actor.init_internal_node_embed.0.add_bias._bias f4 [32, 1]
0	0x3c1cd48a	0.009572158
1	0xbe8b39b3	-0.2719246
2	0xbbba6107	-0.005687836
3	0xbcaf7391	-0.021417411
4	0x3e159e0e	0.14611074
5	0x3d1e28fa	0.038613297
6	0x3bcbefd7	0.0062236595
7	0xbc040862	-0.008058639
8	0x3d351c77	0.0442166
9	0x3dd7b692	0.105328694
10	0x3bbc89e9	0.005753745
11	0x3c889cf2	0.0166764
12	0xbb155f3e	-0.0022792364
13	0xb9188975	-0.00014547056
14	0xbc5a33bc	-0.0133179985
15	0x3cf34a4e	0.029698517
16	0xbe9ec356	-0.31008404
17	0xbd75a7d3	-0.059974503
18	0x3cf9bd9d	0.030485922
19	0x3aef1dc3	0.0018243123
20	0xbe7a6deb	-0.24455993
21	0x3d6b2450	0.057407677
22	0x3d500380	0.050784588
23	0x3df24a2b	0.11830553
24	0x3d0a0b56	0.033702217
25	0x3b52efc9	0.003218638
26	0x3be10e05	0.0068681263
27	0x3d920ff7	0.07131951
28	0x3cdd17d2	0.026988897
29	0xbd42ce9b	-0.047560316
30	0x3d8fb11f	0.07016205
31	0xbd8ee311	-0.06976903

actor.init_internal_node_embed.2.module.weight f4 [64, 32]
0	0x3dd5e835	0.104446806
1	0x3e36c296	0.17847666
2	0xbdec186c	-0.115280956
3	0x3e248a68	0.16068423
4	0x3b1cb4af	0.0023911407
5	0x3deae11c	0.114687175
6	0x3e199868	0.14999545
7	0x3f1042ca	0.5635191
8	0x3e883bf2	0.26608235
9	0xbe07e387	-0.13270389
10	0x3f50910b	0.8147132
11	0x3deaaa04	0.11458209
12	0x3d6b568e	0.05745559
13	0xbe5edf97	-0.2176498
14	0xbf2fca34	-0.6866791
15	0x3e9f7a70	0.311481
16	0xbc89e423	-0.016832417
17	0x3e43d49e	0.19124076
18	0x3cea6027	0.028610302
19	0x3e6a4893	0.22879247
20	0xbe6476d6	-0.22310957
21	0x3e3fadcc	0.18718642
22	0x3f8d4060	1.1035271
23	0xbd4a7e5a	-0.049436904
24	0x3f0f041a	0.55865633
25	0x3e795d3e	0.24351975
26	0x3e07b3a2	0.13252118
27	0x3e8d6959	0.27619436
28	0x3e3b13c6	0.18269262
29	0xbc521271	-0.01282178
30	0xbe13a1c7	-0.14417182
31	0xba25023b	-0.0006294583
32	0x3eab5048	0.33459687
33	0x3daf2d89	0.08553607
34	0xbf08e607	-0.53475994
35	0xbf0b0440	-0.5430336
36	0xbd473d24	-0.048642293
37	0x3e8e39f7	0.277786
38	0x3d8f1924	0.06987217
39	0xbec4c9bb	-0.38435158
40	0xbe70c82f	-0.23513864
41	0x3e45666c	0.19277352
42	0x3eee0291	0.46486333
43	0x3e27fec7	0.16405784
44	0x3eabed49	0.33579472
45	0x3d586a4c	0.052835748
46	0xbd183aa0	-0.037165284
47	0x3e85cdf9	0.26133707
48	0xbd67c339	-0.056582663
49	0xbcb4d076	-0.022072058
50	0xbde9d6cb	-0.11417922
51	0xbe00611a	-0.12537041
52	0x3d225f51	0.039641682
53	0x3ea33a44	0.3188039
54	0x3f715aa9	0.9427896
55	0x3eb779f3	0.35835227
56	0xbe204c09	-0.15654005
57	0x3dc00536	0.09375994
58	0x3c2246b0	0.0099045485
59	0x3d986c3f	0.07442521
60	0x3f2d03f4	0.67584157
61	0x3e5c91dc	0.21540016
62	0x3db731f3	0.08945074
63	0xbca7a230	-0.02046308
64	0xbe8ff162	-0.28113848
65	0xbc16be6b	-0.009200673
66	0x3f073b81	0.5282517
67	0x3f14804a	0.58008254
68	0x3f109b2a	0.5648676
69	0xbc966fc4	-0.01836384
70	0xbea04236	-0.31300515
71	0x3f899730	1.0749264
72	0xbe4bc9bf	-0.19901179
73	0xbe87eae8	-0.26546407
74	0xbef70c39	-0.48251513
75	0xbf326369	-0.6968294
76	0xba69011a	-0.0008888409
77	0x3e6a7ead	0.22899885
78	0x3eea1fbc	0.45727336
79	0xbf098a70	-0.53726864
80	0xbdccd88f	-0.10002243
81	0x3db228b6	0.08699171
82	0x3cfb20f3	0.03065536
83	0xbed3e370	-0.4138446
84	0xbd0a3d43	-0.03374983
85	0x3eef3299	0.4671829
86	0xbdb14406	-0.086555526
87	0xbe8cfb3b	-0.27535424
88	0xbd1e88a0	-0.038704515
89	0xbd87667e	-0.06611346
90	0x3df957ef	0.12174975
91	0x3d10aefd	0.03532313
92	0x3e4cc8af	0.1999843
93	0xbe242754	-0.16030627
94	0x3e5bab33	0.21452026
95	0x3dd76b46	0.10518508
96	0xbccd57dc	-0.025066309
97	0xbe6059e5	-0.21909292
98	0xbc9aa63f	-0.0188781
99	0x3eda6998	0.42658687
100	0x3de58c06	0.11208348
101	0x3c2f3e8e	0.010696067
102	0x3d33e4bf	0.04391932
103	0x3e1d54f8	0.15364444
104	0x3d531d23	0.05154146
105	0xbbd5f58c	-0.0065295156
106	0x3da9f30d	0.082983114
107	0xbd1e2734	-0.038611606
108	0xbe949012	-0.29016167
109	0x3d6c73f6	0.057727776
110	0xbeac88ae	-0.33698028
111	0x3bf136a8	0.007361252
112	0x3de0daee	0.109792575
113	0xbe9e9209	-0.3097079
114	0x3e0748ec	0.13211411
115	0x3dc3abf5	0.095542826
116	0xbe84fa3e	-0.2597217
117	0x3f19341f	0.59845155
118	0xbe1da64f	-0.15395473
119	0x3e9169b8	0.2840097
120	0x3e598c2a	0.21244875
121	0xbc3e4068	-0.011612035
122	0x3e13f315	0.14448197
123	0x3eb80947	0.35944578
124	0x3de9d4cc	0.11417541
125	0xbd7e860e	-0.062139563
126	0xbed73468	-0.4203217
127	0x3e42692a	0.1898543
128	0x3ea58b77	0.32332966
129	0xbdece528	-0.115671456
130	0xbe466e07	-0.1937791
131	0x3db9022c	0.090336174
132	0xbf1756c2	-0.59116757
133	0xbdb505e7	-0.088390164
134	0x3ed162ab	0.4089559
135	0xbf0a11e8	-0.5393357
136	0xbf0d7e9d	-0.5527132
137	0x3ef01bb7	0.46896145
138	0x3ecc1213	0.3985754
139	0x3eb780ff	0.35840604
140	0xbdaa49ee	-0.08314882
141	0xbe547359	-0.20747127
142	0x3e7d18ba	0.24716464
143	0xbde0fddf	-0.10985922
144	0x3b84c77d	0.004052101
145	0xbdc2d5de	-0.09513448
146	0x3b740373	0.0037233501
147	0x3d2cc572	0.042180486
148	0xbe12a475	-0.14320548
149	0x3ec3ea5a	0.38264734
150	0x3e3eb6a4	0.1862436
151	0x3aff4803	0.0019476417
152	0xbe4da62e	-0.20082924
153	0x3e862595	0.26200548
154	0x3eae6529	0.34061554
155	0x3e09f745	0.13473232
156	0x3f1207da	0.5704323
157	0x3d21cd24	0.039502278
158	0x3e2309cd	0.15921707
159	0xbe0cba56	-0.13742957
160	0xbe9a1e25	-0.30101123
161	0xbddbb672	-0.10728158
162	0xbcc63903	-0.024197107
163	0x3cefec49	0.029287474
164	0x3f63e54f	0.8902177
165	0xbe8891e9	-0.2667382
166	0xbe7c8ef0	-0.24663901
167	0x3ec07c99	0.3759506
168	0x3e3691b7	0.17829023
169	0xbdc89d4e	-0.097956285
170	0x3f59e2ef	0.851119
171	0xbeca76d0	-0.39543772
172	0xbbd47217	-0.006483327
173	0xbe3f81d5	-0.1870187
174	0x3cc301a7	0.023804499
175	0x3e93318a	0.28748733
176	0x3e5a6be4	0.2133022
177	0x3e574080	0.21020699
178	0xbda4d3d2	-0.08048214
179	0xbc0182d8	-0.007904731
180	0xbd123f8f	-0.035705145
181	0x3db8c07b	0.09021088
182	0x3ecf23de	0.40457052
183	0xbf1cd799	-0.61266476
184	0x3dbc4d5c	0.09194443
185	0x3e90b673	0.28264198
186	0x3e7b6533	0.24550323
187	0x3edee256	0.43532056
188	0xbc07da63	-0.008291814
189	0xbdf429e4	-0.119220525
190	0x3d6e9dad	0.05825584
191	0x3e4e26c8	0.20131981
192	0x3ead9596	0.33903188
193	0x3c1d6cc4	0.009608451
194	0x3de6ecaf	0.112756126
195	0xbda988fd	-0.082780816
196	0x3eddd7b6	0.43328637
197	0x3d4a6a69	0.049417887
198	0xbe71b1de	-0.23603007
199	0x3e18d85f	0.14926289
200	0xbad8f389	-0.0016552071
201	0xbe330fad	-0.17486449
202	0x3ea05efe	0.31322473
203	0xbe4adf90	-0.19811845
204	0xbeb545e5	-0.35404888
205	0xbb31d5fd	-0.0027135604
206	0x3e88d80f	0.2672734
207	0xbef7c195	-0.4838988
208	0x3c234a61	0.009966464
209	0xbeb3d151	-0.35120633
210	0x3dab89cd	0.08375893
211	0xbcccfe71	-0.02502367
212	0x3a4a1cdb	0.0007709988
213	0x3d8c5469	0.068520375
214	0x3aaa337a	0.0012985312
215	0x3e87b3d7	0.26504394
216	0xbe26328b	-0.16230218
217	0x3d87aadd	0.066243865
218	0xbe34a14a	-0.17639652
219	0x3edc9b2d	0.4308714
220	0xbea18b99	-0.31551817
221	0x3db4d2cf	0.08829271
222	0xbeeaa746	-0.45830745
223	0xbda7fdf3	-0.08202734
224	0xbdd7cca9	-0.10537083
225	0xbdf9db86	-0.12200074
226	0xbee790c8	-0.45227647
227	0xbea8f645	-0.3300039
228	0xbed325da	-0.41239816
229	0xbc842103	-0.016129022
230	0x3e360144	0.1777392
231	0xbdc0a85d	-0.09407113
232	0x3dbb1178	0.09134191
233	0x3e8bf8c2	0.27338225
234	0x3ef48697	0.47758934
235	0x3ee57c99	0.44821623
236	0xbe3ba242	-0.18323615
237	0x3df2653b	0.118357144
238	0xbe312826	-0.17300472
239	0xbdabc627	-0.08387404
240	0xbd7a5243	-0.061113607
241	0xbe697d4a	-0.228017
242	0x3e5d4088	0.21606648
243	0x3e31a706	0.1734887
244	0x3cc87efb	0.024474612
245	0xbece3222	-0.40272623
246	0x3f2ef94d	0.6834915
247	0x3d0c45d2	0.034246273
248	0xbf038c6d	-0.5138615
249	0x3e18986a	0.14901891
250	0xbea7eeac	-0.3279928
251	0xbed71eb2	-0.42015606
252	0x3f2b67e0	0.66955376
253	0x3e3b5bd3	0.18296747
254	0x3ed04fa4	0.4068576
255	0xbdb61c30	-0.08892095

actor.init_internal_node_embed.2.add_bias._bias f4 [64, 1]
0	0x3e365a77	0.17807947
1	0x3e969558	0.29410815
2	0xbd3bd2bc	-0.04585527
3	0x3da43482	0.080178276
4	0x3e1c77d0	0.1528008
5	0x3e9a371d	0.30120173
6	0x3d17ab0f	0.03702837
7	0x3de6bedc	0.11266872
8	0xbd995c05	-0.074882545
9	0xbdd30e93	-0.10305514
10	0x3bca22a5	0.0061686807
11	0x3ce654e7	0.028116656
12	0xbd85e360	-0.06537509
13	0x3da76bd3	0.08174863
14	0x3e0842bd	0.13306709
15	0x3e1b69ec	0.15177125
16	0x3bb34503	0.0054708733
17	0xbe4f5f01	-0.20251085
18	0x3c9cd0d0	0.019142538
19	0x3dc2ffaf	0.09521424
20	0xbb6ed82f	-0.0036444773
21	0x3d20a01d	0.039215196
22	0xbd6087a5	-0.05481686
23	0xbd97c96c	-0.07411465
24	0x3e1423f4	0.1446684
25	0xbd28298c	-0.041055247
26	0xbd1583c4	-0.036502615
27	0x3d3824a4	0.04495682
28	0xbdcf78a8	-0.10130435
29	0xbc81e86c	-0.015857898
30	0x3c3f67ee	0.011682494
31	0xbc2ac1f6	-0.01042222
32	0x3d956ab7	0.07295745
33	0x3cf444cd	0.029817963
34	0x3e861790	0.26189852
35	0xbdb13346	-0.08652358
36	0x3cc608d5	0.024174133
37	0xbe16a680	-0.14711952
38	0xbcd01111	-0.025398763
39	0x3e569179	0.20953931
40	0xbd2d9f19	-0.042388055
41	0xbe779384	-0.24177366
42	0x3e1532b8	0.14570129
43	0xbbe6f255	-0.007047931
44	0xbe00fe88	-0.12597096
45	0xbd78d3dc	-0.06074892
46	0xbe9ca05f	-0.30591103
47	0xbe913ed2	-0.2836824
48	0x3e8f01d2	0.27931076
49	0x3c904fb4	0.01761613
50	0x3dc23f85	0.09484772
51	0x3d5da70f	0.054114398
52	0xbc1230e7	-0.008922792
53	0xbc5a08a4	-0.013307724
54	0xbd2a07ca	-0.041511334
55	0x3e538da7	0.20659505
56	0x3e61b583	0.22041897
57	0xbd9b4f9d	-0.075835444
58	0x3cbeb2b2	0.023278568
59	0x3d5fe424	0.05466093
60	0x3d78660b	0.06064419
61	0x3dfb5393	0.122718
62	0xbd1c317d	-0.038133133
63	0x3cfd360c	0.03090956

actor.init_leaf_node_embed.0.module.weight f4 [32, 8]
0	0xbd9eab2d	-0.07747493
1	0xbeafdbdf	-0.34347436
2	0xbec99db2	-0.39378124
3	0xbd924fe7	-0.071441464
4	0x3e2c515a	0.16827908
5	0x3ebdd1ac	0.3707403
6	0x3efdbaae	0.49556488
7	0x3e8a0761	0.26958755
8	0xbec7796c	-0.38959825
9	0xbf2bfb3a	-0.67180216
10	0xbd93f17b	-0.07223793
11	0xbea750b5	-0.32678762
12	0xbe7d7d65	-0.24754865
13	0x3ead15a4	0.33805573
14	0xbcb4d3e4	-0.022073694
15	0x3ebabde5	0.36473003
16	0x3e47be5c	0.1950621
17	0xbebfd147	-0.37464353
18	0xbe04fbbf	-0.12986659
19	0x3ed40047	0.41406462
20	0x3b62758d	0.003455493
21	0xbea28674	-0.31743205
22	0xbd682d08	-0.05668357
23	0xbd8a1e79	-0.067440934
24	0xbece7eb8	-0.40331054
25	0xbe4bcb22	-0.19901708
26	0xbe78bc8f	-0.2429068
27	0xbe8199a7	-0.2531254
28	0x3eabd48a	0.33560592
29	0x3d379eaf	0.044829067
30	0x3ee70d99	0.45127562
31	0x3de9e4b1	0.114205725
32	0xbd236fc6	-0.039901517
33	0xbe3a55f5	-0.18196853
34	0x3d97201f	0.073791735
35	0x3de1d3e4	0.11026743
36	0x3ec1bfa8	0.37841535
37	0x3e065591	0.13118578
38	0xbeff5005	-0.49865738
39	0x3ec852a0	0.39125538
40	0x3dbcbd35	0.09215776
41	0x3e16b665	0.14718015
42	0xbf08a01d	-0.53369313
43	0x3e23e690	0.16005921
44	0xbeeec4fc	-0.46634662
45	0x3f060418	0.52349997
46	0xbdfaade4	-0.12240198
47	0xbe838a89	-0.2569163
48	0xbeb33588	-0.3500178
49	0xbe2c9341	-0.16853048
50	0xbd8eaf9d	-0.06967089
51	0x3d614baa	0.0550038
52	0x3dbb6813	0.0915071
53	0xbe484821	-0.19558765
54	0xbdcc6865	-0.09980849
55	0xbde01580	-0.10941601
56	0x3ec1e66f	0.3787112
57	0xbee3dcda	-0.44504434
58	0x3e836d24	0.25669205
59	0x3ee840cf	0.45361945
60	0xbcf0c0ff	-0.029388903
61	0x3ec6fe3a	0.38865834
62	0x3d381e3e	0.044950716
63	0x3e66c219	0.2253498
64	0x3dd9d27b	0.10635849
65	0x3dfd911f	0.12381195
66	0xbe2cde38	-0.16881645
67	0x3eac26b7	0.33623287
68	0x3dccbdb0	0.099971175
69	0x3dafdfc0	0.08587599
70	0x3efb1266	0.49037474
71	0x3eb22f08	0.34801507
72	0xbdb0d7fe	-0.08634947
73	0x3eac4a28	0.33650327
74	0xbe34dae7	-0.1766163
75	0x3e9856df	0.29753777
76	0x3ce82372	0.028337214
77	0xbdf135c3	-0.11777832
78	0x3ee7a1b2	0.4524055
79	0xbe9905c9	-0.29887226
80	0x3d5f83c8	0.054569036
81	0x3dcbb5c0	0.099467754
82	0x3e8fe9a2	0.28107935
83	0xbd9181e8	-0.07104856
84	0x3eb034c4	0.34415257
85	0xbce937b9	-0.028468953
86	0xbe45b2c8	-0.19306481
87	0x3cad61e2	0.021164838
88	0xbe8d6ff5	-0.2762448
89	0x3d007438	0.031360835
90	0x3e3dcfee	0.1853635
91	0x3db2118c	0.08694753
92	0x3eef4074	0.4672886
93	0x3dc79feb	0.09747299
94	0xbc888392	-0.0166643
95	0xbeb7411b	-0.3579186
96	0x3ec72883	0.38898095
97	0x3d95b85b	0.07310554
98	0x3f118550	0.56844044
99	0xbeaf25a4	-0.34208405
100	0xbdab2178	-0.08355993
101	0xbd870872	-0.06593408
102	0x3ebbf32c	0.36708963
103	0xbdeec120	-0.116579294
104	0xbe560f43	-0.2090426
105	0x3d01ee72	0.03172154
106	0x3e830f68	0.25597692
107	0xbe147290	-0.14496827
108	0xbe889019	-0.26672438
109	0xbe71ce9b	-0.2361397
110	0x3eb62cc3	0.35581025
111	0x3d9c2aa3	0.0762532
112	0x3e35cf32	0.1775482
113	0xbccc18b1	-0.024914118
114	0x3e240f8f	0.1602156
115	0x3ee7374e	0.45159382
116	0x3df92f70	0.12167251
117	0x3ed24595	0.41068712
118	0x3de94312	0.11389746
119	0xbd94f0af	-0.07272469
120	0x3f00f240	0.50369644
121	0x3e0acc73	0.13554554
122	0xbdf29bda	-0.118461326
123	0xbf063305	-0.524216
124	0x3e466654	0.19374973
125	0x3ef18870	0.47174406
126	0x3d124a72	0.035715528
127	0xbe9c02cf	-0.30470893
128	0xbd515016	-0.051101767
129	0x3db46480	0.08808231
130	0xbe947406	-0.2899477
131	0x3eb60d91	0.35557225
132	0x3e40e520	0.18837404
133	0x3c96f272	0.018426154
134	0xbe77f7e4	-0.24215657
135	0x3da090b2	0.078400984
136	0xbdb52585	-0.08845047
137	0x3ebea875	0.37237898
138	0x3ddc41d3	0.107547425
139	0x3da77a59	0.08177633
140	0xbe8abdd3	-0.2709795
141	0x3db750ed	0.08950982
142	0x3e3de466	0.18544158
143	0x3e936ec6	0.2879545
144	0xbe4dbb37	-0.20090948
145	0x3d5799da	0.05263696
146	0x3d8c5465	0.068520345
147	0xbeb7c88d	-0.35895196
148	0xbe748274	-0.23877889
149	0x3eb86f53	0.36022434
150	0x3d48bb5c	0.049006805
151	0x3df4d329	0.11954338
152	0xbec5f277	-0.38661548
153	0x3e07416f	0.13208555
154	0xbdc9596d	-0.0983151
155	0x3e8ea48d	0.27859917
156	0x3d673b39	0.056452964
157	0x3f04bdd1	0.51852137
158	0xbdb772ae	-0.0895742
159	0x3dd91ab7	0.106007986
160	0xbe7b3d73	-0.2453516
161	0xbe8baa22	-0.2727824
162	0xbe9c2aef	-0.30501506
163	0xbd39504e	-0.0452426
164	0x3cd90f38	0.026496515
165	0x3ed540e9	0.41651085
166	0xbe10a5a2	-0.14125684
167	0xbe862f68	-0.26208043
168	0x3e076860	0.1322341
169	0xbe13a5a0	-0.1441865
170	0x3ef8169d	0.48454753
171	0xbde43b58	-0.111441314
172	0x3cb2c7e5	0.021823833
173	0xbde3cdd3	-0.11123242
174	0xbe47a64e	-0.19497034
175	0x3d6d99a4	0.05800785
176	0xbea58429	-0.32327393
177	0x3eb680bb	0.3564509
178	0x3c98b1ef	0.018639533
179	0x3ea02a88	0.3128245
180	0x3e7995d2	0.24373558
181	0x3e3a8938	0.18216407
182	0x3df1c9c3	0.11806061
183	0x3e076341	0.13221456
184	0xbe96e392	-0.29470497
185	0xbe13d730	-0.14437556
186	0x3d9615e0	0.07328391
187	0xbd9b6cb2	-0.07589091
188	0x3ee71a6e	0.45137352
189	0xbd310bc7	-0.043224122
190	0xbd17a27f	-0.037020203
191	0xbd7e7b2a	-0.062129177
192	0x3d6da7cb	0.058021348
193	0x3daac4b0	0.083382964
194	0x3e830980	0.25593185
195	0xbcb83167	-0.022484494
196	0x3e636edc	0.22210258
197	0x3d838454	0.06421724
198	0xbc8cbb4c	-0.017179154
199	0x3efce8d4	0.49396384
200	0x3e9a996e	0.30195183
201	0x3e54bffb	0.2077636
202	0xbefc5ced	-0.49289647
203	0xbea5a5de	-0.3235311
204	0x3d3efa31	0.04662532
205	0xbcad283a	-0.021137346
206	0x3d3fcb40	0.046824694
207	0xbe99970f	-0.2999806
208	0x3e740ae1	0.23832275
209	0xbe303b64	-0.17210156
210	0x3df1d9f3	0.11809149
211	0x3ed6a06f	0.41919276
212	0x3e1cb9a8	0.15305197
213	0x3df33ad6	0.118764564
214	0x3ee3f336	0.44521493
215	0xbe8e7b1c	-0.278283
216	0x3d1b3796	0.037894808
217	0xbe32ad0a	-0.17448822
218	0xbec3d72c	-0.382501
219	0x3e0f6919	0.14004935
220	0x3f19d2f6	0.60087526
221	0xbd7f2548	-0.062291414
222	0x3e5e31ba	0.21698657
223	0x3eba74ee	0.36417335
224	0x3ea3b880	0.319767
225	0xbdfbe4c4	-0.12299493
226	0xbe011259	-0.12604655
227	0xbdc7147e	-0.097207054
228	0x3b0301ab	0.0019990008
229	0xbed12c79	-0.40854242
230	0x3dd158bd	0.102220036
231	0x3e500625	0.20314844
232	0x3de39d30	0.111139655
233	0x3e798a87	0.2436925
234	0xbe3f09cf	-0.18656085
235	0xbe579584	-0.2105313
236	0x3e95ea37	0.29280254
237	0x3c1a7d61	0.009429307
238	0xbe5e4b3e	-0.2170839
239	0x3e28dc8f	0.16490386
240	0x3e97bc87	0.29636022
241	0x3ef2b050	0.4740014
242	0xbf0217e1	-0.50817686
243	0xbe0bf496	-0.13667521
244	0xbe5bd9de	-0.21469828
245	0xbe2dfa3f	-0.16989993
246	0xbd100d71	-0.03516907
247	0x3ee99f59	0.45629385
248	0x3de533bf	0.111915104
249	0x3ed6cc5a	0.41952783
250	0xbd80aab1	-0.06282557
251	0xbe607718	-0.2192043
252	0x3de9ac19	0.11409778
253	0x3ec85590	0.3912778
254	0x3e303c45	0.17210491
255	0xbdc6d1b5	-0.09707967

actor.init_leaf_node_embed.0.add_bias._bias f4 [32, 1]
0	0x3c3ff491	0.011716024
1	0x3ce87275	0.02837489
2	0x3bcebd9a	0.0063092234
3	0x3c03c2dc	0.008042064
4	0xbdeedaf0	-0.11662853
5	0x3c7215ba	0.014775688
6	0xbcef9f32	-0.029250715
7	0xbcd306bb	-0.025760045
8	0x3da01a1e	0.078174815
9	0x3d11621a	0.035493948
10	0x3d22650d	0.03964715
11	0xbcf5d5a7	-0.030009104
12	0x3ae3e1af	0.0017385985
13	0xbd838789	-0.06422336
14	0x3e042b44	0.1290713
15	0x3a7fa2b8	0.0009751725
16	0xbd22a57c	-0.0397086
17	0xbd461749	-0.04836205
18	0x3c4009ae	0.011721058
19	0xbb76a21f	-0.0037633253
20	0x3d138239	0.036012862
21	0x3d231a44	0.03981997
22	0x3df5797d	0.11986063
23	0xbcae7197	-0.021294398
24	0x3c41edea	0.011836508
25	0x3c47f5a4	0.012204561
26	0x3dba53f7	0.09098046
27	0xbcae27fd	-0.021259302
28	0xbdb39e8e	-0.08770476
29	0x3b3cdfcd	0.002881992
30	0x3c092693	0.008371013
31	0xbe1be983	-0.15225796

actor.init_leaf_node_embed.2.module.weight f4 [64, 32]
0	0x3e305b01	0.17222215
1	0x3ee640a9	0.44971207
2	0x3e355310	0.17707467
3	0x3e6587fa	0.22415152
4	0xbe6b9f2b	-0.23009937
5	0x3ecc1ca4	0.398656
6	0x3e9bc1f6	0.30421418
7	0xbe8766a4	-0.26445496
8	0x3c5b77de	0.013395278
9	0x3e232330	0.15931392
10	0xbb5eee3f	-0.0034016517
11	0xbc2c4dc9	-0.010516592
12	0xbeb8a360	-0.36062145
13	0xbe0c02be	-0.13672921
14	0x3e074631	0.1321037
15	0x3db5b36a	0.08872111
16	0x3e34defe	0.1766319
17	0xbe13cc36	-0.14433369
18	0x3e266825	0.16250665
19	0x3eab0d6b	0.33408675
20	0x3f213159	0.62965924
21	0xbedb3add	-0.42818347
22	0x3f228d5f	0.63496965
23	0x3eb914f8	0.3614881
24	0x3c8773f0	0.016534775
25	0x3c53af7d	0.012920258
26	0xbc03314e	-0.008007361
27	0x3ec2afdd	0.38024798
28	0xbe05fcc2	-0.130847
29	0x3e3d2728	0.18471968
30	0x3d6f3d7e	0.058408253
31	0xbea22455	-0.31668344
32	0xbe10ef5a	-0.14153805
33	0xbe6efa44	-0.23337656
34	0xbe0f949e	-0.14021537
35	0xbe228842	-0.1587229
36	0xbe7d7829	-0.24752869
37	0x3eb363dd	0.35037127
38	0xbe6ce8c0	-0.23135662
39	0x3e66674c	0.22500342
40	0x3ea47596	0.3212096
41	0xbe9f8efa	-0.3116377
42	0x3dcfa378	0.10138601
43	0xbdbcf206	-0.0922585
44	0x3e8f0b67	0.27938387
45	0x3d256fe4	0.04038991
46	0x3d262a18	0.040567487
47	0x3d63c521	0.05560792
48	0x3da91fb1	0.08257998
49	0x3e277169	0.16351856
50	0x3db1431a	0.08655377
51	0xbefa553b	-0.4889315
52	0xbed7b464	-0.42129815
53	0x3f145ee2	0.5795728
54	0x3e416295	0.18885262
55	0x3e65b68d	0.22432919
56	0x3de8d641	0.11368991
57	0x3e242bec	0.1603238
58	0x3e0252a9	0.12726845
59	0xbe074696	-0.1321052
60	0x3db7cd32	0.08974685
61	0x3d1f7df9	0.038938496
62	0x3e7ceb53	0.24699144
63	0xbe3f5114	-0.18683273
64	0xbd419513	-0.04726131
65	0x3d48a163	0.048982035
66	0x3e52eb20	0.20597506
67	0xbeb923e2	-0.3616019
68	0x3dbf5996	0.09343259
69	0xbdcc32a4	-0.099705964
70	0xbde6f53b	-0.11277243
71	0xbd4ca408	-0.04996112
72	0xbeb83023	-0.35974225
73	0x3ed144c0	0.40872765
74	0x3dcd8ee9	0.100370236
75	0x3deb7401	0.11496735
76	0xbe4e724f	-0.20160793
77	0x3d2870c0	0.04112315
78	0x3e1cee61	0.1532531
79	0x3e090a5b	0.13382857
80	0xbec5d34d	-0.38637772
81	0xbe6636e5	-0.22481878
82	0x3dc18b8c	0.094504446
83	0x3d5fe388	0.05466035
84	0xbc3c8867	-0.01150713
85	0x3de837bc	0.113387555
86	0x3e0b8f73	0.1362894
87	0x3dbb3479	0.09140868
88	0x3ec2c31c	0.38039482
89	0xbdbfe39d	-0.09369586
90	0x3e22b354	0.15888721
91	0x3c068d5d	0.008212415
92	0xbe1e18c3	-0.15439133
93	0xbd43b56a	-0.04778043
94	0xbf00b3e0	-0.5027447
95	0xbe2523c7	-0.16126929
96	0xbe840c78	-0.25790763
97	0x3e01d1e8	0.12677729
98	0xbec79492	-0.38980538
99	0x3f097f5b	0.53709954
100	0xbe86c678	-0.26323295
101	0x3dad7856	0.08470218
102	0xbe24f17c	-0.16107744
103	0x3e3731ed	0.17890139
104	0xbcc3d168	-0.023903564
105	0x3dc049bc	0.09389064
106	0x3e68f5f2	0.2275007
107	0x3df42e7c	0.11922929
108	0x3f1cb829	0.61218506
109	0xbe879222	-0.26478678
110	0xbd3b55e5	-0.045736212
111	0xbe041d00	-0.12901688
112	0xbe2521d8	-0.16126192
113	0x3e904693	0.28178844
114	0xbbbbb3ea	-0.0057282345
115	0x3cfa4cc9	0.030554192
116	0xbeeeda58	-0.46650958
117	0xbd2cd598	-0.042195886
118	0xbdf2b099	-0.118500896
119	0xbe393e78	-0.18090236
120	0x3dc8bff3	0.098022364
121	0xbe01d525	-0.12678964
122	0x3e90c05e	0.28271765
123	0x3e6812cc	0.2266342
124	0x3e51f1fb	0.20502464
125	0xbd179167	-0.0370039
126	0xbd9c380a	-0.07627876
127	0x3df0f502	0.117654815
128	0xbe9fd562	-0.31217486
129	0xbec32f96	-0.38122243
130	0xbe15456e	-0.14577267
131	0xbe00431b	-0.12525599
132	0x3cb2bdc6	0.021819007
133	0xbe919506	-0.28434008
134	0xbe6c44ae	-0.23073074
135	0xbe52c406	-0.2058259
136	0xbf1f9397	-0.6233458
137	0x3ea8b316	0.32949132
138	0x3d27aea2	0.040938027
139	0x3b770758	0.0037693586
140	0x3eec4229	0.46144226
141	0xbc895234	-0.01676283
142	0xbe839c16	-0.25705022
143	0x3e18c2ba	0.14918032
144	0x3da1dc24	0.079033166
145	0xbe41c639	-0.18923272
146	0xbeab9361	-0.3351088
147	0xbe199c92	-0.15001133
148	0x3e21cef8	0.15801609
149	0x3e52dcf4	0.205921
150	0x3dc3f6b9	0.09568543
151	0xbd8dc57b	-0.06922432
152	0xbe2c0b04	-0.16801077
153	0x3d80e7c6	0.06294207
154	0xbd458c9e	-0.048229806
155	0x3ca8a5b3	0.020586824
156	0xbdb4757b	-0.0881147
157	0x3c66c971	0.014086113
158	0x3e3f57f9	0.18685903
159	0xbe0b188f	-0.13583587
160	0xbe066cb0	-0.13127398
161	0x3e6c6886	0.23086748
162	0xbe28b79c	-0.16476291
163	0xbec6899f	-0.38776872
164	0x3e09ace3	0.13444857
165	0x3e5f41b6	0.2180241
166	0x3d9a0433	0.07520332
167	0xbe40b04b	-0.1881725
168	0xbea88942	-0.3291722
169	0xbdd4c5b5	-0.10389272
170	0x3baa0d82	0.0051895985
171	0x3d720bf7	0.05909344
172	0xbe1d3dc8	-0.15355599
173	0xbe6d148a	-0.23152366
174	0x3ee77ce0	0.4521246
175	0xbe897f2e	-0.26854843
176	0x3e74e9d8	0.2391733
177	0x3d04550c	0.03230767
178	0x3cf5a70c	0.02998688
179	0xbc8e2768	-0.017352775
180	0xbc0531d5	-0.008129557
181	0xbd7a64d5	-0.061131317
182	0xbe168d68	-0.1470238
183	0xbea782c6	-0.3271696
184	0xbe51c7ce	-0.20486376
185	0x3d3796b8	0.04482147
186	0x3d39d8cb	0.045372766
187	0x3e8e76da	0.27825052
188	0xbd22d5ed	-0.039754797
189	0x3d893c5c	0.06700966
190	0xbe71c7c3	-0.2361136
191	0xbd8866a4	-0.06660202
192	0xbe28048d	-0.16407986
193	0xbedba255	-0.42897287
194	0xbeb957b7	-0.36199734
195	0x3dff8150	0.12475836
196	0xbe5e0cdd	-0.21684594
197	0xbe36b38e	-0.17841932
198	0x3ccc499e	0.024937447
199	0x3ce95a89	0.028485553
200	0x3c1f61f3	0.009727943
201	0xbbb601a5	-0.0055543953
202	0xbb7c41c8	-0.0038491357
203	0xbe5c4897	-0.21512066
204	0x3eb0ecd8	0.34555697
205	0x3df0ca08	0.117572844
206	0xbe5219e8	-0.20517695
207	0xbe628a51	-0.22123076
208	0xbe1f24cd	-0.15541382
209	0x3f1c8ad7	0.6114935
210	0x3dae9819	0.08525104
211	0xbce180eb	-0.027527293
212	0x3dfb4c78	0.12270445
213	0x3e89a665	0.2688476
214	0xbe1af185	-0.15131195
215	0x3dc2320b	0.09482201
216	0x3dcafafb	0.09911152
217	0x3e83a4ec	0.25711763
218	0xbe80c8cb	-0.25153193
219	0xbab69004	-0.0013928418
220	0x3e13018b	0.14356057
221	0xbd6cdbfa	-0.057826973
222	0xbe85a9db	-0.26106152
223	0x3db15ebb	0.086606465
224	0x3d161e04	0.03664972
225	0x3e9415ae	0.2892279
226	0xbe9c7a1d	-0.30561915
227	0xbea27309	-0.3172839
228	0xbf05fc69	-0.5233827
229	0xbe89e029	-0.26928833
230	0x3e3734fc	0.17891306
231	0xbe699a3d	-0.22812743
232	0xbd8ab8d1	-0.06773532
233	0x3c7df996	0.0155014
234	0xba8ac271	-0.0010586513
235	0xbeb021e7	-0.34400865
236	0x3e27fca3	0.16404967
237	0xbea73f80	-0.32665634
238	0xbee07a7f	-0.43843457
239	0x3d85efa5	0.06539849
240	0xbe920ad3	-0.28523883
241	0x3e578258	0.21045816
242	0xbdb71fe0	-0.089416265
243	0xbe24e6a9	-0.16103615
244	0xbd34e8e6	-0.04416742
245	0x3f327aad	0.6971844
246	0xbd87b158	-0.066256225
247	0xbe7cd152	-0.24689224
248	0xbd9a051b	-0.07520505
249	0x3d7b4a5d	0.061350215
250	0xbe42dec3	-0.1903029
251	0xbe959f4b	-0.29223093
252	0x3e4028ba	0.18765536
253	0xbee437a6	-0.44573706
254	0x3e8d2ff6	0.27575654
255	0x3af94bdd	0.0019019801

actor.init_leaf_node_embed.2.add_bias._bias f4 [64, 1]
0	0x3e8b0e60	0.27159405
1	0x3e0f405e	0.13989398
2	0x3d28e040	0.041229486
3	0x3c2ebd10	0.010665193
4	0xbe3992c9	-0.181224
5	0x3c7b5979	0.015341156
6	0xbe53cbaa	-0.2068316
7	0xbe8ca2d3	-0.27467975
8	0xbe2efd27	-0.17088757
9	0xbe2bbfb4	-0.16772348
10	0x3e8e37f7	0.27777073
11	0xbe1afa50	-0.15134549
12	0x3dc33b09	0.095327444
13	0xbdb5024a	-0.08838327
14	0xbdd1a196	-0.10235898
15	0xbd952a45	-0.07283453
16	0x3e0cf7c6	0.13766393
17	0xbe136478	-0.14393795
18	0xbea2c711	-0.317925
19	0xbd06f912	-0.032952376
20	0x3d14050f	0.036137637
21	0x3daa608b	0.08319195
22	0x3c454569	0.012040474
23	0x3d32b4a1	0.043629292
24	0x3e7183f3	0.23585491
25	0xbd3f96e8	-0.046774775
26	0xbbe3a47f	-0.0069470997
27	0xbda5d816	-0.08097856
28	0xbe3024bb	-0.17201512
29	0x3de3e843	0.11128285
30	0xbe13fec0	-0.14452648
31	0xbcbbcc7e	-0.022924658
32	0x3de5a3aa	0.11212857
33	0xbd7c0bad	-0.061534572
34	0xbe1ce16e	-0.1532037
35	0x3e1b1982	0.15146449
36	0x3e672dca	0.22576061
37	0xbd254c0f	-0.04035574
38	0xbd0b1b23	-0.033961426
39	0xbe03ce53	-0.12871675
40	0x3d722f16	0.059126936
41	0xbefef530	-0.49796438
42	0x3e3ee462	0.18641809
43	0x3d6d551e	0.057942502
44	0xbe110427	-0.1416174
45	0xbd1e3bab	-0.038631123
46	0xbe0fb684	-0.14034468
47	0xbd316e05	-0.043317813
48	0xbe6a63ad	-0.22889586
49	0x3d33bf6e	0.043883733
50	0xbd662ce4	-0.056195155
51	0xbd861959	-0.065478034
52	0x3dd5a432	0.104317084
53	0xbe28114b	-0.16412847
54	0xbe3e85c2	-0.18605712
55	0x3dd2f6f7	0.10301011
56	0x3ca27ad9	0.019833969
57	0xbe6d02f5	-0.2314566
58	0x3e444a68	0.19169009
59	0xbe8a4b88	-0.2701075
60	0x3e081e4f	0.13292812
61	0xbe0766fd	-0.1322288
62	0x3d944050	0.07238829
63	0x3cbdf943	0.023190146

actor.init_next_embed.0.module.weight f4 [32, 6]
0	0x3dc8470a	0.097791746
1	0xbe1761b2	-0.14783362
2	0xbe9909d2	-0.29890305
3	0xbee26195	-0.44215074
4	0xbe5d760e	-0.21627066
5	0xbce9f7d1	-0.02856055
6	0xbe6049b8	-0.21903121
7	0xbdc7ff51	-0.097654946
8	0x3e3f5108	0.18683255
9	0xbe78acd9	-0.24284686
10	0x3cc15d3d	0.02360403
11	0xbe72ef8a	-0.2372419
12	0x3ee97bcd	0.45602265
13	0xbe89160d	-0.26774636
14	0xbe83fc7b	-0.25778565
15	0xbcfcfa76	-0.030881148
16	0xbe6762df	-0.2259631
17	0x3e9ec7e8	0.3101189
18	0xbc117e30	-0.008880183
19	0x3d14fbff	0.036373135
20	0xbd079595	-0.033101637
21	0x3ed6c3da	0.41946298
22	0xbeed1fa7	-0.4631321
23	0xbeb814bc	-0.3595332
24	0x3dde9a9b	0.108693324
25	0xbed81352	-0.4220224
26	0xbdfe1b94	-0.12407604
27	0xbe816d22	-0.25278574
28	0xbdc37e25	-0.095455445
29	0xbe26a78d	-0.16274853
30	0xbcbbb489	-0.022913234
31	0xbf13c5cc	-0.5772369
32	0x3e9129bf	0.28352162
33	0xbf37290e	-0.7154702
34	0xbdfc2f81	-0.12313748
35	0x3e1e14ce	0.15437624
36	0x3f79145b	0.97296685
37	0x3dd2c78c	0.10291967
38	0x3d915a90	0.070973516
39	0xbe38e62a	-0.1805655
40	0xbc77b54f	-0.015118911
41	0xbeca257f	-0.39481732
42	0xbdb37231	-0.08762015
43	0x3dc959c3	0.09831574
44	0x3e1552b6	0.14582333
45	0x3dade5b2	0.084910765
46	0xbe9c925f	-0.30580422
47	0x3e38033c	0.17969984
48	0xbe9317b7	-0.2872903
49	0xbf172879	-0.5904613
50	0x3e7a5438	0.2444619
51	0x3cd63198	0.026146695
52	0x3fae7f2e	1.3632562
53	0xbf32f0a1	-0.6989842
54	0x3dd94c36	0.10610239
55	0xbe95a08d	-0.29224053
56	0xbe3aa602	-0.1822739
57	0x3d7a9edb	0.061186653
58	0xbead8ee8	-0.3389809
59	0xbee109b2	-0.4395271
60	0xbea54517	-0.32279274
61	0x3e3a7836	0.1820992
62	0x3c841244	0.016121991
63	0x3ecb0c07	0.39657614
64	0x3e8e4327	0.27785608
65	0xbeddfd7b	-0.43357453
66	0x3d529d1a	0.051419355
67	0xbcef7ca3	-0.029234236
68	0xbcb12cf8	-0.021627888
69	0x3e118380	0.1421032
70	0x3c9de2f6	0.019273262
71	0x3e0f835f	0.14014958
72	0xbeb7e67e	-0.3591804
73	0xbd067e91	-0.032835547
74	0x3e155063	0.14581446
75	0x3c82a185	0.01594616
76	0xbe6e1896	-0.23251566
77	0xbeaeab2f	-0.34114978
78	0x3d9c87ac	0.07643065
79	0x3c15a80a	0.009134302
80	0x3dfe4654	0.12415758
81	0x3e17a0ce	0.14807436
82	0xbe8fa6ac	-0.28056848
83	0xbe00ffb3	-0.12597542
84	0x3fa617e1	1.2976037
85	0xbe69892d	-0.22806235
86	0xbe8314da	-0.25601846
87	0xbf096b8d	-0.53679734
88	0xbe04e2af	-0.12977098
89	0x3d1f6013	0.038909983
90	0xbe31fc6e	-0.1738145
91	0xbd823a10	-0.06358731
92	0xbe986d69	-0.29770973
93	0xbe65825f	-0.22413014
94	0xbb7d9f50	-0.0038699694
95	0x3e3844cc	0.17994994
96	0xbe8da4e3	-0.2766486
97	0xbd0b78cc	-0.034050748
98	0xbde64977	-0.11244481
99	0xbe08e52e	-0.13368675
100	0xbed459f2	-0.41474873
101	0x3dcb0d36	0.09914629
102	0x3f124d1c	0.5714891
103	0xbd4ef030	-0.05052203
104	0x3e49bc52	0.19700745
105	0xbe83b2eb	-0.2572244
106	0xbd5c3ab8	-0.053766936
107	0xba0aed06	-0.00052996015
108	0xbd79a933	-0.060952377
109	0x3e93853d	0.2881259
110	0x3e6a1819	0.22860755
111	0xbb1965c6	-0.002340661
112	0xbd835ef9	-0.06414599
113	0x3e86ac82	0.26303488
114	0x3f69fe43	0.914036
115	0x3e79fe65	0.2441345
116	0xbeb7a9eb	-0.35871825
117	0xbe8d0679	-0.27544
118	0x3e3bfdd0	0.1835854
119	0x3ddfb7bf	0.10923719
120	0x3e87f37f	0.2655296
121	0x3cd65550	0.026163727
122	0xbd14e459	-0.03635058
123	0xbe0ddd90	-0.1385405
124	0xbe8682d9	-0.26271704
125	0x3e263504	0.16231161
126	0xbcefdb15	-0.029279271
127	0xbe5810e2	-0.2110019
128	0xbf37e023	-0.7182638
129	0xbdd05001	-0.101715095
130	0xbe0252af	-0.12726854
131	0xbd135fd6	-0.03598007
132	0x3dec3e43	0.11535313
133	0xbe1745a4	-0.1477266
134	0xbdc775a0	-0.09739232
135	0x3e0553f8	0.13020313
136	0xbeb36795	-0.35039964
137	0x3d751600	0.059835434
138	0x3f233be7	0.6376328
139	0xbe88270e	-0.26592296
140	0x3ea96233	0.33082733
141	0xbf0e904a	-0.5568892
142	0x3ef500cf	0.4785218
143	0x3edf74f3	0.43643913
144	0x3fb38baa	1.4026997
145	0xbdcbdc5f	-0.09954142
146	0xbe3ad622	-0.18245748
147	0xbe9eb2f4	-0.30995905
148	0xbe071115	-0.1319011
149	0x3dd7776b	0.10520824
150	0x3e2d3373	0.16914158
151	0x3e9267b7	0.28594753
152	0xbd83c0a8	-0.06433231
153	0xbe430904	-0.19046408
154	0xbe41fb44	-0.18943506
155	0xbec92f19	-0.39293745
156	0x3b675a91	0.0035301785
157	0xbea3fe93	-0.32030162
158	0x3e39756c	0.18111199
159	0xbd8012dc	-0.06253597
160	0xbe62e4e9	-0.22157635
161	0xbc82427d	-0.015900845
162	0xbf02bef4	-0.5107262
163	0xbec3c9a3	-0.38239774
164	0xbe414f82	-0.18877986
165	0xbe40e439	-0.1883706
166	0x3e0453af	0.12922548
167	0xbe1f1501	-0.15535356
168	0x3efeaa53	0.49739322
169	0x3e529765	0.20565565
170	0xbc9bec0a	-0.01903345
171	0xbfa4e2b5	-1.2881685
172	0xbc9bb970	-0.019009322
173	0x3e43131c	0.19050258
174	0x3ef39034	0.47570956
175	0x3e6c43ab	0.23072688
176	0xbeaff5ce	-0.34367222
177	0xbf3f6b42	-0.7477304
178	0x3c83af3b	0.016074767
179	0x3e21566b	0.15755622
180	0xbe064cd6	-0.13115248
181	0xbe84b2a4	-0.25917542
182	0x3e9767ec	0.29571474
183	0xbc581dfd	-0.0131907435
184	0x3bc882f7	0.006119128
185	0xbd90c94d	-0.07069645
186	0x3ca6bf90	0.020355016
187	0xbe67e389	-0.22645392
188	0xbef0b39d	-0.47012034
189	0xbe3adf6e	-0.18249294
190	0xbdc51ba6	-0.09624414
191	0x3ca5793d	0.020199412

actor.init_next_embed.0.add_bias._bias f4 [32, 1]
0	0x3e27d8bc	0.16391271
1	0x3d531bef	0.05154031
2	0xbd88ac03	-0.06673434
3	0xbd5803ec	-0.052738115
4	0x3bd4bc40	0.0064921677
5	0xbe8cd297	-0.27504417
6	0x3defe0ec	0.11712822
7	0xbd8bfa13	-0.06834807
8	0xbe62bb47	-0.22141753
9	0xbc5b991e	-0.013403205
10	0xbe07b4c6	-0.13252553
11	0x3e9bb07a	0.30408078
12	0xbc364f1b	-0.011127259
13	0x3e1ac35e	0.15113589
14	0x3ec32eaf	0.38121554
15	0x3e90a73d	0.28252593
16	0xbc760928	-0.015016831
17	0xbe53be4a	-0.20678058
18	0xbe831b1d	-0.25606623
19	0x3eb3ccf4	0.35117304
20	0xbdc4e5ce	-0.09614144
21	0x3aff5cf7	0.0019482662
22	0xbe7aedc2	-0.2450476
23	0xbd4fc6e4	-0.050726786
24	0x3e7466bd	0.23867317
25	0xbdbf7e06	-0.09350209
26	0xbe054d86	-0.13017854
27	0x3d269ee5	0.040678877
28	0x3d1beb50	0.03806621
29	0x3e2bd2dc	0.16779655
30	0x3e1ee2a5	0.15516146
31	0x3e1cad6c	0.1530053

actor.init_next_embed.2.module.weight f4 [64, 32]
0	0x3dd77a12	0.1052133
1	0xbde0248f	-0.10944473
2	0xbc502f23	-0.012706551
3	0x3e384c9d	0.17997976
4	0x3e18248e	0.14857695
5	0x3d9e2e93	0.07723727
6	0xbe68e594	-0.22743827
7	0xbe6b2494	-0.22963172
8	0xbdd31335	-0.10306398
9	0x3ea005b2	0.31254345
10	0x3da6816f	0.08130156
11	0xbef2297e	-0.4729728
12	0x3dc4936d	0.09598432
13	0x3ec97c3f	0.39352605
14	0x3de3bf19	0.11120433
15	0xbea070a9	-0.31335953
16	0xbe17247a	-0.14760008
17	0x3d873e46	0.066036746
18	0xbc8e4578	-0.01736711
19	0xbe601854	-0.2188428
20	0x3d830216	0.06396882
21	0xbd6ffc8d	-0.05859046
22	0xbef3bdef	-0.47605845
23	0xbeeee43f	-0.46658513
24	0xbef1843f	-0.47171208
25	0x3eb422e6	0.35182875
26	0xbe316806	-0.17324838
27	0xbdb9fa17	-0.09080904
28	0x3dfca3aa	0.12335904
29	0x3dc2f26b	0.09518894
30	0x3e70f03e	0.23529145
31	0xbdde265d	-0.10847161
32	0x3e5e6f82	0.21722224
33	0xbd7283db	-0.05920778
34	0xbdb7b623	-0.08970287
35	0xbd8bdf7e	-0.06829737
36	0xbdba945f	-0.09110331
37	0xbe2bb95d	-0.16769929
38	0xbe03f37c	-0.1288585
39	0x367517e7	3.6521758e-06
40	0x3ea1ae0c	0.315781
41	0x3d2f13b7	0.04274341
42	0x3ef3f39c	0.47646797
43	0x3eb00e40	0.34385872
44	0xbcb320d9	-0.021866249
45	0xbdbeed81	-0.09322644
46	0xbe1cea5c	-0.15323776
47	0xbd188554	-0.037236527
48	0x3e3c3947	0.18381225
49	0x3ca9d061	0.020729246
50	0xbd95a15d	-0.07306168
51	0x3f0d55a0	0.5520878
52	0x3e2f45ed	0.17116518
53	0x3cb8ef1d	0.022574956
54	0x3d5f57cb	0.054527085
55	0xbe115155	-0.14191182
56	0xbe05f020	-0.13079882
57	0x3e5ec165	0.21753462
58	0xbc24981c	-0.010046031
59	0xbe9f03b7	-0.31057522
60	0xbde58180	-0.11206341
61	0x3ce4371c	0.02785831
62	0xbd544cac	-0.051830932
63	0xbd930bec	-0.07180008
64	0xbd8f63a3	-0.07001426
65	0x3d0e0f49	0.034682546
66	0x3e736617	0.23769413
67	0xbe0a68e2	-0.13516572
68	0xbabb1e66	-0.0014276027
69	0x3e49b46e	0.19697735
70	0xbf047d5b	-0.5175378
71	0xbeb342d9	-0.35011938
72	0xbec6d0fe	-0.38831323
73	0xbe0f41c2	-0.13989928
74	0x3d120daa	0.035657562
75	0x3eaeeeb8	0.34166503
76	0x3dbd93da	0.09256716
77	0xbea0cf37	-0.31408092
78	0xbf335084	-0.7004473
79	0x3e014aa8	0.12626135
80	0xbe6525d7	-0.22377716
81	0x3d86bd20	0.065790415
82	0x3e403065	0.18768461
83	0x3e0de282	0.13855937
84	0xbd9e8c0d	-0.07741556
85	0xbda3217c	-0.07965371
86	0xbd6ad1a8	-0.05732885
87	0x3ee40596	0.44535512
88	0xbecf3869	-0.40472725
89	0x3dc9ae08	0.09847647
90	0xbe5a574b	-0.21322362
91	0xbe24b909	-0.1608621
92	0xbf038c0f	-0.5138559
93	0xbf21a2e0	-0.6313915
94	0xbe921e5c	-0.28538787
95	0xbe4fb51c	-0.20283931
96	0xbe20761a	-0.15670052
97	0x3e29b2bb	0.16572087
98	0x3eb74c0d	0.3580021
99	0xbdc2f089	-0.09518535
100	0xbe9ee03b	-0.3103045
101	0x3cd69c70	0.026197642
102	0xbec401d7	-0.38282654
103	0x3e01e26c	0.1268403
104	0xbbd2fc0c	-0.0064387377
105	0x3e723020	0.2365117
106	0xbead11c5	-0.3380262
107	0x3e3856fc	0.18001932
108	0x3ddd5178	0.108065546
109	0x3e08d9f0	0.13364387
110	0xbe8d39df	-0.27583215
111	0xbe827223	-0.25477704
112	0xbe283bce	-0.16429064
113	0x3e4fc7f8	0.20291126
114	0x3cfde14d	0.03099122
115	0xbebaf115	-0.36512056
116	0xbc88f9cb	-0.016720673
117	0x3d95326f	0.0728501
118	0x3e286b23	0.1644712
119	0x3f488009	0.78320366
120	0xbeba7af1	-0.36421922
121	0xbedcdde3	-0.43138036
122	0xbdbf73dd	-0.09348271
123	0xbea75fd3	-0.32690296
124	0xbe9c92c5	-0.30580726
125	0xbe36a0b6	-0.17834744
126	0x3d7040d7	0.058655586
127	0xbe5ef0b9	-0.21771516
128	0xbe489d99	-0.19591369
129	0xbec4ba50	-0.38423395
130	0xbdac4e4a	-0.0841337
131	0x3e7b0566	0.24513778
132	0x3deff670	0.11716926
133	0xbe2ac01d	-0.16674848
134	0xbda31ec2	-0.07964851
135	0xbda91f13	-0.0825788
136	0x3e109f40	0.14123249
137	0xbdfe3138	-0.124117315
138	0xbe7dc8e4	-0.24783665
139	0x3d01b06a	0.031662382
140	0xbd098dfb	-0.03358267
141	0x3d2d1745	0.04225852
142	0x3e25fad7	0.16208969
143	0x3bf15258	0.0073645525
144	0x3e264b39	0.16239633
145	0x3e1af8fe	0.15134045
146	0xbe1957fb	-0.14974968
147	0xbea4d330	-0.32192373
148	0xbe309c88	-0.17247212
149	0x3dc2c160	0.095095396
150	0x3e2039de	0.15647075
151	0x3d8fef7f	0.07028102
152	0x3e85ece7	0.26157305
153	0xbdc21281	-0.094761856
154	0x3ee50727	0.4473202
155	0x3e4dce5a	0.20098248
156	0xbe68d523	-0.22737555
157	0xbdf4ac72	-0.11946954
158	0xbd9ad865	-0.07560805
159	0x3d1c3104	0.038132682
160	0x3d270d37	0.040784087
161	0xbd01e015	-0.031707842
162	0x3dbdd559	0.092692085
163	0xbde382dc	-0.11108944
164	0x3ead5e3b	0.33860955
165	0x3e4fa965	0.20279463
166	0x3d67c90d	0.05658822
167	0x3e109c8f	0.14122222
168	0x3df12889	0.117753096
169	0x3e5ad63a	0.21370783
170	0x3d186cfa	0.037213303
171	0x3f4446cc	0.7667053
172	0x3d2b203b	0.041778784
173	0x3dffa642	0.12482883
174	0xbd4e3077	-0.05033919
175	0x3f13cb7b	0.5773236
176	0xbcefb6ad	-0.029261911
177	0x3ea4d73f	0.3219547
178	0x3de5ec2a	0.11226685
179	0x3f74bb08	0.9559789
180	0x3d375f29	0.044768486
181	0xbd0b3c50	-0.033993065
182	0x3e842ec4	0.2581693
183	0x3e8a8944	0.2705785
184	0x3efbdb53	0.4919077
185	0xbdae1b4e	-0.08501302
186	0x3d8a7618	0.06760806
187	0x3eb2a1f1	0.34889176
188	0xbe300794	-0.17190391
189	0xbe80c648	-0.25151277
190	0x3e8d30f1	0.27576402
191	0xbe0df2ff	-0.13862227
192	0x3de7904b	0.113068186
193	0x3e32b2e4	0.17451054
194	0x3d176d37	0.03696939
195	0x3e36a7aa	0.17837396
196	0xbd94c4a5	-0.072640695
197	0x3cec9529	0.028879719
198	0xbe5a206c	-0.2130143
199	0xbea683c7	-0.32522413
200	0x3e1ab30e	0.15107366
201	0x3e65744a	0.22407642
202	0x3d8fe2b1	0.0702566
203	0x3e6269a8	0.22110617
204	0x3cce9f5e	0.025222477
205	0x3c8a661d	0.016894395
206	0xbd925063	-0.07144239
207	0xbdb9a439	-0.09064526
208	0xbcaefaa1	-0.021359744
209	0x3e2b7b5a	0.16746274
210	0xbe594cc1	-0.21220686
211	0xbcd3f701	-0.025874617
212	0x3e500f43	0.20318322
213	0xbe8ae673	-0.27128944
214	0x3e2c92fe	0.16852948
215	0x3e27576f	0.16341947
216	0xbe1b254b	-0.15150945
217	0x3d94ff98	0.07275313
218	0x3d226099	0.039642904
219	0xbe67058b	-0.22560708
220	0xbdeaca90	-0.11464417
221	0xbda18e7b	-0.07888504
222	0x3e111195	0.14166863
223	0xbe8da344	-0.27663624
224	0xbe8bcacf	-0.27303168
225	0x3d2fc96e	0.042916708
226	0xbeb2376a	-0.34807903
227	0x3cadbe71	0.021208974
228	0x3e65ed1f	0.22453736
229	0xbe949379	-0.29018763
230	0xbdd456c1	-0.103681095
231	0xbe4971fb	-0.19672386
232	0x3ced3d73	0.028959965
233	0xbd05a4f8	-0.03262803
234	0x3eb8328a	0.35976058
235	0x3ea77c84	0.32712185
236	0x3dc1b1a3	0.0945771
237	0x3e49d2c0	0.19709301
238	0x3f022213	0.50833243
239	0x3f0378f6	0.51356447
240	0x3d824daf	0.06362473
241	0x3eb20cee	0.3477549
242	0x3e4d6005	0.2005616
243	0x3eb302e0	0.3496313
244	0xbeac0519	-0.3359764
245	0x3c657616	0.014005205
246	0xbe275338	-0.16340339
247	0x3f332d4a	0.6999098
248	0x3f012e8a	0.5046164
249	0x3cc0e711	0.023547681
250	0x3dc2054b	0.09473666
251	0xbdc76e0a	-0.09737785
252	0x3d6428af	0.05570286
253	0x3ea6a843	0.32550249
254	0x3dab4083	0.08361914
255	0x3ebf2e73	0.37340125

actor.init_next_embed.2.add_bias._bias f4 [64, 1]
0	0xbef4e05c	-0.47827423
1	0xbea8b30d	-0.32949105
2	0xbeb93975	-0.3617665
3	0xbedbfd07	-0.42966482
4	0x3ce86911	0.028370412
5	0x3f9f062a	1.2423756
6	0xbe998846	-0.2998678
7	0x3f2f3b09	0.68449455
8	0x3f851fa7	1.0400285
9	0xbf25ba11	-0.6473704
10	0xbf2cdf72	-0.6752845
11	0x3e1b3464	0.15156704
12	0x3f9f7707	1.2458199
13	0xbf904145	-1.1269919
14	0xbf720451	-0.94537836
15	0xbf4d99e3	-0.8031294
16	0xbf5efd0c	-0.8710487
17	0x3f35fe41	0.71091086
18	0x3f1d2a08	0.6139226
19	0xbe45fbfa	-0.19334403
20	0xbe2618c2	-0.16220382
21	0xbe9ff77b	-0.312435
22	0xbfaa5be7	-1.3309296
23	0x3f17e867	0.5933899
24	0xc012e550	-2.2952461
25	0xbf6fc10f	-0.9365396
26	0xbe822bd0	-0.2542405
27	0xbf8fd6af	-1.1237391
28	0x3f130e2b	0.57443494
29	0x3e92c5ad	0.2866644
30	0xbf0f41e8	-0.5595994
31	0xbf5863ba	-0.8452717
32	0xbe31ab46	-0.17350492
33	0x3f43e3a5	0.76519233
34	0xbe8cf938	-0.2753389
35	0xbec2ebd1	-0.3807054
36	0x3fb9415e	1.4473073
37	0x3f2c7ecc	0.67380977
38	0xbeac2ad8	-0.33626437
39	0x3f1d7e36	0.6152071
40	0xbfd94c9b	-1.6976503
41	0x3f935d1b	1.1512789
42	0xbeb783ee	-0.35842842
43	0xbfba83c5	-1.4571463
44	0x3ee2a1c6	0.44264048
45	0x3fabb8be	1.3415754
46	0x3f5e12dd	0.86747533
47	0x3f38e3e5	0.7222274
48	0xbed4c3a6	-0.41555518
49	0x3e9791c7	0.29603407
50	0x3f39dc68	0.7260194
51	0x3ef6e6ac	0.48222864
52	0x3ee94ad9	0.45564917
53	0xbdd29d28	-0.102838814
54	0xbe681562	-0.22664407
55	0xbf28dc0d	-0.6596077
56	0xbc0a1d37	-0.008429817
57	0x3f227ada	0.63468707
58	0xbf02b5d8	-0.5105872
59	0x3eaedd22	0.34153086
60	0x3ea776cd	0.32707825
61	0x3f58cceb	0.8468768
62	0x3cdd2248	0.026993886
63	0x3e464fc6	0.19366369
