logs/experiment/Discrete_A2C_1-5Box_10x10x10Bin-2022.08.09-15-00-00/PCT-Discrete_A2C_1-5Box_10x10x10Bin-2022.08.09-15-00-00_2022.08.09-23-28-59.pt (torch, 236314 bytes, 24 tensors)

actor.init_internal_node_embed.0.module.weight f4 [32, 6]
-0.5066714 0.027694814 -0.6950404 0.038123976 -0.20454079 0.062108148 -0.07814953 0.13654886
-0.36155927 -0.29105312 -0.4037458 -0.4499716 -0.07972668 0.041543577 0.2013871 0.22078077
0.12551776 -0.6784383 0.30893064 -0.16875668 0.29414198 -0.49487567 -0.14165547 0.6184606
-0.07741381 -0.3789899 0.15971509 0.07081202 0.28371498 0.82700354 -0.039565098 0.09568184
0.23662713 0.025456613 -0.08819433 -0.25200292 1.2982652 -0.4667457 -0.7982943 -1.3815022
0.6718583 0.6731946 -0.3703568 -0.34414548 0.07606889 -0.20934293 0.28210387 0.5762146
-0.08755358 0.42010352 0.6012994 -0.21743053 -0.24857935 0.34285688 0.40480044 -0.05458509
0.5211106 -0.06956494 -0.071857415 -0.033449497 -0.4560176 -0.3391662 -0.27713168 0.49322864
0.31621325 -0.32015312 -0.10935014 0.6468229 -0.49085596 0.13582739 -0.6429214 0.47114155
0.30223015 -0.5861136 -0.22999905 0.2623656 -0.2903046 0.16491887 0.19081846 0.27318814
-0.11617284 -0.28772742 -0.05835361 -0.116257384 0.27630186 -0.01023603 -0.0015432872 -0.15415704
0.00092333375 0.029645246 0.3270175 -0.117133655 0.31243822 -0.23460716 -0.2059259 0.26793385
-0.49888983 -0.52166146 -0.3659656 -0.39263543 -0.11731122 -0.3019619 0.020819314 0.15517856
0.31394163 -0.08173709 -0.021184973 -0.0011749864 -0.09384481 -0.7170249 -0.67412484 -0.073837265
-0.14878501 -0.15241122 0.23745683 -0.10406241 -0.81524295 -0.080089025 -0.07738889 0.43042073
0.027106939 -0.2292562 -0.010655978 -0.426335 -0.67606956 0.105206236 -0.06845312 -0.40911976
-0.649702 0.06605976 0.2992572 0.61342543 -0.34789154 0.0034539911 -0.78373873 0.2952424
0.5043096 0.029146925 0.11367732 -0.0523582 -0.42669746 -0.16899118 -0.42408088 -0.5577546
0.16219561 -0.1473802 0.72445786 -0.015526333 0.13230917 -0.09316828 0.09571195 -0.2795466
-0.5564002 0.2002883 0.40551788 -0.12579635 0.64690477 0.039977204 0.2118266 0.15497859
-0.16131066 -0.22532678 0.3577262 0.043381434 -0.20587611 0.44163623 0.070075 -0.12055415
-0.104253426 -0.21716474 0.13311289 0.53219014 0.4986551 -0.8100432 0.27221355 -0.24369495
-0.35110915 -0.08950614 0.10475251 -0.054207113 -0.31903806 -0.39780885 1.2925841 -0.115435705
-0.21586905 0.11640019 0.23227918 0.07342995 -0.10527384 0.056512594 -0.15355463 -0.10140939
00000000: 38b5 01bf 3ce0 e23c 2bee 31bf e327 1c3d
00000010: 2473 51be 1d65 7e3d dc0c a0bd 77d3 0b3e
00000020: 4c1e b9be ea04 95be c5b7 cebe ad62 e6be
00000030: be47 a3bd 9929 2a3d 6c38 4e3e 5b14 623e
00000040: ba87 003e 22ae 2dbf 282c 9e3e 8dce 2cbe
00000050: c799 963e 5860 fdbe 220e 11be 6f53 1e3f
00000060: 228b 9ebd f70a c2be 5a8c 233e e405 913d
00000070: 1743 913e 81b6 533f 030f 22bd d7f4 c33d
00000080: 624e 723e 638a d03c 3b9f b4bd 8706 81be
00000090: 8e2d a63f 4bf9 eebe 045d 4cbf 10d5 b0bf
000000a0: e8fe 2b3f 7b56 2c3f 689f bdbe d633 b0be
000000b0: 02ca 9b3d fe5d 56be eb6f 903e cd82 133f
000000c0: 4b4f b3bd cf17 d73e c2ee 193f 1ca6 5ebe
000000d0: 968b 7ebe f08a af3e 0142 cf3e 9e94 5fbd
000000e0: 8167 053f 1078 8ebd fb29 93bd 5702 09bd
000000f0: 247b e9be 31a7 adbe 34e4 8dbe 7788 fc3e
00000100: b4e6 a13e 1ceb a3be f7f2 dfbd 3096 253f
00000110: 7951 fbbe 5616 0b3e 7f96 24bf 7739 f13e
00000120: e9bd 9a3e 8a0b 16bf df84 6bbe c954 863e
00000130: cea2 94be 7ee0 283e ea65 433e 51df 8b3e
00000140: 07ec edbd 0251 93be 3204 6fbd 5a18 eebd
00000150: 7077 8d3e 06b5 27bc 2048 caba 58db 1dbe
00000160: e10b 723a 96da f23c d66e a73e c5e3 efbd
00000170: e7f7 9f3e dc3c 70be 3dde 52be a02e 893e
00000180: 7d6e ffbe 9b8b 05bf d85f bbbe 8307 c9be
00000190: dd40 f0bd c09a 9abe 448d aa3c 21e7 1e3e
000001a0: f5bc a03e c765 a7bd 1c8c adbc 0002 9aba
000001b0: b531 c0bd f28e 37bf 7293 2cbf fe37 97bd
000001c0: 195b 18be b011 1cbe e227 733e ac1e d5bd
000001d0: c3b3 50bf b705 a4bd 117e 9ebd 1b60 dc3e
000001e0: 5f0f de3c 23c2 6abe 6996 2ebc 9548 dabe
000001f0: e512 2dbf 5e76 d73d 2631 8cbd 2578 d1be
00000200: df52 26bf 574a 873d 3d38 993e 7309 1d3f
00000210: d71e b2be 5b5c 623b 1aa3 48bf 032a 973e
00000220: 6f1a 013f 88c5 ee3c a8cf e83d 8d75 56bd
00000230: 1778 dabe 060c 2dbe 2121 d9be 01c9 0ebf
00000240: 9b16 263e d6ea 16be 1276 393f 2962 7ebc
00000250: 0e7c 073e 03cf bebd a004 c43d bb20 8fbe
00000260: 3e70 0ebf 6018 4d3e 0aa0 cf3e c2d0 00be
00000270: 8d9b 253f 23bf 233d 12e9 583e b5b2 1e3e
00000280: 9f2e 25be 10bc 66be e327 b73e bbb0 313d
00000290: 30d1 52be 251e e23e 7b83 8f3d 18e5 f6bd
000002a0: d282 d5bd 6f60 5ebe bf4e 083e 9d3d 083f
000002b0: b94f ff3e fe5e 4fbf 935f 8b3e 2b8b 79be
000002c0: 94c4 b3be ff4e b7bd 7c88 d63d 4708 5ebd
000002d0: f558 a3be 9aad cbbe 6573 a53f 8e69 ecbd
000002e0: c70c 5dbe 3963 ee3d 98da 6d3e 7162 963d
000002f0: d099 d7bd c079 673d 6d3d 1dbe baaf cfbd

actor.init_internal_node_embed.0.add_bias._bias f4 [32, 1]
0.013737469 -0.40107092 -0.005033326 -0.02282028 0.14660545 0.038994372 0.0062623657 -0.008331109
0.04443133 0.105172224 0.008152156 0.015737165 -0.00079621864 0.0004313515 -0.013179654 0.029896855
-0.29262114 -0.059830707 0.043834276 0.0020410095 -0.23443969 0.05663252 0.048966005 0.11654376
0.03423995 0.0035714828 0.0057796147 0.0701518 0.027139395 -0.0472895 0.07182674 -0.070449255
00000000: 1f13 613c 2b59 cdbe 99ee a4bb 99f1 babc
00000010: bd1f 163e 90b8 1f3d 8834 cd3b 347f 08bc
00000020: a0fd 353d 8964 d73d 9f90 053c 3aeb 803c
00000030: 54b9 50ba 0527 e239 7aef 57bc 40ea f43c
00000040: 70d2 95be 0b11 75bd 928b 333d 75c2 053b
00000050: f510 70be 80f7 673d 9490 483d 7fae ee3d
00000060: 313f 0c3d 8a0f 6a3b ec62 bd3b bfab 8f3d
00000070: 7053 de3c a2b2 41bd e619 933d b347 90bd

actor.init_internal_node_embed.2.module.weight f4 [64, 32]
0.16203733 0.15742607 -0.15794325 0.1372946 0.04261783 0.10529156 0.15864293 0.5036835
0.35096985 -0.11987491 0.82296705 0.20601444 0.03140337 -0.17980449 -0.6930147 0.29574987
-0.041091464 0.2658347 0.018623294 0.22723155 -0.23185754 0.13998276 1.1045321 -0.032623935
0.6026893 0.18688282 0.14776279 0.29447123 0.07833558 -0.005200912 -0.17847523 0.05865757
0.31594327 0.10342237 -0.53639764 -0.45414433 -0.024834696 0.20908187 0.07347757 -0.2946711
-0.18702027 0.17575495 0.4041389 0.13412724 0.4951606 -0.0034748912 -0.027458664 0.24413419
-0.049325936 -0.17000122 -0.13994628 -0.15143426 0.05659297 0.37944603 0.9366194 0.3378923
-0.24657694 0.17257692 0.0033952112 0.065442815 0.66034675 0.16109894 0.27931994 -0.019258333
-0.29801106 0.03553516 0.5567064 0.6945921 0.50493264 -0.014115593 -0.31462342 1.0244353
-0.28875136 -0.2993096 -0.46082574 -0.84636337 0.10558233 0.23890486 0.59738904 -0.6262867
-0.062672906 0.049460977 0.025626635 -0.41950503 -0.0160151 0.44346005 -0.08326154 -0.20818938
-0.095313415 0.0538151 -0.028735429 0.03193967 0.32474852 -0.17745748 0.22441679 0.1375119
0.011428235 -0.2160526 -0.048279032 0.5441529 0.14151688 -0.013953984 -0.0011404468 0.22892302
0.0416668 -0.07483682 0.018239407 -0.09806043 -0.30106542 0.07040572 -0.33363622 -0.024142507
0.112937264 -0.30712736 0.08968292 0.043111004 -0.26611856 0.64504963 -0.2191352 0.2406495
0.18259303 0.024408167 0.06522413 0.28143507 0.21450302 -0.043530665 -0.22470835 0.23725535
0.3322096 -0.14193295 -0.1841493 0.13921626 -0.5350984 -0.11804967 0.5198884 -0.4167563
-0.6276185 0.52262634 0.41675037 0.38081568 -0.0117330095 -0.16467454 0.35039994 -0.035179667
-0.016239919 -0.14474681 -0.0018439548 0.12389705 -0.16076969 0.4697457 0.18413042 -0.09119807
-0.2245838 0.20974967 0.24405949 0.12062622 0.5847926 0.09189293 0.1621506 -0.12371038
-0.27995986 -0.09089906 -0.060642477 -0.041055545 0.9096176 -0.32800984 -0.25388348 0.28134024
0.24566638 -0.0029358508 0.84259224 -0.29583028 -0.04203847 -0.21302383 -0.006312674 0.2672311
0.23132081 0.25142065 -0.12042042 0.10383449 -0.043266494 0.021111637 0.34282127 -0.64371264
-0.033748094 0.2796704 0.21834543 0.41857824 0.007963684 -0.071561165 0.032364536 0.14323835
0.2624697 0.019107195 0.15272912 0.018086813 0.49414498 0.07119045 -0.15439987 0.16410202
0.07621042 -0.28414392 0.38171378 -0.12757231 -0.265762 -0.0062208893 0.27104434 -0.44857734
0.015855566 -0.29879352 0.08289755 -0.017428473 0.014483814 0.10475982 -0.009941496 0.18969522
-0.046823014 0.09435611 -0.25011224 0.43994954 -0.33677968 0.099307604 -0.4609033 -0.037108127
-0.15792301 -0.12171892 -0.46590438 -0.36655825 -0.34414664 -0.014432535 0.10977701 -0.040158853
0.21820663 0.40796584 0.46639657 0.44642985 -0.20283641 0.046580214 -0.22230467 -0.041364927
-0.06340823 -0.16627036 0.19802767 0.22246785 0.040480983 -0.47263744 0.67540556 -0.030368172
-0.6411461 0.14037491 -0.4123696 -0.4958244 0.6646349 0.1857215 0.3591673 -0.08771025
00000000: 1ded 253e 4d34 213e e0bb 21be f596 0c3e
00000010: 0990 2e3d 1aa3 d73d 4b73 223e 67f1 003f
00000020: 52b2 b33e fa80 f5bd f8ad 523f 73f5 523e
00000030: d2a0 003d ab1e 38be 6969 31bf 876c 973e
00000040: 864f 28bd 7c1b 883e e18f 983c 63af 683e
00000050: 106c 6dbe a457 0f3e 4f61 8d3f ada0 05bd
00000060: d949 1a3f 365e 3f3e 214f 173e efc4 963e
00000070: 686e a03d 696c aabb 36c2 36be ec42 703d
00000080: 51c3 a13e 1ccf d33d 5b51 09bf 9b85 e8be
00000090: 2272 cbbc 8f19 563e 697b 963d 21df 96be
000000a0: 3e82 3fbe 1bf9 333e 4beb ce3e a758 093e
000000b0: b185 fd3e 00bb 63bb fef0 e0bc 50fe 793e
000000c0: fe09 4abd cd14 2ebe 144e 0fbe 9511 1bbe
000000d0: 08ce 673d c046 c23e 4ac6 6f3f 3800 ad3e
000000e0: aa7e 7cbe 01b8 303e 3182 5e3b e206 863d
000000f0: 7c0c 293f 1ff7 243e 0603 8f3e a7c3 9dbc
00000100: e894 98be 518d 113d 5084 0e3f cad0 313f
00000110: 4443 013f 1745 67bc 5216 a1be b220 833f
00000120: 38d7 93be 1c3f 99be 5af1 ebbe 45ab 58bf
00000130: 8c3b d83d 7aa3 743e 7dee 183f 5354 20bf
00000140: a75a 80bd 9897 4a3d f3ee d13c 5dc9 d6be
00000150: 1932 83bc 320d e33e 0785 aabd 992f 55be
00000160: ae33 c3bd 396d 5c3d 9066 ebbc 2cd3 023d
00000170: 7045 a63e 6ab7 35be 84cd 653e ebcf 0c3e
00000180: 7e3d 3b3c e53c 5dbe 3cc0 45bd 9b4d 0b3f
00000190: cde9 103e 409f 64bc 0b7b 95ba cc6a 6a3e
000001a0: ceaa 2a3d 0c44 99bd cf6a 953c e8d3 c8bd
000001b0: 3f25 9abe e030 903d 5ed2 aabe 82c6 c5bc
000001c0: a74b e73d cc3f 9dbe aeab b73d 2a95 303d
000001d0: b140 88be f921 253f fa64 60be d36c 763e
000001e0: abf9 3a3e a3f3 c73c 3b94 853d 4218 903e
000001f0: aea6 5b3e 364d 32bd f219 66be 11f3 723e
00000200: 6017 aa3e df56 11be a291 3cbe b58e 0e3e
00000210: 35fc 08bf 06c4 f1bd 6817 053f 1561 d5be
00000220: 9bab 20bf d7ca 053f 4e60 d53e 46fa c23e
00000230: cf3b 40bc 71a0 28be 9f67 b33e 8e18 10bd
00000240: 9409 85bc 8238 14be dbb0 f1ba bdbd fd3d
00000250: cfa0 24be 8282 f03e af8c 3c3e 0ec6 babd
00000260: 4cf9 65be 9ec8 563e bbea 793e e10a f73d
00000270: f8b4 153f 5c32 bc3d cf0a 263e de5b fdbd
00000280: e656 8fbe 4929 babd 3f64 78bd dc29 28bd
00000290: b3dc 683f e8f0 a7be 04fd 81be d40b 903e
000002a0: f88f 7b3e 6767 40bb 20b4 573f 1177 97be
000002b0: 8830 2cbd eb22 5abe 8cda cebb 84d2 883e
000002c0: 5ddf 6c3e 35ba 803e fb9e f6bd 2da7 d43d
000002d0: 3538 31bd 50f2 ac3c 4586 af3e 5aca 24bf
000002e0: 713b 0abd f530 8f3e f295 5f3e e34f d63e
000002f0: 1d7a 023c a98e 92bd ad90 043d 13ad 123e
00000300: 6e62 863e b186 9c3c 0665 1c3e cc2a 943c
00000310: 9200 fd3e 4ccc 913d 001b 1ebe 5c0a 283e
00000320: 3514 9c3d 507b 91be fd6f c33e 51a2 02be
00000330: f511 88be 9ad8 cbbb 53c6 8a3e eeab e5be
00000340: 88e3 813c 77fb 98be 31c6 a93d 28c6 8ebc
00000350: 854d 6d3c 518c d63d a8e1 22bc 773f 423e
00000360: 7dc9 3fbd c73d c13d b60e 80be 1141 e13e
00000370: 636e acbe c961 cb3d 84fb ebbe b1fe 17bd
00000380: 92b6 21be c547 f9bd 058b eebe 86ad bbbe
00000390: fd33 b0be 7076 6cbc c5d2 e03d 9c7d 24bd
000003a0: 8f71 5f3e e6e0 d03e 88cb ee3e 7492 e43e
000003b0: 59b4 4fbe e5ca 3e3d d6a3 63be 456e 29bd
000003c0: 2ddc 81bd c742 2abe c4c7 4a3e 9dce 633e
000003d0: 63cf 253d 89fd f1be 61e7 2c3f acc6 f8bc
000003e0: 2722 24bf 71be 0f3e 1c22 d3be b2dc fdbe
000003f0: 8325 2a3f c72d 3e3e c7e4 b73e 6ea1 b3bd

actor.init_internal_node_embed.2.add_bias._bias f4 [64, 1]
0.18060109 0.30160624 -0.05440217 0.07201149 0.16065653 0.28921962 0.04428446 0.11315698
-0.085829936 -0.097670384 0.0060784617 0.03184826 -0.060951713 0.08182592 0.14426003 0.14914179
0.023939976 -0.1938776 0.023147507 0.080790065 -0.011121549 0.022161365 -0.05605841 -0.07155512
0.11569994 -0.04013665 -0.04626385 0.037397403 -0.09055979 -0.00021330957 0.009968632 0.0038005202
0.084276326 0.02998603 0.28479487 -0.06333702 0.025931437 -0.14378332 -0.031210735 0.2019793
-0.045345247 -0.24910149 0.15479414 -0.01067929 -0.13533467 -0.054893617 -0.28568026 -0.26135582
0.2670061 0.009967138 0.10337179 0.053192317 -0.02180897 -0.015493079 -0.043916907 0.21380702
0.22816911 -0.07990672 0.01439194 0.04698286 0.055740114 0.106018506 -0.035152476 0.017979253
00000000: 7eef 383e 226c 9a3e cfd4 5ebd c37a 933d
00000010: 2583 243e 9814 943e 9f63 353d d9be e73d
00000020: 9bc7 afbd 6907 c8bd d52d c73b 5273 023d
00000030: 81a8 79bd 5994 a73d e7b8 133e a0b8 183e
00000040: c51d c43c d987 46be d79f bd3c 4375 a53d
00000050: 2837 36bc c08b b53c 819d 65bd 7e8b 92bd
00000060: 17f4 ec3d 5466 24bd 2a7f 3dbd 052e 193d
00000070: 6977 b9bd daab 5fb9 7953 233c 2612 793b
00000080: 1199 ac3d 43a5 f53c a2d0 913e d7b6 81bd
00000090: 2a6e d43c ef3b 13be a8ad ffbc a9d3 4e3e
000000a0: f0bb 39bd 7614 7fbe 5b82 1e3e 30f8 2ebc
000000b0: 2c95 0abe 21d8 60bd af44 92be 6ed0 85be
000000c0: 06b5 883e 354d 233c 97b4 d33d 30e0 593d
000000d0: baa8 b2bc afd6 7dbc 37e2 33bd 3af0 5a3e
000000e0: 2aa5 693e 22a6 a3bd 2ccc 6b3c 1971 403d
000000f0: bf4f 643d 3b20 d93d 0bfc 0fbd 3a49 933c

actor.init_leaf_node_embed.0.module.weight f4 [32, 8]
-0.0754709 -0.3433299 -0.39440656 -0.07349015 0.16960374 0.37057927 0.49556488 0.26958755
-0.40723893 -0.6882819 -0.066922426 -0.30961308 -0.23655973 0.3312371 -0.022073694 0.36473003
0.20457615 -0.380277 -0.1247463 0.4065709 0.0067907954 -0.3184665 -0.05668357 -0.067440934
-0.40373534 -0.19363408 -0.24212949 -0.2525994 0.331047 0.04527883 0.45127562 0.114205725
-0.03280813 -0.17054595 0.07273941 0.10731735 0.36852092 0.13282003 -0.49865738 0.39125538
0.096498825 0.14672117 -0.5338536 0.15538594 -0.4638499 0.5240769 -0.12240198 -0.2569163
-0.41278654 -0.19062613 -0.059644148 0.014169555 0.059320528 -0.18175241 -0.09980849 -0.10941601
0.38395712 -0.43862724 0.26285675 0.45215675 -0.03911794 0.38855737 0.044950716 0.2253498
0.101030074 0.12721217 -0.16760716 0.3398954 0.0976463 0.08467388 0.49037474 0.34801507
-0.089646205 0.33373204 -0.18097469 0.30319604 0.031397745 -0.12006677 0.4524055 -0.29887226
0.05303848 0.09506685 0.2787517 -0.06887268 0.35108897 -0.030239193 -0.19306481 0.021164838
-0.290704 0.031229109 0.18530202 0.099568605 0.46777058 0.09422985 -0.0166643 -0.3579186
0.38767895 0.07876392 0.56752926 -0.3414072 -0.089597896 -0.06398708 0.36708963 -0.116579294
-0.22419287 0.008033817 0.24517481 -0.13143305 -0.28055117 -0.17053767 0.35581025 0.0762532
0.16955946 -0.016628277 0.16207992 0.45722482 0.11319672 0.41106987 0.11389746 -0.07272469
0.5047157 0.14386287 -0.114809096 -0.52691907 0.18548979 0.47355795 0.035715528 -0.30470893
-0.048779573 0.07936349 -0.2869872 0.35508716 0.19604184 0.015233911 -0.24215657 0.078400984
-0.08067641 0.37735388 0.11113857 0.07446357 -0.277614 0.092312254 0.18544158 0.2879545
-0.21238469 0.047718752 0.066409335 -0.35004306 -0.2334956 0.3571296 0.049006805 0.11954338
-0.39307696 0.14599308 -0.09446595 0.28222042 0.043643314 0.520609 -0.0895742 0.106007986
-0.24353671 -0.27143782 -0.30878115 -0.04741445 0.02857078 0.41696122 -0.14125684 -0.26208043
0.13142298 -0.14297947 0.48560253 -0.111843444 0.019885786 -0.1111593 -0.19497034 0.05800785
-0.32956254 0.35272363 0.017410392 0.31940198 0.24922937 0.17908728 0.11806061 0.13221456
-0.2978357 -0.14486623 0.06873329 -0.07331808 0.45180717 -0.042261686 -0.037020203 -0.062129177
0.054822203 0.07752237 0.24870683 -0.017704178 0.22999313 0.06286912 -0.017179154 0.49396384
0.30056867 0.20362698 -0.4962021 -0.3220221 0.051210098 -0.021465383 0.046824694 -0.2999806
0.24436103 -0.17268397 0.118935786 0.41443107 0.15531299 0.118902504 0.44521493 -0.278283
0.030080864 -0.17124395 -0.3838489 0.14558606 0.59586096 -0.060563255 0.21698657 0.36417335
0.29961327 -0.18671946 -0.119983435 -0.114292875 -0.037037786 -0.37913716 0.102220036 0.20314844
0.11228357 0.24614401 -0.1859929 -0.21184614 0.28967908 0.010829964 -0.2170839 0.16490386
0.28446928 0.47223583 -0.5142576 -0.1255064 -0.2109692 -0.17175446 -0.03516907 0.45629385
0.10602824 0.42135185 -0.06441811 -0.21244104 0.11281006 0.38982093 0.17210491 -0.09707967
00000000: 7d90 9abd f0c8 afbe a8ef c9be 0182 96bd
00000010: 9aac 2d3e 91bc bd3e aeba fd3e 6107 8a3e
00000020: 9f81 d0be 3e33 30bf a00e 89bd 9b85 9ebe
00000030: b73c 72be e997 a93e e4d3 b4bc e5bd ba3e
00000040: 697c 513e abb3 c2be fd7a ffbd 102a d03e
00000050: 5285 de3b 0b0e a3be 082d 68bd 791e 8abd
00000060: 66b6 cebe 0348 46be cbf0 77be b554 81be
00000070: fe7e a93e 4b76 393d 990d e73e b1e4 e93d
00000080: d161 06bd 99a3 2ebe 66f8 943d 33c9 db3d
00000090: c6ae bc3e f901 083e 0550 ffbe a052 c83e
000000a0: 2da1 c53d 133e 163e a1aa 08bf 7e1d 1f3e
000000b0: bc7d edbe e729 063f e4ad fabd 898a 83be
000000c0: c258 d3be 7f33 43be 6c4d 74bd 6c27 683c
000000d0: 15fa 723d 4e1d 3abe 6568 ccbd 8015 e0bd
000000e0: 0796 c43e c093 e0be 2995 863e 1781 e73e
000000f0: 223a 20bd fef0 c63e 3e1e 383d 19c2 663e
00000100: dbe8 ce3d e843 023e 36a1 2bbe c506 ae3e
00000110: c9fa c73d 8069 ad3d 6612 fb3e 082f b23e
00000120: 6e98 b7bd edde aa3e 6e51 39be 833c 9b3e
00000130: ec9a 003d 91e5 f5bd b2a1 e73e c905 99be
00000140: e13e 593d 69b2 c23d 8bb8 8e3e 1f0d 8dbd
00000150: efc1 b33e 2fb8 f7bc c8b2 45be e261 ad3c
00000160: 28d7 94be 30d4 ff3c d0bf 3d3e a0ea cb3d
00000170: a07f ef3e 94fb c03d 9283 88bc 1b41 b7be
00000180: db7d c63e fa4e a13d 9949 113f edcc aebe
00000190: 1a7f b7bd a80b 83bd 2cf3 bb3e 20c1 eebd
000001a0: d192 65be 45a0 033c 1b0f 7b3e 6396 06be
000001b0: 67a4 8fbe 6da1 2ebe c32c b63e a32a 9c3d
000001c0: ffa0 2d3e 0638 88bc 47f8 253e 5f19 ea3e
000001d0: afd3 e73d c077 d23e 1243 e93d aff0 94bd
000001e0: 0c35 013f ca50 133e 0821 ebbd 2be4 06bf
000001f0: 09f1 3d3e 3076 f23e 724a 123d cf02 9cbe
00000200: 17cd 47bd 5389 a23d fcef 92be fccd b53e
00000210: 31bf 483e a797 793c e4f7 77be b290 a03d
00000220: ac39 a5bd 8734 c13e 9e9c e33d 5b80 983d
00000230: 6c23 8ebe 350e bd3d 66e4 3d3e c66e 933e
00000240: 5f7b 59be bd74 433d 9e01 883d d838 b3be
00000250: 7819 6fbe b1d9 b63e 5cbb 483d 29d3 f43d
00000260: 6241 c9be 367f 153e 5d77 c1bd 327f 903e
00000270: 55c3 323d a246 053f ae72 b7bd b71a d93d
00000280: b061 79be e6f9 8abe 9018 9ebe a835 42bd
00000290: 450d ea3c f17b d53e a2a5 10be 682f 86be
000002a0: bf93 063e 3669 12be e5a0 f83e 2d0e e5bd
000002b0: 84e7 a23c 7da7 e3bd 4ea6 47be a499 6d3d
000002c0: 6cbc a8be 3198 b43e 3da0 8e3c a888 a33e
000002d0: fc35 7f3e a862 373e c3c9 f13d 4163 073e
000002e0: ec7d 98be d057 14be 0ac4 8c3d ca27 96bd
000002f0: 4553 e73e 971a 2dbd 7fa2 17bd 2a7b 7ebd
00000300: 3f8d 603d 0cc4 9e3d 01ad 7e3e 5a08 91bc
00000310: 5283 6b3e 86c1 803d 4cbb 8cbc d4e8 fc3e
00000320: 23e4 993e 9783 503e 340e febe 15e0 a4be
00000330: aec1 513d 2cd8 afbc 40cb 3f3d 0f97 99be
00000340: c739 7a3e 11d4 30be 9b94 f33d 4f30 d43e
00000350: 5e0a 1f3e 2883 f33d 36f3 e33e 1c7b 8ebe
00000360: 256c f63c 935a 2fbe d887 c4be 8314 153e
00000370: 588a 183f 2d11 78bd ba31 5e3e ee74 ba3e
00000380: e966 993e 6333 3fbe e0b9 f5bd 6212 eabd
00000390: efb4 17bd 441e c2be bd58 d13d 2506 503e
000003a0: eef4 e53d 2d0d 7c3e ec74 3ebe 32ee 58be
000003b0: d150 943e 2970 313c 3e4b 5ebe 8fdc 283e
000003c0: f5a5 913e e5c8 f13e 63a6 03bf c084 00be
000003d0: 4f08 58be 67e0 2fbe 710d 10bd 599f e93e
000003e0: 5525 d93d 6ebb d73e a4ed 83bd 258a 59be
000003f0: f608 e73d 9c96 c73e 453c 303e b5d1 c6bd

actor.init_leaf_node_embed.0.add_bias._bias f4 [32, 1]
0.011573222 0.029441386 0.0058782757 0.007969587 -0.11736003 0.015057462 -0.05016278 -0.026597211
0.07783751 0.034856685 0.040266756 -0.029898256 0.00163647 -0.022890512 0.12888813 0.0007285105
-0.039672434 -0.048526272 0.011451886 -0.003348121 0.035954833 0.039279297 0.12018336 -0.021255087
0.012309745 0.01248191 0.091386415 -0.020998554 -0.09114001 0.0029836937 0.008828294 -0.15233454
00000000: 9c9d 3d3c 102f f13c 8d9e c03b df92 023c
00000010: 755a f0bd 93b3 763c 7d77 4dbd 65e2 d9bc
00000020: 4669 9f3d e2c5 0e3d c1ee 243d 30ed f4bc
00000030: d27e d63a e284 bbbc 40fb 033e 83f9 3e3a
00000040: 907f 22bd 7cc3 46bd b1a0 3b3c 266c 5bbb
00000050: 6045 133d 54e3 203d b222 f63d 261f aebc
00000060: d0ae 493c ed80 4c3c cd28 bb3d 2905 acbc
00000070: 9da7 babd 138a 433b 8da4 103c 96fd 1bbe

actor.init_leaf_node_embed.2.module.weight f4 [64, 32]
0.13764045 0.5466087 0.15528627 0.38014 -0.25279608 0.38809896 0.3042053 -0.2532952
-0.0061919233 0.17964543 0.01743169 -0.008135676 -0.34397972 -0.13546011 0.14249457 0.09471275
0.18359071 -0.12821253 0.09661418 0.32536626 0.6340218 -0.5056018 0.63489 0.37335238
0.040097486 -0.027411288 -0.012587175 0.3338016 -0.13270772 0.14954653 0.10408658 -0.29645514
-0.11982806 -0.2714009 -0.21738079 -0.16160092 -0.27595085 0.3367873 -0.2307613 0.22055236
0.3070939 -0.34362847 0.06627488 -0.120106086 0.28404042 0.046384394 0.07846178 0.09123175
0.024177177 0.15904361 0.046071995 -0.46689904 -0.45620608 0.60503227 0.19362557 0.26053992
0.0880536 0.16867779 0.124076165 -0.20868509 0.07915512 0.08536449 0.2657462 -0.16885787
0.0049133105 -0.0038875914 0.21941127 -0.3781806 0.17057782 -0.116949 -0.111482196 -0.08389287
-0.34182656 0.42652896 0.0669814 0.13199629 -0.19054896 0.04154219 0.14369844 0.15147263
-0.33098194 -0.2847572 0.19324245 0.06751184 -0.0678861 0.13371487 0.13324648 0.061423592
0.32338065 -0.10482764 0.1893997 -0.003375961 -0.15771854 -0.012273145 -0.49153844 -0.21942659
-0.20360231 0.13810085 -0.31935376 0.61720747 -0.206114 0.06774598 -0.16067874 0.1851926
-0.02465157 0.11115181 0.22806622 0.18480186 0.62127274 -0.2665851 -0.0746926 -0.19817623
-0.13891724 0.238614 -0.0022340417 0.053367022 -0.5120776 0.010143856 -0.10839707 -0.2570807
0.102448106 -0.15533225 0.27520064 0.19465153 0.20939158 0.028984964 -0.05161354 0.08091544
-0.35155872 -0.40883097 -0.07748412 -0.14837551 -0.002534639 -0.28383094 -0.23147376 -0.20071094
-0.59839314 0.39768696 -0.0021474008 -0.010326002 0.47310078 -0.019213228 -0.28027803 0.18748644
0.09073736 -0.2592513 -0.28430364 -0.10126956 0.16443287 0.26967546 0.094951436 -0.08689633
-0.20534849 0.10740728 -0.06652082 0.06446635 -0.084670074 0.009173927 0.21704489 -0.13691716
-0.1564036 0.2270311 -0.17623703 -0.38037014 0.10230395 0.21076205 0.07373371 -0.16137952
-0.3177713 -0.07217292 0.018039465 0.054437082 -0.19597392 -0.23957093 0.46066278 -0.21589853
0.24538463 0.03612486 -0.0034378672 -0.05297595 0.024645971 -0.07806809 -0.16801958 -0.32874283
-0.19851433 -0.013536774 0.032210506 0.1950757 -0.025525209 0.083513886 -0.23079154 -0.059929032
-0.1601811 -0.47435638 -0.43375126 0.083138704 -0.20389725 -0.20228314 0.025816768 0.032573417
-0.03409004 0.008512419 -0.011569876 -0.24849162 0.31275246 0.12146638 -0.17125283 -0.20602202
-0.15556085 0.676 0.10971792 -0.04563212 0.108840324 0.24766809 -0.14429429 0.16354851
0.082585946 0.2739869 -0.24666491 0.020219626 0.13716456 -0.087879494 -0.2651529 0.049222615
0.03496083 0.18744431 -0.36505386 -0.4106237 -0.53734803 -0.30700877 0.17933944 -0.21543051
-0.101724245 0.08745346 -0.005613039 -0.36982667 0.13192937 -0.32173753 -0.4146158 0.12740211
-0.41764745 0.22230332 -0.12618557 -0.1648215 0.013927511 0.685012 -0.067323685 -0.20501916
-0.07418778 0.09149126 -0.19929439 -0.2680876 0.18040341 -0.5290997 0.32973492 0.013306747
00000000: 9ef1 0c3e 8cee 0b3f 5d03 1f3e b6a1 c23e
00000010: 7d6e 81be e8b4 c63e ccc0 9b3e e9af 81be
00000020: 9ee5 cabb f9f4 373e e7cc 8e3c 804b 05bc
00000030: 1c1e b0be 0eb6 0abe 19ea 113e c2f8 c13d
00000040: 34ff 3b3e 254a 03be a8dd c53d 6896 a63e
00000050: 414f 223f 1f6f 01bf 2788 223f 0b28 bf3e
00000060: 433d 243d a38d e0bc 703a 4ebc 0be8 aa3e
00000070: 88e4 07be ba22 193e 582b d53d f8c8 97be
00000080: 6a68 f5bd 0ff5 8abe 1299 5ebe b67a 25be
00000090: 6e49 8dbe 636f ac3e b14c 6cbe 7ad8 613e
000000a0: 693b 9d3e 12f0 afbe 20bb 873d 2efa f5bd
000000b0: bf6d 913e 90fd 3d3d 92b0 a03d b6d7 ba3d
000000c0: 370f c63c 54dc 223e fdb5 3c3d 640d efbe
000000d0: d893 e9be 65e3 1a3f c845 463e 7d65 853e
000000e0: 7255 b43d dfb9 2c3e a51b fe3d 8bb1 55be
000000f0: 141c a23d 94d3 ae3d e30f 883e 14e9 2cbe
00000100: d6ff a03b f6c6 7ebb 59ad 603e e3a0 c1be
00000110: f4ab 2e3e f582 efbd c750 e4bd 06d0 abbd
00000120: e403 afbe 0162 da3e 8b2d 893d 092a 073e
00000130: 441f 43be 2528 2a3d af25 133e a41b 1b3e
00000140: 7776 a9be b2cb 91be 59e1 453e a643 8a3d
00000150: de07 8bbd 8dec 083e c471 083e 4e97 7b3d
00000160: 2692 a53e e0af d6bd fff1 413e 3a3f 5dbb
00000170: f880 21be 4d15 49bc edaa fbbe 5db1 60be
00000180: 207d 50be 4f6a 0d3e 5682 a3be 4f01 1e3f
00000190: 8c0f 53be 68be 8a3d f888 24be 21a3 3d3e
000001a0: 17f2 c9bc 8fa3 e33d 318a 693e b33c 3d3e
000001b0: bb0b 1f3f d87d 88be 6ff8 98bd b6ee 4abe
000001c0: 5240 0ebe 3a57 743e 0069 12bb 6197 5a3d
000001d0: 8517 03bf 6a32 263c 48ff ddbd 15a0 83be
000001e0: 50d0 d13d 6b0f 1fbe 19e7 8c3e bb52 473e
000001f0: bf6a 563e e071 ed3c b868 53bd ffb6 a53d
00000200: 81ff b3be 4b52 d1be ffaf 9ebd c0ef 17be
00000210: 301c 26bb 4a52 91be 7507 6dbe 2b87 4dbe
00000220: 4b30 19bf a09d cb3e 68bb 0cbb 642e 29bc
00000230: 443a f23e 0f65 9dbc 9a80 8fbe 72fc 3f3e
00000240: 82d4 b93d 96bc 84be 3f90 91be 6a66 cfbd
00000250: 1761 283e e712 8a3e e675 c23d b4f6 b1bd
00000260: e046 52be 59f8 db3d 113c 88bd ef06 843d
00000270: 8167 adbd 3d4e 163c 0441 5e3e 0334 0cbe
00000280: 4428 20be d77a 683e 7b77 34be e0bf c2be
00000290: bc84 d13d 02d2 573e b301 973d ac40 25be
000002a0: ebb2 a2be 65cf 93bd 80c7 933c 6bf9 5e3d
000002b0: 63ad 48be 1552 75be fedb eb3e 8114 5dbe
000002c0: 1c46 7b3e a9f7 133d d74d 61bb 4ffd 58bd
000002d0: 59e6 c93c 2ae2 9fbd 530d 2cbe fb50 a8be
000002e0: 5747 4bbe 58c9 5dbc 2aef 033d edc1 473e
000002f0: 3e1a d1bc 5409 ab3d 9e54 6cbe 2578 75bd
00000300: 8406 24be d7de f2be a514 debe a044 aa3d
00000310: 71ca 50be 5023 4fbe b07d d33c b46b 053d
00000320: ffa1 0bbd ac77 0b3c 948f 3dbc 9674 7ebe
00000330: 1721 a03e 5ec3 f83d e75c 2fbe 70f7 52be
00000340: 584b 1fbe 560e 2d3f cab3 e03d bfe8 3abd
00000350: ade7 de3d b49c 7d3e e2c1 13be 4379 273e
00000360: d222 a93d 0348 8c3e ba95 7cbe a1a3 a53c
00000370: de74 0c3e 2afa b3bd 1fc2 87be a79d 493d
00000380: 1633 0f3d 67f1 3f3e 57e8 babe 453d d2be
00000390: a48f 09bf 4130 9dbe c2a4 373e d199 5cbe
000003a0: cd54 d0bd cd1a b33d 95ed b7bb ec59 bdbe
000003b0: 7e18 073e c8ba a4be 8648 d4be b375 023e
000003c0: e3d5 d5be 7ba3 633e ca36 01be f8c6 28be
000003d0: 3730 643c f25c 2f3f 00e1 89bd 8bf0 51be
000003e0: c3ef 97bd c55f bb3d d413 4cbe c742 89be
000003f0: acbb 383e 1473 07bf 04d3 a83e 8b04 5a3c

actor.init_leaf_node_embed.2.add_bias._bias f4 [64, 1]
0.2718397 0.13680229 0.039542817 0.008481752 -0.17792799 0.010407951 -0.21438406 -0.2780639
-0.16265689 -0.1755101 0.2778596 -0.15488136 0.095543675 -0.09182968 -0.09677205 -0.07216344
0.14350417 -0.14260024 -0.32374215 -0.036317177 0.03710009 0.08582511 0.009568704 0.04430106
0.23474187 -0.042559903 -0.0019458202 -0.086551294 -0.17266329 0.114768915 -0.14378412 -0.016222587
0.108801804 -0.06156427 -0.15515642 0.14865911 0.22445546 -0.048729114 -0.028130746 -0.13322574
0.055317175 -0.5056622 0.1911557 0.05829499 -0.13602015 -0.04348612 -0.14466394 -0.038234487
-0.23266967 0.041201916 -0.053010415 -0.058653083 0.09988516 -0.16532369 -0.19107859 0.09990651
0.012875523 -0.22600876 0.19238806 -0.27185166 0.13500528 -0.13477895 0.06914596 0.02583491
00000000: 932e 8b3e e615 0c3e a6f7 213d 0cf7 0a3c
00000010: c132 36be 1c86 2a3c 7f87 5bbe 645e 8ebe
00000020: 878f 26be ebb8 33be 9d43 8e3e 3899 1ebe
00000030: 67ac c33d 3311 bcbd 6d30 c6bd 6dca 93bd
00000040: c2f2 123e cc05 12be 88c1 a5be 52c1 14bd
00000050: 44f6 173d 13c5 af3d 0ec6 1c3c 0775 353d
00000060: 2c60 703e 4b53 2ebd e40a ffba ce41 b1bd
00000070: a5ce 30be f70b eb3d 253c 13be 3be5 84bc
00000080: 7bd3 de3d d12a 7cbd 53e1 1ebe 183a 183e
00000090: a7d7 653e 2e98 47bd 7372 e6bc 546c 08be
000000a0: 4394 623d 1473 01bf 52be 433e bac6 6e3d
000000b0: de48 0bbe 801e 32bd c922 14be c49b 1cbd
000000c0: f540 6ebe 57c3 283d 7321 59bd 373e 70bd
000000d0: 9790 cc3d 9d4a 29be 1baa 43be c99b cc3d
000000e0: dcf3 523c d76e 67be 6001 453e 2430 8bbe
000000f0: d33e 0a3e 7e03 0abe 669c 8d3d bca3 d33c

actor.init_next_embed.0.module.weight f4 [32, 6]
0.16350523 -0.14783362 -0.29890305 -0.44390047 -0.28562397 0.010535609 -0.22610827 -0.097654946
0.18683255 -0.24642456 0.029009217 -0.22879963 0.5548262 -0.26774636 -0.25778565 -0.05302229
-0.13952614 0.22594905 -0.008841327 0.036373135 -0.033101637 0.4161392 -0.47076094 -0.36687803
0.108621985 -0.4220224 -0.12407604 -0.2503142 -0.09076909 -0.14908566 -0.022435872 -0.5772369
0.28352162 -0.7152682 -0.11494937 0.1681063 0.82893986 0.10291967 0.070973516 -0.119821385
-0.054907992 -0.35560754 -0.087994605 0.09831574 0.14582333 0.086111695 -0.30630124 0.17590801
-0.14520462 -0.5904613 0.2444619 -0.023244634 1.3589759 -0.705465 0.101820834 -0.29224053
-0.1822739 0.05146723 -0.34851682 -0.4625346 -0.32130936 0.1820992 0.016121991 0.37710613
0.27307948 -0.42275214 -0.13097231 -0.029234236 -0.02162771 0.0909891 0.068480395 0.094588
-0.35617733 -0.032835547 0.14581446 0.02219043 -0.2322247 -0.3304999 -0.0049085706 0.009134302
0.12415758 0.22998074 -0.39091864 -0.06260653 1.2859434 -0.22806235 -0.25601846 -0.643826
-0.077948295 0.025423715 -0.2220454 -0.06358731 -0.29770973 -0.1023559 -0.030068824 0.08321707
-0.31725004 -0.034050748 -0.11244481 -0.1464634 -0.26025766 0.079249956 0.56970346 -0.05052203
0.19700745 -0.2548522 -0.061226107 -0.0043262755 -0.062374786 0.2881259 0.22860755 -0.010156195
-0.071796685 0.25099072 0.9674511 0.2441345 -0.35871825 -0.21987553 0.14150102 0.15202184
0.26669267 0.026163727 -0.03635058 -0.14270587 -0.2622084 0.16528016 -0.029579474 -0.2110019
-0.7182638 -0.10448524 -0.13253814 -0.035307992 0.11434862 -0.1477266 -0.09739232 0.12942372
-0.35491922 0.059300024 0.6380009 -0.26592296 0.33082733 -0.36503825 0.42246372 0.3714101
1.2401903 -0.09954142 -0.18245748 -0.3001861 -0.16359897 0.2210897 0.17058548 0.28594753
-0.06433231 -0.19295415 -0.18879788 -0.39122614 0.00072710786 -0.32030162 0.18111199 -0.06673746
-0.23190942 -0.023983406 -0.5119918 -0.38239774 -0.18877986 -0.19469365 0.12680289 -0.1679217
0.55121315 0.20565565 -0.01903345 -1.2640924 0.020024924 0.13050137 0.44368556 0.23072688
-0.34367222 -0.6375034 -0.033756755 0.13082205 -0.20427595 -0.25917542 0.29571474 0.08030323
-0.004722316 -0.10862209 -0.06618084 -0.22645392 -0.47012034 -0.096093506 -0.09870708 -0.07387825
00000000: ea6d 273e b261 17be d209 99be ec46 e3be
00000010: 4e3d 92be 8c9d 2c3c ed88 67be 51ff c7bd
00000020: 0851 3f3e b856 7cbe bda4 ed3c 734a 6abe
00000030: 1709 0e3f 0d16 89be 7bfc 83be e72d 59bd
00000040: f1df 0ebe 305f 673e 37db 10bc fffb 143d
00000050: 9595 07bd 3210 d53e 9407 f1be 70d7 bbbe
00000060: 3475 de3d 5213 d8be 941b febd 2f29 80be
00000070: 25e5 b9bd e9a9 18be 6fcb b7bc ccc5 13bf
00000080: bf29 913e d11b 37bf 936a ebbd 0f24 2c3e
00000090: 6735 543f 8cc7 d23d 905a 913d ea64 f5bd
000000a0: 34e7 60bd 3112 b6be 8436 b4bd c359 c93d
000000b0: b652 153e 545b b03d 84d3 9cbe 3b21 343e
000000c0: 85b0 14be 7928 17bf 3854 7a3e 886b bebc
000000d0: ecf2 ad3f 5b99 34bf 7187 d03d 8da0 95be
000000e0: 02a6 3abe 4dcf 523d cc70 b2be 56d1 ecbe
000000f0: a982 a4be 3678 3a3e 4412 843c 0e14 c13e
00000100: 13d1 8b3e f872 d8be 9b1d 06be a37c efbc
00000110: 982c b1bc 7e58 ba3d 733f 8c3d 5ab7 c13d
00000120: e05c b6be 917e 06bd 6350 153e b4c8 b53c
00000130: 50cc 6dbe 4837 a9be 13d8 a0bb 0aa8 153c
00000140: 5446 fe3d 1280 6b3e 7d26 c8be da37 80bd
00000150: cb99 a43f 2d89 69be da14 83be c8d1 24bf
00000160: 5ba3 9fbd 6545 d03c df5f 63be 103a 82bd
00000170: 696d 98be f89f d1bd e552 f6bc b66d aa3d
00000180: 996e a2be cc78 0bbd 7749 e6bd 80fa 15be
00000190: 7e40 85be cd4d a23d 16d8 113f 30f0 4ebd
000001a0: 52bc 493e fd7b 82be 3ac8 7abd 6ec3 8dbb
000001b0: b47c 7fbd 3d85 933e 1918 6a3e 2b66 26bc
000001c0: 240a 93bd db81 803e e0aa 773f 65fe 793e
000001d0: eba9 b7be 0d27 61be a5e5 103e 9dab 1b3e
000001e0: f18b 883e 5055 d63c 59e4 14bd 7d21 12be
000001f0: 2e40 86be 343f 293e a750 f2bc e210 58be
00000200: 23e0 37bf 5cfc d5bd 14b8 07be 1d9f 10bd
00000210: 9c2f ea3d a445 17be a075 c7bd a787 043e
00000220: f9b7 b5be 95e4 723d 0754 233f 0e27 88be
00000230: 3362 a93e 4be6 babe 2a4d d83e 7729 be3e
00000240: 8ebe 9e3f 5fdc cbbd 22d6 3abe feb1 99be
00000250: 7d86 27be 5765 623e f6ad 2e3e b767 923e
00000260: a8c0 83bd c695 45be 3b54 41be cb4e c8be
00000270: 629b 3e3a 93fe a3be 6c75 393e a6ad 88bd
00000280: aa79 6dbe d978 c4bc e511 03bf a3c9 c3be
00000290: 824f 41be c65d 47be 9ed8 013e abf3 2bbe
000002a0: 4e1c 0d3f 6597 523e 0aec 9bbc c8cd a1bf
000002b0: 4f0b a43c 27a2 053e c12a e33e ab43 6c3e
000002c0: cef5 afbe 6c33 23bf 8644 0abd 37f6 053e
000002d0: b72d 51be a4b2 84be ec67 973e 0576 a43d
000002e0: a8bd 9abb 4275 debd d289 87bd 89e3 67be
000002f0: 9db3 f0be accc c4bd f026 cabd 7b4d 97bd

actor.init_next_embed.0.add_bias._bias f4 [32, 1]
0.17135112 0.05643221 -0.06931334 -0.057623606 0.010633305 -0.25733945 0.11640581 -0.06313118
-0.21595724 -0.058752134 -0.09831507 0.26036835 0.022106068 0.14805417 0.3761465 0.25390667
0.06628124 -0.22369632 -0.26954556 0.37623525 -0.08040514 0.00464694 -0.25164407 -0.063712925
0.25767997 -0.08759313 -0.15667464 0.023108127 0.039587945 0.14692686 0.12918973 0.10755715
00000000: ab76 2f3e 7625 673d 27f4 8dbd bb06 6cbd
00000010: 5037 2e3c ffc1 83be 2b66 ee3d ec4a 81bd
00000020: e523 5dbe 14a6 70bd 6959 c9bd 004f 853e
00000030: c917 b53c 839b 173e 4696 c03e 0e00 823e
00000040: 75be 873d a610 65be e001 8abe e8a1 c03e
00000050: 73ab a4bd 5c45 983b 7ed7 80be ec7b 82bd
00000060: a1ee 833e 0764 b3bd 516f 20be 414d bd3c
00000070: f826 223d ff73 163e 504a 043e ec46 dc3d

actor.init_next_embed.2.module.weight f4 [64, 32]
0.043080814 -0.10681792 -0.01070645 0.17852351 0.15075348 0.08050645 -0.18236728 -0.23033676
-0.092756525 0.31419048 0.088737935 -0.5698628 0.09570288 0.40791142 0.23564656 -0.3398199
-0.09922133 0.06702632 -0.018945392 -0.25168484 0.06357787 -0.058086205 -0.47474462 -0.46711078
-0.40368247 0.35340372 -0.17224886 -0.09068015 0.074381135 0.2230878 0.3002648 -0.0845902
0.19134317 -0.06029482 -0.16260284 -0.06633732 -0.093055 -0.1698469 -0.16902637 0.0012406155
0.22316824 0.04410394 0.47773817 0.31225526 -0.020646043 -0.14413504 -0.24206166 -0.019380743
0.1798498 0.020490305 -0.07153648 0.49096572 0.17174006 0.022723865 0.052862223 -0.20949392
-0.15150379 0.21708576 -0.011224776 -0.30899876 -0.10923603 -0.0110923145 -0.04639382 -0.05729385
-0.027503304 0.028566254 0.19490577 -0.12720196 -0.0069498396 0.1892669 -0.47316015 -0.34878257
-0.4056159 -0.14201364 0.022685315 0.43758178 0.09884867 -0.29784116 -0.8227656 0.11803952
-0.19993708 0.06432645 0.19262926 0.21107817 -0.0737384 -0.080572315 -0.062375247 0.46212688
-0.43739894 0.09825733 -0.21592781 -0.15742998 -0.47779953 -0.786231 -0.29539755 -0.22803175
-0.24819942 0.16416536 0.38908327 -0.09238696 -0.31039864 0.02471786 -0.41586798 0.12645075
-0.0069661834 0.2351633 -0.3427987 0.22712784 0.11065501 0.1529241 -0.19436699 -0.24965087
-0.14781739 0.20246457 0.031633496 -0.30328855 -0.015336387 0.072469756 0.16379571 0.7838653
-0.30179247 -0.43020526 -0.09337611 -0.32670617 -0.2602426 -0.20316792 0.09790484 -0.21938148
-0.21903917 -0.37978482 -0.014927656 0.23878926 0.12096549 -0.1622572 -0.14867973 -0.08288275
0.27195334 -0.12245427 -0.23569353 0.007969292 -0.03964194 0.12499458 0.0916915 -0.012679078
0.09412945 0.15170935 -0.15374573 -0.43884215 -0.17573309 0.09562903 0.16130796 -0.04169831
0.21341567 -0.09602581 0.44911793 0.19736372 -0.24144818 -0.109870635 -0.07918216 0.07312403
0.053216554 -0.037393246 0.043753266 -0.10211593 0.3342351 0.1975725 -0.0117657315 0.14305593
0.046290994 0.2136282 0.024045885 0.6875435 0.049056016 0.026864722 -0.16799717 0.54488474
-0.0031711815 0.3216736 0.11780684 0.9006195 0.049109027 -0.034174334 0.25415406 0.19341177
0.43646303 -0.08317871 0.06616716 0.35270792 -0.22140709 -0.26086554 0.22595301 -0.15313876
0.16333513 0.1765381 0.00537678 0.17428969 -0.07185644 0.0310515 -0.17466618 -0.32586884
0.09258466 0.2239924 0.07632075 0.17607845 0.022256605 -0.051895995 -0.1391375 -0.1452926
-0.050608706 0.16798235 -0.21340828 -0.05198982 0.20121245 -0.27123576 0.16899855 0.25850877
-0.22336823 0.07164659 0.039613243 -0.22598006 -0.030122591 -0.051686 0.10563958 -0.29920673
-0.4669604 0.04077579 -0.30280307 0.023373557 0.22381864 -0.29237002 -0.23056547 -0.19703732
-0.06453862 -0.034313772 0.35262445 0.42597756 0.09657576 0.15649185 0.5343173 0.5254099
0.036219906 0.347098 0.20144697 0.42710257 -0.33483446 0.013579816 -0.164568 0.7102448
0.4889133 0.024160728 0.09431337 -0.097040415 0.03524699 0.23407608 0.08154592 0.3670595
00000000: 8275 303d 5bc3 dabd 1b6a 2fbc dece 363e
00000010: 1f5f 1a3e 91e0 a43d 7dbe 3abe 66dd 6bbe
00000020: 22f7 bdbd 93dd a03e 3cbc b53d 87e2 11bf
00000030: dfff c33d c4d9 d03e 554d 713e e0fc adbe
00000040: 8d34 cbbd 1845 893d 5e33 9bbc d6dc 80be
00000050: 1d35 823d cdeb 6dbd ba11 f3be 2529 efbe
00000060: 78af cebe 55f1 b43e 0162 30be 84b6 b9bd
00000070: 2355 983d 2171 643e 4fbc 993e a03d adbd
00000080: 77ef 433e b4f7 76bd 5c81 26be dcdb 87bd
00000090: 9f93 bebd 59ec 2dbe 4015 2dbe 269c a23a
000000a0: 3786 643e 55a6 343d 199a f43e ecdf 9f3e
000000b0: e421 a9bc 2398 13be 03df 77be 5dc4 9ebc
000000c0: 8c2a 383e 49db a73c b881 92bd dc5f fb3e
000000d0: a0dc 2f3e 6627 ba3c 0f86 583d 9385 56be
000000e0: cf23 1bbe bb4b 5e3e 1fe8 37bc 1635 9ebe
000000f0: 24b7 dfbd 8abc 35bc 7207 3ebd f5ac 6abd
00000100: 9c4e e1bc c703 ea3c 6195 473e 3b41 02be
00000110: 7bbb e3bb 2fcf 413e 0c42 f2be a193 b2be
00000120: e3ac cfbe 066c 11be 8ed6 b93c b80a e03e
00000130: 2c71 ca3d a37e 98be c4a0 52bf b4be f13d
00000140: 4ebc 4cbe 96bd 833d 9b40 453e e024 583e
00000150: 2904 97bd 1903 a5bd 307d 7fbd e59b ec3e
00000160: c1f2 dfbe 243b c93d 2e1c 5dbe 5335 21be
00000170: 24a2 f4be 6f46 49bf 593e 97be 2881 69be
00000180: fd27 7ebe f71a 283e ec35 c73e 6035 bdbd
00000190: 92ec 9ebe 1c7d ca3c a6ec d4be 4e7c 013e
000001a0: 9544 e4bb a6ce 703e 5083 afbe 3394 683e
000001b0: 189f e23d 2398 1c3e 2408 47be 7aa4 7fbe
000001c0: 715d 17be df52 4f3e 2092 013d a348 9bbe
000001d0: 7845 7bbc 066b 943d 10ba 273e 65ab 483f
000001e0: 8b84 9abe dd43 dcbe f93b bfbd 0846 a7be
000001f0: 853e 85be 400b 50be 5582 c83d 8aa5 60be
00000200: ce4b 60be 2873 c2be 2193 74bc 2c85 743e
00000210: c1bc f73d c026 26be 803f 18be 6ebe a9bd
00000220: 783d 8b3e 4ec9 fabd a559 71be a291 023c
00000230: 965f 22bd 29fd ff3d c1c8 bb3d e8bb 4fbc
00000240: f1c6 c03d b259 1b3e 856f 1dbe ebaf e0be
00000250: 60f3 33be 27d9 c33d ea2d 253e d9cb 2abd
00000260: a389 5a3e 2ea9 c4bd c9f2 e53e b719 4a3e
00000270: 313e 77be db03 e1bd 422a a2bd 0dc2 953d
00000280: 9af9 593d a929 19bd a036 333d 2822 d1bd
00000290: dd20 ab3e 7250 4a3e 0ec5 40bc 417d 123e
000002a0: a09b 3d3d 5ac1 5a3e e0fb c43c da02 303f
000002b0: f6ee 483d 6813 dc3c 7307 2cbe 917d 0b3f
000002c0: 99d3 4fbb 67b2 a43e b644 f13d 008f 663f
000002d0: 8c26 493d 63fa 0bbd 7b20 823e bc0d 463e
000002e0: 1578 df3e 9959 aabd a682 873d 2296 b43e
000002f0: 8ab8 62be 2b90 85be 3a60 673e 68d0 1cbe
00000300: 5341 273e 67c6 343e b32f b03b ff78 323e
00000310: 7829 93bd b75f fe3c b1db 32be 48d8 a6be
00000320: 079d bd3d 445e 653e 0e4e 9c3d e94d 343e
00000330: 7c53 b63c e590 54bd 107a 0ebe 95c7 14be
00000340: 134b 4fbd 9103 2c3e b387 5abe 47f3 54bd
00000350: a30a 4e3e 6adf 8abe f50d 2d3e 435b 843e
00000360: a4ba 64be 73bb 923d 7f41 223d 5167 67be
00000370: a7c3 f6bc b3b4 53bd 9059 d83d a031 99be
00000380: 6f15 efbe 8404 273d 0109 9bbe e779 bf3c
00000390: b730 653e 86b1 95be 5b19 6cbe 27c4 49be
000003a0: d32c 84bd 998c 0cbd 318b b43e bb19 da3e
000003b0: 83c9 c53d 663f 203e 05c9 083f 4381 063f
000003c0: 535b 143d d4b6 b13e 1d48 4e3e 30ad da3e
000003d0: 6c6f abbe e07d 5e3c 8484 28be 9ad2 353f
000003e0: d852 fa3e b8ec c53c 5e27 c13d 20bd c6bd
000003f0: 265f 103d a4b1 6f3e 8c01 a73d 39ef bb3e

actor.init_next_embed.2.add_bias._bias f4 [64, 1]
-0.5107463 -0.42050448 -0.31297863 -0.3351649 -0.09204056 1.0595387 -0.45114568 0.77811795
0.9639606 -0.6210617 -0.7055439 0.009393877 1.2473116 -0.9821361 -0.91621476 -0.6268003
-0.83991385 0.82765174 0.61577106 -0.22233659 -0.096165605 -0.19593707 -1.3674059 0.56033343
-2.2891254 -0.81224567 -0.21112984 -1.0883747 0.5477503 0.42400187 -0.4796664 -0.6534607
-0.05326162 0.91197443 -0.34930518 -0.064496174 1.4165877 0.7583528 -0.35778993 0.63634896
-1.8043388 1.2210177 -0.41609624 -1.3966032 0.4227253 1.2654239 1.1657097 0.7190313
-0.6452179 0.3668932 0.7887099 0.37843752 0.3181573 -0.026448458 -0.31612882 -0.7181106
0.1157661 0.5271476 -0.44393924 0.22942322 0.37150806 0.84304625 0.08715249 0.2633082
00000000: 45c0 02bf 5d4c d7be bc3e a0be bc9a abbe
00000010: c37f bcbd f79e 873f 91fc e6be bd32 473f
00000020: 1fc6 763f e6fd 1ebf 869e 34bf c7e8 193c
00000030: e8a7 9f3f 456d 7bbf 0d8d 6abf fc75 20bf
00000040: 9804 57bf fce0 533f 2ca3 1d3f 34ac 63be
00000050: 79f2 c4bd baa3 48be 2807 afbf 0372 0f3f
00000060: 0881 12c0 55ef 4fbf 6c32 58be dd4f 8bbf
00000070: 5d39 0c3f c616 d93e d696 f5be 3349 27bf
00000080: db28 5abd 2877 693f 21d8 b2be 9216 84bd
00000090: bf52 b53f 6923 423f 3e30 b7be c4e7 223f
000000a0: 93f4 e6bf 4f4a 9c3f 910a d5be e5c3 b2bf
000000b0: 736f d83e 69f9 a13f fa35 953f 6f12 383f
000000c0: 002d 25bf 6dd9 bb3e e4e8 493f 90c2 c13e
000000d0: 83e5 a23e 70aa d8bc a3db a1be 19d6 37bf
000000e0: c716 ed3d 25f3 063f 014c e3be eced 6a3e
000000f0: 4e36 be3e e1d1 573f 017d b23d 55d0 863e

actor.embedder.layers.0.0.module.W_query.weight f4 [64, 64]
0.0015078983 -0.037319206 0.16162089 -0.14711343 0.04813291 -0.14027683 -0.04751136 0.015818348
0.18652157 -0.14979126 0.1543394 -0.017744655 0.040774047 -0.027716797 0.042818647 -0.016887136
0.03784709 0.04670576 0.014838082 0.09939582 0.08316698 -0.08974767 0.15536799 0.18475708
-0.2126704 0.1684384 0.079982676 -0.03314253 0.01064479 0.19903168 -0.0039892667 0.058305003
0.09360933 0.032207955 -0.24197048 0.15873533 -0.015376432 0.1216198 0.108141884 -0.01911345
0.124520235 0.027763197 -0.037598386 0.17634669 -0.06930798 -0.11407544 0.20513956 -0.061698813
-0.105137475 0.013220427 -0.03869343 -0.11882157 -0.12662594 0.04794931 0.06436555 -0.1137426
0.091285855 -0.10858607 0.12956162 -0.02053747 -0.07734134 -0.09566828 -0.06214064 -0.034779884
-0.29319778 -0.12818876 -0.122292615 -0.13289219 -0.0438303 -0.20858514 0.1714019 0.18593402
0.24083036 0.086480536 -0.16405855 -0.05333168 0.16366047 -0.020055044 -0.015798157 -0.01961044
-0.089898124 0.13341773 -0.013557088 0.23924956 0.0732431 -0.12626544 -0.0368126 -0.23116708
-0.19721173 -0.100671746 0.1746105 0.029160978 0.12542337 -0.11732146 0.15011673 -0.028064871
-0.21909851 -0.103028886 0.04263025 -0.056816034 -0.11374461 -0.10806627 -0.16767766 -0.1337589
-0.17855565 0.25488043 -0.19418561 0.04280931 0.17886078 -0.10354991 0.010512436 0.14692518
0.17443542 -0.08874766 -0.074896276 -0.21641482 -0.13153173 0.12165043 -0.030061297 -0.19550435
-0.1578454 0.34158075 -0.19060773 0.3330882 -0.100320555 0.18223894 -0.17584269 0.10597895
-0.22620933 0.006563471 0.032407064 0.068550944 0.14664681 -0.06395211 -0.03734138 0.041155662
-0.0040854965 0.06773211 -0.07230031 -0.049913798 0.09549115 0.054224122 0.051437728 0.14933556
0.023613058 0.10248884 0.10791994 0.039935257 0.11831854 0.039961245 -0.11383129 -0.12082819
-0.057408385 -0.05982254 0.04607171 -0.06863409 0.0093785 -0.025597872 -0.0021980656 -0.014198897
-0.052231617 -0.091264114 0.04278755 0.026176034 0.07822933 0.07554822 0.023768881 0.010823839
0.042291958 0.055838518 0.022111712 0.03490635 0.04431924 -0.12908013 0.17155442 0.1738086
-0.04458596 -0.048380274 0.037476607 0.011203024 -0.05555755 0.061398815 0.007855335 0.044505775
-0.030798929 0.07877367 -0.04614647 -0.048219003 -0.113505796 0.029344806 -0.08863288 -0.07476287
-0.07906092 0.068826884 -0.06782222 0.080275916 0.09758993 0.1644339 0.054309502 -0.084542446
-0.01009942 0.05087974 -0.10392118 -0.04367901 -0.14870724 0.042833053 -0.022863168 0.038041398
-0.01481394 0.037477512 -0.005675448 0.05922443 -0.12424015 0.059046865 -0.026489224 -0.025525473
-0.013766295 0.017913457 -0.10864039 0.089409344 0.09321409 -0.070885465 0.10456699 -0.036526076
-0.06517823 -0.03999398 -0.016481018 0.15360615 -0.013233948 0.08683124 0.004245608 -0.057881992
-0.18452752 0.13486414 0.13531467 -0.08053631 0.106586166 -0.111288466 0.021528399 -0.033269435
-0.00902897 0.01576509 0.056451757 0.017273935 0.21103834 0.11117743 0.09046115 0.056736432
0.11325709 -0.063239984 -0.08271078 -0.023807164 -0.12504141 -0.018620629 -0.023216497 -0.08156841
00000000: aca4 c53a 06dc 18bd f27f 253e e7a4 16be
00000010: 0427 453d bba4 0fbe 469b 42bd 7b95 813c
00000020: 83ff 3e3e e162 19be 260b 1e3e 3d5d 91bc
00000030: b002 273d 560e e3bc 9b62 2f3d e456 8abc
00000040: 8d05 1b3d 8a4e 3f3d 6d1b 733c 0990 cb3d
00000050: 7353 aa3d a0cd b7bd c918 1f3e f630 3d3e
00000060: 45c6 59be 1e7b 2c3e f5cd a33d 76c0 07bd
00000070: 7c67 2e3c f6ce 4b3e 65b8 82bb 3ad1 6e3d
00000080: 40b6 bf3d 7dec 033d 1cc7 77be 848b 223e
00000090: 6eed 7bbc cd13 f93d 7e79 dd3d cf93 9cbc
000000a0: 7704 ff3d a56f e33c c400 1abd 3a94 343e
000000b0: 58f1 8dbd 62a0 e9bd 1b10 523e e5b7 7cbd
000000c0: 5152 d7bd 7d9a 583c 017d 1ebd b958 f3bd
000000d0: 3baa 01be 7f66 443d 16d2 833d e1f1 e8bd
000000e0: 14f4 ba3d 6062 debd cdab 043e 323e a8bc
000000f0: 2365 9ebd bbed c3bd 2f87 7ebd 5a75 0ebd
00000100: 051e 96be ea43 03be 8d74 fabd e414 08be
00000110: 6787 33bd 5897 55be fb83 2f3e 7d65 3e3e
00000120: 3c9c 763e b51c b13d f7fe 27be 5272 5abd
00000130: 9c96 273e 7a4a a4bc 236b 81bc 13a6 a0bc
00000140: 821c b8bd a89e 083e 8c1e 5ebc d6fd 743e
00000150: 7a00 963d ba4b 01be cfc8 16bd 10b7 6cbe
00000160: dff1 49be fd2c cebd 18cd 323e 01e3 ee3c
00000170: fc6e 003e 3c46 f0bd 33b8 193e 4de8 e5bc
00000180: 5c5b 60be cf00 d3bd 0f9d 2e3d eeb7 68bd
00000190: eff2 e8bd d951 ddbd b1b3 2bbe 18f8 08be
000001a0: 4bd7 36be b07f 823e 98d8 46be d158 2f3d
000001b0: 4827 373e fa11 d4bd 5a3c 2c3c 8e73 163e
000001c0: 339f 323e 55c1 b5bd 3863 99bd d99b 5dbe
000001d0: 41b0 06be dc23 f93d 1c43 f6bc 4b32 48be
000001e0: 39a2 21be ace3 ae3e ac2e 43be 898a aa3e
000001f0: dd74 cdbd d89c 3a3e 1b10 34be 7e0b d93d
00000200: 6ba3 67be 6312 d73b 45bd 043d 7064 8c3d
00000210: 952a 163e 53f9 82bd 46f3 18bd d792 283d
00000220: a1df 85bb 22b7 8a3d 2f12 94bd 6972 4cbd
00000230: dd90 c33d 1d1a 5e3d 5eb0 523d 6ceb 183e
00000240: 2c70 c13c abe5 d13d 2105 dd3d 2793 233d
00000250: fe50 f23d 67ae 233d 6120 e9bd c574 f7bd
00000260: 0e25 6bbd 7b08 75bd b0b5 3c3d 0890 8cbd
00000270: 48a8 193c a1b2 d1bc 6c0d 10bb 7ea2 68bc
00000280: d2f0 55bd aee8 babd ff41 2f3d 1f6f d63c
00000290: b336 a03d 06b9 9a3d f5b6 c23c 7956 313c
000002a0: 553a 2d3d eeb6 643d 9f23 b53c f6f9 0e3d
000002b0: 1788 353d 952d 04be f6ab 2f3e e2fa 313e
000002c0: c59f 36bd 652a 46bd 1281 193d e38c 373c
000002d0: 5090 63bd 537d 7b3d aab3 003c b04b 363d
000002e0: 094e fcbc 1754 a13d 1504 3dbd 4a81 45bd
000002f0: ba75 e8bd 8564 f03c 2885 b5bd 471d 99bd
00000300: b1ea a1bd 1cf5 8c3d 60e6 8abd b367 a43d
00000310: 3bdd c73d 5c61 283e a473 5e3d 9724 adbd
00000320: 0a78 25bc 4667 503d a1d4 d4bd c3e8 32bd
00000330: b646 18be b671 2f3d 8a4b bbbc 4cd1 1b3d
00000340: 2bb6 72bc 0582 193d 1cf9 b9bb 5195 723d
00000350: 9f71 febd 20db 713d eeff d8bc cc1a d1bc
00000360: 078c 61bc 3ebf 923c da7e debd 3f1c b73d
00000370: 07e7 be3d 662c 91bd 3827 d63d 5e9c 15bd
00000380: 2a7c 85bd bad0 23bd 3303 87bc ee4a 1d3e
00000390: 33d3 58bc 94d4 b13d be1e 8b3b ab15 6dbd
000003a0: c8f4 3cbe d319 0a3e ee8f 0a3e 39f0 a4bd
000003b0: d949 da3d 35eb e3bd 535c b03c 8845 08bd
000003c0: 3fee 13bc ca25 813c f539 673d 1182 8d3c
000003d0: 6f1a 583e feb0 e33d b243 b93d 7664 683d
000003e0: 55f3 e73d f783 81bd 4564 a9bd 3e07 c3bc
000003f0: db0a 00be 4a8a 98bc 8630 bebc 570d a7bd
