logs/experiment/Discrete_A2C_1-5Box_10x10x10Bin-2022.08.09-15-00-00/PCT-Discrete_A2C_1-5Box_10x10x10Bin-2022.08.09-15-00-00_2022.08.09-20-59-14.pt (torch, 236314 bytes, 24 tensors)

actor.init_internal_node_embed.0.module.weight f4 [32, 6]
0	0xbf04a09d	-0.51807576
1	0x3ce473e6	0.027887296
2	0xbf2e3dc5	-0.68063
3	0x3d419d76	0.047269307
4	0xbe53809d	-0.20654531
5	0x3d573e4e	0.052549653
6	0xbd884ede	-0.06655668
7	0x3e17dc2a	0.1483008
8	0xbeb350bf	-0.35022542
9	0xbe84e225	-0.25953785
10	0xbebd0f45	-0.36925712
11	0xbeda3e5c	-0.426257
12	0xbdbf32f4	-0.093358904
13	0x3d5ffc0c	0.05468373
14	0x3e47a6db	0.19497244
15	0x3e6e1c4f	0.23252986
16	0x3de52fb9	0.11190743
17	0xbf2c986c	-0.6742008
18	0x3ea20fea	0.31652766
19	0xbe445790	-0.19174027
20	0x3e8fc6af	0.2808127
21	0xbf01fc27	-0.5077538
22	0xbdf80a4f	-0.12111341
23	0x3f216d19	0.63057095
24	0xbda3e618	-0.08002871
25	0xbec0be72	-0.37645298
26	0x3e2a7cb2	0.1664913
27	0x3d939ef5	0.07208053
28	0x3e905a69	0.28193977
29	0x3f52b29b	0.8230378
30	0xbd1c64e0	-0.03818214
31	0x3da9c93c	0.082903355
32	0x3e711605	0.23543556
33	0x3cbe7232	0.023247812
34	0xbda33ff6	-0.07971184
35	0xbe7e3a13	-0.24826841
36	0x3fa10cbb	1.258201
37	0xbed8bd01	-0.423317
38	0xbf4d064f	-0.8008775
39	0xbfae8e62	-1.3637202
40	0x3f24abad	0.64324456
41	0x3f2e61c5	0.68117934
42	0xbeba2b43	-0.3636113
43	0xbeaffd02	-0.34372717
44	0x3d792ff2	0.06083674
45	0xbe5b0189	-0.21387304
46	0x3e900ae2	0.28133303
47	0x3f15bce7	0.5849137
48	0xbdcd7603	-0.100322746
49	0x3ed82477	0.4221532
50	0x3f1b3afc	0.6063688
51	0xbe54a03d	-0.20764251
52	0xbe7ef86f	-0.24899457
53	0x3eaacb56	0.33358258
54	0x3ecfe93d	0.40607634
55	0xbd8250bd	-0.06363056
56	0x3f05e474	0.52301717
57	0xbd936ffa	-0.07199092
58	0xbd83eeb3	-0.06442013
59	0xbd074bf1	-0.033031408
60	0xbee6f346	-0.45107478
61	0xbeaad268	-0.33363652
62	0xbe9b607e	-0.30347055
63	0x3efad3a1	0.48989585
64	0x3e9bef13	0.30455837
65	0xbe98d7c4	-0.29852116
66	0xbdf05f0d	-0.117368795
67	0x3f281c24	0.6566794
68	0xbef4864a	-0.47758704
69	0x3e131ec9	0.14367212
70	0xbf26b0a3	-0.65113276
71	0x3eee639f	0.4656038
72	0x3eac0767	0.33599398
73	0xbf18b2bd	-0.5964773
74	0xbe7df0dd	-0.24798913
75	0x3e6a2f8f	0.22869705
76	0xbe899483	-0.26871118
77	0x3e34839f	0.17628334
78	0x3e43920f	0.19098686
79	0x3e8693fb	0.26284775
80	0xbdd0403f	-0.10168504
81	0xbe93b7a3	-0.2885104
82	0xbd564e13	-0.05232055
83	0xbdfaa0da	-0.12237711
84	0x3e8afade	0.2714452
85	0xbc0529d9	-0.008127653
86	0x3b69d2fc	0.0035678735
87	0xbe1bd1df	-0.15216778
88	0xbab565c0	-0.0013839528
89	0x3cec5a92	0.028851781
90	0x3eaa3bd3	0.33248767
91	0xbdf8fac7	-0.12157207
92	0x3ea3ed5c	0.32017028
93	0xbe759e97	-0.23986278
94	0xbe4b4f88	-0.19854558
95	0x3e860d1d	0.2618188
96	0xbefaa973	-0.48957404
97	0xbf051dd2	-0.5199863
98	0xbeb6767b	-0.35637268
99	0xbeba62ad	-0.3640341
100	0xbdd64118	-0.104616344
101	0xbe892cf0	-0.26792097
102	0x3c973601	0.018458368
103	0x3e1db527	0.15401135
104	0x3ea1d6a9	0.31609085
105	0xbda5a3a6	-0.08087854
106	0xbca9d8ee	-0.020733323
107	0xbb7fd4c6	-0.0039036735
108	0xbdcb5399	-0.09928054
109	0xbf35163d	-0.7073706
110	0xbf2d4d3e	-0.6769599
111	0xbd8956d1	-0.06706012
112	0xbe209ab3	-0.15684013
113	0xbe1c6287	-0.1527196
114	0x3e740f10	0.23833871
115	0xbdc4fb10	-0.09618199
116	0xbf4f4b22	-0.8097402
117	0xbd9c4e2b	-0.07632097
118	0xbda42cbc	-0.08016345
119	0x3ed5489c	0.4165696
120	0x3cd7eedf	0.02635902
121	0xbe747fee	-0.23876926
122	0xbb3449e2	-0.0027509858
123	0xbed87a07	-0.422806
124	0xbf31b7a0	-0.69420815
125	0x3de98525	0.114023484
126	0xbd9b8f27	-0.075956635
127	0xbecd67f1	-0.40118363
128	0xbf26428f	-0.6494531
129	0x3d906333	0.07050171
130	0x3e969584	0.29410946
131	0x3f1d3180	0.61403656
132	0xbeb245c3	-0.3481885
133	0x3cd1744d	0.025568152
134	0xbf49e5c5	-0.78866225
135	0x3e9bd2ab	0.30434164
136	0x3efaa32e	0.4895262
137	0x3cbbb19d	0.022911841
138	0x3de71f7b	0.11285301
139	0xbd46aff6	-0.048507653
140	0xbedb8d3a	-0.42881185
141	0xbe2bdde8	-0.1678387
142	0xbeda8789	-0.4268153
143	0xbf0ed479	-0.5579296
144	0x3e2473a9	0.16059746
145	0xbe19cd48	-0.15019715
146	0x3f3a7835	0.7283967
147	0xbc6c8cf2	-0.014437901
148	0x3e0776eb	0.13228957
149	0xbdc011e1	-0.0937841
150	0x3db30adf	0.08742308
151	0xbe8acc67	-0.27109072
152	0xbf0d2c1b	-0.55145425
153	0x3e548935	0.20755465
154	0x3ecc21ab	0.39869437
155	0xbe05b5d3	-0.13057642
156	0x3f1d59da	0.6146523
157	0x3d1bf835	0.038078506
158	0x3e5f229e	0.21790549
159	0x3e362b53	0.17789964
160	0xbe2669b0	-0.16251254
161	0xbe73f306	-0.23823175
162	0x3eb5e087	0.35522863
163	0x3d37fd90	0.04491955
164	0xbe5ca143	-0.21545891
165	0x3ee48511	0.44632772
166	0x3d8da6b6	0.06916563
167	0xbdf7971b	-0.12089368
168	0xbdd799fa	-0.105274156
169	0xbe5a5d7a	-0.21324721
170	0x3e05dc29	0.13072266
171	0x3f092e28	0.53586054
172	0x3efcca1c	0.49372947
173	0xbf4f4019	-0.8095718
174	0x3e84e152	0.25953156
175	0xbe73b0aa	-0.2379786
176	0xbebe9346	-0.37221736
177	0xbda75cbd	-0.08171985
178	0x3dc06164	0.09393576
179	0xbd12b5f3	-0.03581805
180	0xbea3ff9f	-0.3203096
181	0xbed04a8c	-0.40681875
182	0x3faad3d3	1.3345894
183	0xbde0a803	-0.10969546
184	0xbe5ab99e	-0.2135987
185	0x3dc52bd0	0.09627497
186	0x3e6cbd1a	0.23119012
187	0x3d9c34b1	0.076272376
188	0xbdc88dfc	-0.09792706
189	0x3d7124b0	0.05887288
190	0xbe1f52ec	-0.15558976
191	0xbdd5a5af	-0.10431992

actor.init_internal_node_embed.0.add_bias._bias f4 [32, 1]
0	0x3c4d1e3c	0.0125194155
1	0xbeb26e5e	-0.34849828
2	0xbbacbf9b	-0.0052718646
3	0xbcb6afd3	-0.022300636
4	0x3e1606d2	0.14651039
5	0x3d215377	0.03938624
6	0x3bc84fe2	0.0061130384
7	0xbc0ac9fb	-0.008471007
8	0x3d361b8a	0.044459857
9	0x3dd7a06f	0.10528647
10	0x3bf2b0f9	0.0074063507
11	0x3c83c704	0.016086109
12	0xbaae017e	-0.0013275591
13	0x39e45652	0.00043551862
14	0xbc57deab	-0.013175647
15	0x3cf3306f	0.02968618
16	0xbe91bc0b	-0.28463778
17	0xbd759b70	-0.05996269
18	0x3d47d5de	0.048787944
19	0x3aec0530	0.0018006917
20	0xbe8295fb	-0.2550505
21	0x3d68de43	0.05685259
22	0x3d4a8008	0.049438506
23	0x3ded8001	0.115966804
24	0x3d0c144f	0.034199055
25	0x3b6874ea	0.0035470077
26	0x3bc7ae37	0.006093766
27	0x3d8fd96d	0.070238926
28	0x3cded996	0.027203362
29	0xbd421974	-0.047387555
30	0x3d926e37	0.07149928
31	0xbd8f8b1f	-0.07008957

actor.init_internal_node_embed.2.module.weight f4 [64, 32]
0	0x3e0c9a56	0.1373075
1	0x3e286c8a	0.16447654
2	0xbe210f9e	-0.15728614
3	0x3de5cb70	0.11220443
4	0x3ce0e327	0.027452065
5	0x3decc2f1	0.115606196
6	0x3e061df8	0.1309737
7	0x3effdf40	0.49975014
8	0x3e9c10a7	0.30481455
9	0xbde82716	-0.1133558
10	0x3f531dbe	0.8246726
11	0x3e4b66b2	0.19863394
12	0x3d36877e	0.04456281
13	0xbe37bd8a	-0.17943397
14	0xbf322230	-0.69583416
15	0x3e9723e2	0.29519564
16	0xbcfe14e6	-0.031015825
17	0x3e75ad3a	0.23991862
18	0x3d020909	0.031746898
19	0x3e4fc578	0.20290172
20	0xbe690b6a	-0.2275826
21	0x3e1dc5ba	0.15407458
22	0x3f8dbbed	1.1072975
23	0xbc9879c6	-0.018612754
24	0x3f14e31e	0.58159053
25	0x3e561934	0.20908052
26	0x3e2d7a92	0.16941288
27	0x3e92193b	0.28534874
28	0x3db2e18d	0.08734427
29	0xbc6ce69b	-0.0144592775
30	0xbe4a41cc	-0.19751662
31	0x3d24df70	0.04025215
32	0x3eac64a3	0.3367053
33	0x3dbe63ee	0.09296404
34	0xbf059b2d	-0.52189904
35	0xbefa4a27	-0.488847
36	0xbd38ffac	-0.045165703
37	0x3e6d0bfc	0.23149103
38	0x3d999114	0.074983746
39	0xbeb69dc7	-0.3566725
40	0xbe4df52c	-0.20113057
41	0x3e3be591	0.18349291
42	0x3edc5343	0.43032274
43	0x3ddac9b3	0.10683002
44	0x3edc9862	0.4308501
45	0x3c947680	0.018122911
46	0xbccffc61	-0.025388898
47	0x3e7a8754	0.24465686
48	0xbd5596c0	-0.05214572
49	0xbe01e8a7	-0.12686406
50	0xbdf7a18c	-0.120913595
51	0xbe130417	-0.14357029
52	0x3d4381a4	0.047731057
53	0x3eaffda0	0.34373188
54	0x3f714e58	0.9426017
55	0x3eb1563e	0.3463611
56	0xbe5a130b	-0.21296327
57	0x3e1fbbbd	0.1559896
58	0x3bc34e98	0.005960297
59	0x3d6c619b	0.05771027
60	0x3f2bebae	0.67156494
61	0x3e36bd49	0.17845644
62	0x3e58ebd4	0.21183711
63	0xbcaac664	-0.020846553
64	0xbe8890e7	-0.26673052
65	0x3c804729	0.015658932
66	0x3f04dd61	0.519003
67	0x3f205b61	0.62639433
68	0x3f0805a5	0.5313361
69	0xbc92c7b8	-0.017917499
70	0xbe9d8805	-0.30767837
71	0x3f8628e7	1.0481232
72	0xbe93aca9	-0.28842667
73	0xbe994f39	-0.29943255
74	0xbef2219b	-0.47291264
75	0xbf4c5518	-0.7981734
76	0x3daf6191	0.08563531
77	0x3e6a88f9	0.22903813
78	0x3f0f6b99	0.56023556
79	0xbf1d9fa0	-0.61571693
80	0xbd9e8be8	-0.07741529
81	0x3d5de3e5	0.054172415
82	0x3d20d21a	0.03926287
83	0xbecf448e	-0.4048199
84	0xbcd505a6	-0.02600367
85	0x3efae59a	0.49003297
86	0xbd955190	-0.072909474
87	0xbe63cef2	-0.22246912
88	0xbdca0410	-0.09864056
89	0x3c3883c7	0.011261887
90	0x3c84cfe5	0.016212413
91	0x3ca3fae8	0.020017102
92	0x3e915a00	0.28388977
93	0xbe36c55d	-0.17848726
94	0x3e511f02	0.20421985
95	0x3e0b6ed9	0.13616504
96	0xba9af391	-0.0011821856
97	0xbe5fdf80	-0.21862602
98	0xbce4fc39	-0.0279523
99	0x3f0156ef	0.50523275
100	0x3dfc374e	0.12315236
101	0x3b23c87c	0.0024991324
102	0x3c694614	0.014237899
103	0x3e5a4115	0.2131389
104	0x3cdbe14f	0.026840834
105	0xbd8ffa73	-0.07030191
106	0x3d4d706b	0.05015604
107	0xbda2a903	-0.07942393
108	0xbe9dd774	-0.3082844
109	0x3d8cf9cd	0.06883583
110	0xbeacaf16	-0.3372733
111	0xbc9ccd5f	-0.019140897
112	0x3de2df02	0.110776916
113	0xbe9c270a	-0.30498534
114	0x3df09dac	0.117488235
115	0x3d5db394	0.054126337
116	0xbe876226	-0.2644207
117	0x3f2185e8	0.6309495
118	0xbe202b55	-0.1564153
119	0x3e89f541	0.26944926
120	0x3e33041f	0.17482041
121	0x3ced7e75	0.028990963
122	0x3dcedf50	0.10101187
123	0x3e9b1b8c	0.30294454
124	0x3e20438f	0.15650772
125	0xbd503fbc	-0.05084203
126	0xbe8f69d7	-0.28010437
127	0x3e5ca0ad	0.21545668
128	0x3ea0d2c6	0.31410807
129	0xbe0562f3	-0.13026027
130	0xbe4cf1e8	-0.20014155
131	0x3e08fc63	0.13377528
132	0xbf11568e	-0.56772697
133	0xbdd82318	-0.105535686
134	0x3efb8d51	0.49131253
135	0xbee9341b	-0.45547566
136	0xbf1eeb1c	-0.620775
137	0x3efd70b5	0.4950005
138	0x3ecfba03	0.40571603
139	0x3ebd4d28	0.36972928
140	0xbcf6dc03	-0.030134207
141	0xbe36a9f1	-0.17838265
142	0x3eafb955	0.34321085
143	0xbd38145b	-0.044941287
144	0xbc197281	-0.009365679
145	0xbe11ae62	-0.14226678
146	0xbba0f66c	-0.0049121883
147	0x3deaceec	0.114652485
148	0xbe1b0022	-0.1513677
149	0x3ee08582	0.43851858
150	0x3e4168c0	0.18887615
151	0xbd6996f3	-0.057028722
152	0xbe6d18d9	-0.2315401
153	0x3e7183f2	0.2358549
154	0x3e887465	0.26651302
155	0x3df0a813	0.117508076
156	0x3f13b89d	0.5770357
157	0x3da6a084	0.08136085
158	0x3e3eba15	0.18625672
159	0xbe06d0a7	-0.13165532
160	0xbe8f87fa	-0.2803343
161	0xbdc66a91	-0.09688295
162	0xbd6d9e01	-0.058012012
163	0xbd047aa9	-0.03234354
164	0x3f62d410	0.8860483
165	0xbe98300d	-0.2972416
166	0xbe893876	-0.2680089
167	0x3e8ff6e4	0.2811805
168	0x3e52f86e	0.20602581
169	0xbcfe9fd7	-0.031082077
170	0x3f54bea3	0.8310339
171	0xbea58014	-0.32324278
172	0xbd26be05	-0.04070856
173	0xbe529372	-0.20564058
174	0x3b7ce5e3	0.0038589172
175	0x3e93478b	0.2876552
176	0x3e6307de	0.2217097
177	0x3e722e00	0.2365036
178	0xbdb65f07	-0.08904844
179	0x3d1f21f9	0.03885076
180	0xbd33b2e0	-0.04387176
181	0x3d2e3a31	0.042535964
182	0x3ebde18e	0.37086147
183	0xbf1adaa1	-0.6048985
184	0xbc0aa6a4	-0.008462582
185	0x3e85a5fe	0.26103204
186	0x3e7c58c9	0.24643244
187	0x3ee8ef9d	0.4549531
188	0xbb10322c	-0.002200256
189	0xbdd4a25e	-0.103825316
190	0xbcbdc0d5	-0.023163239
191	0x3e16890c	0.14700717
192	0x3e99d367	0.300441
193	0x3c59a4dc	0.013283934
194	0x3e187d7a	0.14891616
195	0xbb82e0fc	-0.0039941054
196	0x3eec671f	0.46172425
197	0x3d50ada5	0.05094685
198	0xbe3d313f	-0.18475817
199	0x3e1fcd6a	0.15605703
200	0x3d47df3f	0.04879689
201	0xbe808cf8	-0.2510755
202	0x3eb5ae1e	0.35484403
203	0xbe2986e1	-0.16555358
204	0xbe97f7e7	-0.29681322
205	0xbbff189e	-0.007784917
206	0x3e856236	0.26051491
207	0xbee9d84f	-0.45672843
208	0x3c5d85f7	0.013520709
209	0xbea87ca3	-0.3290759
210	0x3d9ead3a	0.07747884
211	0xbcaefdae	-0.021361198
212	0x3c0a2ef3	0.008434045
213	0x3de5ccfb	0.112207375
214	0x3c1419d0	0.009039357
215	0x3e54003f	0.20703219
216	0xbdc30914	-0.09523216
217	0x3dcec3e0	0.10095954
218	0xbe60a8ff	-0.21939467
219	0x3eddc740	0.43316078
220	0xbeaf5354	-0.34243262
221	0x3db059fe	0.08610915
222	0xbee903db	-0.45510754
223	0xbd517f0d	-0.051146556
224	0xbe038cb1	-0.12846638
225	0xbdfc33bd	-0.12314556
226	0xbee8fd04	-0.45505536
227	0xbea9757d	-0.3309745
228	0xbeb6cc74	-0.3570286
229	0xbc7e5506	-0.015523201
230	0x3e0ac585	0.1355191
231	0xbd42452d	-0.047429252
232	0x3e4c9034	0.19976884
233	0x3eb6f116	0.3573081
234	0x3ee20524	0.44144547
235	0x3eee3081	0.4652138
236	0xbe46c34d	-0.19410439
237	0x3d961f4c	0.07330188
238	0xbe51c17f	-0.20483969
239	0xbd204427	-0.039127495
240	0xbd79fde2	-0.061033137
241	0xbe3c5fc8	-0.18395913
242	0x3e55ef40	0.20892048
243	0x3e57c1c6	0.21070012
244	0x3d0ea700	0.034827232
245	0xbee189b7	-0.4405038
246	0x3f2789cd	0.6544464
247	0xbb7b13e1	-0.003831141
248	0xbf1f53bb	-0.6223714
249	0x3e05f2a7	0.13080846
250	0xbeba2fcc	-0.3636459
251	0xbef2c145	-0.47413078
252	0x3f2f056a	0.68367636
253	0x3e49b3a9	0.19697441
254	0x3eb90fb7	0.36144802
255	0xbddcce5f	-0.1078155

actor.init_internal_node_embed.2.add_bias._bias f4 [64, 1]
0	0x3e3737e2	0.17892411
1	0x3e977dc1	0.2958813
2	0xbd4f2b9e	-0.050578706
3	0x3d9a9978	0.07548803
4	0x3e1c92e1	0.15290405
5	0x3e94fbdb	0.290984
6	0x3d1e2f54	0.038619354
7	0x3de8a5a0	0.113597155
8	0xbda6c0c2	-0.081422344
9	0xbdca406f	-0.09875571
10	0x3b0dc85c	0.0021634316
11	0x3d278dd2	0.040906735
12	0xbd739932	-0.05947227
13	0x3da5e903	0.08101084
14	0x3e121de3	0.14269213
15	0x3e1575aa	0.14595667
16	0x3c723e58	0.014785372
17	0xbe4aceec	-0.19805497
18	0x3ca74057	0.020416422
19	0x3da1cc31	0.079002745
20	0xbc3bba35	-0.011457969
21	0x3d011707	0.0315161
22	0xbd67aa68	-0.056558996
23	0xbd90c8c8	-0.07069546
24	0x3dfd18ef	0.12358271
25	0xbd1d20f5	-0.03836151
26	0xbd284355	-0.041079838
27	0x3d2abe31	0.041685287
28	0xbdc8f764	-0.09812811
29	0xbbacf3be	-0.00527808
30	0x3c6825cb	0.014169167
31	0xbbc2a1c3	-0.0059396937
32	0x3d9b27bc	0.07575938
33	0x3cda420d	0.026642824
34	0x3e8df95e	0.27729315
35	0xbd871291	-0.06595338
36	0x3cb4af3b	0.022056213
37	0xbe1761f5	-0.14783461
38	0xbd027e48	-0.031858712
39	0x3e4cd036	0.20001301
40	0xbd3fe6a6	-0.046850823
41	0xbe7f9689	-0.24959768
42	0x3e1d2080	0.15344429
43	0xbc1818a4	-0.0092832185
44	0xbe0717f3	-0.1319273
45	0xbd42f200	-0.04759407
46	0xbe96f63c	-0.29484737
47	0xbe8bf437	-0.2733476
48	0x3e8853be	0.2662639
49	0x3c3adec1	0.011405648
50	0x3dc5cf7c	0.09658715
51	0x3d8766fc	0.066114396
52	0xbca538b1	-0.020168634
53	0xbc57c3eb	-0.013169269
54	0xbd35cb2c	-0.044383213
55	0x3e579043	0.21051125
56	0x3e696843	0.22793679
57	0xbda4668b	-0.08027371
58	0x3c6a0efa	0.014285797
59	0x3d4b7a07	0.04967692
60	0x3d71d60d	0.059042025
61	0x3de514ac	0.111855835
62	0xbd2f25a6	-0.042760514
63	0x3c799603	0.0152335195

actor.init_leaf_node_embed.0.module.weight f4 [32, 8]
0	0xbd9b1726	-0.075727746
1	0xbeafd671	-0.34343293
2	0xbec9f798	-0.39446712
3	0xbd965811	-0.07341016
4	0x3e2d71e6	0.1693798
5	0x3ebde15d	0.37086
6	0x3efdbaae	0.49556488
7	0x3e8a0761	0.26958755
8	0xbed05968	-0.40693212
9	0xbf303730	-0.6883421
10	0xbd8a398f	-0.0674926
11	0xbe9f4334	-0.3110596
12	0xbe7146b8	-0.23562133
13	0x3ea9c697	0.33159325
14	0xbcb4d3e4	-0.022073694
15	0x3ebabde5	0.36473003
16	0x3e4ed332	0.20197752
17	0xbec18859	-0.37799338
18	0xbe015302	-0.12629321
19	0x3ed0ed2a	0.40805942
20	0x3b8e5d69	0.0043446315
21	0xbea281c0	-0.31739616
22	0xbd682d08	-0.05668357
23	0xbd8a1e79	-0.067440934
24	0xbece5328	-0.40297818
25	0xbe47d789	-0.19515814
26	0xbe781466	-0.24226531
27	0xbe81bc3d	-0.25338927
28	0x3eaa1961	0.33222488
29	0x3d397b4e	0.04528361
30	0x3ee70d99	0.45127562
31	0x3de9e4b1	0.114205725
32	0xbd0f1f7a	-0.034942128
33	0xbe32b569	-0.17452015
34	0x3d935871	0.07194603
35	0x3dde8e6f	0.10867011
36	0x3ebefd86	0.37302798
37	0x3e07060c	0.131859
38	0xbeff5005	-0.49865738
39	0x3ec852a0	0.39125538
40	0x3dc339cc	0.09532508
41	0x3e16c9c7	0.1472541
42	0xbf08b306	-0.5339817
43	0x3e20aecf	0.15691684
44	0xbeee04ba	-0.4648798
45	0x3f062c77	0.524116
46	0xbdfaade4	-0.12240198
47	0xbe838a89	-0.2569163
48	0xbec6006b	-0.38672194
49	0xbe38905d	-0.1802382
50	0xbd910bc8	-0.07082325
51	0x3ccc2893	0.024921691
52	0x3d87b80b	0.066269
53	0xbe4c4d98	-0.19951475
54	0xbdcc6865	-0.09980849
55	0xbde01580	-0.10941601
56	0x3ec38f72	0.38195378
57	0xbee1e15f	-0.44117257
58	0x3e853486	0.26016635
59	0x3ee7f30e	0.45302624
60	0xbd0fc7a8	-0.035102516
61	0x3ec6e150	0.38843775
62	0x3d381e3e	0.044950716
63	0x3e66c219	0.2253498
64	0x3dd81e04	0.105526
65	0x3e0352c0	0.12824535
66	0xbe2b152c	-0.16707295
67	0x3eac2335	0.3362061
68	0x3dc541dc	0.09631702
69	0x3daffd20	0.08593202
70	0x3efb1266	0.49037474
71	0x3eb22f08	0.34801507
72	0xbdb81f37	-0.08990329
73	0x3eaa9544	0.33317006
74	0xbe38fc23	-0.18064933
75	0x3e9b3ad3	0.30318317
76	0x3d05ba80	0.032648563
77	0xbdf63fe9	-0.12023909
78	0x3ee7a1b2	0.4524055
79	0xbe9905c9	-0.29887226
80	0x3d4f2482	0.050571926
81	0x3dc14236	0.09436457
82	0x3e8e5c52	0.2780481
83	0xbd897058	-0.06710881
84	0x3eb3cef8	0.35118842
85	0xbcf8e9b2	-0.030384872
86	0xbe45b2c8	-0.19306481
87	0x3cad61e2	0.021164838
88	0xbe92a053	-0.28637943
89	0x3d014929	0.03156391
90	0x3e3d7f66	0.1850563
91	0x3dc2be39	0.09508938
92	0x3eef58f1	0.46747544
93	0x3dc471e8	0.095920384
94	0xbc888392	-0.0166643
95	0xbeb7411b	-0.3579186
96	0x3ec6edd1	0.38853315
97	0x3d9dab05	0.07698635
98	0x3f1142ef	0.5674276
99	0xbeaf0921	-0.34186652
100	0xbdb2e51b	-0.08735105
101	0xbd8473d9	-0.06467409
102	0x3ebbf32c	0.36708963
103	0xbdeec120	-0.116579294
104	0xbe59ca5c	-0.212686
105	0x3d020a03	0.03174783
106	0x3e819169	0.25306252
107	0xbe0b407d	-0.13598819
108	0xbe8b54ed	-0.2721323
109	0xbe4703e7	-0.19435082
110	0x3eb62cc3	0.35581025
111	0x3d9c2aa3	0.0762532
112	0x3e329ca5	0.17442568
113	0xbc98b80a	-0.018642444
114	0x3e2511f1	0.16120125
115	0x3ee82ee6	0.4534828
116	0x3decd8fb	0.11564823
117	0x3ed295c6	0.41129893
118	0x3de94312	0.11389746
119	0xbd94f0af	-0.07272469
120	0x3f018b14	0.5060284
121	0x3e11ea6c	0.14249581
122	0xbdedeba8	-0.116172135
123	0xbf070e0a	-0.52755797
124	0x3e3f9612	0.18709591
125	0x3ef2778f	0.4735684
126	0x3d124a72	0.035715528
127	0xbe9c02cf	-0.30470893
128	0xbd527a56	-0.0513862
129	0x3da73fd4	0.08166471
130	0xbe93475b	-0.28765377
131	0x3eb6dc3e	0.35714906
132	0x3e46da82	0.19419292
133	0x3c7dabee	0.015482886
134	0xbe77f7e4	-0.24215657
135	0x3da090b2	0.078400984
136	0xbdada9f2	-0.0847968
137	0x3ec02b92	0.37533242
138	0x3de208d0	0.11036837
139	0x3da03be5	0.07823924
140	0xbe8ced5a	-0.27524835
141	0x3dba29e4	0.09090021
142	0x3e3de466	0.18544158
143	0x3e936ec6	0.2879545
144	0xbe53c4a2	-0.20680478
145	0x3d4e0390	0.050296366
146	0x3d8916ec	0.06693825
147	0xbeb578e8	-0.35443807
148	0xbe71a407	-0.23597728
149	0x3eb79bee	0.35861152
150	0x3d48bb5c	0.049006805
151	0x3df4d329	0.11954338
152	0xbec79d46	-0.38987178
153	0x3e11b84e	0.14230463
154	0xbdc3e7d0	-0.09565699
155	0x3e8f2d64	0.27964318
156	0x3d3f45c7	0.046697404
157	0x3f053fe0	0.5205059
158	0xbdb772ae	-0.0895742
159	0x3dd91ab7	0.106007986
160	0xbe79b666	-0.24385986
161	0xbe8b8fd8	-0.27258182
162	0xbe9dab8f	-0.3079495
163	0xbd3dddb6	-0.04635402
164	0x3cf09985	0.029370079
165	0x3ed52f58	0.41637683
166	0xbe10a5a2	-0.14125684
167	0xbe862f68	-0.26208043
168	0x3e075a53	0.1321805
169	0xbe125ed3	-0.14293985
170	0x3ef8c9b4	0.48591387
171	0xbde5bc42	-0.11217548
172	0x3ca1dd83	0.019758945
173	0xbde34747	-0.110975794
174	0xbe47a64e	-0.19497034
175	0x3d6d99a4	0.05800785
176	0xbea8c428	-0.32962155
177	0x3eb4738a	0.352444
178	0x3c874284	0.01651121
179	0x3ea38544	0.3193761
180	0x3e7f299b	0.24918215
181	0x3e381644	0.17977244
182	0x3df1c9c3	0.11806061
183	0x3e076341	0.13221456
184	0xbe9843d6	-0.29739255
185	0xbe14ce73	-0.14531879
186	0x3d8ece64	0.0697296
187	0xbd9642d3	-0.073369645
188	0x3ee78a92	0.45222908
189	0xbd2f379a	-0.042777635
190	0xbd17a27f	-0.037020203
191	0xbd7e7b2a	-0.062129177
192	0x3d645d24	0.05575289
193	0x3d9fb68e	0.077984914
194	0x3e80036d	0.25002614
195	0xbc9b7c4d	-0.01898017
196	0x3e6ac46a	0.22926489
197	0x3d8107cd	0.06300316
198	0xbc8cbb4c	-0.017179154
199	0x3efce8d4	0.49396384
200	0x3e99db3d	0.30050078
201	0x3e51b760	0.20480108
202	0xbefdb818	-0.49554515
203	0xbea4d750	-0.3219552
204	0x3d4d777d	0.05016278
205	0xbcb06795	-0.021533767
206	0x3d3fcb40	0.046824694
207	0xbe99970f	-0.2999806
208	0x3e7763ae	0.24159119
209	0xbe31521f	-0.17316483
210	0x3def83c6	0.11695056
211	0x3ed532ec	0.41640413
212	0x3e1f2b60	0.1554389
213	0x3df47939	0.11937184
214	0x3ee3f336	0.44521493
215	0xbe8e7b1c	-0.278283
216	0x3d0498e3	0.032372367
217	0xbe30eedd	-0.17278619
218	0xbec46c3d	-0.3836383
219	0x3e135ee1	0.14391662
220	0x3f191a55	0.59805804
221	0xbd7af2f3	-0.06126685
222	0x3e5e31ba	0.21698657
223	0x3eba74ee	0.36417335
224	0x3e9a4314	0.30129302
225	0xbe2d4cd6	-0.16923842
226	0xbe005ffb	-0.12536614
227	0xbdfb2b79	-0.12264151
228	0xbd165584	-0.036702648
229	0xbecfa3d8	-0.4055469
230	0x3dd158bd	0.102220036
231	0x3e500625	0.20314844
232	0x3de5a240	0.11212587
233	0x3e7ba5c1	0.24574949
234	0xbe3e8ffc	-0.18609613
235	0xbe58e3f2	-0.21180704
236	0x3e94b8df	0.29047295
237	0x3c2d16ee	0.010564549
238	0xbe5e4b3e	-0.2170839
239	0x3e28dc8f	0.16490386
240	0x3e9397c6	0.2882673
241	0x3ef2ae1b	0.47398457
242	0xbf0368e0	-0.513319
243	0xbe0422ae	-0.12903854
244	0xbe59a1a2	-0.21253064
245	0xbe2f016f	-0.1709039
246	0xbd100d71	-0.03516907
247	0x3ee99f59	0.45629385
248	0x3dde9ee6	0.10870151
249	0x3ed71786	0.42010134
250	0xbd82e09d	-0.06390498
251	0xbe5c7d17	-0.21532093
252	0x3de981cc	0.1140171
253	0x3ec7db97	0.3903472
254	0x3e303c45	0.17210491
255	0xbdc6d1b5	-0.09707967

actor.init_leaf_node_embed.0.add_bias._bias f4 [32, 1]
0	0x3c3e8e5d	0.011630622
1	0x3cf0f69a	0.029414464
2	0x3bbe8e00	0.0058152676
3	0x3c01cb62	0.007922025
4	0xbdefc590	-0.11707604
5	0x3c77ce3a	0.015124852
6	0xbd650e82	-0.05592204
7	0xbcd715f1	-0.02625558
8	0x3d9fa57c	0.077952355
9	0x3d103a5c	0.035211906
10	0x3d244049	0.04010037
11	0xbcf3808f	-0.029724387
12	0x3ad758f5	0.001642971
13	0xbd094e9a	-0.033522226
14	0x3e03ebb3	0.12882881
15	0x3a41915c	0.0007384026
16	0xbd224863	-0.039619815
17	0xbd468ca4	-0.04847397
18	0x3c3c235c	0.01148304
19	0xbb7247fb	-0.0036969173
20	0x3d14581f	0.03621685
21	0x3d21a9fe	0.039468758
22	0x3df68270	0.12036598
23	0xbcaddd78	-0.021223769
24	0x3c48203f	0.012214719
25	0x3c4b9d61	0.012427659
26	0x3dbb2fc6	0.091399714
27	0xbcace78e	-0.021106508
28	0xbde7447c	-0.11292359
29	0x3b442043	0.0029926456
30	0x3c0ee972	0.00872265
31	0xbe1bdb56	-0.15220389

actor.init_leaf_node_embed.2.module.weight f4 [64, 32]
0	0x3e119b55	0.1421941
1	0x3f07fd8b	0.5312125
2	0x3e3b5635	0.18294604
3	0x3eab5bd3	0.33468494
4	0xbe76a026	-0.2408453
5	0x3ecec9db	0.40388379
6	0x3e9bc058	0.30420184
7	0xbe8318b8	-0.25604796
8	0x3a625d28	0.0008635097
9	0x3e3e6e60	0.18596792
10	0x3c87b0bf	0.016563771
11	0xbb736491	-0.00371388
12	0xbeaa0a33	-0.33210906
13	0xbe0b6809	-0.13613905
14	0x3e0420d9	0.12903155
15	0x3dd0133e	0.1015992
16	0x3e2dd87e	0.16977116
17	0xbe0645a0	-0.13112497
18	0x3dd995a3	0.10624244
19	0x3ea63147	0.3245947
20	0x3f23347b	0.63751954
21	0xbef0e08e	-0.47046322
22	0x3f218cfd	0.63105756
23	0x3eb67e83	0.35643396
24	0x3d19c79d	0.03754388
25	0xbae94177	-0.0017795999
26	0xbc55cfb7	-0.013050011
27	0x3eaedb94	0.341519
28	0xbe06e0dc	-0.13171715
29	0x3e2b9b02	0.1675835
30	0x3ddfb35f	0.10922884
31	0xbe98418b	-0.29737505
32	0xbde0200a	-0.10943611
33	0xbe8899dc	-0.26679885
34	0xbe3fb85e	-0.18722674
35	0xbe22ffea	-0.15917936
36	0xbe91c6ae	-0.28471893
37	0x3ea53c9f	0.32272813
38	0xbe6c59d3	-0.2308114
39	0x3e668af9	0.22513951
40	0x3ea365f4	0.31913722
41	0xbeaac4a7	-0.3335316
42	0x3d936d4b	0.0719858
43	0xbe008592	-0.12550953
44	0x3e90d7c5	0.2828962
45	0x3d37dae4	0.044886485
46	0x3d79ddee	0.061002664
47	0x3d9a5a2f	0.075367324
48	0x3ceb7cd7	0.028746052
49	0x3e2b60b5	0.1673611
50	0x3d4d8f8b	0.05018572
51	0xbeed756e	-0.46378654
52	0xbee25faf	-0.44213626
53	0x3f177176	0.591575
54	0x3e488d51	0.19585158
55	0x3e8372a6	0.25673407
56	0x3dcca66e	0.099926814
57	0x3e1f3396	0.15547022
58	0x3e05fcdf	0.13084744
59	0xbe48fbc7	-0.19627295
60	0x3daa450b	0.0831395
61	0x3d982627	0.07429152
62	0x3e7f0530	0.24904323
63	0xbe259ca2	-0.16173032
64	0x3bb6f607	0.005583528
65	0x3bcef552	0.0063158656
66	0x3e63e748	0.22256196
67	0xbec0a207	-0.37623617
68	0x3e25a02c	0.16174382
69	0xbdb107b6	-0.08644049
70	0xbde4bb0e	-0.1116849
71	0xbdaeb661	-0.0853088
72	0xbeb3e547	-0.35135862
73	0x3ed7b25b	0.42128262
74	0x3db934dd	0.09043286
75	0x3e04aea0	0.12957239
76	0xbe3c8ada	-0.18412343
77	0x3d2ab5ee	0.041677408
78	0x3e11cf28	0.1423918
79	0x3e0bc9e1	0.1365123
80	0xbeb24ca4	-0.34824097
81	0xbe91d5bb	-0.28483376
82	0x3e30e5a5	0.17275102
83	0x3d815ae1	0.06316162
84	0xbd8a2eb6	-0.06747191
85	0x3e0e6488	0.13905537
86	0x3e0dd8ac	0.13852185
87	0x3d796093	0.060883116
88	0x3eb4e5d9	0.3533161
89	0xbdd707d1	-0.10499538
90	0x3e373c70	0.17894149
91	0x3c96eb01	0.018422605
92	0xbe1feb0c	-0.15617007
93	0xbd1e3c76	-0.03863188
94	0xbf0728f3	-0.5279686
95	0xbe53bbf1	-0.20677163
96	0xbe6e46a5	-0.23269136
97	0x3e0ba2bc	0.13636297
98	0xbeb26632	-0.34843594
99	0x3f1913aa	0.5979563
100	0xbe54d5d2	-0.20784691
101	0x3d9768b4	0.073930174
102	0xbe244ed3	-0.16045694
103	0x3e30dd0a	0.1727182
104	0xbced13b4	-0.02894006
105	0x3dcd8844	0.10035756
106	0x3e680452	0.22657898
107	0x3e3281c2	0.17432311
108	0x3f1f1756	0.6214498
109	0xbe88226b	-0.2658876
110	0xbd7d445c	-0.06183277
111	0xbe3aecab	-0.18254344
112	0xbe161b51	-0.14658858
113	0x3e6ce6c4	0.23134905
114	0x3ba544db	0.0050436086
115	0x3d82e8d0	0.06392062
116	0xbf01a54c	-0.5064285
117	0xbc9cd411	-0.01914409
118	0xbdcb889f	-0.09938168
119	0xbe815065	-0.2525665
120	0x3dbb5e80	0.09148884
121	0xbe324351	-0.17408492
122	0x3e8c4ba8	0.2740147
123	0x3e4b5d33	0.19859771
124	0x3e554174	0.2082575
125	0x3bf04449	0.007332359
126	0xbda81d25	-0.08208684
127	0x3d98ee19	0.074672885
128	0xbeb5a479	-0.35477045
129	0xbed24313	-0.410668
130	0xbdb41cc6	-0.087945506
131	0xbe129726	-0.14315471
132	0x3c778e97	0.01510968
133	0xbe8e2afd	-0.27767172
134	0xbe6cff62	-0.23144296
135	0xbe566644	-0.20937449
136	0xbf1b1f68	-0.605948
137	0x3ebaa02c	0.36450326
138	0x3c34fdf8	0.011046879
139	0x3c87d274	0.016579844
140	0x3ee68683	0.450245
141	0xbca03e51	-0.019560965
142	0xbe8a64db	-0.27030072
143	0x3e336e71	0.17522599
144	0x3dadf640	0.08494234
145	0xbe76563d	-0.24056335
146	0xbe9a5557	-0.30143234
147	0xbddf20d6	-0.10894935
148	0x3e26c4cf	0.16286014
149	0x3e71fd7d	0.23631854
150	0x3dd0ca68	0.10194856
151	0xbdb82b0b	-0.08992585
152	0xbe4ccedd	-0.20000787
153	0x3de100ab	0.109864555
154	0xbd81e543	-0.06342556
155	0x3d0bd6b0	0.03414029
156	0xbdafbb34	-0.08580628
157	0x3bcb5c58	0.0062060766
158	0x3e5dfd41	0.2167864
159	0xbe18cf73	-0.14922886
160	0xbe06f03c	-0.1317758
161	0x3e646091	0.22302462
162	0xbe285817	-0.16439854
163	0xbebcf900	-0.36908722
164	0x3de081b2	0.109622374
165	0x3e53bef7	0.20678316
166	0x3d9790b2	0.07400645
167	0xbe30f887	-0.17282306
168	0xbea5ea09	-0.32405117
169	0xbdaf8b86	-0.08571534
170	0x3c800fdb	0.01563256
171	0x3d5e6f55	0.054305393
172	0xbe2d1735	-0.16903384
173	0xbe7367e9	-0.23770107
174	0x3eed7b4b	0.46383128
175	0xbe75afd4	-0.23992854
176	0x3e81dfa7	0.25365946
177	0x3d2c27d3	0.042030167
178	0xbbc75b74	-0.0060839
179	0xbd1fcd19	-0.039013956
180	0x3cac33bd	0.021020764
181	0xbd963f24	-0.07336262
182	0xbe200c2f	-0.15629648
183	0xbeb52463	-0.35379323
184	0xbe522cf5	-0.20524962
185	0x3adf0497	0.0017014918
186	0x3cf3c4ec	0.029756986
187	0x3e5d72e9	0.21625866
188	0xbcf3e05d	-0.02977007
189	0x3d931eec	0.07183632
190	0xbe7cd421	-0.24690296
191	0xbd6b991f	-0.057519075
192	0xbe19efe4	-0.15032917
193	0xbee2ab21	-0.44271186
194	0xbed0038d	-0.4062771
195	0x3dcfc7f2	0.101455584
196	0xbe5dc544	-0.21657282
197	0xbe59d69c	-0.21273273
198	0x3cd2ed58	0.02574794
199	0x3d06324e	0.032762818
200	0xbb729f67	-0.003702128
201	0xbc679d1b	-0.014136578
202	0xbcc6973c	-0.024242036
203	0xbe7fa10c	-0.24963778
204	0x3eabf90d	0.33588448
205	0x3df5aed8	0.119962394
206	0xbe337194	-0.17523795
207	0xbe5207ad	-0.2051074
208	0xbe170d31	-0.14751126
209	0x3f2a6b72	0.665702
210	0x3dd9d803	0.10636904
211	0xbd1a8f7f	-0.037734505
212	0x3dde894a	0.108660296
213	0x3e81baf8	0.25337958
214	0xbe1a1760	-0.1504798
215	0x3e1e93f9	0.15486135
216	0x3da74dee	0.08169161
217	0x3e883766	0.26604766
218	0xbe82430b	-0.25441775
219	0x3ceed162	0.029152576
220	0x3e10265f	0.14077137
221	0xbd9b9b19	-0.07597942
222	0xbe838f93	-0.25695476
223	0x3d7ad955	0.06124242
224	0x3d0de74e	0.034644417
225	0x3e5d667d	0.21621127
226	0xbeb0d647	-0.3453848
227	0xbec7712d	-0.38953534
228	0xbf0b4daf	-0.5441541
229	0xbea25fef	-0.31713817
230	0x3e37d1fd	0.17951198
231	0xbe5893b3	-0.21150093
232	0xbd9539c7	-0.07286411
233	0x3d65937b	0.05604885
234	0xbc43a62d	-0.011941475
235	0xbeb9643e	-0.3620929
236	0x3e10f04a	0.14154163
237	0xbea589b7	-0.3233163
238	0xbed9a1c7	-0.4250624
239	0x3de12a8a	0.10994442
240	0xbec5d2ea	-0.38637477
241	0x3e791fe5	0.24328573
242	0xbe0dcfe9	-0.13848843
243	0xbe2b0b21	-0.16703464
244	0x3cde26be	0.027118083
245	0x3f2ed1e7	0.68289036
246	0xbd8c4159	-0.068484016
247	0xbe519cf6	-0.20470032
248	0xbda18342	-0.078863636
249	0x3d7b35d4	0.06133063
250	0xbe4d94c7	-0.20076285
251	0xbe88ba07	-0.26704428
252	0x3e3b449e	0.18287894
253	0xbf05eb5c	-0.52312255
254	0x3ea68de4	0.3253013
255	0x3cb3543d	0.021890754

actor.init_leaf_node_embed.2.add_bias._bias f4 [64, 1]
0	0x3e8b3f4d	0.27196732
1	0x3e0bcc11	0.13652064
2	0x3d2db073	0.042404603
3	0x3c0a4657	0.008439622
4	0xbe36ccca	-0.17851558
5	0x3c466ab5	0.012110402
6	0xbe582b38	-0.21110237
7	0xbe8e629d	-0.2780961
8	0xbe2ac927	-0.16678296
9	0xbe2efd13	-0.17088728
10	0x3e8eceed	0.27892247
11	0xbe1c93bc	-0.15290731
12	0x3dc5392e	0.09630047
13	0xbdba26e2	-0.090894476
14	0xbdcb3e42	-0.09923984
15	0xbd95a012	-0.073059216
16	0x3e1200b7	0.14258085
17	0xbe11f0c6	-0.14252004
18	0xbea4ec23	-0.32211408
19	0xbd117c8d	-0.03551917
20	0x3d1983db	0.037479263
21	0x3dac96ec	0.084272236
22	0x3c237ab3	0.009977984
23	0x3d35cecb	0.044386666
24	0x3e716aa0	0.2357583
25	0xbd36deb3	-0.044645976
26	0xbb848b64	-0.004044937
27	0xbdad629e	-0.08466075
28	0xbe2f76a0	-0.17135096
29	0x3de7f7ce	0.11326562
30	0xbe132638	-0.14370048
31	0xbc96656f	-0.018358914
32	0x3ddf62c5	0.10907511
33	0xbd7e1e2c	-0.062040493
34	0xbe1f5a93	-0.15561895
35	0x3e198e29	0.14995636
36	0x3e66e039	0.22546472
37	0xbd39f809	-0.04540256
38	0xbcf54792	-0.029941354
39	0xbe06c659	-0.13161601
40	0x3d6ad394	0.057330683
41	0xbf00b0ee	-0.50269973
42	0x3e4119e2	0.1885753
43	0x3d725fbb	0.059173327
44	0xbe0e59de	-0.13901469
45	0xbd2fd344	-0.042926088
46	0xbe146a57	-0.1449369
47	0xbd23ebdc	-0.040019855
48	0xbe6dce7d	-0.232233
49	0x3d2eb135	0.042649467
50	0xbd6162ce	-0.055025868
51	0xbd7aa5b7	-0.061193194
52	0x3dce3de9	0.10070402
53	0xbe28731f	-0.16450165
54	0xbe416b55	-0.188886
55	0x3dce1050	0.10061705
56	0x3c61b498	0.013775967
57	0xbe695f19	-0.22790183
58	0x3e44ec6a	0.1923081
59	0xbe8b33b0	-0.27187872
60	0x3e09785a	0.13424817
61	0xbe09f6eb	-0.13473098
62	0x3d901877	0.07035916
63	0x3cc594e6	0.024118852

actor.init_next_embed.0.module.weight f4 [32, 6]
0	0x3e0a6d50	0.13518262
1	0xbe1761b2	-0.14783362
2	0xbe9909d2	-0.29890305
3	0xbee27764	-0.44231713
4	0xbe93e0aa	-0.28882343
5	0x3bf1a07c	0.0073738676
6	0xbe60c31e	-0.21949431
7	0xbdc7ff51	-0.097654946
8	0x3e3f5108	0.18683255
9	0xbe799fe2	-0.24377397
10	0x3cd3dd7d	0.02586245
11	0xbe7185e0	-0.23586226
12	0x3f08e6d6	0.5347723
13	0xbe89160d	-0.26774636
14	0xbe83fc7b	-0.25778565
15	0xbdaf34d9	-0.08555002
16	0xbe02da18	-0.12778509
17	0x3e72280d	0.2364809
18	0xbc027584	-0.007962588
19	0x3d14fbff	0.036373135
20	0xbd079595	-0.033101637
21	0x3ed67783	0.41888055
22	0xbeedc4b2	-0.4643913
23	0xbeb6ed7d	-0.35728064
24	0x3ddec41d	0.108772494
25	0xbed81352	-0.4220224
26	0xbdfe1b94	-0.12407604
27	0xbe809fe2	-0.2512198
28	0xbdc038c3	-0.093858264
29	0xbe1e1e30	-0.15441203
30	0xbccfe995	-0.025379935
31	0xbf13c5cc	-0.5772369
32	0x3e9129bf	0.28352162
33	0xbf3880ae	-0.7207135
34	0xbe0062cd	-0.1253769
35	0x3e180612	0.14846066
36	0x3f5a695a	0.85317004
37	0x3dd2c78c	0.10291967
38	0x3d915a90	0.070973516
39	0xbe065386	-0.13117799
40	0xbcda05fd	-0.026614184
41	0xbebe8b0f	-0.37215468
42	0xbdb59439	-0.08866162
43	0x3dc959c3	0.09831574
44	0x3e1552b6	0.14582333
45	0x3dab8a70	0.08376014
46	0xbe9d50e3	-0.30725774
47	0x3e32593b	0.17416851
48	0xbe510b65	-0.20414503
49	0xbf172879	-0.5904613
50	0x3e7a5438	0.2444619
51	0x3c8ddc4d	0.017316962
52	0x3fad16a4	1.3522534
53	0xbf314ac6	-0.6925472
54	0x3dd020d6	0.10162513
55	0xbe95a08d	-0.29224053
56	0xbe3aa602	-0.1822739
57	0x3d55038b	0.052005332
58	0xbeb28076	-0.34863633
59	0xbeec545c	-0.4615811
60	0xbea4681a	-0.32110673
61	0x3e3a7836	0.1820992
62	0x3c841244	0.016121991
63	0x3ec4040c	0.38284338
64	0x3e8d0591	0.2754331
65	0xbed949cc	-0.42439115
66	0xbdd0945a	-0.10184546
67	0xbcef7ca3	-0.029234236
68	0xbcb12c96	-0.021627706
69	0x3d8c252b	0.06843027
70	0x3d54947f	0.05189943
71	0x3e006c5a	0.12541333
72	0xbeb5fb5d	-0.35543337
73	0xbd067e91	-0.032835547
74	0x3e155063	0.14581446
75	0x3ccc438f	0.024934558
76	0xbe67a1ae	-0.2262027
77	0xbea5b4e9	-0.32364586
78	0x3d21c0b0	0.0394904
79	0x3c15a80a	0.009134302
80	0x3dfe4654	0.12415758
81	0x3e5501f5	0.20801528
82	0xbec18dda	-0.37803537
83	0xbd8f9c2d	-0.0701221
84	0x3f9e3ca3	1.2362255
85	0xbe69892d	-0.22806235
86	0xbe8314da	-0.25601846
87	0xbf1f0156	-0.62111413
88	0xbd91e921	-0.07124544
89	0x3b31a523	0.0027106486
90	0xbe53dd34	-0.20689851
91	0xbd823a10	-0.06358731
92	0xbe986d69	-0.29770973
93	0xbdc95a53	-0.09831681
94	0xbcbfb219	-0.023400353
95	0x3ddb00e8	0.10693532
96	0xbe9b1f08	-0.30297112
97	0xbd0b78cc	-0.034050748
98	0xbde64977	-0.11244481
99	0xbe1fb034	-0.1559456
100	0xbea5fdd7	-0.32420227
101	0x3dec16d3	0.11527791
102	0x3f12505e	0.5715388
103	0xbd4ef030	-0.05052203
104	0x3e49bc52	0.19700745
105	0xbe81052c	-0.25199258
106	0xbd6938a0	-0.056938767
107	0x3b513aaf	0.0031925847
108	0xbd80ca54	-0.06288591
109	0x3e93853d	0.2881259
110	0x3e6a1819	0.22860755
111	0xbc1de342	-0.009636702
112	0xbd929cdd	-0.071588255
113	0x3e82456e	0.25443596
114	0x3f6db202	0.92849743
115	0x3e79fe65	0.2441345
116	0xbeb7a9eb	-0.35871825
117	0xbe5633ce	-0.209182
118	0x3e0dbf9a	0.13842621
119	0x3e0d1de7	0.13780938
120	0x3e89104c	0.26770246
121	0x3cd65550	0.026163727
122	0xbd14e459	-0.03635058
123	0xbe0ec722	-0.1394315
124	0xbe84a68f	-0.25908324
125	0x3e2e1d53	0.17003374
126	0xbce8df3c	-0.028426759
127	0xbe5810e2	-0.2110019
128	0xbf37e023	-0.7182638
129	0xbdcdaa80	-0.10042286
130	0xbe025eb5	-0.1273144
131	0xbcf432ed	-0.02980944
132	0x3dee63a9	0.116401024
133	0xbe1745a4	-0.1477266
134	0xbdc775a0	-0.09739232
135	0x3e08bf79	0.13354291
136	0xbeb24a89	-0.3482249
137	0x3d810fa1	0.06301809
138	0x3f13d359	0.57744366
139	0xbe88270e	-0.26592296
140	0x3ea96233	0.33082733
141	0xbec6ec5f	-0.38852212
142	0x3ece58f1	0.40302232
143	0x3ed088f9	0.40729502
144	0x3fa476b5	1.2848727
145	0xbdcbdc5f	-0.09954142
146	0xbe3ad622	-0.18245748
147	0xbebf8fe4	-0.37414467
148	0xbe1b0948	-0.1514026
149	0x3e4b3877	0.19845758
150	0x3e2cfa2d	0.1689231
151	0x3e9267b7	0.28594753
152	0xbd83c0a8	-0.06433231
153	0xbe47cb79	-0.19511212
154	0xbe4564ac	-0.19276685
155	0xbecb45c1	-0.39701656
156	0x3af5946c	0.001873625
157	0xbea3fe93	-0.32030162
158	0x3e39756c	0.18111199
159	0xbd8337b8	-0.06407112
160	0xbe69ef83	-0.22845273
161	0xbc9a6dbf	-0.01885116
162	0xbf02f075	-0.5114816
163	0xbec3c9a3	-0.38239774
164	0xbe414f82	-0.18877986
165	0xbe45efbc	-0.19329733
166	0x3e037451	0.1283734
167	0xbe2796cf	-0.16366123
168	0x3f13ecc0	0.57783127
169	0x3e529765	0.20565565
170	0xbc9bec0a	-0.01903345
171	0xbf9c94fd	-1.2232968
172	0xbd810ffc	-0.06301877
173	0x3e229c79	0.15880002
174	0x3ee3d9c8	0.4450209
175	0x3e6c43ab	0.23072688
176	0xbeaff5ce	-0.34367222
177	0xbf300b14	-0.68766904
178	0xbd3e2b96	-0.046428286
179	0x3e28be0d	0.16478749
180	0xbe453fc2	-0.19262603
181	0xbe84b2a4	-0.25917542
182	0x3e9767ec	0.29571474
183	0x3c00a993	0.00785293
184	0xbca6c192	-0.020355973
185	0xbd8bdc8d	-0.06829176
186	0xbd967ee3	-0.073484205
187	0xbe67e389	-0.22645392
188	0xbef0b39d	-0.47012034
189	0xbd6c6dd8	-0.057721943
190	0xbd8b34a5	-0.067971505
191	0xbd28d213	-0.041215967

actor.init_next_embed.0.add_bias._bias f4 [32, 1]
0	0x3e28eeaf	0.164973
1	0x3d6a4d55	0.057202656
2	0xbd9065be	-0.07050656
3	0xbd4c7114	-0.049912527
4	0x3c0ad6b7	0.008474044
5	0xbe90d120	-0.2828455
6	0x3df2527c	0.11832139
7	0xbd8fd0ff	-0.07022285
8	0xbe59fcfc	-0.21287912
9	0xbd6af27d	-0.05736016
10	0xbdc80f7c	-0.097685784
11	0x3e8887c2	0.26666075
12	0x3cd8e1b1	0.026474806
13	0x3e19d421	0.15022327
14	0x3eb9ebcc	0.3631271
15	0x3e87539c	0.26430976
16	0x3d441eef	0.047881063
17	0xbe57ec5a	-0.21086255
18	0xbe8b6796	-0.27227467
19	0x3ebc29d9	0.36750677
20	0xbd9c6543	-0.07636502
21	0x3c6ba381	0.014382244
22	0xbe6e4749	-0.2326938
23	0xbd82452c	-0.0636085
24	0x3e7fa967	0.24966966
25	0xbdd05b70	-0.1017369
26	0xbe174c0e	-0.14775106
27	0x3cdb78f5	0.026791075
28	0x3d1c574f	0.0381692
29	0x3e19a761	0.15005256
30	0x3e0b2217	0.13587223
31	0x3e0a40d0	0.13501287

actor.init_next_embed.2.module.weight f4 [64, 32]
0	0x3c20269a	0.009774828
1	0xbddcd7d1	-0.10783351
2	0xbca3f470	-0.020014018
3	0x3e37ba12	0.17942074
4	0x3e19a870	0.1500566
5	0x3da238e2	0.07921006
6	0xbe44ac73	-0.19206409
7	0xbe6b9690	-0.23006654
8	0xbde83e58	-0.11340016
9	0x3ea0b6c2	0.31389433
10	0x3db4f5b8	0.0883593
11	0xbf122fae	-0.57104003
12	0x3dc4b3d4	0.09604612
13	0x3ec0587c	0.37567508
14	0x3e197c86	0.14988908
15	0xbebc71ba	-0.36805516
16	0xbdeb130f	-0.114782445
17	0x3d88a523	0.06672122
18	0xbc967dcc	-0.018370531
19	0xbe857b8c	-0.2607082
20	0x3d827017	0.06369036
21	0xbd6ebe14	-0.05828674
22	0xbef354ce	-0.47525638
23	0xbefb1829	-0.4904187
24	0xbee99969	-0.45624855
25	0x3eb4cfae	0.35314697
26	0xbe30b05c	-0.17254776
27	0xbdb95b7d	-0.09050653
28	0x3d74f817	0.05980691
29	0x3e123168	0.1427666
30	0x3e91da84	0.28487027
31	0xbdb9a63b	-0.09064909
32	0x3e6125fe	0.21987149
33	0xbd76f82b	-0.060295265
34	0xbe04a939	-0.12955178
35	0xbd884dac	-0.0665544
36	0xbdbdd356	-0.09268825
37	0xbe2d2d89	-0.16911902
38	0xbe29d3d6	-0.16584715
39	0x3aa3cdaf	0.0012497212
40	0x3e892669	0.26787117
41	0x3d33e1e2	0.04391659
42	0x3ef47050	0.47741938
43	0x3ea2f3b6	0.31826562
44	0xbca9e908	-0.020741
45	0xbe06345c	-0.13105911
46	0xbe622f92	-0.22088459
47	0xbca52c51	-0.020162733
48	0x3e3f1167	0.18658982
49	0x3ca88d14	0.020575084
50	0xbd92ec11	-0.07173932
51	0x3efd234e	0.49440998
52	0x3e301180	0.17194176
53	0x3cba2283	0.022721535
54	0x3d5bbd48	0.05364731
55	0xbe566782	-0.20937923
56	0xbe050b5b	-0.12992613
57	0x3e5e6837	0.21719442
58	0xbc316e71	-0.010829554
59	0xbe9e7346	-0.30947322
60	0xbdefbac9	-0.11705548
61	0x3d243e74	0.040098622
62	0xbd4dbaf4	-0.05022712
63	0xbd3b6612	-0.04575164
64	0xbd0091f5	-0.031389195
65	0x3cf72d25	0.030172894
66	0x3e4d6689	0.20058645
67	0xbe04c33c	-0.12965101
68	0xbbbae567	-0.0057036164
69	0x3e442ba9	0.1915728
70	0xbf019e2b	-0.5063197
71	0xbeb2db72	-0.34933048
72	0xbed4bb0b	-0.41548952
73	0xbe104384	-0.14088255
74	0x3ccda296	0.025101941
75	0x3eda3d1c	0.42624748
76	0x3dc6e812	0.09712233
77	0xbe9c5e02	-0.30540472
78	0xbf4471d1	-0.7673617
79	0x3e10fa1e	0.14157912
80	0xbe5019a7	-0.20322286
81	0x3d847d6e	0.06469236
82	0x3e434406	0.19068918
83	0x3e4d1c84	0.20030409
84	0xbd9965f1	-0.07490147
85	0xbda42562	-0.08014943
86	0xbd775ed8	-0.060393184
87	0x3edc5017	0.43029854
88	0xbecc16b6	-0.39861077
89	0x3dc89649	0.097942896
90	0xbe5c7270	-0.2152803
91	0xbe226338	-0.15858161
92	0xbf047035	-0.51733714
93	0xbf31f54d	-0.69514924
94	0xbe927847	-0.2860739
95	0xbe5faef2	-0.2184408
96	0xbe6dcc04	-0.23222357
97	0x3e28a97d	0.16470905
98	0x3ec33a8c	0.38130605
99	0xbdbf62c6	-0.093450114
100	0xbe9f009c	-0.31055152
101	0x3ccc60d4	0.024948515
102	0xbec76b2e	-0.3894896
103	0x3e017527	0.12642346
104	0x3cea0b7d	0.028569931
105	0x3e717372	0.23579195
106	0xbeaee629	-0.34159973
107	0x3e601ca0	0.2188592
108	0x3de070bf	0.109590046
109	0x3e1a491a	0.15066949
110	0xbe70bb68	-0.2350899
111	0xbe86b103	-0.26306924
112	0xbe1b29b1	-0.15152623
113	0x3e4f695f	0.2025504
114	0x3cff3487	0.031152977
115	0xbea55509	-0.3229144
116	0xbc844cba	-0.016149867
117	0x3d94db73	0.07268419
118	0x3e280107	0.16406642
119	0x3f450a11	0.76968485
120	0xbead584a	-0.33856422
121	0xbedc9239	-0.4308031
122	0xbdbf73af	-0.09348237
123	0xbea76473	-0.32693824
124	0xbe94d229	-0.2906659
125	0xbe681000	-0.22662354
126	0x3db51bc2	0.08843185
127	0xbe60a6a8	-0.21938574
128	0xbe501fbe	-0.20324609
129	0xbec35342	-0.38149458
130	0xbb675751	-0.0035299847
131	0x3e7622ae	0.24036667
132	0x3df57b52	0.11986412
133	0xbe27689b	-0.16348498
134	0xbe1b0e72	-0.15142229
135	0xbda8597b	-0.08220192
136	0x3e785dcb	0.24254529
137	0xbdfdb7e9	-0.12388594
138	0xbe741a0c	-0.23838061
139	0x3cd7ba74	0.026334025
140	0xbd1da4ca	-0.038487233
141	0x3ded56b9	0.11588807
142	0x3dbc4e7c	0.09194657
143	0xbb79030d	-0.0037996203
144	0x3e05dc9c	0.13072437
145	0x3e1b4b23	0.15165381
146	0xbe1b6205	-0.1517411
147	0xbed2d136	-0.4117524
148	0xbe32b2a6	-0.17450961
149	0x3dc33ae8	0.0953272
150	0x3e238108	0.1596719
151	0x3d2a807d	0.041626442
152	0x3e690b91	0.22758318
153	0xbdc49595	-0.09598843
154	0x3ee5c457	0.44876358
155	0x3e4ae815	0.19815095
156	0xbe689f71	-0.22717072
157	0xbdfb7890	-0.12278855
158	0xbdc68f21	-0.096952684
159	0x3d57aadb	0.052653175
160	0x3d887995	0.06663815
161	0xbd1142bb	-0.03546403
162	0x3d1a3e7b	0.037657242
163	0xbdd63bf8	-0.10460657
164	0x3eab939b	0.33511052
165	0x3e4b64fb	0.1986274
166	0x3c2e1788	0.0106257275
167	0x3e118010	0.14209008
168	0x3d4aa891	0.049477164
169	0x3e5b3116	0.21405444
170	0x3cdb61a0	0.02677995
171	0x3f38c22f	0.721713
172	0x3d417951	0.047234837
173	0x3d855593	0.065104626
174	0xbe17bb77	-0.14817606
175	0x3f133877	0.57508034
176	0xbcd03194	-0.025414266
177	0x3ea49cc3	0.3215085
178	0x3dec9862	0.11552502
179	0x3f6c6913	0.9234783
180	0x3d42bdd0	0.0475443
181	0xbd0baf83	-0.034102928
182	0x3e82f032	0.2557388
183	0x3e330e40	0.17485905
184	0x3ee3dac8	0.44502854
185	0xbdabfac3	-0.083974384
186	0x3d87da36	0.06633417
187	0x3eb3eef6	0.3514325
188	0xbe554e61	-0.2083068
189	0xbe82fc5f	-0.2558317
190	0x3e7cc11c	0.2468304
191	0xbe229645	-0.15877636
192	0x3e139f49	0.14416231
193	0x3e344833	0.17605667
194	0x3c8ea964	0.017414756
195	0x3e338b95	0.17533715
196	0xbd9308a4	-0.071793824
197	0x3cfe1b81	0.031018974
198	0xbe53cf28	-0.20684493
199	0xbea69c60	-0.3254118
200	0x3d847b7f	0.064688675
201	0x3e655984	0.22397429
202	0x3d9aca6e	0.07558142
203	0x3e334a6b	0.17508857
204	0x3cbb8d8b	0.022894641
205	0xbcec7f11	-0.028869184
206	0xbdfb28aa	-0.122636154
207	0xbe05c02b	-0.13061588
208	0xbd127d6e	-0.03576415
209	0x3e2bffed	0.16796847
210	0xbe5a00f4	-0.21289426
211	0xbd83f16d	-0.06442533
212	0x3e4ed868	0.2019974
213	0xbe8ada5b	-0.27119717
214	0x3e2d57f5	0.16928084
215	0x3e735d65	0.23766096
216	0xbe4659d3	-0.19370203
217	0x3d937c19	0.07201404
218	0x3d23c254	0.039980248
219	0xbe6778f5	-0.22604735
220	0xbd48e951	-0.049050633
221	0xbd488474	-0.048954442
222	0x3de6127b	0.112339936
223	0xbe94c783	-0.29058465
224	0xbebc9c0c	-0.36837804
225	0x3d2a48ce	0.04157334
226	0xbe8ffc13	-0.28122005
227	0x3cb4a10b	0.022049448
228	0x3e6535c4	0.22383791
229	0xbe951f0e	-0.29125255
230	0xbe6c3784	-0.23068053
231	0xbe49788c	-0.19674891
232	0xbd394e82	-0.045240887
233	0xbd0b598a	-0.034020938
234	0x3eb51a3d	0.3537158
235	0x3eca5538	0.39518142
236	0x3dc30b73	0.09523668
237	0x3e3d24f4	0.18471128
238	0x3eefc5a7	0.46830484
239	0x3f06a200	0.5259094
240	0x3d4fdc27	0.050747063
241	0x3eb1e2a8	0.34743237
242	0x3e4e383e	0.20138642
243	0x3eb76f09	0.358269
244	0xbeabb0b4	-0.3353325
245	0x3c62343f	0.013806402
246	0xbe2769dd	-0.16348977
247	0x3f390531	0.72273546
248	0x3ef32adc	0.47493637
249	0x3cbf369a	0.023341466
250	0x3dc1e9cb	0.094684206
251	0xbdc82784	-0.09773162
252	0x3d6260e9	0.055268202
253	0x3e9a5492	0.30142647
254	0x3d8c2f23	0.06844928
255	0x3eb2f998	0.3495605

actor.init_next_embed.2.add_bias._bias f4 [64, 1]
0	0xbf170013	-0.5898449
1	0xbece8701	-0.40337375
2	0xbe93fd26	-0.28904074
3	0xbec440fc	-0.3833083
4	0xbd838d43	-0.06423428
5	0x3f8dbb41	1.107277
6	0xbed7e1e8	-0.4216454
7	0x3f3341c6	0.7002224
8	0x3f73a0a2	0.9516698
9	0xbf2c5f0b	-0.67332524
10	0xbf31b5c4	-0.6941798
11	0x3d3b7ac9	0.045771394
12	0x3f98b08d	1.1928879
13	0xbf805dc8	-1.002862
14	0xbf64c775	-0.8936685
15	0xbf4180fe	-0.7558745
16	0xbf497130	-0.78688335
17	0x3f5a77f0	0.8533926
18	0x3f1f72d2	0.62284577
19	0xbe4a8b71	-0.19779755
20	0xbdc84476	-0.09778683
21	0xbe1fe420	-0.15614367
22	0xbfadd080	-1.3579254
23	0x3f1b3585	0.6062854
24	0xc0114e42	-2.2704015
25	0xbf516143	-0.81789035
26	0xbe7ca0cc	-0.24670714
27	0xbf8ad823	-1.084721
28	0x3f0e0ec3	0.55491275
29	0x3eaf0245	0.3418142
30	0xbefe990e	-0.49726146
31	0xbf30755a	-0.68929064
32	0xbdc16443	-0.094429515
33	0x3f59b40d	0.8504036
34	0xbe88f686	-0.26750582
35	0xbdb0d2de	-0.0863397
36	0x3fb2976f	1.3952464
37	0x3f4ad03e	0.79224
38	0xbea386d9	-0.31938818
39	0x3f0dd6b8	0.5540576
40	0xbfdeab31	-1.7395993
41	0x3f93b0b9	1.1538306
42	0xbecdf1dc	-0.40223587
43	0xbfb0e0f8	-1.3818655
44	0x3ee53aec	0.44771516
45	0x3fa67fb3	1.3007721
46	0x3f87baf6	1.0603931
47	0x3f2be654	0.6714833
48	0xbf128dee	-0.5724782
49	0x3eab8320	0.33498478
50	0x3f417f05	0.7558444
51	0x3ee82a0c	0.4534458
52	0x3ec63dd7	0.38719055
53	0x3bcb4eeb	0.006204476
54	0xbe9986ab	-0.29985556
55	0xbf3c7bbd	-0.7362631
56	0x3d0609ba	0.03272412
57	0x3f0aa8fe	0.5416411
58	0xbf0048c4	-0.5011103
59	0x3e8658d2	0.2623964
60	0x3ea30669	0.31840828
61	0x3f515879	0.81775624
62	0x3cb140e6	0.021637391
63	0x3e7f7363	0.2494636
