logs/experiment/Discrete_A2C_1-5Box_10x10x10Bin-2022.08.09-15-00-00/PCT-Discrete_A2C_1-5Box_10x10x10Bin-2022.08.09-15-00-00_2022.08.09-16-28-33.pt (torch, 236314 bytes, 24 tensors)

actor.init_internal_node_embed.0.module.weight f4 [32, 6]
-0.490072 0.020270769 -0.53792477 0.057083894 -0.2339066 -0.030125577 -0.09738973 0.16791202
-0.32724264 -0.2681357 -0.33641723 -0.38291782 -0.13174477 0.03228585 0.11761675 0.2445559
0.12668121 -0.6086004 0.21353705 -0.21207242 0.43274933 -0.43237653 -0.098566435 0.4534818
-0.08531218 -0.3956158 0.20261401 0.07543289 0.29401878 0.806277 0.017898167 0.038145162
0.23289074 -0.007100991 -0.04028698 -0.24258702 0.9261713 -0.06208211 -0.66467464 -1.1301672
0.35396436 0.59388995 -0.37971088 -0.3449178 0.1303644 -0.21055083 0.2863971 0.58192146
-0.16796784 0.43225914 0.7578393 -0.14509349 -0.26157662 0.24248883 0.3923648 -0.07324018
0.56349325 -0.073430836 -0.05070314 -0.046879742 -0.45453954 -0.2521516 -0.421028 0.5304901
0.20417914 -0.26104125 -0.14207545 0.61074257 -0.32592654 0.1656163 -0.61724395 0.38859388
0.37378782 -0.5428147 -0.15503785 0.2031935 -0.277768 0.107611336 0.12737748 0.14837609
-0.09836031 -0.286733 -0.008083593 -0.08081018 0.202162 0.0046085007 0.021241818 -0.1281463
-0.014405696 0.036189884 0.26526734 -0.043195892 0.32614842 -0.14721769 -0.24818124 0.11894919
-0.4998959 -0.5486636 -0.33931378 -0.36358705 -0.120478265 -0.22908254 -0.02707216 0.119518794
0.33088803 -0.082563266 0.0103961695 -0.0037724942 -0.1844737 -0.67027414 -0.58007574 -0.02430394
-0.1752843 -0.14013106 0.18626477 -0.11659073 -0.6799291 -0.033599246 -0.045798678 0.29484782
0.05043791 -0.25527582 -0.08068065 -0.4239199 -0.6551605 0.02159501 -0.16226639 -0.2974242
-0.55388975 0.14606883 0.21773751 0.53279495 -0.36796868 -0.01856011 -0.79340136 0.3000139
0.54503834 0.1030149 0.048729315 -0.016041594 -0.4490879 -0.12208575 -0.46009 -0.5538226
0.1470054 -0.1658984 0.7380954 -0.013406555 0.14531502 -0.09041264 0.0050163683 -0.13544127
-0.46845445 0.28233537 0.2930864 -0.20465377 0.48973328 0.15326104 0.15966319 0.30716282
-0.2976381 -0.25683087 0.31755316 0.08558116 -0.2760355 0.50566244 0.020838484 -0.06710891
-0.09988875 -0.18204902 0.023553343 0.5616778 0.44917676 -0.7331896 0.27026907 -0.16157284
-0.41944003 -0.071675144 0.018209312 0.015147401 -0.19620353 -0.4151618 1.1617734 -0.13840444
-0.18629955 0.03146654 0.2755817 0.15179737 -0.04233618 0.045031656 -0.1971655 -0.15409821
00000000: b8ea fabe e20e a63c 70b5 09bf cdd0 693d
00000010: 3685 6fbe eac9 f6bc 4474 c7bd 21f1 2b3e
00000020: 598c a7be 1549 89be e13e acbe ce0d c4be
00000030: 1ae8 06be 2b3e 043d 0de1 f03d dd6c 7a3e
00000040: b8b8 013e 3ccd 1bbf 75a9 5a3e 8329 59be
00000050: 5291 dd3e 7560 ddbe 33dd c9bd c42e e83e
00000060: 27b8 aebd 278e cabe 0c7a 4f3e 8f7c 9a3d
00000070: a189 963e 2b68 4e3f 2d9f 923c 1a3e 1c3d
00000080: e97a 6e3e 6eaf e8bb f603 25bd bb68 78be
00000090: 9019 6d3f d049 7ebd 1e28 2abf 52a9 90bf
000000a0: d13a b53e 2c09 183f 7769 c2be 1199 b0be
000000b0: 3f7e 053e a39a 57be a4a2 923e cef8 143f
000000c0: c3ff 2bbe 1251 dd3e c201 423f 6393 14be
000000d0: 5fed 85be fe4e 783e 0ae4 c83e f3fe 95bd
000000e0: 1841 103f e862 96bd 19ae 4fbd f904 40bd
000000f0: 68b9 e8be 041a 81be fb90 d7be 33ce 073f
00000100: 5614 513e 33a7 85be 3a7c 11be a059 1c3f
00000110: d8df a6be 5297 293e b303 1ebf c7f5 c63e
00000120: 1e61 bf3e e7f5 0abf 3ec2 1ebe f511 503e
00000130: 9b37 8ebe 5563 dc3d 3e6f 023e e7ef 173e
00000140: 2171 c9bd abce 92be 0c71 04bc cf7f a5bd
00000150: 8e03 4f3e e802 973b 5203 ae3c c938 03be
00000160: de05 6cbc d83b 143d 1fd1 873e 2dee 30bd
00000170: edfc a63e 3cc0 16be 3923 7ebe a29b f33d
00000180: 5bf2 ffbe 3875 0cbf 89ba adbe 1528 babe
00000190: 4fbd f6bd 9d94 6abe 6fc6 ddbc 45c6 f43d
000001a0: 286a a93e ee16 a9bd b254 2a3c f33b 77bb
000001b0: ace6 3cbe 1697 2bbf d87f 14bf 0e19 c7bc
000001c0: ba7d 33be 847e 0fbe 31bc 3e3e 1fc7 eebd
000001d0: d50f 2ebf 5d9f 09bd 6597 3bbd 4bf6 963e
000001e0: fb97 4e3d 83b3 82be e63b a5bd 070c d9be
000001f0: 99b8 27bf 05e8 b03c 2929 26be fc47 98be
00000200: b8cb 0dbf 1193 153e 95f6 5e3e 4065 083f
00000210: 6466 bcbe 5f0b 98bc 5a1c 4bbf 6c9b 993e
00000220: a287 0b3f 7af9 d23d 6498 473d a969 83bc
00000230: d9ee e5be 1808 fabd eb90 ebbe 51c7 0dbf
00000240: 9588 163e 45e1 29be d2f3 3c3f 2ba7 5bbc
00000250: 76cd 143e 432a b9bd 5960 a43b 1eb1 0abe
00000260: 43d9 efbe 438e 903e 6c0f 963e c290 51be
00000270: 52be fa3e 76f0 1c3e bf7e 233e 7244 9d3e
00000280: 0564 98be 567f 83be 5496 a23e 2d45 af3d
00000290: 8654 8dbe 1873 013f 78b5 aa3c 6570 89bd
000002a0: 7992 ccbd 0f6b 3abe f1f2 c03c 1eca 0f3f
000002b0: 7ffa e53e 50b2 3bbf b560 8a3e 5a73 25be
000002c0: d8c0 d6be 6bca 92bd b22b 953c ce2c 783c
000002d0: 94e9 48be 1690 d4be feb4 943f e5b9 0dbe
000002e0: 4fc5 3ebe 0fe3 003d 0b19 8d3e c570 1b3e
000002f0: b468 2dbd 1d73 383d c1e5 49be eccb 1dbe

actor.init_internal_node_embed.0.add_bias._bias f4 [32, 1]
0.026075933 -0.21390186 -0.0071034627 -0.02310465 0.14518033 0.031292167 0.0037537261 -0.005899935
0.04461794 0.10532985 0.0030530968 0.0181577 -0.0041893674 0.0047659427 -0.013326243 0.028812619
-0.27229464 -0.0610887 0.03583607 0.00043200792 -0.27465534 0.055868376 0.054719333 0.12238655
0.033175733 0.0005524263 0.003715257 0.0757258 0.028822703 -0.047618184 0.06024981 -0.07046292
00000000: 329d d53c 1709 5bbe 2ac4 e8bb f745 bdbc
00000010: 27aa 143e 372c 003d 1301 763b 3e54 c1bb
00000020: 4dc1 363d 2db7 d73d 7716 483b 75bf 943c
00000030: f646 89bb a02b 9c3b 5056 5abc 7108 ec3c
00000040: 346a 8bbe 2538 7abd d8c8 123d 1f7f e239
00000050: a09f 8cbe 3dd6 643d 6121 603d cda5 fa3d
00000060: 47e3 073d b4d0 103a ab7b 733b 2116 9b3d
00000070: 971d ec3c 490b 43bd 81c8 763d dd4e 90bd

actor.init_internal_node_embed.2.module.weight f4 [64, 32]
0.12275839 0.17546757 0.10381642 0.15331653 -0.15915778 0.1310608 0.11111158 0.51771915
0.30966845 -0.06676802 0.77573895 0.11086721 0.096359126 -0.18632305 -0.57426137 0.28199786
-0.019570334 0.107260205 0.034186717 0.25404617 -0.222447 0.1352209 1.1014751 -0.05235288
0.47106922 0.29674077 0.11702903 0.20400509 0.37326023 -0.095972404 -0.00091574853 0.0027138866
0.3745044 0.0735919 -0.4406173 -0.42744318 0.06362903 0.3208967 0.13135327 -0.44080874
-0.2619058 0.0996533 0.5097779 0.3042726 0.29684535 0.12338465 0.05685365 0.2702659
-0.06308647 -0.019386796 -0.11810483 -0.16212957 0.037143238 0.38747448 0.81238824 0.3791616
-0.07358807 -0.055123687 0.10972189 0.17412798 0.5466174 0.24284407 -0.16932538 -0.07894951
-0.24869372 -0.030194579 0.4648619 0.372211 0.3916076 -0.010085692 -0.12290329 0.7658026
-0.096249186 -0.044130426 -0.47210798 -0.4365553 -0.09485852 0.14165443 0.1828209 -0.30526426
-0.13854639 0.23662232 0.041859552 -0.41320008 -0.03757381 0.3008521 -0.26107568 -0.223345
-0.03386623 -0.12755449 0.18136497 0.16339184 0.12226939 -0.1317053 0.13412386 0.04297436
-0.0688078 -0.20588943 0.11377303 0.43660775 0.21628146 -0.04025221 0.005485603 0.06946921
0.32507613 0.1481548 -0.002423036 -0.010211617 -0.28321087 0.055871256 -0.30721453 0.16925874
0.11481803 -0.24044944 0.06356973 0.1838367 -0.25541222 0.37621415 -0.33937287 0.09061651
0.42570135 -0.07771838 0.18333992 0.32035568 0.116183266 -0.04258468 -0.09030991 0.20168817
0.3341611 -0.10131129 -0.16950178 -0.037726823 -0.70278305 -0.048038084 0.30778116 -0.7467633
-0.6083556 0.3303963 0.28943664 0.38860008 -0.1111602 -0.19122642 0.21036027 -0.054795466
0.020498095 -0.04366094 0.037034042 0.036702547 -0.1392127 0.39859033 0.1586327 0.11254046
-0.28316402 0.36725974 0.37629864 0.16662437 0.41918695 0.049119122 0.055368505 -0.09187077
-0.28319874 -0.104011804 0.00025936365 0.05934478 0.7424429 -0.21469003 -0.16968401 0.3691511
0.07214929 -0.36869332 0.8478272 -0.37214386 0.07483355 -0.09868716 0.16352507 0.20509988
0.21170025 0.13106698 -0.043455802 -0.06905637 -0.02862931 0.07520227 0.436341 -0.4342221
0.2285343 0.3612475 0.22990203 0.492521 0.091176696 -0.061092116 0.15566379 0.30746225
0.30165645 0.0033954422 0.05802108 0.06445841 0.52344394 -0.027866641 -0.20870708 0.3219126
0.08414194 0.036839634 0.17388989 -0.1784474 -0.27052972 -0.09634405 0.06869289 -0.46770492
0.010487468 -0.38124752 0.008216764 -0.04722327 -0.004788537 0.09114323 -0.061713938 0.01565105
-0.28664815 -0.061419893 -0.18442802 0.30448848 -0.35266232 0.045052055 -0.21970789 -0.078636885
-0.11822325 -0.1126473 -0.38513535 -0.3146888 -0.12181944 -0.035573475 0.14655647 0.021633558
0.0042039347 0.11759973 0.5112337 0.3368728 -0.18683794 0.12742797 -0.08729359 -0.14334899
-0.037857182 -0.31397533 0.19466983 0.14313185 0.020145576 -0.11042353 0.7622719 -0.026038432
-0.27510202 0.13934414 -0.20488879 -0.105323926 0.67011905 0.20669535 0.26457757 -0.12161768
00000000: c068 fb3d c5ad 333e b49d d43d 02ff 1c3e
00000010: 42fa 22be cd34 063e 788e e33d 3e89 043f
00000020: dd8c 9e3e acbd 88bd d496 463f 590e e33d
00000030: ef57 c53d 78cb 3ebe cb02 13bf 0662 903e
00000040: f751 a0bc 3dab db3d 5f07 0c3d 5712 823e
00000050: 25c9 63be 5977 0a3e 23fd 8c3f f96f 56bd
00000060: fc2f f13e 68ee 973e ebac ef3d b6e6 503e
00000070: f71b bf3e 2e8d c4bd d80e 70ba 76db 313b
00000080: 0abf bf3e 5ab7 963d 9798 e1be d5d9 dabe
00000090: f04f 823d 924c a43e 7981 063e afb1 e1be
000000a0: 8418 86be 0817 cc3d ce80 023f 9ec9 9b3e
000000b0: 1dfc 973e 17b1 fc3d 5fdf 683d 4b60 8a3e
000000c0: 7b33 81bd 0fd1 9ebc f2e0 f1bd 4b05 26be
000000d0: 8223 183d 0e63 c63e adf8 4f3f 7821 c23e
000000e0: 58b5 96bd 60c9 61bd dfb5 e03d 9b4e 323e
000000f0: 1eef 0b3f 1eac 783e a263 2dbe 48b0 a1bd
00000100: 91a9 7ebe 9f5a f7bc 6102 ee3e 7192 be3e
00000110: cb80 c83e 753e 25bc b8b4 fbbd a40b 443f
00000120: 4b1e c5bd 1bc2 34bd 23b8 f1be 2d84 dfbe
00000130: 2f45 c2bd dc0d 113e 6735 3b3e 994b 9cbe
00000140: 1bdf 0dbe 1f4d 723e ec74 2b3d f68e d3be
00000150: ffe6 19bd 4909 9a3e b6ab 85be 8db4 64be
00000160: 51b7 0abd a59d 02be bdb7 393e 3150 273e
00000170: 6068 fa3d c1dd 06be c457 093e e205 303d
00000180: 1beb 8cbd aed4 52be d601 e93d 0d8b df3e
00000190: e378 5d3e 80df 24bd 93c0 b33b e045 8e3d
000001a0: 6170 a63e e4b5 173e cccb 1ebb a04e 27bc
000001b0: 0401 91be 42d9 643d 394b 9dbe 2a52 2d3e
000001c0: b725 eb3d 6138 76be d930 823d b03f 3c3e
000001d0: 64c5 82be 249f c03e 48c2 adbe 2695 b93d
000001e0: 87f5 d93e d02a 9fbd 76bd 3b3e a905 a43e
000001f0: 7ef1 ed3d 466d 2ebd 67f4 b8bd 5887 4e3e
00000200: 2a17 ab3e 4b7c cfbd e091 2dbe 7187 1abd
00000210: 97e9 33bf 95c3 44bd 7e95 9d3e e12b 3fbf
00000220: 31bd 1bbf b429 a93e 0a31 943e 97f6 c63e
00000230: f5a7 e3bd dcd0 43be af68 573e 3671 60bd
00000240: 9feb a73c d0d5 32bd 02b1 173d 6955 163d
00000250: c68d 0ebe 0814 cc3e 9c70 223e 9d7b e63d
00000260: e0fa 90be 7809 bc3e 37aa c03e 949f 2a3e
00000270: ac9f d63e 2231 493d 16ca 623d be26 bcbd
00000280: 6dff 90be 2404 d5bd 33fb 8739 8313 733d
00000290: bd10 3e3f b4d7 5bbe a5c1 2dbe 5f01 bd3e
000002a0: 02c3 933d 5fc5 bcbe 340b 593f a489 bebe
000002b0: 5542 993d 7e1c cabd 1e73 273e b405 523e
000002c0: f3c7 583e 6c36 063e b6fe 31bd 6d6d 8dbd
000002d0: 0488 eabc a603 9a3d 1668 df3e 5c52 debe
000002e0: e504 6a3e 6ff5 b83e 706b 6b3e b62b fc3e
000002f0: d9ba ba3d ba3b 7abd 5466 1f3e b16b 9d3e
00000300: b772 9a3e 1186 5e3b 83a7 6d3d c502 843d
00000310: 6c00 063f 9548 e4bc 4fb7 55be bad1 a43e
00000320: 9c52 ac3d 28e5 163d 3110 323e eaba 36be
00000330: df82 8abe 0750 c5bd dcae 8c3d 0577 efbe
00000340: a1d3 2b3c e032 c3be 9b9f 063c 306d 41bd
00000350: 29e9 9cbb 4da9 ba3d c1c7 7cbd a136 803c
00000360: 8cc3 92be 6d93 7bbd b3da 3cbe eae5 9b3e
00000370: 2890 b4be 8188 383d 1bfb 60be 600c a1bd
00000380: 081f f2bd a1b3 e6bd 7630 c5be e41e a1be
00000390: 787c f9bd 7eb5 11bd e612 163e dc38 b13c
000003a0: 29c1 893b 21d8 f03d 36e0 023f 977a ac3e
000003b0: 7252 3fbe 7a7c 023e fbc6 b2bd 14ca 12be
000003c0: 2210 1bbd 60c1 a0be 8757 473e 2891 123e
000003d0: 5608 a53c bb25 e2bd 4024 433f 8d4e d5bc
000003e0: 2cda 8cbe 3bb0 0e3e 5ece 51be 12b4 d7bd
000003f0: ec8c 2b3f f2a7 533e b676 873e b112 f9bd

actor.init_internal_node_embed.2.add_bias._bias f4 [64, 1]
0.15960822 0.28721568 -0.06707751 0.090298995 0.09832244 0.29649955 0.03096055 0.21157682
-0.07895269 -0.062887296 0.0036051723 0.038567048 -0.07716629 0.16668095 0.17221938 0.10890338
-0.0056329505 -0.17938712 -0.0071323887 0.07738404 -0.03322927 0.072371766 -0.07881497 -0.13094942
0.15012358 0.022643887 0.05758709 0.07307614 -0.1322995 -0.047051057 -0.026267009 -0.040001843
0.020827956 0.04608834 0.28841215 -0.0951986 0.04863606 -0.19616605 -0.042942323 0.15261212
-0.04036018 -0.22421148 0.17174639 -0.00059281325 -0.151699 -0.020054482 -0.30525815 -0.25707984
0.19405109 0.037573814 0.06444876 0.06810159 0.04528291 0.017401893 -0.01975551 0.26511216
0.2169237 -0.06673369 -0.04228624 0.121862225 0.098715395 0.055382244 -0.016087959 0.040260427
00000000: 5670 233e ef0d 933e ef5f 89bd aeee b83d
00000010: 475d c93d cace 973e fba0 fd3c 98a7 583e
00000020: f3b1 a1bd 0ecb 80bd c144 6c3b 7bf8 1d3d
00000030: 5c09 9ebd 69ae 2a3e 475a 303e bc08 df3d
00000040: 9d94 b8bb 42b1 37be d0b6 e9bb 867b 9e3d
00000050: 6a1b 08bd a637 943d be69 a1bd 9b17 06be
00000060: ffb9 193e ac7f b93c 71e0 6b3d f1a8 953d
00000070: 8579 07be 9cb8 40bd e92d d7bc f9d8 23bd
00000080: 649f aa3c 21c7 3c3d c2aa 933e 7cf7 c2bd
00000090: 9b36 473d c1df 48be 4ae4 2fbd 5a46 1c3e
000000a0: b750 25bd b297 65be 49de 2f3e 0667 1bba
000000b0: fc56 1bbe 4c49 a4bc cc4a 9cbe f89f 83be
000000c0: 54b5 463e 00e7 193d b6fd 833d d978 8b3d
000000d0: 937a 393d 6a8e 8e3c 4fd6 a1bc c8bc 873e
000000e0: 3f21 5e3e acab 88bd 5634 2dbd e792 f93d
000000f0: 4c2b ca3d 7ed8 623d e5ca 83bc 1ee8 243d

actor.init_leaf_node_embed.0.module.weight f4 [32, 8]
-0.0822268 -0.3464307 -0.38857877 -0.065205514 0.16902281 0.36786476 0.49556488 0.26958755
-0.34236175 -0.64572626 -0.08766084 -0.36435708 -0.26159567 0.3465194 -0.022073694 0.36473003
0.19165477 -0.36739305 -0.15048184 0.42640418 -0.0052814134 -0.31038198 -0.05668357 -0.067440934
-0.40576616 -0.20553301 -0.2460964 -0.25009525 0.34176448 0.043818746 0.45127562 0.114205725
-0.052494388 -0.18423782 0.06825164 0.13686606 0.3765528 0.12675655 -0.49865738 0.39125538
0.08870549 0.15119062 -0.5299669 0.16008669 -0.46957743 0.52415776 -0.12240198 -0.2569163
-0.3406612 -0.15814671 -0.0583211 0.04365688 0.12652263 -0.2055727 -0.09980849 -0.10941601
0.38165385 -0.426031 0.23747073 0.4464527 -0.04880441 0.40358967 0.044950716 0.2253498
0.09866027 0.1322148 -0.15887934 0.33415478 0.09169201 0.09072672 0.49037474 0.34801507
-0.084708214 0.33872294 -0.17880353 0.29899824 0.028448839 -0.1206313 0.4524055 -0.29887226
0.067464896 0.113749236 0.28560266 -0.093133874 0.3335758 -0.02310114 -0.19306481 0.021164838
-0.24273095 0.057028558 0.18581551 0.044939697 0.44070914 0.11926619 -0.0166643 -0.3579186
0.39430463 0.058283545 0.56840515 -0.34411275 -0.06969996 -0.07034064 0.36708963 -0.116579294
-0.2766997 0.032478828 0.27557284 -0.18873973 -0.2034575 -0.24786784 0.35581025 0.0762532
0.18081461 -0.035379853 0.16613922 0.45199877 0.1261409 0.4082361 0.11389746 -0.07272469
0.4835353 0.100298636 -0.12379465 -0.48977035 0.22572283 0.45598564 0.035715528 -0.30470893
-0.060519837 0.09922466 -0.29663312 0.3642002 0.1750545 0.02305622 -0.24215657 0.078400984
-0.106222644 0.36449334 0.08900368 0.104434416 -0.2718333 0.091253914 0.18544158 0.2879545
-0.19361882 0.06707637 0.061213996 -0.3609205 -0.25915805 0.36795494 0.049006805 0.11954338
-0.3779277 0.093859635 -0.11209192 0.27081838 0.090270236 0.515595 -0.0895742 0.106007986
-0.24500588 -0.2689192 -0.30485845 -0.045108706 0.01966781 0.41837472 -0.14125684 -0.26208043
0.15353209 -0.14386274 0.47936472 -0.12610795 0.018500134 -0.106031425 -0.19497034 0.05800785
-0.33044732 0.3637957 0.0049332823 0.33206257 0.24286085 0.17843467 0.11806061 0.13221456
-0.28594244 -0.13712068 0.07845526 -0.07163644 0.4516997 -0.051925544 -0.037020203 -0.062129177
0.06090311 0.09001057 0.26722902 -0.019376725 0.21614411 0.0578131 -0.017179154 0.49396384
0.29837492 0.21265812 -0.48582947 -0.31982857 0.03883532 -0.023003945 0.046824694 -0.2999806
0.23509619 -0.18866558 0.13935024 0.41755196 0.17726184 0.105452426 0.44521493 -0.278283
0.050959103 -0.1774962 -0.37825337 0.13172698 0.6053022 -0.06488875 0.21698657 0.36417335
0.29389605 -0.16615392 -0.17722212 -0.14352088 -0.039236642 -0.42124987 0.102220036 0.20314844
0.1085284 0.23935977 -0.18974051 -0.20844781 0.29602757 0.009677995 -0.2170839 0.16490386
0.26539108 0.41855487 -0.42940187 -0.18800287 -0.23520127 -0.15052252 -0.03516907 0.45629385
0.11581905 0.41140658 -0.06488885 -0.22351736 0.1222613 0.39180794 0.17210491 -0.09707967
00000000: 8666 a8bd 5d5f b1be ccf3 c6be 788a 85bd
00000010: 5114 2d3e c558 bc3e aeba fd3e 6107 8a3e
00000020: 0a4a afbe 514e 25bf 8787 b3bd 038d babe
00000030: deef 85be fe6a b13e e4d3 b4bc e5bd ba3e
00000040: 2641 443e f11a bcbe e917 1abe a651 da3e
00000050: b50f adbb 63ea 9ebe 082d 68bd 791e 8abd
00000060: 95c0 cfbe 3f77 52be b200 7cbe 7c0c 80be
00000070: c1fb ae3e 497b 333d 990d e73e b1e4 e93d
00000080: 5b04 57bd d7a8 3cbe 84c7 8b3d 9e26 0c3e
00000090: 87cb c03e 78cc 013e 0550 ffbe a052 c83e
000000a0: 39ab b53d b7d1 1a3e e9ab 07bf c4ed 233e
000000b0: 746c f0be 342f 063f e4ad fabd 898a 83be
000000c0: 256b aebe 36f1 21be 1be2 6ebd 8ed1 323d
000000d0: 268f 013e a681 52be 6568 ccbd 8015 e0bd
000000e0: 2268 c33e bc20 dabe 872b 733e 7395 e43e
000000f0: 22e7 47bd 4ea3 ce3e 3e1e 383d 19c2 663e
00000100: 650e ca3d 5163 073e 44b1 22be 5616 ab3e
00000110: 05c9 bb3d eece b93d 6612 fb3e 082f b23e
00000120: 807b adbd 186d ad3e 4618 37be 4c16 993e
00000130: 8a0d e93c 8b0d f7bd b2a1 e73e c905 99be
00000140: 092b 8a3d 5cf5 e83d 833a 923e f9bc bebd
00000150: 72ca aa3e 9a3e bdbc c8b2 45be e261 ad3c
00000160: 768e 78be c796 693d 6c46 3e3e b012 383d
00000170: a1a4 e13e d541 f43d 9283 88bc 1b41 b7be
00000180: 4ce2 c93e baba 6e3d 0083 113f 8c2f b0be
00000190: dabe 8ebd c10e 90bd 2cf3 bb3e 20c1 eebd
000001a0: 95ab 8dbe 8508 053d e217 8d3e fd44 41be
000001b0: 2a57 50be 11d1 7dbe c32c b63e a32a 9c3d
000001c0: 7727 393e 77ea 10bd 6620 2a3e 626c e73e
000001d0: 152b 013e 5204 d13e 1243 e93d aff0 94bd
000001e0: f091 f73e 5f69 cd3d 0d88 fdbd 2ec3 fabe
000001f0: e323 673e f376 e93e 724a 123d cf02 9cbe
00000200: a6e3 77bd 4c36 cb3d 4ce0 97be 7378 ba3e
00000210: 7d41 333e 66e0 bc3c e4f7 77be b290 a03d
00000220: 428b d9bd df9e ba3e 9047 b63d b6e1 d53d
00000230: bc2d 8bbe 55e3 ba3d 66e4 3d3e c66e 933e
00000240: 0344 46be 565f 893d 87bb 7a3d 92ca b8be
00000250: 5db0 84be 9764 bc3e 5cbb 483d 29d3 f43d
00000260: bd7f c1be 7b39 c03d 7390 e5bd b5a8 8a3e
00000270: 9adf b83d 09fe 033f ae72 b7bd b71a d93d
00000280: d2e2 7abe c7af 89be 6816 9cbe e8c3 38bd
00000290: 631e a13c 3635 d63e a2a5 10be 682f 86be
000002a0: 8437 1d3e c150 13be 4b6f f53e 7122 01be
000002b0: 988d 973c 0127 d9bd 4ea6 47be a499 6d3d
000002c0: 6430 a9be 6e43 ba3e 5fa7 a13b 1b04 aa3e
000002d0: 84b0 783e 94b7 363e c3c9 f13d 4163 073e
000002e0: 0c67 92be 5d69 0cbe 27ad a03d 20b6 92bd
000002f0: 2f45 e73e e1af 54bd 7fa2 17bd 2a7b 7ebd
00000300: 8a75 793d 7657 b83d 3ed2 883e f0bb 9ebc
00000310: e254 5d3e 6ecd 6c3d 4cbb 8cbc d4e8 fc3e
00000320: 99c4 983e 0dc3 593e a4be f8be 92c0 a3be
00000330: c911 1f3d c572 bcbc 40cb 3f3d 0f97 99be
00000340: 0ebd 703e 8d31 41be d4b1 0e3e 5fc9 d53e
00000350: 2184 353e 71f7 d73d 36f3 e33e 1c7b 8ebe
00000360: 7eba 503d 90c1 35be 6daa c1be 70e3 063e
00000370: 16f5 1a3f 65e4 84bd ba31 5e3e ee74 ba3e
00000380: 8b79 963e 4124 2abe b779 35be 23f7 12be
00000390: 9ab6 20bd 10ae d7be bd58 d13d 2506 503e
000003a0: 2344 de3d ba1a 753e 564b 42be 5873 55be
000003b0: ed90 973e 7490 1e3c 3e4b 5ebe 8fdc 283e
000003c0: 57e1 873e d34c d63e 90da dbbe d383 40be
000003d0: 9ad8 70be 9322 1abe 710d 10bd 599f e93e
000003e0: 8a32 ed3d e2a3 d23e 72e4 84bd bce1 64be
000003f0: 2264 fa3d 0d9b c83e 453c 303e b5d1 c6bd

actor.init_leaf_node_embed.0.add_bias._bias f4 [32, 1]
0.012273105 0.023740266 0.008220549 0.008387079 -0.11427483 0.0151753705 -0.03127768 -0.026224047
0.080727674 0.034142084 0.036954537 -0.029884584 0.0012100764 -0.07856021 0.1293581 0.0038331475
-0.039548524 -0.048472483 0.010456846 -0.0053540654 0.03543142 0.038896915 0.1210738 -0.021284824
0.010864773 0.011257188 0.09223931 -0.021797579 -0.1266286 0.0029907776 -0.0028966933 -0.15179859
00000000: 2215 493c f27a c23c 7baf 063c f669 093c
00000010: ec08 eabd 1ea2 783c 061d 00bd d0d3 d6bc
00000020: 8d54 a53d 92d8 0b3d a45d 173d 84d0 f4bc
00000030: 6d9b 9e3a 2de4 a0bd 7376 043e 8b35 7b3b
00000040: a2fd 21bd 158b 46bd 3153 2b3c 2871 afbb
00000050: 8920 113d 5f52 1f3d 8af5 f73d 835d aebc
00000060: 2902 323c 1270 383c f7e7 bc3d d690 b2bc
00000070: edaa 01be ec00 443b 73d6 3dbb 1771 1bbe

actor.init_leaf_node_embed.2.module.weight f4 [64, 32]
0.22371645 0.38013652 0.114994474 0.13406351 -0.23261401 0.34940606 0.30364692 -0.25015426
0.06649457 0.13655478 -0.043694377 -0.07037468 -0.31614527 -0.14673172 0.15547355 0.066846624
0.27898586 -0.12632261 0.2677161 0.29158044 0.64054734 -0.511305 0.6077069 0.37491158
0.00055562047 0.06951454 0.00033285972 0.50331724 -0.122529395 0.13099653 0.21918221 -0.3391796
-0.23090121 -0.148021 -0.025771404 -0.18052067 -0.3077987 0.2169675 -0.2425897 0.24101077
0.27059233 -0.29318693 0.095899284 -0.1679156 0.18362601 0.041589 0.057147417 0.096112646
0.2090307 0.15608323 0.022799017 -0.47971994 -0.24959837 0.481789 0.16131116 0.21933383
0.108324505 0.10616873 0.1278972 0.022140738 0.080848254 -0.020306995 0.25305843 -0.17551008
-0.07374415 -0.017632905 0.05604754 -0.3716588 0.06607146 -0.11034547 -0.123131305 -0.026544208
-0.28399548 0.44831607 0.045025293 0.019257756 -0.25326642 0.046587814 0.1571832 0.12911893
-0.3411301 -0.20438164 0.120104894 0.022575427 -0.0042376565 0.046146177 0.11988636 0.19845754
0.35319504 -0.015090633 0.20409258 -0.061483458 -0.15768625 0.068756066 -0.51324594 -0.10533024
-0.16079941 0.04223516 -0.4118353 0.45041925 -0.3246646 0.24651457 -0.15575409 0.1134124
0.0136508 0.1000372 0.15428226 0.086302474 0.6180531 -0.25822073 -0.08035483 -0.018256115
-0.18825057 0.35078564 0.017439151 0.0732356 -0.39769757 0.051237836 -0.10507118 -0.11326253
0.010918769 -0.021316696 0.2407335 0.17325535 0.19679418 -0.11311725 -0.06978895 0.16458897
-0.25178325 -0.31149104 -0.33810937 -0.12761256 -0.010013476 -0.25593752 -0.21539769 -0.18100522
-0.61063933 0.30451658 0.05514239 -0.021811422 0.40544692 -0.017519426 -0.24772431 0.18286467
0.07089379 -0.08924718 -0.30958712 -0.20749822 0.096350856 0.22452086 0.12898411 -0.021419642
-0.16111751 0.011573191 -0.051202998 -0.09576874 -0.08963343 -0.0028539826 -0.011124452 -0.14466344
-0.060854193 0.15071131 -0.20428488 -0.37268472 0.11673894 0.11773825 0.09803687 -0.13123977
-0.29289868 -0.17221014 0.029623974 0.08507662 -0.15798086 -0.2226867 0.4066927 -0.21236916
0.20647798 0.049182232 0.0488041 -0.05589256 0.0795986 -0.0354557 -0.12713146 -0.29606912
-0.21944503 -0.032983787 0.025244262 0.2818388 -0.05241899 -0.07156473 -0.091335684 -0.042455673
-0.28506777 -0.3685936 -0.42678046 -0.101179965 -0.15208839 -0.08573253 0.0072654006 -0.02465057
-0.04244255 -0.13651475 0.057185814 -0.17232312 0.3458915 0.116529115 -0.17810017 -0.19272083
-0.15349391 0.40487593 0.063956566 -0.084079556 0.096985884 0.24280928 -0.15387404 0.09865747
0.13865265 0.29151443 -0.20143546 -0.029693428 0.14973119 0.031312276 -0.30351162 0.06279109
0.073784016 0.3803109 -0.2174241 -0.23845713 -0.47023317 -0.11543229 0.18354651 -0.2924271
-0.11039569 0.010820295 0.020482998 -0.30531254 0.29184172 -0.33004802 -0.48391062 -0.00038733066
-0.18471289 0.11688412 -0.0707676 -0.17354637 -0.008831936 0.66528356 -0.05431169 -0.30076545
-0.0606896 0.026457217 -0.20019998 -0.24630925 0.18788616 -0.38409945 0.13126114 -0.06879491
00000000: ed15 653e 41a1 c23e 3982 eb3d f247 093e
00000010: 5e32 6ebe 5ae5 b23e 9c77 9b3e 3814 80be
00000020: 4e2e 883d 04d5 0b3e e0f8 32bd 9a20 90bd
00000030: cbdd a1be d740 16be 7534 1f3e e2e6 883d
00000040: 3cd7 8e3e b75a 01be 1612 893e 084a 953e
00000050: e9fa 233f e2e4 02bf ae92 1b3f 69f4 bf3e
00000060: 0fa7 113a a45d 8e3d ad83 ae39 66d9 003f
00000070: b1f0 fabd f423 063e 4d71 603e f3a8 adbe
00000080: 5e71 6cbe d192 17be 8d1e d3bc 69da 38be
00000090: cb97 9dbe ba2c 5e3e 6f69 78be 87cb 763e
000000a0: 148b 8a3e 991c 96be d866 c43d 11f2 2bbe
000000b0: 7508 3c3e 3a59 2a3d 6913 6a3d b5d6 c43d
000000c0: 250c 563e 48d4 1f3e 01c5 ba3c da9d f5be
000000d0: b796 7fbe 0cad f63e c12e 253e 0c99 603e
000000e0: 3dd9 dd3d fe6e d93d 7cf7 023e 7e60 b53c
000000f0: c593 a53d db5a a6bc e090 813e eab8 33be
00000100: 2c07 97bd e272 90bc 1b92 653d 104a bebe
00000110: 7950 873d cefc e1bd 442c fcbd 3d73 d9bc
00000120: db67 91be af89 e53e 716c 383d 71c2 9d3c
00000130: 23ac 81be ddd2 3e3d a2f4 203e c137 043e
00000140: 9ba8 aebe 6c49 51be 8ef9 f53d 1af0 b83c
00000150: 0adc 8abb c603 3d3d fb86 f53d 7438 4b3e
00000160: fbd5 b43e b43e 77bc a5fd 503e 14d6 7bbd
00000170: 8178 21be fbcf 8c3d 1664 03bf 62b7 d7bd
00000180: 9aa8 24be c6fe 2c3d 14dc d2be 5a9d e63e
00000190: 703a a6be 516e 7c3e 007e 1fbe c344 e83d
000001a0: 9ba7 5f3c 4ee0 cc3d 2bfc 1d3e 5abf b03d
000001b0: ba38 1e3f 8235 84be 1391 a4bd d98d 95bc
000001c0: c2c4 40be 2d9a b33e 8ddc 8e3c 8cfc 953d
000001d0: 049f cbbe c4de 513d 8f2f d7bd 2ff6 e7bd
000001e0: a3e4 323c 5aa0 aebc d882 763e da69 313e
000001f0: 6a84 493e 04aa e7bd 82ed 8ebd 038a 283e
00000200: bce9 80be c17b 9fbe ac1c adbe deac 02be
00000210: 900f 24bc 3e0a 83be 3691 5cbe 6f59 39be
00000220: dc52 1cbf 99e9 9b3e fddc 613d dead b2bc
00000230: bd96 cf3e e684 8fbc 71ab 7dbe e040 3b3e
00000240: c330 913d 3ac7 b6bd 3482 9ebe 6a7a 54be
00000250: 9953 c53d cce8 653e 6914 043e 3f78 afbc
00000260: fdfb 24be 7b9d 3d3c 3cba 51bd 6722 c4bd
00000270: bb91 b7bd e209 3bbb 5543 36bc a722 14be
00000280: 3f42 79bd 1154 1a3e 0e30 51be 88d0 bebe
00000290: d314 ef3d c020 f13d 8ec7 c83d b863 06be
000002a0: d1f6 95be db57 30be faad f23c a73c ae3d
000002b0: bcc5 21be fb07 64be 073a d03e 4d77 59be
000002c0: f76e 533e 4f73 493d cfe6 473d 99ef 64bd
000002d0: 9704 a33d ff39 11bd c02e 02be 5f96 97be
000002e0: 33b6 60be 021a 07bd 0ecd ce3c 2d4d 903e
000002f0: 4bb5 56bd 8790 92bd 340e bbbd 00e6 2dbd
00000300: 67f4 91be 4db8 bcbe f882 dabe 7137 cfbd
00000310: 0fbd 1bbe 8994 afbd 9912 ee3b feef c9bc
00000320: 3dd8 2dbd 86ca 0bbe ac3b 6a3d 7975 30be
00000330: b118 b13e d1a6 ee3d e45f 36be 9c58 45be
00000340: 822d 1dbe e64b cf3e a9fb 823d e731 acbd
00000350: 89a0 c63d ffa2 783e 2891 1dbe ed0c ca3d
00000360: f6fa 0d3e 6141 953e 1945 4ebe a23f f3bc
00000370: 2253 193e 4d41 003d e065 9bbe 9d98 803d
00000380: 131c 973d 1cb8 c23e 6ca4 5ebe 1b2e 74be
00000390: 67c2 f0be c467 ecbd 9ef3 3b3e 01b9 95be
000003a0: 2317 e2bd 9b47 313c f6cb a73c ed51 9cbe
000003b0: 476c 953e 0efc a8be 22c3 f7be a412 cbb9
000003c0: 6025 3dbe f160 ef3d 9aee 90bd 24b6 31be
000003d0: d3b3 10bc 0650 2a3f ef75 5ebd eefd 99be
000003e0: a895 78bd cebc d83c 3901 4dbe 7e38 7cbe
000003f0: 3b65 403e afa8 c4be 5269 063e 59e4 8cbd

actor.init_leaf_node_embed.2.add_bias._bias f4 [64, 1]
0.26251093 0.12428095 0.04257036 0.0062998952 -0.1796469 0.019825496 -0.20811273 -0.29807153
-0.17988612 -0.16040345 0.2663228 -0.15550044 0.09630974 -0.10417351 -0.10912914 -0.07519529
0.1507424 -0.13515344 -0.31787074 -0.042902403 0.044964306 0.09030682 0.015391995 0.07841914
0.23347478 -0.056603096 -0.027284406 -0.064611666 -0.17061543 0.09346445 -0.15477288 -0.02399704
0.10162855 -0.05652448 -0.16892713 0.14354849 0.22592014 -0.029961124 -0.045122527 -0.13206628
0.07259378 -0.4860629 0.18578956 0.050966036 -0.1527859 -0.05612515 -0.12481824 -0.04722429
-0.23567659 0.05649897 -0.052401103 -0.05287757 0.11573694 -0.14451703 -0.18909377 0.12289459
-4.279923e-05 -0.24919684 0.20233472 -0.27700707 0.11102404 -0.11510289 0.06425878 -0.004513572
00000000: d567 863e 0387 fe3d 425e 2e3d 5a6f ce3b
00000010: 5bf5 37be 1469 a23c 811b 55be d59c 98be
00000020: 1134 38be cd40 24be 765b 883e 823b 1fbe
00000030: 0a3e c53d ec58 d5bd 197f dfbd fdff 99bd
00000040: 375c 1a3e aa65 0abe f4bf a2be 6eba 2fbd
00000050: 7e2c 383d c8f2 b83d b52e 7c3c 379a a03d
00000060: 0314 6f3e a6d8 67bd 8c83 dfbc 1f53 84bd
00000070: d0b5 2ebe 4a6a bf3d c87c 1ebe 7195 c4bc
00000080: a122 d03d 3786 67bd 3cfb 2cbe 60fe 123e
00000090: 9c57 673e 0871 f5bc 66d2 38bd 623c 07be
000000a0: 0cac 943d 3ddd f8be 9e3f 3e3e c3c1 503d
000000b0: e873 1cbe 7ce3 65bd b5a0 ffbd 426e 41bd
000000c0: 3455 71be 776b 673d 8aa2 56bd 2796 58bd
000000d0: 7d07 ed3d 46fc 13be cca1 41be 29b0 fb3d
000000e0: 5383 33b8 752d 7fbe d530 4f3e dfd3 8dbe
000000f0: 9260 e33d 10bb ebbd 1b9a 833d 96e6 93bb

actor.init_next_embed.0.module.weight f4 [32, 6]
0.14624615 -0.14783362 -0.29890305 -0.2903805 -0.049844187 -0.23707111 0.011669918 -0.097654946
0.18683255 -0.14790906 -0.162995 -0.2083104 0.35211992 -0.26774636 -0.25778565 -0.040073898
-0.34560376 0.40689397 0.006517957 0.036373135 -0.033101637 0.44099772 -0.4465037 -0.3508542
0.10860351 -0.4220224 -0.12407604 -0.26054838 -0.10297043 -0.17190018 -0.014677133 -0.5772369
0.28352162 -0.7206821 -0.13795505 0.15195067 0.8042029 0.10291967 0.070973516 -0.25904152
-0.24342677 -0.12804899 -0.08696854 0.09831574 0.14582333 0.07758834 -0.31181687 0.17929931
-0.38376278 -0.5904613 0.2444619 0.0912038 1.4405979 -0.8248081 0.11362099 -0.29224053
-0.1822739 0.07730588 -0.3143687 -0.4111693 -0.33054915 0.1820992 0.016121991 0.37481686
0.24866514 -0.46876156 0.5669393 -0.029234236 -0.021628063 0.078678824 0.06842125 -0.006482271
-0.36043838 -0.032835547 0.14581446 0.010340482 -0.23148875 -0.34639302 0.075817116 0.009134302
0.12415758 -0.0044991793 -0.13227342 -0.2448085 1.1679264 -0.22806235 -0.25601846 -0.5424744
-0.30445445 0.13269573 -0.026368765 -0.06358731 -0.29770973 -0.28517446 -0.11539639 0.32191053
-0.27507934 -0.034050748 -0.11244481 -0.12792875 -0.40752313 0.109974876 0.57091254 -0.05052203
0.19700745 -0.26537818 -0.06347336 -0.009893878 -0.053292118 0.2881259 0.22860755 0.025266727
-0.033352043 0.2994786 0.76116174 0.2441345 -0.35871825 -0.14648402 0.018326018 0.25454187
0.26246372 0.026163727 -0.03635058 -0.14000829 -0.266068 0.14800331 0.0991219 -0.2110019
-0.7182638 -0.14969328 -0.09525192 0.06805719 0.11409876 -0.1477266 -0.09739232 0.12398063
-0.36026615 0.044233035 0.7989152 -0.26592296 0.33082733 -0.49078745 0.08862208 0.6600973
1.6023138 -0.09954142 -0.18245748 -0.31151676 -0.13564119 0.31792456 0.17185853 0.28594753
-0.06433231 -0.17889117 -0.17653166 -0.3765578 0.0062113786 -0.32030162 0.18111199 -0.056281146
-0.23022601 -0.021002496 -0.50333434 -0.38239774 -0.18877986 -0.21877232 0.19796383 -0.1655536
0.5942251 0.20565565 -0.01903345 -1.2320186 -0.083603725 0.17818809 0.22546877 0.23072688
-0.34367222 -0.7091198 -0.14193614 0.28960392 -0.106085144 -0.25917542 0.29571474 -0.0943328
-0.009649891 0.079043366 0.12772997 -0.22645392 -0.47012034 -0.46041608 -0.067316934 0.00957808
00000000: 8dc1 153e b261 17be d209 99be c1ac 94be
00000010: 6b29 4cbd c5c2 72be 2f33 3f3c 51ff c7bd
00000020: 0851 3f3e 7975 17be 29e8 26be 524f 55be
00000030: 1049 b43e 0d16 89be 7bfc 83be 8724 24bd
00000040: faf2 b0be 6854 d03e 9694 d53b fffb 143d
00000050: 9595 07bd 74ca e13e 229c e4be 29a3 b3be
00000060: 846b de3d 5213 d8be 941b febd 9966 85be
00000070: 29e2 d2bd 9a06 30be 5c78 70bc ccc5 13bf
00000080: bf29 913e 9f7e 38bf 1744 0dbe f598 1b3e
00000090: 3ee0 4d3f 8cc7 d23d 905a 913d 17a1 84be
000000a0: de44 79be 461f 03be 901c b2bd c359 c93d
000000b0: b652 153e a3e6 9e3d 76a6 9fbe 3d9a 373e
000000c0: 8e7c c4be 7928 17bf 3854 7a3e 0fc9 ba3d
000000d0: 8365 b83f a026 53bf 1fb2 e83d 8da0 95be
000000e0: 02a6 3abe 8c52 9e3d eff4 a0be c884 d2be
000000f0: bd3d a9be 3678 3a3e 4412 843c ffe7 bf3e
00000100: 13a2 7e3e 8401 f0be ef22 113f a37c efbc
00000110: 562d b1bc 5d22 a13d 7120 8c3d 3b69 d4bb
00000120: 618b b8be 917e 06bd 6350 153e 206b 293c
00000130: 630b 6dbe 6d5a b1be 0146 9b3d 0aa8 153c
00000140: 5446 fe3d da6d 93bb af72 07be 14af 7abe
00000150: 9d7e 953f 2d89 69be da14 83be 9adf 0abf
00000160: 74e1 9bbe 64e1 073e 4f03 d8bc 103a 82bd
00000170: 696d 98be 6302 92be f154 ecbd 75d1 a43e
00000180: 33d7 8cbe cc78 0bbd 7749 e6bd c1ff 02be
00000190: dfa6 d0be 823a e13d 5327 123f 30f0 4ebd
000001a0: 52bc 493e a6df 87be 52fe 81bd ef19 22bc
000001b0: d648 5abd 3d85 933e 1918 6a3e 2bfc ce3c
000001c0: 279c 08bd 4255 993e 7fdb 423f 65fe 793e
000001d0: eba9 b7be e8ff 15be 7220 963c 5053 823e
000001e0: a561 863e 5055 d63c 59e4 14bd 555e 0fbe
000001f0: 113a 88be 2e8e 173e 6c00 cb3d e210 58be
00000200: 23e0 37bf 3249 19be 7013 c3bd 9161 8b3d
00000210: 9cac e93d a445 17be a075 c7bd 8ee9 fd3d
00000220: ce74 b8be b32d 353d b585 4c3f 0e27 88be
00000230: 3362 a93e 7e48 fbbe 7e7f b53d 23fc 283f
00000240: 9e18 cd3f 5fdc cbbd 22d6 3abe 207f 9fbe
00000250: 86e5 0abe 02c7 a23e affb 2f3e b767 923e
00000260: a8c0 83bd 3f2f 37be b7c4 34be 2fcc c0be
00000270: d288 cb3b 93fe a3be 6c75 393e 0f87 66bd
00000280: 5ec0 6bbe 6d0d acbc 85da 00bf a3c9 c3be
00000290: 824f 41be da05 60be 08b7 4a3e e286 29be
000002a0: 231f 183f 6597 523e 0aec 9bbc c9b2 9dbf
000002b0: 6e38 abbd f076 363e 49e1 663e ab43 6c3e
000002c0: cef5 afbe e088 35bf b557 11be f746 943e
000002d0: 2b43 d9bd a4b2 84be ec67 973e 8e31 c1bd
000002e0: 941a 1ebc 7de1 a13d a5cb 023e 89e3 67be
000002f0: 9db3 f0be a8bb ebbe 76dd 89bd 61ed 1c3c

actor.init_next_embed.0.add_bias._bias f4 [32, 1]
0.15127487 -0.0026608312 -0.07520679 0.014599356 0.0011711192 -0.23258919 0.114754826 -0.07357836
-0.2363622 0.04475236 -0.21630606 0.31705815 -0.030385034 0.12957111 0.3389141 0.33230585
-0.009636797 -0.21769027 -0.17694074 0.34876615 -0.13314414 0.09513784 -0.2651029 -0.054506633
0.3798418 -0.046972416 -0.10759225 -0.0017946131 0.04326564 0.16015051 0.21108232 0.12084476
00000000: cde7 1a3e 5761 2ebb 0406 9abd 2332 6f3c
00000010: 3d80 993a dc2b 6ebe 9404 eb3d 40b0 96bd
00000020: ef08 72be 404e 373d 567f 5dbe 7255 a23e
00000030: 09ea f8bc 4aae 043e 2686 ad3e fe23 aa3e
00000040: a8e3 1dbc 33ea 5ebe f42f 35be 7a91 b23e
00000050: f056 08be a1d7 c23d 91bb 87be 5942 5fbd
00000060: a07a c23e 2666 40bd 5359 dcbd 3939 ebba
00000070: 5037 313d 7ffe 233e f725 583e 757d f73d

actor.init_next_embed.2.module.weight f4 [64, 32]
0.10230956 -0.10307038 -0.024679724 0.17927864 0.14591421 0.082626164 -0.24653396 -0.22667322
-0.19284953 0.31059673 0.08263765 -0.632442 0.09172114 0.22710957 -0.075041346 -0.46919236
-0.14961672 0.064299226 -0.015968459 -0.3064067 0.06341838 -0.04466349 -0.47221312 -0.45888528
-0.57029337 0.34942922 -0.17026733 -0.09592895 0.113403834 -0.0066302544 0.045529164 -0.24125054
0.2635059 -0.05866735 -0.05266874 -0.06995981 -0.08999762 -0.16374595 -0.14892101 -0.00050590356
0.36468428 0.03752174 0.47814506 0.23750196 -0.024797862 -0.08020528 -0.17714876 -0.06171428
0.17980976 0.019359495 -0.0792365 0.5722128 0.16983952 -0.0029216849 0.0611712 -0.14136955
-0.1827881 0.22091238 -0.0041581113 -0.32358173 -0.1012765 0.037987202 -0.12434574 -0.058284275
-0.10909773 0.032693475 0.16576733 -0.13723129 -0.00026152038 0.2032568 -0.34085733 -0.35014307
-0.28141445 -0.14334705 0.04003633 0.18544583 0.08848216 -0.232763 -0.6591576 0.08672617
-0.23020475 0.06370839 0.18145409 0.0337773 -0.08051755 -0.092382476 -0.05064829 0.25259298
-0.4458392 0.10148546 -0.20616062 -0.17492434 -0.5139324 -0.55709827 -0.3594772 -0.13960509
-0.010842102 0.15190734 0.32907417 -0.09203926 -0.3093456 0.025588894 -0.34794062 0.12794146
-0.06973356 0.23931493 -0.33865923 0.16911103 0.10976723 0.20437422 -0.2516337 -0.28037965
-0.16247106 0.20437793 0.032375857 -0.30030304 -0.015537997 0.088240534 0.16447183 0.702858
-0.34164706 -0.43144086 -0.093719326 -0.31665063 -0.44560277 -0.31324023 0.14293995 -0.28368214
-0.20273076 -0.38818538 -0.08949753 0.24582459 0.11867761 -0.16777241 -0.124735445 -0.08481592
0.13587204 -0.12095884 -0.2484362 -0.13251449 -0.028771657 0.0450687 0.13243085 -0.042431083
0.16602218 0.15418838 -0.14813606 -0.27061057 -0.1713014 0.12675115 0.15178299 0.21161631
0.13878141 -0.093043774 0.443839 0.20936063 -0.23179542 -0.10440328 -0.06246949 -0.015634717
-0.04705807 -0.0052023535 -0.04825299 -0.11073855 0.3425889 0.21102431 0.09637426 0.14116013
-0.006873854 0.21644875 0.039153636 0.48137513 0.0432836 0.32138753 0.082157016 0.39283186
-0.029818675 0.32390067 0.109215826 0.5884337 0.04465746 -0.027365414 0.26341534 -0.12008094
0.44025818 -0.078723066 0.07339793 0.3429395 -0.09856306 -0.1514253 0.14750323 -0.05676594
-0.0078016426 0.14772 0.01671 0.18225816 -0.0712495 0.025836756 -0.17793751 -0.32605848
0.17766792 0.2254196 0.07229284 0.17943035 0.027893756 0.041830588 -0.23178786 -0.12125302
-0.021323074 0.16841558 -0.21219002 -0.17125006 0.20312324 -0.27485186 0.16762315 -0.02821643
-0.3491748 0.073373504 0.038832627 -0.22013557 -0.24001898 -0.28038326 0.21680638 -0.26256526
-0.17908344 0.027816162 -0.02541194 0.026070938 0.22554117 -0.29454818 -0.14289778 -0.19618459
0.10071941 -0.029007299 0.3583757 0.22968343 0.10034067 0.35122105 0.27700976 0.4636562
0.069213174 0.35033032 0.20484199 0.037126046 -0.33306944 -0.021964109 -0.16499677 0.48929656
0.23993164 0.023921821 0.09169452 -0.09210089 0.10129504 0.21698049 0.08292458 0.35229883
00000000: ad87 d13d 9016 d3bd 222d cabc d294 373e
00000010: 896a 153e e837 a93d 6673 7cbe 061d 68be
00000020: 597a 45be 8906 9f3e ee3d a93d b8e7 21bf
00000030: 4bd8 bb3d 698f 683e 47af 99bd fb39 f0be
00000040: 2035 19be 50af 833d 49d0 82bc 57e1 9cbe
00000050: 7fe1 813d 10f1 36bd ebc5 f1be 03f3 eabe
00000060: bffe 11bf 63e8 b23e 8f5a 2ebe 6676 c4bd
00000070: 4540 e83d 9b42 d9bb ca7c 3a3d 620a 77be
00000080: 3fea 863e 2d4d 70bd 2dbb 57bd 1747 8fbd
00000090: ac50 b8bd 05ad 27be c07e 18be 9d9e 04ba
000000a0: e6b7 ba3e 65b0 193d 6ecf f43e b733 733e
000000b0: e324 cbbc aa42 a4bd 7c66 35be 1dc8 7cbd
000000c0: 0d20 383e ce97 9e3c bf46 a2bd 8a7c 123f
000000d0: 69ea 2d3e bd79 3fbb a78e 7a3d 2ec3 10be
000000e0: ce2c 3bbe db36 623e c440 88bb 81ac a5be
000000f0: 0e6a cfbd 7898 1b3d fba8 febd 7ebb 6ebd
00000100: a16e dfbd 98e9 053d e9be 293e 5c86 0cbe
00000110: ac1c 89b9 8d22 503e da84 aebe f445 b3be
00000120: 8e15 90be 92c9 12be 23fd 233d 83e5 3d3e
00000130: 2236 b53d 6d59 6ebe 8dbe 28bf 7d9d b13d
00000140: cbba 6bbe 8b79 823d 1acf 393e 115a 0a3d
00000150: 63e6 a4bd 0633 bdbd 9574 4fbd de53 813e
00000160: 0945 e4be 9cd7 cf3d c51b 53be 5e1f 33be
00000170: 1391 03bf fe9d 0ebf 650d b8be a3f4 0ebe
00000180: 12a3 31bc 998d 1b3e 697c a83e 147f bcbd
00000190: 8c62 9ebe cd9f d13c 4625 b2be 1603 033e
000001a0: 78d0 8ebd f90e 753e be64 adbe 712b 2d3e
000001b0: a4cd e03d 7a47 513e 22d6 80be ec8d 8fbe
000001c0: d05e 26be 7348 513e 8c9c 043d 52c1 99be
000001d0: 1593 7ebc 74b7 b43d 4e6b 283e 80ee 333f
000001e0: 5dec aebe d1e5 dcbe ebef bfbd 0820 a2be
000001f0: 0c26 e4be 0661 a0be da5e 123e c93e 91be
00000200: a798 4fbe 3cc0 c6be 7b4a b7bd 71b9 7b3e
00000210: 3f0d f33d 88cc 2bbe 4c75 ffbd f8b3 adbd
00000220: 0a22 0b3e 45b9 f7bd 0f66 7ebe e1b1 07be
00000230: 8ab2 ebbc f599 383d f49b 073e 37cc 2dbd
00000240: b801 2a3e 8fe3 1d3e fbb0 17be 788d 8abe
00000250: a269 2fbe 0ecb 013e 006d 1b3e f2b1 583e
00000260: b71c 0e3e bc8d bebd de3e e33e a262 563e
00000270: c75b 6dbe 63d1 d5bd 02e0 7fbd 6114 80bc
00000280: f6bf 40bd 8178 aabb eda4 45bd e5ca e2bd
00000290: d067 af3e c216 583e de5f c53d 488c 103e
000002a0: 113e e1bb bea4 5d3e 905f 203d cd76 f63e
000002b0: 254a 313d e88c a43e f041 a83d 4221 c93e
000002c0: 4b46 f4bc 4fd6 a53e 8cac df3d 97a3 163f
000002d0: beea 363d 6f2d e0bc 60de 863e ffec f5bd
000002e0: 8569 e13e 8f39 a1bd a751 963d c495 af3e
000002f0: 6edb c9bd 3c0f 1bbe 160b 173e 6783 68bd
00000300: eca4 ffbb e943 173e 69e3 883c e2a1 3a3e
00000310: 42eb 91bd 9ba7 d33c 4035 36be 23f1 a6be
00000320: 94ee 353e 65d4 663e 450e 943d 97bc 373e
00000330: 7281 e43c 8d56 2b3d cc59 6dbe 8153 f8bd
00000340: baad aebc 2275 2c3e 5748 59be 2d5c 2fbe
00000350: 8aff 4f3e 62b9 8cbe 67a5 2b3e 2526 e7bc
00000360: 0ac7 b2be d944 963d f60e 1f3d 386b 61be
00000370: 89c7 75be 658e 8fbe 7e02 5e3e f46e 86be
00000380: a661 37be b8de e33c b32c d0bc b892 d53c
00000390: 44f4 663e 05cf 96be cc53 12be 9de4 48be
000003a0: fa45 ce3d b7a0 edbc 057d b73e 2232 6b3e
000003b0: 697f cd3d 3fd3 b33e 39d4 8d3e 5864 ed3e
000003c0: a3bf 8d3d 7f5e b33e 19c2 513e 7b11 183d
000003d0: 1488 aabe 13ee b3bc eaf4 28be 1485 fa3e
000003e0: a4b0 753e b2f7 c33c 56ca bb3d 649f bcbd
000003f0: c673 cf3d 2230 5e3e 5dd4 a93d 8360 b43e

actor.init_next_embed.2.add_bias._bias f4 [64, 1]
-0.79286575 -0.41411647 -0.53910005 -0.30006936 -0.10361784 0.73744136 -0.5044411 0.17471927
1.3332813 -0.54904234 -0.4666122 0.10373909 0.9010815 -1.3139328 -0.9496633 -1.1273628
-0.554442 0.8055641 0.12071577 -0.120379634 -0.045603223 -0.49077007 -0.9786497 0.27406487
-2.0107033 -0.5141202 -0.35765123 -0.9581804 0.40818068 0.1548495 -0.8211196 -0.76701516
-0.31562006 0.69148606 -0.22135891 -0.7410715 1.5223421 0.5206861 -0.27400076 0.21626161
-1.5096467 1.2133512 -0.4282516 -1.5415413 0.335263 1.004057 0.83421296 0.6515651
-0.44140744 0.47105807 0.537941 0.6758456 0.24221969 -0.3606442 0.2181846 -0.74703234
-0.114646815 0.4244602 -0.6180059 0.32105133 0.9581801 0.4794471 -0.02757803 0.31701493
00000000: 40f9 4abf 1307 d4be 7602 0abf b1a2 99be
00000010: 9735 d4bd f5c8 3c3f 0d23 01bf 9ce9 323e
00000020: f6a8 aa3f 0a8e 0cbf cbe7 eebe 2975 d43d
00000030: 47ad 663f f32e a8bf 221d 73bf 6d4d 90bf
00000040: e9ef 0dbf 7339 4e3f d439 f73d 9989 f6bd
00000050: 72ca 3abd 3746 fbbe c988 7abf 3b52 8c3e
00000060: 5daf 00c0 629d 03bf 101e b7be 504b 75bf
00000070: 0ffd d03e de90 1e3e e534 52bf 1b5b 44bf
00000080: f498 a1be 3b05 313f e9ab 62be ddb6 3dbf
00000090: 1bdc c23f af4b 053f d449 8cbe af73 5d3e
000000a0: 1a3c c1bf 184f 9b3f cb43 dbbe 3a51 c5bf
000000b0: 98a7 ab3e f184 803f fb8e 553f f8cc 263f
000000c0: 2800 e2be 862e f13e 80b6 093f 3804 2d3f
000000d0: 7008 783e 5ba6 b8be c96b 5f3e 833d 3fbf
000000e0: f3cb eabd d952 d93e a235 1ebf d760 a43e
000000f0: 4b4b 753f 177a f53e 52eb e1bc c84f a23e

actor.embedder.layers.0.0.module.W_query.weight f4 [64, 64]
0.064737655 -0.07437765 0.14477475 -0.15211335 -0.016099552 -0.10486544 -0.11763776 -0.08363517
0.13689911 -0.103422575 0.13257076 0.008211419 0.028373776 0.02654718 0.001659963 -0.013790866
0.07307555 0.028963542 -0.026699584 0.08140721 0.040044673 -0.083619446 0.1268774 0.20815864
-0.14462306 0.14958921 0.04858975 -0.034657396 0.005971098 0.16865645 -0.027865488 0.0509168
0.11953438 -0.042707715 -0.19241926 0.0993609 -0.016090894 0.15003766 0.08563797 -0.101019815
0.09845013 0.009501268 -0.044390466 0.16062695 -0.09005348 -0.12202587 0.16803029 -0.060323764
-0.09756281 -0.022402855 -0.030450149 -0.07825064 -0.07364945 0.046472568 0.0067468598 -0.039477985
0.05678574 -0.13270514 0.19779216 -0.07586162 -0.040127497 -0.08329309 -0.0605131 -0.06920835
-0.26988688 -0.1589473 -0.12359014 -0.09275974 -0.030026376 -0.13227397 0.11625202 0.16124007
0.20594247 0.030223802 -0.14852934 -0.043342356 0.14985973 -0.008780821 -0.013534861 -0.03098122
-0.06946093 0.11802863 0.058748055 0.23542558 0.049213592 -0.09416682 -0.060343757 -0.17642474
-0.17621319 -0.08449662 0.18501747 0.0078509 0.1267602 -0.0832416 0.1323079 -0.012988001
-0.08302584 -0.08981389 0.024831174 -0.054522924 -0.07058145 -0.16376516 -0.15041733 -0.08671214
-0.14054453 0.206495 -0.17145097 0.01281661 0.18222998 -0.08547073 -0.015122306 0.16010578
0.10865541 -0.08234734 -0.026851425 -0.16271055 -0.13044819 0.12132422 -0.04404277 -0.2005285
-0.17448825 0.29998788 -0.15363905 0.29718864 -0.06740286 0.12077355 -0.1420919 0.115907736
-0.21154381 0.0077708815 0.018322386 0.05133969 0.13640466 -0.017373638 -0.08489931 0.06896368
-0.017550407 0.035430066 -0.056084376 -0.041880548 0.09942899 0.060149603 0.048169862 0.13170661
0.028359417 0.11684535 0.11277578 0.07868416 0.06289417 0.03348089 -0.11540045 -0.09865243
-0.06678608 -0.06975258 0.061478935 -0.0456496 -0.0017798622 -0.0045010564 -0.013812081 0.008014717
-0.045113016 -0.051503874 -0.019103657 0.0023363917 0.0801975 0.025224745 0.021586042 0.03253265
0.055313166 0.06830778 -0.0014223926 0.02657334 0.062326476 -0.094115295 0.15240681 0.15140875
-0.067739666 -0.046970326 0.049080584 0.027615204 -0.047955193 0.03426276 -0.01372519 0.025970243
-0.008302092 0.08444105 -0.04990694 -0.0066265524 -0.1468767 -0.016365387 -0.09015832 -0.06120893
-0.08571448 0.030173812 -0.007439602 0.0958627 0.15162526 0.13634749 0.043070767 -0.06923012
0.017969465 -0.0069250097 -0.05945216 -0.05602254 -0.1399581 0.018048706 0.070987225 0.041720908
-0.05182674 0.022205418 0.035750978 0.07179172 -0.1430269 0.047743868 0.033755742 -0.033550248
-0.027381698 0.080569595 -0.025636451 0.11853188 0.06656138 -0.042495403 0.09511602 -0.049539343
-0.028330589 -0.052920442 -0.014392033 0.17046162 -0.0902033 0.011104527 0.059835505 0.03585657
-0.08045555 0.07188318 0.16359302 0.003231406 0.08841276 -0.11501588 0.119216144 -0.08393676
-0.061981898 0.07303852 0.095573075 -0.068311974 0.12953629 0.07212696 0.09961009 0.031959098
0.19705409 -0.087309875 -0.047553074 -0.02011179 -0.13947953 -0.121477626 0.025703244 -0.11197002
00000000: 2d95 843d 4f53 98bd d53f 143e 9ac3 1bbe
00000010: 35e3 83bc b1c3 d6bd 11ec f0bd ea48 abbd
00000020: 482f 0c3e 37cf d3bd a1c0 073e 3089 063c
00000030: 1f70 e83c 7979 d93c 1e93 d93a 16f3 61bc
00000040: a2a8 953d f344 ed3c 16b9 dabc d3b8 a63d
00000050: e205 243d ac40 abbd 26ec 013e 8a27 553e
00000060: 1118 14be ea2d 193e 0c06 473d eaf4 0dbd
00000070: 33a9 c33b 47b4 2c3e 2a46 e4bc 228e 503d
00000080: 71ce f43d 49ee 2ebd 8e09 45be ba7d cb3d
00000090: 0dd1 83bc 79a3 193e f662 af3d 7ae3 cebd
000000a0: 39a0 c93d 35ab 1b3c c7d2 35bd 647b 243e
000000b0: f56d b8bd b3e8 f9bd 2210 2c3e 0d16 77bd
000000c0: 03cf c7bd 3186 b7bc 9772 f9bc df41 a0bd
000000d0: 86d5 96bd 055a 3e3d c314 dd3b abb3 21bd
000000e0: 2a98 683d dbe3 07be 078a 4a3e 565d 9bbd
000000f0: bb5c 24bd 9195 aabd 96dc 77bd 1bbd 8dbd
00000100: 9d2e 8abe 15c3 22be d41c fdbd d2f8 bdbd
00000110: e0f9 f5bc d472 07be 8a15 ee3d 1e1c 253e
00000120: 95e2 523e e897 f73c 1318 18be c187 31bd
00000130: d474 193e 6fdd 0fbc 52c1 5dbc 54cc fdbc
00000140: 8841 8ebd ffb8 f13d cda1 703d 6713 713e
00000150: 3194 493d 89da c0bd 042b 77bd b0a8 34be
00000160: 3b71 34be 900c adbd 3875 3d3e 10a1 003c
00000170: 6dcd 013e 927a aabd b97b 073e a0cb 54bc
00000180: 7409 aabd 58f0 b7bd bf6a cb3c 6e53 5fbd
00000190: 028d 90bd 0eb2 27be 0007 1abe 2296 b1bd
000001a0: e8ea 0fbe 6d73 533e d890 2fbe c2fc 513c
000001b0: 7f9a 3a3e 470b afbd 8cc3 77bc c5f2 233e
000001c0: ba86 de3d b9a5 a8bd 85f7 dbbc 989d 26be
000001d0: 3694 05be d578 f83d 3166 34bd 5857 4dbe
000001e0: 0cad 32be 0398 993e 8e53 1dbe 1c29 983e
000001f0: 830a 8abd 1f58 f73d 8a80 11be 0961 ed3d
00000200: f19e 58be e1a2 fe3b d418 963c 9149 523d
00000210: aaad 0b3e 2953 8ebc b0df adbd d43c 8d3d
00000220: dfc5 8fbc 1e1f 113d bbb8 65bd f08a 2bbd
00000230: 6da1 cb3d 6e5f 763d c34d 453d 19de 063e
00000240: 0252 e83c 9d4c ef3d fdf6 e63d 2925 a13d
00000250: a9ce 803d 4223 093d 1257 ecbd 490a cabd
00000260: 24c7 88bd 71da 8ebd 56d1 7b3d 13fb 3abd
00000270: 444a e9ba 997d 93bb 114c 62bc 2950 033c
00000280: 6dc8 38bd baf5 52bd 467f 9cbc 261e 193b
00000290: 963e a43d 20a4 ce3c 36d5 b03c f540 053d
000002a0: 0f90 623d f3e4 8b3d 936f baba 55b0 d93c
000002b0: 0c4a 7f3d 85bf c0bd 8810 1c3e e50a 1b3e
000002c0: 18bb 8abd f563 40bd b908 493d 4839 e23c
000002d0: aa6c 44bd 1c57 0c3d 9fdf 60bc 8cbf d43c
000002e0: 7f05 08bc 6eef ac3d 386b 4cbd 8d23 d9bb
000002f0: d866 16be b410 86bc eda4 b8bd 37b6 7abd
00000300: 138b afbd 122f f73c e8c7 f3bb aa53 c43d
00000310: a743 1b3e ad9e 0b3e f96a 303d 85c8 8dbd
00000320: b334 933c 31eb e2bb 1c84 73bd e477 65bd
00000330: 2d51 0fbe e1da 933c c061 913d 8be3 2a3d
00000340: 4748 54bd 23e8 b53c 9e6f 123d 8a07 933d
00000350: a575 12be 138f 433d 7643 0a3d fc6b 09bd
00000360: 954f e0bc ac01 a53d 8903 d2bc d8c0 f23d
00000370: 5551 883d a90f 2ebd 30cc c23d c4e9 4abd
00000380: 8d15 e8bc 1bc3 58bd 90cc 6bbc 7e8d 2e3e
00000390: 82bc b8bd c3ef 353c 1316 753d 57de 123d
000003a0: e1c5 a4bd 7d37 933d ee84 273e ffc5 533b
000003b0: c011 b53d 728d ebbd 9827 f43d 09e7 abbd
000003c0: bbe0 7dbd 3895 953d d1bb c33d 26e7 8bbd
000003d0: 29a5 043e 4db7 933d 6000 cc3d 8be7 023d
000003e0: 8cc8 493e 85cf b2bd 03c7 42bd 7bc1 a4bc
000003f0: b9d3 0ebe 43c9 f8bd 9c8f d23c 8a50 e5bd
