logs/experiment/Discrete_A2C_1-5Box_10x10x10Bin-2022.08.09-15-00-00/PCT-Discrete_A2C_1-5Box_10x10x10Bin-2022.08.09-15-00-00_2022.08.09-15-47-14.pt (torch, 236314 bytes, 24 tensors)

actor.init_internal_node_embed.0.module.weight f4 [32, 6]
00000000: 4f4f ebbe fa8b 9a3a d018 03bf 66cb 0b3d
00000010: e9ff 5cbe 201c 28bd b527 e1bd 4e0a 413e
00000020: 213f 9bbe 5f29 89be ddd4 a6be 9dce b9be
00000030: 3455 fdbd 4db2 48ba c55a 2f3e c3d6 6a3e
00000040: ea96 213e 8e15 20bf 7531 183e 6cd9 17be
00000050: a926 f13e ded0 b1be a63f 36be 737f be3e
00000060: 0d22 8dbd ead8 bebe c9f5 8e3e 2ac0 743d
00000070: 2935 883e 5439 4c3f 0cfd 193d a6cd 0f3d
00000080: 57ab 663e 3a95 98bc fda5 19bd e479 71be
00000090: 4e5e 593f 84f7 583d 71d4 1ebf 4c33 89bf
000000a0: 691f 8b3e 2e29 103f 39de cbbe 3899 a7be
000000b0: 1043 463e 1770 4dbe ea7d 8d3e a490 0c3f
000000c0: d91b 31be dc7f d53e aed8 473f fad3 11be
000000d0: 6330 82be 47a9 743e 9f1c d43e 3d21 80bd
000000e0: b5d8 123f 1244 b8bd be76 84bd 47b4 e1bc
000000f0: 3f85 e9be 75ce 93be 70a3 dbbe bf4f 043f
00000100: 344a 723e 15e2 6bbe 262d 14be 80cf 173f
00000110: a3a8 5fbe 1ef5 2c3e 4311 18bf 130c a83e
00000120: 476e c43e 7189 f8be 91a2 ccbd 1557 5a3e
00000130: 142b 9fbe 6a26 363d 430f 333e 8d79 3b3d
00000140: bdce 40be c216 bfbe 730c 0f3e c1c7 bdbc
00000150: f44d 9f3d 9ed0 e1bb c669 8c3d e9d2 3fbd
00000160: 5047 6dbb c41d 85bd 01d1 783e f2cb a13c
00000170: 3e96 823e 1176 00be f9b2 9dbe 3f10 1d3e
00000180: 87ae f8be 41f4 0abf 31db a1be 4ec6 a5be
00000190: 0245 b0bd 5154 3dbe 87ee a8bc a418 703d
000001a0: 905e 2f3e d7b4 28bd 0e8f 85bd 8b8f fdbd
000001b0: f20b 45be e9af 2ebf a755 16bf 5a05 cfbc
000001c0: 70af 22be 9f58 f7bd abf3 333e 32c0 d3bd
000001d0: 536f 1ebf 5abb 7fbc 96d7 63bd f236 7e3e
000001e0: b6fa 763d 0423 87be 8e57 97bd 71f5 d3be
000001f0: 9835 23bf 6360 253d 567c 3abe 51bb 9bbe
00000200: 9b09 05bf c70f 273e 0756 6a3e ff09 023f
00000210: 2e4a cfbe 43c5 dfbc 2366 4ebf 1d15 a63e
00000220: cdce 0c3f 59fa cb3d b367 f63b fb99 47bb
00000230: 95eb ecbe f218 bdbd 5828 f2be 162d 0ebf
00000240: 6fbf 113e 457d 2abe bc2c 3f3f 93d6 adbc
00000250: 8b15 1b3e e4ac bbbd c04c e63c 494c 11be
00000260: c5e5 e1be 97ff 863e 8dba 943e 2cfc 33be
00000270: 5747 e63e 628a 363e 91b1 e63d 68ad ad3e
00000280: cace acbe c57b 6dbe e2df 8d3e b683 b23d
00000290: 4a1e a5be 5cbc 0f3f ee09 ed3c f82d cabd
000002a0: 0b9f dbbd 91dd 1ebe 5d13 7ebc 99ea 173f
000002b0: 22f0 da3e 4f90 42bf ca5d a63e c04d 39be
000002c0: 7e00 e1be e904 aabd de84 b53c a8e1 553c
000002d0: 97dd 48be d94e d4be f6cb 7d3f 0948 a5bd
000002e0: c760 56be b461 4f3c e164 993e d086 1c3e
000002f0: d5ed 95bd 9161 613c 4e24 47be edbf dcbd
-0.45958945 0.0011790984 -0.51209736 0.034129523 -0.21581997 -0.041042447 -0.10993902 0.18851587
-0.303216 -0.26789376 -0.32584277 -0.36290446 -0.12369767 -0.00076559634 0.1712447 0.22933488
0.15780225 -0.6253289 0.14862616 -0.14829034 0.47099808 -0.34729666 -0.17797717 0.3720661
-0.0689126 -0.37274867 0.27921894 0.059753574 0.26603058 0.79774976 0.03759484 0.03510823
0.22526298 -0.018625844 -0.037511814 -0.23581654 0.8490952 0.052970424 -0.6204291 -1.071878
0.27172402 0.56312835 -0.3981798 -0.32734084 0.1936152 -0.2006229 0.27635127 0.54908204
-0.1729578 0.4169911 0.78065 -0.14241019 -0.2542754 0.23892699 0.41428086 -0.0625634
0.5736192 -0.089973584 -0.06467961 -0.027551783 -0.4560947 -0.28868452 -0.4289813 0.5168418
0.23661119 -0.23035462 -0.14470348 0.59300995 -0.21841674 0.1689038 -0.5940134 0.32821712
0.38365385 -0.4854236 -0.099919446 0.21322282 -0.31087554 0.04447023 0.1748629 0.045770217
-0.18828864 -0.3732205 0.13969593 -0.02316654 0.0777854 -0.006891324 0.06856112 -0.046832
-0.0036205836 -0.06499818 0.24298479 0.019750569 0.2550525 -0.12545039 -0.30800608 0.15338229
-0.48570654 -0.5427895 -0.31612542 -0.32377857 -0.08606912 -0.18489195 -0.020621551 0.05861725
0.17125916 -0.041188087 -0.06521426 -0.12380894 -0.19242838 -0.6823717 -0.58724445 -0.025271107
-0.15887237 -0.1207745 0.1757342 -0.10339393 -0.6188862 -0.015608633 -0.05562552 0.24825647
0.06029769 -0.26393902 -0.073897466 -0.41398194 -0.6375365 0.040375125 -0.18211493 -0.3041635
-0.5196778 0.16314612 0.2288438 0.507965 -0.40486282 -0.027315741 -0.806246 0.32437983
0.5500305 0.099598594 0.007519686 -0.003045677 -0.46273485 -0.092332736 -0.47296405 -0.55537546
0.14233182 -0.16649349 0.74677634 -0.021220481 0.15144937 -0.09163836 0.02811277 -0.14189257
-0.44120613 0.26366875 0.29048577 -0.17576665 0.44976303 0.17826226 0.11264337 0.3392136
-0.33751518 -0.23191746 0.27709872 0.08716528 -0.3224967 0.5614679 0.028935399 -0.09872049
-0.107236944 -0.15514208 -0.015507546 0.5934234 0.42761332 -0.7600145 0.3249343 -0.18096066
-0.43945688 -0.08301718 0.022158083 0.013054289 -0.1961578 -0.41466406 0.99139345 -0.0807038
-0.20935355 0.012657572 0.29959777 0.15285802 -0.073207535 0.013756172 -0.19447443 -0.107787944

actor.init_internal_node_embed.0.add_bias._bias f4 [32, 1]
00000000: 4aab cd3c 4de2 40be e956 f7bb 446b dcbc
00000010: cc1a 133e 2876 003d 4a17 853b 4931 a6bb
00000020: c8b1 383d b28a d83d 38cf 773b ad5d 993c
00000030: 700b c5bb 9d32 123b 0288 82bc 3ee8 fa3c
00000040: 58e9 59be e452 ccbd 18e6 063d dcf5 9fb9
00000050: 4d6f 8ebe 2367 693d 4711 653d 204a fc3d
00000060: 00f9 063d d2c3 ad3a dbc2 503b 3234 a13d
00000070: c484 e33c 2521 40bd a374 4f3d 64e1 90bd
0.025106091 -0.18836327 -0.0075482023 -0.026906617 0.14365691 0.031362683 0.004061614 -0.005071793
0.04509142 0.10573329 0.003781272 0.018721426 -0.0060133263 0.0022308 -0.015933994 0.03062832
-0.2128042 -0.09976748 0.03293428 -0.00030510023 -0.2781929 0.056983124 0.05592468 0.12318826
0.03295231 0.0013257212 0.0031854424 0.078712836 0.027773269 -0.04690661 0.050648343 -0.0707424

actor.init_internal_node_embed.2.module.weight f4 [64, 32]
00000000: 13b4 0e3e a3f9 323e b73c 5a3d d6e8 673d
00000010: c36d 9cbe 40b2 363e d595 273e ff1c 803e
00000020: c70a 7b3e fa21 043d 8625 413f ec9d 253e
00000030: ce35 a63d 7ad8 29be e009 03bf f501 903e
00000040: 338f 5fbc b146 b53d bd8e 5f3d ccd9 763e
00000050: d4bb 5fbe 6890 d93d 386a 873f 6c5e 2cbc
00000060: 34a1 ae3e a300 be3e f0dd 383d 3080 493e
00000070: 0f09 ca3e e249 babd b8e5 57bc c97a e33b
00000080: df14 a83e 3435 883d bbb9 c8be 5f23 89be
00000090: 046f 8e3e 1b30 ad3e 787f 403e 2c3d a7be
000000a0: c853 69be fb9d 9f3c f1c7 1e3f 64cb 843e
000000b0: 5045 983e bbdb f43d 4029 bc3d ddf5 aa3e
000000c0: c823 82bd af00 31bc 608c 16be 5d54 e9bd
000000d0: 1117 e03c 7f8e 093f b77f 583f 8d0e 923e
000000e0: cd4e 52bd d4cf 6fbc 9628 b33d 10fd f53d
000000f0: 004b e83e 80d2 6f3e 2b0b 0fbe 2a6a 98bd
00000100: 9420 93be 4e62 39bd 1e5b b83e 1cb5 9d3e
00000110: 73fc e73e 1214 7c3c 5d8c 04be c3a2 1e3f
00000120: 7bab 02be 75cb 49bd 45d4 e8be f845 b3be
00000130: bd9c e0bd 838d 063e 3e4f b43d 2b79 c5be
00000140: 5d9a 17be 6035 5a3e 2496 413d 2c97 babe
00000150: 0c64 85bd bffb 973e cae7 5ebe 6815 54be
00000160: 81e2 033d 34c2 3bbe 22e1 093e 0e70 613e
00000170: 4362 113e b08b 17be a228 963d acd3 38b9
00000180: fd44 8bbd 105b 51be 1dd8 093e 69e8 d23e
00000190: 66da 703e 61e2 17bd cf94 e9bc af06 1e3e
000001a0: 5eac ad3e c6b7 f23d 1d90 5bbd b9c7 8d3b
000001b0: 1550 7bbe 1150 a73c 8ba5 9bbe 1f80 f83d
000001c0: bf1d e93d 4b08 a3be 2698 7c3d d22d 283e
000001d0: 11a7 82be 666f b93e b8fd babe c93d c83d
000001e0: 917d d33e d291 dbbd 407d 223e 4f42 8d3e
000001f0: 0f7a 083e 33b4 09bd e8f5 c7bd 7fb8 7d3e
00000200: 372c a23e d4f1 c7bd d63f 29be befc 513d
00000210: 3aa6 04bf 9753 acbd 421a 873e 611d 1abf
00000220: 1a47 c5be ac0c 913e 2435 863e dc26 a93e
00000230: bfb6 9ebd 1b5d 3bbe 5902 613e 4612 9cbd
00000240: 6b91 a93c 3921 3ebd 7270 f6bb 68a0 253d
00000250: 11c7 00be 0cf0 dd3e ed79 0b3e 8388 8cbc
00000260: c7b6 40be c578 b93e d51b e03e dd6d 263e
00000270: a3e4 773e b6d8 913b abac c03d 9db7 9abd
00000280: f745 89be 8eba ccbd 4360 963d 41c8 cb3d
00000290: 2a94 0f3f 6f7d 50be 9ede 04be 9ae3 853e
000002a0: f649 8abc 7d20 b4be c795 373f da4a b0be
000002b0: f962 253d 9e57 f8bd 88ed ec3d 7874 283e
000002c0: b78c 4d3e 0051 c03d b6cb b939 16d8 1fbd
000002d0: f094 10bd d3f3 24bc 287e e23e 3532 8fbe
000002e0: 633f 1c3e 5cca a73e a32c 593e b00e 103f
000002f0: 1f30 543d 5bd3 62bd 6bd0 463e d435 963e
00000300: a810 963e 8282 473b 15cb 5f3d 6690 af3d
00000310: 9b4d 003f ff14 61bd e67b 14be 58a6 d13e
00000320: 4557 9a3d 28a1 c93d 5cd8 153e 5fa4 03be
00000330: c9c3 91be 72cb c1bd ee6e 2a3d 99ea d9be
00000340: 9ca0 383c eab9 79be 53a4 4c3a 50dc f93b
00000350: 9838 8abc 31ed ab3d 04fc bfbd a612 b5bc
00000360: 311b 9ebe e7a5 a0bd 0f18 25be 38f0 903e
00000370: 68d1 aabe 3f00 a73d 7454 30be 132a 07be
00000380: 8892 f6bd dd01 e5bd 6cae a3be d7c4 6bbe
00000390: 8b10 91bd 44d5 14bd c451 de3d 4dea 413d
000003a0: 5dbf 583d 2cda 103e 1a1f d53e 716e 3b3e
000003b0: 613c 12be 380f 153e b4fe a8bd 5fe5 0bbe
000003c0: 9bc3 13bd 331c b9be 9c2c 463e a5da ef3d
000003d0: 3403 fe3c 9b4c c9bd a5ed 2c3f aca4 b5bc
000003e0: 54db 47be 0163 233d 8239 40be fc46 81bd
000003f0: f691 0c3f 29fd 5d3e 601a 333e d338 02be
0.1393588 0.17478041 0.05328056 0.056618534 -0.30552492 0.17841434 0.1636575 0.25022122
0.2451583 0.032258965 0.7544788 0.16173524 0.08115731 -0.16586486 -0.51186943 0.28126493
-0.013644981 0.08851374 0.054579485 0.2410652 -0.21848994 0.106232464 1.057929 -0.010520559
0.34107363 0.3710986 0.04513353 0.19677806 0.39460036 -0.09096123 -0.013177328 0.0069421274
0.32828423 0.06650773 -0.392042 -0.26784799 0.27819073 0.33825764 0.18798625 -0.32663858
-0.22785866 0.01948451 0.62023836 0.25936425 0.2974038 0.11955973 0.09187555 0.33390704
-0.06354481 -0.010803386 -0.14701986 -0.11393044 0.027354749 0.53733057 0.8456988 0.28526726
-0.05134468 -0.014636952 0.087479755 0.120111585 0.4536972 0.23420143 -0.13969104 -0.07442124
-0.28735793 -0.045259766 0.36007017 0.30802238 0.4530979 0.0153856445 -0.1294417 0.61967105
-0.12760727 -0.049266297 -0.4547445 -0.3501432 -0.109673955 0.1313992 0.08804177 -0.38569006
-0.14804979 0.21309423 0.047262326 -0.3644346 -0.06513223 0.29684255 -0.21768108 -0.20711291
0.032198433 -0.18335801 0.13464788 0.22015402 0.1419764 -0.1479938 0.07331969 -0.00017626461
-0.06800268 -0.20444894 0.13461347 0.4119294 0.23520812 -0.037081126 -0.02851334 0.15432237
0.33920568 0.11851458 -0.053604234 0.0043267873 -0.24542268 0.02042392 -0.30399737 0.12133812
0.11382627 -0.31842265 0.061668538 0.16423729 -0.25518087 0.36217803 -0.36521697 0.097774096
0.41306737 -0.107211724 0.15868092 0.27589652 0.13327812 -0.033619117 -0.097637 0.24777411
0.31674358 -0.09762922 -0.16528258 0.051266424 -0.5181614 -0.08414381 0.2638722 -0.6020108
-0.3853081 0.2832998 0.26212418 0.3303746 -0.077497 -0.18297236 0.21973552 -0.07620673
0.020699224 -0.046418402 -0.0075207287 0.04043618 -0.12575938 0.43347204 0.1362073 -0.017154938
-0.18819724 0.36224952 0.43771234 0.16252847 0.24208312 0.004450883 0.09407934 -0.07554553
-0.2681119 -0.0999652 0.07342579 0.09950305 0.56085455 -0.20360349 -0.12975547 0.2615021
-0.01688097 -0.35181037 0.7171292 -0.34432107 0.04037759 -0.12126087 0.11568743 0.1645068
0.2007321 0.093904495 0.00035437726 -0.039024435 -0.035298288 -0.010067898 0.44236875 -0.27967992
0.15258555 0.32771575 0.21208434 0.5627241 0.051803704 -0.055377346 0.19415443 0.29337943
0.29309583 0.003044278 0.054637033 0.08572464 0.50118417 -0.054951664 -0.14500389 0.40947223
0.075361766 0.09845191 0.14633316 -0.12855671 -0.28469685 -0.09462632 0.041609697 -0.42561796
0.011268761 -0.24387327 0.00078064686 0.0076251402 -0.01687269 0.0839485 -0.0937424 -0.022103619
-0.3088012 -0.07844143 -0.16122459 0.28308272 -0.3336289 0.08154344 -0.17219716 -0.13199644
-0.12039667 -0.11181996 -0.3196901 -0.23024307 -0.070832334 -0.0363362 0.10855439 0.047342587
0.052916873 0.14145726 0.4162529 0.18303849 -0.14280845 0.14556587 -0.08251706 -0.13661717
-0.036075216 -0.36154327 0.19352955 0.11711625 0.031007387 -0.098290645 0.67550117 -0.022173248
-0.19517261 0.03988934 -0.18771937 -0.06312367 0.5491022 0.21678604 0.1749053 -0.12716989

actor.init_internal_node_embed.2.add_bias._bias f4 [64, 1]
00000000: 080b f83d 918c a53e 4778 20bd 9be3 a93d
00000010: 87f3 e73d af8a 883e 8397 fe3c 29b3 493e
00000020: d496 b0bd 1dca 97bd 3798 4a3b 21db 113d
00000030: 6fee b8bd 06b9 283e 07d2 213e 2a7f f43d
00000040: 5129 943c 278f 2abe ff9a e5bc 2273 b43d
00000050: 4e9c c3bc 725a 923d b943 a0bd 439c 07be
00000060: 7da8 123e b5db 803c 9026 d53d d8af 553d
00000070: 3678 0abe b5c4 43bd 50d7 7dbd 937e 03bd
00000080: 7eea 40bc 9244 1c3d 2f74 8c3e 85b0 f0bd
00000090: 3295 d53c 00c1 49be 0a1b 2abd 4e02 053e
000000a0: ad79 fabc c4d5 45be 95d8 213e b7b6 2b3c
000000b0: 1a80 25be ae3c b0bb ade4 99be 2e0c 85be
000000c0: 9b65 443e 3cf4 143d 8916 a23d 14f0 a73d
000000d0: ee1d 363d 8e19 9c3c e942 81bc c6fe 8f3e
000000e0: 9bec 643e b584 9ebd e4cb a6bd 10eb db3d
000000f0: d083 b63d 81e9 0e3d edf0 21bc dadb 8d3c
0.12111479 0.32333806 -0.039177205 0.082953654 0.11325746 0.26668307 0.031078106 0.1969725
-0.08622518 -0.07411597 0.003091348 0.03560937 -0.090298526 0.16476831 0.15802775 0.11938317
0.018086107 -0.16656171 -0.02802801 0.08811022 -0.023878243 0.07146157 -0.07825417 -0.13243203
0.14322086 0.015729764 0.10407746 0.05216965 -0.1352242 -0.047795016 -0.061972916 -0.032103132
-0.011774657 0.03815133 0.2743239 -0.117524184 0.026072118 -0.1970253 -0.041529693 0.1298916
-0.030575598 -0.19319826 0.15805276 0.010480574 -0.16162148 -0.0053783273 -0.30057278 -0.25985855
0.19179384 0.036365733 0.079144545 0.08200088 0.044462137 0.019055154 -0.015778976 0.28124064
0.22355883 -0.077401556 -0.08144358 0.10738194 0.0891186 0.034890655 -0.009884101 0.017316747

actor.init_leaf_node_embed.0.module.weight f4 [32, 8]
00000000: 4fe7 b1bd 42f2 b3be 4af9 c5be 8a0f 78bd
00000010: 9311 323e 11cc ba3e aeba fd3e 6107 8a3e
00000020: 13aa a8be 076c 23bf b906 a6bd 487e bfbe
00000030: 2a4f 88be d1a1 b03e e4d3 b4bc e5bd ba3e
00000040: 0f3f 473e 0f23 bdbe 4e1c 1bbe 59ca d93e
00000050: 1067 30bb 293b 9fbe 082d 68bd 791e 8abd
00000060: 917f cfbe a48a 52be 4dff 7cbe 161b 80be
00000070: 92f4 ae3e 41d1 343d 990d e73e b1e4 e93d
00000080: 5329 7abd 73c6 2fbe 3d87 8f3d 910e 153e
00000090: d8bf bb3e 7946 003e 0550 ffbe a052 c83e
000000a0: 64c2 ad3d 5f13 193e 5677 09bf 733c 253e
000000b0: 2842 efbe dd69 063f e4ad fabd 898a 83be
000000c0: 1049 a6be 6a16 2bbe 0b80 7cbd d9f3 a13d
000000d0: c0b7 153e f58b 22be 6568 ccbd 8015 e0bd
000000e0: dddd bd3e 42be e0be a294 703e 03be ea3e
000000f0: f1ce 0cbd ff8b ca3e 3e1e 383d 19c2 663e
00000100: 942e bc3d 67af f13d 1607 1cbe 2b8f ab3e
00000110: cc17 da3d 756c b23d 6612 fb3e 082f b23e
00000120: 41e8 b6bd 0294 ac3e af9d 33be b65c 9b3e
00000130: 0713 f53c 5993 febd b2a1 e73e c905 99be
00000140: 55ee 873d 857e e03d a12a 913e bf6a b9bd
00000150: 1ab9 ac3e dfcc cbbc c8b2 45be e261 ad3c
00000160: 1b64 70be 265f 133d 6aea 3c3e 66a5 0f3d
00000170: 153b eb3e d722 f43d 9283 88bc 1b41 b7be
00000180: a8bb cb3e fece 5f3d 2864 113f 91fb b0be
00000190: 8aa0 89bd 4f0d 91bd 2cf3 bb3e 20c1 eebd
000001a0: 436c 8bbe 68e5 1c3d 4c12 8e3e bbe4 26be
000001b0: b574 49be 9a5c 4dbe c32c b63e a32a 9c3d
000001c0: fa7e 413e db09 08bd fbc7 283e 19cf e33e
000001d0: a9a0 f93d 286a d33e 1243 e93d aff0 94bd
000001e0: d468 f53e e8dd ba3d da68 eebd 7a6f f7be
000001f0: 68e4 733e 0f86 e43e 724a 123d cf02 9cbe
00000200: 223d 7bbd 582e ce3d 0a3f 98be a810 bb3e
00000210: fef7 313e 1f87 bd3c e4f7 77be b290 a03d
00000220: c4e2 ebbd a7d5 bd3e da15 b13d b3bd eb3d
00000230: 7362 8cbe 862d b33d 66e4 3d3e c66e 933e
00000240: c5e3 42be 73ae 8e3d 7c86 753d 9c7c b9be
00000250: 7d20 88be d2fa bd3e 5cbb 483d 29d3 f43d
00000260: a8cf c4be 4d30 b83d 8cd0 f6bd e029 903e
00000270: aabe c23d 9424 033f ae72 b7bd b71a d93d
00000280: 4eba 7bbe 2b5b 89be 92fc 9dbe 986e 25bd
00000290: 9425 ac3c cd52 d53e a2a5 10be 682f 86be
000002a0: cd40 253e 4cf6 06be aee0 f43e 422b 05be
000002b0: 3f8f c73b 8954 cfbd 4ea6 47be a499 6d3d
000002c0: a10c afbe 21f3 bc3e caa8 d13b 15fb af3e
000002d0: 71bf 7a3e b2a9 303e c3c9 f13d 4163 073e
000002e0: 8aa9 96be dd93 fcbd 971e 8e3d 7055 78bd
000002f0: 950f df3e 2aba 3abd 7fa2 17bd 2a7b 7ebd
00000300: 49ee 7b3d b558 ca3d 46f2 8b3e e429 89bc
00000310: 5b75 563e 9af9 623d 4cbb 8cbc d4e8 fc3e
00000320: 7029 993e a0df 583e cc03 f7be efcf a4be
00000330: e439 1b3d bcd3 bdbc 40cb 3f3d 0f97 99be
00000340: e32c 7c3e e582 50be d711 153e 1fd2 cf3e
00000350: a34a 423e 13fb d53d 36f3 e33e 1c7b 8ebe
00000360: b9e7 683d 1bd9 36be 14bf c0be e100 033e
00000370: ed7b 1b3f c98b 87bd ba31 5e3e ee74 ba3e
00000380: c1b8 a03e efc2 19be ddcf 4fbe 7b1e 0cbe
00000390: 1cc3 fbbc b935 dfbe bd58 d13d 2506 503e
000003a0: de63 dc3d 9e7d 733e 5d85 41be e5e5 52be
000003b0: e2c3 983e 2c9a f23b 3e4b 5ebe 8fdc 283e
000003c0: c709 8b3e da0b da3e dcb6 d7be 6172 48be
000003d0: 1d80 78be 542b 18be 710d 10bd 599f e93e
000003e0: fda6 ed3d a06a d03e d645 97bd 2bbf 63be
000003f0: 3922 033e 3239 c83e 453c 303e b5d1 c6bd
-0.08686697 -0.35145766 -0.38666755 -0.060561694 0.17389517 0.36483815 0.49556488 0.26958755
-0.32942256 -0.6383671 -0.08106751 -0.37401032 -0.26622897 0.34498456 -0.022073694 0.36473003
0.19457649 -0.3694081 -0.15147516 0.42537192 -0.0026916899 -0.31099823 -0.05668357 -0.067440934
-0.40527013 -0.205607 -0.24706765 -0.25020665 0.34170967 0.044144873 0.45127562 0.114205725
-0.061074566 -0.17165546 0.070082165 0.14556338 0.36669803 0.12526883 -0.49865738 0.39125538
0.08484343 0.14948796 -0.5369772 0.16136341 -0.4673016 0.52505285 -0.12240198 -0.2569163
-0.32477617 -0.16707769 -0.06164555 0.079078384 0.14620876 -0.15873702 -0.09980849 -0.10941601
0.3708333 -0.43895155 0.23494199 0.45848092 -0.034377042 0.39559934 0.044950716 0.2253498
0.091885716 0.118010335 -0.15237078 0.33507666 0.1064907 0.08712093 0.49037474 0.34801507
-0.08931018 0.3370667 -0.1754062 0.3034417 0.0299163 -0.12430448 0.4524055 -0.29887226
0.06637255 0.10961632 0.28352836 -0.09053563 0.3373497 -0.024877964 -0.19306481 0.021164838
-0.23475687 0.035979412 0.18448797 0.035069846 0.45943514 0.11920708 -0.0166643 -0.3579186
0.39791608 0.054640763 0.5679345 -0.3456693 -0.067200735 -0.070826165 0.36708963 -0.116579294
-0.27231035 0.038304716 0.27748334 -0.16298191 -0.19673426 -0.20054856 0.35581025 0.0762532
0.18896094 -0.033212524 0.16482536 0.4449394 0.121888466 0.41291928 0.11389746 -0.07272469
0.4793154 0.091243565 -0.116410926 -0.48327237 0.23817599 0.4463353 0.035715528 -0.30470893
-0.061337598 0.10067433 -0.29735595 0.36536145 0.17379758 0.02313572 -0.24215657 0.078400984
-0.115178615 0.37077066 0.08646746 0.11510792 -0.2741886 0.08748917 0.18544158 0.2879545
-0.190322 0.06966867 0.059942707 -0.36227882 -0.26587287 0.37105423 0.049006805 0.11954338
-0.3843968 0.08993588 -0.12051496 0.28156948 0.095090225 0.5122769 -0.0895742 0.106007986
-0.24582788 -0.26827368 -0.30856758 -0.040388674 0.021014012 0.41664734 -0.14125684 -0.26208043
0.16138001 -0.13179892 0.47827667 -0.13004783 0.0060900743 -0.10123546 -0.19497034 0.05800785
-0.34189323 0.36904243 0.006398295 0.34371248 0.24487092 0.17252234 0.11806061 0.13221456
-0.29426223 -0.1233289 0.06939428 -0.060628355 0.43566576 -0.045587696 -0.037020203 -0.062129177
0.061506543 0.09880201 0.27333277 -0.016743608 0.20943205 0.05541382 -0.017179154 0.49396384
0.29914427 0.21179056 -0.48245084 -0.3218989 0.037897006 -0.023172252 0.046824694 -0.2999806
0.24626498 -0.20362432 0.14557587 0.40589997 0.18973784 0.10448279 0.44521493 -0.278283
0.056861613 -0.17856257 -0.3764578 0.12793304 0.6073597 -0.06618459 0.21698657 0.36417335
0.31390956 -0.15015768 -0.20294137 -0.13683502 -0.030732684 -0.43595675 0.102220036 0.20314844
0.10761236 0.23778388 -0.1889853 -0.2059551 0.29836947 0.0074036326 -0.2170839 0.16490386
0.27155897 0.42587167 -0.42131698 -0.19574882 -0.24267621 -0.14860278 -0.03516907 0.45629385
0.11604116 0.40706348 -0.07386367 -0.22240894 0.12806024 0.39106137 0.17210491 -0.09707967

actor.init_leaf_node_embed.0.add_bias._bias f4 [32, 1]
00000000: 6f18 4d3c a7aa b83c 1719 083c b21d 093c
00000010: 8452 eabd 3839 6a3c 9a68 ad3c 42ed dabc
00000020: b443 a83d c41c 093d 72e0 153d 3ffe f1bc
00000030: b9d1 843a d8e8 e3bc 7de6 043e 1d58 7b3b
00000040: c42c 22bd ae7b 48bd 190e 263c 6b75 bdbb
00000050: 48fb 113d c0be 213d 035d f93d 2368 a3bc
00000060: ae0e 343c 0694 2f3c b88b bd3d a292 b4bc
00000070: 9987 0bbe 137b 463b c8a1 3dbb 387a 1cbe
0.012518032 0.02254231 0.008306763 0.008368896 -0.1144152 0.014295869 0.021168042 -0.026724461
0.08216038 0.0334747 0.036591 -0.02954018 0.0010133303 -0.02782099 0.1297855 0.003835208
-0.039593473 -0.048946075 0.010135197 -0.0057818196 0.03564003 0.039488554 0.12175944 -0.019947117
0.010989828 0.010716444 0.09255165 -0.022042576 -0.13625945 0.003028576 -0.002893554 -0.15280998

actor.init_leaf_node_embed.2.module.weight f4 [64, 32]
00000000: b55c 863e c266 b33e 76ca 123e b215 023e
00000010: 6ec0 4bbe b354 b33e 328d 983e ef1c 7dbe
00000020: c99a d13d 8cd6 283e 1467 8bbd fb15 bebd
00000030: d57a bbbe 86fa 15be 3b0b 063e 7188 2f3d
00000040: 890f a43e 41e4 2abe 3351 733e 56a8 9a3e
00000050: e2ee 2a3f 02ad 0cbf f80f 183f 5b13 ae3e
00000060: 634a 98bc 48b1 193c 2444 d83c 2279 063f
00000070: 5b21 f5bd 16de 323e 1cb4 4b3e 37a1 b7be
00000080: 2809 91be 7370 e1bd 17ea 96bc 976b 21be
00000090: 3ca6 bbbe 9e33 123e 847a 7bbe b784 883e
000000a0: a3ea 783e af7d 72be 27bd bd3d 2969 3dbe
000000b0: c651 c83d fb50 323d 2144 d23d 0398 a63d
000000c0: 7163 5f3e 63ae 423e fe7f 08bd 9d62 e4be
000000d0: b828 53be 5bdf c73e d703 2f3e 3dc2 5f3e
000000e0: 8933 f03d 8dfa 083e 1a75 ea3d 09f6 0b3d
000000f0: 2780 a53d 58da 9dbc 9d40 853e c8f0 30be
00000100: 09d1 57bd 60b7 963c 3506 373c 3e46 9ebe
00000110: 1428 ac3d de1f e6bd 9f00 f0bd cf4b cbbc
00000120: 0ee3 79be e367 d93e 01e6 0e3d 4fc1 023d
00000130: d308 91be ad21 563d 1fc9 193e d977 f33d
00000140: 418a 90be 9160 3abe 8ec1 273e 49b2 99bc
00000150: 17fa 51bd e780 dc3c 9222 ec3d 4cea 353e
00000160: da11 ab3e 348e 91bb db71 653e d3c3 d7bd
00000170: 63b9 23be 42c4 c13d f613 02bf 3626 c0bd
00000180: 142b 18be 230f c23c f26a bfbe 9bce e43e
00000190: eed9 aebe c51d 643e 7f83 23be ed40 f03d
000001a0: c94e 423d 0926 ae3d fc9b 203e 5249 433d
000001b0: 1df2 0f3f 3155 85be ca80 adbd cae7 b53a
000001c0: e908 2dbe b547 aa3e 4a22 ed3b f6ed 2a3d
000001d0: d5e4 bbbe 50dc f33a d78a d6bd 6923 c3bd
000001e0: fc59 783c 95c1 a9bc ca8d 7a3e 8163 293e
000001f0: 338f 493e 48a9 d0bd ef56 8fbd 18e7 4a3e
00000200: c603 a5be 2b9d 96be 13ea a9be 5100 0ebe
00000210: 52e0 58bd dbae 75be c75f 59be dcff 30be
00000220: bee9 25bf 8241 af3e 0698 a03d 4672 cabd
00000230: 75a3 d43e f19a c1bc 52ff 7cbe bf05 513e
00000240: 0a1c f53c 46d1 9dbd 7d4c 92be 0fa8 5ebe
00000250: b1c9 cb3d 1159 4c3e 7fac fa3d b5f6 27bd
00000260: b479 cdbd 4de7 23bc 3fde 21bd 3552 c1bd
00000270: 7f02 b4bd 89eb 0e3c 8f64 1bbd 9898 f4bd
00000280: 3ebd d1bd c071 253e fdd4 37be 8bc6 b7be
00000290: ff10 003e 9e11 f33d 3649 bd3d d44a fabd
000002a0: 4e3e 83be 4268 47be 2707 edb7 4593 063d
000002b0: d4df 0ebe 519f 6ebe 252e c83e 06e1 5ebe
000002c0: 9d07 6a3e 42e9 333d 96bf ae3d 1dd7 07bd
000002d0: 4f5b ae3d 0456 d9bc ae05 01be b422 85be
000002e0: 2dc0 68be da95 43bd 09cf 2b3d f750 923e
000002f0: f8f6 53bd 7719 57bc ff2a d3bd 7a7c 26bd
00000300: 0bc9 81be 63cc acbe b72f edbe 4315 50bd
00000310: 9ec6 21be 6edb 8abc 52d1 0f3c 560c 2cbd
00000320: 0b5d 2cbd 9d1b 15be e8d7 873d e33b 00be
00000330: bdbb ca3e 316b fe3d 6ad2 38be 8d01 36be
00000340: d5c4 23be d21a da3e 4528 03b9 b36c bbbd
00000350: c2c0 b43d cabb 2f3e 7087 1ebe 48d7 633c
00000360: 966d f03d 85cf 9a3e b056 50be cd40 aebd
00000370: 9dab 183e 9eea 253c fec8 8ebe ede3 7a3d
00000380: ab0d 2a3d 90b9 d03e 4d86 5abe 8aa2 59be
00000390: 75ee eebe 3a8a 01be ff0b 403e 6f71 8fbe
000003a0: b3bc 18be 708f 7f3d 9c03 393d c8a7 97be
000003b0: 5e24 893e eb09 a8be ee62 eebe 0e5b 01bd
000003c0: 689a 4cbe c86b 973d 5038 bebd ecab 35be
000003d0: 74d7 47bb 628a 113f 8c16 28bd f9e9 94be
000003e0: 1e0a 05bd 3665 0abd fd19 3ebe 329b 85be
000003f0: 4ac5 3f3e b245 c4be b79d 003e aa9b dfbd
0.26242605 0.35039335 0.14335045 0.12703589 -0.19897625 0.35025558 0.29795223 -0.24718069
0.10234601 0.16488093 -0.0680677 -0.09281536 -0.3661715 -0.14646348 0.13090222 0.04285473
0.32043102 -0.16688634 0.23761444 0.30206555 0.66770756 -0.5495149 0.59399366 0.33999142
-0.018590158 0.009380646 0.02639968 0.52528584 -0.11969253 0.17467532 0.19892925 -0.35865185
-0.28327298 -0.11007776 -0.01842217 -0.15763699 -0.36650264 0.14277503 -0.24558455 0.26663753
0.24308257 -0.23680757 0.092645936 -0.18497147 0.09781222 0.04353426 0.10266901 0.08134463
0.21815278 0.19011836 -0.033325188 -0.44606486 -0.20621002 0.39037594 0.17091309 0.2185144
0.117285796 0.13376828 0.114481166 0.034170184 0.08081084 -0.019269153 0.2602586 -0.17279351
-0.052689586 0.018397987 0.011170913 -0.30912966 0.08406082 -0.11236547 -0.117188685 -0.024816422
-0.2440302 0.42462072 0.034887318 0.031922635 -0.28327045 0.05227821 0.15018128 0.118880935
-0.2823048 -0.182009 0.16382429 -0.01876177 -0.051263895 0.026916934 0.11530031 0.17765158
0.33412057 -0.0044420008 0.22406714 -0.105353974 -0.15988688 0.09461261 -0.5081171 -0.09382288
-0.14860183 0.023688858 -0.3738628 0.44688877 -0.34150642 0.22276981 -0.1596813 0.117311336
0.047438417 0.085033484 0.15684503 0.047677346 0.5622881 -0.26041558 -0.0847183 0.0013878283
-0.1689793 0.33257833 0.0072367536 0.041730843 -0.36698022 0.0018605087 -0.104757 -0.09528238
0.015158173 -0.02072219 0.2446815 0.16541864 0.19683532 -0.10188538 -0.06999003 0.19814718
-0.3222944 -0.29416785 -0.33186397 -0.13867308 -0.052948304 -0.23992483 -0.21227942 -0.17285103
-0.6480979 0.34229666 0.07841496 -0.09885077 0.41530958 -0.023633452 -0.24706772 0.20412348
0.029920597 -0.07705931 -0.2857398 -0.21743797 0.09950579 0.19955851 0.12239932 -0.041006763
-0.10032979 -0.010003877 -0.03951859 -0.09439508 -0.087895386 0.008723148 -0.037937697 -0.119431674
-0.10241173 0.16156673 -0.17952342 -0.35893664 0.12506483 0.118685946 0.092424795 -0.122213036
-0.25633472 -0.19473365 -2.8255932e-05 0.03285529 -0.13952571 -0.23302962 0.39097705 -0.21765527
0.22854467 0.043923624 0.08532636 -0.033164132 0.085135095 -0.026530273 -0.12599823 -0.2600304
-0.22729559 -0.04775033 0.04194549 0.28577396 -0.0517492 -0.01312863 -0.10310935 -0.040646054
-0.25348696 -0.33749685 -0.46325466 -0.050801527 -0.15798423 -0.016950335 0.008777933 -0.042003952
-0.04208092 -0.14561315 0.06632978 -0.12522845 0.39596358 0.12422789 -0.18049017 -0.17774029
-0.15993054 0.42598587 -0.00012508135 -0.09151592 0.08825828 0.1716148 -0.15481353 0.0139063075
0.11739652 0.3023645 -0.20345569 -0.085084535 0.14909215 0.010126738 -0.2788772 0.061252523
0.04151694 0.40766573 -0.21340294 -0.2125341 -0.46666303 -0.12650385 0.18754576 -0.2801623
-0.14915733 0.062392652 0.045169458 -0.29620194 0.26785558 -0.32820067 -0.46559852 -0.031580977
-0.19980776 0.073936045 -0.092880845 -0.17741364 -0.003049341 0.5685178 -0.041037127 -0.29084757
-0.03248035 -0.03378793 -0.18564601 -0.26094967 0.18727604 -0.38334423 0.12560163 -0.109183624

actor.init_leaf_node_embed.2.add_bias._bias f4 [64, 1]
00000000: 71ad 833e 7abb 0f3e 72be 193d 1722 0e3b
00000010: 1ea9 47be 6729 e93c c65b 5cbe f42b 98be
00000020: 1cbb 2dbe ba37 29be 82b7 803e 9958 31be
00000030: 302c c93d 23c3 c3bd e754 e5bd f38b 8fbd
00000040: 92ac 173e 36cc 05be d560 9abe 1afa 90bc
00000050: 8e8a 693d 6eb8 c63d b85a 853c 84ec ad3d
00000060: d205 763e 07ef 87bd 420d 22bd d1fd 74bd
00000070: e18e 2bbe 8361 b53d ecf8 13be 77e3 ffbc
00000080: 01c6 b03d f1ca 92bd c0cf 32be 6d69 1b3e
00000090: 4bf2 6b3e 8571 aabc 5e9a 42bd 9581 0abe
000000a0: f914 8b3d 80b9 f5be fb46 4a3e 6893 543d
000000b0: b451 31be 7465 51bd d753 e1bd de25 19bd
000000c0: bd87 63be f7ad 693d 787a 67bd 6f1f 46bd
000000d0: 014e d33d e953 1dbe 5446 2dbe efbf f93d
000000e0: 4898 3fbc f7eb 82be e86b 593e 2827 98be
000000f0: d752 b53d c759 ecbd e362 883d dea2 e5ba
0.25718263 0.1403636 0.03753514 0.00216878 -0.19498107 0.028462125 -0.21519384 -0.29721034
-0.16965908 -0.16525164 0.25140005 -0.17318954 0.09822881 -0.09558704 -0.111978345 -0.07009115
0.14811924 -0.13066182 -0.30152002 -0.017697383 0.0570169 0.09703146 0.01627861 0.084923774
0.24025658 -0.06637388 -0.039563425 -0.05981237 -0.16753723 0.088564895 -0.14450425 -0.031236393
0.08631516 -0.07167614 -0.17462063 0.15176935 0.23041646 -0.020806083 -0.047510497 -0.13525994
0.067911096 -0.47993088 0.1975364 0.05189839 -0.17316324 -0.051122144 -0.11002319 -0.03738963
-0.22219749 0.05705067 -0.05651328 -0.04836982 0.103176124 -0.1536404 -0.1692136 0.121948116
-0.0116940215 -0.25570652 0.21232569 -0.29717374 0.08853691 -0.11540561 0.06659486 -0.0017519852

actor.init_next_embed.0.module.weight f4 [32, 6]
00000000: bd43 123e b261 17be d209 99be d86d cbbe
00000010: f421 ab3d 9674 99be c680 703c 51ff c7bd
00000020: 0851 3f3e 04f5 0fbe 796c 26be 53b4 4cbe
00000030: 7c76 ae3e 0d16 89be 7bfc 83be f758 423e
00000040: 8d23 d9be 62c5 d23e 3d4d 183e fffb 143d
00000050: 9595 07bd 5ab7 fa3e 4d48 e7be 8a7a d8be
00000060: 62f2 ea3d 5213 d8be 941b febd 7a6a 82be
00000070: dbd3 c8bd 1ad4 28be cc1a dfbb ccc5 13bf
00000080: bf29 913e 3468 32bf 0af6 e9bd 3cb4 3e3e
00000090: 0a4b 073f 8cc7 d23d 905a 913d cb98 25be
000000a0: 80a6 8bbe 254f 1ebc 97a3 b2bd c359 c93d
000000b0: b652 153e 530d 9d3d 4fbc a5be aa71 3d3e
000000c0: 88c5 b2be 7928 17bf 3854 7a3e 517e d03d
000000d0: c8fe b13f 5c76 55bf fa2a db3d 8da0 95be
000000e0: 02a6 3abe 3d91 663d 2199 aebe cf60 e3be
000000f0: 6a8a aabe 3678 3a3e 4412 843c 9e2f be3e
00000100: 7eef 7b3e 859b f3be fa90 153f a37c efbc
00000110: ec2d b1bc 8213 e83d 7c8f 6b3d 95dc 4c3d
00000120: 096f b9be 917e 06bd 6350 153e 9451 c6ba
00000130: da45 78be 6162 b8be 085b d33d 0aa8 153c
00000140: 5446 fe3d 1b18 edbb 74f7 2cbe 2a74 03be
00000150: 0959 803f 2d89 69be da14 83be 914b 15bf
00000160: 8734 d5be 8773 b43e 3c01 d13d 103a 82bd
00000170: 696d 98be d678 2bbe a016 10be 1dee 853e
00000180: ddcb 8ebe cc78 0bbd 7749 e6bd d93c 0fbe
00000190: 2e0a d7be 9295 b53d f7c9 123f 30f0 4ebd
000001a0: 52bc 493e 7e9f 8bbe fe9a 74bd 59ba ebbb
000001b0: fa91 7dbd 3d85 933e 1918 6a3e ad6e ce38
000001c0: 2627 7bbd ec19 833e 08de 3c3f 65fe 793e
000001d0: eba9 b7be 3808 17be cacc 013e b32e 0a3e
000001e0: e7a3 873e 5055 d63c 59e4 14bd a463 08be
000001f0: cfd6 83be 4a45 1e3e 774b f53d e210 58be
00000200: 23e0 37bf 811a 36be 2577 48bd 81cd 343e
00000210: a9d5 ef3d a445 17be a075 c7bd 4442 063e
00000220: 4025 b0be 64c6 5e3d e950 523f 0e27 88be
00000230: 3362 a93e 0b82 28bf aad8 063e ae7c 313f
00000240: 3541 c23f 5fdc cbbd 22d6 3abe 36bb 88be
00000250: 00a8 80bd 8224 953e 14d4 393e b767 923e
00000260: a8c0 83bd 4890 22be dc0a 24be 2a2e b9be
00000270: aa33 453c 93fe a3be 6c75 393e 65a7 17bd
00000280: 4f3c 53be c7bf e83b beda 02bf a3c9 c3be
00000290: 824f 41be 5672 7cbe 7996 353e b0d3 44be
000002a0: 1181 1e3f 6597 523e 0aec 9bbc 339a a7bf
000002b0: 3f5f 17bd 35e4 2c3e f059 043e ab43 6c3e
000002c0: cef5 afbe cc91 25bf c51f 45be 9605 913e
000002d0: a931 03be a4b2 84be ec67 973e 5531 1bbe
000002e0: 1de2 aabd af0c 983c 49fd 103e 89e3 67be
000002f0: 9db3 f0be 29c3 1bbf b8bc bcbc 26af bdbb
0.14283653 -0.14783362 -0.29890305 -0.39732242 0.083560854 -0.2997176 0.0146791395 -0.097654946
0.18683255 -0.1405831 -0.16252317 -0.19990663 0.3407477 -0.26774636 -0.25778565 0.1897925
-0.42409936 0.41166216 0.14873214 0.036373135 -0.033101637 0.4896801 -0.4517235 -0.4228099
0.11472012 -0.4220224 -0.12407604 -0.2547186 -0.09806033 -0.1648716 -0.0068086144 -0.5772369
0.28352162 -0.6969025 -0.11423881 0.18623441 0.52848876 0.10291967 0.070973516 -0.16171567
-0.27275467 -0.009662424 -0.087226085 0.09831574 0.14582333 0.07668557 -0.3237023 0.1850039
-0.3491633 -0.5904613 0.2444619 0.10180343 1.3905878 -0.8338373 0.107015565 -0.29224053
-0.1822739 0.056290854 -0.34101203 -0.44409797 -0.33308727 0.1820992 0.016121991 0.37145704
0.24603078 -0.4757959 0.5842434 -0.029234236 -0.021628343 0.11331846 0.057509884 0.05001505
-0.36217526 -0.032835547 0.14581446 -0.0015130513 -0.24245396 -0.36012557 0.10320097 0.009134302
0.12415758 -0.0072355396 -0.16891271 -0.12837282 1.0027171 -0.22806235 -0.25601846 -0.5831843
-0.41641638 0.3524439 0.102053136 -0.06358731 -0.29770973 -0.16745314 -0.14071131 0.2615823
-0.2788991 -0.034050748 -0.11244481 -0.13988055 -0.41999954 0.08866419 0.57339424 -0.05052203
0.19700745 -0.2727012 -0.059718125 -0.007193845 -0.061906792 0.2881259 0.22860755 9.8434604e-05
-0.06131663 0.25605714 0.7377629 0.2441345 -0.35871825 -0.14749229 0.12675777 0.13494377
0.26492235 0.026163727 -0.03635058 -0.1331926 -0.25749823 0.15456119 0.119772844 -0.2110019
-0.7182638 -0.17783548 -0.04894175 0.17656519 0.11710674 -0.1477266 -0.09739232 0.13111216
-0.3440342 0.05438842 0.8215471 -0.26592296 0.33082733 -0.6582343 0.13168588 0.6933087
1.517615 -0.09954142 -0.18245748 -0.2670533 -0.062820435 0.29129416 0.18147308 0.28594753
-0.06433231 -0.15875351 -0.16019768 -0.36168033 0.012036243 -0.32030162 0.18111199 -0.037024874
-0.20628475 0.0071029398 -0.51115024 -0.38239774 -0.18877986 -0.2465299 0.17733182 -0.19221377
0.6191569 0.20565565 -0.01903345 -1.3093933 -0.036956068 0.16883929 0.12924933 0.23072688
-0.34367222 -0.64675593 -0.192504 0.28324574 -0.12811913 -0.25917542 0.29571474 -0.15155537
-0.08343909 0.018560736 0.1415912 -0.22645392 -0.47012034 -0.60844666 -0.023039207 -0.0057887016

actor.init_next_embed.0.add_bias._bias f4 [32, 1]
00000000: 2cdf 113e 6d58 043d d0dc 6bbd ea75 3a3c
00000010: c1b2 fb3c 4700 2abe 20ee 0d3e 85d8 b9bd
00000020: 7a04 77be 7e5a adbc 124f 6fbe 27bb ad3e
00000030: ecbe 53bd e7e1 3c3e d7d0 b73e b864 b03e
00000040: 9953 56bd 2e40 54be d0dc 81be c9b7 a83e
00000050: ae56 eabd 8350 193e 55ba 75be 3219 5cbd
00000060: 39b7 cc3e 504e 243d 1a4c 6fbd 7767 79bd
00000070: e4d5 3a3d bc72 163e 27ce 203c 3e75 d63d
0.1424529 0.032310892 -0.05758363 0.011380652 0.030724885 -0.16601668 0.13860369 -0.09074501
-0.24122801 -0.021161314 -0.23370007 0.33931848 -0.05169575 0.1844555 0.3590152 0.34451842
-0.05232582 -0.20727608 -0.2536378 0.32952717 -0.11442314 0.14972119 -0.23996861 -0.053734966
0.39983538 0.040113747 -0.058422185 -0.060889687 0.04561414 0.14692205 0.009814776 0.10471581

actor.init_next_embed.2.module.weight f4 [64, 32]
00000000: 15c0 b73d 7b0a d4bd b16c a93b f656 273e
00000010: a9cc 113e 196f ae3d d881 7dbe de67 6fbe
00000020: ce0e 7cbe 1563 9d3e a6e3 af3d 844e 19bf
00000030: 4702 b33d 1359 7f3e 22cf 5fbe 059d febe
00000040: 401a 23be 11ab 7d3d 3a75 c8bc 0d1e d9be
00000050: a3d0 743d 0d5a b7bd bfa0 f2be 68b1 05bf
00000060: 16e2 3ebf 1699 b23e 2b57 2bbe bf48 d0bd
00000070: bdaa 2a3e ffe7 3fbe c423 043e a98c 5cbe
00000080: 5711 853e b1d8 6cbd 81ea 19be 9d51 ccbd
00000090: 1745 c1bd 7906 25be b5fc f8bd 4d22 4ebc
000000a0: da96 b23e 7d6b fb3c bd50 f73e 7fc2 cf3e
000000b0: f23a f9bc de19 113c acbc 97be 4e40 923d
000000c0: d3a4 2a3e 1249 753c 2f46 bbbd e4fb 1b3f
000000d0: 2e72 273e 1e3d 763c 5209 6b3d 9fc3 02be
000000e0: d4e5 3ebe 43fc 613e ada7 c4ba 10f3 a8be
000000f0: 07a1 f8bd 75d9 4fbd e61b 4ebe 0bec 48bc
00000100: b2d7 97bd 376b 093d 01c6 5e3e 7891 2abe
00000110: 600e 6e38 c059 553e f531 65be a956 b7be
00000120: 537f 7bbe 79cc 11be 468e 2d3d 1fe2 3e3e
00000130: a36e b13d 75d8 33be 1215 09bf 8728 dd3d
00000140: fda0 74be bbf6 833d 17e1 303e 974e 913d
00000150: e3e0 acbd ea88 9dbd c39d 62bd 94cf 3a3e
00000160: c385 c5be 2e58 d33d 9fc7 51be ca2d 33be
00000170: 3a77 17bf 6ecc d4be 68df bfbe 8ba7 36be
00000180: cbf1 eb3c 0617 1d3e 66f6 973e baf5 a4bd
00000190: f887 9ebe d97f cb3c 2cec 3cbe 6327 053e
000001a0: b3ba 073c 9440 743e de09 adbe c1cb 153e
000001b0: d193 e33d dd20 883e 28e5 71be a08a 8ebe
000001c0: f914 24be 0028 503e 62a2 063d cf67 cfbe
000001d0: 9291 74bc 16ab fe3d d93c 2b3e ff36 163f
000001e0: 2735 dbbe 4086 dcbe 5c83 bdbd 6ef2 a2be
000001f0: 4087 e7be b408 68be 9045 e43c c454 87be
00000200: f9ab 21be 5088 c6be 1468 bcbd c990 833e
00000210: c86e f73d c9b3 2bbe c181 09be ddeb aabd
00000220: 73ad 843e 629e f5bd ce6a 7ebe d78f 69be
00000230: 663d dabc ad7d 253c 6184 c93d 7c94 30be
00000240: d4c1 2d3e 1c7f 1f3e 2930 14be 29b5 bebe
00000250: e7f2 2dbe 7a7c a23d 406e 1c3e 7099 293e
00000260: ed12 1ebc 6355 bcbd 82e5 e23e d927 593e
00000270: 271e 5abe 0b5c 7fbd 2f5f 4cbe 718f c1bc
00000280: fb90 c5bd 09ec b4bb b95e 6ebd 6d86 edbd
00000290: fa38 b03e d73c 593e 4886 ef3c 6352 103e
000002a0: 9bf2 89bd 852d 5f3e e43e 1e3d 9a73 f93e
000002b0: ee57 323d 85bf ad3e 2961 9b3d 48c6 d13e
000002c0: 6670 f7bc b972 a63e d1ee de3d f659 123f
000002d0: f53d 373d 60df 12bd ec54 863e 8422 04be
000002e0: bdca cf3e 576f 9fbd 71bf 943d 2313 b03e
000002f0: ff9f 0ebe f4ae 40be 4ef4 2c3e a2fa d7bd
00000300: c0e1 82bc 8a4c 173e 6e46 c3bc 2d3c 443e
00000310: 7498 8cbd 9854 db3c 0129 3ebe 8774 a6be
00000320: 9145 5c3e 889a 693e 0554 913d 08af 233d
00000330: 7741 fb3c 7734 213d 3353 47be 6fa9 39be
00000340: 5558 8cbc 4077 2f3e d843 55be 7cf6 3cbe
00000350: c7f5 513e f860 92be 31f4 2b3e 1c4b b73c
00000360: 5af4 abbe 1cec 983d 48ae 183d d503 5dbe
00000370: fc50 7fbe 3605 3ebe 903c af3e 3b21 9cbe
00000380: ee1b b4bd 028d ef3c 7f3f c53c 71e7 013d
00000390: 18e8 6a3e e53e 98be 45ee 03be b7e8 44be
000003a0: 772f 1d3e 33d4 c2bc b2f7 b63e ce37 233e
000003b0: e26c d83d 83d9 d53e c958 913e 7962 d93e
000003c0: 7d15 9d3d 9a67 b43e 5a45 573e 2518 583d
000003d0: 8432 a9be c944 87bd 6cbf 27be 1f5b 7e3e
000003e0: 3d32 983e 2308 d33c 5a02 b73d 4780 b2bd
000003f0: 70b1 723d fe5b 5a3e 6596 e33b a0be a33e
0.089721836 -0.103535615 0.0051704277 0.16341767 0.14238228 0.08517284 -0.24756563 -0.23379466
-0.24615023 0.30739656 0.08588342 -0.5988543 0.08740669 0.24936323 -0.21856359 -0.4972917
-0.15927982 0.06193072 -0.02446996 -0.4240574 0.059769284 -0.08952723 -0.47388265 -0.52223825
-0.7456373 0.3488242 -0.1673247 -0.10170125 0.16666694 -0.18740843 0.12904269 -0.21538033
0.25989792 -0.05782384 -0.15030862 -0.09976504 -0.09437006 -0.1611575 -0.12157575 -0.01258142
0.34880716 0.030690903 0.48303786 0.40578076 -0.030423615 0.008856265 -0.29636133 0.071411714
0.16664438 0.014971035 -0.09144246 0.6093123 0.1635215 0.01502922 0.057381935 -0.12769936
-0.1864236 0.22068886 -0.0015003585 -0.32997942 -0.121400885 -0.050744493 -0.2012783 -0.012263308
-0.074141875 0.033549514 0.2175522 -0.16657054 5.675701e-05 0.20835018 -0.22382338 -0.35808304
-0.24560289 -0.14238156 0.04237201 0.18640946 0.086636804 -0.1756304 -0.53547776 0.107987456
-0.23889537 0.064435445 0.17273365 0.07095068 -0.08441331 -0.0769213 -0.055326235 0.18243247
-0.38578615 0.10319553 -0.20486306 -0.17497936 -0.591663 -0.41562217 -0.37475133 -0.1783735
0.02880182 0.15340814 0.29680175 -0.08054681 -0.3096311 0.024841236 -0.18449467 0.13003306
0.008284259 0.2385276 -0.3379659 0.14628507 0.11112178 0.26587573 -0.23622572 -0.27840137
-0.16023625 0.20327759 0.032869704 -0.40508887 -0.014927285 0.12434976 0.1672243 0.5867767
-0.4281399 -0.43071175 -0.092535704 -0.31825584 -0.45220375 -0.2265957 0.027865201 -0.2643186
-0.15788259 -0.38775873 -0.09199539 0.256964 0.12081677 -0.16767801 -0.13428403 -0.083457686
0.2591358 -0.119931 -0.2484543 -0.22808777 -0.026640605 0.010100764 0.098397024 -0.17244142
0.16968471 0.15575832 -0.14471497 -0.3724759 -0.16987191 0.07933898 0.15276432 0.16562438
-0.009648067 -0.09195974 0.44315726 0.21206607 -0.21300565 -0.06234364 -0.19958185 -0.023627969
-0.096467935 -0.0055213016 -0.058195803 -0.11597905 0.3441847 0.21214615 0.029238835 0.14093928
-0.067357264 0.21794708 0.038634196 0.4872101 0.043540888 0.3393518 0.07586891 0.4097159
-0.030204963 0.325094 0.10885394 0.5716852 0.04473682 -0.03585756 0.26236665 -0.12903792
0.40584365 -0.07784908 0.07263077 0.343896 -0.13928221 -0.1881674 0.1689007 -0.10545851
-0.015976787 0.14775291 -0.023837294 0.1916358 -0.068650156 0.026773736 -0.18570329 -0.32510778
0.21510912 0.22812855 0.070961036 0.039961845 0.030670865 0.039356675 -0.19465332 -0.1813104
-0.017131964 0.17135334 -0.20826662 -0.18453401 0.20503913 -0.28589606 0.1679237 0.022374682
-0.33584863 0.07466909 0.037275583 -0.21583493 -0.24933237 -0.18556675 0.34225893 -0.30494103
-0.0879439 0.029242042 0.024078129 0.03171486 0.22940099 -0.29735485 -0.12883861 -0.19229399
0.15350138 -0.023782825 0.35735852 0.15939257 0.10567643 0.4176751 0.2838805 0.4245794
0.07670114 0.35235292 0.2102255 0.0527574 -0.33046353 -0.066049166 -0.16381615 0.24839447
0.2972583 0.025760716 0.089359954 -0.08715873 0.05925125 0.21324155 0.0069454187 0.31981373

actor.init_next_embed.2.add_bias._bias f4 [64, 1]
00000000: 75ed 7fbf d848 aabe bb79 e0be 4627 cdbe
00000010: 5807 b1be 8455 303f 2301 0cbf 3088 083e
00000020: ca26 973f 7910 0dbf 7c61 03bf 9780 5c38
00000030: f1d7 3e3f 348d 96bf f495 52bf eb5c 61bf
00000040: 6244 10bf f9b0 3b3f d7b5 2cbd 63ae 95be
00000050: c9aa 0dbd 951e 08bf e962 4bbf a3f2 9c3e
00000060: 914d f1bf 5a54 bbbe 69af 2abf e60f 59bf
00000070: 4393 f43e 3ea2 3f3e 75ac 62bf 9839 21bf
00000080: fc03 eebd 8be7 123f bc9b f4be 0186 01bf
00000090: c9aa a23f 6c47 bb3e 8ae0 a4be 8a9f a93e
000000a0: f73f bdbf 218a 863f 9d50 03bf 9d61 e2bf
000000b0: b6dc 8e3e 11d7 753f b4e4 5f3f 0da7 313f
000000c0: e0f3 91be d846 023b 59ab 1e3f 52c4 673f
000000d0: ea0b 0b3e d3b9 babe 5a48 c23e 8060 06bf
000000e0: 7128 c5be b8b0 623f 8c1d 1bbf 58fa 1fbd
000000f0: 9268 5f3f 24b1 3d3e f150 1ebe 39c0 b13e
-0.99971706 -0.332587 -0.43842873 -0.40069026 -0.34575915 0.68880486 -0.54689234 0.13333201
1.1808712 -0.5510326 -0.51320624 5.2571846e-05 0.7454825 -1.1761842 -0.8226006 -0.88032407
-0.56354344 0.73316914 -0.042165603 -0.2923461 -0.0345867 -0.53171664 -0.794478 0.30653867
-1.8851796 -0.36587793 -0.66673905 -0.84789884 0.47768602 0.18714234 -0.885444 -0.62978506
-0.11621854 0.57384557 -0.47775066 -0.505951 1.270837 0.36577928 -0.3220256 0.3312953
-1.4785146 1.0510904 -0.5129488 -1.7686039 0.27902764 0.9603129 0.8745835 0.69395524
-0.28506374 0.0019878652 0.61980206 0.90533936 0.13578764 -0.36469898 0.37945825 -0.52491
-0.38507417 0.885509 -0.6059196 -0.039057106 0.87268937 0.18524605 -0.15460564 0.34716967

actor.embedder.layers.0.0.module.W_query.weight f4 [64, 64]
00000000: 5483 873d 3beb 99bd 7e65 063e 1c5e 0dbe
00000010: 3114 88bb f054 9abd f781 dbbd 463d 82bd
00000020: 4c5b 053e edf0 bdbd 7cdc cc3d aa71 3dbb
00000030: f336 c13c 4765 683d ddcc b43b e3bc 1f3b
00000040: 0074 4f3d 113d 9a3c 928b 8cbc 454e 9b3d
00000050: fb33 543d 87dc a3bd 2dad 033e cf24 433e
00000060: 4cd3 0bbe a143 1b3e 17c8 3c3d fc75 cabc
00000070: 1806 c73b 4e43 1f3e 687a a3bc e9c4 483d
00000080: e899 ef3d 6667 3dbd 0416 31be c99e b23d
00000090: 1788 3bbc 6b30 093e 762b b43d 26e6 b4bd
000000a0: cf56 bc3d 1eba 1bba 1d39 3cbd ddbe 163e
000000b0: 572a aabd 7805 0cbe 0d98 1e3e a1f9 a0bd
000000c0: 3d28 9abd 09db fdbc e95c b7bc 5f6c a5bd
000000d0: 2f60 82bd 2a95 7b3d 493b 1f3c 7c63 a9bc
000000e0: e2df 913d dcfd 06be a308 383e 0104 73bd
000000f0: b0fa c6bc dc36 6abd 3c05 33bd 13eb 52bd
00000100: b170 81be d91c 27be b797 ecbd ed9a dcbd
00000110: bdfa a6bc 9560 e6bd d855 c23d 7eb5 1d3e
00000120: d747 443e bbb4 073d 962d 22be e4cc d8bc
00000130: 2b4b 143e c9af 39bc 6337 36bc a221 9bbd
00000140: 0d07 a2bd 2cc9 d63d 6134 633d f6d5 613e
00000150: 90ec 703d e52a e9bd 6bf5 89bd 3e10 16be
00000160: d956 27be 49e4 67bd 21c1 2a3e 05ef 373b
00000170: 7690 163e ff29 84bd ee45 223e 9439 8cbb
00000180: ba7b babd c5c6 aebd d183 503c 29a4 09bd
00000190: 729e c2bd 19a2 30be 4878 02be 9608 a9bd
000001a0: ba57 19be d148 583e a53b 38be 4ba2 8f3c
000001b0: 2b64 423e cfe1 a2bd 4d8d c13b 6e07 2a3e
000001c0: 78d2 773d 1e5e babd 127c 78bc 6d66 31be
000001d0: afd6 10be 1db3 d13d e7ab 51bd 066c 2cbe
000001e0: 6abd 34be 5b7a 8c3e 5e03 3abe a2aa 8e3e
000001f0: 7d11 89bd 005d ad3d ac2c 0cbe 0b6e d23d
00000200: 2d54 45be a885 573d 491c 323d 0f6b 643d
00000210: b9fd 1b3e 8adc 24bc 4ec7 85bd 0a93 043e
00000220: 8eb3 ccbc ac33 3b3d 5a52 01bd 7a59 8dbc
00000230: 025d b03d d874 cd3d ae7f 643d 9269 1f3e
00000240: 29a0 823c 8360 df3d dd5b eb3d 5cca be3d
00000250: ff3b 003d 690c 253d 5a85 d9bd 0579 cdbd
00000260: febf 73bd eb69 70bd b18b 8c3d 9cc8 45bd
00000270: 93f6 033c 110c 2fbc 81fb dbbb 3459 fd3b
00000280: 5e06 0fbd ca79 61bd a832 633c 897b bf3a
00000290: 4da2 983d deb7 e4bb 8db6 6a3c 910a 783d
000002a0: bcfb 613d 34d7 683d e6eb 9a3c db39 a53c
000002b0: 24fb 243d c666 cdbd 2fb4 003e 6f10 073e
000002c0: 9cdf c6bc 74e6 24bd 6230 3c3d ac44 2f3d
000002d0: c559 84bd 6fe2 193d c0ec ae3b fdfe 243d
000002e0: cfd9 763c 8353 f63d 5a4e 4cbd 73cf d23c
000002f0: cdfd 19be 240e 1bbc 3d8e e7bd a862 19bd
00000300: a7b3 2ebd c893 123d d64b 6b3b 2789 c53d
00000310: 5523 073e b0fe f93d 843c cb3c 10ed c6bd
00000320: 4805 8fbc ae37 01bc 769b 13bd 0be0 81bd
00000330: 823c 18be c568 083c cdce 7c3d 43ac 373d
00000340: 3035 cdbc cd21 183a 486c 2e3d 71dc 863d
00000350: 3085 26be 743c 833d 01ab 533d 0a10 d4bc
00000360: 33e2 973c a0c8 953d 6cd7 09bd 9047 ee3d
00000370: 625d 9e3d 0e82 19bd d2af b13d e7f3 42bd
00000380: c050 063b 594a 62bd e22e 9abc 827e 2f3e
00000390: 3bf9 cfbd 7f32 923c 13a6 723d f642 873c
000003a0: 87c5 97bd 563d 323d 599d 283e b539 2d3c
000003b0: e17d a53d ac5c f4bd 5b54 d03d 82fd a6bd
000003c0: 6e19 93bd 5ed8 9b3d 3059 b03d 4ddb 85bd
000003d0: f52d 093e 32ce 7b3d e232 ab3d 9a3c ca3c
000003e0: c997 3c3e 426f dabd 3b31 cabc ccca e8bc
000003f0: 2e9b 08be 1242 0fbe a3d8 f13c 9743 00be
0.06616846 -0.0751557 0.13124654 -0.13805431 -0.0041527976 -0.07535732 -0.10718148 -0.06359343
0.13023108 -0.092744686 0.100029916 -0.002890686 0.023585772 0.05673721 0.0055175857 0.002437406
0.050647736 0.018827947 -0.017156396 0.07583288 0.051807385 -0.08001047 0.1285903 0.1905701
-0.13654822 0.15162517 0.046089258 -0.024714462 0.0060737245 0.15553018 -0.019955829 0.049015913
0.11699277 -0.046241187 -0.17293555 0.08721692 -0.011446021 0.13397376 0.08797352 -0.0883296
0.09196245 -0.00059405144 -0.045952905 0.14721246 -0.08308857 -0.13673961 0.1548769 -0.07860113
-0.07527206 -0.030988233 -0.02238317 -0.08077311 -0.06366002 0.06142155 0.0097187245 -0.02067732
0.071227804 -0.13182777 0.17972045 -0.05932999 -0.024289459 -0.057181224 -0.043706164 -0.051493715
-0.2528129 -0.16319598 -0.11552375 -0.10771737 -0.020383233 -0.1124889 0.0948903 0.15401265
0.1916803 0.033131342 -0.15837702 -0.026464887 0.144818 -0.011333414 -0.011121604 -0.07574774
-0.07911501 0.10487589 0.055469874 0.22054276 0.058819354 -0.113851346 -0.06736263 -0.14654633
-0.16341724 -0.056614194 0.16675235 0.002806605 0.14703545 -0.064533226 0.15846989 -0.004279325
-0.0910563 -0.08534006 0.01272674 -0.03360382 -0.09502877 -0.17249335 -0.12741196 -0.08253591
-0.14974871 0.21121527 -0.17991503 0.017533442 0.18983524 -0.07953226 0.005906737 0.16604397
0.060503453 -0.09099983 -0.015166299 -0.17324229 -0.14144395 0.10239241 -0.05118933 -0.16838083
-0.1765038 0.274371 -0.18165347 0.27864558 -0.06692789 0.08465004 -0.13688916 0.10274895
-0.19270392 0.0526177 0.043484006 0.05576616 0.15233506 -0.010062346 -0.06532155 0.12946716
-0.024987962 0.045703575 -0.031572677 -0.01725458 0.0861149 0.10032052 0.055785827 0.15567616
0.015945511 0.1090708 0.11492131 0.09315941 0.031307217 0.04029504 -0.10621138 -0.10032848
-0.05950927 -0.05869476 0.068625815 -0.04828702 0.008054393 -0.010684029 -0.006713331 0.007731581
-0.03491818 -0.055047788 0.013867058 0.001460896 0.074528314 -0.0069799265 0.01432575 0.060556952
0.055171713 0.05684586 0.018911313 0.02016919 0.04027857 -0.10029368 0.12568735 0.13189863
-0.024276547 -0.04025884 0.04594458 0.0427901 -0.06462435 0.03756946 0.0053382814 0.04028224
0.015066578 0.12027647 -0.04987941 0.025733685 -0.15038224 -0.009463821 -0.11306427 -0.0374476
-0.0426518 0.035785466 0.0035903356 0.096453 0.13197072 0.12206781 0.02480913 -0.09713185
-0.017458573 -0.00788681 -0.03603693 -0.06341561 -0.14866832 0.00832576 0.061720658 0.044842016
-0.025049776 0.00058033766 0.042583734 0.065850146 -0.16261744 0.06408015 0.051676754 -0.025886554
0.018540477 0.07313657 -0.033652708 0.11634743 0.07732655 -0.037477545 0.08676113 -0.047595885
0.0020494908 -0.055246685 -0.018821184 0.17138103 -0.10154959 0.017846344 0.059240412 0.016511422
-0.07410722 0.043515526 0.16466273 0.01057284 0.0808065 -0.11931738 0.101723395 -0.081538215
-0.07182585 0.07609628 0.08610761 -0.06535969 0.13396437 0.06147594 0.083593145 0.0246871
0.18417276 -0.10665752 -0.024681678 -0.028417014 -0.13340446 -0.13990048 0.029522246 -0.12525783
