logs/experiment/Discrete_A2C_1-5Box_10x10x10Bin-2022.08.09-15-00-00/PCT-Discrete_A2C_1-5Box_10x10x10Bin-2022.08.09-15-00-00_2022.08.09-19-54-51.pt (torch, 236314 bytes, 24 tensors)

actor.init_internal_node_embed.0.module.weight f4 [32, 6]
0	0xbf0215df	-0.5081462
1	0x3cb2128a	0.021737356
2	0xbf212c63	-0.62958354
3	0x3d30accd	0.043133546
4	0xbe472e0b	-0.19451158
5	0x3c386cfd	0.011256454
6	0xbd85715a	-0.06515761
7	0x3e1fc353	0.15601854
8	0xbeb2edbf	-0.3494701
9	0xbe810a9c	-0.25203407
10	0xbeb4d043	-0.3531514
11	0xbed4f371	-0.4159198
12	0xbdcf5a73	-0.10124674
13	0x3d84105f	0.06448435
14	0x3e4de932	0.20108488
15	0x3e77250f	0.2413523
16	0x3dd331f1	0.1031226
17	0xbf2e3c6d	-0.6806095
18	0x3ea8d53c	0.32975185
19	0xbe6058a3	-0.21908812
20	0x3e960f81	0.29308704
21	0xbf062dc8	-0.52413607
22	0xbdc29eea	-0.09502967
23	0x3f20fd54	0.6288655
24	0xbda9318a	-0.08261402
25	0xbebd04c4	-0.36917698
26	0x3e30a06f	0.172487
27	0x3d981675	0.07426158
28	0x3e8d73ff	0.2762756
29	0x3f516433	0.81793517
30	0xbceb7b57	-0.028745336
31	0x3d85a8c2	0.065263286
32	0x3e6ce3a1	0.23133709
33	0x3c84da93	0.016217506
34	0xbd8fa00e	-0.0701295
35	0xbe75cc3b	-0.24003689
36	0x3f9a1769	1.2038394
37	0xbebfabf7	-0.37435886
38	0xbf53eb65	-0.8278106
39	0xbfac5f01	-1.3466493
40	0x3f1cf41a	0.6130997
41	0x3f3711c8	0.7151151
42	0xbeb60c28	-0.3555615
43	0xbeb0f2b7	-0.34560177
44	0x3d554431	0.052066986
45	0xbe608879	-0.2192706
46	0x3e91b58c	0.28458822
47	0x3f16c8ce	0.58900154
48	0xbdec403f	-0.115356915
49	0x3ed92439	0.42410448
50	0x3f1be1f6	0.60891664
51	0xbe46b6cc	-0.19405669
52	0xbe81e434	-0.25369418
53	0x3ea70965	0.32624355
54	0x3ece8ab1	0.40340188
55	0xbd85b127	-0.0652793
56	0x3f0631b4	0.5241959
57	0xbd929932	-0.07158126
58	0xbd8117a1	-0.06303335
59	0xbd0423e2	-0.032260783
60	0xbee4aaa6	-0.44661444
61	0xbe9e64aa	-0.30936176
62	0xbea4772d	-0.32122174
63	0x3efb86aa	0.49126178
64	0x3e8f9380	0.2804222
65	0xbe936935	-0.28791204
66	0xbde6c3f3	-0.11267843
67	0x3f269300	0.65068054
68	0xbeea82cc	-0.45802915
69	0x3e13072f	0.14358209
70	0xbf25c35a	-0.6475121
71	0x3ee9f512	0.45694786
72	0x3eb1c90c	0.347237
73	0xbf108158	-0.5644736
74	0xbe777352	-0.24165085
75	0x3e6251c6	0.22101507
76	0xbe925915	-0.2858359
77	0x3e2a92f3	0.16657619
78	0x3e3759cf	0.17905353
79	0x3e68049b	0.22658007
80	0xbd8a02d6	-0.06738822
81	0xbe90a2ea	-0.28249294
82	0xbccce9e2	-0.025013868
83	0xbe18cd42	-0.1492205
84	0x3e85eb95	0.26156297
85	0xbba1392e	-0.0049201464
86	0xba26217b	-0.00063373864
87	0xbe18d6e9	-0.14925732
88	0xbbb3beaa	-0.0054853754
89	0x3d10ff43	0.035399687
90	0x3eb2bb3f	0.34908482
91	0xbdec4d99	-0.11538238
92	0x3ea372e8	0.31923604
93	0xbe7b8428	-0.24562132
94	0xbe4e21e0	-0.2013011
95	0x3e80f95b	0.25190243
96	0xbf0081b4	-0.5019791
97	0xbf0917a7	-0.53551716
98	0xbeba5658	-0.36394
99	0xbec7599f	-0.38935563
100	0xbe038839	-0.12844934
101	0xbe8f6fa3	-0.2801486
102	0x3c44cff8	0.012012474
103	0x3e1f4b4f	0.15556072
104	0x3ea5338e	0.32265896
105	0xbda0f2b6	-0.078587934
106	0xbcae4c60	-0.021276653
107	0xbbe136d6	-0.006872992
108	0xbdbec607	-0.093151145
109	0xbf2d2c32	-0.6764556
110	0xbf277c76	-0.6542429
111	0xbd8f1903	-0.069871925
112	0xbe30ef9e	-0.17278907
113	0xbe2a6ee2	-0.16643861
114	0x3e6db0ca	0.23211971
115	0xbdbbf754	-0.091780335
116	0xbf4a2d24	-0.7897513
117	0xbd874072	-0.06604089
118	0xbda4e027	-0.08050566
119	0x3ec79ccf	0.38986823
120	0x3c965b10	0.018353969
121	0xbe639be1	-0.22227432
122	0xbc075567	-0.008260108
123	0xbed4ae0f	-0.41539046
124	0xbf2c9aee	-0.67423904
125	0x3dea8c18	0.11452502
126	0xbd9ca97f	-0.07649516
127	0xbecc657e	-0.39921182
128	0xbf24b48e	-0.64338005
129	0x3d91b98e	0.0711547
130	0x3e9632af	0.29335544
131	0x3f1d56da	0.6146065
132	0xbeb12684	-0.34599698
133	0x3c640c9e	0.013919024
134	0xbf4a69f8	-0.79067945
135	0x3e9fbb67	0.31197664
136	0x3effd194	0.49964583
137	0x3c820fe8	0.015876725
138	0x3dd31d55	0.10308329
139	0xbd615ed2	-0.05502207
140	0xbede0d01	-0.43369296
141	0xbe258e00	-0.1616745
142	0xbed84a38	-0.42244124
143	0xbf0ee427	-0.5581688
144	0x3e262410	0.16224694
145	0xbe1de0ff	-0.1541786
146	0x3f3dd5d4	0.741544
147	0xbc5a3ad2	-0.013319688
148	0x3e09aafe	0.13444135
149	0xbdd65aec	-0.10466561
150	0x3da88d5b	0.082300864
151	0xbe8642c3	-0.2622281
152	0xbf0b833e	-0.54497135
153	0x3e59d980	0.21274376
154	0x3ec8a73c	0.3919009
155	0xbe09edc6	-0.1346961
156	0x3f16000e	0.58593833
157	0x3d2acb18	0.04169759
158	0x3e48cc87	0.19609271
159	0x3e45a019	0.19299354
160	0xbe2d44fb	-0.16920845
161	0xbe61d914	-0.22055465
162	0x3eb38ecd	0.35069886
163	0x3d079dc9	0.03310946
164	0xbe769d5b	-0.24083464
165	0x3ee69bb3	0.45040664
166	0x3d9f9bc5	0.077933826
167	0xbdde4f48	-0.108549654
168	0xbdd66dc3	-0.10470154
169	0xbe6c72a6	-0.2309061
170	0x3e08b7a8	0.1335131
171	0x3f0a08bc	0.5391958
172	0x3f017d4c	0.5058181
173	0xbf515c5f	-0.8178157
174	0x3e7b60d9	0.24548663
175	0xbe5f7654	-0.21822482
176	0xbecb45f9	-0.39701822
177	0xbd95e119	-0.073183246
178	0x3d8e3270	0.06943214
179	0xbc199920	-0.009374887
180	0xbea99df3	-0.33128318
181	0xbecb471a	-0.39702684
182	0x3fab7482	1.339493
183	0xbdbf34aa	-0.09336217
184	0xbe6c12f0	-0.23054099
185	0x3dc0c6a8	0.09412891
186	0x3e67595e	0.22592685
187	0x3da18724	0.07887104
188	0xbdaa89de	-0.08327077
189	0x3d83c5f2	0.064342394
190	0xbe22468b	-0.15847223
191	0xbde6b9a7	-0.11265879

actor.init_internal_node_embed.0.add_bias._bias f4 [32, 1]
0	0x3c686585	0.01418436
1	0xbe8f8473	-0.28030738
2	0xbbb79e20	-0.0056035668
3	0xbcb1e204	-0.021714218
4	0x3e15c0d9	0.14624347
5	0x3d1e0d3c	0.03858684
6	0x3bc65013	0.006052026
7	0xbc0937e1	-0.008375139
8	0x3d356f95	0.044295866
9	0x3dd7afd7	0.10531586
10	0x3bd3b72d	0.0064610452
11	0x3c86c5f4	0.016451813
12	0xbb121014	-0.0022287415
13	0x398d9b21	0.00027009196
14	0xbc588fde	-0.013217894
15	0x3cefb452	0.029260788
16	0xbe95cd14	-0.29258025
17	0xbd758169	-0.05993787
18	0x3d04f8cb	0.03246383
19	0x3ad801a5	0.0016479982
20	0xbe7ec9ff	-0.24881743
21	0x3d6ace01	0.057325367
22	0x3d4dc133	0.050233077
23	0x3df27709	0.118391104
24	0x3d0b20c5	0.0339668
25	0x3b592afa	0.0033137188
26	0x3be4dba4	0.006984191
27	0x3d904805	0.07044987
28	0x3cdbf002	0.026847843
29	0xbd4328b2	-0.047646232
30	0x3d904bb6	0.07045691
31	0xbd8eba02	-0.06969072

actor.init_internal_node_embed.2.module.weight f4 [64, 32]
0	0x3ddc8d8c	0.107691854
1	0x3e31d8ef	0.1736791
2	0xbdff31ef	-0.12460696
3	0x3e0a4cc7	0.1350585
4	0xbc020f0a	-0.007938156
5	0x3e00e093	0.12585668
6	0x3e09c6a7	0.13454686
7	0x3f042b5d	0.5162867
8	0x3e74f539	0.2392167
9	0xbdf9c55b	-0.12195846
10	0x3f4fa203	0.81106585
11	0x3e1754e3	0.14778475
12	0x3d3d0d9e	0.046155564
13	0xbe438af9	-0.19095983
14	0xbf314640	-0.6924782
15	0x3e95825d	0.29201022
16	0xbcaacf16	-0.0208507
17	0x3e51eba4	0.20500046
18	0x3d18965f	0.03725278
19	0x3e64a4c1	0.22328474
20	0xbe657470	-0.22407699
21	0x3e35e1a5	0.17761858
22	0x3f8d0a96	1.1018856
23	0xbc506373	-0.012719023
24	0x3f104830	0.5636015
25	0x3e528af2	0.20560816
26	0x3e29cfad	0.16583128
27	0x3e978206	0.29591388
28	0x3df60035	0.12011758
29	0xbbb4c917	-0.005517136
30	0xbe548751	-0.20754744
31	0x3cad9bd6	0.021192472
32	0x3eab8c4d	0.33505479
33	0x3db2ab32	0.08724059
34	0xbf05bee4	-0.522444
35	0xbf033e84	-0.51267266
36	0xbd4302ae	-0.047609977
37	0x3e8b4e52	0.2720819
38	0x3d6c0939	0.057625983
39	0xbebcddcd	-0.3688797
40	0xbe805170	-0.25062132
41	0x3e3e5011	0.1858523
42	0x3eef8334	0.46779788
43	0x3e0992f1	0.1343496
44	0x3ebbfc87	0.367161
45	0x3d227fbd	0.039672602
46	0xbd61be77	-0.055113282
47	0x3e7426d7	0.23842941
48	0xbd66a020	-0.05630505
49	0xbd933ac4	-0.07188943
50	0xbded132a	-0.11575921
51	0xbe26682c	-0.16250676
52	0x3d220ac4	0.03956105
53	0x3ea563c0	0.32302666
54	0x3f72130c	0.94560313
55	0x3eb1838c	0.34670675
56	0xbe4b6fb9	-0.19866838
57	0x3df9eaf0	0.12203014
58	0x3c3d2b73	0.011546004
59	0x3d8a102d	0.067413665
60	0x3f34ab8c	0.7057426
61	0x3e34455c	0.17604584
62	0x3e07013b	0.13184063
63	0xbd08a5c5	-0.033361215
64	0xbe8d14fb	-0.2755507
65	0xbaac19f1	-0.001313029
66	0x3f017933	0.5057556
67	0x3f1b5b5e	0.6068629
68	0x3f0dfa5c	0.55460143
69	0x3c2b0f48	0.010440655
70	0xbea65e9f	-0.32494065
71	0x3f89b3d3	1.0758003
72	0xbe564b8e	-0.2092726
73	0xbea818f9	-0.32831553
74	0xbf02928d	-0.5100487
75	0xbf40f1d3	-0.75368994
76	0x3d856aba	0.06514497
77	0x3e68346c	0.22676247
78	0x3f0235c0	0.50863266
79	0xbf107dfa	-0.56442225
80	0xbdc055ee	-0.0939139
81	0x3d98359b	0.074320994
82	0x3d168bfb	0.03675459
83	0xbec0845e	-0.37600988
84	0xbd14742b	-0.0362436
85	0x3ef6ef1c	0.482293
86	0xbda7061a	-0.08155461
87	0xbe784ef9	-0.24248876
88	0xbdd4a407	-0.10382848
89	0xbbf7374a	-0.0075444328
90	0x3d8c8659	0.06861562
91	0x3c228446	0.009919232
92	0x3e644534	0.22292024
93	0xbe2e8803	-0.17044072
94	0x3e6d3543	0.23164849
95	0x3de065ae	0.10956894
96	0xbcb3ee8b	-0.021964332
97	0xbe60f2da	-0.2196764
98	0xbd02146b	-0.031757753
99	0x3eebc0fe	0.4604568
100	0x3df36d1c	0.11886045
101	0x3c6b8c69	0.014376738
102	0x3d4f101d	0.050552476
103	0x3e476906	0.19473657
104	0x3d1fd46a	0.039020933
105	0xbd3b774e	-0.045768075
106	0x3d6ae530	0.057347476
107	0xbdc81093	-0.09768786
108	0xbea14eee	-0.3150553
109	0x3d9d6f8c	0.076872915
110	0xbeaecd59	-0.34141043
111	0xbc936c52	-0.017995987
112	0x3de0d054	0.109772354
113	0xbe9c56c6	-0.30534953
114	0x3e020b5d	0.12699647
115	0x3db95722	0.090498224
116	0xbe865b50	-0.2624154
117	0x3f200f03	0.62522906
118	0xbe11c6db	-0.14236014
119	0x3e8b94a1	0.27261832
120	0x3e59bd18	0.2126354
121	0xbb0c6f41	-0.0021428617
122	0x3df04127	0.11731177
123	0x3eabb4cf	0.33536384
124	0x3df12b05	0.117757834
125	0xbd1e635d	-0.03866898
126	0xbec0d2d3	-0.37660846
127	0x3e55f8ea	0.20895734
128	0x3ea22947	0.31672117
129	0xbdf5e5d5	-0.120067276
130	0xbe4a9016	-0.19781527
131	0x3dc50d52	0.09621681
132	0xbf1064f9	-0.5640407
133	0xbdfc9e1a	-0.12334843
134	0x3edf7365	0.43642727
135	0xbf00269e	-0.50058925
136	0xbf138766	-0.57628477
137	0x3ef37418	0.4754951
138	0x3ed4b911	0.41547444
139	0x3ebae97f	0.36506268
140	0xbd846e91	-0.06466401
141	0xbe48cbeb	-0.19609039
142	0x3e8dfcbb	0.2773188
143	0xbdbd4c12	-0.09243025
144	0x38ceb278	9.856088e-05
145	0xbdfc95e0	-0.12333274
146	0xbb9bca09	-0.004754309
147	0x3d62f79d	0.055411924
148	0xbe1214f7	-0.1426581
149	0x3ed98e80	0.4249153
150	0x3e57344c	0.21016043
151	0xbd2bdffe	-0.041961662
152	0xbe4a942e	-0.19783089
153	0x3e82f504	0.25577557
154	0x3ea0bcac	0.31393945
155	0x3df2744a	0.11838587
156	0x3f113b3d	0.56731015
157	0x3d108f71	0.035293046
158	0x3e419fe4	0.1890865
159	0xbe15f247	-0.14643203
160	0xbe95bd0c	-0.29245794
161	0xbdd85847	-0.105637126
162	0xbcebe7a6	-0.028796982
163	0xbc818922	-0.01581246
164	0x3f58d20c	0.84695506
165	0xbe7b7f65	-0.24560316
166	0xbe73c965	-0.23807295
167	0x3ea3cf3c	0.31994045
168	0x3e4de6f2	0.2010763
169	0xbd745922	-0.059655316
170	0x3f5d931c	0.86552596
171	0xbeb18536	-0.34671944
172	0xbcc33199	-0.023827361
173	0xbe42b466	-0.19014129
174	0x3b566ae9	0.0032717532
175	0x3e9698a3	0.29413328
176	0x3e5b4d50	0.21416211
177	0x3e590162	0.21191934
178	0xbda40f34	-0.08010712
179	0x3cea5d37	0.028608901
180	0xbd317c58	-0.043331474
181	0x3d8d0658	0.068859756
182	0x3ed05c46	0.406954
183	0xbf19255b	-0.59822625
184	0x3cd792c4	0.0263151
185	0x3e8b6db7	0.27232143
186	0x3e6f4955	0.23367818
187	0x3ee5915e	0.4483747
188	0xbbfb4d78	-0.007669147
189	0xbdf70751	-0.12061942
190	0xbc6b0257	-0.01434382
191	0x3e422cf4	0.18962461
192	0x3ea8c050	0.32959223
193	0x3c34dee1	0.011039467
194	0x3e0ca15c	0.13733429
195	0xbd285d96	-0.041104876
196	0x3ef708b5	0.4824883
197	0x3d04f486	0.03245976
198	0xbe65cd62	-0.22441629
199	0x3e2fc337	0.17164312
200	0x3c835bf1	0.016035052
201	0xbe6728cf	-0.22574161
202	0x3ea2e28d	0.3181347
203	0xbe626c38	-0.22111595
204	0xbea95dcb	-0.3307937
205	0xbaa32cab	-0.0012449225
206	0x3e896c24	0.26840317
207	0xbef7048e	-0.48245662
208	0x3c3018ae	0.010748072
209	0xbeac11e1	-0.3360739
210	0x3d9a825e	0.07544397
211	0xbd13be61	-0.03607023
212	0x3b621c17	0.0034501606
213	0x3db06d69	0.08614618
214	0x3c0d0c43	0.00860888
215	0x3e69536e	0.22785732
216	0xbe0c5833	-0.1370552
217	0x3d975cdd	0.07390759
218	0xbe4a7b9d	-0.19773717
219	0x3ee0f3c9	0.43935993
220	0xbea6664b	-0.32499918
221	0x3dae1cd6	0.08501594
222	0xbee82ced	-0.45346776
223	0xbda4983f	-0.08036851
224	0xbdd5c813	-0.10438552
225	0xbdfb3973	-0.12266817
226	0xbef78b55	-0.4834849
227	0xbea3332f	-0.31874987
228	0xbec63183	-0.3870965
229	0xbca10741	-0.01965678
230	0x3e31e4d4	0.17372447
231	0xbda50659	-0.08057851
232	0x3e0dc5f2	0.13845041
233	0x3ea1d08e	0.31604427
234	0x3eebb5a2	0.46037012
235	0x3ef127b5	0.47100607
236	0xbe4140fb	-0.18872444
237	0x3dc7ce95	0.09756199
238	0xbe60c7b3	-0.21951179
239	0xbd84922e	-0.06473194
240	0xbd7a783b	-0.061149817
241	0xbe4f30cf	-0.20233463
242	0x3e60a39e	0.21937415
243	0x3e2ed38c	0.17072886
244	0x3cf58288	0.029969469
245	0xbedd438d	-0.432156
246	0x3f28aa25	0.6588462
247	0x3d03462b	0.03204934
248	0xbf0ee148	-0.558125
249	0x3e0f243c	0.13978666
250	0xbea97cc9	-0.33103016
251	0xbee4acec	-0.4466318
252	0x3f2b4768	0.6690583
253	0x3e2c7d32	0.16844633
254	0x3ebacba6	0.36483496
255	0xbdecb2c2	-0.11557533

actor.init_internal_node_embed.2.add_bias._bias f4 [64, 1]
0	0x3e2fc94c	0.17166632
1	0x3e9679ea	0.29389888
2	0xbd5aa9b8	-0.053384513
3	0x3d9b5ba1	0.07585836
4	0x3e21e8f4	0.15811521
5	0x3e95c8ab	0.2925466
6	0x3d25abad	0.040446926
7	0x3de06226	0.1095622
8	0xbd9bafe9	-0.076019116
9	0xbdc61f3c	-0.09673926
10	0x3bd0ba93	0.0063698976
11	0x3d1cab1a	0.038249113
12	0xbd8993c4	-0.06717637
13	0x3d98a44a	0.07453211
14	0x3e0f3e3b	0.13988583
15	0x3e12d43b	0.14338772
16	0x3c919ba8	0.017774418
17	0xbe496389	-0.19666876
18	0x3c8967ba	0.016773093
19	0x3db12b09	0.086507864
20	0xbbeec412	-0.007286557
21	0x3cfb7723	0.030696457
22	0xbd6f5cee	-0.058438234
23	0xbd865438	-0.06559032
24	0x3e05c884	0.13064772
25	0xbd213942	-0.039361246
26	0xbd1c4d88	-0.038159877
27	0x3d21f514	0.039540365
28	0xbdc77665	-0.09739379
29	0xbc2c0a53	-0.010500508
30	0x3c8a5c8d	0.016889835
31	0xbc02bc75	-0.007979502
32	0x3d94abf8	0.07259363
33	0x3d074961	0.033028964
34	0x3e88c9ac	0.26716363
35	0xbd9b2b53	-0.07576623
36	0x3cb9b164	0.022667594
37	0xbe13fd70	-0.14452147
38	0xbd03ce4f	-0.032179173
39	0x3e4dec7f	0.20109747
40	0xbd36f323	-0.044665467
41	0xbe7cf55e	-0.24702975
42	0x3e17a6ab	0.14809673
43	0xbc536977	-0.012903563
44	0xbe09b0b9	-0.1344632
45	0xbd6ae99f	-0.057351705
46	0xbe9ab038	-0.3021257
47	0xbe8dd25c	-0.27699554
48	0x3e8acc75	0.27109113
49	0x3c9726da	0.018451143
50	0x3dc720fd	0.09723089
51	0x3d8a7a92	0.0676166
52	0xbc64ada4	-0.013957415
53	0xbc50f981	-0.012754799
54	0xbd3612ae	-0.044451408
55	0x3e4f0b35	0.20219119
56	0x3e61c98e	0.22049543
57	0xbd9996b6	-0.07499449
58	0x3c72c1af	0.014816686
59	0x3d3e9773	0.046531152
60	0x3d745ba3	0.059657704
61	0x3de9cb96	0.11415784
62	0xbd32e5a0	-0.04367602
63	0x3cd6bb79	0.02621244

actor.init_leaf_node_embed.0.module.weight f4 [32, 8]
0	0xbd9ca2b1	-0.076482184
1	0xbeafaa1a	-0.34309465
2	0xbec9e0c9	-0.3942931
3	0xbd9493f9	-0.07254786
4	0x3e2c9e6b	0.16857307
5	0x3ebdeb32	0.37093502
6	0x3efdbaae	0.49556488
7	0x3e8a0761	0.26958755
8	0xbecba64b	-0.3977531
9	0xbf2ddd71	-0.6791602
10	0xbd907cc6	-0.07055049
11	0xbea349ce	-0.31892246
12	0xbe7723b0	-0.24134707
13	0x3eab375b	0.3344067
14	0xbcb4d3e4	-0.022073694
15	0x3ebabde5	0.36473003
16	0x3e4a270b	0.19741456
17	0xbec0509f	-0.3756151
18	0xbe00dac0	-0.12583447
19	0x3ed23583	0.4105645
20	0x3ae42ce9	0.0017408404
21	0xbea23840	-0.3168354
22	0xbd682d08	-0.05668357
23	0xbd8a1e79	-0.067440934
24	0xbece5355	-0.40297952
25	0xbe49ee7a	-0.19719878
26	0xbe780bc5	-0.2422324
27	0xbe81c15d	-0.25342837
28	0x3eaafb1e	0.33394712
29	0x3d383c8b	0.044979613
30	0x3ee70d99	0.45127562
31	0x3de9e4b1	0.114205725
32	0xbd19b5c5	-0.037526865
33	0xbe362616	-0.17787966
34	0x3d95074b	0.07276782
35	0x3de17221	0.110080965
36	0x3ec047c8	0.37554765
37	0x3e065cf1	0.13121392
38	0xbeff5005	-0.49865738
39	0x3ec852a0	0.39125538
40	0x3dbf8521	0.09351564
41	0x3e16b6e4	0.14718205
42	0xbf08d81a	-0.53454745
43	0x3e223ea5	0.1584421
44	0xbeeebe31	-0.4662948
45	0x3f063f0c	0.5243995
46	0xbdfaade4	-0.12240198
47	0xbe838a89	-0.2569163
48	0xbeba9f05	-0.36449447
49	0xbe256528	-0.1615187
50	0xbdab7f1c	-0.083738536
51	0x3d412d79	0.047162507
52	0x3daeb622	0.08530833
53	0xbe514888	-0.20437825
54	0xbdcc6865	-0.09980849
55	0xbde01580	-0.10941601
56	0x3ec2c247	0.38038847
57	0xbee27241	-0.44227794
58	0x3e843186	0.25819033
59	0x3ee86b86	0.45394534
60	0xbd052f89	-0.032516036
61	0x3ec6cab0	0.38826513
62	0x3d381e3e	0.044950716
63	0x3e66c219	0.2253498
64	0x3dd8e4d4	0.105905205
65	0x3dfee3ff	0.124458306
66	0xbe2bad00	-0.16765213
67	0x3eac2818	0.3362434
68	0x3dcca737	0.09992831
69	0x3dae8664	0.08521727
70	0x3efb1266	0.49037474
71	0x3eb22f08	0.34801507
72	0xbdb6c9b3	-0.0892519
73	0x3eac1816	0.33612126
74	0xbe36b663	-0.17843013
75	0x3e9a742e	0.30166763
76	0x3cf4812c	0.02984675
77	0xbdf4bd6a	-0.1195019
78	0x3ee7a1b2	0.4524055
79	0xbe9905c9	-0.29887226
80	0x3d576690	0.052588046
81	0x3dc5c9d2	0.09657635
82	0x3e8ef638	0.27922225
83	0xbd8dce9d	-0.06924174
84	0x3eb2a8f5	0.3489453
85	0xbcf483df	-0.029848037
86	0xbe45b2c8	-0.19306481
87	0x3cad61e2	0.021164838
88	0xbe8fa336	-0.28054208
89	0x3d002cf1	0.03129286
90	0x3e3e8171	0.18604065
91	0x3db7fec0	0.089841366
92	0x3eef4741	0.4673405
93	0x3dc66c96	0.0968868
94	0xbc888392	-0.0166643
95	0xbeb7411b	-0.3579186
96	0x3ec76649	0.38945225
97	0x3d99f19a	0.07516785
98	0x3f1172b4	0.5681565
99	0xbeaf4d2e	-0.3423857
100	0xbdaf059b	-0.08545991
101	0xbd85e36f	-0.0653752
102	0x3ebbf32c	0.36708963
103	0xbdeec120	-0.116579294
104	0xbe543e6c	-0.20726937
105	0x3d26c216	0.04071244
106	0x3e75760c	0.23970813
107	0xbe0cb853	-0.13742189
108	0xbe87c443	-0.26516923
109	0xbe6328ee	-0.22183582
110	0x3eb62cc3	0.35581025
111	0x3d9c2aa3	0.0762532
112	0x3e3587f8	0.17727649
113	0xbcbce5c6	-0.023058783
114	0x3e252af8	0.16129673
115	0x3ee75a7a	0.45186216
116	0x3df5e15a	0.12005873
117	0x3ed21221	0.41029456
118	0x3de94312	0.11389746
119	0xbd94f0af	-0.07272469
120	0x3f012aa1	0.5045567
121	0x3e0e3f5e	0.1389136
122	0xbdf0a336	-0.1174988
123	0xbf068c35	-0.5255769
124	0x3e430f04	0.19048697
125	0x3ef1ec43	0.47250566
126	0x3d124a72	0.035715528
127	0xbe9c02cf	-0.30470893
128	0xbd501825	-0.050804276
129	0x3db06839	0.08613629
130	0xbe935168	-0.28773046
131	0x3eb59b5a	0.35470086
132	0x3e423a0f	0.1896746
133	0x3c9327e7	0.017963363
134	0xbe77f7e4	-0.24215657
135	0x3da090b2	0.078400984
136	0xbdb1f331	-0.08688963
137	0x3ebf313d	0.37342253
138	0x3ddd2271	0.10797585
139	0x3da5e234	0.080997854
140	0xbe8b2aac	-0.27180994
141	0x3db77db4	0.08959523
142	0x3e3de466	0.18544158
143	0x3e936ec6	0.2879545
144	0xbe50b56c	-0.20381707
145	0x3d518120	0.051148534
146	0x3d8ab06e	0.067719325
147	0xbeb68217	-0.35646126
148	0xbe72e4e3	-0.23720126
149	0x3eb7ffb3	0.3593727
150	0x3d48bb5c	0.049006805
151	0x3df4d329	0.11954338
152	0xbec5b31f	-0.3861322
153	0x3e0b8886	0.13626298
154	0xbdc5733d	-0.096411206
155	0x3e8dcc2d	0.27694836
156	0x3d57dfa1	0.052703504
157	0x3f04f3c0	0.51934433
158	0xbdb772ae	-0.0895742
159	0x3dd91ab7	0.106007986
160	0xbe7a0b74	-0.24418432
161	0xbe8ab144	-0.27088368
162	0xbe9d6f11	-0.307488
163	0xbd39a3e6	-0.04532232
164	0x3cdab78d	0.026698852
165	0x3ed565c1	0.41679195
166	0xbe10a5a2	-0.14125684
167	0xbe862f68	-0.26208043
168	0x3e04d6a7	0.12972508
169	0xbe13c6b3	-0.14431266
170	0x3ef83d7b	0.48484406
171	0xbde0b82d	-0.10972629
172	0x3cac7923	0.021053856
173	0xbde4545a	-0.11148901
174	0xbe47a64e	-0.19497034
175	0x3d6d99a4	0.05800785
176	0xbea7916f	-0.32728145
177	0x3eb65277	0.3560979
178	0x3c8afc72	0.016966078
179	0x3ea20b08	0.3164904
180	0x3e7aa68b	0.24477594
181	0x3e3a19f3	0.18173961
182	0x3df1c9c3	0.11806061
183	0x3e076341	0.13221456
184	0xbe982b02	-0.29720312
185	0xbe14614e	-0.14490244
186	0x3d9144b8	0.07093185
187	0xbd973ed9	-0.07385034
188	0x3ee71d58	0.45139575
189	0xbd2edd90	-0.042691767
190	0xbd17a27f	-0.037020203
191	0xbd7e7b2a	-0.062129177
192	0x3d6b0018	0.057373136
193	0x3da8cf00	0.08242607
194	0x3e82367a	0.25432187
195	0xbcb4a5fd	-0.022051806
196	0x3e63c074	0.22241384
197	0x3d854a8f	0.065083615
198	0xbc8cbb4c	-0.017179154
199	0x3efce8d4	0.49396384
200	0x3e9a12ac	0.3009237
201	0x3e52d7df	0.20590161
202	0xbefd18c1	-0.49432948
203	0xbea517b9	-0.3224466
204	0x3d47d96a	0.048791327
205	0xbcb00744	-0.02148784
206	0x3d3fcb40	0.046824694
207	0xbe99970f	-0.2999806
208	0x3e74b7ec	0.23898286
209	0xbe30a396	-0.17249903
210	0x3defab06	0.11702542
211	0x3ed67f84	0.41894162
212	0x3e1dc387	0.15406619
213	0x3df356b2	0.1188177
214	0x3ee3f336	0.44521493
215	0xbe8e7b1c	-0.278283
216	0x3d10e9d7	0.035379257
217	0xbe31ed13	-0.17375593
218	0xbec411c5	-0.38294807
219	0x3e1132d0	0.1417954
220	0x3f1997ad	0.59997064
221	0xbd7e2f4c	-0.062056825
222	0x3e5e31ba	0.21698657
223	0x3eba74ee	0.36417335
224	0x3ea4cba5	0.32186618
225	0xbe0a3d48	-0.1349994
226	0xbdfa1f9a	-0.12213059
227	0xbdc99b7f	-0.09844112
228	0xbbe8cea7	-0.007104713
229	0xbed1e947	-0.4099829
230	0x3dd158bd	0.102220036
231	0x3e500625	0.20314844
232	0x3de5171f	0.111860506
233	0x3e7a6204	0.24451452
234	0xbe3f360e	-0.18672964
235	0xbe5801af	-0.21094392
236	0x3e958a0e	0.2920689
237	0x3c212d94	0.009837527
238	0xbe5e4b3e	-0.2170839
239	0x3e28dc8f	0.16490386
240	0x3e91d2b1	0.28481057
241	0x3ef31093	0.47473583
242	0xbf02bb89	-0.51067406
243	0xbe019ad4	-0.12656718
244	0xbe5b4740	-0.21413898
245	0xbe3000d2	-0.17187813
246	0xbd100d71	-0.03516907
247	0x3ee99f59	0.45629385
248	0x3de3583b	0.11100813
249	0x3ed83867	0.42230532
250	0xbd7e63fe	-0.06210708
251	0xbe60c470	-0.21949935
252	0x3de339b7	0.110949926
253	0x3ec8f9b3	0.39253005
254	0x3e303c45	0.17210491
255	0xbdc6d1b5	-0.09707967

actor.init_leaf_node_embed.0.add_bias._bias f4 [32, 1]
0	0x3c3f3aca	0.011671731
1	0x3cebcf40	0.028785348
2	0x3bc1fccc	0.0059200283
3	0x3c0291dc	0.007969346
4	0xbdef57c5	-0.116866626
5	0x3c7342f0	0.014847502
6	0xbd341297	-0.04396304
7	0xbcd4ab19	-0.025960492
8	0x3d9fd6c7	0.078046374
9	0x3d10ead9	0.03538022
10	0x3d2362d7	0.039889183
11	0xbcf4d62e	-0.029887285
12	0x3add005c	0.0016861069
13	0xbd54f953	-0.051995587
14	0x3e03f0a2	0.12884763
15	0x3a47c46e	0.0007620518
16	0xbd22459c	-0.039617166
17	0xbd45f84a	-0.04833249
18	0x3c3f4307	0.011673695
19	0xbb7efafd	-0.0038906925
20	0x3d147e13	0.036253046
21	0x3d221b75	0.039576966
22	0x3df62416	0.120186016
23	0xbcae4fa4	-0.02127821
24	0x3c452cb7	0.012034587
25	0x3c49d507	0.012318856
26	0x3dba9681	0.091107376
27	0xbcad99f8	-0.021191582
28	0xbdbeb1ed	-0.093112804
29	0x3b4325d7	0.0029777193
30	0x3c0be0fd	0.008537528
31	0xbe1bcb8c	-0.15214366

actor.init_leaf_node_embed.2.module.weight f4 [64, 32]
0	0x3e1ca0b7	0.15295683
1	0x3ef9de6f	0.48802516
2	0x3e2d95b6	0.16951641
3	0x3e8a8d4d	0.2706093
4	0xbe6ded39	-0.23235025
5	0x3ed6942e	0.41909927
6	0x3e9bca24	0.3042766
7	0xbe8700a0	-0.26367664
8	0x3c1edd04	0.009696249
9	0x3e27f1e2	0.16400865
10	0x3c04ca8a	0.00810493
11	0xbbfc4fc4	-0.0076999385
12	0xbeb8719f	-0.36024186
13	0xbe0c20a7	-0.13684331
14	0x3e01ad5b	0.12663786
15	0x3dcaf1ca	0.09909399
16	0x3e3cd1ae	0.18439361
17	0xbe12c0e0	-0.14331388
18	0x3e1c108e	0.1524069
19	0x3ea5ea08	0.32405114
20	0x3f2114d5	0.6292241
21	0xbedf0d3c	-0.43564785
22	0x3f21efaa	0.63256323
23	0x3eb247f5	0.34820524
24	0x3cd41c9d	0.02589255
25	0x3c664baa	0.014056126
26	0xbc526a26	-0.012842691
27	0x3ec0e21b	0.37672505
28	0xbe0638c3	-0.1310759
29	0x3e3c001b	0.18359415
30	0x3dd4fa79	0.10399336
31	0xbe9e9a3a	-0.3097704
32	0xbe01a5c4	-0.12660891
33	0xbe80ac74	-0.2513157
34	0xbe2dbeeb	-0.1696736
35	0xbe2f68b6	-0.17129788
36	0xbe84f1e4	-0.25965798
37	0x3eb1cebe	0.34728044
38	0xbe6bdcba	-0.23033419
39	0x3e67cb7f	0.22636221
40	0x3ea1e26a	0.31618053
41	0xbea076d7	-0.31340668
42	0x3dbdc791	0.0926658
43	0xbdc88015	-0.09790055
44	0x3e8ab32e	0.27089828
45	0x3d2ea74f	0.042640027
46	0x3d4f5470	0.050617635
47	0x3d67b284	0.05656673
48	0x3d481ea8	0.04885736
49	0x3e2b7ed4	0.167476
50	0x3d863587	0.06553178
51	0xbef6e231	-0.48219445
52	0xbed8762e	-0.42277664
53	0x3f1752b9	0.591106
54	0x3e441cc5	0.191516
55	0x3e72fc17	0.23728977
56	0x3de45156	0.11148326
57	0x3e1a2bf9	0.15055837
58	0x3e01b4dd	0.1266665
59	0xbe25f299	-0.16205825
60	0x3db25d6f	0.08709227
61	0x3d897d69	0.06713373
62	0x3e4e61e9	0.20154537
63	0xbe3dc9c5	-0.18534
64	0xbc4433d1	-0.011975245
65	0x3d1c27f4	0.03812404
66	0x3e63dded	0.22252627
67	0xbebce1dd	-0.3689107
68	0x3e078583	0.13234524
69	0xbdd05035	-0.10171548
70	0xbde5448d	-0.11194716
71	0xbd910925	-0.07081822
72	0xbeb15399	-0.34634092
73	0x3ed08f3c	0.4073428
74	0x3db62e97	0.08895605
75	0x3e024150	0.12720227
76	0xbe4293d5	-0.19001706
77	0x3d294e61	0.041334514
78	0x3e14e189	0.1453916
79	0x3e04fb8a	0.1298658
80	0xbeb76b40	-0.35824013
81	0xbe861b7f	-0.26192853
82	0x3df01423	0.11722591
83	0x3d81b2f4	0.06332961
84	0xbd0ec49c	-0.03485547
85	0x3e0380ee	0.12842152
86	0x3e102fb9	0.14080705
87	0x3d819a24	0.06328228
88	0x3ebaf85c	0.36517608
89	0xbdf51305	-0.11966518
90	0x3e2ab551	0.16670729
91	0x3c874a83	0.016515022
92	0xbe1e11e4	-0.15436512
93	0xbd4897db	-0.048972946
94	0xbf08a602	-0.5337831
95	0xbe391bc4	-0.18076998
96	0xbe7ada19	-0.2449726
97	0x3e0e410f	0.13892005
98	0xbec1266e	-0.37724632
99	0x3f116dea	0.5680834
100	0xbe6df774	-0.23238927
101	0x3daa9259	0.08328695
102	0xbe24e4b6	-0.16102871
103	0x3e38126e	0.1797578
104	0xbcd4fe30	-0.026000112
105	0x3dbe22f5	0.09284011
106	0x3e74e9ea	0.23917356
107	0x3e1a4df1	0.15068795
108	0x3f1e5102	0.6184236
109	0xbe87a7b0	-0.26495123
110	0xbd6e135b	-0.058123928
111	0xbe324010	-0.1740725
112	0xbe241a17	-0.16025577
113	0x3e8a786a	0.27044994
114	0x3c7d0077	0.015442005
115	0x3d164429	0.036686096
116	0xbefdc7e1	-0.49566558
117	0xbd17201d	-0.03689586
118	0xbddc339c	-0.10752031
119	0xbe57f541	-0.2108965
120	0x3dd93dff	0.10607528
121	0xbe23bd36	-0.15990147
122	0x3e90a920	0.28254032
123	0x3e5ab9df	0.21359967
124	0x3e537e3a	0.2065362
125	0xbc425084	-0.011860017
126	0xbdaa12a3	-0.08304336
127	0x3dcdf17a	0.100558236
128	0xbea996d9	-0.331229
129	0xbeca6e9b	-0.3953751
130	0xbdd1dfe2	-0.102477804
131	0xbdfc077b	-0.12306114
132	0x3cc29bab	0.023755869
133	0xbe89ec40	-0.26938057
134	0xbe6d2559	-0.23158778
135	0xbe5929c8	-0.21207345
136	0xbf1da889	-0.6158529
137	0x3eab4778	0.33452964
138	0x3d0f2700	0.034949303
139	0x3c0e2b56	0.008677324
140	0x3ee71c27	0.45138666
141	0xbc992ff7	-0.01869963
142	0xbe8b220b	-0.2717441
143	0x3e20459e	0.15651557
144	0x3d966640	0.073437214
145	0xbe4b302d	-0.19842596
146	0xbeab1f4d	-0.33422318
147	0xbe06ac1d	-0.13151594
148	0x3e2cb894	0.16867286
149	0x3e5e8284	0.21729475
150	0x3dd83959	0.10557813
151	0xbdc9b597	-0.09849089
152	0xbe316d4e	-0.17326853
153	0x3dc1bca2	0.09459807
154	0xbd618f4d	-0.055068303
155	0x3cf41948	0.029797211
156	0xbdb2a6d8	-0.08723229
157	0x39f789b4	0.00047214108
158	0x3e365088	0.17804158
159	0xbe047031	-0.12933423
160	0xbe08f184	-0.13373381
161	0x3e62ac45	0.22136028
162	0xbe308297	-0.17237316
163	0xbebfae26	-0.37437552
164	0x3df3e701	0.11909295
165	0x3e638297	0.22217785
166	0x3d970e85	0.07375816
167	0xbe39095c	-0.18069977
168	0xbea81f09	-0.32836178
169	0xbdd2ab19	-0.102865405
170	0x3c152a1a	0.009104276
171	0x3d58c1e5	0.052919287
172	0xbe217d1b	-0.1577038
173	0xbe6ffd6e	-0.2343652
174	0x3ee85cd5	0.45383325
175	0xbe88cae3	-0.2671729
176	0x3e67fb72	0.22654513
177	0x3d0256d3	0.031821083
178	0x3b753414	0.0037415074
179	0xbc7fe910	-0.015619531
180	0x3b13f05e	0.002257369
181	0xbda278fd	-0.07933233
182	0xbe10bb00	-0.14133835
183	0xbea929e1	-0.33039764
184	0xbe52d634	-0.20589525
185	0xbc419afb	-0.011816735
186	0x3d37b79f	0.04485285
187	0x3e7e8aed	0.24857683
188	0xbd1448df	-0.036202308
189	0x3d8c09eb	0.06837829
190	0xbe6fb504	-0.23408896
191	0xbd832f92	-0.06405558
192	0xbe20fa14	-0.15720397
193	0xbedecf13	-0.4351736
194	0xbebc4040	-0.3676777
195	0x3e1eda04	0.15512854
196	0xbe5a1845	-0.2129832
197	0xbe407d0d	-0.18797703
198	0x3cd04bed	0.02542683
199	0x3cf868be	0.030323382
200	0xbc356807	-0.011072165
201	0xbb5480ce	-0.0032425406
202	0xbc33cad3	-0.01097365
203	0xbe78a5e5	-0.24282034
204	0x3eaacf9e	0.33361524
205	0x3df3c844	0.11903432
206	0xbe40935a	-0.1880621
207	0xbe5314e6	-0.20613441
208	0xbe2a69ab	-0.16641872
209	0x3f260284	0.6484759
210	0x3d90eaae	0.070760116
211	0xbce58f52	-0.028022442
212	0x3df91088	0.12161356
213	0x3e7efb10	0.2490046
214	0xbe147149	-0.1449634
215	0x3e07734e	0.13227579
216	0x3dbccf3f	0.092192166
217	0x3e82b6ff	0.2553024
218	0xbe83675c	-0.25664794
219	0xbbd356f4	-0.0064495746
220	0x3e1211d7	0.14264618
221	0xbd988579	-0.07447333
222	0xbe86978b	-0.26287493
223	0x3da496c4	0.08036569
224	0x3c7495bf	0.01492828
225	0x3e757722	0.23971227
226	0xbea87d87	-0.3290827
227	0xbeb14fc8	-0.3463118
228	0xbf071a08	-0.52774096
229	0xbe9ac5ff	-0.30229184
230	0x3e37e898	0.17959821
231	0xbe5f7dec	-0.21825379
232	0xbda1f7fa	-0.07908626
233	0x3d3b7722	0.04576791
234	0xbbbc1f32	-0.0057410235
235	0xbeb5e835	-0.35528722
236	0x3e08cb3a	0.13358775
237	0xbea650e4	-0.3248359
238	0xbeda9618	-0.42692637
239	0x3db41813	0.08793654
240	0xbea90c64	-0.33017266
241	0x3e664a66	0.22489318
242	0xbe00ce96	-0.12578806
243	0xbe1fb85d	-0.15597673
244	0x3bf958bd	0.0076094554
245	0x3f31c1e9	0.6943651
246	0xbd856bb8	-0.06514686
247	0xbe5695cc	-0.2095558
248	0xbd9cdaf1	-0.07658947
249	0x3d8e0d4f	0.06936132
250	0xbe496d22	-0.19670537
251	0xbe95f233	-0.29286346
252	0x3e3dfc44	0.18553263
253	0xbf005216	-0.50125253
254	0x3e871c7d	0.26388922
255	0x3bbb1426	0.005709189

actor.init_leaf_node_embed.2.add_bias._bias f4 [64, 1]
0	0x3e8ab554	0.27091467
1	0x3e0dbc89	0.13841452
2	0x3d2e5653	0.042562794
3	0x3c17b485	0.009259348
4	0xbe382b70	-0.1798532
5	0x3c6128bd	0.013742623
6	0xbe565556	-0.2093099
7	0xbe8d02d8	-0.27541232
8	0xbe2d1a8c	-0.16904658
9	0xbe2be854	-0.16787845
10	0x3e8ecaef	0.278892
11	0xbe1be6b3	-0.15224724
12	0x3dc6c6d3	0.097058915
13	0xbdba30a5	-0.090913095
14	0xbdcd936f	-0.10037886
15	0xbd9792a0	-0.074010134
16	0x3e0fb3ae	0.14033386
17	0xbe11b868	-0.14230502
18	0xbea39f66	-0.3195755
19	0xbd0a4e47	-0.033766057
20	0x3d1718c7	0.036888864
21	0x3dacaeb6	0.08431761
22	0x3c47a420	0.012185127
23	0x3d329ad5	0.04360469
24	0x3e7290fa	0.23688117
25	0xbd366e40	-0.044538736
26	0xbbc8f9bc	-0.0061332863
27	0xbda87703	-0.08225825
28	0xbe2fe92d	-0.17178793
29	0x3de4397e	0.11143778
30	0xbe14d50f	-0.145344
31	0xbcad7bc6	-0.021177184
32	0x3de1263e	0.10993622
33	0xbd7e0642	-0.062017687
34	0xbe1e19f4	-0.15439588
35	0x3e1af799	0.15133514
36	0x3e66c4e9	0.22536053
37	0xbd28a96e	-0.041177206
38	0xbd03e372	-0.03219933
39	0xbe048d3a	-0.12944499
40	0x3d6dcdd2	0.058057614
41	0xbf000760	-0.50011253
42	0x3e3ff22a	0.18744722
43	0x3d6b3c7e	0.057430737
44	0xbe104f47	-0.14092742
45	0xbd26a045	-0.04068019
46	0xbe119de0	-0.14220381
47	0xbd24df5c	-0.040252075
48	0xbe6bf690	-0.23043275
49	0x3d37eedd	0.044905532
50	0xbd61771b	-0.05504523
51	0xbd848c35	-0.06472055
52	0x3dd2cb62	0.102926984
53	0xbe28b6fc	-0.16476053
54	0xbe402a12	-0.18766049
55	0x3dcfc123	0.1014426
56	0x3c88c331	0.016694637
57	0xbe6ccc8b	-0.23124902
58	0x3e4495ce	0.19197771
59	0xbe8afa48	-0.27144074
60	0x3e08cb94	0.13358909
61	0xbe09af68	-0.13445818
62	0x3d926a2a	0.071491554
63	0x3cbd2750	0.023090035

actor.init_next_embed.0.module.weight f4 [32, 6]
0	0x3d7f2c3a	0.062298037
1	0xbe1761b2	-0.14783362
2	0xbe9909d2	-0.29890305
3	0xbee75f5c	-0.4518994
4	0xbe706fa0	-0.23480082
5	0x3a38e776	0.00070535333
6	0xbe6143f7	-0.21998583
7	0xbdc7ff51	-0.097654946
8	0x3e3f5108	0.18683255
9	0xbe79af4d	-0.24383278
10	0x3cbaacad	0.022787416
11	0xbe754099	-0.23950423
12	0x3ef66ffd	0.48132315
13	0xbe89160d	-0.26774636
14	0xbe83fc7b	-0.25778565
15	0xbdd77572	-0.10520448
16	0xbe49850d	-0.19679661
17	0x3ea292c7	0.31752607
18	0xbbf95305	-0.0076087737
19	0x3d14fbff	0.036373135
20	0xbd079595	-0.033101637
21	0x3ed6b3eb	0.41934142
22	0xbeed7f2a	-0.4638608
23	0xbeb8232f	-0.35964343
24	0x3ddfc7d1	0.10926784
25	0xbed81352	-0.4220224
26	0xbdfe1b94	-0.12407604
27	0xbe7ff0bd	-0.24994178
28	0xbdbb0f77	-0.09133809
29	0xbe1cf684	-0.15328413
30	0xbcc62a07	-0.024189962
31	0xbf13c5cc	-0.5772369
32	0x3e9129bf	0.28352162
33	0xbf37ef21	-0.71849257
34	0xbe017a09	-0.12644209
35	0x3e198d26	0.1499525
36	0x3f5b9777	0.8577799
37	0x3dd2c78c	0.10291967
38	0x3d915a90	0.070973516
39	0xbe00c8c0	-0.1257658
40	0xbd9f519d	-0.077792384
41	0xbeaee661	-0.3416014
42	0xbdb4d2a5	-0.0882924
43	0x3dc959c3	0.09831574
44	0x3e1552b6	0.14582333
45	0x3dae363d	0.08506439
46	0xbe9d16e5	-0.3068153
47	0x3e34bf66	0.17651138
48	0xbe8354a6	-0.2565052
49	0xbf172879	-0.5904613
50	0x3e7a5438	0.2444619
51	0xbce495e2	-0.027903501
52	0x3fb0d9d3	1.3816475
53	0xbf31ecb2	-0.69501793
54	0x3dd38f6e	0.103300914
55	0xbe95a08d	-0.29224053
56	0xbe3aa602	-0.1822739
57	0x3d6024bb	0.05472253
58	0xbeb0e028	-0.34546018
59	0xbee93481	-0.4554787
60	0xbea4e6b7	-0.3220727
61	0x3e3a7836	0.1820992
62	0x3c841244	0.016121991
63	0x3ecc9dcf	0.39964148
64	0x3e90331d	0.28163996
65	0xbeda9b40	-0.4269657
66	0xbc49c2b9	-0.012314492
67	0xbcef7ca3	-0.029234236
68	0xbcb12cb4	-0.021627761
69	0x3e05c273	0.13062458
70	0xbc9f6462	-0.019457046
71	0x3e31971a	0.17342797
72	0xbeb60e4b	-0.3555778
73	0xbd067e91	-0.032835547
74	0x3e155063	0.14581446
75	0x3cb274fd	0.0217843
76	0xbe67c65c	-0.22634262
77	0xbea7f3a2	-0.32803065
78	0x3d454b30	0.048167408
79	0x3c15a80a	0.009134302
80	0x3dfe4654	0.12415758
81	0x3e650a91	0.22367312
82	0xbeb15123	-0.34632215
83	0xbdd9cd59	-0.1063487
84	0x3fa3f0e1	1.2807885
85	0xbe69892d	-0.22806235
86	0xbe8314da	-0.25601846
87	0xbf2d2ffe	-0.67651355
88	0xbde9d1d5	-0.114169754
89	0x3daae2ad	0.08344016
90	0xbe4f33c7	-0.20234595
91	0xbd823a10	-0.06358731
92	0xbe986d69	-0.29770973
93	0xbdbfa6d0	-0.09357989
94	0xbc98d76c	-0.018657409
95	0x3decdbff	0.115653984
96	0xbe8dc1df	-0.27686974
97	0xbd0b78cc	-0.034050748
98	0xbde64977	-0.11244481
99	0xbe0addf2	-0.13561228
100	0xbed5a534	-0.41727602
101	0x3dc8af26	0.09799032
102	0x3f123569	0.5711275
103	0xbd4ef030	-0.05052203
104	0x3e49bc52	0.19700745
105	0xbe81f6e7	-0.25383684
106	0xbd610ead	-0.054945637
107	0x3b09c795	0.0021023501
108	0xbd803ffb	-0.06262203
109	0x3e93853d	0.2881259
110	0x3e6a1819	0.22860755
111	0xbbf60305	-0.007507684
112	0xbd90933f	-0.07059335
113	0x3e81167b	0.25212464
114	0x3f75d9b4	0.96035314
115	0x3e79fe65	0.2441345
116	0xbeb7a9eb	-0.35871825
117	0xbe981b6b	-0.29708418
118	0x3e4c5a6f	0.19956373
119	0x3de1cb5f	0.11025118
120	0x3e88535c	0.26626098
121	0x3cd65550	0.026163727
122	0xbd14e459	-0.03635058
123	0xbe0f371a	-0.13985863
124	0xbe864060	-0.2622099
125	0x3e298f57	0.16558586
126	0xbcebf17d	-0.028801674
127	0xbe5810e2	-0.2110019
128	0xbf37e023	-0.7182638
129	0xbdcb7baf	-0.099357
130	0xbe0104d4	-0.12599498
131	0xbd00d862	-0.03145636
132	0x3dec3f82	0.11535551
133	0xbe1745a4	-0.1477266
134	0xbdc775a0	-0.09739232
135	0x3e08a167	0.1334282
136	0xbeb3008d	-0.34961358
137	0x3d7be503	0.0614977
138	0x3f2748a6	0.6534523
139	0xbe88270e	-0.26592296
140	0x3ea96233	0.33082733
141	0xbeef1d89	-0.4670222
142	0x3eea28bf	0.45734212
143	0x3eceae42	0.40367323
144	0x3fa45284	1.2837682
145	0xbdcbdc5f	-0.09954142
146	0xbe3ad622	-0.18245748
147	0xbe9d5635	-0.30729833
148	0xbe1ec909	-0.15506376
149	0x3e1d25a8	0.15346396
150	0x3e2e5a77	0.17026697
151	0x3e9267b7	0.28594753
152	0xbd83c0a8	-0.06433231
153	0xbe459cf5	-0.19298156
154	0xbe42343a	-0.18965235
155	0xbec95a9c	-0.39326942
156	0x3b249da1	0.0025118368
157	0xbea3fe93	-0.32030162
158	0x3e39756c	0.18111199
159	0xbd7f5f86	-0.062346958
160	0xbe6669b2	-0.22501257
161	0xbc8b3e8e	-0.016997602
162	0xbf030dfc	-0.51193213
163	0xbec3c9a3	-0.38239774
164	0xbe414f82	-0.18877986
165	0xbe4478e4	-0.19186741
166	0x3e0220b1	0.12707783
167	0xbe275990	-0.16342759
168	0x3f05ff41	0.5234261
169	0x3e529765	0.20565565
170	0xbc9bec0a	-0.01903345
171	0xbfaccb04	-1.3499455
172	0x3d95179f	0.07279896
173	0x3e159b27	0.14609967
174	0x3ed9b3ab	0.42519888
175	0x3e6c43ab	0.23072688
176	0xbeaff5ce	-0.34367222
177	0xbf2511dd	-0.6448038
178	0xbd650a2e	-0.05591791
179	0x3e3e3edc	0.18578666
180	0xbdf8bc83	-0.12145331
181	0xbe84b2a4	-0.25917542
182	0x3e9767ec	0.29571474
183	0x3d4cacbe	0.049969427
184	0xbccbabe2	-0.024862234
185	0xbd958e1b	-0.07302495
186	0xbc9b5a97	-0.018964095
187	0xbe67e389	-0.22645392
188	0xbef0b39d	-0.47012034
189	0xbe177208	-0.14789593
190	0xbda809f8	-0.082050264
191	0xbccfef2b	-0.025382599

actor.init_next_embed.0.add_bias._bias f4 [32, 1]
0	0x3e29cbb8	0.16581619
1	0x3d453370	0.048144758
2	0xbd86cee4	-0.0658243
3	0xbd35ec3e	-0.04441475
4	0x3c90f512	0.017694984
5	0xbe90933b	-0.28237328
6	0x3df1fc47	0.11815696
7	0xbd91f7ba	-0.07127328
8	0xbe617f41	-0.220212
9	0xbd33e88a	-0.04392294
10	0xbdf3df7c	-0.11907861
11	0x3e960793	0.29302654
12	0x3cacb803	0.021083837
13	0x3e1a4168	0.15064013
14	0x3ec25505	0.3795549
15	0x3e8b3957	0.27192184
16	0xbc8b4a6d	-0.017003262
17	0xbe5583de	-0.20851085
18	0xbe8d162a	-0.27555972
19	0x3eb83c03	0.35983285
20	0xbdaf4e7d	-0.08559892
21	0x3c2c5f44	0.01052076
22	0xbe763b85	-0.24046142
23	0xbd5ed67a	-0.05440376
24	0x3e6f0b22	0.2334409
25	0xbdb3563e	-0.08756684
26	0xbe0ca148	-0.13733399
27	0x3cd35960	0.025799453
28	0x3d290827	0.04126754
29	0x3e28e460	0.16493368
30	0x3e191111	0.14947917
31	0x3e11755e	0.14204928

actor.init_next_embed.2.module.weight f4 [64, 32]
0	0x3d9a6fc8	0.07540852
1	0xbdde927b	-0.10867783
2	0xbd2307b9	-0.039802287
3	0x3e3864b1	0.1800716
4	0x3e18ebd6	0.14933714
5	0x3da00c52	0.0781485
6	0xbe362020	-0.17785692
7	0xbe6ba106	-0.23010644
8	0xbdbdfbaa	-0.09276517
9	0x3ea065b3	0.3132759
10	0x3da778da	0.081773475
11	0xbf0c1c79	-0.54730946
12	0x3dc59b3e	0.09648751
13	0x3ecd0579	0.40043238
14	0x3e01e465	0.12684782
15	0xbeb3e5f6	-0.35136384
16	0xbe171eed	-0.14757891
17	0x3d88349d	0.0665066
18	0xbc91c285	-0.01779295
19	0xbe70d302	-0.23517993
20	0x3d82d9e0	0.063892126
21	0xbd6f5238	-0.05842802
22	0xbef3a4d9	-0.47586706
23	0xbeefb040	-0.46814156
24	0xbef158c7	-0.47138044
25	0x3eb4a9d6	0.35285825
26	0xbe31059a	-0.17287293
27	0xbdb90fac	-0.09036192
28	0x3dd5ea36	0.10445063
29	0x3e03d7a2	0.12875226
30	0x3e8a0f78	0.26964927
31	0xbddababf	-0.1068015
32	0x3e446b80	0.19181633
33	0xbd7450e8	-0.05964747
34	0xbe0cd06b	-0.1375138
35	0xbd89642d	-0.0670856
36	0xbdbc0bae	-0.09181915
37	0xbe2cabf7	-0.16862474
38	0xbe26e08f	-0.162966
39	0x3a008055	0.00049019355
40	0x3e7d0e9b	0.24712603
41	0x3d33b173	0.0438704
42	0x3ef3bb63	0.47603902
43	0x3e9e3302	0.3089829
44	0xbcaa2451	-0.02076927
45	0xbdcd344f	-0.10019743
46	0xbe43a15a	-0.1910452
47	0xbd48cdb0	-0.049024284
48	0x3e3d080b	0.184601
49	0x3ca9e277	0.02073787
50	0xbd949314	-0.072546154
51	0x3f05333c	0.520313
52	0x3e2fab00	0.17155075
53	0x3cb96e7e	0.022635695
54	0x3d5cc0e1	0.05389488
55	0xbe5bdbbd	-0.21470542
56	0xbe1f9469	-0.15583958
57	0x3e5f0ac4	0.2178145
58	0xbc2d983c	-0.010595378
59	0xbe9e803b	-0.30957207
60	0xbdf20daa	-0.118190125
61	0x3bb8c6c5	0.0056389295
62	0xbd7ba64d	-0.061437894
63	0xbd302eb5	-0.043013293
64	0xbd6e6178	-0.058198422
65	0x3d076927	0.033059265
66	0x3e31e6cb	0.17373197
67	0xbe08218a	-0.13294044
68	0xbb43bd25	-0.0029867378
69	0x3e474b17	0.19462238
70	0xbf09db13	-0.53849906
71	0xbeb31279	-0.3497503
72	0xbedf2182	-0.43580252
73	0xbe0e9b0a	-0.1392633
74	0x3d0ae313	0.03390796
75	0x3ebeb32a	0.37246066
76	0x3dc24344	0.09485486
77	0xbe9f2824	-0.31085312
78	0xbf310a4f	-0.69156355
79	0x3df949e8	0.121722996
80	0xbe637614	-0.22213012
81	0x3d85e910	0.06538594
82	0x3e40cd79	0.18828382
83	0x3e264ac1	0.16239454
84	0xbd9c391a	-0.07628079
85	0xbda3c43d	-0.07996414
86	0xbd71c356	-0.059024177
87	0x3ec68e76	0.38780564
88	0xbed0f5f1	-0.40812638
89	0x3dca24cf	0.09870302
90	0xbe5bc644	-0.21462351
91	0xbe22cd48	-0.15898621
92	0xbf014984	-0.505028
93	0xbf2b4cac	-0.66913867
94	0xbe8d2f9c	-0.27575386
95	0xbe3e4ef6	-0.18584809
96	0xbe387cdb	-0.18016379
97	0x3e2994db	0.1656069
98	0x3eb542be	0.35402483
99	0xbdc27fb3	-0.09497013
100	0xbe9ecc38	-0.31015182
101	0x3cd354cd	0.025797272
102	0xbec1e3b7	-0.37869045
103	0x3e019420	0.12654161
104	0x3ca5941a	0.020212222
105	0x3e7211ca	0.23639598
106	0xbead04f4	-0.3379284
107	0x3e49efc1	0.19720365
108	0x3dddaa6b	0.1082352
109	0x3e29fe99	0.16601028
110	0xbe84dff0	-0.259521
111	0xbe8ac0d9	-0.27100256
112	0xbe285232	-0.16437605
113	0x3e4f8893	0.20266943
114	0x3cfa953a	0.030588735
115	0xbeae8a79	-0.3409002
116	0xbc898caf	-0.016790716
117	0x3d94e152	0.07269539
118	0x3e2851d6	0.16437468
119	0x3f459cfa	0.7719265
120	0xbeb599c2	-0.3546887
121	0xbedccb39	-0.43123797
122	0xbdbfa56e	-0.09357725
123	0xbea769dd	-0.32697955
124	0xbe97bf38	-0.29638076
125	0xbe4ae818	-0.19815099
126	0x3dabe8e3	0.08394029
127	0xbe6d02c0	-0.2314558
128	0xbe5b303d	-0.2140512
129	0xbec4253a	-0.38309652
130	0x398bd01d	0.00026667202
131	0x3e79504e	0.2434704
132	0x3df23add	0.118276335
133	0xbe28b164	-0.16473919
134	0xbdf3bbee	-0.11901079
135	0xbda8919e	-0.08230899
136	0x3e423d4c	0.18968695
137	0xbdfefeb1	-0.12450922
138	0xbe7c5e0d	-0.24645253
139	0xbba68ab3	-0.005082452
140	0xbd120287	-0.03564694
141	0x3d5acd18	0.05341825
142	0x3dce881c	0.100845546
143	0xbc6968df	-0.014246195
144	0x3e251501	0.16121294
145	0x3e1b62c2	0.15174392
146	0xbe195f0f	-0.14977668
147	0xbecb33ea	-0.39688045
148	0xbe315fa9	-0.17321648
149	0x3dc37167	0.09543114
150	0x3e22310d	0.15839024
151	0x3d935bf1	0.07195271
152	0x3e6a59a5	0.22885759
153	0xbdc3002e	-0.09521519
154	0x3ee5b48d	0.44864312
155	0x3e4beb75	0.19914038
156	0xbe72cc78	-0.23710811
157	0xbde97671	-0.11399544
158	0xbdece56b	-0.115671955
159	0x3cff2db6	0.031149726
160	0xba48e479	-0.00076634396
161	0xbd0817dc	-0.03322588
162	0x3d0885a5	0.03333058
163	0xbdde2ad0	-0.108480096
164	0x3eaca1e4	0.33717263
165	0x3e4da432	0.20082167
166	0xbbf1561b	-0.007365001
167	0x3e112a3c	0.14176267
168	0x3d7c31a4	0.06157078
169	0x3e5bccf7	0.21464907
170	0x3d13fcf0	0.036129892
171	0x3f399a0a	0.7250067
172	0x3d34bee7	0.04412737
173	0x3da3dbe8	0.08000928
174	0xbe21b950	-0.15793347
175	0x3f09d069	0.53833634
176	0xbce2bc9d	-0.027677828
177	0x3ea4b6dd	0.32170764
178	0x3de7e33a	0.11322637
179	0x3f645270	0.8918829
180	0x3d3be954	0.045876816
181	0xbd0c2a9e	-0.03422033
182	0x3e83abbb	0.25716957
183	0x3e28dbd6	0.16490111
184	0x3ed92fd6	0.42419308
185	0xbdacede4	-0.084438115
186	0x3d887c78	0.066643655
187	0x3eb37529	0.35050324
188	0xbe4d449d	-0.20045705
189	0xbea41147	-0.32044432
190	0x3e82dbaa	0.25558215
191	0xbe1b9ed0	-0.15197301
192	0x3de2c760	0.11073184
193	0x3e33acee	0.17546436
194	0x3c6589b9	0.014009886
195	0x3e366aba	0.1781415
196	0xbd937e0c	-0.07201776
197	0x3cf763a4	0.03019888
198	0xbe4b4610	-0.19850945
199	0xbea694e4	-0.3253547
200	0x3de25841	0.11051989
201	0x3e6616a4	0.22469574
202	0x3d918006	0.07104497
203	0x3e2084c0	0.1567564
204	0x3cce7d68	0.025206283
205	0x3b3d142b	0.0028851132
206	0xbdba1df1	-0.09087742
207	0xbe0ce07d	-0.1375751
208	0xbcb0fb98	-0.021604344
209	0x3e2c17ab	0.16805904
210	0xbe595c4a	-0.21226612
211	0xbdbf0a70	-0.09328163
212	0x3e4fbc8d	0.2028677
213	0xbe8abef5	-0.27098814
214	0x3e2d1439	0.16902246
215	0x3e0c1e54	0.13683444
216	0xbe4628c6	-0.19351491
217	0x3d965c46	0.073418185
218	0x3d25047f	0.04028749
219	0xbe66f84f	-0.2255566
220	0xbdc42e93	-0.09579196
221	0xbd62bbad	-0.055354763
222	0x3e026474	0.12733632
223	0xbe87b9a4	-0.2650882
224	0xbea2d3a5	-0.31802097
225	0x3d2dc7d5	0.042426903
226	0xbe8f8734	-0.2803284
227	0x3ca9d4fc	0.020731442
228	0x3e65b6bf	0.22432993
229	0xbe943614	-0.28947508
230	0xbe1c730d	-0.15278263
231	0xbe49092d	-0.19632407
232	0xbbb907b1	-0.005646669
233	0xbd08fd02	-0.033444412
234	0x3eb7dea8	0.3591206
235	0x3eb382dc	0.35060775
236	0x3dc0de83	0.09417441
237	0x3e26f0b0	0.16302752
238	0x3efddf79	0.4958456
239	0x3f08055a	0.53133166
240	0x3d82f142	0.063936725
241	0x3eb21ee7	0.34789202
242	0x3e4e12a3	0.20124297
243	0x3ea1f8f2	0.31635243
244	0xbeabc3c0	-0.33547783
245	0x3c65bd1e	0.01402214
246	0xbe26e5fb	-0.16298668
247	0x3f42b602	0.7605897
248	0x3f00dbd9	0.5033546
249	0x3cbcdb15	0.023053685
250	0x3dc260c4	0.09491113
251	0xbdc832c0	-0.09775305
252	0x3cf1c74a	0.029513974
253	0x3ea6429b	0.3247269
254	0x3d8155a7	0.06315165
255	0x3eb25d53	0.34836826

actor.init_next_embed.2.add_bias._bias f4 [64, 1]
0	0xbf0b8290	-0.544961
1	0xbed45ecd	-0.41478577
2	0xbea8fbb2	-0.33004528
3	0xbecee385	-0.4040796
4	0xbd882ec4	-0.06649545
5	0x3f8850ef	1.0649699
6	0xbede6736	-0.4343812
7	0x3f2f729a	0.68534243
8	0x3f82eebf	1.022911
9	0xbf1d5750	-0.61461353
10	0xbf26ec65	-0.6520446
11	0x3dd43359	0.10361356
12	0x3f992c83	1.1966709
13	0xbf8a0311	-1.0782186
14	0xbf6c7bed	-0.92376596
15	0xbf4b7065	-0.79468375
16	0xbf52bc9b	-0.8231904
17	0x3f523833	0.82117003
18	0x3f247295	0.6423734
19	0xbe4fb85b	-0.2028517
20	0xbe3013b7	-0.1719502
21	0xbe85558a	-0.26041824
22	0xbfb7f07b	-1.4370264
23	0x3f251f75	0.64501125
24	0xc0101569	-2.2513068
25	0xbf63a258	-0.8891959
26	0xbe342aaf	-0.17594407
27	0xbf8bd247	-1.0923547
28	0x3f1951dd	0.5989054
29	0x3eab4d54	0.33457434
30	0xbf134d71	-0.5754004
31	0xbf425b36	-0.75920427
32	0xbe1d631e	-0.15369841
33	0x3f4db01d	0.8034685
34	0xbeaf4fcc	-0.34240568
35	0xbe4328a9	-0.1905848
36	0x3fb4efb8	1.4135656
37	0x3f38709a	0.72046816
38	0xbec8b6b2	-0.39201885
39	0x3f14ce53	0.58127326
40	0xbfe1db8f	-1.7645129
41	0x3f93040a	1.1485608
42	0xbedfa18e	-0.43677944
43	0xbfbc569b	-1.471393
44	0x3ec7f37c	0.3905295
45	0x3fa9389e	1.3220403
46	0x3f7ad3af	0.97979254
47	0x3f34cda4	0.7062628
48	0xbefe04fa	-0.49613172
49	0x3eaa55d0	0.33268595
50	0x3f40fb6e	0.7538365
51	0x3efa633f	0.48903844
52	0x3ed717d7	0.42010376
53	0xbdc83faa	-0.09777768
54	0xbe8b90c2	-0.2725888
55	0xbf416375	-0.75542384
56	0xbd2ab705	-0.041678447
57	0x3f1215c3	0.57064456
58	0xbf173fad	-0.59081537
59	0x3e6d00a6	0.23144779
60	0x3eaca0d1	0.33716443
61	0x3f4a5d37	0.79048485
62	0x3d4323e4	0.04764165
63	0x3e3c900b	0.18414323
