logs/experiment/Discrete_A2C_1-5Box_10x10x10Bin-2022.08.09-15-00-00/PCT-Discrete_A2C_1-5Box_10x10x10Bin-2022.08.09-15-00-00_2022.08.09-17-04-12.pt (torch, 236314 bytes, 24 tensors)

actor.init_internal_node_embed.0.module.weight f4 [32, 6]
000000 37 0e f8 be e8 f2 ad 3c d0 bb 0a bf 60 92 2d 3d
       -0.48448345 0.02123399 -0.5419283 0.042375922
000010 15 45 5f be 6f ec 1f bd 99 6a ba bd 48 40 21 3e
       -0.21803696 -0.03904384 -0.09102363 0.15747178
000020 ee 84 a2 be 38 f0 82 be 67 5f ac be 2f aa ba be
       -0.31742042 -0.25573897 -0.33666536 -0.36457965
000030 87 85 1d be 73 b3 86 3d 1c 35 20 3e 09 87 8e 3e
       -0.15382968 0.06577196 0.1564526 0.278374
000040 6d 78 ac 3d 0f b3 25 bf fd ac 99 3e ee e1 9b be
       0.08421407 -0.64726347 0.30014792 -0.30445808
000050 f0 9d a8 3e dc 5c 06 bf d7 ae 40 bc 27 1f 0e 3f
       0.32932997 -0.5248544 -0.011760435 0.55516285
000060 a2 33 b7 bd bd 86 cd be 35 0a 4a 3e 80 9e a3 3d
       -0.08945395 -0.4014186 0.19730456 0.07989216
000070 dc 07 99 3e a9 a8 4e 3f cb fc 14 ba 72 30 0d 3d
       0.2988881 0.80726105 -0.0005683421 0.03447003
000080 b0 a9 70 3e 59 79 b0 3b d4 26 23 bd 09 4c 7c be
       0.2350223 0.0053855595 -0.03983195 -0.2463838
000090 7f 42 85 3f 20 44 27 be 1f fb 40 bf af 3a 9e bf
       1.0410918 -0.16334581 -0.7538318 -1.2361659
0000a0 65 4c ec 3e 0a a1 2c 3f e5 f5 b7 be e2 88 b4 be
       0.46152034 0.67433226 -0.3592979 -0.35260683
0000b0 2a 6c cd 3d 49 17 62 be 38 24 95 3e 3f 73 17 3f
       0.10030396 -0.22079195 0.29129195 0.59160227
0000c0 99 e9 2f be cd 1a cf 3e 84 1d 38 3f 68 56 1d be
       -0.17178954 0.40450135 0.7192004 -0.15364993
0000d0 35 63 76 be 3d 53 8a 3e 0d 07 c8 3e 70 e8 9c bd
       -0.24061282 0.2701663 0.3906788 -0.076615214
0000e0 f5 97 10 3f 31 f4 81 bd 2f e2 68 bd 0d 2d 5f bd
       0.5648187 -0.06345404 -0.05685633 -0.054486323
0000f0 b3 ef d9 be bf 5a 8c be 38 66 df be 3a 1a fe 3e
       -0.42565688 -0.27412984 -0.43632674 0.49629384
000100 f8 77 6e 3e 1d 23 72 be a3 38 06 be a7 a9 22 3f
       0.23287952 -0.23646207 -0.13107543 0.6354012
000110 e9 d7 ca be 55 fb 1e 3e 0d f9 22 bf 40 8d dc 3e
       -0.3961785 0.15525563 -0.6366127 0.43076515
000120 dc d4 bd 3e 26 74 0e bf de 14 3e be f4 ba 55 3e
       0.3707646 -0.5564598 -0.18562648 0.20872098
000130 f7 cd 91 be 53 c5 0f 3e f9 78 d2 3d cc d8 55 3e
       -0.2847745 0.14040117 0.1027698 0.20883483
000140 b9 4f 17 bd 2b 97 7f be e1 06 1a bd e1 37 1d be
       -0.036941264 -0.2496001 -0.037604216 -0.15353347
000150 3e c3 64 3e 83 69 a9 3b fe cc 03 3d 2a 2d 09 be
       0.22340104 0.0051700487 0.032177918 -0.13396135
000160 1b b2 7d bc be 84 d7 3c d0 94 92 3e 32 d7 bf bd
       -0.015484358 0.026308414 0.2862916 -0.09367217
000170 75 2c c1 3e d6 62 3b be f9 b6 50 be 5d 71 10 3e
       0.3772923 -0.18299422 -0.20382299 0.14105745
000180 52 a8 06 bf 49 47 14 bf 54 5b b2 be 17 9e d8 be
       -0.52600586 -0.5792127 -0.34835303 -0.42308113
000190 ea 16 34 be f6 20 82 be 3e c4 b4 bc 27 a1 00 3e
       -0.17586866 -0.25415772 -0.022066232 0.12561475
0001a0 76 ee ae 3e 74 bc 87 bd 92 1b 43 bb 88 8d c3 bc
       0.34166306 -0.066277415 -0.0029771072 -0.023871198
0001b0 fe 53 22 be fa f1 2e bf 95 0a 1b bf b7 35 f2 bc
       -0.15852353 -0.68337977 -0.6056302 -0.029566629
0001c0 70 41 30 be cb 3b 1a be 22 8c 48 3e 68 27 e9 bd
       -0.17212462 -0.15061872 0.19584706 -0.11384469
0001d0 02 16 35 bf b8 b3 22 bd 26 07 60 bd e3 cd a5 3e
       -0.70736706 -0.039722174 -0.054694317 0.32383642
0001e0 57 c0 e3 3c 01 2b 80 be 6e da c7 bd 46 20 e5 be
       0.027801676 -0.2503281 -0.09758459 -0.44751185
0001f0 26 3e 2c bf 5b b1 9f bb e2 81 0b be 63 c7 a5 be
       -0.6728233 -0.0048734373 -0.13623765 -0.32378682
000200 cd d1 11 bf dc f5 f4 3d 01 81 73 3e ee 90 0e 3f
       -0.56960756 0.119609565 0.2377968 0.55689895
000210 be f3 bf be f6 75 c4 bc 17 80 45 bf 0b 55 a2 3e
       -0.37490648 -0.02398203 -0.77148575 0.31705508
000220 24 20 09 3f d3 98 96 3d 5e 71 84 3d 20 6a fe bc
       0.5356467 0.07353368 0.064669356 -0.031056464
000230 94 59 e7 be 4e 92 0b be d6 16 e4 be ff be 0b bf
       -0.4518553 -0.1363003 -0.44548672 -0.5458831
000240 cd 0d 1a 3e 53 23 19 be 85 3a 46 3f eb 8d a6 39
       0.15044327 -0.14954881 0.77433044 0.00031767724
000250 aa 8c fe 3d 2c 5f f6 bd 6e 9d 1a 3d 15 a5 43 be
       0.12429173 -0.12029871 0.037747793 -0.19105943
000260 d0 0e fa be 6a c6 80 3e 00 04 ac 3e bb 2b 36 be
       -0.48839426 0.25151378 0.33596802 -0.1779012
000270 86 72 01 3f f3 7b c8 3d 32 e8 3b 3e 8e f2 8c 3e
       0.50565374 0.097892664 0.18350294 0.27528805
000280 18 2f 70 be 89 12 78 be b2 fb a7 3e b6 be 92 3d
       -0.23455465 -0.2422582 0.32809216 0.071652815
000290 03 79 85 be cf a2 fc 3e 77 7d 06 3d ed 2b a4 bd
       -0.26068887 0.49342963 0.032834496 -0.08016191
0002a0 48 5c de bd 5a ea 63 be 22 c5 ac 3d c9 6a 11 3f
       -0.10857445 -0.22257367 0.084360376 0.56803566
0002b0 55 bc f8 3e df 9e 49 bf 69 ce 89 3e 5f 53 45 be
       0.48581186 -0.78758043 0.2691529 -0.19270085
0002c0 c0 89 d7 be ca 86 8e bd b8 ea e4 3c 09 28 d3 3c
       -0.42097282 -0.06959303 0.027943954 0.025775926
0002d0 ed 5d 83 be 31 b8 b3 be ea e0 a0 3f 91 46 d9 bd
       -0.25657597 -0.35101464 1.2568638 -0.106091626
0002e0 07 6f 77 be 71 a6 33 3b 0d 41 6a 3e 85 ed 12 3e
       -0.24163447 0.002741244 0.22876377 0.14348419
0002f0 f1 ae 25 bd 21 f0 83 3d 7a 0d 4d be 81 00 15 be
       -0.04045004 0.06442285 -0.20024672 -0.14550973

actor.init_internal_node_embed.0.add_bias._bias f4 [32, 1]
000000 6d da 9c 3c 53 d5 44 be 17 20 f0 bb bd 8e b9 bc
       0.019147122 -0.19222002 -0.007328044 -0.02265107
000010 00 65 15 3e 46 aa 00 3d cc 85 a5 3b 1d dd d0 bb
       0.1458931 0.031412385 0.00505135 -0.006374015
000020 d2 68 38 3d 71 c4 d7 3d ae ce 87 3b 03 35 90 3c
       0.04502184 0.10535515 0.004144511 0.017603403
000030 c6 60 4b bb 01 da 28 ba 0a 57 5b bc 34 b2 e7 3c
       -0.0031033023 -0.00064411765 -0.013387451 0.028283216
000040 4b 40 ac be 34 d9 78 bd e9 9b 35 3d cf 7b 72 3a
       -0.33642802 -0.060754016 0.04433814 0.00092500163
000050 4b 9c 95 be 33 a4 66 3d 97 7f 5c 3d 76 59 fb 3d
       -0.29220805 0.056308936 0.053832617 0.12272923
000060 6a 90 09 3d 78 42 f6 3a 6f 3b dd 3b c1 30 98 3d
       0.03358499 0.001878812 0.00675147 0.07431174
000070 b2 b7 e9 3c 36 fa 42 bd fb 3e 7d 3d 2b 7b 91 bd
       0.028529976 -0.0476019 0.06182764 -0.071035706

actor.init_internal_node_embed.2.module.weight f4 [64, 32]
000000 11 ea ef 3d c2 8f 32 3e 63 9a a2 3d eb f4 f4 3d
       0.117145665 0.17437652 0.07939603 0.11960777
000010 83 59 03 be 47 ee e8 3d 9a d1 a9 3d 8b 6f f6 3e
       -0.12827115 0.11373573 0.082919315 0.48131976
000020 e3 bd 82 3e c0 76 75 bd 05 6b 43 3f d9 8c 9c 3d
       0.25535497 -0.059927702 0.76335174 0.07644052
000030 ec 7e 00 3e e0 5b 65 be 6b 64 2e bf 62 7a 9b 3e
       0.12548417 -0.22398329 -0.68121976 0.30366808
000040 78 ed b4 bc 88 cb 15 3e c0 7e e9 3c 2d ef 88 3e
       -0.02208589 0.14628422 0.028502822 0.26744977
000050 22 05 63 be 33 87 0e 3e 24 0c 8c 3f 19 6c 5c bd
       -0.22169927 0.13918762 1.0941205 -0.053814027
000060 6c fa fa 3e b4 1b 90 3e 5f f2 06 3e 3c 3f 80 3e
       0.49019182 0.28146136 0.13178395 0.25048244
000070 22 01 ad 3e 29 ac b7 bd 24 4b 3f bd 27 d7 63 3c
       0.33789927 -0.08968384 -0.04670252 0.013906277
000080 5f e9 b5 3e a8 80 99 3d 7b 84 f6 be ea 62 fc be
       0.3552961 0.07495242 -0.4814795 -0.49294215
000090 c4 ef 4f 3d a9 6c 91 3e 65 64 c1 3d 6e 39 c2 be
       0.050765768 0.28403214 0.09442977 -0.3793444
0000a0 c5 c5 8e be 21 fd ae 3d 0c 5b 0c 3f 28 b9 8d 3e
       -0.2788526 0.08544374 0.54826427 0.27680326
0000b0 04 fa a4 3e 14 1d c9 3d f6 74 6c bb 0f 24 9d 3e
       0.32221997 0.09819999 -0.0036080456 0.30691573
0000c0 36 96 7e bd c2 fb d7 3c 71 ef 11 be 68 ba f9 bd
       -0.06215497 0.026365165 -0.14251496 -0.12193757
0000d0 1b 44 17 3d 30 be d5 3e 09 6c 58 3f a5 82 af 3e
       0.036930185 0.41746664 0.8453985 0.3427936
0000e0 22 86 af bd e6 bb 21 3d 23 73 88 3d a9 54 a9 3d
       -0.08570506 0.039485835 0.066625856 0.08268101
0000f0 0a 39 0c 3f ec b1 78 3e b9 c9 59 bc 79 80 9a bd
       0.54774535 0.24286622 -0.013292723 -0.075440355
000100 71 c2 82 be 9b a5 06 bd 23 0f 0c 3f 39 b3 f7 3e
       -0.25538972 -0.032872777 0.54710597 0.48378924
000110 ec bd cc 3e 80 1f 5d bc 4f 13 1e be 04 2c 5d 3f
       0.3998865 -0.01349628 -0.15437053 0.8639529
000120 7f dd bd bd 56 5c c0 bd 79 62 f7 be f3 2f 01 bf
       -0.09270763 -0.09392612 -0.48317316 -0.5046379
000130 47 59 94 bd 93 94 30 3e 18 10 88 3e 19 ca b8 be
       -0.07243591 0.17244177 0.2657478 -0.36091688
000140 f6 4e 04 be de 71 3c 3e 83 71 a8 3c fd 51 da be
       -0.12920746 0.18402812 0.02056194 -0.42640677
000150 15 d0 1b bd 18 0b 9a 3e f2 cf 61 be e0 30 69 be
       -0.03804024 0.3008659 -0.22051981 -0.2277255
000160 d4 e0 00 3c 34 e4 d5 bd c4 34 51 3e 28 e5 2a 3e
       0.007866103 -0.10443917 0.20430285 0.16688979
000170 23 7c 10 3e 11 ec 0c be 82 b3 2b 3e 2d f7 8a 3d
       0.14109854 -0.13761927 0.16767696 0.06785426
000180 c7 16 77 bd f6 0c 52 be 9d 54 5f 3d c2 c0 e9 3e
       -0.060324457 -0.20512757 0.054524053 0.45654875
000190 76 00 5a 3e 02 c4 16 bd f0 eb 29 3d 14 2f f1 3c
       0.21289238 -0.03680802 0.041484773 0.029441394
0001a0 ad d7 83 3e 95 cc e2 3d ce 51 40 3d d9 da 42 bb
       0.25750485 0.11074177 0.046953015 -0.0029732494
0001b0 8a bb 95 be 0e e9 5b 3d 63 d4 a3 be d2 6c 08 3e
       -0.29244643 0.053689055 -0.31997976 0.13322762
0001c0 62 84 e3 3d b3 00 87 be cd 39 a6 3d 95 10 1a 3e
       0.111092344 -0.2636772 0.081164934 0.15045388
0001d0 aa 84 81 be 4e f9 df 3e 76 1b 9b be 5a 03 e3 3d
       -0.25296527 0.43744892 -0.3029439 0.11084624
0001e0 66 ca ba 3e 5d 6b a6 bd ba fc 16 3e 72 a5 af 3e
       0.36482543 -0.08125947 0.14744845 0.34305912
0001f0 2e ea 11 3e 42 ec b2 bd 56 88 32 be 4f 4c 40 3e
       0.14249489 -0.08736469 -0.1743482 0.1877911
000200 71 92 a6 3e de 60 cd bd 3b 26 39 be db b6 c1 3b
       0.325336 -0.100282416 -0.1808099 0.0059116906
000210 06 71 29 bf c7 9f 7c bd 6a c9 94 3e 11 0d 3b bf
       -0.66188085 -0.061675813 0.29059917 -0.7306681
000220 df 6b 11 bf be 2f d9 3e 40 1b 96 3e f1 a5 cc 3e
       -0.56805223 0.42419237 0.29317665 0.39970353
000230 c1 05 f2 bd cf d7 4c be e2 e8 4f 3e 99 47 96 bd
       -0.11817504 -0.200042 0.20303681 -0.07337875
000240 1d c1 8d 3c 7f bd ba bd f4 0d 16 3d 59 6a 3b bc
       0.017303998 -0.09118175 0.0366344 -0.0114389295
000250 fa 11 0e be bf 21 c8 3e 45 b3 f3 3d 24 6e 99 3d
       -0.13874045 0.39088246 0.11899427 0.07491711
000260 cd 4f 82 be 74 aa 9b 3e 9f 4a b7 3e 30 1d 29 3e
       -0.25451508 0.30403483 0.3579912 0.1651504
000270 b4 01 05 3f 0f 27 4f 3d 3e f2 7e 3d c3 b7 e5 bd
       0.51955724 0.05057436 0.06224274 -0.112166904
000280 1c df 91 be 07 35 de bd 95 04 00 3d 91 c4 1d bd
       -0.2849053 -0.10849958 0.03125437 -0.03851754
000290 70 95 48 3f bc 8b 67 be 1f 0b 2b be a2 b0 a8 3e
       0.78353024 -0.22611898 -0.16703461 0.3294726
0002a0 46 50 9c 3c 60 6f 91 be 18 27 58 3f 6e 48 b9 be
       0.019081246 -0.28405285 0.8443465 -0.36188072
0002b0 14 90 b1 3d 0e 62 c4 bd 5b 79 0b 3e 9c 94 7f 3e
       0.08670059 -0.09589015 0.13620512 0.24959034
0002c0 74 97 58 3e ca 06 34 3e de 31 6c bd 84 db 85 bd
       0.21151525 0.17580715 -0.057664745 -0.0653601
0002d0 75 40 f4 bc 2d 71 db 3d eb 47 e8 3e 23 c9 f1 be
       -0.029815892 0.10714946 0.4536737 -0.47223768
0002e0 13 59 37 3e 57 55 97 3e 0a be 4d 3e c5 e3 fa 3e
       0.17905073 0.29557297 0.20092025 0.490019
0002f0 ab 3e 23 3d da 72 8f bd af 9c 9f 3c fa b4 93 3e
       0.039854687 -0.07004328 0.019483892 0.28849012
000300 f8 26 9c 3e c4 43 d3 3b 7a 00 bd 3d ef a5 79 3d
       0.3049848 0.0064472873 0.092286065 0.060949262
000310 d2 06 0b 3f 53 58 f7 bb 8e a7 6d be 1c bf a5 3e
       0.5430728 -0.007548371 -0.23208448 0.32372367
000320 50 74 c4 3d aa 76 89 bd 49 e8 39 3e 27 da 1b be
       0.09592497 -0.067120865 0.18155016 -0.15219937
000330 81 53 96 be 32 e5 86 bd b6 80 f1 3d 85 0a fe be
       -0.29360583 -0.06586684 0.11792128 -0.496174
000340 a5 55 27 3c ec d9 be be 7e ee a8 3c 09 9b ba bc
       0.01021329 -0.37275636 0.020621534 -0.022779005
000350 a7 5d b3 bb 54 b4 a8 3d ba 8f 3b bd 10 72 4d 3d
       -0.0054738107 0.0823752 -0.045791365 0.050157607
000360 2b 3a 59 be c2 66 fa bc c5 7b 5b be 53 23 a6 3e
       -0.21213596 -0.030566577 -0.21433933 0.32448825
000370 f0 fc c9 be ce 1b 64 3d ed 80 43 be 6e 80 aa bd
       -0.39450788 0.05569058 -0.1909215 -0.08325277
000380 a7 4f ee bd 56 59 e2 bd 22 65 e8 be ea 4a ac be
       -0.11636286 -0.11052196 -0.45389658 -0.33650905
000390 85 f5 50 be 11 30 cc bc cd 09 3e 3e 61 ed 01 bd
       -0.20406158 -0.024925264 0.18558426 -0.031720523
0003a0 71 02 42 3d 7a 61 0b 3e d9 f6 06 3f 22 cf d0 3e
       0.04736561 0.13611403 0.5272041 0.4078303
0003b0 50 ee 32 be 73 0b 19 3e 91 3e 97 bd 2e 33 f1 bd
       -0.17473722 0.14945774 -0.073849805 -0.1177734
0003c0 ac 4f 24 bd c8 23 a1 be 93 4b 4e 3e 01 d7 0b 3e
       -0.040115044 -0.3147261 0.20146017 0.13656236
0003d0 25 48 96 3c f8 47 42 be 85 96 46 3f e4 24 dc bc
       0.018344948 -0.18972766 0.77573425 -0.02687306
0003e0 07 a7 97 be 5a 47 35 3e 0a 46 81 be b6 41 57 be
       -0.2961962 0.17703 -0.25248748 -0.2102116
0003f0 b5 93 32 3f 96 d1 5c 3e fc d0 a4 3e 20 33 fc bd
       0.69756633 0.21564326 0.32190692 -0.12314439

actor.init_internal_node_embed.2.add_bias._bias f4 [64, 1]
000000 2d c9 25 3e ff 47 91 3e dd 31 87 bd 40 e3 b5 3d
       0.16190024 0.2837524 -0.066013075 0.08881235
000010 24 09 ed 3d a2 77 96 3e e5 c6 0e 3d 6c d1 47 3e
       0.11574009 0.29388148 0.03485765 0.19513482
000020 4c 7d 8e bd da bf 90 bd a7 b2 91 3c 7b 6e 1c 3d
       -0.06957492 -0.07067843 0.017785383 0.0381913
000030 cc 34 85 bd 20 f0 15 3e 00 d9 1d 3e 95 22 ff 3d
       -0.06504211 0.14642382 0.1541481 0.12457768
000040 c4 de 98 bc fe 5c 38 be 44 c0 10 bc 8e f1 bc 3d
       -0.01866091 -0.18004224 -0.008834902 0.092257604
000050 b4 83 1c bd d8 f3 86 3d 76 7d 8c bd 77 75 fc bd
       -0.03821154 0.06589478 -0.06859867 -0.12327092
000060 11 a4 17 3e 18 3f a8 3c da 04 fe 3c b2 1b 80 3d
       0.1480868 0.020537898 0.031008173 0.062552825
000070 e8 ea 00 be 8d 70 08 bd 42 83 19 3a 32 18 21 bd
       -0.1258961 -0.03331046 0.0005856046 -0.039329715
000080 43 d4 79 3c 3f f2 4e 3d a9 b3 96 3e 93 5d d4 bd
       0.015248361 0.050523993 0.29433945 -0.1036941
000090 f3 f3 11 3d 91 99 39 be c8 be 1a bd d2 32 28 3e
       0.03563304 -0.18124987 -0.0377796 0.16425636
0000a0 2b 7d 2d bd f8 3b 5f be cf 93 23 3e c8 df 16 3c
       -0.042355698 -0.2180022 0.15974353 0.009208627
0000b0 8d 16 31 be 9a 4c f7 bc a0 a0 9f be c4 6c 84 be
       -0.17293759 -0.030187894 -0.31177235 -0.25864232
0000c0 69 cb 5f 3e 3e ab 92 3c 4a e7 9a 3d 6e 07 6d 3d
       0.21854939 0.01790392 0.07563646 0.057868414
0000d0 9a 26 38 3d 31 62 9d 3b 72 cf 77 bc 03 e0 8b 3e
       0.04495869 0.004802965 -0.015125142 0.27319345
0000e0 e7 d7 6d 3e 9a a0 a3 bd 26 40 04 bd 1b a6 cb 3d
       0.23226891 -0.07989617 -0.03228774 0.099437915
0000f0 e8 41 a6 3d bb 47 83 3d bb 16 07 bd 0a 90 14 3d
       0.08118039 0.06410166 -0.03298066 0.03627018

actor.init_leaf_node_embed.0.module.weight f4 [32, 8]
000000 f5 67 a5 bd cd e7 b0 be f0 24 c8 be ee 30 89 bd
       -0.08076469 -0.3455185 -0.3909068 -0.06698786
000010 f1 9d 2c 3e 0f f2 bc 3e ae ba fd 3e 61 07 8a 3e
       0.16857125 0.36903426 0.49556488 0.26958755
000020 df 6f b6 be f9 c0 27 bf 75 03 ae bd c9 15 b5 be
       -0.35632226 -0.6552883 -0.08496753 -0.35368183
000030 10 da 81 be df 8e af 3e e4 d3 b4 bc e5 bd ba 3e
       -0.2536168 0.3428869 -0.022073694 0.36473003
000040 2f 64 41 3e 8e a2 bb be 70 ee 10 be e2 f5 d7 3e
       0.18885873 -0.36647457 -0.14153457 0.4217978
000050 55 62 c8 bb a7 38 9f be 08 2d 68 bd 79 1e 8a bd
       -0.0061152377 -0.3109791 -0.05668357 -0.067440934
000060 1f e2 cf be 9a ba 51 be a9 e4 7a be 19 01 80 be
       -0.40602204 -0.20481339 -0.2450129 -0.25000837
000070 f1 a1 ae 3e d4 60 32 3d 99 0d e7 3e b1 e4 e9 3d
       0.34107926 0.043549374 0.45127562 0.114205725
000080 75 1d 72 bd d3 09 44 be 9e 25 8f 3d 21 a9 08 3e
       -0.059110124 -0.19144373 0.06989597 0.13345768
000090 34 ec c1 3e 48 24 05 3e 05 50 ff be a0 52 c8 3e
       0.3787552 0.13002121 -0.49865738 0.39125538
0000a0 cb 18 b4 3d ab 7e 19 3e 4f cf 07 bf 4e 36 29 3e
       0.087937914 0.14989726 -0.530507 0.16524622
0000b0 6b a4 f1 be 74 23 06 3f e4 ad fa bd 89 8a 83 be
       -0.47195753 0.5239785 -0.12240198 -0.2569163
0000c0 16 d1 b3 be 57 54 27 be 20 3a 3e bd c5 59 4c 3d
       -0.35120457 -0.16340767 -0.04644215 0.0498903
0000d0 fb 96 07 3e 6c a1 35 be 65 68 cc bd 80 15 e0 bd
       0.13241188 -0.17737359 -0.09980849 -0.10941601
0000e0 31 18 bc 3e 3a 19 df be 3c 83 7a 3e dd f5 ea 3e
       0.36737207 -0.43573934 0.24464124 0.45890704
0000f0 d8 fa 1c bd 6c 96 ca 3e 3e 1e 38 3d 19 c2 66 3e
       -0.03832516 0.39567888 0.044950716 0.2253498
000100 9f 9c d6 3d cb e4 0e 3e 9e 28 27 be e7 cd aa 3e
       0.10479092 0.13954465 -0.16324088 0.33360216
000110 53 ad ab 3d 23 48 bb 3d 66 12 fb 3e 08 2f b2 3e
       0.08382668 0.09144618 0.49037474 0.34801507
000120 7f 5b b3 bd 8e 93 ab 3e 40 d7 3a be 9a 05 9a 3e
       -0.08757686 0.33511013 -0.18246174 0.300824
000130 90 55 fd 3c 2e d5 f3 bd b2 a1 e7 3e c9 05 99 be
       0.030924588 -0.11905895 0.4524055 -0.29887226
000140 de e5 8a 3d 3b f7 fd 3d d3 62 8e 3e 7b a0 b3 bd
       0.06782125 0.12400671 0.27809772 -0.087708436
000150 13 f5 a3 3e a2 04 8f bc c8 b2 45 be e2 61 ad 3c
       0.32022914 -0.017458264 -0.19306481 0.021164838
000160 63 14 82 be ab 7c 4c 3d 4f 23 3a 3e 7e d9 88 3d
       -0.2540618 0.04992358 0.18177532 0.06682108
000170 1e 77 e7 3e 7e ca db 3d 92 83 88 bc 1b 41 b7 be
       0.45208067 0.10731982 -0.0166643 -0.3579186
000180 d7 38 c8 3e 46 7e 80 3d 38 35 11 3f 07 4e af be
       0.39105865 0.06274085 0.5672183 -0.34239218
000190 68 64 97 bd 41 3c 8c bd 2c f3 bb 3e 20 c1 ee bd
       -0.07392198 -0.0684743 0.36708963 -0.116579294
0001a0 56 84 90 be 40 f4 d0 3c db 82 9c 3e c4 6d 3c be
       -0.28225964 0.025507092 0.30568585 -0.18401247
0001b0 2b 32 5e be 7f 69 5e be c3 2c b6 3e a3 2a 9c 3d
       -0.21698825 -0.21719931 0.35581025 0.0762532
0001c0 fa 1f 35 3e 65 32 1d bd cc 95 29 3e 64 af e7 3e
       0.1768798 -0.038378138 0.16561049 0.45251
0001d0 20 ed 06 3e a7 01 d1 3e 12 43 e9 3d af f0 94 bd
       0.13176394 0.40821573 0.11389746 -0.07272469
0001e0 a3 bc fc 3e f2 8c e0 3d f6 13 f4 bd c6 ae 01 bf
       0.49362668 0.10964383 -0.1191787 -0.5065731
0001f0 86 6b 5b 3e 89 5d ed 3e 72 4a 12 3d cf 02 9c be
       0.21427736 0.46360424 0.035715528 -0.30470893
000200 05 61 77 bd 05 fb c8 3d 3e cd 95 be f5 17 ba 3e
       -0.06039526 0.09813503 -0.2925815 0.36346403
000210 7f 83 33 3e 57 ec b6 3c e4 f7 77 be b2 90 a0 3d
       0.1753063 0.022329492 -0.24215657 0.078400984
000220 a2 df c7 bd c0 f7 bc 3e 98 14 d2 3d ef df b7 3d
       -0.097594514 0.36907768 0.10257834 0.08978259
000230 38 66 8a be 68 30 b7 3d 66 e4 3d 3e c6 6e 93 3e
       -0.27031112 0.0894478 0.18544158 0.2879545
000240 29 61 46 be c7 1f 6f 3d a1 39 87 3d 76 bb b9 be
       -0.19373001 0.058379915 0.06602789 -0.36275834
000250 a4 2a 7f be 4f 75 ba 3e 5c bb 48 3d 29 d3 f4 3d
       -0.2491861 0.36417624 0.049006805 0.11954338
000260 76 af be be 01 e8 df 3d b4 9e d7 bd d8 ce 87 3e
       -0.3724324 0.10932923 -0.10528317 0.26524997
000270 bc 2f 9d 3d fd 14 05 3f ae 72 b7 bd b7 1a d9 3d
       0.0767512 0.5198515 -0.0895742 0.106007986
000280 d2 1e 79 be 56 7a 8b be 7b 45 9c be 89 0a 3b bd
       -0.24328163 -0.27241772 -0.3052176 -0.045664344
000290 11 cd c6 3c ec 4e d5 3e a2 a5 10 be 68 2f 86 be
       0.024267705 0.41661775 -0.14125684 -0.26208043
0002a0 cc c7 13 3e 38 80 0f be c7 2f f5 3e c6 e9 f3 bd
       0.14431685 -0.14013755 0.47888014 -0.11909823
0002b0 ed 8d 82 3c b2 ca db bd 4e a6 47 be a4 99 6d 3d
       0.015936816 -0.107320204 -0.19497034 0.05800785
0002c0 3b 82 a1 be f3 fb b7 3e 30 04 11 3c 20 fd 9f 3e
       -0.3154467 0.3593441 0.008851096 0.31247807
0002d0 e4 8f 77 3e e8 ed 3c 3e c3 c9 f1 3d 41 63 07 3e
       0.24175984 0.18450129 0.11806061 0.13221456
0002e0 b1 15 94 be d6 77 17 be 26 b0 9c 3d 1a 9e 95 bd
       -0.289228 -0.14791808 0.07650785 -0.07305546
0002f0 c8 06 eb 3e 8c 29 4d bd 7f a2 17 bd 2a 7b 7e bd
       0.4590361 -0.05008845 -0.037020203 -0.062129177
000300 cd 18 85 3d 62 59 9a 3d 5d 61 85 3e dc 3e bb bc
       0.06498871 0.0753658 0.26050845 -0.022857122
000310 92 d9 6c 3e 18 60 6c 3d 4c bb 8c bc d4 e8 fc 3e
       0.23129871 0.05770883 -0.017179154 0.49396384
000320 04 c6 99 3e a4 fc 59 3e 10 66 f9 be f2 f2 a4 be
       0.30033886 0.21287781 -0.4871068 -0.32216603
000330 b1 00 24 3d 58 4f b4 bc 40 cb 3f 3d 0f 97 99 be
       0.040039722 -0.02201049 0.046824694 -0.2999806
000340 bd 72 78 3e 8b 15 34 be 15 f2 03 3e 20 40 d4 3e
       0.24262519 -0.17586343 0.12885316 0.41455173
000350 75 ff 23 3e 2d 2f eb 3d 36 f3 e3 3e 1c 7b 8e be
       0.16015418 0.114836074 0.44521493 -0.278283
000360 f8 d2 3b 3d e7 51 33 be d9 4d c2 be 76 fe 09 3e
       0.045855492 -0.17511712 -0.37950018 0.13475975
000370 68 75 1a 3f 26 8c 83 bd ba 31 5e 3e ee 74 ba 3e
       0.603354 -0.064232156 0.21698657 0.36417335
000380 bc b8 9c 3e 01 07 0c be e4 69 40 be 71 2e 03 be
       0.3060969 -0.13674547 -0.18790394 -0.12810685
000390 54 ea d3 3a 6d 25 cb be bd 58 d1 3d 25 06 50 3e
       0.0016167858 -0.3967699 0.102220036 0.20314844
0003a0 2e 05 e2 3d 6e 35 77 3e 48 58 3f be 00 f3 57 be
       0.11036144 0.24141476 -0.1868602 -0.21088791
0003b0 e3 14 97 3e 91 ad 16 3c 3e 4b 5e be 8f dc 28 3e
       0.29508123 0.009196655 -0.2170839 0.16490386
0003c0 b9 82 8a 3e 22 30 d7 3e 9f 85 e2 be fd 32 34 be
       0.27052858 0.4202891 -0.4424257 -0.17597575
0003d0 fe 36 63 be d3 14 21 be 71 0d 10 bd 59 9f e9 3e
       -0.22188947 -0.157306 -0.03516907 0.45629385
0003e0 4c 0f ef 3d 66 a5 d4 3e 54 72 84 bd 49 f8 60 be
       0.116728395 0.4153244 -0.06467119 -0.21969713
0003f0 e2 72 f3 3d 53 aa c7 3e 45 3c 30 3e b5 d1 c6 bd
       0.118871465 0.38997135 0.17210491 -0.09707967

actor.init_leaf_node_embed.0.add_bias._bias f4 [32, 1]
000000 c0 c8 45 3c c8 3e cb 3c 2e 26 fb 3b 70 80 08 3c
       0.012071788 0.02481021 0.0076644635 0.008331403
000010 0c f1 ea bd 00 12 7e 3c bf 08 19 bb 3c 82 d0 bc
       -0.11471757 0.015507221 -0.002335116 -0.025452726
000020 62 1a a2 3d 9e 88 0e 3d 32 80 1b 3d 06 5c f5 bc
       0.07915188 0.034798257 0.037964053 -0.029951107
000030 7c 01 cf 3a bd 78 45 bd cf 86 05 3e 91 29 45 3b
       0.0015793289 -0.048210848 0.13039707 0.003008459
000040 e0 69 21 bd da 80 47 bd e4 68 2c 3c da 55 77 bb
       -0.03940761 -0.048706867 0.010523055 -0.003774038
000050 49 a9 10 3d 84 5d 1e 3d 00 d1 f5 3d 79 14 ab bc
       0.035317693 0.038663402 0.12002754 -0.020883786
000060 eb ab 3c 3c 58 28 3f 3c 7c 9c bc 3d 20 6a b1 bc
       0.011515598 0.011667334 0.092095345 -0.02165705
000070 36 1e bf bd fe 16 39 3b 4d 45 ce 38 16 a2 1b be
       -0.09331934 0.0028242464 9.835754e-05 -0.1519855

actor.init_leaf_node_embed.2.module.weight f4 [64, 32]
000000 86 d6 35 3e 1b a6 c8 3e a3 61 b5 3d ce 00 2e 3e
       0.17757615 0.39189228 0.08856513 0.16992494
000010 cc 0b 90 be 2d b2 9f 3e 80 ad 99 3e 47 a3 72 be
       -0.28134 0.31190625 0.30015182 -0.23695098
000020 94 66 47 3d 3a e3 29 3e a6 ef a6 bc c1 d8 c6 bd
       0.04868181 0.16590586 -0.020377945 -0.09709311
000030 91 6b bb be aa 2c 14 be 54 39 2d 3e 4b 61 ee 3d
       -0.36605504 -0.14470163 0.169164 0.11639651
000040 47 35 89 3e a9 4f dc bd 4a 68 80 3e 0a ba 8f 3e
       0.2679846 -0.107573815 0.25079566 0.28071624
000050 6e 90 24 3f 99 8d 03 bf f8 40 17 3f 68 14 d8 3e
       0.6428288 -0.51387936 0.5908351 0.4220307
000060 ca 90 9b 3b 2a a0 4a 3d 1a d0 31 bb eb 6f da 3e
       0.004747485 0.04946915 -0.0027132095 0.42663512
000070 7d c1 00 be 48 b2 1a 3e 18 85 67 3e f8 85 9a be
       -0.1257381 0.15107071 0.22609365 -0.30180335
000080 e9 53 53 be a5 9d 24 be 5b 32 58 bd 48 8f 34 be
       -0.20637478 -0.16075762 -0.052782398 -0.17632782
000090 7c d8 8b be d0 f3 8c 3e 4e a2 73 be d7 77 79 3e
       -0.27313602 0.27529764 -0.23792383 0.24362122
0000a0 d8 cc 96 3e ee 87 ac be df 32 c8 3d 64 fc f3 bd
       0.29453158 -0.33697456 0.09775328 -0.11913374
0000b0 37 bc 38 3e 99 06 23 3d 0b d5 51 3d f0 b6 98 3d
       0.18040548 0.039801214 0.051228564 0.074567676
0000c0 e6 cd 38 3e 73 a7 16 3e e3 ed b3 3d a6 5f 00 bf
       0.18047294 0.14712314 0.08785608 -0.5014595
0000d0 51 4e b2 be 3e d9 0b 3f 24 5a 2b 3e cf 82 70 3e
       -0.34825376 0.5462836 0.16733605 0.234874
0000e0 75 fc fe 3d b2 cc 29 3e 65 bf 02 3e 6f d6 4e bd
       0.12450496 0.16581991 0.12768324 -0.05049747
0000f0 ec b6 aa 3d 9f 4f a3 bb 79 0b 67 3e 8c 30 3f be
       0.08335671 -0.004983857 0.2256297 -0.18670863
000100 3d ce 8e bd 10 3e 7c 3d 28 82 d3 3d 5e 6e ad be
       -0.069729306 0.061582625 0.1032756 -0.33873266
000110 ab 45 99 3d a1 1d e2 bd e2 04 f3 bd ea 05 db bc
       0.07483991 -0.110408075 -0.11866166 -0.026736218
000120 ef 0e a3 be da db ce 3e 1d 8c a9 3d b8 82 8d 3d
       -0.3184733 0.40402108 0.082786776 0.06909698
000130 94 51 7a be 9c 85 36 3d d4 59 18 3e 1f 18 12 3e
       -0.24445182 0.044561014 0.14878017 0.14267014
000140 52 c0 c4 be f3 ff 3c be 87 7c f2 3d 2a e8 07 3d
       -0.3842798 -0.18457012 0.11840158 0.033180393
000150 bd 84 0c bc e0 68 b2 3d 54 92 fd 3d 36 ed 18 3e
       -0.008576569 0.087114096 0.123814255 0.14934239
000160 0e 3f b9 3e 88 a3 87 bc 42 ec 39 3e a7 f2 07 bc
       0.3618092 -0.01655747 0.18156531 -0.008297599
000170 fc c6 20 be a7 e8 08 3d 06 a8 f9 be f4 d5 0a be
       -0.15700907 0.033425 -0.48761004 -0.13558179
000180 f7 96 48 be 97 22 01 3d ca df c4 be ea 79 ee 3e
       -0.19588839 0.031527128 -0.38451988 0.46577388
000190 03 2f a8 be 5e de 64 3e 42 b7 1f be 96 fb 03 3e
       -0.32848367 0.22350451 -0.15597251 0.12888941
0001a0 53 f6 74 3c 19 26 20 3e b1 fd 2d 3e 7b 7b 95 3d
       0.014951306 0.15639533 0.16991307 0.07298943
0001b0 b0 3f 20 3f aa 9d 84 be e3 8b 91 bd c5 95 c7 bc
       0.6259718 -0.25901538 -0.071067594 -0.024363408
0001c0 7d b2 2c be 24 75 b0 3e c4 d0 c3 3c ad 81 fe 3c
       -0.16864963 0.3446437 0.023903258 0.031067694
0001d0 24 50 e4 be ad c4 ab bc 79 51 fb bd 91 36 cc bd
       -0.44592392 -0.020967806 -0.12271399 -0.09971345
0001e0 34 7c 1c 3d ef 4a 05 bd 1a 42 87 3e 15 aa 5b 3e
       0.038204387 -0.032542165 0.2641762 0.214516
0001f0 9f 0b 4d 3e a5 75 b2 bd 10 66 9a bd 89 38 2a 3e
       0.20023964 -0.08713845 -0.07538998 0.16623129
000200 4b 77 73 be 43 b9 bd be 44 01 89 be 61 18 0a be
       -0.23775975 -0.37055406 -0.26758778 -0.13485862
000210 7f 90 34 3d 6a 98 98 be 8d b6 63 be cd 6c 5a be
       0.044083115 -0.29803783 -0.22237606 -0.21330567
000220 04 d1 1f bf f1 d1 89 3e e4 62 80 3d ad 6c e8 3b
       -0.6242831 0.26917985 0.06268862 0.0070930333
000230 0d 0c d3 3e ac d5 66 bc 3b 95 76 be 3f 65 2b 3e
       0.41220132 -0.014089029 -0.24080364 0.16737841
000240 77 51 57 3d 11 58 c3 bd ba c7 a5 be 88 4b 44 be
       0.052567925 -0.09538282 -0.32378942 -0.19169438
000250 3b 5b 84 3d f8 f7 32 3e 0a 9f 05 3e 33 1f 56 bd
       0.06462713 0.17477405 0.1304895 -0.052275848
000260 8e 06 2c be d9 28 9e 3c d4 e8 97 bc df 80 7b bd
       -0.16799375 0.019306587 -0.018543638 -0.061402198
000270 1a 9d bd bd 85 3e 78 bc 32 21 88 ba 2d 1a 2a be
       -0.0925848 -0.015151625 -0.001038587 -0.16611548
000280 ea 7c dc bd e0 01 36 3e e5 25 2d be 80 88 be be
       -0.10766013 0.17774153 -0.16908987 -0.37213516
000290 a4 ea 14 3e 33 38 f7 3d 84 b3 bd 3d 45 ed 11 be
       0.14542633 0.12071266 0.092627555 -0.14250667
0002a0 cf de a4 be 48 93 f7 bd 1b b8 cf 3c db ba 92 3d
       -0.3220124 -0.120886385 0.025356343 0.07164546
0002b0 9b b9 36 be 2e 5b 63 be b8 f3 da 3e f7 41 70 be
       -0.1784424 -0.22202751 0.42764068 -0.23462664
0002c0 5d 78 5c 3e 35 3d c8 3c bb 3c 0f 3d 8f 3c 32 bd
       0.2153029 0.024443248 0.034970026 -0.043514784
0002d0 7c ef 81 3d b2 b4 bc bd 57 53 12 be 0b db 8b be
       0.06344506 -0.092141524 -0.14289604 -0.27315554
0002e0 13 3c 52 be 72 6a df bb 8f ef 4d 3d d1 95 91 3e
       -0.20530729 -0.006818109 0.05027729 0.28434613
0002f0 92 49 4f bd b7 ed 25 bd dc f9 f4 bd 85 dc 6e bd
       -0.05060727 -0.040509906 -0.119617194 -0.058315773
000300 17 13 82 be 24 64 d7 be 4b 47 c5 be ac 1e 77 bd
       -0.2540519 -0.4206859 -0.38530955 -0.060331985
000310 83 c9 38 be 1c ab 0c be d6 13 6c 3c 25 4b 42 3b
       -0.1804562 -0.13737148 0.014409026 0.002964684
000320 48 22 9e bb 8f d0 15 be e2 91 49 3d 3b 0c 3e be
       -0.004825864 -0.1463034 0.04921139 -0.18559353
000330 3a 6f 9c 3e 92 e9 e8 3d 50 e9 3d be 56 02 46 be
       0.3055361 0.11372675 -0.18546033 -0.19336829
000340 c6 11 2b be c1 96 f6 3e f5 57 b0 3d 35 e6 af bd
       -0.16705999 0.4816189 0.086105265 -0.085888304
000350 2e 05 f0 3d 14 93 69 3e 4a fd 14 be 90 9d fa 3d
       0.11719738 0.22810012 -0.14549747 0.12237084
000360 2e 53 03 3e 11 75 8e 3e 64 18 68 be 61 9d 4c bc
       0.128247 0.2782369 -0.22665554 -0.012488694
000370 a4 15 1a 3e ce eb 80 bc 45 92 8d be 5a 71 81 3d
       0.15047318 -0.01573744 -0.27650657 0.06320448
000380 5e d5 88 3d 28 23 b4 3e 53 55 a4 be 46 b3 97 be
       0.066813216 0.35183072 -0.32096347 -0.29628962
000390 66 0b f2 be 38 f7 10 be 81 07 39 3e 22 99 92 be
       -0.4727432 -0.14156806 0.18069269 -0.28632456
0003a0 f7 0a 89 bd 2b 4c 0e bd 5a 89 cd 3b 05 ae 9e be
       -0.066915445 -0.03474061 0.006272477 -0.3099214
0003b0 29 7b 6c 3e 5c 5a a8 be 68 83 f3 be 83 3f 8b 3c
       0.23093857 -0.3288144 -0.47561193 0.016998058
0003c0 e6 60 54 be 14 97 ec 3d 62 d8 48 bd 90 ad 32 be
       -0.20740089 0.11552253 -0.049034484 -0.17449021
0003d0 3c 00 ae bd df ba 33 3f d1 9a 4e bd b9 2c 9e be
       -0.084961385 0.7020702 -0.050440613 -0.30893496
0003e0 79 94 92 bd e0 60 45 3d 48 b6 3f be fa 2e 9e be
       -0.07157225 0.04818809 -0.18721879 -0.30895215
0003f0 e7 fd 3e 3e 55 57 ad be 64 27 0e 3e f7 58 0f bd
       0.18651544 -0.33855692 0.13882214 -0.034996953

actor.init_leaf_node_embed.2.add_bias._bias f4 [64, 1]
000000 9b 6f 82 3e 6f 28 04 3e 99 f2 31 3d eb 51 ab 3b
       0.25475773 0.12906049 0.04344425 0.0052282712
000010 bf 98 3a be 94 1c a1 3c 7a 3a 5a be a7 70 96 be
       -0.1822233 0.019666947 -0.2131137 -0.29382822
000020 cd a8 3d be e6 0b 25 be de ed 86 3e 0c 5f 19 be
       -0.18521424 -0.1611782 0.26353353 -0.14977664
000030 c6 d8 c4 3d fe 16 e1 bd 9c ec d3 bd 5c f8 94 bd
       0.09611659 -0.109907135 -0.10347864 -0.07273933
000040 a8 95 1f 3e a9 d3 03 be 19 af 9f be 41 d8 10 bd
       0.15584433 -0.1287371 -0.31188276 -0.035362486
000050 ff 61 32 3d 98 78 af 3d 56 8e 2f 3c 61 c9 8d 3d
       0.043550488 0.08567923 0.010715088 0.069231756
000060 29 18 70 3e 9e d9 61 bd fa 3e a3 bc 2f 25 96 bd
       0.23446716 -0.055139177 -0.01992749 -0.07331311
000070 a2 5e 25 be 2f 60 c7 3d 31 7f 15 be 3a e9 c5 bc
       -0.16149381 0.097351424 -0.14599301 -0.024159063
000080 ee b1 d2 3d 8c 14 6b bd b5 7b 38 be 14 70 18 3e
       0.10287844 -0.057392642 -0.1801594 0.14886504
000090 38 e5 63 3e ac ab fd bc 49 1c 16 bd a9 84 0b be
       0.22255409 -0.030965649 -0.03664807 -0.13624825
0000a0 98 16 8a 3d 64 62 fb be 79 a6 41 3e f0 ce 6d 3d
       0.06742591 -0.49098504 0.1891116 0.05805868
0000b0 5d da 1d be bc a4 5d bd 8f 02 09 be e7 3a 39 bd
       -0.1541533 -0.05411218 -0.13379882 -0.04522219
0000c0 c1 f3 71 be 3f 9e 38 3d 8b 52 5e bd 42 10 3f bd
       -0.23628141 0.04507279 -0.054277938 -0.046646364
0000d0 88 75 dd 3d d1 1e 16 be ed 2e 47 be e6 95 fb 3d
       0.10813433 -0.14660193 -0.19451495 0.1228445
0000e0 fb 85 10 bc 8e 54 77 be 03 b0 52 3e 97 49 8c be
       -0.008821006 -0.24153349 0.20574956 -0.27399895
0000f0 fa 11 dc 3d 14 2d f6 bd 7e 3d 96 3d 27 ce 9b 3b
       0.10745616 -0.12020317 0.073359475 0.0047548

actor.init_next_embed.0.module.weight f4 [32, 6]
000000 26 20 21 3e b2 61 17 be d2 09 99 be 1f a9 bc be
       0.1573492 -0.14783362 -0.29890305 -0.3684778
000010 b2 ca 2a be 00 d5 24 be c1 93 65 3c 51 ff c7 bd
       -0.16678885 -0.16096878 0.014012278 -0.097654946
000020 08 51 3f 3e 60 ec 0d be 6a a3 1a be 18 60 47 be
       0.18683255 -0.13859701 -0.151014 -0.1947025
000030 12 28 93 3e 0d 16 89 be 7b fc 83 be f8 bd 14 3d
       0.2874151 -0.26774636 -0.25778565 0.03631398
000040 44 78 cb be 75 10 e7 3e c8 9b c0 3b ff fb 14 3d
       -0.39740193 0.45129743 0.0058779456 0.036373135
000050 95 95 07 bd 42 15 e2 3e 31 39 df be 7d 6b ac be
       -0.033101637 0.44156843 -0.4359832 -0.33675757
000060 e5 b4 e1 3d 52 13 d8 be 94 1b fe bd d6 bf 82 be
       0.11020831 -0.4220224 -0.12407604 -0.25536984
000070 fc d9 c8 bd 21 ac 29 be 1a cb b0 bc cc c5 13 bf
       -0.09807202 -0.16569568 -0.021581221 -0.5772369
000080 bf 29 91 3e 46 9c 3a bf 01 56 1f be 02 38 04 3e
       0.28352162 -0.72894704 -0.15560152 0.1291199
000090 6b 2f 3e 3f 8c c7 d2 3d 90 5a 91 3d 99 cf 5f be
       0.74291104 0.10291967 0.070973516 -0.21856536
0000a0 49 94 8f bc 34 c7 95 be 56 8d b6 bd c3 59 c9 3d
       -0.017526763 -0.29253542 -0.089136764 0.09831574
0000b0 b6 52 15 3e 35 3f 9d 3d 27 aa a0 be de b4 30 3e
       0.14582333 0.076780714 -0.31379816 0.17256495
0000c0 9a 9c d6 be 79 28 17 bf 38 54 7a 3e 0e 3c 5e 3e
       -0.41916353 -0.5904613 0.2444619 0.21702597
0000d0 36 03 b4 3f f8 20 54 bf ca d9 e4 3d 8d a0 95 be
       1.406348 -0.82862806 0.111743525 -0.29224053
0000e0 02 a6 3a be 96 cd 9a 3d 96 26 a1 be 04 76 d2 be
       -0.1822739 0.07558744 -0.3147475 -0.41105664
0000f0 54 52 a8 be 36 78 3a 3e 44 12 84 3c ab fc c2 3e
       -0.3287531 0.1820992 0.016121991 0.38083395
000100 ec 3c 82 3e b0 6a ec be b4 a7 e4 3e a3 7c ef bc
       0.25437105 -0.46175146 0.44659197 -0.029234236
000110 0e 2d b1 bc 71 39 ac 3d b0 fb 03 3d 30 9c 34 3d
       -0.021627929 0.084093936 0.03222245 0.044094265
000120 78 e7 b6 be 91 7e 06 bd 63 50 15 3e 3c a4 87 3c
       -0.35723472 -0.032835547 0.14581446 0.016557805
000130 47 dd 64 be 14 17 ab be d4 24 a6 3d 0a a8 15 3c
       -0.22350036 -0.33416045 0.08112493 0.009134302
000140 54 46 fe 3d a5 02 e7 3d 84 99 42 be 09 2a 90 be
       0.12415758 0.11279801 -0.19003874 -0.2815707
000150 0a d7 97 3f 2d 89 69 be da 14 83 be e5 03 e2 be
       1.18625 -0.22806235 -0.25601846 -0.44143596
000160 42 99 71 be 96 7a 96 3d f0 5e 87 bc 10 3a 82 bd
       -0.2359362 0.073476 -0.016524762 -0.06358731
000170 69 6d 98 be c4 bb 8d be dd 0b 5e bd 1e f3 9f 3e
       -0.29770973 -0.27682316 -0.054210532 0.3124017
000180 3b da 8c be cc 78 0b bd 77 49 e6 bd e2 ae 01 be
       -0.27510247 -0.034050748 -0.11244481 -0.12664369
000190 b2 e9 d0 be bc de de 3d 3b 12 12 3f 30 f0 4e bd
       -0.40803295 0.10882327 0.5705907 -0.05052203
0001a0 52 bc 49 3e b7 c2 83 be a5 ea 72 bd 74 27 08 bc
       0.19700745 -0.25734493 -0.059305806 -0.008310188
0001b0 1d f5 57 bd 3d 85 93 3e 19 18 6a 3e 5a 98 9b 3c
       -0.052723993 0.2881259 0.22860755 0.018993545
0001c0 e6 f4 19 bd 08 81 99 3e 78 25 5d 3f 65 fe 79 3e
       -0.03758707 0.29981256 0.863853 0.2441345
0001d0 eb a9 b7 be 98 83 6c be 14 50 c6 3d 99 20 24 3e
       -0.35871825 -0.23097074 0.096832424 0.1602806
0001e0 ee 4e 88 3e 50 55 d6 3c 59 e4 14 bd 00 3d 07 be
       0.2662272 0.026163727 -0.03635058 -0.13206863
0001f0 bc 2e 82 be 35 dc 25 3e 66 f0 45 bc e2 10 58 be
       -0.2542628 0.16197284 -0.012081241 -0.2110019
000200 23 e0 37 bf f6 ec c3 bd d5 45 0c be 3f 88 30 bc
       -0.7182638 -0.09566681 -0.13698514 -0.010774671
000210 ce 88 eb 3d a4 45 17 be a0 75 c7 bd 74 22 04 3e
       0.11500703 -0.1477266 -0.09739232 0.12903768
000220 df 3b b5 be ba c8 4d 3d 50 a8 45 3f 0e 27 88 be
       -0.3539724 0.050240256 0.7720995 -0.26592296
000230 33 62 a9 3e c3 25 09 bf 61 fb 43 3e a0 61 21 3f
       0.33082733 -0.53573245 0.19138862 0.6303959
000240 08 cc ca 3f 5f dc cb bd 22 d6 3a be c9 06 bf be
       1.5843515 -0.09954142 -0.18245748 -0.37309864
000250 65 79 19 be d3 09 7f 3e 35 ec 30 3e b7 67 92 3e
       -0.14987715 0.24906091 0.17277606 0.28594753
000260 a8 c0 83 bd 14 0c 3a be bc b6 38 be a3 38 c1 be
       -0.06433231 -0.1816867 -0.18038458 -0.37738523
000270 21 cc 6b 3b 93 fe a3 be 6c 75 39 3e 84 d9 76 bd
       0.0035979825 -0.32030162 0.18111199 -0.060266033
000280 b5 c6 70 be 28 53 ec bc 7e b5 02 bf a3 c9 c3 be
       -0.235133 -0.028848246 -0.51058185 -0.38239774
000290 82 4f 41 be a0 47 3a be cc a5 16 3e a5 d7 0d be
       -0.18877986 -0.18191385 0.14711684 -0.13851793
0002a0 6d 74 f5 3e 65 97 52 3e 0a ec 9b bc b5 00 9a bf
       0.47940388 0.20565565 -0.01903345 -1.2031466
0002b0 f5 40 67 bd 14 4a 30 3e da 13 a0 3e ab 43 6c 3e
       -0.056458432 0.17215759 0.31265146 0.23072688
0002c0 ce f5 af be a4 13 50 bf e2 f1 f5 bd 7e 35 aa 3e
       -0.34367222 -0.8127997 -0.12009026 0.33243936
0002d0 40 73 fd bd a4 b2 84 be ec 67 97 3e 0a 9c 2c bd
       -0.12375498 -0.25917542 0.29571474 -0.042140998
0002e0 a4 3c 80 bd 64 2c d4 3d c2 75 b3 3d 89 e3 67 be
       -0.06261566 0.10360029 0.08762695 -0.22645392
0002f0 9d b3 f0 be 37 11 e4 be e4 fc 24 be cf 63 94 3d
       -0.47012034 -0.44544384 -0.16112095 0.072455995

actor.init_next_embed.0.add_bias._bias f4 [32, 1]
000000 62 f2 0c 3e ac c2 9e 3c fd a0 91 bd 41 52 d4 3c
       0.13764337 0.019379936 -0.07110784 0.025918128
000010 ea fd 9a 3c 4b c1 90 be 6a 62 ef 3d de d8 b6 bd
       0.018919904 -0.2827247 0.11688693 -0.08928083
000020 d2 0a 72 be ec 40 19 3d 75 aa 4a be 70 07 9e 3e
       -0.2363694 0.03741543 -0.19791587 0.3086505
000030 e4 1e 14 3b 3a b0 f3 3d f1 4a b7 3e d3 ef af 3e
       0.002260142 0.11898847 0.35799363 0.3436266
000040 49 88 ec bb f9 aa 5f be c1 2e 32 be 09 3b ac 3e
       -0.007218395 -0.21842565 -0.17400648 0.3363879
000050 64 fe bf bd 3d 59 1b 3d 39 bf 82 be 08 14 26 bd
       -0.09374693 0.0379269 -0.25536516 -0.040546447
000060 74 08 a6 3e 5e 24 2f bd 19 5e 05 be d5 a9 4e 3d
       0.32428324 -0.04275929 -0.13024177 0.050454933
000070 bd 36 1d 3d 6a 8e 2d 3e 39 8e 50 3e e5 06 02 3e
       0.03838228 0.16948858 0.20366754 0.12697943

actor.init_next_embed.2.module.weight f4 [64, 32]
000000 56 d3 ba 3d 50 2d d2 bd 1c 93 a6 bb 45 15 37 3e
       0.091223404 -0.10262549 -0.005083455 0.17879207
000010 0b 06 16 3e 19 3d a8 3d 7c 91 6d be 6f 8f 68 be
       0.14650743 0.082147785 -0.23200029 -0.22710966
000020 88 36 43 be da f9 9e 3e 5d 78 a9 3d e7 7f 14 bf
       -0.19063771 0.31049997 0.082749106 -0.58007663
000030 c2 f3 bb 3d d0 6b 96 3e 04 97 bb bd 22 fb d8 be
       0.091773525 0.2937913 -0.09159663 -0.423791
000040 0d 21 19 be ac 9a 84 3d 85 ce 80 bc 33 8b a6 be
       -0.14954014 0.06474814 -0.015723476 -0.32528076
000050 c4 d5 82 3d e3 16 6e bd 7e 18 f2 be 74 47 e0 be
       0.06388429 -0.058127295 -0.4728431 -0.43804514
000060 61 4a 24 bf 87 ef b2 3e 77 fe 2e be 86 26 c1 bd
       -0.64175993 0.3494837 -0.17089258 -0.09431176
000070 36 9e b9 3d 8c 12 2c 3c 0a 9b ba 3d d5 a5 4a be
       0.090633795 0.010502469 0.091116026 -0.19789822
000080 19 19 97 3e bc eb 72 bd 37 cf 26 bd 68 d9 8c bd
       0.29511335 -0.059306845 -0.04072496 -0.068774045
000090 e7 4a b8 bd 43 c5 27 be 70 cb cc bd 92 d7 e6 39
       -0.089986615 -0.16383843 -0.0999974 0.0004402963
0000a0 6b 04 d2 3e 6d ce 26 3d 9c 7f f4 3e 01 79 8a 3e
       0.41018996 0.040724207 0.47753608 0.27045444
0000b0 26 07 c6 bc 2e 84 38 bd ec 18 de bd b9 9b 46 bd
       -0.02417333 -0.04504793 -0.10844597 -0.048488352
0000c0 4f ae 39 3e 05 7b a6 3c 8a d6 9b bd a9 98 0c 3f
       0.181329 0.020322332 -0.076092795 0.5492044
0000d0 2b d4 2e 3e 23 55 9f 3c d9 32 72 3d 5d 6f 48 be
       0.17073123 0.019449776 0.059130523 -0.19573732
0000e0 0d 84 12 be d0 0b 60 3e 17 82 bc bb 8d 94 a1 be
       -0.14308186 0.21879506 -0.0057528126 -0.31558648
0000f0 f7 e1 b7 bd 25 d4 32 3d d8 4c 0d bd 70 85 61 3b
       -0.08978646 0.043659348 -0.034497112 0.003441181
000100 ae 5b 04 be 9c b9 02 3d d6 f9 36 3e 69 db 0b be
       -0.12925598 0.031915292 0.17868742 -0.13657917
000110 4b e2 76 ba d7 f1 4e 3e 8e ab c1 be 28 ee b2 be
       -0.00094178756 0.20209442 -0.37826198 -0.34947324
000120 d4 8a 94 be 44 27 12 be 0d 17 24 3d fc 75 71 3e
       -0.29012167 -0.14272791 0.040061045 0.23580164
000130 b4 ca b4 3d 05 5d 8d be 92 9b 43 bf 1c d6 94 3c
       0.08827725 -0.2761003 -0.76409256 0.018168502
000140 d4 00 6b be ed 33 83 3d f3 69 3c 3e 06 98 25 bd
       -0.22949535 0.064063884 0.18399791 -0.040428184
000150 67 7c a3 bd 79 87 a3 bd e2 c4 52 bd d5 cf 50 3e
       -0.07982712 -0.07984824 -0.051457293 0.20391782
000160 3a 9b 04 bf 07 5a cb 3d 61 57 54 be 60 7b 2c be
       -0.51799357 0.09929281 -0.20736457 -0.16843939
000170 7a 28 f9 be df 49 31 bf d7 c6 a7 be a3 e5 f1 bd
       -0.48663694 -0.69253343 -0.3276889 -0.11811378
000180 9a 21 7d bd bc 4f 1b 3e 28 4d bf 3e 1f b3 bd bd
       -0.061799623 0.15167135 0.37363553 -0.0926268
000190 c5 77 9e be 3f ec d3 3c 0d a6 ab be 4c 95 02 3e
       -0.30950752 0.025869487 -0.33525124 0.12752265
0001a0 09 2c c9 bd 3a 02 74 3e 23 0a ad be 7e 24 c3 3d
       -0.09822852 0.23828974 -0.33796796 0.09528445
0001b0 7c 72 e0 3d ac c7 56 3e cb 98 a0 be a6 3a 8f be
       0.10959336 0.20974606 -0.31366572 -0.27974433
0001c0 2d 2f 27 be 4c f5 50 3e a6 f4 01 3d 9e b3 be be
       -0.1632659 0.20406073 0.031727456 -0.37246412
0001d0 25 13 85 bc 3c 09 93 3d 25 72 28 3e 54 be 34 3f
       -0.01624448 0.07179496 0.16449793 0.7060292
0001e0 af 2e c1 be 21 b1 dc be f2 7a bf bd 18 e2 a6 be
       -0.3773093 -0.4310389 -0.09349622 -0.3259437
0001f0 a8 f8 ca be ea 9c 4d be 18 b0 a4 3d 3c c6 84 be
       -0.39642835 -0.20079389 0.080414 -0.2593249
000200 eb d9 2b be 4f d1 c6 be 81 c2 08 be 95 c4 7b 3e
       -0.16782348 -0.38831565 -0.13355447 0.24586709
000210 f9 54 f2 3d 8a 02 2d be a2 24 e2 bd 8c a0 ad bd
       0.118326135 -0.168955 -0.110421434 -0.084778875
000220 96 8e 0e 3e 43 74 f8 bd 69 08 7e be 4f 11 b3 bd
       0.1392158 -0.1213155 -0.24807896 -0.08743536
000230 b0 3a ef bc b8 26 fa 3c bd 32 e3 3d 43 95 49 bd
       -0.029202789 0.03053604 0.11093662 -0.049214613
000240 4e 5b 29 3e d4 0b 1d 3e 97 7e 18 be ec 29 75 be
       0.16538736 0.15336543 -0.1489204 -0.23941773
000250 1c e3 2f be 5c e7 c2 3d 86 be 1b 3e d3 c8 23 3e
       -0.17176479 0.095167845 0.15209398 0.15994577
000260 bd 13 42 3e 9a 47 be bd 88 4f e3 3e 59 f0 53 3e
       0.18952842 -0.09291001 0.44396615 0.20697154
000270 e4 f8 74 be ef 46 13 be 1e f9 99 bd e3 6e 4a bd
       -0.23923069 -0.14382528 -0.075182185 -0.049422156
000280 9a 44 0c bd 1b 30 dc bb 19 27 ab bc 9a 3b e1 bd
       -0.03424511 -0.006719602 -0.020892667 -0.10997696
000290 0d 8d ae 3e 61 f7 54 3e d5 85 a5 3d 44 2d 11 3e
       0.34091988 0.20797493 0.08082167 0.14177424
0002a0 e0 20 90 3d a4 4e 5d 3e 03 da 1e 3d 74 05 17 3f
       0.070375204 0.2161203 0.03878213 0.58992696
0002b0 18 45 2d 3d ff 01 a2 3e 0d d2 b0 3b 84 e5 ea 3e
       0.04230222 0.31642148 0.0053961338 0.45878232
0002c0 6d 23 f5 bc 44 3b a5 3e 6b de e2 3d 26 06 2c 3f
       -0.029924119 0.3227178 0.11077579 0.6719688
0002d0 41 0a 36 3d 6c 47 f9 bc 13 79 86 3e ad 22 e9 bd
       0.044443373 -0.030429564 0.26264247 -0.11383567
0002e0 f6 1d f5 3e 6e d9 a6 bd 7f d4 93 3d 5f 43 b1 3e
       0.4787442 -0.0814694 0.07218265 0.34621713
0002f0 79 43 05 be 40 31 a2 be f7 d6 50 3e 09 08 e7 bd
       -0.1301402 -0.316782 0.20394503 -0.112808295
000300 b3 f3 4e bd 3a f5 16 3e d9 74 89 bc 60 b2 39 3e
       -0.05052538 0.14741984 -0.01677935 0.18134451
000310 c9 ac 92 bd 59 9a d2 3c 73 18 59 be ee 2b a7 be
       -0.071618624 0.025708364 -0.21200733 -0.32650703
000320 bf 03 1d 3e ae f4 65 3e d7 ca 93 3d c9 a3 6c 3e
       0.1533346 0.22456619 0.07216423 0.23109354
000330 33 e1 dd 3c 46 6e 9b 3c ba 09 46 be 90 af 03 be
       0.027084922 0.01897348 -0.19339648 -0.1285994
000340 c2 ff b6 bc 52 ba 2b 3e dc 71 5a be 97 c6 ce bd
       -0.022338752 0.16770294 -0.21332496 -0.10096472
000350 51 12 4f 3e 07 8f 8b be 42 9d 2b 3e e2 40 09 3d
       0.20221831 -0.2725756 0.16759208 0.033509143
000360 82 0c 90 be ae 66 96 3d 67 1a 20 3d 7e a0 66 be
       -0.28134543 0.07343803 0.03908768 -0.2252216
000370 47 1c 76 be e7 20 80 be 3f 1f 6d 3e 71 30 91 be
       -0.24034224 -0.25025102 0.2315645 -0.2835727
000380 dc 1c 29 be 31 96 e2 3c f0 73 06 be c3 62 d0 3c
       -0.16514915 0.027659507 -0.13130164 0.025437718
000390 a2 ae 66 3e 94 e4 96 be 22 56 1b be 67 73 49 be
       0.22527555 -0.29471266 -0.15169576 -0.19672929
0003a0 6b 82 f7 3d 1f 4b f0 bc f7 58 b7 3e d1 60 90 3e
       0.12085422 -0.029332696 0.35810062 0.28198865
0003b0 a6 20 cc 3d 97 b1 9c 3e 9b c4 cd 3e 7c d2 01 3f
       0.09967165 0.3060424 0.4018906 0.507118
0003c0 ea 4f 8b 3d f6 d3 b2 3e 8a b9 4f 3e c5 03 55 3e
       0.06802352 0.34927338 0.20285621 0.20802219
0003d0 d5 2f ab be d3 9d 52 3c bc 12 29 be 75 94 07 3f
       -0.3343493 0.012855011 -0.16511053 0.529609
0003e0 43 9a e6 3e 00 ea c8 3c 28 b8 bc 3d 1e e2 c0 bd
       0.45039567 0.024525642 0.092148125 -0.094181284
0003f0 d6 3b b4 3d ae ec 83 3e 0a 18 d6 3d bb 3e 9c 3e
       0.08800475 0.2576651 0.10453804 0.3051661

actor.init_next_embed.2.add_bias._bias f4 [64, 1]
000000 a5 7b 4b bf 19 44 ad be 79 81 2b bf 73 ef e5 be
       -0.7948554 -0.33841017 -0.66994435 -0.44909248
000010 4c d2 93 bd 31 14 59 3f fe 20 c7 be b4 80 f1 3e
       -0.07217845 0.84796435 -0.3889236 0.47168505
000020 cd 89 9b 3f f3 61 e9 be 17 9e 14 bf 6a 87 37 3e
       1.2151428 -0.45582542 -0.58053726 0.1792275
000030 e2 9c 83 3f 42 bd a4 bf 84 6b 76 bf 98 9c 7b bf
       1.0282252 -1.2870257 -0.96257806 -0.9828582
000040 72 f5 42 bf 4a 23 3b 3f 8b bf db 3e 96 f0 15 bd
       -0.7615577 0.7310072 0.42919573 -0.036606394
000050 60 41 f3 bd ba da 70 be 67 03 76 bf bc d4 50 3e
       -0.11877704 -0.23520938 -0.9609894 0.20393652
000060 05 69 04 c0 7d d8 03 bf 4c 0c e2 be f6 8b 6f bf
       -2.06891 -0.5150221 -0.44150007 -0.9357294
000070 0a 5d 96 3e 69 ae 47 3e a8 cd 33 bf 78 e2 6d bf
       0.29367858 0.19500126 -0.7023568 -0.9292369
000080 bb 14 d1 be bd 90 2b 3f 8b d6 d0 bd 6f a9 34 bf
       -0.4083613 0.6701773 -0.10197171 -0.70571035
000090 93 39 ba 3f ab b9 0a 3f ea db 5f be a6 54 25 3e
       1.454882 0.54189557 -0.21861234 0.16145572
0000a0 28 42 bf bf 4a d5 9c 3f d9 c2 fb be 9f 6d be bf
       -1.4942064 1.2252591 -0.49172094 -1.4877204
0000b0 db 2d 99 3e f0 25 87 3f 46 b7 7f 3f 12 80 16 3f
       0.29917797 1.0558453 0.9988903 0.5878917
0000c0 a8 f4 75 be b3 93 ee 3e a5 1f 00 3f a4 5b 2f 3f
       -0.2401911 0.4659706 0.50048286 0.6849921
0000d0 fd 6a c6 3e 0b 5b ad be d2 1c d9 3d be 85 1f bf
       0.387535 -0.33858523 0.106012 -0.6231345
0000e0 96 f6 ab 3c aa 99 f6 3e ab 2d 28 bf 4c 79 b0 3e
       0.020991605 0.4816411 -0.65694684 0.34467542
0000f0 83 74 47 3f 80 34 11 3f 49 05 ac 3d 73 33 a9 3e
       0.7791216 0.56720734 0.083994456 0.33047065
