logs/experiment/Discrete_A2C_1-5Box_10x10x10Bin-2022.08.09-15-00-00/PCT-Discrete_A2C_1-5Box_10x10x10Bin-2022.08.09-15-00-00_2022.08.09-20-28-04.pt (torch, 236314 bytes, 24 tensors)

actor.init_internal_node_embed.0.module.weight f4 [32, 6]
0	0xbf053573	-0.5203468
1	0x3ce6da84	0.028180368
2	0xbf26c779	-0.6514812
3	0x3d59f4c0	0.053211927
4	0xbe51222a	-0.20423189
5	0x3ccdd324	0.025125094
6	0xbd8efd5e	-0.0698192
7	0x3e191a42	0.14951423
8	0xbeb2e5eb	-0.34941038
9	0xbe846534	-0.25858462
10	0xbebbf96f	-0.3671374
11	0xbed68091	-0.41894963
12	0xbdc6e582	-0.09711744
13	0x3d7893d8	0.06068787
14	0x3e4752ad	0.19465132
15	0x3e72c782	0.23708919
16	0x3dd97f04	0.106199294
17	0xbf2ce686	-0.6753925
18	0x3ea70b0e	0.32625622
19	0xbe529ef9	-0.20568456
20	0x3e946b7f	0.28988263
21	0xbf042b7f	-0.5162887
22	0xbdde7abd	-0.10863254
23	0x3f20dad0	0.6283388
24	0xbda6b417	-0.08139818
25	0xbebf387a	-0.37347776
26	0x3e2d99d5	0.16953214
27	0x3d9499ba	0.072558835
28	0x3e8efc01	0.2792664
29	0x3f527463	0.8220884
30	0xbd0ab0d9	-0.03386006
31	0x3d85a232	0.06525077
32	0x3e702f32	0.23455504
33	0x3c8a1a8b	0.01685836
34	0xbd89f2fb	-0.06735798
35	0xbe793dbc	-0.24339956
36	0x3f9d2039	1.2275459
37	0xbecd7bb4	-0.4013344
38	0xbf5028fd	-0.81312543
39	0xbfacf9f5	-1.3513781
40	0x3f20c418	0.62799215
41	0x3f321dcd	0.6957672
42	0xbeba6ba6	-0.36410254
43	0xbeae9e67	-0.34105226
44	0x3d5fa259	0.054598186
45	0xbe592f6f	-0.212095
46	0x3e8e955a	0.2784832
47	0x3f168cb9	0.58808476
48	0xbdd78717	-0.10523813
49	0x3ed51f32	0.41625363
50	0x3f1cf883	0.613167
51	0xbe516b4b	-0.20451085
52	0xbe7b37b1	-0.24532963
53	0x3ea86370	0.32888365
54	0x3ecf6fe1	0.40515044
55	0xbd889c91	-0.06670488
56	0x3f0668bf	0.5250358
57	0xbd91ea5a	-0.07124777
58	0xbd7f9d72	-0.06240601
59	0xbd0e3130	-0.034714878
60	0xbee675d1	-0.45011762
61	0xbea27108	-0.3172686
62	0xbea09bc6	-0.31368846
63	0x3efc1d41	0.4924107
64	0x3e944769	0.28960732
65	0xbe96375d	-0.29339114
66	0xbdeb7499	-0.114968486
67	0x3f27b87d	0.6551588
68	0xbef0854d	-0.469767
69	0x3e146ca1	0.14494564
70	0xbf26c70d	-0.6514748
71	0x3eebc76a	0.46050578
72	0x3eafa6b7	0.3430688
73	0xbf177fc8	-0.59179354
74	0xbe805a6f	-0.25068995
75	0x3e63d02f	0.22247384
76	0xbe8a78df	-0.27045342
77	0x3e37508f	0.17901824
78	0x3e3c9452	0.18415955
79	0x3e7df6c7	0.2480117
80	0xbdaa0fbb	-0.083037816
81	0xbe91dcd3	-0.28488788
82	0xbd25f203	-0.040514003
83	0xbe0c1ef9	-0.1368369
84	0x3e884432	0.2661453
85	0xbbc1116d	-0.00589197
86	0x3aaaf301	0.0013042392
87	0xbe1a1770	-0.15048003
88	0xbb923c7d	-0.004462777
89	0x3d080f46	0.03321769
90	0x3eaca4c2	0.3371945
91	0xbdf4343b	-0.11924025
92	0x3ea4a259	0.3215511
93	0xbe76f094	-0.24115211
94	0xbe4c8e39	-0.19976129
95	0x3e8397e0	0.2570181
96	0xbefe030c	-0.496117
97	0xbf07d311	-0.53056437
98	0xbeb85651	-0.36003354
99	0xbec190d1	-0.378058
100	0xbdfe8c09	-0.12429053
101	0xbe8dc846	-0.2769186
102	0x3c65e3b4	0.014031339
103	0x3e1de4bb	0.15419285
104	0x3ea2ed17	0.3182151
105	0xbda18171	-0.07886017
106	0xbcac9711	-0.021068128
107	0xbb81e4bf	-0.0039640362
108	0xbdca839d	-0.098883845
109	0xbf34495e	-0.7042445
110	0xbf2cac48	-0.6745038
111	0xbd872f1d	-0.06600783
112	0xbe22a1a7	-0.15881978
113	0xbe1dfa9f	-0.15427636
114	0x3e7247b7	0.2366017
115	0xbdc15490	-0.09439957
116	0xbf4e261f	-0.8052692
117	0xbd98566f	-0.07438361
118	0xbda424ae	-0.080148086
119	0x3ed2356b	0.4105638
120	0x3cc974bc	0.024591796
121	0xbe6be793	-0.23037557
122	0xbc3725eb	-0.011178474
123	0xbed236c1	-0.410574
124	0xbf2f476d	-0.6846836
125	0x3dd9757a	0.1061811
126	0xbd9f9982	-0.07792951
127	0xbecb823c	-0.39747798
128	0xbf25bc14	-0.6474011
129	0x3d9522c9	0.07282025
130	0x3e95a9ff	0.2923126
131	0x3f1c829c	0.61136794
132	0xbeb37579	-0.35050562
133	0x3cb33dc8	0.021880046
134	0xbf4bee93	-0.7966091
135	0x3e9e3165	0.3089706
136	0x3efc3b7e	0.4926414
137	0x3ccea1fb	0.025223723
138	0x3de05f81	0.10955716
139	0xbd3e2f4b	-0.04643182
140	0xbedc3ba7	-0.4301426
141	0xbe28ea1d	-0.16495557
142	0xbedb5180	-0.42835617
143	0xbf0ef8aa	-0.5584818
144	0x3e240ad8	0.16019762
145	0xbe198761	-0.14993049
146	0x3f3c677e	0.73595417
147	0xbc4ecc70	-0.012621984
148	0x3e06b55c	0.1315512
149	0xbdccb768	-0.099959195
150	0x3dad546c	0.08463368
151	0xbe886a00	-0.26643372
152	0xbf0d2ce6	-0.55146635
153	0x3e569b2e	0.20957634
154	0x3eca950f	0.39566848
155	0xbe06a27b	-0.13147919
156	0x3f1adbc8	0.6049161
157	0x3d19356b	0.03740446
158	0x3e5dc70d	0.21657963
159	0x3e3b600c	0.18298358
160	0xbe264094	-0.16235572
161	0xbe730414	-0.23732024
162	0x3eb66c26	0.35629386
163	0x3d16bfe0	0.03680408
164	0xbe65aea9	-0.22429909
165	0x3ee4af7b	0.4466513
166	0x3d97d960	0.07414508
167	0xbdec2634	-0.11530724
168	0xbdd3ee62	-0.10348202
169	0xbe636538	-0.2220658
170	0x3e0a5e5e	0.1351256
171	0x3f092740	0.53575516
172	0x3effde3a	0.49974233
173	0xbf5005ec	-0.81259036
174	0x3e84116a	0.25794536
175	0xbe6e6971	-0.2328241
176	0xbec5aafd	-0.38607016
177	0xbda13979	-0.0787229
178	0x3dafa630	0.085766196
179	0xbccabdf6	-0.024748784
180	0xbea6b964	-0.32563317
181	0xbecf2f8c	-0.40465963
182	0x3faa8adb	1.3323625
183	0xbdd6591e	-0.104662165
184	0xbe642f4e	-0.2228367
185	0x3de388d0	0.11110079
186	0x3e6cfc6f	0.23143171
187	0x3d986c20	0.07442498
188	0xbdb85a1e	-0.090015635
189	0x3d7aed6b	0.061261576
190	0xbe1db621	-0.15401508
191	0xbde523b6	-0.11188452

actor.init_internal_node_embed.0.add_bias._bias f4 [32, 1]
0	0x3c5323a4	0.012886915
1	0xbea862f0	-0.32887983
2	0xbbb2e4e6	-0.0054594157
3	0xbcb432a6	-0.021996807
4	0x3e15f3ba	0.14643756
5	0x3d1f3179	0.03886554
6	0x3bca6c98	0.006177496
7	0xbc097063	-0.0083886115
8	0x3d35d21e	0.044389836
9	0x3dd79418	0.105262935
10	0x3be741b7	0.0070573944
11	0x3c84c2fb	0.016206255
12	0xbacd504c	-0.0015664189
13	0x398996b8	0.0002624297
14	0xbc583671	-0.013196574
15	0x3cf1cb33	0.029515838
16	0xbe964fbf	-0.29357716
17	0xbd755ce4	-0.05990304
18	0x3d2dde7d	0.04244851
19	0x3aebbf17	0.0017986026
20	0xbe831887	-0.2560465
21	0x3d696492	0.056980677
22	0x3d4c5fe5	0.04989614
23	0x3def44ca	0.11683042
24	0x3d0bb1ab	0.034104984
25	0x3b61f507	0.0034478323
26	0x3bd24d3d	0.006417899
27	0x3d904ba6	0.07045679
28	0x3cdeb8dd	0.027187759
29	0xbd41db0b	-0.047328036
30	0x3d92c709	0.07166869
31	0xbd8f2590	-0.06989586

actor.init_internal_node_embed.2.module.weight f4 [64, 32]
0	0x3df98c1c	0.12184927
1	0x3e2cebba	0.16886798
2	0xbe150854	-0.14553958
3	0x3df47a56	0.11937396
4	0x3c5300b0	0.012878582
5	0x3dec49df	0.11537527
6	0x3df8ba53	0.121449135
7	0x3f0572af	0.5212812
8	0x3e91e251	0.28492978
9	0xbdea4816	-0.114395306
10	0x3f50a320	0.8149891
11	0x3e340540	0.17580128
12	0x3d395703	0.045248996
13	0xbe3cff72	-0.1845682
14	0xbf319b20	-0.69377327
15	0x3e943866	0.2894928
16	0xbcca9292	-0.024728093
17	0x3e700253	0.23438387
18	0x3cf7fe54	0.03027264
19	0x3e57d277	0.2107638
20	0xbe66cfb7	-0.22540174
21	0x3e2b75ef	0.16744207
22	0x3f8fc651	1.1232396
23	0xbcf2d25a	-0.029641319
24	0x3f124230	0.57132244
25	0x3e52e91f	0.20596741
26	0x3e33d6d2	0.17562416
27	0x3e926705	0.28594223
28	0x3dbef4d6	0.093240425
29	0xbc36e52a	-0.011163035
30	0xbe3f40d4	-0.18677074
31	0x3cf95058	0.030433819
32	0x3eaba07c	0.33520877
33	0x3db7209e	0.08941768
34	0xbf077502	-0.52912915
35	0xbefbb8be	-0.49164385
36	0xbcbd5e3d	-0.023116225
37	0x3e775a01	0.24155428
38	0x3dae8bbf	0.08522748
39	0xbeb5e876	-0.35528916
40	0xbe59e0e3	-0.21277194
41	0x3e419897	0.18905865
42	0x3ee63cb0	0.44968176
43	0x3dffcf63	0.12490728
44	0x3ecc9eec	0.39964998
45	0x3cd0466d	0.025424207
46	0xbd1cd264	-0.03828658
47	0x3e73fa7c	0.23826021
48	0xbd649931	-0.055810157
49	0xbdcbd369	-0.09952433
50	0xbdf8ae25	-0.121425904
51	0xbe181420	-0.14851427
52	0x3d2d3423	0.04228605
53	0x3eacbae3	0.33736333
54	0x3f6ea66e	0.932227
55	0x3ea842df	0.3286352
56	0xbe584ba7	-0.21122609
57	0x3e100b9f	0.14066933
58	0x3ca485a1	0.02008325
59	0x3da72167	0.08160668
60	0x3f2e60af	0.6811628
61	0x3e3b04a2	0.18263486
62	0x3e46fc58	0.19432199
63	0xbcb1ba4b	-0.021695277
64	0xbe8873f3	-0.26650962
65	0x3c032e9e	0.00800672
66	0x3f06a055	0.525884
67	0x3f1ffb29	0.62492615
68	0x3f0c23dd	0.54742223
69	0xbc1cd2ef	-0.009571775
70	0xbea999b6	-0.33125085
71	0x3f875850	1.0573826
72	0xbe85854a	-0.26078254
73	0xbea0a086	-0.3137247
74	0xbefa28b9	-0.48859194
75	0xbf47f075	-0.78101283
76	0x3daa5679	0.083172746
77	0x3e72487f	0.23660468
78	0x3f097061	0.536871
79	0xbf15cd34	-0.5851624
80	0xbdb1097f	-0.08644389
81	0x3d80bbf9	0.06285853
82	0x3d344993	0.04401548
83	0xbece431a	-0.4028557
84	0xbd004e71	-0.031324808
85	0x3ef96f0b	0.48717532
86	0xbdae076f	-0.084975116
87	0xbe70e778	-0.23525798
88	0xbdd2ce75	-0.10293285
89	0xbafe7137	-0.0019412403
90	0x3d167073	0.036728334
91	0x3bee5064	0.007272767
92	0x3e86fad9	0.26363257
93	0xbe2a1646	-0.16610059
94	0x3e63311b	0.22186701
95	0x3e06f8b8	0.13180816
96	0xbb81ad46	-0.0039574234
97	0xbe60b184	-0.21942717
98	0xbcb6c2ea	-0.02230974
99	0x3ef562e6	0.47927016
100	0x3df35e86	0.11883263
101	0x3abf10e7	0.0014577181
102	0x3d2598e8	0.040429026
103	0x3e4d791e	0.20065734
104	0x3d1f969e	0.038962
105	0xbd30c346	-0.043154977
106	0x3d62c64c	0.055364892
107	0xbde8931e	-0.113561854
108	0xbe9936aa	-0.29924518
109	0x3d9c7db3	0.07641163
110	0xbeaf782a	-0.34271365
111	0xbc98c348	-0.018647805
112	0x3de12098	0.10992545
113	0xbe9937f7	-0.2992551
114	0x3dfe82e6	0.12427311
115	0x3d827622	0.06370188
116	0xbe870d78	-0.26377463
117	0x3f1f9219	0.623323
118	0xbe17a7e0	-0.14810133
119	0x3e88db0c	0.2672962
120	0x3e590e99	0.21196975
121	0x3c6cbc93	0.0144492565
122	0x3df5e628	0.120067894
123	0x3e9f788e	0.31146663
124	0x3e1f7c62	0.15574792
125	0xbd34b6f8	-0.044119805
126	0xbea41837	-0.32049724
127	0x3e5531c7	0.2081977
128	0x3e9d895c	0.3076886
129	0xbe0114df	-0.12605618
130	0xbe623e81	-0.22094156
131	0x3dc061b8	0.09393638
132	0xbf141426	-0.57843244
133	0xbde0d20e	-0.10977565
134	0x3ef22e1c	0.47300804
135	0xbf0243b1	-0.5088454
136	0xbf1c5d37	-0.61079735
137	0x3efbe3c6	0.49197215
138	0x3ed9381f	0.4242563
139	0x3ec1700e	0.37780803
140	0xbd321184	-0.043473735
141	0xbe4403db	-0.19142096
142	0x3e9f8252	0.31154114
143	0xbd4aa092	-0.049469538
144	0xbb9b0aa4	-0.004731493
145	0xbe0c022b	-0.13672702
146	0xbc2f75e4	-0.01070926
147	0x3dd3dccc	0.10344848
148	0xbe16c201	-0.14722444
149	0x3edded0b	0.43344912
150	0x3e4e0d57	0.20122276
151	0xbd429496	-0.047504984
152	0xbe5120a3	-0.20422606
153	0x3e787602	0.24263766
154	0x3e8e9884	0.27850735
155	0x3de2c709	0.11073119
156	0x3f163934	0.58681035
157	0x3d80c7b6	0.06288092
158	0x3e3ca6e5	0.1842304
159	0xbe08c89c	-0.13357776
160	0xbe8e516f	-0.27796504
161	0xbdce733c	-0.10080573
162	0xbd4ce00c	-0.050018355
163	0xbc971d42	-0.018446568
164	0x3f612ccf	0.87959
165	0xbe8dc399	-0.27688292
166	0xbe761f69	-0.2403542
167	0x3e9d42b0	0.3071494
168	0x3e4e1e5c	0.20128769
169	0xbd57e516	-0.052708708
170	0x3f5492d8	0.83036566
171	0xbeaf7a5a	-0.34273034
172	0xbd1c2fa5	-0.038131375
173	0xbe411ba0	-0.18858194
174	0x3c27c4e0	0.01023981
175	0x3e9b52d3	0.30336627
176	0x3e5df889	0.2167684
177	0x3e6abbf7	0.22923265
178	0xbd9dd0fd	-0.07705877
179	0x3d1c9021	0.03822339
180	0xbd3545e9	-0.044256125
181	0x3d847ba8	0.06468898
182	0x3ec28ff9	0.38000467
183	0xbf1919b4	-0.59804845
184	0xbad4eadb	-0.0016244309
185	0x3e8b84a2	0.27249628
186	0x3e6fef15	0.23431046
187	0x3ee489e4	0.44636452
188	0x3c0f94a0	0.008763462
189	0xbdeb9945	-0.11503843
190	0xbce97a52	-0.02850071
191	0x3e2be98b	0.16788308
192	0x3e9ff17b	0.31238922
193	0x3c45eda3	0.012080583
194	0x3e15ffca	0.14648357
195	0xbce445f1	-0.027865382
196	0x3ef12674	0.4709965
197	0x3d45a9cf	0.048257645
198	0xbe4fa2a3	-0.20276885
199	0x3e26b1c2	0.16278747
200	0x3d0484a9	0.032353077
201	0xbe72f69b	-0.23726885
202	0x3ea9d4ec	0.3317026
203	0xbe5d2217	-0.21595035
204	0xbe9c509f	-0.3053026
205	0xbc48cff6	-0.012256613
206	0x3e88a96b	0.26691756
207	0xbef921b7	-0.48658535
208	0x3c402a2d	0.0117288055
209	0xbea9cee8	-0.3316567
210	0x3d9ad3ff	0.07559966
211	0xbd142b18	-0.03617391
212	0x3baec5cf	0.005333639
213	0x3db45ced	0.08806787
214	0x3bb03771	0.005377703
215	0x3e68b82c	0.22726506
216	0xbddce2df	-0.1078546
217	0x3db86291	0.09003175
218	0xbe4a20a6	-0.19739017
219	0x3eeaf1a3	0.4588748
220	0xbeb0ee0c	-0.34556615
221	0x3db0ed34	0.08638993
222	0xbeea5a51	-0.4577203
223	0xbd72356c	-0.05913298
224	0xbdf50b67	-0.119650654
225	0xbdfba2b3	-0.12286892
226	0xbef2224d	-0.47291794
227	0xbea6c3f2	-0.3257137
228	0xbeb64ac2	-0.3560391
229	0xbca02e89	-0.01955344
230	0x3e2d7977	0.16940866
231	0xbd41ef76	-0.04734751
232	0x3e35dcc9	0.17760004
233	0x3ea8cdc1	0.32969478
234	0x3ee936a5	0.45549503
235	0x3ee73d1c	0.4516381
236	0xbe479578	-0.19490612
237	0x3da4e0ac	0.08050665
238	0xbe5c486c	-0.21512002
239	0xbd52f828	-0.05150619
240	0xbd7caa0b	-0.061685603
241	0xbe3cf598	-0.18453062
242	0x3e564e54	0.20928317
243	0x3e464bc2	0.19364837
244	0x3d07e870	0.033180654
245	0xbedeb2bd	-0.4349574
246	0x3f2663d9	0.64996105
247	0xbb7aede0	-0.0038288757
248	0xbf1850e2	-0.5949842
249	0x3e0206e5	0.12697943
250	0xbeb94056	-0.36181897
251	0xbeeaf783	-0.4589196
252	0x3f2e8128	0.68165827
253	0x3e4347a3	0.19070296
254	0x3ec0938f	0.37612578
255	0xbddc2a56	-0.107502624

actor.init_internal_node_embed.2.add_bias._bias f4 [64, 1]
0	0x3e35089f	0.1767907
1	0x3e9aa8aa	0.30206805
2	0xbd5a046b	-0.05322687
3	0x3da1905b	0.07888862
4	0x3e1de478	0.15419185
5	0x3e961b6f	0.29317805
6	0x3d2a1421	0.041523103
7	0x3de502a3	0.111821435
8	0xbda31966	-0.07963829
9	0xbdc70697	-0.09718054
10	0x3bc95318	0.0061439388
11	0x3d3b29d4	0.045694187
12	0xbd7a136e	-0.061053686
13	0x3da3dfab	0.08001646
14	0x3e0fd61b	0.14046519
15	0x3e177e7c	0.14794344
16	0x3c6c231f	0.01441267
17	0xbe482db1	-0.1954868
18	0x3caf8ec0	0.021430373
19	0x3dac1362	0.084021345
20	0xbc1942f9	-0.009354346
21	0x3cccffa6	0.025024246
22	0xbd684a51	-0.0567115
23	0xbd933bb2	-0.0718912
24	0x3e00f95e	0.12595126
25	0xbd2ef983	-0.04271842
26	0xbd29d08e	-0.04145866
27	0x3d2a16f9	0.041525815
28	0xbdc897c7	-0.09794574
29	0xbba5dd45	-0.005061778
30	0x3c8784be	0.016542789
31	0xbbbded4b	-0.00579611
32	0x3da15b67	0.07878762
33	0x3ce8d795	0.02842311
34	0x3e8d02f1	0.27541307
35	0xbd882398	-0.06647414
36	0x3cb29f1e	0.021804389
37	0xbe146c90	-0.14494538
38	0xbd0be2ae	-0.034151725
39	0x3e4b2a92	0.19840458
40	0xbd40bac9	-0.047053132
41	0xbe7f311b	-0.24921076
42	0x3e1a49e5	0.15067251
43	0xbc29b601	-0.0103583345
44	0xbe07bffd	-0.13256831
45	0xbd4a0787	-0.049323585
46	0xbe97755f	-0.29581735
47	0xbe892fa1	-0.2679415
48	0x3e8ab888	0.2709391
49	0x3c69fc92	0.014281409
50	0x3dc4c73a	0.09608312
51	0x3d8a0128	0.06738502
52	0xbc9feedb	-0.019523075
53	0xbc66ef5c	-0.014095154
54	0xbd2cc3b6	-0.042178832
55	0x3e56a056	0.20959601
56	0x3e68cb42	0.22733787
57	0xbd9f7d82	-0.077876106
58	0x3c462b05	0.012095218
59	0x3d415eb4	0.047209457
60	0x3d657f71	0.05602974
61	0x3de17221	0.110080965
62	0xbd2bbdf9	-0.04192922
63	0x3c966e0b	0.01836302

actor.init_leaf_node_embed.0.module.weight f4 [32, 8]
0	0xbd9b7617	-0.07590883
1	0xbeaf929e	-0.34291548
2	0xbec9ea57	-0.394366
3	0xbd96021d	-0.07324622
4	0x3e2cc65b	0.16872542
5	0x3ebdf932	0.37104183
6	0x3efdbaae	0.49556488
7	0x3e8a0761	0.26958755
8	0xbecdae7a	-0.40172178
9	0xbf2f4a30	-0.68472576
10	0xbd8d64b0	-0.0690397
11	0xbea17e3d	-0.31541625
12	0xbe739174	-0.23785955
13	0x3eaa7aad	0.3329672
14	0xbcb4d3e4	-0.022073694
15	0x3ebabde5	0.36473003
16	0x3e4d0326	0.20020732
17	0xbec0e77c	-0.3767661
18	0xbe00910e	-0.12555334
19	0x3ed1701f	0.40905854
20	0x3b38972d	0.002816628
21	0xbea27106	-0.31726855
22	0xbd682d08	-0.05668357
23	0xbd8a1e79	-0.067440934
24	0xbece5bbf	-0.40304372
25	0xbe48a09e	-0.1959252
26	0xbe77f7c0	-0.24215603
27	0xbe81c051	-0.25342038
28	0x3eaa7524	0.33292496
29	0x3d38eb2b	0.04514615
30	0x3ee70d99	0.45127562
31	0x3de9e4b1	0.114205725
32	0xbd103af2	-0.035212465
33	0xbe3298c8	-0.17441094
34	0x3d9604b4	0.07325116
35	0x3ddecf58	0.108793914
36	0x3ebee361	0.3728285
37	0x3e06a495	0.1314872
38	0xbeff5005	-0.49865738
39	0x3ec852a0	0.39125538
40	0x3dc19798	0.09452742
41	0x3e16bdaf	0.14720796
42	0xbf08d550	-0.5345049
43	0x3e211985	0.15732391
44	0xbeee482e	-0.46539444
45	0x3f064a08	0.5245671
46	0xbdfaade4	-0.12240198
47	0xbe838a89	-0.2569163
48	0xbec35685	-0.38151947
49	0xbe370ae6	-0.17875251
50	0xbd839ef7	-0.064268045
51	0x3cfe73e4	0.03106112
52	0x3d8f840d	0.070076086
53	0xbe4cc6a6	-0.19997653
54	0xbdcc6865	-0.09980849
55	0xbde01580	-0.10941601
56	0x3ec36ad6	0.38167447
57	0xbee1b258	-0.44081378
58	0x3e85008a	0.25976974
59	0x3ee7cdd0	0.4527421
60	0xbd0eb110	-0.03483683
61	0x3ec6fb90	0.38863802
62	0x3d381e3e	0.044950716
63	0x3e66c219	0.2253498
64	0x3dd5f526	0.10447149
65	0x3dff629b	0.124699794
66	0xbe2c7c8b	-0.16844384
67	0x3eac90d9	0.3370426
68	0x3dcc4391	0.09973825
69	0x3daee7b6	0.08540289
70	0x3efb1266	0.49037474
71	0x3eb22f08	0.34801507
72	0xbdb5ab63	-0.0887058
73	0x3eab7ddb	0.33494458
74	0xbe37f701	-0.17965318
75	0x3e9aaef0	0.30211592
76	0x3cfde772	0.03099415
77	0xbdf59d3a	-0.11992879
78	0x3ee7a1b2	0.4524055
79	0xbe9905c9	-0.29887226
80	0x3d53ee13	0.051740717
81	0x3dc34dec	0.09536347
82	0x3e8ea474	0.27859843
83	0xbd8b0c89	-0.067895
84	0x3eb362a3	0.3503619
85	0xbcf87b6b	-0.030332288
86	0xbe45b2c8	-0.19306481
87	0x3cad61e2	0.021164838
88	0xbe9153a4	-0.28384125
89	0x3d028aa4	0.0318705
90	0x3e3c78dd	0.1840548
91	0x3dbd6c60	0.092491865
92	0x3eef45e3	0.46733007
93	0x3dc6db35	0.09709779
94	0xbc888392	-0.0166643
95	0xbeb7411b	-0.3579186
96	0x3ec72812	0.3889776
97	0x3d9bf203	0.076145194
98	0x3f115298	0.56766653
99	0xbeaf2d9a	-0.3421448
100	0xbdb16924	-0.08662632
101	0xbd84c549	-0.06482942
102	0x3ebbf32c	0.36708963
103	0xbdeec120	-0.116579294
104	0xbe584f70	-0.21124053
105	0x3cf664b9	0.030077325
106	0x3e8490e1	0.25891784
107	0xbe0e19c6	-0.1387702
108	0xbe8e845e	-0.27835363
109	0xbe5cd65f	-0.21566151
110	0x3eb62cc3	0.35581025
111	0x3d9c2aa3	0.0762532
112	0x3e337f18	0.17528951
113	0xbca7e0c6	-0.020492923
114	0x3e2588f8	0.1616553
115	0x3ee7eba9	0.45296982
116	0x3df0a89e	0.11750911
117	0x3ed25701	0.41082004
118	0x3de94312	0.11389746
119	0xbd94f0af	-0.07272469
120	0x3f0158fb	0.505264
121	0x3e0ff85a	0.14059582
122	0xbdef150f	-0.116739385
123	0xbf06c5f7	-0.5264582
124	0x3e413fa3	0.18871932
125	0x3ef22a85	0.47298065
126	0x3d124a72	0.035715528
127	0xbe9c02cf	-0.30470893
128	0xbd4fdeb8	-0.05074951
129	0x3dacceb4	0.08437863
130	0xbe9360ec	-0.28784883
131	0x3eb66fb1	0.3563209
132	0x3e446668	0.1917969
133	0x3c84eb4e	0.016225483
134	0xbe77f7e4	-0.24215657
135	0x3da090b2	0.078400984
136	0xbdaf88dc	-0.08571026
137	0x3ebff69c	0.37492836
138	0x3de151c1	0.110019214
139	0x3da1f96c	0.079089016
140	0xbe8c4d8c	-0.27402914
141	0x3db8d654	0.09025255
142	0x3e3de466	0.18544158
143	0x3e936ec6	0.2879545
144	0xbe52e8a1	-0.20596553
145	0x3d4f0bea	0.05054847
146	0x3d8a89ad	0.06764541
147	0xbeb5cbec	-0.35507143
148	0xbe71d585	-0.23616607
149	0x3eb7abaf	0.35873172
150	0x3d48bb5c	0.049006805
151	0x3df4d329	0.11954338
152	0xbec66aa1	-0.38753226
153	0x3e0fbf7c	0.14037889
154	0xbdc2f5bb	-0.095195256
155	0x3e8e2dca	0.2776931
156	0x3d47d62a	0.048788227
157	0x3f052de5	0.52023154
158	0xbdb772ae	-0.0895742
159	0x3dd91ab7	0.106007986
160	0xbe788b4f	-0.24271892
161	0xbe8ae533	-0.2712799
162	0xbe9d7ff3	-0.3076168
163	0xbd417d6f	-0.047238763
164	0x3ce3fdeb	0.027831038
165	0x3ed588c0	0.41705894
166	0xbe10a5a2	-0.14125684
167	0xbe862f68	-0.26208043
168	0x3e05dc8a	0.1307241
169	0xbe137643	-0.14400582
170	0x3ef8b621	0.48576453
171	0xbde269c2	-0.11055328
172	0x3ca8edd2	0.020621214
173	0xbde49f85	-0.111632384
174	0xbe47a64e	-0.19497034
175	0x3d6d99a4	0.05800785
176	0xbea84764	-0.32866967
177	0x3eb52834	0.35382235
178	0x3c859954	0.016308464
179	0x3ea31543	0.3185216
180	0x3e7dacec	0.24772996
181	0x3e38d251	0.1804898
182	0x3df1c9c3	0.11806061
183	0x3e076341	0.13221456
184	0xbe984c51	-0.29745725
185	0xbe142764	-0.14468151
186	0x3d8ff7a3	0.07029655
187	0xbd95fc76	-0.07323544
188	0x3ee72903	0.45148477
189	0xbd2f2a10	-0.042764723
190	0xbd17a27f	-0.037020203
191	0xbd7e7b2a	-0.062129177
192	0x3d702436	0.058628283
193	0x3dab7b7d	0.08373163
194	0x3e813ad4	0.25240195
195	0xbcb39bc5	-0.021924863
196	0x3e643d90	0.22289109
197	0x3d850acf	0.06496202
198	0xbc8cbb4c	-0.017179154
199	0x3efce8d4	0.49396384
200	0x3e9a0d32	0.30088192
201	0x3e5232e6	0.20527229
202	0xbefd68f6	-0.4949414
203	0xbea50540	-0.32230568
204	0x3d4b1ed6	0.049589954
205	0xbcb076c1	-0.021541001
206	0x3d3fcb40	0.046824694
207	0xbe99970f	-0.2999806
208	0x3e76f39d	0.24116369
209	0xbe31255e	-0.1729941
210	0x3dee76fd	0.11643789
211	0x3ed54628	0.41655087
212	0x3e1e0127	0.15430127
213	0x3df5db21	0.12004686
214	0x3ee3f336	0.44521493
215	0xbe8e7b1c	-0.278283
216	0x3d08b289	0.03337339
217	0xbe31674e	-0.17324564
218	0xbec434b1	-0.3832145
219	0x3e12b023	0.14325003
220	0x3f194f46	0.59886587
221	0xbd7ca108	-0.06167701
222	0x3e5e31ba	0.21698657
223	0x3eba74ee	0.36417335
224	0x3e9dfc41	0.30856517
225	0xbe218199	-0.15772094
226	0xbdee18cd	-0.11625824
227	0xbde20c2a	-0.11037476
228	0xbceae945	-0.028675685
229	0xbecfaa12	-0.4055944
230	0x3dd158bd	0.102220036
231	0x3e500625	0.20314844
232	0x3de54276	0.11194317
233	0x3e7b1d72	0.24522951
234	0xbe3f0c88	-0.18657124
235	0xbe587ad1	-0.211406
236	0x3e9505a3	0.29105863
237	0x3c2a0130	0.01037626
238	0xbe5e4b3e	-0.2170839
239	0x3e28dc8f	0.16490386
240	0x3e9392bf	0.28822896
241	0x3ef29b60	0.47384167
242	0xbf0340ff	-0.5127105
243	0xbe038a1e	-0.12845656
244	0xbe59b4fd	-0.21260448
245	0xbe2f8143	-0.17139153
246	0xbd100d71	-0.03516907
247	0x3ee99f59	0.45629385
248	0x3de1fae2	0.1103418
249	0x3ed8155d	0.422038
250	0xbd8232c5	-0.0635734
251	0xbe5eb533	-0.2174881
252	0x3de57da3	0.11205604
253	0x3ec87a2b	0.39155707
254	0x3e303c45	0.17210491
255	0xbdc6d1b5	-0.09707967

actor.init_leaf_node_embed.0.add_bias._bias f4 [32, 1]
0	0x3c3f118e	0.0116619
1	0x3cee209b	0.029068282
2	0x3bbdf0ef	0.005796544
3	0x3c02524f	0.007954194
4	0xbdefaf9c	-0.11703417
5	0x3c77957b	0.0151113225
6	0xbd511752	-0.05104763
7	0xbcd66ec1	-0.026175858
8	0x3d9fbc21	0.077995546
9	0x3d103aec	0.035212442
10	0x3d241e84	0.040068164
11	0xbcf336da	-0.029689241
12	0x3add322d	0.0016875915
13	0xbd53efdb	-0.051742416
14	0x3e0405c3	0.12892823
15	0x3a3bff66	0.0007171541
16	0xbd22e144	-0.03976561
17	0xbd4672c5	-0.048449297
18	0x3c3ecc96	0.011645457
19	0xbb6e290e	-0.0036340388
20	0x3d14ba4f	0.03631049
21	0x3d2197e4	0.039451495
22	0x3df68876	0.120377466
23	0xbcadaeab	-0.021201452
24	0x3c482791	0.012216465
25	0x3c4aae6e	0.012370689
26	0x3dbafc31	0.09130133
27	0xbcad1be3	-0.021131461
28	0xbdd2b433	-0.102882765
29	0x3b4373d5	0.002982368
30	0x3c0e4354	0.008683044
31	0xbe1bd58a	-0.15218177

actor.init_leaf_node_embed.2.module.weight f4 [64, 32]
0	0x3e14b386	0.14521608
1	0x3f027e37	0.5097384
2	0x3e33c828	0.17556822
3	0x3ea25526	0.31705588
4	0xbe7465bd	-0.23866935
5	0x3ed5aff7	0.41735813
6	0x3e9bc772	0.30425602
7	0xbe84b1e1	-0.2591696
8	0x3a669671	0.0008796221
9	0x3e388ca4	0.180224
10	0x3c72a0cc	0.014808845
11	0xbb9c5c86	-0.004771772
12	0xbeadebd8	-0.33968997
13	0xbe0bbd50	-0.13646436
14	0x3e048d4b	0.12944524
15	0x3dd12672	0.10212411
16	0x3e33a422	0.1754308
17	0xbe0b94b6	-0.13630947
18	0x3ded1bdf	0.115775816
19	0x3ea6e053	0.3259302
20	0x3f23033e	0.6367682
21	0xbee73727	-0.45159265
22	0x3f21b46d	0.6316593
23	0x3eb1cd5c	0.3472699
24	0x3d085263	0.033281695
25	0x3bc45f9f	0.0059928442
26	0xbc8d95ec	-0.017283402
27	0x3eb15ba1	0.3464022
28	0xbe067c2f	-0.1313331
29	0x3e365758	0.17806756
30	0x3df0be82	0.117550865
31	0xbe9b3360	-0.30312634
32	0xbdd61d12	-0.104547635
33	0xbe873501	-0.26407626
34	0xbe394a1f	-0.18094681
35	0xbe290ae5	-0.16508062
36	0xbe888b82	-0.26668936
37	0x3ea6ae66	0.3255493
38	0xbe6bfa0d	-0.23044606
39	0x3e6c4233	0.23072128
40	0x3ea5485c	0.32281768
41	0xbea7746e	-0.32706016
42	0x3da885d2	0.08228649
43	0xbdeccb23	-0.11562183
44	0x3e9216ba	0.28532964
45	0x3d31edb5	0.043439586
46	0x3d696c46	0.056988023
47	0x3d6b9dcf	0.057523545
48	0x3d2cf947	0.042229917
49	0x3e290f30	0.165097
50	0x3d64bfe8	0.05584708
51	0xbef1fc4f	-0.4726281
52	0xbedbc7b1	-0.4292579
53	0x3f17d68b	0.5931174
54	0x3e4b1e68	0.19835818
55	0x3e82f20e	0.25575298
56	0x3dd22b05	0.102621116
57	0x3e0dc62e	0.13845131
58	0x3df66c57	0.12032383
59	0xbe3b3873	-0.18283252
60	0x3dae5402	0.08512117
61	0x3da8df1f	0.08245682
62	0x3e623d00	0.22093582
63	0xbe3b720b	-0.18305223
64	0xbcb53a68	-0.022122577
65	0x3ca49ef8	0.020095333
66	0x3e60bbaf	0.21946596
67	0xbec1a4a6	-0.3782093
68	0x3e1df489	0.15425314
69	0xbdc4078f	-0.09571754
70	0xbde4ba5c	-0.11168358
71	0xbda1a6a9	-0.07893116
72	0xbeb35fc0	-0.3503399
73	0x3ed28fb2	0.41125256
74	0x3dade3e8	0.08490735
75	0x3e0240bc	0.12720007
76	0xbe4c806b	-0.19970863
77	0x3d282c47	0.04105785
78	0x3e1992ba	0.14997378
79	0x3e173970	0.14768004
80	0xbebaf3d0	-0.3651414
81	0xbe8f866e	-0.2803225
82	0x3e221907	0.1582986
83	0x3d8b68ae	0.068070754
84	0xbd74afe2	-0.059738047
85	0x3e016ffa	0.12640372
86	0x3e10a582	0.14125636
87	0x3d6d2246	0.057894014
88	0x3eb39cf6	0.3508069
89	0xbdc0fdb3	-0.09423389
90	0x3e2e1296	0.16999277
91	0x3cdf4f3d	0.027259463
92	0xbe1f53ad	-0.15559264
93	0xbd3ca8b9	-0.046059344
94	0xbf01b066	-0.5065979
95	0xbe4f5de0	-0.20250654
96	0xbe7c88fd	-0.24661632
97	0x3e089e1e	0.13341567
98	0xbeb76680	-0.3582039
99	0x3f16cfb6	0.5891069
100	0xbe5ed3f2	-0.21760538
101	0x3db68239	0.08911557
102	0xbe248e7a	-0.16069975
103	0x3e30a0d8	0.17248857
104	0xbd05b642	-0.032644518
105	0x3dc40002	0.09570314
106	0x3e74097f	0.23831747
107	0x3e2f2a8c	0.17106074
108	0x3f1e1f46	0.6176647
109	0xbe87cbb5	-0.26522604
110	0xbd786f73	-0.06065316
111	0xbe3517bc	-0.17684835
112	0xbe201ee9	-0.15636791
113	0x3e80ab07	0.25130484
114	0x3b72e493	0.003706251
115	0x3d3ef8b5	0.046623904
116	0xbefed564	-0.4977218
117	0xbcc5ab96	-0.02412967
118	0xbdd6bc00	-0.10485077
119	0xbe6a2193	-0.2286437
120	0x3dd1ab4a	0.10237749
121	0xbe2c175b	-0.16805784
122	0x3e8efe04	0.27928174
123	0x3e52de24	0.20592552
124	0x3e54982b	0.20761172
125	0xbc156413	-0.009118098
126	0xbda9b14f	-0.08285772
127	0x3db3ff72	0.08788957
128	0xbeb21420	-0.3478098
129	0xbed37b91	-0.4130521
130	0xbdc03e43	-0.093868755
131	0xbe0d90fa	-0.13824835
132	0x3c6dc576	0.01451241
133	0xbe91b448	-0.28457856
134	0xbe6d3734	-0.2316559
135	0xbe5a4b0b	-0.21317689
136	0xbf1cfee2	-0.6132642
137	0x3eb4a368	0.3528092
138	0x3caba4e3	0.020952648
139	0x3c306ea7	0.010768569
140	0x3ee1e416	0.44119328
141	0xbc9a64fd	-0.018846983
142	0xbe87f504	-0.2655412
143	0x3e2a5fb5	0.16638072
144	0x3da240a7	0.07922488
145	0xbe6c1d7b	-0.23058121
146	0xbe9e0a46	-0.30867213
147	0xbdea2791	-0.11433328
148	0x3e2c5c09	0.16831984
149	0x3e62f0f0	0.22162223
150	0x3dcb40f2	0.09924497
151	0xbdc8d56d	-0.09806333
152	0xbe3d89d9	-0.18509616
153	0x3dd1cc50	0.10244048
154	0xbd62dc34	-0.055385783
155	0x3d06655d	0.03281151
156	0xbdb1177f	-0.0864706
157	0xbb12ea36	-0.0022417433
158	0x3e5b3067	0.21405183
159	0xbe0a8a66	-0.13529357
160	0xbe09f995	-0.13474114
161	0x3e67e255	0.22644933
162	0xbe2a9215	-0.16657288
163	0xbebd24a8	-0.3694203
164	0x3dd3b780	0.10337734
165	0x3e5848d0	0.21121526
166	0x3d96e9cd	0.07368813
167	0xbe3a4665	-0.18190916
168	0xbea8a59a	-0.32938844
169	0xbdbe660d	-0.092968084
170	0x3bf352de	0.00742565
171	0x3d7a0f2e	0.061049633
172	0xbe2665a6	-0.16249713
173	0xbe710880	-0.23538399
174	0x3ee8bc6c	0.45456254
175	0xbe80ee4b	-0.25181803
176	0x3e76cfbd	0.24102683
177	0x3d0272eb	0.031847876
178	0xbb064252	-0.0020486307
179	0xbceae8b8	-0.028675422
180	0x3c75a497	0.014992855
181	0xbd99b2d5	-0.07504813
182	0xbe208b91	-0.1567824
183	0xbeac2591	-0.3362241
184	0xbe50ed04	-0.20402914
185	0xbc163897	-0.0091687655
186	0x3d74fdce	0.05981236
187	0x3e68fc84	0.22752577
188	0xbd04fa03	-0.032464992
189	0x3d927b2c	0.071523994
190	0xbe823e26	-0.2543804
191	0xbd5e5143	-0.054276716
192	0xbe0e170b	-0.13875978
193	0xbee44f5d	-0.445918
194	0xbecb6791	-0.39727452
195	0x3de8fcad	0.11376319
196	0xbe5075c2	-0.20357421
197	0xbe529914	-0.20566207
198	0x3cd4c9af	0.025975076
199	0x3d03baad	0.03216045
200	0xbb9932b0	-0.004675232
201	0xbb44d1b7	-0.0030032226
202	0xbc8fc56f	-0.017550198
203	0xbe83dc4c	-0.2575401
204	0x3eb1b820	0.3471079
205	0x3df39ada	0.1189477
206	0xbe37d57f	-0.17952536
207	0xbe5a11b2	-0.21295813
208	0xbe23ffc5	-0.16015537
209	0x3f28f74a	0.66002333
210	0x3dd09efd	0.101865746
211	0xbd0b44f5	-0.03400131
212	0x3de1ddfc	0.11028668
213	0x3e7e462a	0.24831453
214	0xbe1ae5b5	-0.15126689
215	0x3e15528d	0.14582272
216	0x3dade875	0.08491603
217	0x3e8a4ea0	0.2701311
218	0xbe82cfb3	-0.25549087
219	0x3c99d128	0.018776491
220	0x3e11722f	0.14203714
221	0xbd83a791	-0.06428445
222	0xbe842374	-0.258083
223	0x3d8a32a4	0.0674794
224	0x3d21e06b	0.039520662
225	0x3e6898bc	0.22714514
226	0xbeacc983	-0.3374749
227	0xbec139fb	-0.37739548
228	0xbf067f08	-0.52537584
229	0xbea2394b	-0.31684336
230	0x3e380a89	0.17972769
231	0xbe5cb170	-0.21552062
232	0xbd98ce1d	-0.07461188
233	0x3d56af32	0.052413173
234	0xbae28b90	-0.0017284025
235	0xbeb909df	-0.36140344
236	0x3e1be45b	0.1522383
237	0xbea5edd4	-0.3240801
238	0xbeda43c6	-0.42629832
239	0x3dbf2f62	0.093352094
240	0xbeb5b5ac	-0.35490167
241	0x3e6eaa9b	0.23307268
242	0xbe11f911	-0.14255168
243	0xbe2a4539	-0.16627969
244	0x3cba6d49	0.02275719
245	0x3f3045e5	0.6885665
246	0xbd8d3a64	-0.06895903
247	0xbe4afa6c	-0.19822091
248	0xbd97507f	-0.073884
249	0x3d54596f	0.051843103
250	0xbe4b2010	-0.1983645
251	0xbe95a7c7	-0.29229566
252	0x3e3c8412	0.18409756
253	0xbf018b80	-0.50603485
254	0x3e955aae	0.29170746
255	0x3c309b84	0.010779265

actor.init_leaf_node_embed.2.add_bias._bias f4 [64, 1]
0	0x3e8aecb8	0.27133727
1	0x3e0cafb6	0.13738903
2	0x3d2c01d9	0.04199395
3	0x3c11180d	0.008855832
4	0xbe3777d0	-0.17916799
5	0x3c5321f3	0.012886512
6	0xbe581468	-0.21101534
7	0xbe8dd200	-0.2769928
8	0xbe2c649c	-0.16835254
9	0xbe2e2cae	-0.17009231
10	0x3e8eda05	0.2790071
11	0xbe1c9621	-0.15291645
12	0x3dc6dbcb	0.09709891
13	0xbdbafa46	-0.09129767
14	0xbdcbb487	-0.09946542
15	0xbd97743a	-0.07395215
16	0x3e1273d8	0.14302003
17	0xbe10dd0e	-0.14146826
18	0xbea45dff	-0.32102963
19	0xbd0f119a	-0.034928896
20	0x3d1b398a	0.03789667
21	0x3dadf40d	0.084938146
22	0x3c26b20d	0.010174287
23	0x3d347026	0.044052266
24	0x3e721978	0.23642528
25	0xbd36751f	-0.04454529
26	0xbb902b74	-0.0043997113
27	0xbdacd35b	-0.0843875
28	0xbe2f9ddb	-0.17150061
29	0x3de61782	0.112349525
30	0xbe13d081	-0.14435007
31	0xbc9bf8c0	-0.019039512
32	0x3ddf9e66	0.10918884
33	0xbd796fdf	-0.060897704
34	0xbe1fbe46	-0.15599927
35	0x3e1a9190	0.1509459
36	0x3e678028	0.22607481
37	0xbd345fd2	-0.044036694
38	0xbcfb8962	-0.030705158
39	0xbe05f2f3	-0.13080959
40	0x3d6cc44e	0.0578044
41	0xbf005944	-0.5013621
42	0x3e4090e9	0.18805279
43	0x3d6f055c	0.05835472
44	0xbe0fe0df	-0.14050625
45	0xbd328e76	-0.043592893
46	0xbe13dc92	-0.1443961
47	0xbd21ef99	-0.03953514
48	0xbe6da4e8	-0.23207438
49	0x3d34558c	0.044026896
50	0xbd603691	-0.05473954
51	0xbd7ab131	-0.06120414
52	0x3dcf84aa	0.101327255
53	0xbe2897b8	-0.16464126
54	0xbe419fa0	-0.18908548
55	0x3dcf4648	0.10120827
56	0x3c58cc6b	0.013232331
57	0xbe6abc5e	-0.22923419
58	0x3e456ee8	0.19280589
59	0xbe8b05b8	-0.271528
60	0x3e09634f	0.1341679
61	0xbe0a5313	-0.13508253
62	0x3d904b92	0.07045664
63	0x3cbf3955	0.023342768

actor.init_next_embed.0.module.weight f4 [32, 6]
0	0x3e076d36	0.13225254
1	0xbe1761b2	-0.14783362
2	0xbe9909d2	-0.29890305
3	0xbef6099d	-0.4805421
4	0xbe74d4c0	-0.23909283
5	0x3b1cdfcc	0.0023937104
6	0xbe60edd4	-0.21965724
7	0xbdc7ff51	-0.097654946
8	0x3e3f5108	0.18683255
9	0xbe79ae80	-0.24382973
10	0x3cbe3eb9	0.023223268
11	0xbe74cdc4	-0.23906618
12	0x3f06ad14	0.52607846
13	0xbe89160d	-0.26774636
14	0xbe83fc7b	-0.25778565
15	0xbdfbdd39	-0.12298054
16	0xbe202665	-0.15639646
17	0x3e90dac2	0.282919
18	0xbbd31688	-0.006441895
19	0x3d14fbff	0.036373135
20	0xbd079595	-0.033101637
21	0x3ed80955	0.4219462
22	0xbeeab38e	-0.45840114
23	0xbeb397c7	-0.35076734
24	0x3ddcd113	0.10782065
25	0xbed81352	-0.4220224
26	0xbdfe1b94	-0.12407604
27	0xbe81534a	-0.25258857
28	0xbdc48b26	-0.09596853
29	0xbe22de49	-0.15905108
30	0xbcc8c9b8	-0.02451025
31	0xbf13c5cc	-0.5772369
32	0x3e9129bf	0.28352162
33	0xbf388aae	-0.7208661
34	0xbe031880	-0.12802315
35	0x3e153389	0.1457044
36	0x3f5b3855	0.8563283
37	0x3dd2c78c	0.10291967
38	0x3d915a90	0.070973516
39	0xbdfa6048	-0.122253954
40	0xbd80ebf2	-0.06295003
41	0xbeb28ba1	-0.34872153
42	0xbdb57d04	-0.088617355
43	0x3dc959c3	0.09831574
44	0x3e1552b6	0.14582333
45	0x3daafccc	0.083489984
46	0xbe9d6055	-0.30737558
47	0x3e32feda	0.1748003
48	0xbe631446	-0.22175702
49	0xbf172879	-0.5904613
50	0x3e7a5438	0.2444619
51	0x3d2f8bf0	0.042858064
52	0x3faae38a	1.335069
53	0xbf353e31	-0.7079802
54	0x3dd0de11	0.10198606
55	0xbe95a08d	-0.29224053
56	0xbe3aa602	-0.1822739
57	0x3d573ced	0.052548338
58	0xbeb203fe	-0.3476867
59	0xbeea6cfc	-0.45786273
60	0xbea42c06	-0.32064837
61	0x3e3a7836	0.1820992
62	0x3c841244	0.016121991
63	0x3ecd7048	0.40124726
64	0x3e91e3f5	0.2849423
65	0xbed9239b	-0.42409977
66	0xbd533b01	-0.051569942
67	0xbcef7ca3	-0.029234236
68	0xbcb12c93	-0.0216277
69	0x3dbd1284	0.09232047
70	0xbc935744	-0.017985947
71	0x3e164450	0.14674497
72	0xbeb5a094	-0.35474074
73	0xbd067e91	-0.032835547
74	0x3e155063	0.14581446
75	0x3ccc64a0	0.024950325
76	0xbe649a21	-0.2232442
77	0xbea4a2a7	-0.32155344
78	0xbd3172f5	-0.043322522
79	0x3c15a80a	0.009134302
80	0x3dfe4654	0.12415758
81	0x3e62fffb	0.22167961
82	0xbebf500f	-0.37365767
83	0xbd98a0bf	-0.07452535
84	0x3fa068fc	1.2532039
85	0xbe69892d	-0.22806235
86	0xbe8314da	-0.25601846
87	0xbf1e87f4	-0.619262
88	0xbe08f370	-0.13374114
89	0x3d728957	0.05921301
90	0xbe540bfd	-0.20707698
91	0xbd823a10	-0.06358731
92	0xbe986d69	-0.29770973
93	0xbd96e836	-0.073685095
94	0xbbe4ac09	-0.006978516
95	0x3db284f7	0.08716767
96	0xbe85fffe	-0.2617187
97	0xbd0b78cc	-0.034050748
98	0xbde64977	-0.11244481
99	0xbdffbb29	-0.1248687
100	0xbed846a8	-0.42241406
101	0x3e1bd413	0.15217619
102	0x3f123463	0.57111186
103	0xbd4ef030	-0.05052203
104	0x3e49bc52	0.19700745
105	0xbe80860b	-0.25102267
106	0xbd615cb0	-0.055020034
107	0x3b5ad989	0.0033393821
108	0xbd7e0f73	-0.062026452
109	0x3e93853d	0.2881259
110	0x3e6a1819	0.22860755
111	0xbbfcfe73	-0.0077207624
112	0xbd8e41b1	-0.069461234
113	0x3e8356b2	0.2565208
114	0x3f714274	0.94242024
115	0x3e79fe65	0.2441345
116	0xbeb7a9eb	-0.35871825
117	0xbe7a7278	-0.24457729
118	0x3e2af9a2	0.1669679
119	0x3e110a62	0.14164117
120	0x3e88d670	0.26726103
121	0x3cd65550	0.026163727
122	0xbd14e459	-0.03635058
123	0xbe0ee783	-0.13955502
124	0xbe84cc3c	-0.25937068
125	0x3e2e2af9	0.1700858
126	0xbce86da8	-0.0283726
127	0xbe5810e2	-0.2110019
128	0xbf37e023	-0.7182638
129	0xbdcbb09d	-0.09945796
130	0xbe00d133	-0.12579803
131	0xbce6fa39	-0.028195487
132	0x3deee7ad	0.116652824
133	0xbe1745a4	-0.1477266
134	0xbdc775a0	-0.09739232
135	0x3e0a6cf0	0.13518119
136	0xbeb21cca	-0.3478759
137	0x3d85ade1	0.065273054
138	0x3f252c79	0.64520985
139	0xbe88270e	-0.26592296
140	0x3ea96233	0.33082733
141	0xbedb9c76	-0.42892808
142	0x3ed6d15c	0.41956604
143	0x3ed614cb	0.4181274
144	0x3fa44331	1.2833005
145	0xbdcbdc5f	-0.09954142
146	0xbe3ad622	-0.18245748
147	0xbec3eb68	-0.38265538
148	0xbe197525	-0.14986093
149	0x3e58bcf3	0.21165828
150	0x3e2d749e	0.16939017
151	0x3e9267b7	0.28594753
152	0xbd83c0a8	-0.06433231
153	0xbe47e246	-0.1951991
154	0xbe43369b	-0.19063799
155	0xbeca53c8	-0.39517045
156	0x3b4bf884	0.0031123469
157	0xbea3fe93	-0.32030162
158	0x3e39756c	0.18111199
159	0xbd779c35	-0.060451705
160	0xbe659f20	-0.22423983
161	0xbc7ce1d0	-0.015434697
162	0xbf032c1f	-0.512392
163	0xbec3c9a3	-0.38239774
164	0xbe414f82	-0.18877986
165	0xbe46e264	-0.19422299
166	0x3e015514	0.12630111
167	0xbe28c348	-0.16480744
168	0x3f0f1983	0.558983
169	0x3e529765	0.20565565
170	0xbc9bec0a	-0.01903345
171	0xbfa9dbd2	-1.3270209
172	0xbc932ef2	-0.017966721
173	0x3e4667bb	0.19375508
174	0x3ed20af7	0.4102399
175	0x3e6c43ab	0.23072688
176	0xbeaff5ce	-0.34367222
177	0xbf3122dc	-0.69193816
178	0xbccf5f61	-0.025314035
179	0x3e28d3b3	0.16487007
180	0xbdf845d1	-0.121226914
181	0xbe84b2a4	-0.25917542
182	0x3e9767ec	0.29571474
183	0xbbc1272b	-0.0058945618
184	0xbd18fb81	-0.037349228
185	0xbd4d8eed	-0.050185133
186	0xbd240a22	-0.040048726
187	0xbe67e389	-0.22645392
188	0xbef0b39d	-0.47012034
189	0xbdfdd5b5	-0.12394277
190	0xbd9d7d9a	-0.07689972
191	0xbd2272bf	-0.03966021

actor.init_next_embed.0.add_bias._bias f4 [32, 1]
0	0x3e2d163e	0.16903016
1	0x3d537c57	0.05163225
2	0xbd87758e	-0.06614219
3	0xbd188cb7	-0.03724357
4	0x3b1d2b10	0.0023981966
5	0xbe92404b	-0.28564677
6	0x3df4fd5b	0.11962386
7	0xbd91f8cf	-0.071275346
8	0xbe648d09	-0.22319426
9	0xbd5dc227	-0.054140236
10	0xbdd99591	-0.10624231
11	0x3e88b986	0.26704043
12	0x3cfad8f6	0.030621033
13	0x3e112232	0.141732
14	0x3ebd1c87	0.36935827
15	0x3e870a46	0.26375026
16	0x3d2ab116	0.04167279
17	0xbe55f7c0	-0.2089529
18	0xbe8a4545	-0.27005973
19	0x3ebea18b	0.37232623
20	0xbd9d8f9b	-0.07693406
21	0x3c85a3c1	0.016313436
22	0xbe6aaca6	-0.22917423
23	0xbd593bda	-0.053035595
24	0x3e816490	0.25272036
25	0xbdc9c748	-0.09852463
26	0xbe0b3894	-0.13595802
27	0x3caf178c	0.021373533
28	0x3d393b00	0.045222282
29	0x3e1debf0	0.15422034
30	0x3e1636c8	0.14669335
31	0x3e0780ee	0.13232777

actor.init_next_embed.2.module.weight f4 [64, 32]
0	0x3cde1629	0.027110176
1	0xbddd8b6c	-0.10817608
2	0xbd03103c	-0.031997904
3	0x3e382e42	0.17986396
4	0x3e196535	0.14980014
5	0x3da11a46	0.078663394
6	0xbe2b2582	-0.16713527
7	0xbe6bcce2	-0.23027375
8	0xbdfd075f	-0.123549215
9	0x3ea09789	0.31365612
10	0x3da84535	0.08216325
11	0xbf11a541	-0.5689278
12	0x3dc585fb	0.09644695
13	0x3ec197c2	0.37811095
14	0x3e120cc7	0.14262687
15	0xbebaf2ab	-0.36513266
16	0xbe1817a1	-0.14852764
17	0x3d88857d	0.06666086
18	0xbc946483	-0.018114334
19	0xbe7b290f	-0.24527381
20	0x3d828894	0.063737065
21	0xbd6eff44	-0.05834891
22	0xbef38bc0	-0.47567558
23	0xbef53f4e	-0.4789986
24	0xbef10e67	-0.470813
25	0x3eb4e035	0.35327306
26	0xbe30d3e1	-0.17268325
27	0xbdb8f584	-0.090312034
28	0x3dba28a5	0.090897836
29	0x3e162932	0.14664152
30	0x3e8f1659	0.27946737
31	0xbdb8654d	-0.090036966
32	0x3e4bb11b	0.19891779
33	0xbd76b8e6	-0.060234927
34	0xbe02c951	-0.12772109
35	0xbd895b05	-0.06706814
36	0xbdbd67ec	-0.09248337
37	0xbe2d1106	-0.16901025
38	0xbe4004b7	-0.18751799
39	0x3a71fc67	0.0009231031
40	0x3e8225a2	0.25419337
41	0x3d32047e	0.043461315
42	0x3ef36e5e	0.4754514
43	0x3ea8d937	0.32978222
44	0xbcabe860	-0.020984828
45	0xbdfe81e6	-0.1242712
46	0xbe59260d	-0.21205921
47	0xbcd4c410	-0.025972396
48	0x3e3b84ac	0.18312329
49	0x3ca851cf	0.020546822
50	0xbd937661	-0.07200313
51	0x3f059884	0.52185845
52	0x3e2fea00	0.17179108
53	0x3cb8b89d	0.022548968
54	0x3d5bb32b	0.053637665
55	0xbe33a8fa	-0.17544928
56	0xbe05a059	-0.13049449
57	0x3e5e5be7	0.21714745
58	0xbc31a130	-0.010841653
59	0xbe9e84c6	-0.30960673
60	0xbdfad49a	-0.12247582
61	0x3d385e36	0.04501172
62	0xbd61b654	-0.055105522
63	0xbd128cf2	-0.035778947
64	0xbdae17ed	-0.08500657
65	0x3d002504	0.0312853
66	0x3e3aa218	0.18225896
67	0xbe068191	-0.13135363
68	0xbba30b6f	-0.004975728
69	0x3e45605e	0.19275042
70	0xbf0c3bff	-0.54779047
71	0xbeb2e819	-0.349427
72	0xbed95964	-0.42451012
73	0xbe0fd048	-0.14044297
74	0x3d05ba3a	0.032648303
75	0x3ed32288	0.41237283
76	0x3dc45a53	0.095875405
77	0xbea7b761	-0.32757095
78	0xbf445753	-0.76695746
79	0x3e074b1b	0.13212244
80	0xbe617ed2	-0.22021034
81	0x3d84a354	0.06476465
82	0x3e424080	0.18969917
83	0x3e3b604d	0.18298455
84	0xbd9ab588	-0.075541556
85	0xbda443b6	-0.08020727
86	0xbd752aa4	-0.05985512
87	0x3edd180d	0.43182412
88	0xbed51675	-0.41618696
89	0x3dc7fb62	0.09764744
90	0xbe5c71ad	-0.21527739
91	0xbe229557	-0.15877281
92	0xbf04c7b9	-0.5186725
93	0xbf314e5e	-0.69260204
94	0xbe9157c9	-0.28387287
95	0xbe594d7f	-0.21220969
96	0xbe646c9b	-0.22307055
97	0x3e29048d	0.16505642
98	0x3ec28c2c	0.37997568
99	0xbdc1ae01	-0.09457017
100	0xbe9efef9	-0.31053904
101	0x3ccd2403	0.025041586
102	0xbebd3e1a	-0.36961442
103	0x3e019dc6	0.12657842
104	0x3c9bcb17	0.01901774
105	0x3e717309	0.23579039
106	0xbead51d3	-0.3385149
107	0x3e7e2953	0.24820451
108	0x3dde4dbd	0.10854671
109	0x3e25a97e	0.16177937
110	0xbe63eae5	-0.22257574
111	0xbe76d42b	-0.24104373
112	0xbe25e073	-0.16198902
113	0x3e4f3567	0.20235215
114	0x3cfb6a6c	0.030690394
115	0xbe954b32	-0.29158932
116	0xbc873c6c	-0.016508304
117	0x3d94cb53	0.072653435
118	0x3e282498	0.1642021
119	0x3f4992dc	0.78739715
120	0xbea52134	-0.32251894
121	0xbedcfcc8	-0.43161607
122	0xbdc0045d	-0.09375832
123	0xbea7826d	-0.32716694
124	0xbe9f5509	-0.31119564
125	0xbe58c3b3	-0.21168403
126	0x3dca3fb0	0.09875429
127	0xbe6377cc	-0.22213668
128	0xbe5240a3	-0.2053247
129	0xbec3b9fa	-0.38227826
130	0xbc002a5e	-0.007822601
131	0x3e77753b	0.24165814
132	0x3df4557e	0.11930369
133	0xbe2856bb	-0.16439335
134	0xbe184b13	-0.14872389
135	0xbda8d38c	-0.08243474
136	0x3e70541a	0.23469582
137	0xbdfeb01a	-0.124359325
138	0xbe7b1100	-0.24518204
139	0x3cbb9e1d	0.022902543
140	0xbd1935f5	-0.037404973
141	0x3dc792bc	0.09744784
142	0x3dba93e4	0.09110239
143	0xbb94368b	-0.0045231036
144	0x3e206beb	0.15666167
145	0x3e1b539e	0.15168616
146	0xbe1a8f21	-0.15093662
147	0xbeca6337	-0.3952882
148	0xbe325265	-0.17414244
149	0x3dc3328f	0.09531128
150	0x3e22c730	0.15896297
151	0x3d773673	0.06035466
152	0x3e667217	0.2250446
153	0xbdc3bc29	-0.09557373
154	0x3ee5c0d2	0.44873673
155	0x3e4b4089	0.19848837
156	0xbe67c7e2	-0.22634843
157	0xbe0c14ea	-0.13679853
158	0xbddb460f	-0.10706722
159	0x3d478a11	0.048715655
160	0x3d05fc9f	0.03271162
161	0xbd0d75de	-0.034536235
162	0x3d1cb8ea	0.038262285
163	0xbdda1a9a	-0.10649605
164	0x3eabe0bf	0.33569905
165	0x3e4c657f	0.19960593
166	0xbca18f3b	-0.019721618
167	0x3e1187d6	0.14211974
168	0x3d730901	0.05933476
169	0x3e5b5981	0.21420862
170	0x3d0d5182	0.03450156
171	0x3f3d61cb	0.73977345
172	0x3d3b5a58	0.045740455
173	0x3d901239	0.07034726
174	0xbe0f61c1	-0.14002134
175	0x3f11d0e4	0.56959367
176	0xbcd786aa	-0.02630933
177	0x3ea48edb	0.3214024
178	0x3dea7529	0.11448128
179	0x3f6d92db	0.9280221
180	0x3d4022b0	0.04690808
181	0xbd0c193a	-0.034203745
182	0x3e833ada	0.25630838
183	0x3e3aa9f4	0.18228894
184	0x3ee95c32	0.45578152
185	0xbdad67fc	-0.08467099
186	0x3d87a6aa	0.066235855
187	0x3eb3b89b	0.3510178
188	0xbe588ddd	-0.21147867
189	0xbe8f37aa	-0.27972156
190	0x3e824113	0.25440273
191	0xbe1f1f26	-0.15539226
192	0x3dfad2d9	0.12247247
193	0x3e33d4a3	0.17561583
194	0x3c487839	0.012235695
195	0x3e34cc04	0.17655951
196	0xbd935804	-0.07194522
197	0x3cf84e27	0.030310703
198	0xbe68440b	-0.22682206
199	0xbea6b305	-0.32558456
200	0x3dbb5ef4	0.0914897
201	0x3e654e66	0.22393188
202	0x3d924268	0.07141572
203	0x3e3949ba	0.1809453
204	0x3cc4130a	0.02393486
205	0xbc9236e7	-0.017848445
206	0xbdc580ce	-0.09643708
207	0xbdf9880e	-0.121841535
208	0xbcbe51a4	-0.023232289
209	0x3e2bf867	0.16793977
210	0xbe59b71b	-0.21261255
211	0xbd43e6f2	-0.04782767
212	0x3e4f2a81	0.20231058
213	0xbe8ad870	-0.27118254
214	0x3e2ce7fd	0.16885372
215	0x3e5ef40d	0.21772785
216	0xbe3c26f2	-0.18374231
217	0x3d94bef7	0.07262986
218	0x3d23feb4	0.040037826
219	0xbe674463	-0.22584681
220	0xbd83fc10	-0.064445615
221	0xbd27b866	-0.04094734
222	0x3df11be9	0.117729016
223	0xbe8c5a7c	-0.27412784
224	0xbebfe859	-0.37481955
225	0x3d2b49c1	0.041818384
226	0xbe8ed922	-0.27900034
227	0x3cab07ac	0.020877682
228	0x3e650393	0.22364645
229	0xbe9513b0	-0.29116583
230	0xbe5547b8	-0.2082814
231	0xbe494606	-0.19655618
232	0xbc6d46e4	-0.014482234
233	0xbd0c1d03	-0.034207355
234	0x3eb803d3	0.35940418
235	0x3ed59121	0.41712287
236	0x3dc0b57e	0.09409617
237	0x3e2c1111	0.16803385
238	0x3eeb97ea	0.4601434
239	0x3f0cb322	0.54960835
240	0x3d846bb2	0.06465854
241	0x3eb1cbb2	0.3472572
242	0x3e4deed8	0.20110643
243	0x3ebdeb8d	0.37093773
244	0xbeabe7cc	-0.33575284
245	0x3c61ec90	0.013789311
246	0xbe274a5e	-0.16336963
247	0x3f428177	0.759788
248	0x3efa7aee	0.48921913
249	0x3cb6434b	0.022248885
250	0x3dc13da4	0.09435585
251	0xbdc8bb42	-0.098013416
252	0x3d387dad	0.04504173
253	0x3e87bba2	0.2651034
254	0x3d920bf2	0.07131185
255	0x3ea3449f	0.3188829

actor.init_next_embed.2.add_bias._bias f4 [64, 1]
0	0xbf14d6b1	-0.58140093
1	0xbec409d3	-0.38288745
2	0xbea53c9b	-0.322728
3	0xbea12931	-0.3147674
4	0xbd6d0840	-0.057869196
5	0x3f8fd3e9	1.1236545
6	0xbec2f76c	-0.38079393
7	0x3f398a82	0.7247697
8	0x3f7013e0	0.93780327
9	0xbf3424cf	-0.70368665
10	0xbf3b1e34	-0.7309296
11	0x3de4650a	0.11152084
12	0x3f997226	1.198796
13	0xbf8d58a3	-1.1042675
14	0xbf726038	-0.9467807
15	0xbf389c1e	-0.72113216
16	0xbf5b7bf6	-0.85736024
17	0x3f620df1	0.8830252
18	0x3f2bbe54	0.6708729
19	0xbe42b56f	-0.19014524
20	0xbdfba8db	-0.12288066
21	0xbe87d0c2	-0.26526457
22	0xbfac04ab	-1.3438925
23	0x3f260bd4	0.648618
24	0xc012de8e	-2.2948337
25	0xbf443d79	-0.766563
26	0xbe7b1f64	-0.24523693
27	0xbf8226e4	-1.0168118
28	0x3f0c6cc3	0.5485346
29	0x3eae9847	0.34100553
30	0xbf042411	-0.5161753
31	0xbf387443	-0.720524
32	0xbddf6b67	-0.10909157
33	0x3f58b35a	0.8464867
34	0xbe8eecf9	-0.2791517
35	0xbe0ffcc2	-0.14061263
36	0x3fb543cb	1.4161314
37	0x3f4b133b	0.7932622
38	0xbe9ad4fb	-0.30240616
39	0x3f10821c	0.5644853
40	0xbfe0ca90	-1.7561817
41	0x3f911d62	1.1337092
42	0xbec59ab1	-0.38594583
43	0xbfb8ab03	-1.4427189
44	0x3ed54215	0.4165198
45	0x3fa4e1e3	1.2881435
46	0x3f87c3fa	1.0606682
47	0x3f3aeb9a	0.7301575
48	0xbf02f93c	-0.5116155
49	0x3e9e9b6a	0.30977947
50	0x3f37803e	0.7168006
51	0x3ef626ea	0.48076564
52	0x3eb6159e	0.35563368
53	0xbd357e98	-0.044310182
54	0xbea00d17	-0.31259987
55	0xbf3f67fa	-0.7476803
56	0x3d06532a	0.032794155
57	0x3f0d4af5	0.551925
58	0xbf00a792	-0.5025569
59	0x3e842354	0.25808203
60	0x3e9b179b	0.30291447
61	0x3f57b8bb	0.8426625
62	0xbd11b9ac	-0.03557746
63	0x3e4d2087	0.2003194
