logs/experiment/Discrete_A2C_1-5Box_10x10x10Bin-2022.08.09-15-00-00/PCT-Discrete_A2C_1-5Box_10x10x10Bin-2022.08.09-15-00-00_2022.08.09-15-09-08.pt (torch, 236314 bytes, 24 tensors)

actor.init_internal_node_embed.0.module.weight f4 [32, 6]
-0.29581502 0.03391651 -0.30353236 -0.07482468 -0.23626812 0.05983275 -0.08228702 0.24676087
-0.2252144 -0.18648541 -0.25356305 -0.2673444 -0.017889613 0.08498681 0.18119384 0.006076229
-0.031563967 -0.34801358 0.014180378 -0.2821088 0.49241567 -0.24466136 -0.13705583 0.35162884
0.043104548 -0.29672262 0.25654835 0.028246928 0.21051487 0.5790492 -0.014585225 0.017945545
0.24002996 -0.0040092343 -0.028811144 -0.26151177 0.52641624 0.28615725 -0.33966058 -0.7476675
0.07879683 0.1457964 -0.3597187 -0.18935019 0.419539 -0.22170126 0.19305298 0.3919193
-0.017588886 0.39477357 0.6742671 -0.22021636 -0.25235668 0.20374508 0.53283864 -0.24164349
0.48959184 -0.1548051 -0.01282508 0.046750356 -0.4412209 -0.21388733 -0.30949298 0.5085324
0.18295515 -0.19116949 -0.23310974 0.5154291 0.0021602 0.223744 -0.52686805 0.20535567
0.28742555 -0.45620245 -0.26684126 0.30722338 -0.34392968 0.0905055 0.07347161 0.04171917
-0.08042103 -0.2747069 0.15430777 -0.2056081 0.2248297 0.05723034 0.08699392 -0.08365109
-0.015471146 -0.18599516 0.28056055 0.0140503775 0.2539545 -0.15481013 -0.27369493 0.106515534
-0.45721543 -0.525624 -0.2667596 -0.27014682 -0.042211346 -0.09465804 -0.058721058 0.018859696
0.14677113 -0.074420474 -0.083893515 -0.15545455 -0.012618018 -0.49084282 -0.33380777 -0.13798866
-0.18664159 -0.095122725 0.09597284 -0.06881178 -0.29150325 0.05825902 -0.006451574 -0.011666954
0.11839754 -0.21195777 -0.026250524 -0.27700105 -0.50662893 0.1551197 -0.12124821 -0.08861027
-0.32594323 0.17620607 0.18146335 0.32362616 -0.34161898 -0.11118349 -0.64127195 0.2126803
0.67178696 0.11530597 -0.0012701958 -0.045207366 -0.44285095 -0.07249787 -0.44675058 -0.4531719
0.12696168 -0.05640572 0.89185566 -0.036328316 0.10905216 -0.13726385 0.2174546 -0.0045388285
-0.11619997 0.1322931 0.25099257 -0.27249885 0.42708907 -0.07624255 -0.06642707 0.4145804
-0.20770867 -0.21076006 0.22276533 0.07639251 -0.22106232 0.5727594 0.03968193 0.22687145
0.05820979 -0.16655488 -0.35161388 0.46731198 0.48047444 -0.49300313 0.31403446 -0.17352669
-0.32649672 -0.07248131 -0.0074404925 0.019280287 -0.35060874 -0.25545487 0.46869043 0.04395648
-0.28036168 -0.33967346 0.14827892 0.10401456 -0.19456717 0.02146089 -0.121681206 -0.0051216707
00000000: 1175 97be 0aec 0a3d 9868 9bbe af3d 99bd
00000010: 45f0 71be 3013 753d 1986 a8bd e2ae 7c3e
00000020: 9b9e 66be 08f6 3ebe 04d3 81be 5de1 88be
00000030: 3d8d 92bc 910d ae3d e18a 393e 1a1b c73b
00000040: 3849 01bd d62e b2be d154 683c 9170 90be
00000050: e81d fc3e 8288 7abe 5d58 0cbe b208 b43e
00000060: 658e 303d 07ec 97be 4e5a 833e 1a66 e73c
00000070: 3691 573e 923c 143f def6 6ebc 8902 933c
00000080: 6aca 753e e55f 83bb 5905 ecbc dfe4 85be
00000090: 37c3 063f 3483 923e fee7 adbe 2367 3fbf
000000a0: 3b60 a13d a74b 153e 0d2d b8be 04e5 41be
000000b0: d1cd d63e a805 63be aeaf 453e a6a9 c83e
000000c0: 9116 90bc c31f ca3e c59c 2c3f 6680 61be
000000d0: e534 81be 8da2 503e 1d68 083f 6471 77be
000000e0: c8ab fa3e 3a85 1ebe 4920 52bc 4d7d 3f3d
000000f0: b5e7 e1be 4805 5bbe dd75 9ebe 2e2f 023f
00000100: 9858 3b3e efc1 43be 52b4 6ebe 29f3 033f
00000110: 2492 0d3b 261d 653e d3e0 06bf c248 523e
00000120: 7129 933e 5e93 e9be 6b9f 88be 624c 9d3e
00000130: 8d17 b0be f35a b93d 4978 963d b8e1 2a3d
00000140: c8b3 a4bd 62a6 8cbe db02 1e3e ee8a 52be
00000150: c239 663e 5c6a 6a3d de29 b23d 4351 abbd
00000160: b17a 7dbc 8475 3ebe a2a5 8f3e 8e33 663c
00000170: 5306 823e 8c86 1ebe be21 8cbe d124 da3d
00000180: 2418 eabe 4b8f 06bf b794 88be af50 8abe
00000190: cee5 2cbd 13dc c1bd 7e85 70bd a67f 9a3c
000001a0: 2c4b 163e c369 98bd 5dd0 abbd 7a2f 1fbe
000001b0: cebb 4ebc c04f fbbe dae8 aabe e64c 0dbe
000001c0: f91e 3fbe b4cf c2bd 698d c43d 31ed 8cbd
000001d0: ea3f 95be 03a1 6e3d ba67 d3bb c026 3fbc
000001e0: 697a f23d 750b 59be 570b d7bc 15d3 8dbe
000001f0: 6fb2 01bf b3d7 1e3e fb50 f8bd 4d79 b5bd
00000200: 08e2 a6be 5d6f 343e 87d1 393e 54b2 a53e
00000210: afe8 aebe 2bb4 e3bd 662a 24bf ddc8 593e
00000220: 3bfa 2b3f 8925 ec3d b37c a6ba 5c2b 39bd
00000230: 5cbd e2be c379 94bd 7ebc e4be 2606 e8be
00000240: 3e02 023e af09 67bd a750 643f 00cd 14bd
00000250: bd56 df3d e58e 0cbe 6bac 5e3e 74ba 94bb
00000260: 40fa edbd d877 073e 1982 803e f884 8bbe
00000270: 6bab da3e 0e25 9cbd ea0a 88bd e243 d43e
00000280: 95b1 54be 7cd1 57be 981c 643e ad73 9c3d
00000290: 295e 62be 5ca0 123f 8589 223d fd50 683e
000002a0: 646d 6e3d 5d8d 2abe bc06 b4be 8443 ef3e
000002b0: bf00 f63e e86a fcbe 20c9 a03e fbb0 31be
000002c0: 942a a7be 1571 94bd 60cf f3bb b1f1 9d3c
000002d0: fd82 b3be fbca 82be 31f8 ef3e b60b 343d
000002e0: 918b 8fbe aee9 adbe 6ed6 173e 9605 d53d
000002f0: 9e3c 47be c0ce af3c ff33 f9bd b0d3 a7bb

actor.init_internal_node_embed.0.add_bias._bias f4 [32, 1]
0.02996899 -0.043847732 -0.030524349 -0.020465307 0.12957986 0.029736388 -0.0013726357 -0.010332625
0.036619037 0.099809416 0.0044550058 0.021039922 -0.002975415 0.0012638252 -0.057496287 0.034516625
-0.13209614 -0.0792542 0.014470734 0.0010951215 -0.05529099 0.06557915 0.063476995 0.13741112
0.03566862 0.0010430558 0.006989872 0.10034081 0.03402369 -0.044490706 0.008865511 -0.0708411
00000000: 8781 f53c ae99 33bd 330e fabc dca6 a7bc
00000010: 95b0 043e ba99 f33c 03ea b3ba 2c4a 29bc
00000020: d8fd 153d e168 cc3d 4cfb 913b ea5b ac3c
00000030: 2eff 42bb f0a6 a53a 3a81 6bbd 4e61 0d3d
00000040: 3644 07be 0750 a2bd a816 6d3c 2e8a 8f3a
00000050: ce78 62bd 5d4e 863d 3a00 823d 80b5 0c3e
00000060: 4219 123d 25b7 883a 4c0b e53b 7c7f cd3d
00000070: 6d5c 0b3d e33b 36bd a640 113c 2315 91bd

actor.init_internal_node_embed.2.module.weight f4 [64, 32]
0.08470576 0.1775213 0.12244562 -0.04351388 -0.50950074 0.14820506 0.054848645 0.1395319
0.14255893 0.17262849 0.43653157 -0.015658334 -0.02632586 -0.078035995 -0.47892472 0.19945057
-0.007898212 0.07216903 0.044959348 0.16257977 -0.21929027 -0.033342984 0.6240135 -0.0126213785
0.15763412 0.062298458 -0.08546495 -0.09093072 0.1930809 -0.101208724 -0.010245026 0.037288416
0.27357605 0.06172485 -0.28373188 -0.17870529 0.3262596 0.3060439 0.14117058 -0.14941895
-0.17419279 -0.023959525 0.26939017 0.21695057 0.30647755 0.14025046 0.08724443 0.26803783
-0.07897642 -0.022950472 -0.15369673 -0.257285 0.004401902 0.403247 0.62414116 0.30504063
0.067214124 -0.054610938 0.24743232 0.11552158 0.2967748 0.15972592 -0.13010953 -0.07911443
-0.28956693 -0.049458135 0.37095436 0.39859772 0.31226397 0.006181326 -0.014676899 0.48169243
0.14389235 0.07300718 -0.24996515 -0.17176184 -0.08518756 0.10285793 0.08087589 -0.29687423
-0.1666376 0.21109222 0.03272153 -0.26408312 -0.0949862 0.083862245 -0.207249 -0.2086551
0.18671666 -0.16736467 0.20749027 0.18893424 0.18802434 -0.16833104 0.16892037 -0.039765358
-0.114714384 -0.20106114 0.08356505 0.38965595 0.021408284 -0.060505535 0.049307186 0.07329795
0.38856685 0.12097906 0.037071742 0.21185742 -0.31344393 0.022478726 -0.30064857 0.1628168
0.10399767 -0.33150738 0.08284687 0.15958868 -0.26178238 0.23622876 -0.1947659 0.08121858
0.33385256 -0.13127063 0.14267671 0.28568035 0.21348862 -0.034773793 -0.13901025 0.34356764
0.32684624 -0.09304028 -0.025204262 0.18741474 -0.24996185 -0.05563136 0.039980534 -0.25950253
-0.19145 0.25684237 -0.044362593 0.05044226 -0.14433351 -0.17054504 0.22148031 -0.106792964
0.027144458 -0.038070943 0.0004059129 -0.17053668 -0.11632532 0.37458983 -0.021463083 0.0028356244
-0.011063208 0.3019936 0.45285478 0.047183815 -0.082444355 -0.0186303 0.1679578 -0.09652849
-0.19961952 -0.10141214 0.21771501 0.1031718 0.6076546 -0.17199585 -0.016067699 0.30746022
0.06361496 -0.19629951 0.48822558 -0.15568238 -0.19978157 -0.17760137 0.10866608 0.18156978
0.19574292 0.10352843 0.015623806 -0.07007536 -0.036642198 -0.13998942 0.2474166 -0.2000436
0.36378008 0.22973453 0.21344429 0.6109476 -0.29205108 -0.020889066 0.26735795 0.25276378
0.31787622 -0.002463963 -0.044962388 0.23319122 0.28132638 -0.06750836 -0.12119493 0.31911978
0.1844985 0.18930283 0.22207187 -0.049315628 -0.29458684 -0.136669 0.01167955 -0.35824415
0.0047367043 -0.24660207 0.013217821 0.14147401 -0.025539258 -0.08893878 -0.18289445 0.043308653
-0.18820617 -0.026728733 -0.135103 0.14069359 -0.26128796 0.09404995 -0.12943897 -0.18421613
-0.1041877 -0.113018416 -0.190417 -0.0045524156 0.15850495 -0.021039478 -0.04253359 0.24278177
0.20535553 -0.033339024 0.09152794 -0.0031905114 -0.058898546 0.14393409 -0.095983855 -0.02783775
-0.036444902 -0.3524246 0.18227768 -0.034960028 0.032947857 -0.15993749 0.6083629 -0.061865266
-0.023882037 0.16431022 0.0074676434 0.12283868 0.25712505 0.20417167 0.2039888 -0.19781916
00000000: 377a ad3d 25c8 353e c5c4 fa3d 9c3b 32bd
00000010: a46e 02bf 11c3 173e f9a8 603d 73e1 0e3e
00000020: f8fa 113e 86c5 303e 1181 df3e e845 80bc
00000030: 54a9 d7bc 56d1 9fbd 9f35 f5be c53c 4c3e
00000040: 8167 01bc 5bcd 933d 4b27 383d 507b 263e
00000050: a18d 60be a792 08bd 59bf 1f3f e6c9 4ebc
00000060: d76a 213e ab2c 7f3d 3f08 afbd e339 babd
00000070: 00b7 453e 8546 cfbd c1da 27bc bdbb 183d
00000080: 2912 8c3e 32d3 7c3d 4e45 91be 85fe 36be
00000090: 800b a73e c9b1 9c3e 058f 103e 4801 19be
000000a0: 985f 32be c446 c4bc 82ed 893e 4a28 5e3e
000000b0: a0ea 9c3e d19d 0f3e 35ad b23d 413c 893e
000000c0: 64be a1bd a102 bcbc ad62 1dbe dcba 83be
000000d0: d53d 903b 6476 ce3e b7c7 1f3f 492e 9c3e
000000e0: 8fa7 893d b8af 5fbd e65e 7d3e 9496 ec3d
000000f0: def2 973e 318f 233e 6f3b 05be bf06 a2bd
00000100: 1e42 94be 9d94 4abd bbed bd3e 0015 cc3e
00000110: 10e1 9f3e b98c ca3b 6077 70bc 64a0 f63e
00000120: 8458 133e ca84 953d ddf6 7fbe 56e2 2fbe
00000130: d176 aebd 2ea7 d23d 42a2 a53d e6ff 97be
00000140: 0ca3 2abe 8f28 583e 0307 063d e735 87be
00000150: 2088 c2bd f8bf ab3d 1539 54be afa9 55be
00000160: a732 3f3e a561 2bbe 5478 543e fa77 413e
00000170: 7489 403e f95e 2cbe 76f9 2c3e 00e1 22bd
00000180: 60ef eabd f9e2 4dbe 2724 ab3d fc80 c73e
00000190: 6d60 af3c a7d4 77bd 55f6 493d 3c1d 963d
000001a0: 3cf2 c63e dfc3 f73d 8ad8 173d 27f1 583e
000001b0: b97b a0be 4e25 b83c 9cee 99be 72b9 263e
000001c0: bbfc d43d 56bb a9be 9fab a93d 376b 233e
000001d0: 5708 86be f4e5 713e b670 47be ed55 a63d
000001e0: b9ee aa3e cf6b 06be d819 123e b244 923e
000001f0: c39c 5a3e f76e 0ebd b458 0ebe 19e8 af3e
00000200: 6458 a73e e78b bebd 2b79 cebc a6e9 3f3e
00000210: 00f6 7fbe b5dd 63bd a1c2 233d 84dd 84be
00000220: 780b 44be d880 833e 8db5 35bd 8b9c 4e3d
00000230: 2acc 13be 5ca3 2ebe bccb 623e 45b6 dabd
00000240: 0e5e de3c 47f0 1bbd b5d0 d439 2ba1 2ebe
00000250: f83b eebd 3dca bf3e 59d3 afbc e2d5 393b
00000260: 7542 35bc e89e 9a3e 95dc e73e d143 413d
00000270: 96d8 a8bd 929e 98bc 21fd 2b3e bbb0 c5bd
00000280: 0f69 4cbe 2bb1 cfbd aff0 5e3e bd4b d33d
00000290: 408f 1b3f ae1f 30be 68a0 83bc 6d6b 9d3e
000002a0: 8f48 823d bd02 49be b4f8 f93e 346b 1fbe
000002b0: 8a93 4cbe 22dd 35be 528c de3d 6eed 393e
000002c0: d570 483e b706 d43d fefa 7f3c ac83 8fbd
000002d0: 2116 16bd 6359 0fbe c75a 7d3e 3bd8 4cbe
000002e0: 6241 ba3e 873f 6b3e 2491 5a3e 1067 1c3f
000002f0: b887 95be 8c1f abbc 24e3 883e 416a 813e
00000300: acc0 a23e 717a 21bb 7b2a 38bd aec9 6e3e
00000310: 030a 903e d341 8abd 0c35 f8bd ab63 a33e
00000320: 2ded 3c3e 9ad8 413e cf66 633e 2fff 49bd
00000330: 16d4 96be f5f2 0bbe 955b 3f3c c76b b7be
00000340: 5b36 9b3b 4185 7cbe 8f8f 583c 90de 103e
00000350: b537 d1bc 8925 b6bd af48 3bbe 6a64 313d
00000360: 1eb9 40be 37f6 dabc 7158 0abe fb11 103e
00000370: 89c7 85be 439d c03d a68b 04be 27a3 3cbe
00000380: 5c60 d5bd 3376 e7bd adfc 42be 6e2c 95bb
00000390: 1f4f 223e fc5a acbc b437 2ebd c99b 783e
000003a0: b848 523e 808e 08bd 0073 bb3d e617 51bb
000003b0: 9a3f 71bd 7563 133e 2f93 c4bd fe0b e4bc
000003c0: 4047 15bd ff70 b4be 00a7 3a3e 3f32 0fbd
000003d0: 55f4 063d a7c6 23be acbd 1b3f 6f66 7dbd
000003e0: 43a4 c3bc f040 283e 22b3 f43b d992 fb3d
000003f0: e5a5 833e 6112 513e 71e2 503e 1b91 4abe

actor.init_internal_node_embed.2.add_bias._bias f4 [64, 1]
-0.09355697 0.28591695 -0.01082022 0.065844685 0.094198935 0.26447156 -0.026011983 0.24710646
-0.1074898 -0.15625754 -0.070883624 0.10059025 -0.055220123 0.0857532 0.1122016 0.13104773
0.10212024 -0.0071771876 0.02074626 0.044800125 -0.044332687 0.031620376 -0.043149676 -0.06871945
0.07897548 0.029818416 0.12294596 -0.10366811 0.037736952 0.06045671 -0.013099539 -0.05616728
-0.058324482 0.024670148 0.22826022 -0.105948426 -0.033328515 -0.28335544 -0.073079236 0.06518724
-0.075399406 -0.1550724 0.04069636 0.024542533 -0.19816037 0.0031030907 -0.26037863 -0.14500429
0.075700045 0.108752504 0.105657525 0.18052623 0.08686018 0.0070692766 -0.051464282 0.21242285
0.18355921 -0.051305234 -0.24964409 0.0969754 0.031222109 0.10470895 -0.14604136 0.090545274
00000000: cc9a bfbd b563 923e 4b47 31bc 94d9 863d
00000010: 5feb c03d d168 873e 1517 d5bc 7a09 7d3e
00000020: 9d23 dcbd fa01 20be 6f2b 91bd 4302 ce3d
00000030: 7f2e 62bd 609f af3d f4c9 e53d 6031 063e
00000040: 6b24 d13d 9d2e ebbb 10f4 a93c 5680 373d
00000050: 3196 35bd 5e84 013d b7bd 30bd c8bc 8cbd
00000060: e5bd a13d c045 f43c 17cb fb3d f24f d4bd
00000070: 1092 1a3d 75a1 773d 739f 56bc a90f 66bd
00000080: a7e5 6ebd 0d19 ca3c 0cbd 693e 7dfb d8bd
00000090: 7b83 08bd f713 91be 91aa 95bd e380 853d
000000a0: 016b 9abd 4dcb 1ebe 3ab1 263d 6c0d c93c
000000b0: 8dea 4abe 395d 4b3b 5950 85be 017c 14be
000000c0: a008 9b3d a2b9 de3d f962 d83d dedb 383e
000000d0: c0e3 b13d 64a5 e73b 36cc 52bd 6085 593e
000000e0: f2f6 3b3e 7025 52bd b3a2 7fbe 0a9b c63d
000000f0: 82c5 ff3c a571 d63d de8b 15be cd6f b93d

actor.init_leaf_node_embed.0.module.weight f4 [32, 8]
-0.08309346 -0.34666064 -0.3547747 -0.06368592 0.17214592 0.35590455 0.49556488 0.26958755
-0.2773131 -0.58473337 -0.055820342 -0.42047247 -0.3224832 0.36292508 -0.022073694 0.36473003
0.20385347 -0.3687508 -0.1451138 0.41591254 -0.0036875317 -0.31021586 -0.05668357 -0.067440934
-0.4001915 -0.20689538 -0.24616304 -0.25402737 0.34119478 0.044733487 0.45127562 0.114205725
-0.078441024 -0.13508183 0.08871871 0.16273957 0.32832152 0.1167386 -0.49865738 0.39125538
0.087133616 0.14744078 -0.5343463 0.15634583 -0.46276838 0.5284747 -0.12240198 -0.2569163
-0.31212917 -0.17322513 -0.0015198385 0.07268923 0.14549156 -0.14859197 -0.09980849 -0.10941601
0.36334577 -0.44706216 0.20435894 0.48973945 -0.04771665 0.40734923 0.044950716 0.2253498
0.09857135 0.14828977 -0.15298513 0.3233829 0.0812395 0.09465213 0.49037474 0.34801507
-0.08246344 0.3481266 -0.16382864 0.29956475 0.027309576 -0.13344575 0.4524055 -0.29887226
0.06393018 0.10048225 0.2778245 -0.09166726 0.35032123 -0.026700728 -0.19306481 0.021164838
-0.19952269 0.04828132 0.14626303 0.004207633 0.4467326 0.1495168 -0.0166643 -0.3579186
0.39838958 0.016708994 0.49865147 -0.34047583 -0.02265722 -0.06539091 0.36708963 -0.116579294
-0.2796955 0.08815541 0.40623415 -0.2428524 -0.29971474 -0.11155511 0.35581025 0.0762532
0.21981211 -0.0026364138 0.17936286 0.41593695 0.10777576 0.40881383 0.11389746 -0.07272469
0.44276276 0.054433472 -0.08935126 -0.44841948 0.28284037 0.40829915 0.035715528 -0.30470893
-0.06497781 0.09349701 -0.2926642 0.36850512 0.17969677 0.020909866 -0.24215657 0.078400984
-0.10571613 0.37066925 0.0654221 0.10335746 -0.27612528 0.09954648 0.18544158 0.2879545
-0.21024667 0.05685996 0.055183493 -0.34192845 -0.2526957 0.3641254 0.049006805 0.11954338
-0.3868833 0.044928204 -0.11295272 0.28133556 0.15181114 0.4869647 -0.0895742 0.106007986
-0.2500978 -0.2665695 -0.31569314 -0.035559848 0.021761226 0.41686097 -0.14125684 -0.26208043
0.18574797 -0.100474134 0.47344342 -0.15087715 -0.020593997 -0.090257294 -0.19497034 0.05800785
-0.36667705 0.37752178 -0.004158428 0.36044842 0.23715873 0.17452283 0.11806061 0.13221456
-0.28853017 -0.113225624 0.079299875 -0.05963651 0.42159247 -0.040988352 -0.037020203 -0.062129177
0.06104363 0.13440639 0.3060336 -0.014172941 0.15546356 0.067586884 -0.017179154 0.49396384
0.29957616 0.2144956 -0.48166907 -0.3231303 0.03573469 -0.022800684 0.046824694 -0.2999806
0.26847792 -0.20940952 0.1691446 0.3828148 0.18703026 0.106204 0.44521493 -0.278283
0.05910521 -0.17721038 -0.3727772 0.12550405 0.60246307 -0.06343121 0.21698657 0.36417335
0.34834778 -0.10773893 -0.13374974 -0.048912928 0.05594959 -0.31165048 0.102220036 0.20314844
0.10322948 0.232723 -0.18732725 -0.20247962 0.30264735 0.005862576 -0.2170839 0.16490386
0.25128648 0.40703765 -0.39959356 -0.18704535 -0.24179676 -0.1527312 -0.03516907 0.45629385
0.07647513 0.3798066 -0.06458977 -0.18528168 0.1652544 0.35705477 0.17210491 -0.09707967
00000000: e72c aabd 817d b1be 08a5 b5be c36d 82bd
00000010: 0547 303e 1f39 b63e aeba fd3e 6107 8a3e
00000020: fcfb 8dbe 16b1 15bf dfa3 64bd 2b48 d7be
00000030: 851c a5be 51d1 b93e e4d3 b4bc e5bd ba3e
00000040: f7be 503e e8cc bcbe b698 14be 7df2 d43e
00000050: 84aa 71bb 9dd4 9ebe 082d 68bd 791e 8abd
00000060: e6e5 ccbe 62dc 53be 2a12 7cbe e00f 82be
00000070: 15b1 ae3e 763a 373d 990d e73e b1e4 e93d
00000080: b0a5 a0bd e452 0abe 28b2 b53d 34a5 263e
00000090: c219 a83e a614 ef3d 0550 ffbe a052 c83e
000000a0: 1c73 b23d b7fa 163e ebca 08bf 1f19 203e
000000b0: faef ecbe 1e4a 073f e4ad fabd 898a 83be
000000c0: 65cf 9fbe ee61 31be 5135 c7ba 17de 943d
000000d0: bdfb 143e 7e28 18be 6568 ccbd 8015 e0bd
000000e0: 7508 ba3e 55e5 e4be 7843 513e 21bf fa3e
000000f0: 8972 43bd 1490 d03e 3e1e 383d 19c2 663e
00000100: c7df c93d 46d9 173e 22a8 1cbe 7292 a53e
00000110: e560 a63d fad8 c13d 6612 fb3e 082f b23e
00000120: 98e2 a8bd a63d b23e b2c2 27be 8d60 993e
00000130: 55b8 df3c 01a6 08be b2a1 e73e c905 99be
00000140: d4ed 823d a3c9 cd3d 033f 8e3e 0bbc bbbd
00000150: 4e5d b33e 7cbb dabc c8b2 45be e261 ad3c
00000160: ad4f 4cbe a2c2 453d fac5 153e 2fe0 893b
00000170: 23ba e43e ef1a 193e 9283 88bc 1b41 b7be
00000180: b8f9 cb3e 4de1 883c 3f4f ff3e d952 aebe
00000190: a29b b9bc abeb 85bd 2cf3 bb3e 20c1 eebd
000001a0: 4034 8fbe d38a b43d ecfd cf3e 4dae 78be
000001b0: 3674 99be 0177 e4bd c32c b63e a32a 9c3d
000001c0: 6d16 613e afc7 2cbb e6aa 373e b0f5 d43e
000001d0: 8ab9 dc3d 0c50 d13e 1243 e93d aff0 94bd
000001e0: cdb1 e23e a2f5 5e3d cbfd b6bd 3d97 e5be
000001f0: 74d0 903e 960c d13e 724a 123d cf02 9cbe
00000200: 1613 85bd 5c7b bf3d 15d8 95be b4ac bc3e
00000210: 6e02 383e 2b4b ab3c e4f7 77be b290 a03d
00000220: b381 d8bd 5cc8 bd3e 06fc 853d 13ad d33d
00000230: 4b60 8dbe 06df cb3d 66e4 3d3e c66e 933e
00000240: e74a 57be fde5 683d 1608 623d 3f11 afbe
00000250: 5561 81be a56e ba3e 5cbb 483d 29d3 f43d
00000260: 9115 c6be a306 383d c153 e7bd 370b 903e
00000270: 6174 1b3e 7053 f93e ae72 b7bd b71a d93d
00000280: d20c 80be cc7b 88be 88a2 a1be 34a7 11bd
00000290: 9944 b23c cd6e d53e a2a5 10be 682f 86be
000002a0: b734 3e3e 62c5 cdbd 2d67 f23e 8a7f 1abe
000002b0: beb4 a8bc d1d8 b8bd 4ea6 47be a499 6d3d
000002c0: 18bd bbbe 894a c13e 6c43 88bb b28c b83e
000002d0: bdd9 723e 1db6 323e c3c9 f13d 4163 073e
000002e0: 3aba 93be d6e2 e7bd f967 a23d 6a45 74bd
000002f0: f8da d73e 67e3 27bd 7fa2 17bd 2a7b 7ebd
00000300: e308 7a3d d4a1 093e 70b0 9c3e a035 68bc
00000310: d731 1f3e fe6a 8a3d 4cbb 8cbc d4e8 fc3e
00000320: 0c62 993e bca4 5b3e 549d f6be 5671 a5be
00000330: 8a5e 123d 80c8 babc 40cb 3f3d 0f97 99be
00000340: f075 893e 736f 56be 3e34 2d3e 4d00 c43e
00000350: dc84 3f3e 7c81 d93d 36f3 e33e 1c7b 8ebe
00000360: 4e18 723d a376 35be a7dc bebe 2284 003e
00000370: 053b 1a3f 39e8 81bd ba31 5e3e ee74 ba3e
00000380: a45a b23e 3aa6 dcbd b1f5 08be ec58 48bd
00000390: 662b 653d a790 9fbe bd58 d13d 2506 503e
000003a0: fa69 d33d f04e 6e3e b7d2 3fbe d156 4fbe
000003b0: 98f4 9a3e da1a c03b 3e4b 5ebe 8fdc 283e
000003c0: 9fa8 803e 3d67 d03e 8797 ccbe d188 3fbe
000003d0: 9299 77be 9165 1cbe 710d 10bd 599f e93e
000003e0: fe9e 9c3d 0376 c23e a447 84bd 7bba 3dbe
000003f0: 7338 293e e2cf b63e 453c 303e b5d1 c6bd

actor.init_leaf_node_embed.0.add_bias._bias f4 [32, 1]
0.014924189 0.022145325 0.008249718 0.007958071 -0.1203067 0.017681202 0.026404886 -0.022563005
0.079915136 0.031446822 0.036082 -0.026133733 -0.0014608381 0.0038848452 0.12626225 0.0011918435
-0.03844806 -0.050045963 0.010824325 -0.008693029 0.035866246 0.038261082 0.12054664 -0.01569869
0.014538194 0.010467452 0.09265733 -0.021436563 0.013032351 0.0035937787 -0.005389569 -0.1578761
00000000: 9684 743c 1d6a b53c d329 073c 9262 023c
00000010: 5c63 f6bd 2bd8 903c 0f4f d83c 0dd6 b8bc
00000020: 8caa a33d 62ce 003d b8ca 133d 6916 d6bc
00000030: 9879 bfba e398 7e3b e44a 013e a237 9c3a
00000040: b77b 1dbd fffc 4cbd 8258 313c 356d 0ebc
00000050: 7ce8 123d a7b7 1c3d 28e1 f63d 8a9a 80bc
00000060: 9b31 6e3c ad7f 2b3c 20c3 bd3d bb9b afbc
00000070: a485 553c 9a85 6b3b fb9a b0bb 46aa 21be

actor.init_leaf_node_embed.2.module.weight f4 [64, 32]
0.20687918 0.22000323 0.10284923 0.0064121517 -0.23930366 0.40477914 0.29392055 -0.21647778
0.0392599 0.16383998 -0.049960416 -0.09834568 -0.35270977 -0.13904473 0.15813786 0.082719535
0.23449636 -0.1659077 0.22997254 0.29986417 0.60559726 -0.37709785 0.61182994 0.1992621
0.012460016 0.07540699 -0.020875817 0.42655987 -0.11578847 0.20605388 0.18987198 -0.34461954
-0.25797796 -0.008934869 -0.04098153 -0.0836691 -0.34570327 0.1300716 -0.25036687 0.2884714
0.24870278 -0.23647904 0.09799913 -0.20254777 -0.006101352 0.048249472 0.08626655 0.03413074
0.25701717 0.19303598 -0.02162195 -0.37228012 -0.14453813 0.35462803 0.19823518 0.2526624
0.0898958 0.12648039 0.11731911 0.10606965 0.0878708 0.034365337 0.26123658 -0.1961669
-0.10319417 0.105004326 -0.036968328 -0.29888263 0.14723279 -0.12255471 -0.11354615 -0.04369458
-0.18826593 0.38263616 0.031577338 0.08426857 0.049270604 0.038823374 0.08397768 0.050672088
-0.2114357 -0.12312089 0.19288276 -0.038735893 -0.09977398 0.14581288 0.09571571 0.14002083
0.33889303 0.1409105 0.22779162 -0.046226956 -0.17187472 0.074725874 -0.4902382 -0.068562016
-0.1278119 -0.009591883 -0.35420084 0.317836 -0.3447032 0.1783847 -0.15309437 0.11855932
0.034173414 0.07360937 0.17301865 0.0854983 0.287558 -0.26111373 -0.113930956 -0.03382599
-0.19143236 0.18949229 -0.014687561 0.13100252 -0.23855548 -0.15355599 -0.06691453 0.0014246558
0.021874178 -0.06224732 0.26570088 0.16116014 0.18643847 -0.19277945 -0.08021099 0.20740826
-0.23405568 -0.26591575 -0.3174953 -0.03658578 -0.0794925 -0.2359606 -0.19628014 -0.17924604
-0.6500953 0.32886335 0.060814537 -0.11266723 0.36574608 -0.03848239 -0.2748597 0.16355024
0.05445648 -0.06971616 -0.26955643 -0.15396895 0.14021808 0.14080387 0.090835184 -0.000918254
-0.14952183 -0.0057859723 0.017788667 -0.015417421 -0.083907396 0.024220133 -0.05945791 -0.121836975
-0.043009173 0.21707313 -0.09371991 -0.19882447 0.10551218 0.19592555 0.10757317 -0.09496495
-0.20953593 -0.13225295 -0.026693838 0.014572629 -0.12216606 -0.24822557 0.3362662 -0.27227136
0.28860426 0.08053729 0.09031493 -0.017091991 0.10343589 0.059886046 -0.14480507 -0.21341434
-0.25725248 0.07392327 0.06690944 0.37707928 -0.06253779 0.0028621042 -0.10784836 0.009767336
-0.26810244 -0.2305065 -0.33969724 0.047819056 -0.1333559 0.07070821 -0.015532625 -0.044498056
0.0037792737 -0.048445676 0.012255251 -0.18896055 0.4004091 0.13180304 -0.20442009 -0.13771878
-0.123287976 0.44470027 0.068587236 -0.09846205 0.16683297 0.009207191 -0.12879346 -0.034551557
0.108828455 0.35437793 -0.2817835 -0.06751727 0.14780325 0.057613876 -0.24205717 0.118043795
0.109361656 0.45727524 -0.1518615 -0.17099516 -0.4313328 -0.12510864 0.18599296 -0.26870805
-0.15145104 0.048131853 0.047930565 -0.31960982 0.046541575 -0.31769323 -0.47273913 -0.081236266
-0.15419011 0.06859627 -0.1614239 -0.16878255 0.050617058 0.411227 -0.047036108 -0.18460062
-0.038022388 -0.11104006 -0.15513127 -0.22179683 0.19585261 -0.3293032 0.12295677 -0.14844523
00000000: 23d8 533e 8748 613e 9ea2 d23d 071d d23b
00000010: 050c 75be 363f cf3e c17c 963e 5aac 5dbe
00000020: fdce 203d abc5 273e 4ba3 4cbd 7669 c9bd
00000030: 6096 b4be be61 0ebe e4ee 213e dc68 a93d
00000040: d01f 703e b5e3 29be ec7d 6b3e cc87 993e
00000050: 6c08 1b3f f812 c1be e3a0 1c3f 5d0b 4c3e
00000060: 1825 4c3c fb6e 9a3d c303 abbc 0e66 da3e
00000070: 8122 edbd caff 523e cd6d 423e f971 b0be
00000080: b015 84be 8f63 12bc 40dc 27bd b55a abbd
00000090: 0500 b1be 7d31 053e 1630 80be 86b2 933e
000000a0: f1ab 7e3e 9027 72be c5b3 c83d af68 4fbe
000000b0: daed c7bb 3da1 453d 84ac b03d adcc 0b3d
000000c0: c197 833e 39ab 453e 8420 b1bc 809b bebe
000000d0: ce01 14be ce91 b53e 2afe 4a3e f75c 813e
000000e0: 4a1b b83d 1384 013e 0045 f03d 0b3b d93d
000000f0: 9bf5 b33d abc2 0c3d cdc0 853e fadf 48be
00000100: 7757 d3bd 820c d73d 1a6c 17bd 2507 99be
00000110: 31c4 163e f7fd fabd e28a e8bd 17f9 32bd
00000120: c9c8 40be e3e8 c33e 3d57 013d 0095 ac3d
00000130: f9cf 493d 4205 1f3d 7dfc ab3d 898d 4f3d
00000140: 9a82 58be ce26 fcbd 0f83 453e 87a9 1ebd
00000150: 4d56 ccbd f94f 153e 9906 c43d 9f61 0f3e
00000160: 6383 ad3e d84a 103e 3542 693e 7a58 3dbd
00000170: edff 2fbe e109 993d 8000 fbbe 3e6a 8cbd
00000180: 1fe1 02be 4627 1dbc d059 b5be 66bb a23e
00000190: f07c b0be 7baa 363e c5c4 1cbe 3bcf f23d
000001a0: 6cf9 0b3d 82c0 963d cd2b 313e bc19 af3d
000001b0: cd3a 933e b3b0 85be a254 e9bd 1f8d 0abd
000001c0: d806 44be 440a 423e 19a4 70bc 8625 063e
000001d0: e347 74be c83d 1dbe 7c0a 89bd 84bb ba3a
000001e0: 7a31 b33c 0cf7 7ebd f209 883e 2a07 253e
000001f0: bae9 3e3e fa67 45be a945 a4bd d562 543e
00000200: 4bac 6fbe 1c26 88be be8e a2be f9da 15bd
00000210: f7cc a2bd a89f 71be a9fd 48be 468c 37be
00000220: a56c 26bf c760 a83e aa18 793d 14be e6bd
00000230: 1243 bb3e b69f 1dbd 69ba 8cbe b779 273e
00000240: c20d 5f3d 59c7 8ebd 4d03 8abe 09aa 1dbe
00000250: 5495 0f3e e42e 103e cc07 ba3d fcb6 70ba
00000260: 401c 19be 4198 bdbb 8ab9 913c 5a99 7cbc
00000270: a4d7 abbd 4d69 c63c 238a 73bd aa85 f9bd
00000280: 632a 30bd 6b48 5e3e 39f0 bfbd a498 4bbe
00000290: c516 d83d b5a0 483e 524f dc3d fc7c c2bd
000002a0: 9690 56be 516d 07be 09ad dabc 09c2 6e3c
000002b0: 3332 fabd d82e 7ebe 152b ac3e 2767 8bbe
000002c0: f0c3 933e bcf0 a43d 09f7 b83d 8104 8cbc
000002d0: 32d6 d33d 124b 753d c847 14be 4a89 5abe
000002e0: 99b6 83be 1565 973d d107 893d 8910 c13e
000002f0: d013 80bd 2492 3b3b 9adf dcbd 2d07 203c
00000300: b944 89be e509 6cbe ccec adbe eadd 433d
00000310: 738e 08be 77cf 903d 8d7c 7ebc 9843 36bd
00000320: b1ad 773b f96e 46bd 40ca 483c e07e 41be
00000330: 6c02 cd3e 60f7 063e 8053 51be 2706 0dbe
00000340: 687e fcbd c1af e33e 7777 8c3d 79a6 c9bd
00000350: 43d6 2a3e c2d9 163c 6fe2 03be ef85 0dbd
00000360: 74e1 de3d 0671 b53e ed45 90be 7f46 8abd
00000370: bc59 173e 87fc 6b3d d6dd 77be f2c0 f13d
00000380: 01f9 df3d fb1f ea3e 9581 1bbe 5b19 2fbe
00000390: a7d7 dcbe 7b1c 00be f074 3e3e 1a94 89be
000003a0: fb15 1bbe e825 453d d752 443d e6a3 a3be
000003b0: 61a2 3e3d b0a8 a2be dd0a f2be 335f a6bd
000003c0: 03e4 1dbe 347c 8c3d 4f4c 25be 55d5 2cbe
000003d0: d553 4f3d 588c d23e efa8 40bd f207 3dbe
000003e0: 5dbd 1bbd f968 e3bd bbda 1ebe b51e 63be
000003f0: 968d 483e 6e9a a8be c2d0 fb3d 0702 18be

actor.init_leaf_node_embed.2.add_bias._bias f4 [64, 1]
0.24517924 0.18789966 0.022228463 0.022593426 -0.18949316 0.06687698 -0.20214401 -0.2940614
-0.24341606 -0.12648426 0.24861468 -0.1721398 0.084220424 -0.1093038 -0.08042015 -0.075059436
0.086458996 -0.11618193 -0.25037938 -0.023620076 0.04661544 0.16762674 0.038044564 0.07736115
0.24387039 -0.06100662 -0.025874127 -0.08540571 -0.2010365 0.08888612 -0.21556118 -0.046300035
0.06985698 -0.04316706 -0.1608367 0.19224237 0.23355187 0.0014340855 -0.028002746 -0.12815659
-0.009770759 -0.39261615 0.18969215 0.0150280055 -0.17915113 -0.046573333 -0.05857992 -0.032257024
-0.23968638 0.10654796 -0.053089496 -0.012919103 0.09840884 -0.10826271 -0.16531295 0.13768701
-0.08682222 -0.28029 0.21722984 -0.27022558 0.10152786 -0.122041926 0.07356386 -0.03355932
00000000: 4410 7b3e c568 403e 7718 b63c d915 b93c
00000010: 7f0a 42be ccf6 883d d7fe 4ebe 378f 96be
00000020: 0f42 79be 1785 01be d994 7e3e 6a45 30be
00000030: c27b ac3d acda dfbd 52b3 a4bd c3b8 99bd
00000040: 6a11 b13d cbf0 edbd ba31 80be e47e c1bc
00000050: d5ef 3e3d 58a6 2b3e 9ed4 1b3d 866f 9e3d
00000060: 29b9 793e 14e2 79bd faf5 d3bc 30e9 aebd
00000070: 83dc 4dbe ed09 b63d 12bc 5cbe 1ba5 3dbd
00000080: 2d11 8f3d f1cf 30bd 60b2 24be 2fdb 443e
00000090: 3928 6f3e edf7 bb3a 0466 e5bc 7b3b 03be
000000a0: 8915 20bc fc04 c9be a93e 423e 0638 763c
000000b0: 6573 37be aec3 3ebd 80f1 6fbd f11f 04bd
000000c0: 5970 75be d135 da3d 5f74 59bd a5aa 53bc
000000d0: 938a c93d d7b8 ddbd cc47 29be d3fd 0c3e
000000e0: d9cf b1bd 2c82 8fbe 8071 5e3e 025b 8abe
000000f0: d7ed cf3d 1ef1 f9bd a6a8 963d 7f75 09bd

actor.init_next_embed.0.module.weight f4 [32, 6]
0.01449618 -0.14783362 -0.29890305 -0.5457848 -0.00021506089 -0.24838835 0.011719289 -0.097654946
0.18683255 -0.15276279 -0.17871265 -0.21192521 0.0027077189 -0.26774636 -0.25778565 0.6138693
-0.016875507 0.03616654 0.16466722 0.036373135 -0.033101637 0.49789605 -0.45759347 -0.44196346
0.21770306 -0.4220224 -0.12407604 -0.3149987 -0.04950558 -0.08552333 0.007385266 -0.5772369
0.28352162 -0.68060607 -0.08975331 0.23233344 -0.022968981 0.10291967 0.070973516 0.24399103
-0.17313002 0.06454896 -0.110627644 0.09831574 0.14582333 0.12105551 -0.3711043 0.21993363
-0.0352647 -0.5904613 0.2444619 0.51464254 0.81977904 -0.6840959 0.10676436 -0.29224053
-0.1822739 0.046545185 -0.3510126 -0.4490659 -0.3317625 0.1820992 0.016121991 0.36140722
0.24104618 -0.4735838 0.56177723 -0.029234236 -0.021628413 0.114249855 0.3152696 -0.40376183
-0.35351092 -0.032835547 0.14581446 0.0068762605 -0.24704136 -0.3424951 -0.066840194 0.009134302
0.12415758 -0.16315944 -0.19277595 0.036839403 0.5471056 -0.22806235 -0.25601846 -0.09765015
-0.12393143 0.69748217 0.2573692 -0.06358731 -0.29770973 -0.08048304 -0.30765757 0.8958
-0.27361998 -0.034050748 -0.11244481 -0.12722078 -0.3959589 0.12710589 0.58976644 -0.05052203
0.19700745 -0.25002798 -0.030030075 0.04501987 -0.059024684 0.2881259 0.22860755 0.032080438
-0.03517912 0.28163466 0.90974665 0.2441345 -0.35871825 -0.6679133 0.0646654 0.4578668
0.26917827 0.026163727 -0.03635058 -0.12120092 -0.2421934 0.1751823 -0.16910991 -0.2110019
-0.7182638 -0.018974477 0.05140143 -0.08206235 0.12259436 -0.1477266 -0.09739232 0.146654
-0.32090035 0.07960189 0.027159465 -0.26592296 0.33082733 0.35381857 0.7606136 0.032450907
0.6915887 -0.09954142 -0.18245748 0.22238201 0.210576 0.71105105 0.21939878 0.28594753
-0.06433231 -0.14319621 -0.18026844 -0.41682106 0.0315466 -0.32030162 0.18111199 0.1670313
0.054751314 0.14467633 -0.50193477 -0.38239774 -0.18877986 -0.23071902 0.22444522 -0.13810201
0.37177652 0.20565565 -0.01903345 -0.6089625 0.091377765 0.3975119 -0.16798536 0.23072688
-0.34367222 -0.45511138 0.13206232 0.4122871 -0.11250655 -0.25917542 0.29571474 -0.1604962
-0.04848836 0.11422282 0.32935363 -0.22645392 -0.47012034 -0.10431784 -0.020990593 0.7703587
00000000: 6381 6d3c b261 17be d209 99be 8db8 0bbf
00000010: f881 61b9 8459 7ebe 4302 403c 51ff c7bd
00000020: 0851 3f3e d96d 1cbe 7300 37be ec02 59be
00000030: fc73 313b 0d16 89be 7bfc 83be 8a26 1d3f
00000040: 813e 8abc 5e23 143d 869e 283e fffb 143d
00000050: 9595 07bd 3bec fe3e b149 eabe 0949 e2be
00000060: 8ded 5e3e 5213 d8be 941b febd 8247 a1be
00000070: 5dc6 4abd db26 afbd 1a00 f23b ccc5 13bf
00000080: bf29 913e 333c 2ebf 95d0 b7bd d1e8 6d3e
00000090: 7229 bcbc 8cc7 d23d 905a 913d c9d8 793e
000000a0: ff48 31be 3f32 843d bf90 e2bd c359 c93d
000000b0: b652 153e f4eb f73d 6201 bebe 4836 613e
000000c0: b871 10bd 7928 17bf 3854 7a3e 9dbf 033f
000000d0: 0add 513f e920 2fbf 46a7 da3d 8da0 95be
000000e0: 02a6 3abe 2aa6 3e3d ecb7 b3be f7eb e5be
000000f0: c6dc a9be 3678 3a3e 4412 843c 5e0a b93e
00000100: cfd4 763e 9379 f2be a2d0 0f3f a37c efbc
00000110: 122e b1bc d4fb e93d 046b a13e dfb9 cebe
00000120: 62ff b4be 917e 06bd 6350 153e 4152 e13b
00000130: 69f8 7cbe 855b afbe 83e3 88bd 0aa8 153c
00000140: 5446 fe3d 4513 27be 0f67 45be eae4 163d
00000150: 1d0f 0c3f 2d89 69be da14 83be cdfc c7bd
00000160: c3cf fdbd 318e 323f e5c5 833e 103a 82bd
00000170: 696d 98be 4bd4 a4bd 4b85 9dbe 2653 653f
00000180: eb17 8cbe cc78 0bbd 7749 e6bd 2a46 02be
00000190: 20bb cabe 0c28 023e effa 163f 30f0 4ebd
000001a0: 52bc 493e ab03 80be a201 f6bc c166 383d
000001b0: dec3 71bd 3d85 933e 1918 6a3e c766 033d
000001c0: fb17 10bd 6b32 903e 28e5 683f 65fe 793e
000001d0: eba9 b7be 5efc 2abf 4b6f 843d 846d ea3e
000001e0: bcd1 893e 5055 d63c 59e4 14bd 3038 f8bd
000001f0: 8c01 78be fd62 333e 262b 2dbe e210 58be
00000200: 23e0 37bf 5d70 9bbc 4e8a 523d 4e10 a8bd
00000210: c012 fb3d a445 17be a075 c7bd 772c 163e
00000220: 0d4d a4be 5106 a33d 877d de3c 0e27 88be
00000230: 3362 a93e b527 b53e 93b7 423f 3eeb 043d
00000240: f50b 313f 5fdc cbbd 22d6 3abe 1cb8 633e
00000250: 3ca1 573e 7107 363f 13aa 603e b767 923e
00000260: a8c0 83bd 07a2 12be 4a98 38be 9269 d5be
00000270: 0237 013d 93fe a3be 6c75 393e 410a 2b3e
00000280: ea42 603d 0826 143e cc7e 00bf a3c9 c3be
00000290: 824f 41be 9b41 6cbe f8d4 653e 9d6a 0dbe
000002a0: 7e59 be3e 6597 523e 0aec 9bbc f7e4 1bbf
000002b0: 4424 bb3d ae86 cb3e 5b04 2cbe ab43 6c3e
000002c0: cef5 afbe 5c04 e9be 583b 073e 4b17 d33e
000002d0: d669 e6bd a4b2 84be ec67 973e 1e59 24be
000002e0: bb9b 46bd a7ed e93d 0aa1 a83e 89e3 67be
000002f0: 9db3 f0be 97a4 d5bd 77f4 abbc 3a36 453f

actor.init_next_embed.0.add_bias._bias f4 [32, 1]
0.001044395 -0.0009943758 0.0058044046 -0.012471129 0.013234276 -0.05221988 0.15170263 -0.10264161
-0.14414999 -0.003630666 -0.23626675 0.18917729 -0.0035857735 0.022876315 0.46813962 0.45355666
0.0044214614 -0.09089504 -0.2044591 0.44157502 -0.09059215 -0.0035179798 -0.19976164 -0.03433947
0.42512083 0.014869842 0.10303352 0.010230503 0.277862 0.18355916 -0.039892465 0.4740409
00000000: 15e4 883a b755 82ba e032 be3b b553 4cbc
00000010: 94d4 583c 83e4 55bd ef57 1b3e c435 d2bd
00000020: 0e9c 13be 78f0 6dbb e9ef 71be b1b7 413e
00000030: 4cff 6abb 1c67 bb3c ffaf ef3e 9438 e83e
00000040: e8e1 903b 2e27 babd ba5d 51be 1f16 e23e
00000050: 6188 b9bd e88d 66bb 518e 4cbe 8ba7 0cbd
00000060: 70a9 d93e a3a0 733c 3d03 d33d d79d 273c
00000070: ee43 8e3e eff6 3b3e 4866 23bd 7db5 f23e

actor.init_next_embed.2.module.weight f4 [64, 32]
0.064843886 -0.10370123 0.1575849 0.17569141 0.061759733 0.07875891 -0.29060516 -0.29129168
-0.33823293 0.30555823 0.08444661 -0.03041882 0.08513639 0.12101043 0.23472944 -0.16239065
-0.16459292 0.058582522 -0.02768277 -0.27734193 0.05655286 0.23213638 -0.4782919 -0.124249876
-0.16027664 0.3310892 -0.14658959 -0.10622818 0.27971837 -0.104707256 0.12327472 -0.13231671
0.28685257 -0.052107316 -0.17735617 -0.094591424 -0.13308428 -0.15565185 0.043107513 -0.037987377
0.17368586 0.03601526 0.48248276 0.20714281 -0.02504539 0.1269188 0.31224877 0.1734658
0.16596356 0.018036233 -0.09394133 0.51588184 0.1663376 0.059843726 0.056292105 -0.14087671
0.13301434 0.23659576 -0.05946478 -0.32987916 0.2343089 0.44218534 -0.20910028 0.16303225
0.03486608 0.03951868 0.17481165 -0.16022009 -0.0023307607 0.21287371 -0.2602256 -0.34128886
-0.18150836 -0.13601443 0.04071618 -0.08649062 0.0937847 -0.10523375 -0.042735785 0.41915897
-0.23876865 0.06829167 0.17066942 0.009229485 -0.07942896 0.06107856 -0.05766026 0.21633735
-0.24959563 0.1140884 -0.16876408 -0.1749299 -0.49278882 -0.21151482 -0.39021203 -0.24397746
0.09057132 0.15683089 0.33402616 -0.07778184 -0.34529424 0.025201764 0.05157258 0.1122522
0.08124641 0.24058114 -0.33804816 -0.006808678 0.11319676 0.20923372 0.08609287 0.06498945
-0.16162816 0.20463121 0.030005153 -0.13584419 -0.015101831 0.010384134 0.16508564 0.2153129
-0.36909246 -0.46269014 -0.078900605 -0.31785405 -0.266664 -0.09630007 0.024662469 0.09017746
-0.15799086 -0.389811 -0.012709088 0.25626695 0.10458148 -0.17309612 -0.0019283821 -0.08228207
0.32231548 -0.12244816 -0.24867958 0.17584714 -0.029772433 -0.06387773 0.09857254 -0.34325555
0.1685862 0.15369229 -0.1459811 -0.23882663 -0.1725913 0.086886466 0.1519688 0.11383268
-0.09996729 -0.107537724 0.3839431 0.21014266 -0.082864 -0.10917838 -0.19763996 -0.13196507
-0.11930937 -0.0069232304 -0.108485706 -0.11876189 0.41478774 0.21398194 0.09967509 0.1689903
-0.03972213 0.21933855 0.04056046 0.03465226 0.044444773 0.2343158 0.033736873 0.1174228
-0.028682778 0.32671183 0.11146419 0.13515173 0.045684703 -0.10979309 0.2636013 0.16261558
0.18527575 -0.088453 0.10288459 0.3477158 -0.16377181 -0.1198622 0.16933043 -0.3482764
0.03817091 0.15100606 0.0035530238 0.19283056 -0.045294847 0.031213487 0.023758648 -0.30448565
0.22415705 0.22813582 0.06939762 -0.0027201925 0.032942828 0.07696328 0.11025556 -0.22558558
-0.017922685 0.17294718 -0.20817146 0.00878181 0.20756498 -0.26058623 0.16646686 0.20846426
-0.16815704 0.084375925 -0.05212043 -0.21471958 -0.26541615 0.026837112 0.3354595 -0.18305257
0.010835341 0.029473266 0.01994615 0.029593794 0.23528834 -0.29798228 -0.25011224 -0.18061517
0.23144591 -0.021666555 0.35827595 -0.03169142 0.107651494 0.48216078 0.08082713 0.14562398
0.077775374 0.35374993 0.21048395 -0.06523896 -0.3296914 -0.29482955 -0.16404398 0.017618513
-0.03655625 0.038529705 0.15938765 -0.08576031 -0.0790262 0.073715135 -0.001403969 0.2905986
00000000: dfcc 843d 4f61 d4bd f05d 213e 73e8 333e
00000010: c6f7 7c3d 5a4c a13d 33ca 94be 2f24 95be
00000020: de2c adbe 2172 9c3e 58f2 ac3d e430 f9bc
00000030: fd5b ae3d 51d4 f73d ea5c 703e bc49 26be
00000040: 0c8b 28be 3af4 6f3d fac6 e2bc c3ff 8dbe
00000050: f9a3 673d 29b5 6d3e ade2 f4be b876 febd
00000060: 8f1f 24be 8684 a93e 951b 16be 298e d9bd
00000070: 3f37 8f3e c270 d6bd 7577 fc3d 087e 07be
00000080: 57de 923e 7b6e 55bd db9c 35be 26b9 c1bd
00000090: 3f47 08be 3363 1fbe 8191 303d a798 1bbd
000000a0: b5da 313e bd84 133d fb07 f73e 3f1d 543e
000000b0: fd2b cdbc 00f7 013e 12df 9f3e 05a1 313e
000000c0: 5af2 293e b9c0 933c 5064 c0bd d510 043f
000000d0: 6754 2a3e b21e 753d 8d92 663d fc41 10be
000000e0: e934 083e 2946 723e 5791 73bd ece5 a8be
000000f0: acee 6f3e 1e66 e23e 621e 56be edf1 263e
00000100: bccf 0e3d 57de 213d d301 333e bc10 24be
00000110: adbf 18bb 91fb 593e 4a3c 85be 6abd aebe
00000120: 54dd 39be 5e47 0bbe 02c6 263d ff21 b1bd
00000130: 3112 c03d cb84 d7bd b80b 2fbd 019c d63e
00000140: c57f 74be 81dc 8b3d f7c3 2e3e 4437 173c
00000150: a7ab a2bd 832d 7a3d 2a2d 6cbd 8a87 5d3e
00000160: ff95 7fbe 2ea7 e93d 7ed0 2cbe d320 33be
00000170: d14e fcbe 5797 58be dfc9 c7be 3ad5 79be
00000180: 757d b93d 4798 203e 7a05 ab3e 164c 9fbd
00000190: 68ca b0be ee73 ce3c c53d 533d 7be4 e53d
000001a0: 8564 a63d e75a 763e a614 adbe 551b dfbb
000001b0: b4d3 e73d 5d41 563e 7551 b03d 3019 853d
000001c0: da81 25be d88a 513e 5ecd f53c bd1a 0bbe
000001d0: ac6d 77bc 3722 2a3c 360c 293e fc7a 5c3e
000001e0: b0f9 bcbe b9e5 ecbe a496 a1bd c4bd a2be
000001f0: 2f88 88be f938 c5bd f208 ca3c f6ae b83d
00000200: 5bc8 21be 4f95 c7be c739 50bc 6c35 833e
00000210: d12e d63d 1c40 31be c4c1 fcba 8083 a8bd
00000220: 8906 a53e 1ac6 fabd dca5 7ebe 4611 343e
00000230: 51e5 f3bc 54d2 82bd 66e0 c93d 31bf afbe
00000240: dca1 2c3e 8361 1d3e 127c 15be f88e 74be
00000250: c6bb 30be 88f1 b13d b69d 1b3e 1c21 e93d
00000260: a7bb ccbd bd3c dcbd 3194 c43e a32f 573e
00000270: 9ab4 a9bd ea98 dfbd 2162 4abe da21 07be
00000280: 7958 f4bd 44dc e2bb c12d debd 6f39 f3bd
00000290: 0f5f d43e 151e 5b3e 7422 cc3d cb0b 2d3e
000002a0: acb3 22bd 499a 603e ba22 263d 87ef 0d3d
000002b0: b90b 363d 7bf0 6f3e ad2f 0a3d 5d7b f03d
000002c0: 25f8 eabc c646 a73e 5647 e43d 3765 0a3e
000002d0: e21f 3b3d 33db e0bd c0f6 863e b384 263e
000002e0: edb8 3d3e d926 b5bd 28b5 d23d ce07 b23e
000002f0: ccb3 27be 507a f5bd f564 2d3e 4951 b2be
00000300: 1a59 1c3d 55a1 1a3e d9d9 683b 6075 453e
00000310: 1787 39bd 6db3 ff3c 7fa1 c23c 8be5 9bbe
00000320: 6d89 653e 709c 693e 5720 8e3d 4245 32bb
00000330: 0fef 063d ed9e 9d3d abcd e13d e8ff 66be
00000340: 98d2 92bc 1119 313e e62a 55be 95e1 0f3c
00000350: ea8b 543e 8f6b 85be 4a76 2a3e a877 553e
00000360: 5c31 2cbe 49cd ac3d 3b7c 55bd 73df 5bbe
00000370: a0e4 87be 81d9 db3c 59c1 ab3e 2272 3bbe
00000380: b786 313c eb71 f13c 1c66 a33c af6e f23c
00000390: 6def 703e 2291 98be b60e 80be 2ff3 38be
000003a0: 2800 6d3e 0f7e b1bc f26f b73e ddce 01bd
000003b0: 6378 dc3d c7dd f63e b288 a53d 741e 153e
000003c0: b248 9f3d b61e b53e 1b89 573e 019c 85bd
000003d0: 50cd a8be e6f3 96be 25fb 27be b354 903c
000003e0: 02bc 15bd 53d1 1d3d 8436 233e 1aa3 afbd
000003f0: 7dd8 a1bd f6f7 963d 6205 b8ba 57c9 943e

actor.init_next_embed.2.add_bias._bias f4 [64, 1]
-0.13017115 0.33073586 0.0075037787 0.010380473 -0.10010222 0.08461547 -0.13010111 0.023716142
0.43915358 -0.25180528 0.014719592 -0.28071895 0.51924866 -0.07666417 -0.3184486 -0.30479395
-0.45013842 -0.022818021 -0.062943555 0.051951252 0.050261565 0.08490667 -0.5502936 0.3051816
-0.58182824 -0.04431089 0.19723132 -0.31765723 0.28697354 -0.42222682 -0.21799405 -0.16954185
-0.076093644 0.18042634 -0.21984322 0.015614055 0.12059381 0.057464607 -0.5092964 0.18824467
-0.043960832 0.57467246 0.0027910615 -0.026180124 -0.17260952 0.11362499 0.3558332 0.13189346
0.1623039 0.13635181 -0.21795316 0.2164716 0.1643706 0.3759194 0.7742475 -0.24512702
0.19921179 0.10753297 0.12409486 -0.23562577 -0.08415773 0.44055116 -0.31739768 0.23817235
00000000: 964b 05be 3656 a93e 42e2 f53b dc12 2a3c
00000010: 6502 cdbd e04a ad3d 3a39 05be 5b48 c23c
00000020: bdd8 e03e 9fec 80be 722a 713c 65ba 8fbe
00000030: 7bed 043f 1b02 9dbd b20b a3be f40d 9cbe
00000040: 8b78 e6be dcec babc 8de8 80bd d6ca 543d
00000050: 12df 4d3d 8ce3 ad3d 0be0 0cbf c340 9c3e
00000060: b2f2 14bf 567f 35bd 02f7 493e f8a3 a2be
00000070: 32ee 923e 1d2e d8be d539 5fbe 619c 2dbe
00000080: fcd6 9bbd afc1 383e 951e 61be 18d2 7f3c
00000090: e3f9 f63d 0260 6b3d 4061 02bf 36c3 403e
000000a0: 4610 34bd bc1d 133f 3eea 363b b377 d6bc
000000b0: 8dc0 30be 38b4 e83d c52f b63e 140f 073e
000000c0: fe32 263e cf9f 0b3e 1d2f 5fbe bbaa 5d3e
000000d0: c450 283e 8278 c03e 1635 463f 9402 7bbe
000000e0: 2dfe 4b3e 3f3a dc3d 7225 fe3d e247 71be
000000f0: e35a acbd ec8f e13e f381 a2be 74e3 733e

actor.embedder.layers.0.0.module.W_query.weight f4 [64, 64]
0.026011718 -0.07956098 0.11464648 -0.13667057 0.0013605076 -0.06477496 -0.09389087 -0.03157681
0.15485121 -0.064212546 0.08406927 -0.026421594 0.053473394 0.06443184 -0.05521434 0.03352509
0.06904854 -0.0020516482 -0.032030743 0.07665087 0.0823193 -0.10498424 0.118509434 0.17016399
-0.14909713 0.14231616 0.0038753368 -0.02157299 0.021791704 0.14363036 -0.0389551 0.10346666
0.11823511 -0.035147276 -0.1398319 0.07476289 -0.033409294 0.13227198 0.04673045 -0.07890135
0.06998577 0.010748049 -0.08180874 0.1213265 -0.0831125 -0.15053184 0.12030166 -0.08572867
-0.043515824 -0.05645381 -0.00038251633 -0.08211939 -0.053266518 0.104847394 0.011129183 -0.05771716
0.080084056 -0.08811862 0.14479604 -0.075786605 0.0013983034 0.0061486573 -0.040212933 -0.059294697
-0.21474794 -0.14963257 -0.11502345 -0.08118954 0.003525663 -0.09259083 0.08608942 0.119541325
0.1450074 0.033869322 -0.120899916 0.009363132 0.090514496 -0.041714106 0.03637215 -0.12687947
-0.06424448 0.06963476 0.03630631 0.18170163 0.061252873 -0.047602523 -0.05911041 -0.09945744
-0.14547199 -0.08512723 0.15507276 -0.016231578 0.14833692 -0.053008385 0.18856332 -0.02071337
-0.061869394 -0.07545305 -0.029238055 -0.03591453 -0.02272185 -0.12587394 -0.11703898 -0.07444899
-0.14952911 0.16644304 -0.18116814 0.044200078 0.1522109 -0.065468416 0.0113063855 0.17182276
0.046565525 -0.103732295 -0.018603863 -0.11473868 -0.13521124 0.08007842 -0.034627333 -0.14053431
-0.18597427 0.21745098 -0.14738849 0.23023011 -0.08009194 0.054360036 -0.13037346 0.1418914
-0.17705305 0.0675017 0.051202577 0.06320349 0.172074 -0.0028311226 -0.05283867 0.14370933
-0.046878126 0.051500957 -0.032706745 -0.01049396 0.049701326 0.12503198 0.07640462 0.14745061
0.014559821 0.099706344 0.11117524 0.10002118 0.015307217 0.03743507 -0.08001533 -0.10513816
-0.034890756 -0.06863756 0.091356166 -0.038959812 -0.0061384984 -0.011424528 0.022870485 0.008570795
-0.028641803 -0.08008652 0.03117412 -0.00706053 0.08337716 -0.015145105 -0.002684264 0.07517575
0.06441643 0.05732404 0.013994944 0.004739138 0.04729237 -0.1174749 0.118842214 0.10912998
0.0017422515 -0.052641034 0.021770528 0.044462413 -0.0741966 0.03684985 0.0023826805 0.049927127
0.0067641926 0.119676135 -0.045664173 0.064114206 -0.16294798 -0.031305663 -0.10133761 -0.037231673
-0.031180192 -0.0001702327 -0.008571741 0.09605278 0.1208669 0.10987801 0.038131673 -0.07786178
-0.046776507 0.040079374 -0.05082364 -0.07144675 -0.124943756 0.042432725 0.06399746 0.038326003
-0.03339474 -0.0143312495 0.03742372 0.057336487 -0.15146539 0.077630356 0.08834356 -0.0364803
0.0785675 0.06404988 -0.028011564 0.11646363 0.09238859 -0.051223762 0.077743135 -0.01678977
-0.010470727 -0.0591643 -0.026646405 0.13679342 -0.13055487 0.01960706 0.03122093 -0.02442088
-0.102676086 0.08272438 0.129495 -0.018313278 0.12419237 -0.13232023 0.10700175 -0.09710925
-0.033428725 0.054653022 0.041324943 -0.0678183 0.1172201 0.09088934 0.07192942 -0.01414729
0.14681643 -0.097958125 -0.033735957 0.006495065 -0.118911184 -0.10533101 0.052922606 -0.10701407
00000000: 8716 d53c def0 a2bd c6cb ea3d 5ff3 0bbe
00000010: 0f53 b23a bca8 84bd db49 c0bd af56 01bd
00000020: 5191 1e3e de81 83bd 822c ac3d 1972 d8bc
00000030: eb06 5b3d d7f4 833d 6f28 62bd 9b51 093d
00000040: 5269 8d3d f274 06bb ab32 03bd 22fb 9c3d
00000050: 0597 a83d fa01 d7bd 13b5 f23d 783f 2e3e
00000060: ebac 18be 54bb 113e 5df9 7d3b d7b9 b0bc
00000070: 8484 b23c d613 133e 628f 1fbd 54e6 d33d
00000080: 4025 f23d 97f6 0fbd 1830 0fbe 491d 993d
00000090: 2fd8 08bd 4e72 073e 6e68 3f3d 0897 a1bd
000000a0: b354 8f3d 9618 303c 578b a7bd 077a f83d
000000b0: e336 aabd 0525 1abe b760 f63d 8392 afbd
000000c0: a63d 32bd 1c3c 67bd 798c c8b9 362e a8bd
000000d0: fe2d 5abd 3bba d63d 2d57 363c d468 6cbd
000000e0: 1c03 a43d 8977 b4bd 6a45 143e 0236 9bbd
000000f0: 4747 b73a ad7a c93b 51b6 24bd ffde 72bd
00000100: e2e6 5bbe 4839 19be 6a91 ebbd b446 a6bd
00000110: cf0e 673b 43a0 bdbd a64f b03d 15d2 f43d
00000120: d27c 143e 8fba 0a3d 609a f7bd d267 193c
00000130: aa5f b93d 69dc 2abd f7fa 143d b1ec 01be
00000140: 9c92 83bd ab9c 8e3d edb5 143d fe0f 3a3e
00000150: 4be4 7a3d ddfa 42bd c21d 72bd 58b0 cbbd
00000160: 9cf6 14be 2f57 aebd 65cb 1e3e 16f8 84bc
00000170: a2e5 173e 521f 59bd be16 413e 16af a9bc
00000180: c36a 7dbd 2187 9abd a584 efbc 1d1b 13bd
00000190: 2c23 babc 19e5 00be 22b2 efbd b678 98bd
000001a0: 291e 19be 0b70 2a3e 2484 39be 240b 353d
000001b0: 2ddd 1b3e 4e14 86bd 6b3e 393c 4ef2 2f3e
000001c0: 7ebb 3e3d 9971 d4bd 2167 98bc 1dfc eabd
000001d0: d174 0abe 2800 a43d 64d5 0dbd 3ae8 0fbe
000001e0: 0a70 3ebe 78ab 5e3e 02ed 16be 71c1 6b3e
000001f0: 3e07 a4bd a1a8 5e3d 9f80 05be fb4b 113e
00000200: 654d 35be 553e 8a3d cbb9 513d d570 813d
00000210: 2b34 303e 5b8a 39bb 5c6d 58bd 8a28 133e
00000220: 4703 40bd abf2 523d 82f7 05bd dcee 2bbc
00000230: 9e93 4b3d 6208 003e 077a 9c3d 4bfd 163e
00000240: 518c 6e3c d732 cc3d d8af e33d e8d7 cc3d
00000250: 1fcb 7a3c 8455 193d 14df a3bd ad52 d7bd
00000260: 9ce9 0ebd d991 8cbd f118 bb3d 5394 1fbd
00000270: 7525 c9bb f22d 3bbc e25a bb3c 856c 0c3c
00000280: 37a2 eabc 6704 a4bd de60 ff3c 055c e7bb
00000290: a5c1 aa3d 2d23 78bc 7aea 2fbb bef5 993d
000002a0: c3ec 833d 9dcc 6a3d 0d4b 653c c54a 9b3b
000002b0: a5b5 413d ae96 f0bd 8c63 f33d 8a7f df3d
000002c0: 425c e43a 209e 57bd 1b58 b23c 381e 363d
000002d0: 63f4 97bd deef 163d bf26 1c3b 6380 4c3d
000002e0: 29a6 dd3b c318 f53d 5b0a 3bbd 4f4e 833d
000002f0: d6db 26be 5e3a 00bd 188a cfbd 3d80 18bd
00000300: 9a6d ffbc 7e80 32b9 7d70 0cbc 52b7 c43d
00000310: 1189 f73d b907 e13d f52f 1c3d ff75 9fbd
00000320: b998 3fbd 452a 243d 732c 50bd ac52 92bd
00000330: 83e2 ffbd f0cd 2d3d 1a11 833d bafb 1c3d
00000340: ecc8 08bd 9ecd 6abc 9d49 193d aad9 6a3d
00000350: be19 1bbe aafc 9e3d 78ed b43d 5e6c 15bd
00000360: ffe7 a03d 952c 833d 8278 e5bc 7c84 ee3d
00000370: 3b36 bd3d 02d0 51bd cb37 9f3d b38a 89bc
00000380: 6a8d 2bbc 4456 72bd 9049 dabc 9313 0c3e
00000390: 2db0 05be fc9e a03c 09c3 ff3c 4c0e c8bc
000003a0: d747 d2bd 666b a93d 569a 043e ba05 96bc
000003b0: 9258 fe3d f47e 07be bc23 db3d 37e1 c6bd
000003c0: 8fec 08bd d9db 5f3d 5844 293d 52e4 8abd
000003d0: 1711 f03d 3124 ba3d bb4f 933d 09ca 67bc
000003e0: 0c57 163e 459e c8bd b72e 0abd 8ed4 d43b
000003f0: b587 f3bd c9b7 d7bd 60c5 583d 312a dbbd
