logs/experiment/Discrete_A2C_1-5Box_10x10x10Bin-2022.08.09-15-00-00/PCT-Discrete_A2C_1-5Box_10x10x10Bin-2022.08.09-15-00-00_2022.08.09-20-51-38.pt (torch, 236314 bytes, 24 tensors)

actor.init_internal_node_embed.0.module.weight f4 [32, 6]
-0.5160917 0.027497653 -0.6786007 0.046034705 -0.20608443 0.051362436 -0.06664167 0.14539953
-0.34923586 -0.25747707 -0.3720831 -0.4216331 -0.093633965 0.055151626 0.19373828 0.23420174
0.11129156 -0.67437524 0.31852323 -0.19588001 0.28175187 -0.50900376 -0.11688421 0.62731296
-0.07997851 -0.37526226 0.166646 0.072060294 0.28106388 0.8236642 -0.037369847 0.07936653
0.23568024 0.022838464 -0.07738507 -0.24838375 1.2520171 -0.4218848 -0.805871 -1.3634121
0.64279974 0.6890269 -0.3664614 -0.3431798 0.05983116 -0.2120821 0.28090116 0.5856593
-0.10168666 0.42229244 0.6092088 -0.2063554 -0.249358 0.33141828 0.4058977 -0.06592651
0.5238909 -0.07200607 -0.0627648 -0.03357768 -0.44972262 -0.32788146 -0.3064491 0.4899839
0.29878664 -0.29662782 -0.11720128 0.6570857 -0.4738156 0.14395136 -0.65227604 0.46626294
0.33608052 -0.59236354 -0.25165868 0.2299961 -0.27331758 0.17882942 0.18851793 0.26178095
-0.09792511 -0.28736663 -0.050512597 -0.12565765 0.26769406 -0.0073110852 0.0021848218 -0.15056679
-0.0020230461 0.029454928 0.33150288 -0.11891577 0.31126732 -0.23859207 -0.19989191 0.2619079
-0.48835832 -0.51919097 -0.34741312 -0.3549261 -0.10116983 -0.25073874 0.016322924 0.15539066
0.31870392 -0.07968491 -0.021818563 -0.004256694 -0.09563914 -0.70611197 -0.67534035 -0.0684857
-0.15848285 -0.15369387 0.23582987 -0.093384355 -0.80747443 -0.07366893 -0.08209013 0.4137714
0.023228785 -0.2415133 -0.0019188677 -0.42064327 -0.6975564 0.11856471 -0.076180086 -0.39992166
-0.6484986 0.07074022 0.29325086 0.61405545 -0.3496301 0.022136424 -0.7924405 0.30485675
0.4933994 0.0255149 0.11147776 -0.047904603 -0.42926633 -0.16718201 -0.42698786 -0.5575997
0.16053626 -0.14888796 0.7288236 -0.013879625 0.13073683 -0.094120346 0.08716318 -0.27107605
-0.5520842 0.20775546 0.39883852 -0.13009296 0.6139736 0.03729691 0.21860622 0.17774715
-0.16215745 -0.23774233 0.35428196 0.042654432 -0.21654113 0.4469776 0.07029331 -0.11952528
-0.1040231 -0.21283296 0.12864189 0.5356407 0.49282074 -0.8075658 0.25779793 -0.23756391
-0.37308288 -0.08016134 0.092797 -0.035302203 -0.31653163 -0.3998324 1.3215728 -0.1091786
-0.2206514 0.09859476 0.23466332 0.07589463 -0.09652015 0.058237903 -0.15526599 -0.10623226
00000000: 961e 04bf c242 e13c c7b8 2dbf e38e 3c3d
00000010: cc07 53be 6b61 523d 6e7b 88bd 9de3 143e
00000020: 0bcf b2be 09d4 83be ad81 bebe 4be0 d7be
00000030: 2ac3 bfbd ace6 613d 5463 463e 95d2 6f3e
00000040: d4ec e33d dba3 2cbf 7a15 a33e c594 48be
00000050: c841 903e 124e 02bf fd60 efbd 9597 203f
00000060: c6cb a3bd 6022 c0be 40a5 2a3e 5994 933d
00000070: 9be7 8f3e a8db 523f 2011 19bd eb8a a23d
00000080: 2956 713e bb17 bb3c 107c 9ebd 4f58 7ebe
00000090: 1942 a03f 4901 d8be 904d 4ebf 4a84 aebf
000000a0: 868e 243f 1164 303f d4a0 bbbe 43b5 afbe
000000b0: 8511 753d 0d2c 59be 47d2 8f3e c5ed 153f
000000c0: 1841 d0bd b736 d83e 1cf5 1b3f d44e 53be
000000d0: b457 7fbe a8af a93e d3d1 cf3e 7a04 87bd
000000e0: b71d 063f eb77 93bd d58a 80bd c088 09bd
000000f0: 0b42 e6be 14e0 a7be e5e6 9cbe 2bdf fa3e
00000100: 90fa 983e 9adf 97be 3a07 f0bd c536 283f
00000110: f597 f2be fc67 133e 90fb 26bf 04ba ee3e
00000120: bf12 ac3e 23a5 17bf 68d9 80be 1984 6b3e
00000130: 48f0 8bbe 0f1f 373e d80a 413e 2708 863e
00000140: f68c c8bd b821 93be 4ce6 4ebd 66ac 00be
00000150: 320f 893e d491 efbb 3a2f 0f3b 2e2e 1abe
00000160: 1595 04bb 764b f13c bfba a93e 1c8a f3bd
00000170: 6e5e 9f3e 7b51 74be 77b0 4cbe cb18 863e
00000180: 1a0a fabe b3e9 04bf 22e0 b1be e0b8 b5be
00000190: 2132 cfbd d460 80be a7b7 853c bb1e 1f3e
000001a0: 292d a33e d831 a3bd d8bc b2bc bd7b 8bbb
000001b0: 74de c3bd c1c3 34bf 1be3 2cbf 3b42 8cbd
000001c0: 5449 22be ed61 1dbe 637d 713e 4c40 bfbd
000001d0: a5b6 4ebf bcdf 96bd df1e a8bd d8d9 d33e
000001e0: 4b4a be3c 434f 77be 8482 fbba 8e5e d7be
000001f0: 0e93 32bf 0ed2 f23d 4e04 9cbd 88c2 ccbe
00000200: 0104 26bf 40e0 903d fa24 963e bd32 1d3f
00000210: b702 b3be 7257 b53c 61dd 4abf 2f16 9c3e
00000220: d99e fc3e a004 d13c 744e e43d 9e37 44bd
00000230: ccc8 dbbe c331 2bbe 279e dabe dbbe 0ebf
00000240: 9e63 243e 1676 18be 2f94 3a3f 5e67 63bc
00000250: e0df 053e 2bc2 c0bd 9c82 b23d 7bca 8abe
00000260: 6455 0dbf d9bd 543e 9034 cc3e 1737 05be
00000270: 602d 1d3f a5c4 183d 4fda 5f3e 5903 363e
00000280: 9a0c 26be ba72 73be 7264 b53e 6ab6 2e3d
00000290: f5bc 5dbe 3fda e43e f0f5 8f3d acc9 f4bd
000002a0: 100a d5bd e2f0 59be b3ba 033e c01f 093f
000002b0: 0053 fc3e a2bc 4ebf 17fe 833e f443 73be
000002c0: b804 bfbe a12b a4bd 5b0c be3d 0b99 10bd
000002d0: 6f10 a2be d5b6 ccbe 4c29 a93f 0899 dfbd
000002e0: 71f2 61be 0dec c93d 954b 703e a56e 9b3d
000002f0: 5bac c5bd de8a 6e3d 0cfe 1ebe 4d90 d9bd

actor.init_internal_node_embed.0.add_bias._bias f4 [32, 1]
0.0127725005 -0.34487224 -0.0051896297 -0.022314433 0.14658967 0.039339945 0.006263544 -0.008383007
0.04441281 0.105283126 0.0072151455 0.016222073 -0.0012898176 0.00036230186 -0.013207458 0.029584724
-0.27679035 -0.059904277 0.04344762 0.0018443747 -0.25620827 0.05689489 0.049707495 0.11646269
0.034170583 0.00356097 0.006147243 0.07028493 0.027257996 -0.04736232 0.07117989 -0.07002268
00000000: c043 513c 1893 b0be c50d aabb c2cc b6bc
00000010: 9a1b 163e ec22 213d 6a3e cd3b e158 09bc
00000020: 35ea 353d ae9e d73d 076d ec3b 27e4 843c
00000030: 190f a9ba 55f3 bd39 1864 58bc aa5b f23c
00000040: 77b7 8dbe 305e 75bd 22f6 313d f2be f13a
00000050: bb2d 83be 9e0a 693d 169a 4b3d fe83 ee3d
00000060: 74f6 0b3d 2a5f 693b d06e c93b 8cf1 8f3d
00000070: 294c df3c fefe 41bd c3c6 913d 0d68 8fbd

actor.init_internal_node_embed.2.module.weight f4 [64, 32]
0.13329597 0.1661302 -0.15259951 0.118440896 0.01962974 0.11387325 0.124073856 0.5057432
0.3028236 -0.117399566 0.82406855 0.20751716 0.042736378 -0.18196219 -0.69547015 0.2943521
-0.029400216 0.23692054 0.03183412 0.20284303 -0.22703156 0.15046495 1.0983183 -0.021727763
0.57481796 0.21172628 0.17077486 0.2837753 0.089772776 -0.015213307 -0.1818864 0.039098255
0.33494857 0.09121396 -0.522484 -0.4826569 -0.038395002 0.23522095 0.07329825 -0.3500338
-0.21280795 0.1768817 0.43667993 0.12094948 0.42761293 0.011762005 -0.03140515 0.24892995
-0.053248245 -0.12991185 -0.12262118 -0.13999712 0.045875683 0.35050538 0.943381 0.34357822
-0.22202964 0.15204948 0.013558381 0.060235698 0.67339534 0.18323295 0.2068538 -0.006359348
-0.26274478 0.012416951 0.51451063 0.62131417 0.5422042 -0.0156058185 -0.3202472 1.0507728
-0.29487497 -0.29448497 -0.47286245 -0.80262 0.09810441 0.22486155 0.552996 -0.61304003
-0.079956524 0.05571505 0.03597147 -0.39755058 -0.027194379 0.49371725 -0.08196986 -0.22796997
-0.09515091 -0.001068335 0.032662008 0.016554017 0.2655623 -0.1765939 0.20657624 0.13427667
-0.0038393498 -0.2192631 -0.02834383 0.48403046 0.119735606 0.00031719555 0.03140421 0.20692328
0.030889662 -0.06013419 0.049164798 -0.08950647 -0.30735165 0.07387537 -0.34043968 -0.025569286
0.110369526 -0.2991739 0.1171896 0.048690885 -0.26434878 0.617942 -0.14823435 0.26929998
0.19158874 0.02321053 0.101796255 0.30186734 0.15551904 -0.049568616 -0.29415995 0.21166992
0.31106833 -0.12851794 -0.2003707 0.11613132 -0.5709734 -0.10377946 0.4760879 -0.45997992
-0.6258424 0.490022 0.4024652 0.3608076 -0.030160557 -0.17796002 0.3433203 -0.049158257
-0.008180556 -0.14755869 -0.00087735004 0.10006485 -0.15037552 0.44670153 0.19014882 -0.049489986
-0.23216197 0.23570217 0.2652972 0.112692244 0.5747125 0.08008361 0.1862793 -0.13254589
-0.27787155 -0.09802648 -0.05301993 -0.024411215 0.8859383 -0.2940917 -0.25196302 0.2966775
0.20349331 -0.03830937 0.836869 -0.33787245 -0.04000216 -0.19781576 0.011597642 0.29226634
0.22035354 0.234391 -0.08948698 0.04711104 -0.04367658 0.047794405 0.37446228 -0.6045506
0.0026527958 0.26639047 0.23967022 0.44888273 0.0024225167 -0.103952646 -0.013338071 0.14440633
0.30466267 0.012764117 0.15360251 -0.004150302 0.46086812 0.052410673 -0.18194732 0.1506995
0.04503353 -0.2434508 0.3512639 -0.1774884 -0.29839364 -0.013897361 0.2551874 -0.46878624
0.013017801 -0.32414255 0.078848734 -0.021521837 0.0073278174 0.09556627 0.01332711 0.21228544
-0.09437719 0.09854077 -0.21811375 0.4421537 -0.33218923 0.08588289 -0.45870468 -0.049161803
-0.12876804 -0.123620965 -0.45603612 -0.32630667 -0.35617256 -0.017108629 0.1365832 -0.04144597
0.1962036 0.34932256 0.43460512 0.45300534 -0.19555989 0.07550017 -0.20718762 -0.04018247
-0.06083329 -0.18979675 0.20858066 0.20930128 0.03435103 -0.4400754 0.6599236 -0.0034668308
-0.60927624 0.12594105 -0.36289772 -0.47336772 0.683129 0.19269904 0.36407036 -0.095455855
00000000: bd7e 083e 091e 2a3e 0c43 1cbe 2491 f23d
00000010: 8cce a03c 6136 e93d 6f1a fe3d 6378 013f
00000020: b20b 9b3e 2f6f f0bd 28f6 523f 617f 543e
00000030: 570c 2f3d 4c54 3abe 550a 32bf 52b5 963e
00000040: b9d8 f0bc 4c9b 723e 7f64 023d 15b6 4f3e
00000050: f67a 68be 7c13 1a3e b295 8c3f 6cfe b1bc
00000060: 4527 133f c6ce 583e 9bdf 2e3e ff4a 913e
00000070: cada b73d 3c41 79bc 6e40 3abe 7e25 203d
00000080: 617e ab3e 62ce ba3d 83c1 05bf ce1e f7be
00000090: 1444 1dbd c3dd 703e 651d 963d a137 b3be
000000a0: 54ea 59be 7a20 353e 8394 df3e 5cb4 f73d
000000b0: 15f0 da3e 6db5 403c b0a2 00bd 7ee7 7e3e
000000c0: d51a 5abd 9d07 05be d020 fbbd 685b 0fbe
000000d0: 24e8 3b3d 7175 b33e 6b81 713f 7ce9 af3e
000000e0: bd5b 63be dcb2 1b3e f923 5e3c b5b9 763d
000000f0: a363 2c3f 6ba1 3b3e 7cd1 533e 1462 d0bb
00000100: 7c86 86be 7870 4b3c f8b6 033f 720e 1f3f
00000110: e5cd 0a3f 8caf 7fbc 71f7 a3be b97f 863f
00000120: daf9 96be bcc6 96be 071b f2be 8178 4dbf
00000130: f7ea c83d 1b42 663e 2591 0d3f 31f0 1cbf
00000140: 3fc0 a3bd 7735 643d d256 133d c08b cbbe
00000150: bfc6 debc 82c8 fc3e d0df a7bd f670 69be
00000160: 7bde c2bd 6007 8cba 99c8 053d 4a9c 873c
00000170: c8f7 873e 08d5 34be b988 533e d37f 093e
00000180: 9a9d 7bbb 8286 60be 5231 e8bc d7d2 f73e
00000190: f137 f53d 444d a639 b3a1 003d b2e3 533e
000001a0: 510c fd3c 454f 76bd 0761 493d 2b4f b7bd
000001b0: 325d 9dbe f84b 973d 1c4e aebe ae76 d1bc
000001c0: 6b09 e23d 522d 99be 1a01 f03d 1870 473d
000001d0: b958 87be 7231 1e3f bfca 17be b0e1 893e
000001e0: d72f 443e 0224 be3c 8e7a d03d 5b8e 9a3e
000001f0: 6240 1f3e 7608 4bbd 229c 96be 00c0 583e
00000200: 5944 9f3e 359a 03be fa2d 4dbe 42d6 ed3d
00000210: 502b 12bf 538a d4bd cbc1 f33e 7d82 ebbe
00000220: 3537 20bf 2ae4 fa3e eb0f ce3e c6bb b83e
00000230: 4613 f7bc 273b 36be aec7 af3e 2b5a 49bd
00000240: bd07 06bc a019 17be f7fd 65ba cdee cc3d
00000250: 0afc 19be 10b6 e43e 5fb6 423e 03b6 4abd
00000260: debb 6dbe e95b 713e 09d5 873e 31cb e63d
00000270: 5c20 133f e002 a43d 00c0 3e3e 1cba 07be
00000280: 2e45 8ebe 1bc2 c8bd 6d2b 59bd 07fa c7bc
00000290: dacc 623f 3093 96be 4c01 81be 1de6 973e
000002a0: 8d60 503e 49ea 1cbd 0c3d 563f 9efd acbe
000002b0: 4ed9 23bd 3790 4abe 0904 3e3c efa3 953e
000002c0: 5ca4 613e 3204 703e f344 b7bd 82f7 403d
000002d0: 37e6 32bd 11c4 433d 85b9 bf3e d4c3 1abf
000002e0: 87da 2d3b 5564 883e 1c6c 753e f5d3 e53e
000002f0: 16c3 1e3b 20e5 d4bd ed87 5abc 41df 133e
00000300: bffc 9b3e 9620 513c fa49 1d3e 42ff 87bb
00000310: e8f6 eb3e 93ac 563d 6650 3abe f850 1a3e
00000320: 1475 383d 2b4b 79be ddd8 b33e 85bf 35be
00000330: 0dc7 98be c2b1 63bc eca7 823e c004 f0be
00000340: 9d48 553c 03f6 a5be 727b a13d 904e b0bc
00000350: 301e f03b 40b8 c33d f359 5a3c 5b61 593e
00000360: d448 c1bd becf c93d 3659 5fbe f861 e23e
00000370: b514 aabe 5ee3 af3d 57db eabe e35d 49bd
00000380: c5db 03be fd2c fdbd 917d e9be ab11 a7be
00000390: 405c b6be 6527 8cbc 77dc 0b3e 40c3 29bd
000003a0: 99e9 483e 68da b23e 9084 de3e 51f0 e73e
000003b0: da40 48be d59f 9a3d fe28 54be 6096 24bd
000003c0: 542c 79bd 145a 42be 2b96 553e 1353 563e
000003d0: aab3 0c3d 9051 e1be c1f0 283f c533 63bb
000003e0: 87f9 1bbf b1f6 003e bbcd b9be 415d f2be
000003f0: 8be1 2e3f e652 453e 6e67 ba3e 5c7e c3bd

actor.init_internal_node_embed.2.add_bias._bias f4 [64, 1]
0.17527004 0.29735836 -0.05169442 0.074705414 0.15183899 0.29248384 0.0407697 0.11278509
-0.08087178 -0.09821651 0.003326523 0.04033055 -0.059244953 0.08128569 0.14244267 0.14840242
0.0145519655 -0.19770421 0.019180438 0.08323994 -0.013344788 0.03092811 -0.056722075 -0.06934662
0.12390448 -0.040944073 -0.04356412 0.04274262 -0.09671994 -0.004558565 0.015736176 -0.0054072174
0.07539695 0.025628006 0.27568817 -0.06643875 0.02265103 -0.14735132 -0.03301361 0.198649
-0.046331815 -0.25041968 0.15243728 -0.009253011 -0.132058 -0.04960612 -0.2924818 -0.27235308
0.26773706 0.010949785 0.096131966 0.06624053 -0.019980194 -0.014351626 -0.043055434 0.20854715
0.22742142 -0.08043709 0.012253502 0.049033612 0.060267773 0.113125615 -0.043491125 0.012602602
00000000: fd79 333e 5b3f 983e 87bd 53bd 27ff 983d
00000010: ae7b 1b3e 71c0 953e 21fe 263d dffb e63d
00000020: 1ba0 a5bd bd25 c9bd cb01 5a3b a631 253d
00000030: d6aa 72bd 1d79 a63d 7edc 113e cef6 173e
00000040: 5e6b 6e3c f972 4abe 4b20 9d3c b479 aa3d
00000050: 19a4 5abc f35c fd3c 6855 68bd 9a05 8ebd
00000060: a2c1 fd3d f9b4 27bd 4a70 32bd e312 2f3d
00000070: 1b15 c6bd 0460 95bb 27e9 803c 072f b1bb
00000080: b769 9a3d d3f1 d13c 0027 8d3e 0a11 88bd
00000090: a78e b93c 44e3 16be 4739 07bd a56a 4b3e
000000a0: 6ec6 3dbd 0237 80be 8518 1c3e f199 17bc
000000b0: 363a 07be c92f 4bbd 2dc0 95be dd71 8bbe
000000c0: d514 893e ba66 333c d6e0 c43d 1da9 873d
000000d0: 81ad a3bc 1523 6bbc e55a 30bd 628d 553e
000000e0: 29e1 683e 33bc a4bd eac2 483c 78d7 483d
000000f0: 57db 763d 67ae e73d c023 32bd 257b 4e3c

actor.init_leaf_node_embed.0.module.weight f4 [32, 8]
-0.07581005 -0.34331295 -0.39428055 -0.073284216 0.16921055 0.37083453 0.49556488 0.26958755
-0.40588933 -0.68707806 -0.06824433 -0.31147417 -0.23618568 0.3314597 -0.022073694 0.36473003
0.20146859 -0.3778028 -0.125832 0.4085609 0.003942427 -0.31747952 -0.05668357 -0.067440934
-0.40302145 -0.19538112 -0.24220845 -0.253328 0.3324892 0.04517505 0.45127562 0.114205725
-0.033416897 -0.17365655 0.07191191 0.10735359 0.3723117 0.13241254 -0.49865738 0.39125538
0.094787136 0.14769621 -0.5336698 0.1572096 -0.4655672 0.52428347 -0.12240198 -0.2569163
-0.38500684 -0.18257038 -0.06639233 0.029738499 0.06475979 -0.19900556 -0.09980849 -0.10941601
0.38328844 -0.43990645 0.25993335 0.45188236 -0.036041692 0.38903034 0.044950716 0.2253498
0.104248345 0.12613447 -0.16724141 0.33739862 0.09816829 0.08532245 0.49037474 0.34801507
-0.08862171 0.33389083 -0.18112963 0.30210134 0.031904757 -0.11964296 0.4524055 -0.29887226
0.051056083 0.09463859 0.2782475 -0.067468874 0.35081875 -0.030212956 -0.19306481 0.021164838
-0.2853524 0.031873647 0.18455942 0.094504215 0.46747428 0.09598968 -0.0166643 -0.3579186
0.38881224 0.07695222 0.56742865 -0.34217378 -0.087455936 -0.064503096 0.36708963 -0.116579294
-0.21285723 0.029502193 0.25628138 -0.1369194 -0.27616996 -0.20012562 0.35581025 0.0762532
0.17492068 -0.018697528 0.16117415 0.453171 0.11563828 0.41140997 0.11389746 -0.07272469
0.5053754 0.14108576 -0.11650689 -0.526927 0.18835653 0.47314933 0.035715528 -0.30470893
-0.05061816 0.08174697 -0.2885391 0.35676247 0.19472028 0.01530483 -0.24215657 0.078400984
-0.084407024 0.3751828 0.110401906 0.07775985 -0.2749477 0.0909509 0.18544158 0.2879545
-0.206284 0.050140657 0.06707391 -0.3550028 -0.23595361 0.35881972 0.049006805 0.11954338
-0.38976285 0.14233945 -0.095421664 0.27947572 0.046643876 0.5204534 -0.0895742 0.106007986
-0.24331166 -0.27168608 -0.30791247 -0.046817716 0.028403156 0.41673982 -0.14125684 -0.26208043
0.1315998 -0.14369352 0.48601344 -0.11159281 0.020249443 -0.11115554 -0.19497034 0.05800785
-0.3298794 0.35234305 0.016417764 0.31948572 0.24903965 0.17980704 0.11806061 0.13221456
-0.2972381 -0.1444185 0.07003579 -0.07346626 0.4513322 -0.042620234 -0.037020203 -0.062129177
0.057822473 0.08085536 0.2503625 -0.0205873 0.22676325 0.06363651 -0.017179154 0.49396384
0.30071935 0.2050688 -0.4954074 -0.32219008 0.049844053 -0.021425435 0.046824694 -0.2999806
0.241216 -0.17254059 0.11729423 0.41668427 0.15436107 0.119650416 0.44521493 -0.278283
0.03279522 -0.17293164 -0.38358933 0.14367965 0.59823006 -0.061342712 0.21698657 0.36417335
0.30774617 -0.16485946 -0.11712669 -0.11591288 -0.03713539 -0.4091123 0.102220036 0.20314844
0.11216874 0.24570104 -0.1861796 -0.21182513 0.29056257 0.0105463555 -0.2170839 0.16490386
0.2884072 0.4741026 -0.51306295 -0.12920347 -0.21278474 -0.17083581 -0.03516907 0.45629385
0.10903365 0.42048684 -0.064096354 -0.21539745 0.113941856 0.39015132 0.17210491 -0.09707967
00000000: 4d42 9bbd b7c6 afbe 24df c9be 0916 96bd
00000010: 8845 2d3e 06de bd3e aeba fd3e 6107 8a3e
00000020: bad0 cfbe 59e4 2fbf afc3 8bbd 8b79 9fbe
00000030: a9da 71be 16b5 a93e e4d3 b4bc e5bd ba3e
00000040: c84d 4e3e 5e6f c1be 1bda 00be e52e d13e
00000050: 7a2f 813b ad8c a2be 082d 68bd 791e 8abd
00000060: d458 cebe fd11 48be 7e05 78be 35b4 81be
00000070: 063c aa3e 7909 393d 990d e73e b1e4 e93d
00000080: 28e0 08bd 06d3 31be 8d46 933d 33dc db3d
00000090: a49f be3e 2797 073e 0550 ffbe a052 c83e
000000a0: c21f c23d ad3d 173e 969e 08bf 8efb 203e
000000b0: d35e eebe 7137 063f e4ad fabd 898a 83be
000000c0: 9e1f c5be bbf3 3abe b4f8 87bd 279e f33c
000000d0: c8a0 843d 1dc8 4bbe 6568 ccbd 8015 e0bd
000000e0: 623e c43e 6b3b e1be fc15 853e 205d e73e
000000f0: 74a0 13bd fc2e c73e 3e1e 383d 19c2 663e
00000100: 2880 d53d 6529 013e 5541 2bbe 83bf ac3e
00000110: 750c c93d 89bd ae3d 6612 fb3e 082f b23e
00000120: 4d7f b5bd bdf3 aa3e 0c7a 39be 07ad 9a3e
00000130: 90ae 023d 5e07 f5bd b2a1 e73e c905 99be
00000140: 2f20 513d e1d1 c13d 7576 8e3e 1f2d 8abd
00000150: 849e b33e 2981 f7bc c8b2 45be e261 ad3c
00000160: b619 92be f18d 023d 25fd 3c3e 6d8b c13d
00000170: ca58 ef3e 3d96 c43d 9283 88bc 1b41 b7be
00000180: 6612 c73e 2099 9d3d 0143 113f 6731 afbe
00000190: 191c b3bd 331a 84bd 2cf3 bb3e 20c1 eebd
000001a0: 3ff7 59be 95ae f13c 5037 833e 9934 0cbe
000001b0: 2666 8dbe bbed 4cbe c32c b63e a32a 9c3d
000001c0: 681e 333e 8f2b 99bc d60a 253e 0806 e83e
000001d0: c3d3 ec3d 54a4 d23e 1243 e93d aff0 94bd
000001e0: 4860 013f c978 103e 2a9b eebd b0e4 06bf
000001f0: 89e0 403e a140 f23e 724a 123d cf02 9cbe
00000200: fd54 4fbd f56a a73d 66bb 93be 92a9 b63e
00000210: c164 473e 1cc1 7a3c e4f7 77be b290 a03d
00000220: 97dd acbd f617 c03e 651a e23d 8e40 9f3d
00000230: f2c5 8cbe 7744 ba3d 66e4 3d3e c66e 933e
00000240: 1d3c 53be 4a60 4d3d 0c5e 893d edc2 b5be
00000250: d39d 71be 38b7 b73e 5cbb 483d 29d3 f43d
00000260: ff8e c7be 6fc1 113e 6f6c c3bd 7117 8f3e
00000270: a60d 3f3d 6f3c 053f ae72 b7bd b71a d93d
00000280: b126 79be 701a 8bbe b4a6 9dbe efc3 3fbd
00000290: bcad e83c ec5e d53e a2a5 10be 682f 86be
000002a0: 19c2 063e 6524 13be c1d6 f83e c58a e4bd
000002b0: 29e2 a53c 84a5 e3bd 4ea6 47be a499 6d3d
000002c0: f4e5 a8be 4f66 b43e 8c7e 863c a293 a33e
000002d0: 4004 7f3e 561f 383e c3c9 f13d 4163 073e
000002e0: 982f 98be 71e2 13be ed6e 8f3d 7b75 96bd
000002f0: 0415 e73e 8e92 2ebd 7fa2 17bd 2a7b 7ebd
00000300: 42d7 6c3d 7f97 a53d 832f 803e b3a6 a8bc
00000310: a034 683e dc53 823d 4cbb 8cbc d4e8 fc3e
00000320: e3f7 993e 8efd 513e 0aa6 fdbe 19f6 a4be
00000330: 4729 4c3d 6584 afbc 40cb 3f3d 0f97 99be
00000340: 5401 773e 7bae 30be f537 f03d a457 d53e
00000350: d410 1e3e 470b f53d 36f3 e33e 1c7b 8ebe
00000360: 4854 063d fe14 31be d265 c4be c220 133e
00000370: 9b25 193f 7f42 7bbd ba31 5e3e ee74 ba3e
00000380: e890 9d3e ebd0 28be 1ee0 efbd bb63 edbd
00000390: 471b 18bd 2b77 d1be bd58 d13d 2506 503e
000003a0: b9b8 e53d 0e99 7b3e dda5 3ebe b0e8 58be
000003b0: 9ec4 943e 9fca 2c3c 3e4b 5ebe 8fdc 283e
000003c0: 1caa 933e 93bd f23e 1858 03bf ea4d 04be
000003d0: 3ee4 59be 95ef 2ebe 710d 10bd 599f e93e
000003e0: 094d df3d 0d4a d73e f344 83bd 2691 5cbe
000003f0: 595a e93d eac1 c73e 453c 303e b5d1 c6bd

actor.init_leaf_node_embed.0.add_bias._bias f4 [32, 1]
0.011653006 0.029166324 0.0058544865 0.007937043 -0.11701864 0.015161645 -0.054066926 -0.026207177
0.078013 0.0351775 0.040137473 -0.029792683 0.0016456033 -0.0389741 0.12884673 0.00069141656
-0.039767057 -0.048451517 0.011520592 -0.0037282303 0.0361983 0.039532673 0.12028363 -0.021220455
0.012075992 0.012413633 0.09142942 -0.02112403 -0.11141944 0.002983658 0.008718719 -0.1523216
00000000: 40ec 3e3c 37ee ee3c fed6 bf3b 5f0a 023c
00000010: 78a7 efbd 8c68 783c 4875 5dbd 6fb0 d6bc
00000020: 48c5 9f3d 4816 103d 3167 243d c90f f4bc
00000030: 49b1 d73a 4ea3 1fbd 66f0 033e 2e40 353a
00000040: c8e2 22bd 1975 46bd ddc0 3c3c 5355 74bb
00000050: ab44 143d 03ed 213d 4457 f63d 85d6 adbc
00000060: 62da 453c 8d62 4b3c 593f bb3d 4d0c adbc
00000070: e02f e4bd 7a89 433b f5d8 0e3c 32fa 1bbe

actor.init_leaf_node_embed.2.module.weight f4 [64, 32]
0.13791752 0.5227068 0.1798658 0.32867455 -0.24385722 0.40814364 0.30412263 -0.2542158
-0.003244046 0.18693371 0.019356705 -0.007364139 -0.3355075 -0.13615525 0.1321062 0.1049374
0.16560408 -0.12518819 0.1092983 0.32091436 0.640866 -0.46988305 0.62992793 0.35703558
0.039712835 -0.0027271896 -0.0134075545 0.3396704 -0.13166438 0.17268266 0.112421855 -0.2993312
-0.10596413 -0.27158767 -0.18713789 -0.16651289 -0.2770182 0.31757492 -0.23075055 0.22658205
0.3236977 -0.3270383 0.068782374 -0.12524687 0.28383183 0.044659734 0.05927445 0.06993392
0.029515656 0.16363594 0.057277724 -0.46352726 -0.4343311 0.5944511 0.19478956 0.25991923
0.09819451 0.13406177 0.13098119 -0.19106548 0.08355741 0.07816595 0.24323224 -0.16932778
-0.005374064 0.008925237 0.22657385 -0.38052428 0.16533832 -0.08522178 -0.11170224 -0.085296236
-0.34877557 0.4170692 0.08687879 0.13132298 -0.19870631 0.04163987 0.14287527 0.13920435
-0.35760766 -0.2898009 0.17150609 0.06520648 -0.06524339 0.13702449 0.13778642 0.06686724
0.3518905 -0.10553628 0.17904907 0.02442731 -0.15604751 -0.041292835 -0.5217398 -0.20769113
-0.23636258 0.12732585 -0.35079792 0.5990429 -0.21074255 0.07422409 -0.16046688 0.17358662
-0.030741084 0.09926315 0.22849773 0.17577443 0.6216231 -0.265807 -0.060542412 -0.18417887
-0.1518843 0.24382772 0.0015662975 0.060632396 -0.50046563 -0.023902217 -0.09999519 -0.2469182
0.09084265 -0.17108741 0.2752298 0.21068913 0.2081831 0.003248277 -0.07537379 0.073148355
-0.35532087 -0.4051837 -0.08318427 -0.14565949 0.015177279 -0.27301311 -0.2314 -0.21067931
-0.61051446 0.36105117 0.015221447 0.018074665 0.4422704 -0.019462608 -0.26925185 0.17219855
0.086580515 -0.24431047 -0.30443254 -0.110321805 0.16756134 0.23270956 0.10133185 -0.0885223
-0.19758527 0.10135308 -0.06348315 0.039234098 -0.0859426 0.0010860446 0.21281217 -0.14843506
-0.13232495 0.22222042 -0.16652563 -0.37178147 0.10478513 0.20852531 0.07404187 -0.16974124
-0.32363722 -0.079755224 0.016078249 0.05965138 -0.17331685 -0.23738284 0.4614312 -0.24356252
0.24863547 0.039047014 0.0029622845 -0.04042505 0.020776935 -0.07714843 -0.15816557 -0.3490098
-0.2076073 0.0017268494 0.03285907 0.22016178 -0.030215422 0.07467908 -0.24253857 -0.058655296
-0.14800769 -0.4409057 -0.40375394 0.10214536 -0.21278597 -0.21487708 0.02578495 0.032244362
-0.0056505203 -0.011395423 -0.024695337 -0.25404292 0.33985332 0.11959652 -0.17549503 -0.20988882
-0.15188327 0.6632901 0.1061303 -0.033859447 0.1095377 0.25129795 -0.1511864 0.1561788
0.08205725 0.2540419 -0.25088552 0.028285343 0.14129563 -0.07331509 -0.26311454 0.062017053
0.043208007 0.21017097 -0.3453052 -0.39377984 -0.5368678 -0.32337588 0.17963785 -0.21224244
-0.073067665 0.061919797 -0.010896848 -0.36167815 0.14532599 -0.32360274 -0.42652324 0.09591377
-0.38014966 0.24580035 -0.13637401 -0.16710086 0.03519958 0.6809831 -0.06768149 -0.19554989
-0.079229966 0.029151294 -0.19708435 -0.26286763 0.18330184 -0.5176106 0.3102539 0.012508982
00000000: 403a 0d3e 1dd0 053f be2e 383e 0848 a83e
00000010: b5b5 79be 34f8 d03e f6b5 9b3e 9328 82be
00000020: 0f9a 54bb 8d6b 3f3e f491 9e3c e04e f1bb
00000030: a4c7 abbe 486c 0bbe d946 073e 6be9 d63d
00000040: 1e94 293e 5531 00be cad7 df3d e34e a43e
00000050: cb0f 243f 8394 f0be f542 213f 5ecd b63e
00000060: eda9 223d a6ba 32bb 5cab 5bbc 47e9 ad3e
00000070: 07d3 06be b9d3 303e 6e3d e63d f041 99be
00000080: b903 d9bd 8a0d 8bbe 13a1 3fbe 5b82 2abe
00000090: 54d5 8dbe 2e99 a23e df49 6cbe 2005 683e
000000a0: b4bb a53e 9071 a7be c6dd 8c3d b740 00be
000000b0: 6852 913e 20ed 363d c4c9 723d 8439 8f3d
000000c0: d1ca f13c 2e90 273e 0c9c 6a3d 7253 edbe
000000d0: a560 debe f32d 183f ea76 473e 2214 853e
000000e0: 341a c93d 7d47 093e ef1f 063e aba6 43be
000000f0: 2620 ab3d 7815 a03d df11 793e 4364 2dbe
00000100: eb18 b0bb 283b 123c fa02 683e 14d4 c2be
00000110: 734e 293e c288 aebd 25c4 e4bd cbaf aebd
00000120: b692 b2be 188a d53e 82ed b13d 8879 063e
00000130: ab79 4bbe 918e 2a3d e54d 123e 968b 0e3e
00000140: 5a18 b7be c960 94be 4b9f 2f3e fa8a 853d
00000150: 549e 85bd 2650 0c3e e217 0d3e b1f1 883d
00000160: fe2a b43e 6823 d8bd a458 373e c81b c83c
00000170: ebca 1fbe ad22 29bd bd90 05bf fcac 54be
00000180: 0809 72be b561 023e c99b b3be e05a 193f
00000190: e5cc 57be cd02 983d 6e51 24be b1c0 313e
000001a0: bad4 fbbc 7a4a cb3d 4ffb 693e 36fe 333e
000001b0: b122 1f3f db17 88be 52fb 77bd 6399 3cbe
000001c0: 8f87 1bbe f9ad 793e 394c cd3a ad59 783d
000001d0: 841e 00bf 95ce c3bc 47ca ccbd 20d8 7cbe
000001e0: b60b ba3d 8a31 2fbe ecea 8c3e e4be 573e
000001f0: f32d 553e 0be1 543b 935d 9abd cece 953d
00000200: 9eec b5be 3d74 cfbe 845c aabd c327 15be
00000210: 1faa 783c 60c8 8bbe 1ff4 6cbe 51bc 57be
00000220: ad4a 1cbf b3db b83e 6063 793c 5211 943c
00000230: 4471 e23e 0c70 9fbc 61db 89be d154 303e
00000240: 2051 b13d 862c 7abe 95de 9bbe 66f0 e1bd
00000250: 3395 2b3e 6a4b 6e3e 1387 cf3d 2e4b b5bd
00000260: cb53 4abe 3492 cf3d 7403 82bd efb3 203d
00000270: ad02 b0bd 9c59 8e3a 6feb 593e 5cff 17be
00000280: 3180 07be c08d 633e b285 2abe 245a bebe
00000290: 9699 d63d a987 553e 44a3 973d a6d0 2dbe
000002a0: c7b3 a5be b556 a3bd 88b6 833c 0155 743d
000002b0: f979 31be 7d14 73be b640 ec3e 7468 79be
000002c0: 4c9a 7e3e c3ef 1f3d e322 423b bd94 25bd
000002d0: 6434 aa3c ffff 9dbd 28f6 21be 6ab1 b2be
000002e0: 0297 54be 7357 e23a 3b97 063d 1772 613e
000002f0: 5586 f7bc 58f1 983d 085c 78be 8940 70bd
00000300: 548f 17be 64be e1be d6b8 cebe 9631 d13d
00000310: 91e4 59be bd08 5cbe f63a d33c aa12 043d
00000320: 0028 b9bb deb3 3abc e04d cabc ea11 82be
00000330: 4101 ae3e 05ef f43d f8b4 33be 18ed 56be
00000340: 4a87 1bbe 61cd 293f d85a d93d 34b0 0abd
00000350: 4d55 e03d 20aa 803e 9cd0 1abe 56ed 1f3e
00000360: a20d a83d c811 823e 1174 80be aab6 e73c
00000370: cdaf 103e 3926 96bd f3b6 86be 9805 7e3d
00000380: e1fa 303d 0f37 573e d8cb b0be 839d c9be
00000390: 2b70 09bf 8691 a5be fcf2 373e 1556 59be
000003a0: 80a4 95bd 9d9f 7d3d b188 32bc e12d b9be
000003b0: 56d0 143e 42af a5be 4161 dabe 706e c43d
000003c0: faa2 c2be 16b3 7b3e a1a5 0bbe 7d1c 2bbe
000003d0: 6f2d 103d e954 2e3f 989c 8abd 3b3e 48be
000003e0: 5243 a2bd b2ce ee3c 7bd0 49be 9696 86be
000003f0: 7ab3 3b3e 2182 04bf 99d9 9e3e 79f2 4c3c

actor.init_leaf_node_embed.2.add_bias._bias f4 [64, 1]
0.27201885 0.13677083 0.04193564 0.008260858 -0.17870201 0.011619817 -0.21115778 -0.27817747
-0.1668881 -0.17093204 0.2789124 -0.15309916 0.09627485 -0.09127707 -0.098945454 -0.072980635
0.14231251 -0.14207076 -0.32197273 -0.035481818 0.037558887 0.083898276 0.010517032 0.044066608
0.23587835 -0.044144176 -0.0042941566 -0.084976785 -0.17132343 0.11337211 -0.14359084 -0.01784362
0.10936694 -0.06119238 -0.15554672 0.14982279 0.22583568 -0.04569754 -0.029387629 -0.13120931
0.057090513 -0.5025304 0.18837102 0.05932997 -0.13901293 -0.043283373 -0.1450573 -0.03931717
-0.23221658 0.04291784 -0.054363646 -0.060881287 0.1014034 -0.16445719 -0.18850937 0.10096645
0.013321453 -0.2284412 0.19267777 -0.27179933 0.13407895 -0.13445638 0.069835246 0.024379516
00000000: 0e46 8b3e a70d 0c3e b5c4 2b3d 8d58 073c
00000010: a9fd 36be 0c61 3e3c bf39 58be 476d 8ebe
00000020: b7e4 2abe cf08 2fbe 9bcd 8e3e 07c6 1cbe
00000030: c02b c53d 79ef babd eaa3 cabd df76 95bd
00000040: 5fba 113e ff7a 11be 9cd9 a4be 6255 11bd
00000050: 59d7 193d dcd2 ab3d a14f 2c3c 307f 343d
00000060: 188a 713e 86d0 34bd ffb5 8cbb 4f08 aebd
00000070: 696f 2fbe a32f e83d 7a09 13be c92c 92bc
00000080: c6fb df3d dca4 7abd a447 1fbe 256b 193e
00000090: 7841 673e 582d 3bbd 53be f0bc bc5b 06be
000000a0: bed7 693d d5a5 00bf 55e4 403e fc03 733d
000000b0: 6859 0ebe e849 31bd e789 14be 0a0b 21bd
000000c0: 2fca 6dbe 9eca 2f3d 6aac 5ebd a85e 79bd
000000d0: 96ac cf3d 7767 28be 9a08 41be 80c7 ce3d
000000e0: 3942 5a3c 7dec 69be 524d 453e 4829 8bbe
000000f0: fe4b 093e efae 09be c805 8f3d 8db7 c73c

actor.init_next_embed.0.module.weight f4 [32, 6]
0.091724165 -0.14783362 -0.29890305 -0.42101976 -0.28700912 0.011777958 -0.21905139 -0.097654946
0.18683255 -0.24214731 0.02845897 -0.23393457 0.58790207 -0.26774636 -0.25778565 -0.045505308
-0.13223019 0.21537514 -0.007962401 0.036373135 -0.033101637 0.41921654 -0.46632767 -0.36127567
0.109611854 -0.4220224 -0.12407604 -0.24982354 -0.09092922 -0.15053068 -0.025134165 -0.5772369
0.28352162 -0.7192579 -0.12211049 0.1523381 0.8283208 0.10291967 0.070973516 -0.14273696
-0.043810938 -0.3488932 -0.08880875 0.09831574 0.14582333 0.08356988 -0.30785787 0.17419304
-0.20573385 -0.5904613 0.2444619 0.0060455366 1.3264383 -0.6761457 0.10156174 -0.29224053
-0.1822739 0.051472533 -0.3482221 -0.46030837 -0.32048178 0.1820992 0.016121991 0.38526392
0.27842376 -0.42105946 -0.117648214 -0.029234236 -0.021627637 0.10078218 0.025374359 0.14040016
-0.3551932 -0.032835547 0.14581446 0.024929281 -0.22809257 -0.32561094 0.049940713 0.009134302
0.12415758 0.24610512 -0.3824092 -0.085903466 1.2260845 -0.22806235 -0.25601846 -0.6122887
-0.089389674 0.019397687 -0.1922115 -0.06358731 -0.29770973 -0.11366176 -0.018453037 0.109308206
-0.30350012 -0.034050748 -0.11244481 -0.16472203 -0.359414 0.15329364 0.5724487 -0.05052203
0.19700745 -0.25087705 -0.053867918 0.0063353507 -0.06351665 0.2881259 0.22860755 -0.00913902
-0.07235383 0.25183418 0.9176021 0.2441345 -0.35871825 -0.2235494 0.15846363 0.1316261
0.26746753 0.026163727 -0.03635058 -0.13959204 -0.25992605 0.16875501 -0.02878231 -0.2110019
-0.7182638 -0.10080673 -0.12763192 -0.030764118 0.1164454 -0.1477266 -0.09739232 0.13404182
-0.34631252 0.0645867 0.5346825 -0.26592296 0.33082733 -0.3993411 0.41979495 0.42065543
1.2839905 -0.09954142 -0.18245748 -0.37801516 -0.14486398 0.20815872 0.16939025 0.28594753
-0.06433231 -0.19468631 -0.19213124 -0.3964347 0.0026567169 -0.32030162 0.18111199 -0.062354553
-0.22530766 -0.016219266 -0.5122905 -0.38239774 -0.18877986 -0.19412673 0.12551883 -0.16669524
0.52728426 0.20565565 -0.01903345 -1.2318175 -0.05107083 0.17334339 0.4443387 0.23072688
-0.34367222 -0.68076915 -0.02316384 0.15615715 -0.1667674 -0.25917542 0.29571474 0.034417123
-0.01634934 -0.070009984 -0.07956752 -0.22645392 -0.47012034 -0.06635231 -0.06041594 -0.06255312
00000000: e1d9 bb3d b261 17be d209 99be e78f d7be
00000010: dcf2 92be 56f8 403c 024f 60be 51ff c7bd
00000020: 0851 3f3e 77f5 77be c922 e93c 8b8c 6fbe
00000030: c080 163f 0d16 89be 7bfc 83be c663 3abd
00000040: 5a67 07be 4d8b 5c3e bb74 02bc fffb 143d
00000050: 9595 07bd 8da3 d63e 80c2 eebe 20f9 b8be
00000060: 2e7c e03d 5213 d8be 941b febd bed1 7fbe
00000070: 1939 babd b724 1abe 2ae6 cdbc ccc5 13bf
00000080: bf29 913e 4921 38bf 1115 fabd 85fe 1b3e
00000090: d50c 543f 8cc7 d23d 905a 913d a329 12be
000000a0: 1973 33bd 21a2 b2be 5de1 b5bd c359 c93d
000000b0: b652 153e af26 ab3d 8c9f 9dbe a95f 323e
000000c0: e5ab 52be 7928 17bf 3854 7a3e a319 c63b
000000d0: bbc8 a93f e217 2dbf 9aff cf3d 8da0 95be
000000e0: 02a6 3abe ddd4 523d 2b4a b2be 8aad ebbe
000000f0: 3016 a4be 3678 3a3e 4412 843c 5041 c53e
00000100: 8f8d 8e3e 1b95 d7be 8cf1 f0bd a37c efbc
00000110: 712c b1bc e366 ce3d e3dd cf3c 0fc5 0f3e
00000120: e2db b5be 917e 06bd 6350 153e 7e38 cc3c
00000130: 1991 69be 7ab6 a6be a28e 4c3d 0aa8 153c
00000140: 5446 fe3d fb02 7c3e 23cb c3be 28ee afbd
00000150: 56f0 9c3f 2d89 69be da14 83be f4be 1cbf
00000160: ef11 b7bd e6e7 9e3c 17d3 44be 103a 82bd
00000170: 696d 98be 7fc7 e8bd d32a 97bc fbdc df3d
00000180: 5e64 9bbe cc78 0bbd 7749 e6bd e4ac 28be
00000190: 1d05 b8be 02f9 1c3e ff8b 123f 30f0 4ebd
000001a0: 52bc 493e f572 80be 9ba4 5cbd c698 cf3b
000001b0: 0415 82bd 3d85 933e 1918 6a3e d4bb 15bc
000001c0: 3f2e 94bd 69f0 803e f9e7 6a3f 65fe 793e
000001d0: eba9 b7be 22ea 64be 4a44 223e fec8 063e
000001e0: 81f1 883e 5055 d63c 59e4 14bd 37f1 0ebe
000001f0: 0715 85be 1dce 2c3e e1c8 ebbc e210 58be
00000200: 23e0 37bf c273 cebd f1b1 02be 0805 fcbc
00000210: ed7a ee3d a445 17be a075 c7bd 4242 093e
00000220: e04f b1be 0846 843d f4e0 083f 0e27 88be
00000230: 3362 a93e 7076 ccbe 5def d63e 2660 d73e
00000240: cd59 a43f 5fdc cbbd 22d6 3abe 348b c1be
00000250: 3957 14be 8f27 553e a374 2d3e b767 923e
00000260: a8c0 83bd d95b 47be 0dbe 44be 7df9 cabe
00000270: 501c 2e3b 93fe a3be 6c75 393e 7d67 7fbd
00000280: 0db7 66be 44de 84bc 7825 03bf a3c9 c3be
00000290: 824f 41be 28c9 46be 0288 003e 28b2 2abe
000002a0: 1afc 063f 6597 523e 0aec 9bbc 32ac 9dbf
000002b0: a62f 51bd ee80 313e 5d80 e33e ab43 6c3e
000002c0: cef5 afbe e346 2ebf 18c2 bdbc a9e7 1f3e
000002d0: 13c5 2abe a4b2 84be ec67 973e f8f8 0c3d
000002e0: 0def 85bc 6561 8fbd 4cf4 a2bd 89e3 67be
000002f0: 9db3 f0be b8e3 87bd b476 77bd da1b 80bd

actor.init_next_embed.0.add_bias._bias f4 [32, 1]
0.16627018 0.06118206 -0.068180606 -0.049478825 0.015509274 -0.2784907 0.11834428 -0.07175055
-0.21584243 -0.05706037 -0.09136746 0.26888114 0.029017124 0.14996801 0.36445063 0.26512578
0.051522568 -0.20350789 -0.2753187 0.3671735 -0.077408805 0.011705153 -0.23285055 -0.05952379
0.2558004 -0.09629737 -0.14037822 0.019699268 0.040251363 0.15485045 0.14415143 0.12582329
00000000: bb42 2a3e 0a9a 7a3d 46a2 8bbd 4faa 4abd
00000010: 9c1a 7e3c 5596 8ebe 7c5e f23d f4f1 92bd
00000020: cc05 5dbe 22b8 69bd dd1e bbbd caaa 893e
00000030: 52b5 ed3c 3791 193e 4699 ba3e 91be 873e
00000040: 5409 533d 5f64 50be 93f6 8cbe 2afe bb3e
00000050: 8288 9ebd f8c6 3f3c 6070 6ebe 38cf 73bd
00000060: 45f8 823e 8e37 c5bd 4fbf 0fbe 5c60 a13c
00000070: 9dde 243d 1e91 1e3e 6f9c 133e d2d7 003e

actor.init_next_embed.2.module.weight f4 [64, 32]
0.022995045 -0.10765481 -0.024207132 0.17947686 0.15023309 0.07959813 -0.16457404 -0.2301886
-0.104265876 0.3140549 0.08830295 -0.591161 0.09628939 0.37631977 0.17430009 -0.37304583
-0.12290269 0.06690096 -0.018332887 -0.26505882 0.06377895 -0.058214553 -0.47537428 -0.48350602
-0.4535163 0.35352775 -0.1724608 -0.09025315 0.067096926 0.17191099 0.28261644 -0.093110174
0.22994328 -0.060415752 -0.12777418 -0.06688617 -0.092795834 -0.16929768 -0.16257705 0.0011552391
0.28186116 0.043531526 0.4774178 0.33250692 -0.021008404 -0.14025387 -0.2258642 -0.015750699
0.18075836 0.020481678 -0.07176735 0.5136149 0.1718437 0.022610229 0.05354025 -0.1826201
-0.12445173 0.21689044 -0.010956138 -0.3095695 -0.13453639 0.040629685 -0.054323025 -0.05161162
-0.030824924 0.030279892 0.20231251 -0.13009351 -0.0056532454 0.19192208 -0.5188599 -0.3492361
-0.38610446 -0.14088944 0.025184367 0.42094284 0.09672593 -0.31725523 -0.78660417 0.13616438
-0.21093611 0.0648196 0.19070701 0.18205093 -0.07501718 -0.08017642 -0.06013291 0.43892136
-0.40843138 0.0977156 -0.2152144 -0.15871212 -0.5418153 -0.6974886 -0.29413596 -0.22283548
-0.22923264 0.16482718 0.38030213 -0.09381704 -0.3105471 0.025016712 -0.37711558 0.12639667
0.044846434 0.23578177 -0.3415031 0.22304173 0.109321825 0.1527095 -0.23218052 -0.26229417
-0.15566123 0.2025766 0.031061472 -0.31470805 -0.016314013 0.07266698 0.16403672 0.78268176
-0.33806965 -0.43100494 -0.09357152 -0.32694808 -0.29168496 -0.22238688 0.08892295 -0.21832111
-0.20987903 -0.3816195 -0.012440238 0.24082239 0.11977055 -0.16394243 -0.1459362 -0.08232621
0.22149691 -0.123886 -0.23833619 0.030653 -0.038157772 0.12155971 0.09633007 -0.00025831192
0.136384 0.1515175 -0.15173227 -0.40144625 -0.17446308 0.09531756 0.15943792 0.028559858
0.22406992 -0.09581067 0.44869646 0.19826089 -0.22290015 -0.13540353 -0.09323632 0.05105534
0.06449901 -0.035282716 0.04508565 -0.10507912 0.33526874 0.19903037 0.008957437 0.14219388
0.035551354 0.21409062 0.026649406 0.72914517 0.0468821 0.061987426 -0.12523487 0.5831031
-0.02652267 0.32162744 0.11537788 0.93141633 0.047487818 -0.034071453 0.25595534 0.18071137
0.469186 -0.08416432 0.066398874 0.3512805 -0.22299965 -0.24512473 0.2456758 -0.1509297
0.143336 0.1759223 0.019035527 0.17561671 -0.07184549 0.030773768 -0.21735032 -0.32541278
0.069690615 0.22390492 0.07543816 0.18483475 0.023088265 -0.024594143 -0.11148189 -0.12165953
-0.029008552 0.16786903 -0.21286522 -0.053101636 0.20212069 -0.2711978 0.16917464 0.23322167
-0.18420349 0.0720905 0.039955597 -0.22604269 -0.05241496 -0.044303402 0.11624871 -0.28591657
-0.37772062 0.041778833 -0.2971517 0.022075098 0.22388162 -0.29150483 -0.21900238 -0.1968425
-0.05091478 -0.033746794 0.354088 0.40350744 0.09522278 0.19225433 0.47268197 0.5328803
0.055057555 0.3473296 0.20105974 0.36617824 -0.3355911 0.013824251 -0.16350986 0.69657826
0.46856305 0.02330725 0.09458624 -0.097758785 0.07483446 0.28919357 0.080320664 0.35520616
00000000: 1b60 bc3c 207a dcbd 094e c6bc c8c8 373e
00000010: b4d6 193e 5804 a33d 1986 28be 8fb6 6bbe
00000020: 5989 d5bd cecb a03e 2dd8 b43d 5456 17bf
00000030: 5f33 c53d fcac c03e b97b 323e ddff bebe
00000040: 68b4 fbbd 5f03 893d da2e 96bc cab5 87be
00000050: 8a9e 823d 6272 6ebd 4264 f3be 1a8e f7be
00000060: 4a33 e8be 9701 b53e 9099 30be a5d6 b8bd
00000070: 1d6a 893d 6f09 303e 1ab3 903e 8cb0 bebd
00000080: 4076 6b3e 8276 77bd 3cd7 02be 9efb 88bd
00000090: be0b bebd 5f5c 2dbe 997a 26be 646b 973a
000000a0: 1b50 903e 1d4e 323d 1b70 f43e 593e aa3e
000000b0: d119 acbc b69e 0fbe f248 67be 9c07 81bc
000000c0: b818 393e 31c9 a73c c3fa 92bd 447c 033f
000000d0: cbf7 2f3e 1639 b93c 054d 5b3d c300 3bbe
000000e0: 8ce0 febd 8718 5e3e 6081 33bc e57f 9ebe
000000f0: e8c3 09be 506b 263d d281 5ebd b566 53bd
00000100: 8d84 fcbc 890d f83c 032b 4f3e 3c37 05be
00000110: dc3e b9bb 3987 443e 01d4 04bf 13cf b2be
00000120: 7caf c5be 5245 10be 724f ce3c d285 d73e
00000130: 3f18 c63d 476f a2be e45e 49bf ad6e 0b3e
00000140: a3ff 57be 23c0 843d b348 433e 8f6b 3a3e
00000150: 9ba2 99bd 8933 a4bd ed4d 76bd 4dba e03e
00000160: eb1d d1be 1e1f c83d 2a61 5cbe 6e85 22be
00000170: 68b4 0abf 9d8e 32bf fd98 96be fc2e 64be
00000180: f6bb 6abe 75c8 283e f6b6 c23e 2623 c0bd
00000190: 0800 9fbe d9ef cc3c 4b15 c1be 216e 013e
000001a0: e5b0 373d c770 713e 7fd9 aebe 0d65 643e
000001b0: 1fe4 df3d e15f 1c3e bbc0 6dbe 6c4b 86be
000001c0: a865 1fbe 3d70 4f3e a174 fe3c 6a21 a1be
000001d0: f7a4 85bc 6dd2 943d 3ef9 273e d55d 483f
000001e0: 7717 adbe aeac dcbe 6da2 bfbd bd65 a7be
000001f0: bb57 95be 63b9 63be 3c1d b63d 928f 5fbe
00000200: 87ea 56be a263 c3be 24d2 4bbc 259a 763e
00000210: 434a f53d 86e0 27be 4d70 15be a59a a8bd
00000220: 16d0 623e f1b7 fdbd 670e 74be 001c fb3c
00000230: 534b 1cbd 4cf4 f83d b348 c53d 0a6e 87b9
00000240: 3fa8 0b3e 6727 1b3e b45f 1bbe 5d8a cdbe
00000250: 73a6 32be da35 c33d b243 233e 5df6 e93c
00000260: 9672 653e 6238 c4bd 8bbb e53e e704 4b3e
00000270: f03f 64be 39a7 0abe aff2 bebd 671f 513d
00000280: 0f18 843d 9c84 10bd bbab 383d b933 d7bd
00000290: 58a8 ab3e 9ece 4b3e 37c2 123c 469b 113e
000002a0: 4c9e 113d 923a 5b3e db4f da3c 42a9 3a3f
000002b0: 7207 403d 87e6 7d3d 923d 00be 3f46 153f
000002c0: 1246 d9bc 5aac a43e 3d4b ec3d 4d71 6e3f
000002d0: 9682 423d 828e 0bbd 940c 833e 670c 393e
000002e0: 2639 f03e 585e acbd 22fc 873d 0adb b33e
000002f0: 055a 64be fa01 7bbe 7092 7b3e 518d 1abe
00000300: acc6 123e fa24 343e 65f0 9b3c ded4 333e
00000310: ba23 93bd 4519 fc3c 1591 5ebe 819c a6be
00000320: f4b9 8e3d 5547 653e 527f 9a3d 5245 3d3e
00000330: 9a23 bd3c a879 c9bc 9e50 e4bd a228 f9bd
00000340: 58a3 edbc dce5 2b3e 57f9 59be 1a81 59bd
00000350: baf8 4e3e 70da 8abe 1e3c 2d3e a9d1 6e3e
00000360: d79f 3cbe 2fa4 933d 7ba8 233d bc77 67be
00000370: 12b1 56bd 7c77 35bd ce13 ee3d a863 92be
00000380: 9964 c1be 4820 2b3d 4524 98be d6d6 b43c
00000390: 3941 653e 1f40 95be 2942 60be 1591 49be
000003a0: 048c 50bd 143a 0abd 064b b53e 8798 ce3e
000003b0: 2904 c33d 52de 443e 5f03 f23e d86a 083f
000003c0: 0884 613d 2fd5 b13e 9be2 4d3e b77b bb3e
000003d0: 99d2 abbe 1c7f 623c 216f 27be f452 323f
000003e0: 7fe7 ef3e d9ee be3c 6eb6 c13d c235 c8bd
000003f0: cf42 993d 2e11 943e 297f a43d 95dd b53e

actor.init_next_embed.2.add_bias._bias f4 [64, 1]
-0.58374274 -0.37827295 -0.31219253 -0.3675636 -0.057174716 1.1418539 -0.39874047 0.6985878
0.9475675 -0.68442744 -0.6800737 0.027351359 1.1909118 -1.0087209 -0.91637033 -0.7448241
-0.85285044 0.8703956 0.61127573 -0.21511725 -0.12404911 -0.19763607 -1.3522781 0.651954
-2.268677 -0.8480117 -0.2506302 -1.0332775 0.5474419 0.34503725 -0.497686 -0.70429105
-0.11595631 0.8644927 -0.25987065 -0.13677433 1.4251437 0.77797264 -0.2936248 0.5530502
-1.7301291 1.1547788 -0.37539828 -1.395142 0.40444943 1.2854168 1.0587337 0.71533036
-0.57038057 0.3170542 0.7508202 0.44247025 0.36228856 -0.0058042184 -0.2912666 -0.7076591
-0.0048258468 0.526002 -0.50337464 0.2657525 0.3427314 0.80341256 0.018841304 0.19034179
00000000: 2a70 15bf feac c1be b3d7 9fbe 4c31 bcbe
00000010: 0930 6abd 4528 923f b627 ccbe a6d6 323f
00000020: c993 723f a336 2fbf 4f19 2ebf f50f e03c
00000030: cc6f 983f c41d 81bf 3f97 6abf cbac 3ebf
00000040: 6854 5abf 3fd2 5e3f 917c 1c3f b247 5cbe
00000050: 760d febd 1c61 4abe 7317 adbf 75e6 263f
00000060: 0132 11c0 4b17 59bf 9a52 80be 7042 84bf
00000070: 2725 0c3f b9a8 b03e b3d0 febe 6b4c 34bf
00000080: 807a edbd 654f 5d3f c40d 85be 920e 0cbe
00000090: 1c6b b63f 3729 473f fd55 96be b394 0d3f
000000a0: df74 ddbf cbcf 933f 3434 c0be 0394 b2bf
000000b0: ff13 cf3e 8a88 a43f 9684 873f e41f 373f
000000c0: 7604 12bf ee54 a23e c135 403f 768b e23e
000000d0: e37d b93e 5031 bebb e520 95be 2629 35bf
000000e0: 2322 9ebb 11a8 063f 29dd 00bf b610 883e
000000f0: 7d7a af3e 72ac 4d3f 1459 9a3c f5e8 423e

actor.embedder.layers.0.0.module.W_query.weight f4 [64, 64]
0.01570193 -0.04220358 0.16036794 -0.14798267 0.04673186 -0.13319731 -0.057636406 0.011792273
0.18509808 -0.15128279 0.14415824 -0.01451215 0.045517046 -0.013639535 0.034079816 -0.008620251
0.03429352 0.04568471 0.012041241 0.09463223 0.06253108 -0.08082301 0.14042486 0.19583726
-0.21322724 0.16859525 0.06931121 -0.035410702 0.02300259 0.18845332 -0.009759411 0.049538653
0.09767712 0.023566565 -0.21729124 0.15691084 -0.010336339 0.11163363 0.099621885 -0.0075218673
0.116030484 0.03661609 -0.030570937 0.16081843 -0.06728642 -0.113205686 0.18152446 -0.06905981
-0.094243266 0.00877505 -0.044669177 -0.11381019 -0.13046266 0.042760093 0.05382145 -0.09019039
0.1079621 -0.11634272 0.13623822 -0.016700098 -0.07013786 -0.09244029 -0.06216094 -0.029018005
-0.29813337 -0.14080209 -0.12469361 -0.12917888 -0.041574594 -0.20204867 0.16805542 0.19456607
0.24880363 0.0919017 -0.16258365 -0.048069317 0.1763285 -0.00041417408 -0.015143664 -0.0145533355
-0.09771785 0.14104204 -0.008496958 0.25125954 0.06424654 -0.12869105 -0.045188595 -0.22794718
-0.20031275 -0.10340804 0.17644803 0.03683011 0.12467911 -0.11804751 0.14426647 -0.025882665
-0.2114292 -0.09723606 0.03973988 -0.05551145 -0.10763529 -0.123008825 -0.17168233 -0.119513094
-0.17561951 0.27820513 -0.19485651 0.04010973 0.18485036 -0.0985715 -0.0059750243 0.14183071
0.19048187 -0.084005594 -0.08747033 -0.21744739 -0.13902467 0.13133183 -0.03162931 -0.19948627
-0.14731973 0.3394048 -0.19377282 0.33808652 -0.097122245 0.18674807 -0.1799127 0.1155716
-0.2370145 0.0032274479 0.022666475 0.06510429 0.15248916 -0.048117314 -0.030600743 0.055605456
0.005708466 0.07630482 -0.074828304 -0.045777567 0.10227788 0.071569614 0.049955707 0.14901505
0.009869418 0.106388934 0.10921025 0.05693758 0.10789398 0.03411104 -0.11098771 -0.116769925
-0.06714644 -0.06545589 0.05092105 -0.058309164 0.005899367 -0.032428138 -0.0010917723 -0.010011928
-0.055646546 -0.08323318 0.03803504 0.021010328 0.077036954 0.058717676 0.023070889 0.017494394
0.032969102 0.078993626 0.00766051 0.02424655 0.059856594 -0.11810943 0.17552629 0.16727184
-0.020881005 -0.042227738 0.033690885 0.007964497 -0.05639945 0.06539792 0.015835598 0.04430039
-0.03254306 0.08570417 -0.058955356 -0.031119658 -0.123615615 0.03105673 -0.098475195 -0.06307851
-0.05803348 0.074575536 -0.058481492 0.0904166 0.0928994 0.16792178 0.043014012 -0.105052784
-0.022917926 0.03168609 -0.08875214 -0.037832208 -0.16352618 0.039100215 -0.013108939 0.040792923
-0.006043358 0.025599884 -0.0066913264 0.05995723 -0.13282192 0.06185446 -0.021695452 -0.032650717
-0.0058427015 0.021230007 -0.10738451 0.09355233 0.09083517 -0.055725228 0.09170836 -0.038234733
-0.048965853 -0.038837053 -0.0170272 0.15764946 -0.015818285 0.081360534 0.013123323 -0.050156575
-0.16924533 0.102824114 0.15199526 -0.075828604 0.093707144 -0.11051347 0.009840466 -0.04512441
-0.018200496 0.022956377 0.05927362 0.008175414 0.21124059 0.10127184 0.07902959 0.061760914
0.13294883 -0.082556926 -0.062376693 -0.040307313 -0.11638982 -0.039500102 -0.01831577 -0.08440519
00000000: 55a1 803c a9dd 2cbd 7e37 243e c588 17be
00000010: e869 3f3d e064 08be 2714 6cbd 6134 413c
00000020: 5a8a 3d3e e0e9 1abe 389e 133e 5ec4 6dbc
00000030: 1570 3a3d 5b78 5fbc 4797 0b3d f43b 0dbc
00000040: 5d77 0c3d e41f 3b3d a048 453c 8bce c13d
00000050: 4b10 803d 8986 a5bd 89cb 0f3e 9089 483e
00000060: 3e58 5abe 3ca4 2c3e 09f3 8d3d d00a 11bd
00000070: ed6f bc3c e8f9 403e f0e5 1fbc 0be9 4a3d
00000080: f10a c83d ab0e c13c 9881 5ebe 3cad 203e
00000090: bf59 29bc 2ca0 e43d 8f06 cc3d ff79 f6bb
000000a0: 64a1 ed3d c1fa 153d e76f fabc 96ad 243e
000000b0: 76cd 89bd 62d8 e7bd 8ce1 393e 3b6f 8dbd
000000c0: 9d02 c1bd 3ac5 0f3c 07f7 36bd 5115 e9bd
000000d0: 0198 05be 3525 2f3d e173 5c3d bdb5 b8bd
000000e0: 3c1b dd3d 1845 eebd 0882 0b3e a5ce 88bc
000000f0: 70a4 8fbd 5651 bdbd 789c 7ebd 2bb7 edbc
00000100: f0a4 98be 6c2e 10be 5d5f ffbd 7847 04be
00000110: 1f4a 2abd d9e5 4ebe b816 2c3e 543c 473e
00000120: 61c6 7e3e f536 bc3d 547c 26be 55e4 44bd
00000130: 758f 343e 8125 d9b9 211d 78bc 1d71 6ebc
00000140: 4c20 c8bd 536d 103e d336 0bbc 17a5 803e
00000150: b193 833d 96c7 03be ad17 39bd fc6a 69be
00000160: c91e 4dbe 98c7 d3bd cbae 343e 2bdb 163d
00000170: c357 ff3d e5c2 f1bd 97ba 133e e207 d4bc
00000180: e580 58be b323 c7bd 49c6 223d f95f 63bd
00000190: e46f dcbd 0dec fbbd 7ecd 2fbe 48c3 f4bd
000001a0: 9ad5 33be e770 8e3e 7788 47be 1a4a 243d
000001b0: 6a49 3d3e dbdf c9bd 23ca c3bb 123c 113e
000001c0: ae0d 433e 200b acbd a523 b3bd 87aa 5ebe
000001d0: 7c5c 0ebe da7b 063e bc8d 01bd 2146 4cbe
000001e0: fcda 16be 77c6 ad3e 626c 46be ad19 ad3e
000001f0: 07e8 c6bd e33a 3f3e 093b 38be ceb0 ec3d
00000200: eeb3 72be 9783 533b 0baf b93c 6655 853d
00000210: 1e26 1c3e a916 45bd 69ae fabc 8cc2 633d
00000220: 150e bb3b b445 9c3d 953f 99bd 4281 3bbd
00000230: 1177 d13d 1793 923d 5b9e 4c3d 6797 183e
00000240: 57b3 213c 71e2 d93d a0a9 df3d 6137 693d
00000250: 85f7 dc3d 05b8 0b3d 864d e3bd 1225 efbd
00000260: 1384 89bd bd0d 86bd 9792 503d 97d5 6ebd
00000270: 7a4f c13b 5ed3 04bd cd19 8fba 1209 24bc
00000280: a2ed 63bd 2876 aabd a1ca 1b3d da1d ac3c
00000290: 8dc5 9d3d f281 703d 29ff bc3c 6750 8f3c
000002a0: 9c0a 073d 69c7 a13d 0405 fb3b b3a0 c63c
000002b0: 302c 753d 5be3 f1bd 2abd 333e 4f49 2b3e
000002c0: a40e abbc fef6 2cbd 74ff 093d 867d 023c
000002d0: 1c03 67bd 58ef 853d a8b9 813c 5374 353d
000002e0: df4b 05bd ab85 af3d 2c7b 71bd a7ee febc
000002f0: 2f2a fdbd af6a fe3c 5dad c9bd 4e2f 81bd
00000300: 84b4 6dbd 0fbb 983d 4a8a 6fbd 572c b93d
00000310: 0a42 be3d b0f3 2b3e 762f 303d ea25 d7bd
00000320: 60be bbbc 46c9 013d afc3 b5bd f2f5 1abd
00000330: 6873 27be 8c27 203d e0c6 56bc 7b16 273d
00000340: 5c07 c6bb d9b6 d13c ea42 dbbb b695 753d
00000350: 7802 08be 1a5b 7d3d a9ba b1bc c2bc 05bd
00000360: 2274 bfbb 8dea ad3c 69ec dbbd 5d98 bf3d
00000370: ca07 ba3d 2340 64bd 98d1 bb3d 069c 1cbd
00000380: 6b90 48bd 9a13 1fbd a07c 8bbc dc6e 213e
00000390: 5995 81bc 5aa0 a63d 3503 573c fb70 4dbd
000003a0: a64e 2dbe 7395 d23d a5a4 1b3e 074c 9bbd
000003b0: 88e9 bf3d e354 e2bd e839 213c 60d4 38bd
000003c0: 3519 95bc 030f bc3c e5c8 723d 2cf2 053c
000003d0: 744f 583e 9c67 cf3d 44da a13d 03f9 7c3d
000003e0: bd23 083e 9b13 a9bd b47e 7fbd 4819 25bd
000003f0: c95d eebd dcca 21bd f40a 96bc a1dc acbd
