logs/experiment/Discrete_A2C_1-5Box_10x10x10Bin-2022.08.09-15-00-00/PCT-Discrete_A2C_1-5Box_10x10x10Bin-2022.08.09-15-00-00_2022.08.09-21-10-41.pt (torch, 236314 bytes, 24 tensors)

actor.init_internal_node_embed.0.module.weight f4 [32, 6]
0	0xbf01dfcb	-0.50732106
1	0x3cc4d5dc	0.024027757
2	0xbf2da173	-0.67824477
3	0x3d20fcf5	0.03930374
4	0xbe4d8291	-0.20069338
5	0x3d4b2d86	0.04960396
6	0xbd8f532f	-0.06998288
7	0x3e0fb9ba	0.14035693
8	0xbeb39e53	-0.3508173
9	0xbe8b810c	-0.27246892
10	0xbec6fe4d	-0.3886589
11	0xbede4626	-0.43412894
12	0xbdb7f16f	-0.08981597
13	0x3d4ffdd7	0.05077919
14	0x3e47f433	0.19526748
15	0x3e6a0e5e	0.22857043
16	0x3deecf3e	0.11660622
17	0xbf2c7366	-0.67363584
18	0x3ea025dd	0.31278887
19	0xbe3d0480	-0.18458748
20	0x3e9362dd	0.28786364
21	0xbf00ceba	-0.5031544
22	0xbe02dd6e	-0.12779781
23	0x3f204e1f	0.62619203
24	0xbda44a5e	-0.08021997
25	0xbec0d576	-0.37662858
26	0x3e29466e	0.16530773
27	0x3d93e16d	0.07220731
28	0x3e909425	0.28238025
29	0x3f52fc8b	0.824166
30	0xbd13a706	-0.036047958
31	0x3da8c4f9	0.082406946
32	0x3e6e6cce	0.23283693
33	0x3cac4a09	0.021031396
34	0xbda299fc	-0.079395264
35	0xbe7cc53f	-0.24684618
36	0x3fa28c42	1.2699053
37	0xbedd890a	-0.43268615
38	0xbf4cf393	-0.80059165
39	0xbfaf4ec6	-1.3695915
40	0x3f26496b	0.64955777
41	0x3f2e55db	0.68099755
42	0xbebab892	-0.3646894
43	0xbeb0e7d3	-0.34551868
44	0x3d849718	0.06474131
45	0xbe5a67f8	-0.21328723
46	0x3e90d176	0.28284806
47	0x3f15746b	0.58380765
48	0xbdc84817	-0.09779375
49	0x3ed79ace	0.42110294
50	0x3f1bf172	0.6091529
51	0xbe56baae	-0.2096965
52	0xbe7ee029	-0.24890198
53	0x3eabad1a	0.33530504
54	0x3ecfb2c4	0.40566075
55	0xbd7cf12b	-0.061753433
56	0x3f0602ef	0.52348226
57	0xbd92abb4	-0.07161656
58	0xbd874cbb	-0.06606432
59	0xbd069987	-0.03286126
60	0xbee793a7	-0.45229837
61	0xbeab7a44	-0.3349172
62	0xbe991677	-0.29899952
63	0x3efb37f0	0.49066114
64	0x3e9d6a3f	0.30745122
65	0xbe9abf7d	-0.3022422
66	0xbded273e	-0.115797505
67	0x3f27ff8e	0.6562432
68	0xbef4f9ed	-0.47846928
69	0x3e11e47c	0.14247316
70	0xbf2693da	-0.65069354
71	0x3eee2975	0.46516004
72	0x3ea7d998	0.32783198
73	0xbf16dfde	-0.58935344
74	0xbe7e2048	-0.24817002
75	0x3e726458	0.2367109
76	0xbe8e75d8	-0.27824283
77	0x3e36edad	0.17864104
78	0x3e42882c	0.18997258
79	0x3e8782af	0.2646689
80	0xbdd28720	-0.10279679
81	0xbe937c4a	-0.28805763
82	0xbd56d2b2	-0.05244703
83	0xbdfb127c	-0.12259385
84	0x3e8bb579	0.2728689
85	0xbc07ce07	-0.008288867
86	0x3bd09eee	0.006366602
87	0xbe1bc547	-0.15211974
88	0xba17d673	-0.00057921483
89	0x3ccea2af	0.025224058
90	0x3eaaf327	0.33388636
91	0xbdf07ad2	-0.11742176
92	0x3ea4ea08	0.32209802
93	0xbe74842c	-0.23878545
94	0xbe4ec897	-0.20193706
95	0x3e84f3ce	0.25967258
96	0xbefba064	-0.49145806
97	0xbf05f428	-0.5232568
98	0xbeb468a7	-0.35236093
99	0xbebab3de	-0.36465353
100	0xbdd9d6fe	-0.1063671
101	0xbe877f0e	-0.26464123
102	0x3ca1c2e5	0.019746253
103	0x3e1bb37d	0.15205188
104	0x3ea21d50	0.3166299
105	0xbda6c5cf	-0.08143198
106	0xbc9f05c3	-0.019411927
107	0xbb7f6b40	-0.0038973838
108	0xbdd0600f	-0.10174572
109	0xbf35c6fc	-0.7100675
110	0xbf2e36d3	-0.68052405
111	0xbd8563a1	-0.06513143
112	0xbe1f1702	-0.1553612
113	0xbe1b4f06	-0.15166864
114	0x3e729f3f	0.2369356
115	0xbdc25480	-0.09488773
116	0xbf4f30fd	-0.80934125
117	0xbd9af83c	-0.07566878
118	0xbda73cb9	-0.08165879
119	0x3ed60b01	0.4180527
120	0x3ce49f2a	0.027907927
121	0xbe74fc74	-0.23924428
122	0x3a0be7b9	0.00053369586
123	0xbed68599	-0.41898802
124	0xbf302cfb	-0.68818635
125	0x3df532e4	0.11972597
126	0xbd92bf3b	-0.071653806
127	0xbecea5e3	-0.40360937
128	0xbf2696ab	-0.6507365
129	0x3d88d964	0.06682089
130	0x3e97b44e	0.2962975
131	0x3f1d9272	0.6155158
132	0xbeb0db84	-0.34542477
133	0x3c9a7c03	0.018857962
134	0xbf4a359e	-0.78988063
135	0x3e995bdc	0.29952896
136	0x3efd252b	0.4944242
137	0x3cd3363c	0.025782697
138	0x3de64826	0.1124423
139	0xbd44f36d	-0.04808371
140	0xbedaeb67	-0.42757723
141	0xbe2bc4dd	-0.16774316
142	0xbedaa3b5	-0.42703024
143	0xbf0ed559	-0.5579429
144	0x3e2484af	0.1606624
145	0xbe1a9e51	-0.15099455
146	0x3f3a06c7	0.7266659
147	0xbc7adfaa	-0.015312115
148	0x3e08f12b	0.13373248
149	0xbdbbc656	-0.09168689
150	0x3dbb569f	0.09147381
151	0xbe8bdc53	-0.27316532
152	0xbf0d7d1d	-0.5526903
153	0x3e503503	0.20332722
154	0x3ecd74a2	0.40128046
155	0xbe03e485	-0.12880142
156	0x3f1ec044	0.62012124
157	0x3d1cf722	0.03832162
158	0x3e5f647a	0.21815673
159	0x3e319716	0.17342791
160	0xbe2533fe	-0.16133115
161	0xbe7248b6	-0.2366055
162	0x3eb53b3f	0.35396764
163	0x3d417b6f	0.047236856
164	0xbe5b73b6	-0.21430859
165	0x3ee44788	0.44585824
166	0x3d86e085	0.065857925
167	0xbdf0e670	-0.117627025
168	0xbdd6f91b	-0.10496732
169	0xbe5d130f	-0.21589302
170	0x3e02506e	0.12725994
171	0x3f0864d8	0.53278875
172	0x3efdda40	0.49580574
173	0xbf4d974f	-0.80309004
174	0x3e8638cb	0.26215205
175	0xbe73eb6b	-0.23820274
176	0xbebd46a0	-0.36967945
177	0xbdaab3ce	-0.08335076
178	0x3dc38c9e	0.09548305
179	0xbd1cd9de	-0.03829371
180	0xbea423ac	-0.32058465
181	0xbed0e994	-0.40803206
182	0x3faa8bd4	1.3323922
183	0xbde51a25	-0.11186627
184	0xbe578a86	-0.21048936
185	0x3dc8719a	0.09787293
186	0x3e6fb36d	0.23408289
187	0x3d9b711d	0.07589934
188	0xbdcab583	-0.09897902
189	0x3d6b64ca	0.057469167
190	0xbe1f0062	-0.1552749
191	0xbdd55417	-0.104164295

actor.init_internal_node_embed.0.add_bias._bias f4 [32, 1]
0	0x3c4b1eb5	0.012397458
1	0xbebc4c02	-0.3677674
2	0xbba8e065	-0.005153703
3	0xbcb74712	-0.022372756
4	0x3e16247c	0.14662355
5	0x3d209d41	0.03921247
6	0x3bccd207	0.006250623
7	0xbc086b1d	-0.008326319
8	0x3d363792	0.04448659
9	0x3dd79182	0.105258
10	0x3bfb024b	0.0076601855
11	0x3c82d071	0.015968533
12	0xba99051a	-0.0011674494
13	0x39eafeb4	0.00044821727
14	0xbc58018c	-0.013183963
15	0x3cf43dc4	0.029814608
16	0xbe926a1a	-0.28596574
17	0xbd7580e8	-0.059937388
18	0x3d3f3b26	0.046687268
19	0x3af88ced	0.0018962898
20	0xbe7e8f9e	-0.24859473
21	0x3d68876e	0.05676978
22	0x3d49a19f	0.0492264
23	0x3dee1933	0.116259
24	0x3d0c812b	0.03430287
25	0x3b66be1a	0.0035208524
26	0x3bc5eb18	0.0060399882
27	0x3d8fa843	0.07014515
28	0x3cdf455c	0.027254753
29	0xbd41f3e6	-0.04735174
30	0x3d92a4ba	0.07160325
31	0xbd8fa0df	-0.070131056

actor.init_internal_node_embed.2.module.weight f4 [64, 32]
0	0x3e153c1b	0.1457371
1	0x3e26a7ee	0.16274998
2	0xbe21d394	-0.15803367
3	0x3df2afdc	0.11849949
4	0x3cd6a432	0.026201341
5	0x3deaa0ef	0.11456477
6	0x3e1d5d21	0.15367557
7	0x3effb720	0.499444
8	0x3ea00bfb	0.3125914
9	0xbde90201	-0.11377335
10	0x3f511724	0.81675935
11	0x3e4e5089	0.20147909
12	0x3d3f0ca1	0.046642903
13	0xbe303c06	-0.17210397
14	0xbf3338d8	-0.7000861
15	0x3e935e28	0.28782773
16	0xbd0a5057	-0.033768024
17	0x3e78b8a0	0.24289179
18	0x3cf8a802	0.03035355
19	0x3e597be2	0.21238664
20	0xbe6a3c1f	-0.22874497
21	0x3e1b8045	0.1518565
22	0x3f8c9d38	1.0985479
23	0xbc8684f0	-0.016420811
24	0x3f133b3c	0.5751226
25	0x3e4dd2d5	0.20099957
26	0x3e25f757	0.16207634
27	0x3e92fdd0	0.2870927
28	0x3db2f049	0.08737237
29	0xbc873d84	-0.016508825
30	0xbe498214	-0.19678527
31	0x3d2ef19e	0.042710893
32	0x3ea7bc21	0.32760718
33	0x3dc26a81	0.0949297
34	0xbf03c30a	-0.5146948
35	0xbef0f0d0	-0.47058725
36	0xbd28d00f	-0.041214045
37	0x3e687c03	0.22703557
38	0x3d86a152	0.06573738
39	0xbeb2419b	-0.34815678
40	0xbe501b9b	-0.2032303
41	0x3e397d03	0.18114094
42	0x3ed47b86	0.4150049
43	0x3dee7cde	0.1164491
44	0x3ee4079c	0.44537055
45	0x3c9bc53a	0.019014943
46	0xbcba5e70	-0.02275011
47	0x3e80f6d3	0.25188312
48	0xbd529077	-0.051407304
49	0xbe105dd1	-0.14098288
50	0xbdfb1082	-0.12259008
51	0xbe0c31d7	-0.13690887
52	0x3d49ffcf	0.049316224
53	0x3eb1e18f	0.347424
54	0x3f73071e	0.94932735
55	0x3eb4515f	0.3521833
56	0xbe6b3812	-0.22970608
57	0x3e224238	0.15845573
58	0xb99f8fc7	-0.00030433966
59	0x3d820544	0.063486606
60	0x3f2aec5b	0.667669
61	0x3e305fc0	0.17224026
62	0x3e5d0f5f	0.21587895
63	0xbcc74124	-0.024323054
64	0xbe8fb0f3	-0.2806469
65	0x3ca1b695	0.019740382
66	0x3f0830e6	0.53199613
67	0x3f25f5d1	0.6482821
68	0x3f05156e	0.51985824
69	0xbc87ec59	-0.016592192
70	0xbe99edc5	-0.30064216
71	0x3f85da77	1.0457295
72	0xbe93e31b	-0.28884205
73	0xbe994ea8	-0.29942822
74	0xbeef7cf9	-0.46775034
75	0xbf4e8c42	-0.80682766
76	0x3db2bac8	0.08727032
77	0x3e6a2780	0.2286663
78	0x3f106796	0.5640806
79	0xbf1f5c4b	-0.622502
80	0xbd95c406	-0.07312779
81	0x3d61a4ad	0.055088688
82	0x3d1465ef	0.036230024
83	0xbed407b0	-0.41412115
84	0xbcbc706b	-0.023002824
85	0x3ef4e8d4	0.47833884
86	0xbda7f684	-0.08201316
87	0xbe628af5	-0.2212332
88	0xbdc0b6bf	-0.09409856
89	0x3cf2daea	0.029645402
90	0xbadad210	-0.0016694684
91	0x3cc6ebe2	0.0242824
92	0x3e98a8e8	0.29816365
93	0xbe39bdbd	-0.18138786
94	0x3e67e503	0.22645955
95	0x3e0e51d1	0.13898398
96	0xbb227cfe	-0.002479374
97	0xbe5ecdce	-0.21758196
98	0xbd19b1f3	-0.03752322
99	0x3f0219b1	0.5082045
100	0x3df41b27	0.119192414
101	0x3b5a66e2	0.0033325483
102	0x3c4a6d33	0.012355137
103	0x3e5d6f23	0.21624427
104	0x3cf60f2c	0.030036531
105	0xbd9bc99f	-0.076068155
106	0x3d66a942	0.05631376
107	0xbd8e911e	-0.06961273
108	0xbe9769ee	-0.29573005
109	0x3d8c4b0c	0.068502516
110	0xbeac2730	-0.33623648
111	0xbc9a31fe	-0.018822666
112	0x3de5883c	0.11207625
113	0xbe9ac690	-0.30229616
114	0x3dea8af5	0.11452285
115	0x3d4a0499	0.04932079
116	0xbe870a0e	-0.2637486
117	0x3f1f9da8	0.6234994
118	0xbe215faa	-0.15759149
119	0x3e89f944	0.26947987
120	0x3e37622a	0.1790854
121	0x3cda2eb8	0.026633605
122	0x3daeb7cc	0.0853115
123	0x3e9536e3	0.29143438
124	0x3e3ab86d	0.18234415
125	0xbd4d9b67	-0.05019703
126	0xbe83dfb2	-0.25756603
127	0x3e60c3c2	0.21949676
128	0x3ea6a891	0.3255048
129	0xbe07f3b2	-0.13276556
130	0xbe49fb6e	-0.19724819
131	0x3dfc25ad	0.123118736
132	0xbf0ffb04	-0.56242394
133	0xbde19b2d	-0.110159256
134	0x3f017a60	0.50577354
135	0xbeeb6938	-0.45978713
136	0xbf1e7465	-0.61896354
137	0x3efe19e2	0.49629122
138	0x3ed262f2	0.41091114
139	0x3ec2cb86	0.380459
140	0xbcea8275	-0.02862666
141	0xbe31cfa8	-0.17364371
142	0x3eae01a9	0.33985642
143	0xbd5cd2f0	-0.053912103
144	0xbc456da5	-0.012050067
145	0xbe15018b	-0.1455137
146	0xbbd8082e	-0.006592772
147	0x3de10f77	0.10989278
148	0xbe1e514e	-0.15460703
149	0x3ee23509	0.44181088
150	0x3e3989cb	0.1811897
151	0xbd86227a	-0.06549545
152	0xbe6a749a	-0.22896042
153	0x3e6d0814	0.23147613
154	0x3e8c1d3d	0.27366057
155	0x3e04ed6f	0.12981199
156	0x3f15c9f0	0.5851126
157	0x3dbe3a24	0.09288433
158	0x3e3d4fd1	0.18487479
159	0xbe035fda	-0.12829533
160	0xbe910e9e	-0.28331465
161	0xbdc3cb49	-0.09560258
162	0xbd7e9192	-0.062150545
163	0xbccb789f	-0.02483779
164	0x3f64dc04	0.8939822
165	0xbe98b95b	-0.29828915
166	0xbe8bc7aa	-0.2730077
167	0x3e9c6325	0.3054439
168	0x3e5ae67d	0.21376987
169	0xbd14fd20	-0.03637421
170	0x3f52a44a	0.82281935
171	0xbea1f18e	-0.31629604
172	0xbd0e75c3	-0.034780275
173	0xbe544105	-0.20727928
174	0x3bf80d65	0.007569956
175	0x3e95b760	0.29241467
176	0x3e6555c3	0.22395997
177	0x3e7bfe57	0.24608742
178	0xbdc51fe1	-0.09625221
179	0x3d538072	0.051636167
180	0xbd2f5899	-0.042809103
181	0x3d4ca05d	0.04995762
182	0x3eb825ff	0.3596649
183	0xbf1ca8b9	-0.6119495
184	0xbc361ffb	-0.011116023
185	0x3e88d505	0.2672502
186	0x3e716b9c	0.23576206
187	0x3ee53f59	0.44774893
188	0x3b0b3c0f	0.0021245515
189	0xbdb1907b	-0.086701356
190	0xbc94cf5b	-0.018165281
191	0x3e16f2fa	0.14741126
192	0x3e9796fc	0.2960738
193	0x3c59f104	0.0133020915
194	0x3e1116c4	0.1416884
195	0xbb2fd032	-0.0026826975
196	0x3ef2dd3b	0.4743441
197	0x3d4191ae	0.04725807
198	0xbe2d7b4d	-0.16941567
199	0x3e18920c	0.14899462
200	0x3d4b1bc5	0.04958703
201	0xbe7b23f8	-0.2452544
202	0x3eb7fe82	0.35936362
203	0xbe23b77e	-0.15987965
204	0xbe914164	-0.28370202
205	0xbb63baa1	-0.003474869
206	0x3e8814a9	0.26578262
207	0xbee3bfd9	-0.44482306
208	0x3c5c74b1	0.013455556
209	0xbea6a490	-0.32547426
210	0x3d9a1396	0.07523267
211	0xbc6bf1c6	-0.014400905
212	0x3c0e3a8a	0.008680949
213	0x3de102da	0.10986872
214	0x3c6b44cf	0.014359667
215	0x3e448f49	0.19195284
216	0xbda627c6	-0.08113055
217	0x3dbae8a9	0.09126408
218	0xbe6891a8	-0.22711813
219	0x3ede28e2	0.43390566
220	0xbeb0527f	-0.3443794
221	0x3da98b33	0.08278503
222	0xbeed4e83	-0.46348962
223	0xbd529d6f	-0.05141967
224	0xbe0cb216	-0.1373981
225	0xbdfb808c	-0.12280378
226	0xbeeb2547	-0.45926878
227	0xbeb6d051	-0.35705808
228	0xbeb4bcc5	-0.3530027
229	0xbc97ba10	-0.018521339
230	0x3df9adb7	0.121913366
231	0xbd6bbf1b	-0.0575553
232	0x3e44d317	0.1922115
233	0x3ebd0176	0.36915177
234	0x3ee629b2	0.44953686
235	0x3ee99267	0.4561951
236	0xbe50edfa	-0.20403281
237	0x3d960fb3	0.07327213
238	0xbe4fcd60	-0.20293188
239	0xbcd91d70	-0.026503295
240	0xbd795579	-0.06087253
241	0xbe466720	-0.19375277
242	0x3e53898d	0.2065794
243	0x3e61dbb4	0.22056466
244	0x3d14528a	0.036211528
245	0xbee5d7ff	-0.44891354
246	0x3f29d651	0.66342646
247	0xbc61f2b0	-0.013790771
248	0xbf1f92d8	-0.6233344
249	0x3df2ce2f	0.11855733
250	0xbebf73d5	-0.3739306
251	0xbef2c4a8	-0.47415662
252	0x3f2df7d4	0.6795628
253	0x3e44c64e	0.19216272
254	0x3eb17df4	0.34666407
255	0xbddc5db0	-0.10760057

actor.init_internal_node_embed.2.add_bias._bias f4 [64, 1]
0	0x3e35eca8	0.17766058
1	0x3e982f88	0.29723763
2	0xbd50e697	-0.051001158
3	0x3d9b598d	0.0758544
4	0x3e1efd00	0.155262
5	0x3e94de7c	0.29075992
6	0x3d25b758	0.040458053
7	0x3de743c3	0.112922214
8	0xbda80e7e	-0.08205889
9	0xbdc8f776	-0.098128244
10	0x3b8e6a0d	0.0043461383
11	0x3d24fb03	0.040278446
12	0xbd728e3a	-0.05921767
13	0x3da4e8bb	0.08052202
14	0x3e10b514	0.14131576
15	0x3e1612ad	0.14655562
16	0x3c91c564	0.017794318
17	0xbe48d735	-0.19613345
18	0x3cb1d722	0.021709029
19	0x3da10d75	0.07863895
20	0xbc405cf1	-0.011740909
21	0x3cec64be	0.028856631
22	0xbd6083b9	-0.05481312
23	0xbd91c721	-0.07118059
24	0x3dfb1171	0.12259186
25	0xbd1c99b7	-0.03823253
26	0xbd2d263f	-0.042272802
27	0x3d252336	0.040316783
28	0xbdc1be04	-0.09460071
29	0xbb68565f	-0.0035451872
30	0x3c439edb	0.01193973
31	0xbb8f6979	-0.004376587
32	0x3d9fa2a8	0.07794696
33	0x3cd99ff8	0.026565537
34	0x3e8ebe4f	0.2787957
35	0xbd8714c4	-0.065957576
36	0x3cb8d5f2	0.022562955
37	0xbe15e0ae	-0.1463649
38	0xbd08bc5e	-0.033382766
39	0x3e4d58b0	0.20053363
40	0xbd423cc3	-0.04742123
41	0xbe7ecad0	-0.24882054
42	0x3e1cc2ce	0.15308687
43	0xbc26d864	-0.0101834275
44	0xbe0765cf	-0.1322243
45	0xbd3faa94	-0.046793535
46	0xbe9565f8	-0.29179358
47	0xbe8a5496	-0.2701766
48	0x3e880c25	0.26571766
49	0x3c507662	0.012723537
50	0x3dc9be72	0.09850778
51	0x3d813269	0.06308443
52	0xbc9f4bbd	-0.019445295
53	0xbc5d7ee7	-0.013519025
54	0xbd34b9cc	-0.044122502
55	0x3e58bf4b	0.21166722
56	0x3e6a05bb	0.22853749
57	0xbda54f35	-0.08071748
58	0x3c671400	0.014103889
59	0x3d4c7baa	0.049922623
60	0x3d6ec419	0.058292482
61	0x3de1771d	0.11009047
62	0xbd2824bf	-0.04105067
63	0x3c73e113	0.014885205

actor.init_leaf_node_embed.0.module.weight f4 [32, 8]
0	0xbd9b1852	-0.07572998
1	0xbeafdefb	-0.34349808
2	0xbeca005d	-0.39453402
3	0xbd96575d	-0.07340882
4	0x3e2d8d4f	0.16948436
5	0x3ebddaa4	0.37080872
6	0x3efdbaae	0.49556488
7	0x3e8a0761	0.26958755
8	0xbed0a9bb	-0.40754494
9	0xbf3022fb	-0.68803376
10	0xbd89713e	-0.06711052
11	0xbe9ef458	-0.31045794
12	0xbe721eff	-0.23644637
13	0x3ea9db3a	0.3317507
14	0xbcb4d3e4	-0.022073694
15	0x3ebabde5	0.36473003
16	0x3e4eedeb	0.20207946
17	0xbec1e01a	-0.37866288
18	0xbe011470	-0.12605453
19	0x3ed0f3c3	0.40810975
20	0x3ba69ba5	0.0050844722
21	0xbea2afd5	-0.31774774
22	0xbd682d08	-0.05668357
23	0xbd8a1e79	-0.067440934
24	0xbece5831	-0.4030166
25	0xbe47865c	-0.19484848
26	0xbe77eeca	-0.24212185
27	0xbe81bbcd	-0.25338593
28	0x3ea9fb7a	0.33199674
29	0x3d3987b4	0.045295432
30	0x3ee70d99	0.45127562
31	0x3de9e4b1	0.114205725
32	0xbd082ad5	-0.033243973
33	0xbe32122a	-0.17389742
34	0x3d94aa1a	0.07259007
35	0x3ddbed0b	0.10738572
36	0x3ebe855b	0.37211117
37	0x3e074188	0.13208592
38	0xbeff5005	-0.49865738
39	0x3ec852a0	0.39125538
40	0x3dc40d42	0.09572841
41	0x3e166fde	0.14691111
42	0xbf08b59e	-0.53402126
43	0x3e206ea5	0.15667208
44	0xbeedcc2c	-0.46444833
45	0x3f061fea	0.52392447
46	0xbdfaade4	-0.12240198
47	0xbe838a89	-0.2569163
48	0xbec8f131	-0.39246514
49	0xbe3afb8f	-0.18260024
50	0xbd91ddb5	-0.071223654
51	0x3ccd15ca	0.025034804
52	0x3d87aa2a	0.06624253
53	0xbe474963	-0.19461589
54	0xbdcc6865	-0.09980849
55	0xbde01580	-0.10941601
56	0x3ec3d0c6	0.3824522
57	0xbee1beb9	-0.44090822
58	0x3e859ef1	0.26097825
59	0x3ee7d795	0.45281664
60	0xbd1230a7	-0.03569093
61	0x3ec6c1c4	0.38819706
62	0x3d381e3e	0.044950716
63	0x3e66c219	0.2253498
64	0x3dd4c330	0.103887916
65	0x3e02a9a0	0.1276002
66	0xbe2be995	-0.16788323
67	0x3eacdf9e	0.33764356
68	0x3dc6dec5	0.09710459
69	0x3daf3b56	0.08556239
70	0x3efb1266	0.49037474
71	0x3eb22f08	0.34801507
72	0xbdb8477f	-0.08998012
73	0x3eaacaea	0.33357936
74	0xbe38b12e	-0.18036339
75	0x3e9b3eb7	0.30321285
76	0x3d02818c	0.031861827
77	0xbdf5f2be	-0.1200919
78	0x3ee7a1b2	0.4524055
79	0xbe9905c9	-0.29887226
80	0x3d51b26f	0.05119556
81	0x3dc2ab5e	0.09505342
82	0x3e8e6bb5	0.2781655
83	0xbd8a313c	-0.06747672
84	0x3eb364e7	0.3503792
85	0xbcf67078	-0.030082926
86	0xbe45b2c8	-0.19306481
87	0x3cad61e2	0.021164838
88	0xbe93bfdd	-0.28857318
89	0x3d00decf	0.031462487
90	0x3e3d9159	0.18512477
91	0x3dc74398	0.09729689
92	0x3eef5bf9	0.46749857
93	0x3dc2e17d	0.09515665
94	0xbc888392	-0.0166643
95	0xbeb7411b	-0.3579186
96	0x3ec7035f	0.3886976
97	0x3d9e6646	0.07734351
98	0x3f1144eb	0.56745785
99	0xbeaf25aa	-0.34208423
100	0xbdb39132	-0.08767928
101	0xbd8432eb	-0.06455024
102	0x3ebbf32c	0.36708963
103	0xbdeec120	-0.116579294
104	0xbe601583	-0.21883206
105	0x3cd02f1a	0.025413085
106	0x3e7fcb39	0.24979867
107	0xbe0f85b5	-0.14015849
108	0xbe8f883d	-0.2803363
109	0xbe46ae57	-0.19402443
110	0x3eb62cc3	0.35581025
111	0x3d9c2aa3	0.0762532
112	0x3e32749e	0.17427298
113	0xbc9be8ce	-0.019031908
114	0x3e246e87	0.16057788
115	0x3ee84208	0.45362878
116	0x3dedd12b	0.11612161
117	0x3ed294ce	0.41129154
118	0x3de94312	0.11389746
119	0xbd94f0af	-0.07272469
120	0x3f018174	0.50588155
121	0x3e1178b4	0.14206201
122	0xbdee990c	-0.11650285
123	0xbf0707b2	-0.5274612
124	0x3e3ff4b9	0.18745698
125	0x3ef27325	0.47353473
126	0x3d124a72	0.035715528
127	0xbe9c02cf	-0.30470893
128	0xbd538c52	-0.05164749
129	0x3da7f305	0.08200649
130	0xbe930639	-0.28715685
131	0x3eb71505	0.35758224
132	0x3e462d92	0.19353321
133	0x3c7be1e8	0.0153736845
134	0xbe77f7e4	-0.24215657
135	0x3da090b2	0.078400984
136	0xbdac5710	-0.08415043
137	0x3ec032a9	0.3753865
138	0x3de329ee	0.11091982
139	0x3d9f65da	0.077830985
140	0xbe8cfa3b	-0.2753466
141	0x3dba0e09	0.09084708
142	0x3e3de466	0.18544158
143	0x3e936ec6	0.2879545
144	0xbe544f9a	-0.2073349
145	0x3d4a8b2a	0.049449123
146	0x3d888b1f	0.0666716
147	0xbeb53db7	-0.35398647
148	0xbe70c989	-0.2351438
149	0x3eb77301	0.3582993
150	0x3d48bb5c	0.049006805
151	0x3df4d329	0.11954338
152	0xbec75757	-0.38933823
153	0x3e11f450	0.14253354
154	0xbdc52c00	-0.09627533
155	0x3e8eea0c	0.2791294
156	0x3d3f86e7	0.046759512
157	0x3f055486	0.520821
158	0xbdb772ae	-0.0895742
159	0x3dd91ab7	0.106007986
160	0xbe78f294	-0.24311286
161	0xbe8b28c6	-0.27179545
162	0xbe9d84d0	-0.3076539
163	0xbd4043a9	-0.046939526
164	0x3cea856a	0.02862807
165	0x3ed541e5	0.41651836
166	0xbe10a5a2	-0.14125684
167	0xbe862f68	-0.26208043
168	0x3e07b31f	0.13251923
169	0xbe129732	-0.14315489
170	0x3ef8bb96	0.48580617
171	0xbde663b8	-0.112494886
172	0x3ca2c185	0.019867668
173	0xbde326a0	-0.110913515
174	0xbe47a64e	-0.19497034
175	0x3d6d99a4	0.05800785
176	0xbea94144	-0.33057606
177	0x3eb465ee	0.35234016
178	0x3c8db20e	0.017296817
179	0x3ea413eb	0.32046446
180	0x3e7efb30	0.24900508
181	0x3e378665	0.17922361
182	0x3df1c9c3	0.11806061
183	0x3e076341	0.13221456
184	0xbe985d03	-0.29758462
185	0xbe14be4d	-0.14525719
186	0x3d8f8109	0.070070334
187	0xbd96143c	-0.07328078
188	0x3ee76ff4	0.452026
189	0xbd2f2c62	-0.042766936
190	0xbd17a27f	-0.037020203
191	0xbd7e7b2a	-0.062129177
192	0x3d687e57	0.056761112
193	0x3d9fa225	0.077945985
194	0x3e803a9d	0.25044718
195	0xbca20c12	-0.019781146
196	0x3e6ae88e	0.22940275
197	0x3d812e6d	0.06307683
198	0xbc8cbb4c	-0.017179154
199	0x3efce8d4	0.49396384
200	0x3e99f4f1	0.30069688
201	0x3e51a2f0	0.20472312
202	0xbefdbd3a	-0.4955843
203	0xbea4ec1f	-0.32211396
204	0x3d4dc4bc	0.05023645
205	0xbcb01d55	-0.021498362
206	0x3d3fcb40	0.046824694
207	0xbe99970f	-0.2999806
208	0x3e78b6a1	0.24288417
209	0xbe315e6a	-0.17321172
210	0x3def7ef6	0.11694138
211	0x3ed497c5	0.4152204
212	0x3e1f41f8	0.15552509
213	0x3df4aed3	0.119474076
214	0x3ee3f336	0.44521493
215	0xbe8e7b1c	-0.278283
216	0x3d043a0e	0.032281928
217	0xbe305e63	-0.17223506
218	0xbec469d5	-0.38361993
219	0x3e13664a	0.14394489
220	0x3f18e7a8	0.5972848
221	0xbd79afca	-0.06095866
222	0x3e5e31ba	0.21698657
223	0x3eba74ee	0.36417335
224	0x3e99d2e0	0.30043697
225	0xbe2cb346	-0.16865262
226	0xbdfd5819	-0.12370319
227	0xbdf2b5a5	-0.11851052
228	0xbd0de149	-0.034638677
229	0xbec9948c	-0.39371145
230	0x3dd158bd	0.102220036
231	0x3e500625	0.20314844
232	0x3de5bd91	0.112177975
233	0x3e7b8595	0.24562676
234	0xbe3eae2e	-0.18621132
235	0xbe58ec75	-0.21183951
236	0x3e94c513	0.29056606
237	0x3c2d46d5	0.01057597
238	0xbe5e4b3e	-0.2170839
239	0x3e28dc8f	0.16490386
240	0x3e936bc9	0.2879317
241	0x3ef261a0	0.47340107
242	0xbf037fea	-0.51367056
243	0xbe03b2b1	-0.12861134
244	0xbe591896	-0.21200785
245	0xbe2f340c	-0.17109698
246	0xbd100d71	-0.03516907
247	0x3ee99f59	0.45629385
248	0x3ddd0978	0.10792822
249	0x3ed775fc	0.42082202
250	0xbd81f43a	-0.06345411
251	0xbe5bbaad	-0.2145793
252	0x3de799aa	0.11308606
253	0x3ec7d3e1	0.39028838
254	0x3e303c45	0.17210491
255	0xbdc6d1b5	-0.09707967

actor.init_leaf_node_embed.0.add_bias._bias f4 [32, 1]
0	0x3c3e20a5	0.011604463
1	0x3cf17986	0.029476892
2	0x3bbee892	0.0058260644
3	0x3c0207dd	0.007936445
4	0xbdeffea4	-0.11718491
5	0x3c76a892	0.015054839
6	0xbd5c87e4	-0.053840533
7	0xbcd861cd	-0.026413823
8	0x3d9f91a3	0.0779145
9	0x3d0ff311	0.035143916
10	0x3d246167	0.040131953
11	0xbcf45675	-0.029826382
12	0x3ad4d9b4	0.0016239197
13	0xbd203076	-0.039108716
14	0x3e03e3a3	0.12879805
15	0x3a363e2f	0.0006952015
16	0xbd2260b0	-0.03964299
17	0xbd466566	-0.048436545
18	0x3c3b444e	0.011429859
19	0xbb6fc265	-0.0036584374
20	0x3d1419f2	0.036157556
21	0x3d2174a4	0.039417878
22	0x3df66fa8	0.120330155
23	0xbcada19f	-0.021195231
24	0x3c498a76	0.012301078
25	0x3c4bb9aa	0.0124344025
26	0x3dbaece3	0.09127214
27	0xbcacbd76	-0.021086436
28	0xbdcfad1c	-0.1014044
29	0x3b436269	0.0029813296
30	0x3c0e5732	0.008687781
31	0xbe1bde0d	-0.15221424

actor.init_leaf_node_embed.2.module.weight f4 [64, 32]
0	0x3e0d3d3e	0.13792893
1	0x3f078b3e	0.5294684
2	0x3e38a4f2	0.18031672
3	0x3eac87d5	0.33697382
4	0xbe76d89b	-0.24106066
5	0x3ecb7a08	0.3974154
6	0x3e9bb6ee	0.30413002
7	0xbe839ad1	-0.25704053
8	0x383c608a	4.4912602e-05
9	0x3e393d86	0.18089876
10	0x3c89f28d	0.01683929
11	0xbbd7ce5b	-0.006585879
12	0xbeae2113	-0.3400961
13	0xbe0b5c15	-0.13609345
14	0x3e07829d	0.13233419
15	0x3dd843b5	0.10559789
16	0x3e296621	0.16542865
17	0xbe05e2c3	-0.13074784
18	0x3ddc0021	0.10742212
19	0x3ea752aa	0.32680255
20	0x3f22f781	0.6365891
21	0xbef4fddf	-0.47849938
22	0x3f222051	0.6333056
23	0x3eb27df8	0.34861732
24	0x3d1be76e	0.038062505
25	0xbb873146	-0.004125747
26	0xbc4c3e2b	-0.012465994
27	0x3ead0bfd	0.3379821
28	0xbe06fdfd	-0.13182826
29	0x3e2f64dc	0.17128319
30	0x3ddcb05f	0.107758276
31	0xbe9871c2	-0.2977429
32	0xbde5e51b	-0.11225339
33	0xbe88fea4	-0.26756775
34	0xbe4a4840	-0.19754124
35	0xbe1f646b	-0.1556565
36	0xbe8df17e	-0.27723306
37	0x3ea580cd	0.3232483
38	0xbe6c7b7b	-0.23093979
39	0x3e645517	0.22298084
40	0x3ea4c5fa	0.32182294
41	0xbeafbf0e	-0.3432545
42	0x3d8f1da0	0.069880724
43	0xbe0940c7	-0.13403617
44	0x3e91f930	0.28510427
45	0x3d396b4b	0.04526834
46	0x3d7c6ca8	0.06162706
47	0x3d8d9203	0.06912615
48	0x3d01194f	0.031518277
49	0x3e242d53	0.16032915
50	0x3d5d44a5	0.054020543
51	0xbeea6221	-0.4577799
52	0xbee2de52	-0.44310242
53	0x3f17611c	0.5913255
54	0x3e48f01d	0.19622846
55	0x3e8476de	0.25871938
56	0x3dcb40f2	0.09924497
57	0x3e1758ec	0.14780015
58	0x3e08e4c3	0.13368516
59	0xbe4a89d7	-0.19779144
60	0x3da8d9dc	0.082446784
61	0x3db25ba7	0.087088875
62	0x3e794787	0.24343692
63	0xbe272590	-0.16322923
64	0x3bf9fc85	0.0076289796
65	0x3c2bc4f1	0.010483966
66	0x3e69def8	0.22838962
67	0xbec21964	-0.37909997
68	0x3e2b92e1	0.16755249
69	0xbdb7a103	-0.089662574
70	0xbde4e541	-0.11176539
71	0xbdb0b623	-0.0862849
72	0xbeb0719a	-0.3446167
73	0x3ed7f771	0.4218097
74	0x3db78c7c	0.08962342
75	0x3e045550	0.12923169
76	0xbe367636	-0.17818531
77	0x3d29f54a	0.04149369
78	0x3e0b2a20	0.13590288
79	0x3e16644e	0.146867
80	0xbeac5273	-0.33656654
81	0xbe9136f6	-0.28362244
82	0x3e2defc3	0.16985993
83	0x3d6e836d	0.058230806
84	0xbd7d4cc2	-0.06184078
85	0x3e1065ea	0.14101377
86	0x3e0aa431	0.13539197
87	0x3d6b8742	0.05750204
88	0x3eb3df65	0.35131374
89	0xbdd4d02c	-0.10391268
90	0x3e3a2831	0.18179394
91	0x3bc413ba	0.005983797
92	0xbe1fe5ad	-0.15614958
93	0xbd21088a	-0.039314784
94	0xbf0617d5	-0.52380115
95	0xbe50f6a6	-0.20406589
96	0xbe6473ee	-0.22309849
97	0x3e08b867	0.13351594
98	0xbeb002c4	-0.3437711
99	0x3f19fbdb	0.60149926
100	0xbe54853d	-0.20753951
101	0x3d8a4dcb	0.06753119
102	0xbe244b20	-0.16044283
103	0x3e3438a1	0.17599727
104	0xbcf4d8a6	-0.029888462
105	0x3dde4923	0.108537935
106	0x3e681e15	0.22667725
107	0x3e36a53e	0.17836472
108	0x3f1e1ab9	0.61759526
109	0xbe884763	-0.26616964
110	0xbd8430ec	-0.064546436
111	0xbe3f3a54	-0.18674594
112	0xbe170030	-0.14746165
113	0x3e7113aa	0.23542657
114	0xba848463	-0.0010110255
115	0x3d82023c	0.063480824
116	0xbf017970	-0.50575924
117	0xbc61bb8c	-0.013777625
118	0xbdcd8abc	-0.10036227
119	0xbe82cb55	-0.25545755
120	0x3dbf7c90	0.0934993
121	0xbe30c8d2	-0.17264107
122	0x3e8c3614	0.27385008
123	0x3e4c6faf	0.19964479
124	0x3e559c4b	0.20860402
125	0x3bdb8946	0.006699714
126	0xbd9d9b4e	-0.07695638
127	0x3d976269	0.07391817
128	0xbeb60b4a	-0.35555488
129	0xbed0b753	-0.40764865
130	0xbda68e7a	-0.08132644
131	0xbe156308	-0.14588559
132	0x3c182e4e	0.009288384
133	0xbe91f812	-0.28509575
134	0xbe6cea65	-0.2313629
135	0xbe58629e	-0.2113137
136	0xbf1b7a11	-0.60733134
137	0x3ebeadf9	0.37242106
138	0x3b39607f	0.0028286276
139	0x3c42a57d	0.011880276
140	0x3ee98d05	0.45615402
141	0xbc9f3979	-0.019436585
142	0xbe88c0fb	-0.26709732
143	0x3e41e539	0.18935098
144	0x3dbc92db	0.09207698
145	0xbe7a8411	-0.24464442
146	0xbe9a8645	-0.30180565
147	0xbdd8ceef	-0.105863445
148	0x3e26db46	0.16294584
149	0x3e71d42f	0.23616098
150	0x3dcf8eeb	0.10134681
151	0xbdb1cdbb	-0.08681818
152	0xbe5505c6	-0.20802984
153	0x3ddda98a	0.10823353
154	0xbd84126b	-0.064488254
155	0x3d15f421	0.036609773
156	0xbdafadd0	-0.08578074
157	0x3b5928af	0.0033135822
158	0x3e5fd68b	0.21859185
159	0xbe19ef0a	-0.15032592
160	0xbe08c890	-0.13357759
161	0x3e5dc533	0.21657257
162	0xbe26359c	-0.16231388
163	0xbebe7796	-0.37200612
164	0x3dd4db04	0.103933364
165	0x3e587e75	0.2114199
166	0x3d97e7ce	0.0741726
167	0xbe30bafa	-0.17258826
168	0xbea5fbd2	-0.32418686
169	0xbdaee85d	-0.085404135
170	0x3c6332e0	0.01386711
171	0x3d83577a	0.06413169
172	0xbe2d2d27	-0.16911756
173	0xbe73e8d0	-0.2381928
174	0x3ef0b510	0.4701314
175	0xbe721cd5	-0.23643811
176	0x3e7c53f7	0.24641405
177	0x3d27a77b	0.040931206
178	0xbbdeb1ca	-0.0067960965
179	0xbd3f74b4	-0.046742156
180	0x3cadf908	0.021236911
181	0xbd9e6439	-0.0773396
182	0xbe2493ac	-0.16071957
183	0xbeb3a59a	-0.3508728
184	0xbe541ae4	-0.20713383
185	0xbb978d37	-0.0046249884
186	0x3cebe797	0.028796954
187	0x3e59c4cb	0.21266477
188	0xbcecce01	-0.028906824
189	0x3d9cc726	0.07655172
190	0xbe7b3e81	-0.24535562
191	0xbd6a818d	-0.057252456
192	0xbe12e928	-0.14346755
193	0xbee64f9a	-0.44982606
194	0xbed334e9	-0.41251305
195	0x3dc6a760	0.09699893
196	0xbe5b66d8	-0.2142595
197	0xbe5bf6be	-0.21480843
198	0x3cd2c9f6	0.025731068
199	0x3d1291d3	0.0357836
200	0xbb8e4f59	-0.004342955
201	0xbc456b80	-0.012049556
202	0xbca8bedb	-0.02059882
203	0xbe819f53	-0.25316867
204	0x3eaac43c	0.3335284
205	0x3df62180	0.12018108
206	0xbe35f1e1	-0.1776805
207	0xbe548285	-0.20752914
208	0xbe1103e8	-0.14161646
209	0x3f2b0c94	0.6681607
210	0x3de3c387	0.11121278
211	0xbd2131c0	-0.039354086
212	0x3dd7364b	0.105084024
213	0x3e83028e	0.25587887
214	0xbe16b074	-0.14715749
215	0x3e1cf239	0.15326776
216	0x3dabb19f	0.08383488
217	0x3e87fd44	0.26560414
218	0xbe8350c9	-0.25647572
219	0x3cb578ad	0.02215227
220	0x3e0f8cf7	0.14018618
221	0xbd99687f	-0.07490634
222	0xbe8489d7	-0.25886413
223	0x3d74ee07	0.059797313
224	0x3d1dbefc	0.038512215
225	0x3e511cbb	0.20421116
226	0xbeb45ad0	-0.35225534
227	0xbec5cc9f	-0.38632676
228	0xbf0ad51c	-0.5423143
229	0xbea17c54	-0.31540167
230	0x3e37c8b0	0.1794765
231	0xbe593947	-0.21213256
232	0xbd97f331	-0.07419432
233	0x3d608cde	0.05482184
234	0xbc4b5fbd	-0.0124129625
235	0xbebcb0df	-0.36853692
236	0x3e1871e9	0.14887203
237	0xbea56924	-0.32306778
238	0xbed9b055	-0.42517343
239	0x3dd04e40	0.10171175
240	0xbec5eef8	-0.3865888
241	0x3e71d2c5	0.23615558
242	0xbe049b57	-0.12949882
243	0xbe25f147	-0.16205321
244	0x3cb38a03	0.021916395
245	0x3f2f062e	0.68368804
246	0xbd839607	-0.064251
247	0xbe4cf709	-0.20016111
248	0xbda04a0e	-0.07826625
249	0x3d6f4068	0.058411032
250	0xbe4d109c	-0.20025867
251	0xbe84f9aa	-0.2597173
252	0x3e3acecc	0.18242949
253	0xbf06d2b6	-0.5266527
254	0x3ea37762	0.3192702
255	0x3ca0995e	0.019604381

actor.init_leaf_node_embed.2.add_bias._bias f4 [64, 1]
0	0x3e8b42ec	0.27199495
1	0x3e0c3324	0.13691384
2	0x3d2b710e	0.041855864
3	0x3c0289fd	0.007967469
4	0xbe3691d6	-0.1782907
5	0x3c44b97d	0.0120071145
6	0xbe58b4bf	-0.21162699
7	0xbe8e3f4d	-0.2778267
8	0xbe29cb26	-0.16581401
9	0xbe2ff9fc	-0.17185205
10	0x3e8ecaa4	0.27888978
11	0xbe1d06f2	-0.1533468
12	0x3dc4f915	0.09617821
13	0xbdba712e	-0.091036186
14	0xbdca0415	-0.0986406
15	0xbd953e40	-0.07287264
16	0x3e11c9cd	0.14237137
17	0xbe120ef8	-0.14263523
18	0xbea51169	-0.32239845
19	0xbd0f4e01	-0.0349865
20	0x3d19f56d	0.037587572
21	0x3dacc3e8	0.08435804
22	0x3c24a172	0.010048257
23	0x3d35a8a5	0.044350285
24	0x3e7159c1	0.23569395
25	0xbd343242	-0.043993242
26	0xbb6b6fae	-0.003592472
27	0xbdae9c36	-0.085258886
28	0xbe2f9eb1	-0.1715038
29	0x3de8d6ef	0.1136912
30	0xbe1374d3	-0.14400034
31	0xbc94e856	-0.018177193
32	0x3ddf1a51	0.10893691
33	0xbd7f2dae	-0.062299423
34	0xbe1f3d5c	-0.1555075
35	0x3e195c3f	0.14976595
36	0x3e66c25f	0.22535084
37	0xbd3b4fcf	-0.04573041
38	0xbcf44db2	-0.029822204
39	0xbe072cac	-0.13200635
40	0x3d68c165	0.05682506
41	0xbf00cc0d	-0.50311357
42	0x3e41d3f5	0.18928511
43	0x3d71f723	0.05907358
44	0xbe0d9ac4	-0.1382857
45	0xbd2e76a6	-0.04259362
46	0xbe14298a	-0.14468971
47	0xbd215ccf	-0.03939515
48	0xbe6daeb3	-0.23211174
49	0x3d2e104c	0.04249601
50	0xbd5eaed6	-0.054365955
51	0xbd7a1adc	-0.06106077
52	0x3dcdedd4	0.10055128
53	0xbe28b04e	-0.16473505
54	0xbe418009	-0.18896498
55	0x3dccbca0	0.09996915
56	0x3c66291e	0.014047889
57	0xbe690493	-0.22755651
58	0x3e451052	0.19244507
59	0xbe8b3e6b	-0.2719606
60	0x3e09edcd	0.1346962
61	0xbe0a6675	-0.13515647
62	0x3d8f98b2	0.07011546
63	0x3ccc13a6	0.024911713

actor.init_next_embed.0.module.weight f4 [32, 6]
0	0x3df69255	0.12039629
1	0xbe1761b2	-0.14783362
2	0xbe9909d2	-0.29890305
3	0xbed9aacf	-0.4251313
4	0xbe925e24	-0.2858745
5	0x3b944169	0.004524399
6	0xbe676ab4	-0.22599298
7	0xbdc7ff51	-0.097654946
8	0x3e3f5108	0.18683255
9	0xbe7e1145	-0.24811275
10	0x3cd5d208	0.026101127
11	0xbe6feca2	-0.23430112
12	0x3f10ee8e	0.56614006
13	0xbe89160d	-0.26774636
14	0xbe83fc7b	-0.25778565
15	0xbd7a88f1	-0.061165754
16	0xbe1853cd	-0.14875717
17	0x3e69ec8b	0.2284414
18	0xbc046528	-0.008080758
19	0x3d14fbff	0.036373135
20	0xbd079595	-0.033101637
21	0x3ed7358e	0.42033046
22	0xbeeed24c	-0.4664482
23	0xbeb7371d	-0.35784236
24	0x3ddfe3a1	0.10932089
25	0xbed81352	-0.4220224
26	0xbdfe1b94	-0.12407604
27	0xbe8003b9	-0.2500284
28	0xbdb936c0	-0.09043646
29	0xbe1995e4	-0.14998585
30	0xbcd1d003	-0.025611883
31	0xbf13c5cc	-0.5772369
32	0x3e9129bf	0.28352162
33	0xbf390296	-0.7226957
34	0xbdfe6cc2	-0.12423088
35	0x3e189dbf	0.14903925
36	0x3f5ce722	0.8629018
37	0x3dd2c78c	0.10291967
38	0x3d915a90	0.070973516
39	0xbe090619	-0.13381232
40	0xbd154e21	-0.036451463
41	0xbebc2644	-0.36747944
42	0xbdb51a48	-0.088429034
43	0x3dc959c3	0.09831574
44	0x3e1552b6	0.14582333
45	0x3dabc5c6	0.08387332
46	0xbe9d528b	-0.30727038
47	0x3e32be8c	0.174555
48	0xbe30d95b	-0.17270415
49	0xbf172879	-0.5904613
50	0x3e7a5438	0.2444619
51	0x3d0c039d	0.034183133
52	0x3fa7c596	1.3107173
53	0xbf2f5bf2	-0.6849967
54	0x3dcf5f45	0.10125593
55	0xbe95a08d	-0.29224053
56	0xbe3aa602	-0.1822739
57	0x3d4d224b	0.050081532
58	0xbeb3487e	-0.35016245
59	0xbeed7f18	-0.46386027
60	0xbea4677f	-0.3211021
61	0x3e3a7836	0.1820992
62	0x3c841244	0.016121991
63	0x3ec3dfe8	0.38256764
64	0x3e8d4ae4	0.275962
65	0xbed8d97e	-0.42353433
66	0xbdc50385	-0.09619812
67	0xbcef7ca3	-0.029234236
68	0xbcb12c8f	-0.021627693
69	0x3d1fb8c1	0.038994554
70	0x3d9648f9	0.07338137
71	0x3ddfa2dc	0.10919735
72	0xbeb59cf7	-0.35471317
73	0xbd067e91	-0.032835547
74	0x3e155063	0.14581446
75	0x3cd8281d	0.026386315
76	0xbe683989	-0.22678198
77	0xbea4cbe7	-0.32186815
78	0x3d844942	0.06459285
79	0x3c15a80a	0.009134302
80	0x3dfe4654	0.12415758
81	0x3e860cea	0.26181728
82	0xbed422c0	-0.41432762
83	0xbd906fad	-0.070525505
84	0x3f9feca0	1.2494087
85	0xbe69892d	-0.22806235
86	0xbe8314da	-0.25601846
87	0xbf2122a8	-0.62943506
88	0xbd3925cd	-0.045202065
89	0xbc6b12e7	-0.014347768
90	0xbe6a47cc	-0.22878951
91	0xbd823a10	-0.06358731
92	0xbe986d69	-0.29770973
93	0xbdd43190	-0.10361016
94	0xbcb1dad5	-0.021710793
95	0x3dd111e5	0.10208491
96	0xbe9745f9	-0.29545572
97	0xbd0b78cc	-0.034050748
98	0xbde64977	-0.11244481
99	0xbe1549ef	-0.14578985
100	0xbeb05d22	-0.34446055
101	0x3e054d64	0.13017803
102	0x3f12776e	0.57213485
103	0xbd4ef030	-0.05052203
104	0x3e49bc52	0.19700745
105	0xbe802c54	-0.2503382
106	0xbd601831	-0.05471057
107	0x3bc1d793	0.005915591
108	0xbd8094fc	-0.062784165
109	0x3e93853d	0.2881259
110	0x3e6a1819	0.22860755
111	0xbc0d879a	-0.008638287
112	0xbd93b7a4	-0.07212761
113	0x3e823b48	0.25435853
114	0x3f6b4ca0	0.91913795
115	0x3e79fe65	0.2441345
116	0xbeb7a9eb	-0.35871825
117	0xbe422234	-0.1895836
118	0x3e183a62	0.14866021
119	0x3e099195	0.13434441
120	0x3e8918a0	0.267766
121	0x3cd65550	0.026163727
122	0xbd14e459	-0.03635058
123	0xbe0dcf4a	-0.13848606
124	0xbe8471e7	-0.2586815
125	0x3e2f47fd	0.17117305
126	0xbce4bd38	-0.027922258
127	0xbe5810e2	-0.2110019
128	0xbf37e023	-0.7182638
129	0xbdcdd855	-0.10051028
130	0xbe02399f	-0.12717293
131	0xbce95024	-0.028480597
132	0x3ded23b9	0.11579079
133	0xbe1745a4	-0.1477266
134	0xbdc775a0	-0.09739232
135	0x3e05f7b0	0.13082767
136	0xbeb2ea45	-0.34944358
137	0x3d79b39f	0.060962316
138	0x3f1237cc	0.5711639
139	0xbe88270e	-0.26592296
140	0x3ea96233	0.33082733
141	0xbec01912	-0.37519127
142	0x3ed6e435	0.41970983
143	0x3ec86f3f	0.39147374
144	0x3fa2f359	1.2730514
145	0xbdcbdc5f	-0.09954142
146	0xbe3ad622	-0.18245748
147	0xbec5b7dd	-0.3861684
148	0xbe133a99	-0.14377822
149	0x3e5934d6	0.21211562
150	0x3e2dcbc0	0.16972256
151	0x3e9267b7	0.28594753
152	0xbd83c0a8	-0.06433231
153	0xbe4541b2	-0.19263342
154	0xbe42634a	-0.18983188
155	0xbec8e2b3	-0.39235458
156	0x3a957e5c	0.0011405456
157	0xbea3fe93	-0.32030162
158	0x3e39756c	0.18111199
159	0xbd849770	-0.06474197
160	0xbe6af0a1	-0.22943355
161	0xbcad4134	-0.021149255
162	0xbf02ee00	-0.5114441
163	0xbec3c9a3	-0.38239774
164	0xbe414f82	-0.18877986
165	0xbe45b2da	-0.19306508
166	0x3e024643	0.12722115
167	0xbe284b50	-0.1643498
168	0x3f10b898	0.5653167
169	0x3e529765	0.20565565
170	0xbc9bec0a	-0.01903345
171	0xbf9e9051	-1.2387792
172	0xbd0e5339	-0.034747336
173	0x3e19bc7d	0.15013309
174	0x3ef1694a	0.47150642
175	0x3e6c43ab	0.23072688
176	0xbeaff5ce	-0.34367222
177	0xbf3664f4	-0.7124779
178	0xbc913df8	-0.017729744
179	0x3e144525	0.14479502
180	0xbe46f327	-0.19428693
181	0xbe84b2a4	-0.25917542
182	0x3e9767ec	0.29571474
183	0x3cdd6500	0.0270257
184	0xbd10b5f1	-0.035329763
185	0xbd8e5894	-0.06950489
186	0xbd9e9491	-0.077431805
187	0xbe67e389	-0.22645392
188	0xbef0b39d	-0.47012034
189	0xbd53f421	-0.05174649
190	0xbdbb0bac	-0.091330856
191	0xbd552643	-0.052038442

actor.init_next_embed.0.add_bias._bias f4 [32, 1]
0	0x3e29f55a	0.165975
1	0x3d685ea8	0.056730896
2	0xbd91e731	-0.071241744
3	0xbd4ece49	-0.050489698
4	0x3c77d60e	0.015126718
5	0xbe91e0f4	-0.28491938
6	0x3df21a37	0.11821406
7	0xbd8a8898	-0.067643344
8	0xbe5bc518	-0.21461904
9	0xbd7f0cfe	-0.06226825
10	0xbdc8302a	-0.097748116
11	0x3e87a130	0.26490164
12	0x3d07b306	0.033129714
13	0x3e1cb661	0.15303947
14	0x3ebaddcd	0.36497346
15	0x3e83eb62	0.2576552
16	0x3d57fc15	0.05273064
17	0xbe521527	-0.20515881
18	0xbe8bc93e	-0.27301973
19	0x3ebe48a5	0.37164798
20	0xbd99b952	-0.0750605
21	0x3c96a080	0.01838708
22	0xbe74dca5	-0.23912294
23	0xbd825264	-0.06363371
24	0x3e8138b4	0.25238574
25	0xbdbbcdc5	-0.09170107
26	0xbe1e4091	-0.15454318
27	0x3cd02baf	0.025411455
28	0x3d1c498f	0.03815609
29	0x3e193efc	0.14965433
30	0x3e09d9ff	0.13462065
31	0x3e016b36	0.12638554

actor.init_next_embed.2.module.weight f4 [64, 32]
0	0x39499d85	0.00019227534
1	0xbddba47c	-0.10724732
2	0xbce19860	-0.027538478
3	0x3e377eee	0.17919514
4	0x3e19eb7c	0.15031236
5	0x3da31231	0.07962454
6	0xbe31312d	-0.17303915
7	0xbe6bc300	-0.23023605
8	0xbdd95c9c	-0.10613367
9	0x3ea0d0b5	0.3140923
10	0x3db5288e	0.08845626
11	0xbf13efc9	-0.5778776
12	0x3dc4bd1e	0.09606384
13	0x3ec65f98	0.38744807
14	0x3e3d8652	0.1850827
15	0xbebb23c9	-0.3655074
16	0xbded2a98	-0.1158039
17	0x3d88f2a2	0.066869035
18	0xbc981b62	-0.018567745
19	0xbe83f7ed	-0.2577509
20	0x3d8245a8	0.06360942
21	0xbd6e6e32	-0.05821056
22	0xbef355cd	-0.47526398
23	0xbef8a563	-0.4856368
24	0xbee448af	-0.44586703
25	0x3eb4f27e	0.35341257
26	0xbe30a277	-0.17249475
27	0xbdb919d5	-0.0903813
28	0x3d5ab22b	0.05339257
29	0x3e38cae9	0.18046154
30	0x3e943c88	0.28952432
31	0xbdb5eb39	-0.08882756
32	0x3e5417e4	0.20712239
33	0xbd76e53a	-0.0602772
34	0xbe0b4499	-0.13600387
35	0xbd88bbd7	-0.066764526
36	0xbdbe3c76	-0.09288876
37	0xbe2d69fc	-0.16934961
38	0xbe28679a	-0.16445771
39	0x3aa20428	0.0012360858
40	0x3e914f20	0.2838068
41	0x3d32b69e	0.04363119
42	0x3ef47403	0.4774476
43	0x3ea7a0b3	0.3273979
44	0xbcab8edd	-0.020942146
45	0xbe111330	-0.14167476
46	0xbe70ebe6	-0.23527488
47	0xbc7ff9ae	-0.015623493
48	0x3e3926c4	0.18081194
49	0x3ca7b460	0.020471752
50	0xbd92bf05	-0.0716534
51	0x3f007797	0.5018248
52	0x3e30018e	0.17188093
53	0x3cb967c6	0.02263249
54	0x3d5ae36f	0.053439554
55	0xbe3dd644	-0.18538767
56	0xbe092799	-0.13394012
57	0x3e5e1ac6	0.21689901
58	0xbc345e5b	-0.011008824
59	0xbe9e7368	-0.30947423
60	0xbe03a430	-0.12855601
61	0x3d396acc	0.045267865
62	0xbd555d24	-0.05209078
63	0xbd5e1151	-0.054215733
64	0xbd162f66	-0.036666296
65	0x3cf456a9	0.029826479
66	0x3e4bc793	0.1990035
67	0xbe04805c	-0.1293959
68	0xbbca5874	-0.006175095
69	0x3e43405f	0.19067524
70	0xbf0172c4	-0.50565743
71	0xbeb2d15c	-0.34925354
72	0xbed12364	-0.40847313
73	0xbe10dbb1	-0.14146306
74	0x3ccb157c	0.024790518
75	0x3ee885e9	0.45414665
76	0x3dc6e4ee	0.097116336
77	0xbea1c10a	-0.3159259
78	0xbf48ecd4	-0.7848637
79	0x3e18939f	0.14900063
80	0xbe5b3e6d	-0.21410532
81	0x3d83e1a4	0.06439522
82	0x3e4395ea	0.19100156
83	0x3e676cdf	0.22600125
84	0xbd993b51	-0.07482017
85	0xbda48aea	-0.08034308
86	0xbd78fdb8	-0.06078884
87	0x3ee6fd0e	0.4511494
88	0xbec9f990	-0.39448214
89	0x3dc7a0b3	0.09747448
90	0xbe5cb12b	-0.21551959
91	0xbe226ed8	-0.15862596
92	0xbf0571f5	-0.5212701
93	0xbf37b6c0	-0.7176323
94	0xbe9691dc	-0.29408157
95	0xbe6a5ad3	-0.22886209
96	0xbe7dfbb1	-0.24803044
97	0x3e288e96	0.16460642
98	0x3ebf48aa	0.37360126
99	0xbdbf0b76	-0.09328358
100	0xbe9effab	-0.31054434
101	0x3ccb4ba6	0.024816345
102	0xbec7c7ff	-0.39019772
103	0x3e015812	0.12631252
104	0x3d1dad4a	0.03849534
105	0x3e713474	0.23555166
106	0xbeaf0628	-0.34184384
107	0x3e69d812	0.2283633
108	0x3de0d8d1	0.109788544
109	0x3e1e06f7	0.15432344
110	0xbe5acbcb	-0.21366803
111	0xbe83c149	-0.25733402
112	0xbe19af55	-0.1500829
113	0x3e4f61b4	0.20252115
114	0x3cffcf21	0.031226696
115	0xbe9c69ec	-0.30549562
116	0xbc835a08	-0.016034141
117	0x3d94bcbe	0.07262562
118	0x3e27d0e4	0.16388279
119	0x3f48d5b1	0.7845107
120	0xbea54b3d	-0.32283965
121	0xbedc8689	-0.43071392
122	0xbdbf714b	-0.09347781
123	0xbea75953	-0.32685336
124	0xbe9680e9	-0.29395226
125	0xbe56d46d	-0.20979472
126	0x3db24257	0.087040596
127	0xbe5c20f5	-0.21496947
128	0xbe550893	-0.20804052
129	0xbec32e46	-0.3812124
130	0x3b2b101a	0.0026102127
131	0x3e75a5e8	0.2398907
132	0x3df5be55	0.119991936
133	0xbe274f54	-0.16338855
134	0xbe18e8ea	-0.149326
135	0xbda897b3	-0.08232059
136	0x3e730cfa	0.23735419
137	0xbdfd9a0e	-0.12382899
138	0xbe73be4c	-0.23803061
139	0x3d162abf	0.03666186
140	0xbd1efa8c	-0.03881316
141	0x3df47d72	0.11937989
142	0x3dc72953	0.09724679
143	0x3bf377dc	0.00743006
144	0x3e03a0e2	0.1285434
145	0x3e1b37f0	0.15158057
146	0xbe1bc66f	-0.15212415
147	0xbecbf465	-0.39834896
148	0xbe32ecd9	-0.17473163
149	0x3dc341e3	0.09534051
150	0x3e239bd8	0.15977418
151	0x3d2c24f7	0.04202744
152	0x3e6a2a7c	0.22867769
153	0xbdc4e3e4	-0.09613779
154	0x3ee5b3b4	0.44863665
155	0x3e4ac8a1	0.19803096
156	0xbe631a97	-0.22178112
157	0xbdf4675b	-0.11933776
158	0xbdb1da9e	-0.08684276
159	0x3d78f1ce	0.060777478
160	0x3da52361	0.080633886
161	0xbd142ad5	-0.03617366
162	0x3d301b88	0.042995006
163	0xbdd501bc	-0.104007214
164	0x3eab8885	0.33502594
165	0x3e4b85da	0.19875279
166	0x3c433ca3	0.011916312
167	0x3e11c5d6	0.14235625
168	0x3d2eaf1a	0.04264746
169	0x3e5b408d	0.21411343
170	0x3cd6cc09	0.026220338
171	0x3f33ed3d	0.7028387
172	0x3d4334ed	0.047657896
173	0x3d28dccd	0.041226197
174	0xbe1bd09b	-0.15216295
175	0x3f104d04	0.56367517
176	0xbcf49596	-0.029856484
177	0x3ea4aff4	0.32165492
178	0x3dedb28d	0.116063215
179	0x3f663567	0.89925236
180	0x3d448085	0.04797413
181	0xbd0b9139	-0.034074042
182	0x3e82e909	0.25568417
183	0x3e326fda	0.1742548
184	0x3ee5997b	0.4484366
185	0xbdab791b	-0.083727084
186	0x3d884300	0.06653404
187	0x3eb4073a	0.35161763
188	0xbe550297	-0.20801769
189	0xbe788277	-0.24268518
190	0x3e708b61	0.23490669
191	0xbe1fb871	-0.15597703
192	0x3e14dec5	0.14538105
193	0x3e345ebd	0.17614265
194	0x3c8f9907	0.017529024
195	0x3e3325d7	0.17494904
196	0xbd934927	-0.07191687
197	0x3cfcd31c	0.030862384
198	0xbe5b271b	-0.21401636
199	0xbea6a844	-0.3255025
200	0x3da138b7	0.078721456
201	0x3e653819	0.22384681
202	0x3d9bb19f	0.07602238
203	0x3e36b25b	0.17841475
204	0x3cb8a585	0.022539863
205	0xbd08457b	-0.033269387
206	0xbe237aaa	-0.15964761
207	0xbe0a9899	-0.13534774
208	0xbd0e8097	-0.0347906
209	0x3e2be672	0.16787127
210	0xbe5a251e	-0.21303222
211	0xbd8e5ecc	-0.06951675
212	0x3e4e8c49	0.20170702
213	0xbe8ae3d2	-0.27126938
214	0x3e2d62f1	0.16932274
215	0x3e7a6555	0.24452718
216	0xbe61801b	-0.22021525
217	0x3d92d1cd	0.071689226
218	0x3d232292	0.03982789
219	0xbe6799f3	-0.2261732
220	0xbd368b61	-0.044566516
221	0xbd9d168e	-0.076703176
222	0x3de775b3	0.11301746
223	0xbe9ae903	-0.302559
224	0xbec1c858	-0.37848163
225	0x3d26e275	0.04074331
226	0xbe920a08	-0.28523278
227	0x3cb6ee89	0.02233054
228	0x3e64f309	0.22358336
229	0xbe958841	-0.29205516
230	0xbe739c68	-0.23790133
231	0xbe498d20	-0.19682741
232	0xbd724571	-0.059148256
233	0xbd0cdff9	-0.034393284
234	0x3eb519a5	0.35371128
235	0x3ed6f84d	0.41986313
236	0x3dc339c1	0.095325
237	0x3e2f1bb2	0.17100409
238	0x3ee98319	0.45607832
239	0x3f08909c	0.53345656
240	0x3d62264b	0.0552123
241	0x3eb1ba79	0.3471258
242	0x3e4e3bb1	0.20139958
243	0x3ec5117f	0.3848991
244	0xbeabb3d9	-0.3353565
245	0x3c5fabef	0.013651832
246	0xbe27ab75	-0.16374
247	0x3f397929	0.724505
248	0x3eeefd14	0.46677458
249	0x3cbd819e	0.023133095
250	0x3dc18a22	0.09450175
251	0xbdc83fa9	-0.09777767
252	0x3d729bf0	0.059230745
253	0x3e787cdf	0.24266385
254	0x3d8454f9	0.0646152
255	0x3eb53c59	0.35397604

actor.init_next_embed.2.add_bias._bias f4 [64, 1]
0	0xbf10d23f	-0.5657081
1	0xbecb1c43	-0.3967
2	0xbe84f5ae	-0.2596869
3	0xbeb209a0	-0.34772968
4	0xbd10285c	-0.03519474
5	0x3f896973	1.0735306
6	0xbee7cc87	-0.4527323
7	0x3f350b60	0.7072048
8	0x3f6f2f21	0.9343129
9	0xbf2742be	-0.65336215
10	0xbf2d6de2	-0.6774579
11	0x3d5d30cd	0.05400162
12	0x3f9be734	1.2179933
13	0xbf83abfd	-1.0286862
14	0xbf6f0756	-0.9337057
15	0xbf40bdad	-0.7528942
16	0xbf47bc75	-0.7802194
17	0x3f6c10bb	0.9221303
18	0x3f1f0f40	0.62132645
19	0xbe5e302b	-0.21698062
20	0xbddd06c1	-0.10792304
21	0xbe343c74	-0.17601186
22	0xbfad3f40	-1.3534927
23	0x3f1fde26	0.62448347
24	0xc00fd29e	-2.24723
25	0xbf50ca96	-0.8155912
26	0xbe4e2661	-0.20131828
27	0xbf88be79	-1.0683128
28	0x3f124b44	0.57146096
29	0x3eb210a8	0.34778333
30	0xbf067f4b	-0.52537984
31	0xbf2edc81	-0.6830521
32	0xbddde90c	-0.10835466
33	0x3f5c703c	0.86108756
34	0xbe9165d3	-0.28397998
35	0xbda7819b	-0.08179017
36	0x3fb64827	1.4240769
37	0x3f4a2f22	0.7897817
38	0xbea1327a	-0.31483823
39	0x3f115e95	0.56784946
40	0xbfdd5d46	-1.729409
41	0x3f9764e3	1.1827663
42	0xbecffdb3	-0.40623245
43	0xbfb3aa70	-1.4036388
44	0x3ed9d132	0.42542416
45	0x3fa79a37	1.3093938
46	0x3f8918e3	1.071072
47	0x3f302374	0.688041
48	0xbf13a952	-0.5768024
49	0x3eb980c0	0.3623104
50	0x3f4f73a2	0.81035817
51	0x3ece24fb	0.4026259
52	0x3ebab7a3	0.3646823
53	0xbbfe7def	-0.0077664773
54	0xbe9c6b55	-0.30550638
55	0xbf41505f	-0.7551326
56	0x3cfdc95f	0.03097981
57	0x3f02ab42	0.5104257
58	0xbf02aa63	-0.5104124
59	0x3e948d1d	0.2901391
60	0x3eb8e50b	0.36112246
61	0x3f4e3125	0.8054374
62	0x3cac9e26	0.021071505
63	0x3e8ab76e	0.2709307
