logs/experiment/Discrete_A2C_1-5Box_10x10x10Bin-2022.08.09-15-00-00/PCT-Discrete_A2C_1-5Box_10x10x10Bin-2022.08.09-15-00-00_2022.08.09-18-21-44.pt (torch, 236314 bytes, 24 tensors)

actor.init_internal_node_embed.0.module.weight f4 [32, 6]
00000000: 1ba9 02bf 42d5 cb3c 1c1f 1fbf 1647 353d
00000010: 25ba 49be 4d51 1cbc cb6d adbd 1237 193e
00000020: c81f acbe e0ef 84be 52b5 b5be c814 cabe
00000030: 3198 f6bd 71af 8e3d ae4e 2b3e 6301 813e
00000040: 34cb c63d e76b 28bf e620 ae3e 0ba7 86be
00000050: 1a06 a13e 4b84 0abf e250 62bd 8ba4 1c3f
00000060: 3a4e abbd c1bb c5be 2b5d 313e 44c7 933d
00000070: fcc5 943e 91a3 513f df2a 073c 4d67 1b3d
00000080: a49d 703e 4e71 a5bc a710 38bd cfac 6bbe
00000090: a903 923f e2fd 94be 13de 53bf 4010 a7bf
000000a0: aa76 0e3f c206 363f e623 b4be 9881 b7be
000000b0: cef3 8a3d f9fa 65be f04c 993e 2f10 153f
000000c0: 5edd 1dbe ff55 de3e d726 233f f629 21be
000000d0: 407c 86be 4358 943e aef3 cc3e b7fe 9cbd
000000e0: 5041 0a3f 9100 90bd f899 5fbd 48cc 2cbd
000000f0: 4ffc d3be eb4c 96be bee5 c9be 4a34 f13e
00000100: 0da9 843e 8dcc 73be 94ec f9bd 57ca 223f
00000110: ccde d7be 4e28 163e d18f 22bf 3347 e33e
00000120: c1b4 c53e 2a9e 12bf 706f 7cbe c73d 3a3e
00000130: 27ed 87be 05f5 393e ca46 073e a671 8f3e
00000140: 2de2 8dbd d6ea 82be 3872 9cbd fd96 05be
00000150: 8334 833e 512a 1dbb 2bf1 1d3c 074c 1abe
00000160: 5972 c7bb 89eb 083d 7520 b23e 621e 11be
00000170: f96b a73e 6fd8 77be d09c 2ebe 4f70 653e
00000180: 2457 00bf de8c 0cbf e2f6 b6be d8b2 c2be
00000190: 4e9e 0abe 1b1a 83be ba58 9bb9 691d 1a3e
000001a0: e9d8 aa3e 26fa 95bd 0f76 8dbc e695 6ebc
000001b0: 0542 e8bd 0b0a 2dbf 09c6 22bf ec9b 6ebd
000001c0: 3708 32be 66bf 2abe 87cd 593e deb9 b5bd
000001d0: cede 43bf 7231 66bd 153d 98bd 0ac2 bb3e
000001e0: 19a9 f33b be8e 5ebe b274 37bb bdc6 e4be
000001f0: b56d 2dbf cb64 e23d 9a5a d2bd 343c b7be
00000200: 24dd 23bf 1811 c03d 8e6a 863e f461 1b3f
00000210: 174b bdbe cde6 a33c 7d93 4bbf 4d63 a63e
00000220: 71ae 003f 0804 b83c 5d69 9f3d fb8d f9bc
00000230: c793 e2be 0365 0cbe acde e2be c2ce 0fbf
00000240: 33e7 1d3e 5a37 19be ff74 403f e6d4 97bb
00000250: e486 043e a362 edbd 0c82 813d f88b 6abe
00000260: 6845 0abf 7e42 6a3e dd06 bb3e b2f0 0dbe
00000270: 43f7 093f 9da1 813d 603a 513e 8dfd 723e
00000280: bae2 47be 6df8 7abe e26a ad3e 6033 ab3c
00000290: 15ae 66be dae1 ef3e 321d b43d 0337 06be
000002a0: 0cbf eebd aded 68be cddf 083e afe4 0e3f
000002b0: ca76 003f 1c52 54bf cc55 603e 71f4 4ebe
000002c0: c1cb d4be 1a02 43bd 0f92 2d3d 062b 053c
000002d0: 8f1f b6be 5f54 c5be f784 b43f 1f24 80bd
000002e0: 7334 7bbe 3e83 213d 7ef3 413e c2a5 ec3d
000002f0: 47ae 5fbd 333c cc3d d79f 45be 344c 0dbe
-0.51039284 0.024881963 -0.62156844 0.044257246 -0.19699915 -0.009540868 -0.08468207 0.14962414
-0.33617997 -0.2596426 -0.354899 -0.3946898 -0.12040747 0.069670565 0.16729233 0.2519637
0.09706727 -0.65789646 0.34009475 -0.2629932 0.31449968 -0.54108113 -0.055252917 0.6118857
-0.0836453 -0.38619807 0.17320697 0.07215741 0.290573 0.8189021 0.008249967 0.037940312
0.23497635 -0.02019563 -0.044937756 -0.2301514 1.1407367 -0.29099947 -0.82760733 -1.3051834
0.55649817 0.7110406 -0.35183638 -0.3584106 0.06784783 -0.2245902 0.2994151 0.5822782
-0.15416476 0.43424985 0.6373114 -0.15738663 -0.2626667 0.28973588 0.40029663 -0.076657705
0.5400591 -0.07031358 -0.054590195 -0.042187005 -0.41403434 -0.2935556 -0.39433092 0.47110206
0.25910226 -0.23808499 -0.12203327 0.63589996 -0.42162168 0.14663813 -0.63500696 0.44390258
0.38614467 -0.5727259 -0.24651885 0.18187629 -0.2654812 0.18159874 0.13210598 0.28016394
-0.06927905 -0.2556979 -0.07638973 -0.13045879 0.25626 -0.0023981521 0.009640018 -0.15068065
-0.0060866293 0.03342775 0.34790388 -0.14171746 0.32699564 -0.24203657 -0.17052007 0.22406124
-0.50132966 -0.54902446 -0.35735232 -0.38027072 -0.13536951 -0.25605854 -0.0002963001 0.15050282
0.33368614 -0.07323103 -0.017268209 -0.014562106 -0.11340717 -0.6759345 -0.6358343 -0.058254167
-0.17385946 -0.16674575 0.21269809 -0.08873342 -0.7651185 -0.0561995 -0.074335255 0.36671478
0.0074359295 -0.2173414 -0.002799314 -0.44682875 -0.67745525 0.11054381 -0.10271187 -0.3578812
-0.6400931 0.093782604 0.2625317 0.6069634 -0.36971352 0.020007515 -0.79521924 0.32497635
0.50266176 0.02246286 0.07783768 -0.03046321 -0.4425337 -0.13710408 -0.4431051 -0.5617486
0.15420227 -0.14962521 0.7517852 -0.004633534 0.12942082 -0.11591079 0.063236326 -0.22904956
-0.54012156 0.22876927 0.36528674 -0.13861349 0.53892916 0.063296534 0.20432425 0.23729534
-0.19520083 -0.2450883 0.33870608 0.020898521 -0.22527345 0.46852 0.08794631 -0.13106923
-0.11657533 -0.22746916 0.13366623 0.55817693 0.5018126 -0.8293779 0.21907729 -0.20210434
-0.41561702 -0.047609426 0.04237562 0.008127933 -0.35570952 -0.38540933 1.4103078 -0.062568896
-0.24531727 0.039431803 0.18940541 0.11555053 -0.054609563 0.099724196 -0.19299255 -0.137986

actor.init_internal_node_embed.0.add_bias._bias f4 [32, 1]
00000000: 1b0a 953c c4cf 70be 2cbb bfbb 5336 afbc
00000010: d0d0 153e 9e8d 1c3d 4aef c43b f25b fbbb
00000020: 14cc 343d ddca d73d 35f1 ad3b b060 8c3c
00000030: ad0b 2fbb 0683 bfb9 2e7d 59bc a941 f73c
00000040: 39b1 94be 4bb5 75bd 5d92 d23c d8f1 bb3a
00000050: 0019 84be fa9b 6a3d 256b 503d 2f42 f23d
00000060: df19 0a3d e5a1 3e3b 937f d83b 0451 923d
00000070: 1859 de3c 5a03 43bd 083c 8d3d e6dc 8ebd
0.018193295 -0.23516756 -0.00585117 -0.021388208 0.14630437 0.038220994 0.006009971 -0.007670873
0.044139937 0.1053674 0.005308295 0.017135948 -0.002670984 -0.0003652798 -0.013274474 0.030182676
-0.2904146 -0.059987348 0.025704557 0.0014339043 -0.25800323 0.057277657 0.05088343 0.1182903
0.03371608 0.0029088196 0.006607005 0.07144359 0.027142093 -0.04761062 0.06896216 -0.06975727

actor.init_internal_node_embed.2.module.weight f4 [64, 32]
00000000: a800 d23d aa7e 373e 5eeb bcbd c707 133e
00000010: 74d5 743b 798a db3d fbf7 253e 18fe 103f
00000020: ddcb 8f3e 060f 06be 75ea 4d3f 6c03 ea3d
00000030: f3eb 903d b558 77be 72a2 2ebf 72e0 9e3e
00000040: 4f98 79bc 039f 423e 84d6 aa3c b856 6f3e
00000050: 0bd8 62be f044 413e 6c80 8f3f 04d2 8dbd
00000060: 6894 103f 3c8d 953e 594b 153e dce7 883e
00000070: 136b 533e 2e4b 7ebc 07c3 bbbd ed11 8aba
00000080: 3bc5 aa3e 8305 a83d 8176 00bf 1a9b 0dbf
00000090: 3e74 d2bc 7683 8f3e 880e 8d3d c816 bfbe
000000a0: 7fa0 7fbe 6d08 343e 2aaa f43e 739e 413e
000000b0: f1a0 a03e e3fb 8b3d aa20 17bd 5cf4 923e
000000c0: b09c 6dbd e5e8 843b e6c3 01be 883b 15be
000000d0: e62f 1c3d 181e a53e dfa1 6c3f 7c03 ba3e
000000e0: 3743 19be 4d7f a43d f419 8d3c 79a4 4e3d
000000f0: c4ac 263f 308c 6f3e 5249 083d 80db 30bd
00000100: b47a 94be e2f6 81bc f37a 083f ffd3 0e3f
00000110: d696 0a3f fbd5 dabc 8c2e 8cbe c728 873f
00000120: dca2 37be 70e0 44be 989e e7be 62b2 27bf
00000130: a259 3cbd 9920 5e3e 0b9b ce3e 581a 01bf
00000140: b70a d3bd 5112 d73d 0cff 263c bc82 dfbe
00000150: 5f18 1bbd f88b d63e dc48 02be 2f5f 90be
00000160: d14a b2bc f344 3ebd 7177 203e 797f 333d
00000170: accd 383e b662 2abe 91e6 6c3e 22bf c13d
00000180: d66d 08bd 56b3 5ebe d012 fd3a 29c7 c43e
00000190: 2f42 e23d 2564 8939 2496 a03d 248e d53d
000001a0: c91e 973d 7832 bdbb bdd8 db3d 4bbc 5abc
000001b0: 0245 76be c691 713d 187d aabe 6d7a 313d
000001c0: 753a e53d ed53 90be ba4e 013e 0c50 d43d
000001d0: 8195 83be 26cb 0e3f 83d8 00be d775 823e
000001e0: 57b3 873e d83e 30bb b874 153e eae6 bd3e
000001f0: 9dfb ed3d fb01 93bd d28d c2be ab90 383e
00000200: 18a3 a93e c8c8 e6bd 17aa 44be 6f2f cc3d
00000210: 09ff 16bf a449 9ebd e7b0 bb3e 313a 09bf
00000220: ed99 0dbf 37d1 e23e a53c b73e 3faa ad3e
00000230: 9e50 a5bd 8c0f 5fbe dc5d 753e 3195 e7bd
00000240: 1657 df3b 7b33 b5bd a9df a13c 41f1 ab3b
00000250: e6ea 0ebe 220f c43e 927f 103e 0425 a33c
00000260: 158f 45be b59e 7e3e cc86 a93e 61d4 fd3d
00000270: dfb8 0c3f e855 253d efaf 3c3e 3596 dbbd
00000280: 8fa5 9bbe 0109 dbbd f3aa 8ebc e58d 563c
00000290: 1929 5e3f 430e 7ebe 22b8 53be 9b92 b23e
000002a0: 29c4 023e 7a77 1bbe 8d70 593f 62d8 d6be
000002b0: c8a9 dd3c 9216 33be f5b9 773d 0f90 9a3e
000002c0: cddb 5c3e 516c 583e b1c8 98bd 3043 36bc
000002d0: 8dc0 0dbd 04f5 b23d 41ee de3e 410a 0cbf
000002e0: 57af 1a3e 2ec5 893e 892f 763e c081 ee3e
000002f0: 48b0 cbbc 9518 d7bd 415a 723c 03ce 5d3e
00000300: f77a ac3e 40e7 e03b 73c7 bf3d e647 d1bd
00000310: 5661 d53e 68df 2e3d b7be 84be edfa 0a3e
00000320: 41d4 82bc 6dd8 0dbe 16c2 993e 4401 33be
00000330: 533b a8be af63 33bc 24e3 6e3e 2aaf fcbe
00000340: bd9b f53b 39ac c5be c971 a13d 9641 fcbc
00000350: 5a4f 1bbb 8914 a23d 3c92 be3c 37a6 793e
00000360: 5997 57be 7a5d 893d e579 3fbe 84b2 d33e
00000370: 9d2d a8be 98e7 8a3d fe0f d3be 528f cbbd
00000380: 9586 c4bd f8ed f7bd fc6e debe e100 abbe
00000390: f0ae d3be 410f 05bc 79b8 443e 46e4 f4bd
000003a0: 6420 3b3d 24c9 8a3e 4b34 f03e 9801 e93e
000003b0: e796 36be 7c70 143e 1960 1dbe 6de8 d8bd
000003c0: a185 7ebd 1b1f 83be f348 663e 5883 2b3e
000003d0: d9c1 c03c 7ca2 bcbe 5e9c 2a3f 8294 423d
000003e0: ad92 f8be c9b7 043e 29ac 9ebe 9be5 b8be
000003f0: 583a 2c3f 98d6 473e 01ac b53e 4e79 b2bd
0.102540314 0.17919412 -0.0922458 0.14358436 0.0037358673 0.10719771 0.16207878 0.56637716
0.28085223 -0.13091668 0.8043588 0.11426434 0.07076254 -0.24154933 -0.6821662 0.31030613
-0.015234067 0.1900597 0.020854242 0.23372924 -0.22152726 0.18873954 1.1211066 -0.06924823
0.5647645 0.29209316 0.14579524 0.26739395 0.20646314 -0.015520854 -0.09168058 -0.0010533907
0.333536 0.08204176 -0.5018082 -0.5531479 -0.025690194 0.28029984 0.06887537 -0.37322068
-0.24963568 0.17581339 0.47786075 0.189081 0.3137279 0.06835153 -0.036896385 0.28702056
-0.058010757 0.0040560835 -0.12672386 -0.1457349 0.038131617 0.32249522 0.92434496 0.36330783
-0.14967047 0.08032093 0.01722429 0.050449822 0.6510737 0.23393321 0.03327305 -0.04317808
-0.28999865 -0.015864793 0.53312606 0.5579223 0.5413641 -0.026713362 -0.27379262 1.0559319
-0.1793322 -0.19226241 -0.45238185 -0.65506566 -0.045983918 0.21692123 0.40352663 -0.5043082
-0.10304778 0.105015405 0.010192644 -0.4365443 -0.03786504 0.41903663 -0.12723106 -0.2819762
-0.02176419 -0.046452474 0.15670563 0.04382274 0.18047208 -0.16639218 0.23134829 0.09460284
-0.033307873 -0.21748099 0.0019307975 0.38433197 0.1104778 0.0002620529 0.07841137 0.10427502
0.07378919 -0.0057738386 0.10734699 -0.013350557 -0.24049762 0.05897691 -0.33298564 0.043329645
0.111927904 -0.2818903 0.12627688 0.1036683 -0.257 0.5577873 -0.12582593 0.2548053
0.26504013 -0.0026892927 0.14595306 0.37090236 0.11620257 -0.07178112 -0.37998825 0.18023936
0.33132243 -0.11268765 -0.19205509 0.09969985 -0.589829 -0.077288896 0.36658403 -0.5360442
-0.55313 0.44300243 0.35788456 0.3391895 -0.08072017 -0.21783274 0.23961586 -0.11307753
0.0068158014 -0.0884771 0.01975997 0.0052472656 -0.13956794 0.38292795 0.14111164 0.019915111
-0.19292863 0.2486523 0.33110654 0.12394024 0.5496959 0.04036513 0.18426488 -0.10722009
-0.3039975 -0.10695077 -0.0174155 0.013095354 0.8678146 -0.24810128 -0.2067571 0.34877476
0.12770142 -0.15182295 0.84937364 -0.41961962 0.027058497 -0.17489079 0.060480077 0.30188033
0.21568222 0.2113507 -0.07460154 -0.011124417 -0.03460746 0.08738139 0.43541148 -0.54703146
0.1510595 0.2690825 0.2404157 0.46583366 -0.02486433 -0.105027355 0.014792026 0.21660618
0.33687565 0.0068635046 0.09364214 -0.10218792 0.41675824 0.042693526 -0.25926754 0.13572283
-0.015970351 -0.13852091 0.30030888 -0.17480952 -0.3285776 -0.010949059 0.23328835 -0.4935239
0.007495372 -0.38607958 0.07883031 -0.030792993 -0.002369842 0.07914073 0.02326309 0.24379812
-0.21053828 0.06707282 -0.18698843 0.41347134 -0.328473 0.06782454 -0.4122314 -0.099394456
-0.09595982 -0.12105936 -0.4344405 -0.33399108 -0.41344404 -0.008121313 0.19210996 -0.11957602
0.045685187 0.27106583 0.46914896 0.45509028 -0.17831002 0.14496034 -0.1536869 -0.10591207
-0.062139157 -0.2560967 0.22488765 0.16749322 0.023529934 -0.36842716 0.6664485 0.04750491
-0.48549405 0.12960733 -0.30990723 -0.36112675 0.67276525 0.19515455 0.3548279 -0.08714543

actor.init_internal_node_embed.2.add_bias._bias f4 [64, 1]
00000000: 5501 403e 2b65 923e dd26 43bd 291f af3d
00000010: 4001 113e bf57 9b3e 332e 0d3d 8d3e f23d
00000020: 3465 90bd ee6a d2bd c573 ac3b b764 e93c
00000030: be37 8ebd 81e8 c43d 712b 0f3e 89b4 153e
00000040: a56a feba 8e47 54be 7f71 803c f56a c23d
00000050: 0a23 a2bb 52d8 4f3d ccfe 4fbd 1109 b4bd
00000060: 8af6 1d3e 3d2e 08bd e436 0fbd 76a2 5c3d
00000070: aeda cdbd 181b 90bc 9672 f03b 19a3 90bc
00000080: bf55 973d fecb 0f3d d7d2 873e e55a b2bd
00000090: 6638 e23c ca70 1bbe 896f b4bc 8e28 583e
000000a0: 6c4f 41bd 3284 78be 192f 1e3e 3618 0dbc
000000b0: bcb0 fcbd 0562 5ebd 4a4b a0be a781 94be
000000c0: 3c32 8b3e bb46 a53c e131 b53d 023e 423d
000000d0: b213 27bb f102 f6bb 287f 2dbd 722e 5c3e
000000e0: d5b8 5f3e 6ff9 9cbd e7f7 963c f525 7f3d
000000f0: 98ab 873d eda0 fd3d 9330 16bd b69a 013d
0.18750508 0.2859281 -0.047644485 0.08550865 0.14160633 0.30340382 0.034467887 0.11828337
-0.07050553 -0.102743015 0.0052628242 0.028490407 -0.06944226 0.09614659 0.13981415 0.1461965
-0.0019410445 -0.20730421 0.01567912 0.09493057 -0.0049480246 0.05074341 -0.050780103 -0.08790792
0.15426078 -0.03324722 -0.034964457 0.053865872 -0.100514755 -0.017591044 0.0073378785 -0.017655896
0.07389402 0.03510665 0.26528046 -0.08708743 0.027614783 -0.15179744 -0.02202584 0.2110922
-0.047194883 -0.24269179 0.15447654 -0.008611729 -0.12338397 -0.054292697 -0.3130744 -0.29005167
0.27186763 0.020175328 0.08847404 0.047422417 -0.0025493917 -0.007507675 -0.042357594 0.21502092
0.21847852 -0.07664763 0.018428756 0.062292058 0.06624526 0.1238421 -0.036667418 0.031641684

actor.init_leaf_node_embed.0.module.weight f4 [32, 8]
00000000: 6d8c a0bd 440e b0be 8343 c9be 0807 90bd
00000010: f920 2c3e 269f bd3e aeba fd3e 6107 8a3e
00000020: da24 c1be 2590 29bf d8d3 9abd a5d6 acbe
00000030: 261e 82be 37e7 ae3e e4d3 b4bc e5bd ba3e
00000040: 2048 463e 59b5 bebe 371b 09be 0ee5 d43e
00000050: 0200 3c3b b9f6 a1be 082d 68bd 791e 8abd
00000060: 68a0 cebe 8abe 4dbe 2f30 79be 5a72 81be
00000070: cddc ac3e 59e3 353d 990d e73e b1e4 e93d
00000080: e6b5 3dbd 16f5 39be bd93 983d 0c09 ec3d
00000090: 78cb bf3e c1d8 063e 0550 ffbe a052 c83e
000000a0: fc73 bb3d 9cd9 153e 02a9 08bf 216e 253e
000000b0: 1a05 efbe 74ec 053f e4ad fabd 898a 83be
000000c0: a2bc b3be 9edc 36be 5ddf 58bd c974 5a3d
000000d0: 7d7c c03d 9481 3fbe 6568 ccbd 8015 e0bd
000000e0: 48b9 c03e 9876 e2be 7ab1 813e c430 e83e
000000f0: cad3 04bd f226 c83e 3e1e 383d 19c2 663e
00000100: a909 d53d a5b9 013e 79c6 2dbe 472f ad3e
00000110: d2a3 ca3d 6b24 af3d 6612 fb3e 082f b23e
00000120: 086e b0bd 8128 ad3e 9b41 36be f155 983e
00000130: 8108 db3c a035 f0bd b2a1 e73e c905 99be
00000140: a883 6f3d 8c77 d53d e600 913e 5b75 99bd
00000150: fb59 ad3e b8af dabc c8b2 45be e261 ad3c
00000160: 90db 8bbe b1bb 023d 5c38 3a3e 6d8f ac3d
00000170: 7472 ef3e 368c ca3d 9283 88bc 1b41 b7be
00000180: ab07 c73e 6a78 8f3d 3c7d 113f 38db aebe
00000190: a8f8 a4bd 9308 89bd 2cf3 bb3e 20c1 eebd
000001a0: 0cd7 70be 6503 ae3c 16f7 953e 5d45 20be
000001b0: 696b 84be 63b6 67be c32c b63e a32a 9c3d
000001c0: 2334 323e 1bae cebc 9d68 223e 336e e83e
000001d0: 6c52 f83d e893 d23e 1243 e93d aff0 94bd
000001e0: 72ba 003f e670 053e f52a f1bd a8da 05bf
000001f0: 7793 4a3e 97ed f03e 724a 123d cf02 9cbe
00000200: 2944 70bd 4da8 bb3d c12d 93be 1692 b83e
00000210: 4181 3a3e b50d a43c e4f7 77be b290 a03d
00000220: 0bad b3bd e8ef be3e a50e e03d 9fdc a33d
00000230: 77b1 8bbe dc20 b93d 66e4 3d3e c66e 933e
00000240: 5bc3 4cbe 622c 593d 4084 8b3d ad19 b8be
00000250: 3d49 76be 15f4 b83e 5cbb 483d 29d3 f43d
00000260: c57c c3be fc26 013e 8e5c cdbd 3cf3 8b3e
00000270: f8dd 7e3d 96f2 043f ae72 b7bd b71a d93d
00000280: d1a0 7bbe 4f4b 8cbe d970 9bbe b2bf 38bd
00000290: 1465 d43c ca33 d53e a2a5 10be 682f 86be
000002a0: b4cb 083e 1fe0 11be bf8e f73e 608c e4bd
000002b0: 65b1 a43c b7b7 e2bd 4ea6 47be a499 6d3d
000002c0: 32ed a0be 76a7 b43e 4213 933c dfba 9c3e
000002d0: 7e9f 7c3e b872 3b3e c3c9 f13d 4163 073e
000002e0: 71db 94be f539 15be 12a3 943d 79ec 9ebd
000002f0: 2052 e83e e3d8 33bd 7fa2 17bd 2a7b 7ebd
00000300: b0b9 6c3d 16b8 a73d a77b 833e b28b b5bc
00000310: fe5c 633e 89f3 833d 4cbb 8cbc d4e8 fc3e
00000320: 2a98 9a3e c1bc 573e 63d3 fbbe e78b a5be
00000330: 38fb 323d b8a1 abbc 40cb 3f3d 0f97 99be
00000340: d00e 783e 4c94 30be cb9e ee3d 8004 d53e
00000350: 0893 1e3e 4628 f33d 36f3 e33e 1c7b 8ebe
00000360: eb50 293d c539 32be 863c c3be 7fcc 0c3e
00000370: 77d5 193f 6f1f 80bd ba31 5e3e ee74 ba3e
00000380: 06ce a23e 0f44 efbd 66da 00be 4520 b9bd
00000390: fe59 8c3c 425f c7be bd58 d13d 2506 503e
000003a0: 093e e13d 93a0 783e e2e8 3ebe 60d9 56be
000003b0: a449 963e 2885 153c 3e4b 5ebe 8fdc 283e
000003c0: 732d 993e 0c16 f63e ed6e 00bf c786 13be
000003d0: ad63 66be 9700 2abe 710d 10bd 599f e93e
000003e0: e3b6 e63d 7d85 d53e 9b0d 80bd 34e9 60be
000003f0: 1362 ee3d b737 c83e 453c 303e b5d1 c6bd
-0.07839284 -0.34385884 -0.3930932 -0.07032591 0.16809453 0.37035483 0.49556488 0.26958755
-0.37723428 -0.6623557 -0.07559937 -0.3375751 -0.25413626 0.34160778 -0.022073694 0.36473003
0.19363451 -0.37247732 -0.13389288 0.41581005 0.0028686528 -0.31633547 -0.05668357 -0.067440934
-0.40356755 -0.20092216 -0.24334787 -0.25282556 0.33762208 0.04440627 0.45127562 0.114205725
-0.04631605 -0.18159899 0.07450054 0.11525163 0.37459922 0.13168623 -0.49865738 0.39125538
0.09152982 0.14633793 -0.53382885 0.16155292 -0.4668358 0.52313924 -0.12240198 -0.2569163
-0.35104853 -0.17857596 -0.05294739 0.05333403 0.09398744 -0.18701774 -0.09980849 -0.10941601
0.37641358 -0.44231105 0.25330716 0.45349705 -0.03242854 0.39092213 0.044950716 0.2253498
0.10402233 0.12668474 -0.16970243 0.33825132 0.098945275 0.08551868 0.49037474 0.34801507
-0.08614737 0.33819965 -0.17798464 0.29753068 0.026737453 -0.11728978 0.4524055 -0.29887226
0.058475167 0.104231924 0.28320998 -0.07493087 0.33857712 -0.026695117 -0.19306481 0.021164838
-0.2731595 0.031917278 0.18185562 0.08425794 0.46767008 0.09890024 -0.0166643 -0.3579186
0.38873038 0.07005389 0.5683172 -0.34151626 -0.0805524 -0.066910885 0.36708963 -0.116579294
-0.23519534 0.021241853 0.29290074 -0.1565146 -0.25863197 -0.22628169 0.35581025 0.0762532
0.17402701 -0.025229504 0.1586022 0.45396575 0.12125096 0.4112847 0.11389746 -0.07272469
0.5028449 0.13031349 -0.117757715 -0.5228677 0.19782816 0.47056267 0.035715528 -0.30470893
-0.058658753 0.0916296 -0.28745845 0.36048955 0.18213369 0.020026067 -0.24215657 0.078400984
-0.0877324 0.3729241 0.10940293 0.080010645 -0.27283832 0.090394706 0.18544158 0.2879545
-0.19996397 0.053020842 0.06812334 -0.3595709 -0.24051376 0.3612372 0.049006805 0.11954338
-0.3818113 0.12612528 -0.10027419 0.2733401 0.062223405 0.51932657 -0.0895742 0.106007986
-0.24573065 -0.27401206 -0.30359533 -0.04510469 0.025927104 0.41641074 -0.14125684 -0.26208043
0.13358957 -0.14245652 0.48351094 -0.11159587 0.02010412 -0.11070197 -0.19497034 0.05800785
-0.31430966 0.35284013 0.017953519 0.3061132 0.24670216 0.1830548 0.11806061 0.13221456
-0.2907367 -0.1457289 0.07257666 -0.07759947 0.45375156 -0.04390801 -0.037020203 -0.062129177
0.057794273 0.081894085 0.25680277 -0.022161338 0.22203442 0.06442935 -0.017179154 0.49396384
0.30194217 0.21068098 -0.49184713 -0.323333 0.043696612 -0.020951137 0.046824694 -0.2999806
0.242244 -0.17244071 0.11651381 0.41604996 0.15485775 0.11872916 0.44521493 -0.278283
0.041336935 -0.1740485 -0.38132113 0.13749884 0.60091347 -0.062559955 0.21698657 0.36417335
0.31797808 -0.11682903 -0.12583312 -0.09039358 0.017132755 -0.38939863 0.102220036 0.20314844
0.109981604 0.24280004 -0.18643525 -0.2098136 0.29353058 0.009125985 -0.2170839 0.16490386
0.29917488 0.48063695 -0.5016926 -0.14406882 -0.22498961 -0.16601788 -0.03516907 0.45629385
0.112653516 0.41703406 -0.06252595 -0.2196396 0.116398 0.39105007 0.17210491 -0.09707967

actor.init_leaf_node_embed.0.add_bias._bias f4 [32, 1]
00000000: 5a27 403c a3cc df3c 37de db3b 9816 053c
00000010: f12e efbd 856a 6e3c 5b77 a4bc 3531 d6bc
00000020: 5e37 a03d 5e44 103d 114d 213d fec0 f6bc
00000030: d6f9 e73a b443 5dbd ae37 043e 7e6c a53a
00000040: 4a3c 20bd a271 46bd cf9c 3e3c 62e1 76bb
00000050: 4a97 123d 5fdc 223d 474d f53d 9dfc adbc
00000060: e8ed 433c 421e 463c a5b9 b93d 6977 afbc
00000070: 5f47 85bd d3a4 3c3b 2329 fa3b df95 1bbe
0.011728132 0.027319258 0.0067098397 0.008123063 -0.11678875 0.014551763 -0.020076444 -0.02614651
0.078230605 0.03522145 0.039380137 -0.030121323 0.0017698358 -0.054019645 0.12911865 0.0012620834
-0.039119996 -0.048448212 0.011634066 -0.003767096 0.03578881 0.039760944 0.1197763 -0.02123862
0.011958577 0.012092175 0.09068612 -0.021419244 -0.065077536 0.0028784766 0.0076342984 -0.1519389

actor.init_leaf_node_embed.2.module.weight f4 [64, 32]
00000000: efd7 3c3e 8747 de3e 1fae 443e 1e3d 4f3e
00000010: 3c50 83be 2e14 b93e fb9e 9b3e afac 81be
00000020: b421 893c 8923 143e fcd0 87bb 1211 b2bc
00000030: 290c c4be e3cf 0bbe ec79 123e d9ed b63d
00000040: 18d7 2f3e 9657 0abe 02f6 2e3e 1d5f ab3e
00000050: 95dd 1c3f a590 e2be 8777 223f 8593 bc3e
00000060: b99f c63c ac0f 2c3d 79b1 27bc e1ad bc3e
00000070: 0ae1 05be 752f 283e ec02 bd3d 8b67 97be
00000080: 7222 1cbe ad1d 58be 7ed1 e0bd f25b 21be
00000090: 4d51 82be b888 af3e 7dba 6dbe 1278 6d3e
000000a0: 2faf a53e d421 99be 3f50 d73d 3d94 9ebd
000000b0: fc5d 8e3e c70a 1f3d fa3b 0c3d 0d94 043d
000000c0: 330d f73d eb86 2d3e 1f59 b03d 3aa7 fabe
000000d0: 3e3e cebe 48ef 103f 6885 393e 7adf 773e
000000e0: 9ba7 f73d c8cb 383e 07b3 043e 0d81 f7bd
000000f0: 5d0b b83d ae69 853b a584 9e3e 9a4f 38be
00000100: 45db 7fbd ea4a 1a3d 8b7b 2b3e df40 cabe
00000110: 256d a83d 9098 f1bd 23f6 e8bd 1c48 14bd
00000120: b738 b5be 8a0a ca3e 81ea cd3d 9d27 a53d
00000130: cf0e 6ebe bd2a 273d 4869 243e 04fa 243e
00000140: d8e6 cabe 0785 43be 9029 d53d 5624 273d
00000150: 95b4 9f3b 59bf bb3d 9650 f63d 04cb f53d
00000160: f5eb c23e a4c4 54bc 3d8b 273e ebe5 a33c
00000170: 1d73 1ebe 8e44 9cbc 9f81 d8be 6024 1dbe
00000180: dc58 78be f9a2 d33d cc4c cabe 22c6 033f
00000190: 5811 8cbe f84e 093e 99ed 24be 16b0 2e3e
000001a0: 24fa a6bc 1169 003e 7119 523e f3c8 da3d
000001b0: 9679 263f a70f 87be c402 65bd fab0 04be
000001c0: b593 1bbe 3d73 9c3e e2c5 a6ba 34a2 263d
000001d0: 44ba e4be c6bb a9bc 8dea eebd 55e6 2abe
000001e0: b83b a03d 89a4 e4bd 9809 8c3e 1773 843e
000001f0: 488a 503e 53a4 27bd 6241 5cbd e8fa e63d
00000200: 5b44 96be 6ed1 c1be 66c5 48be d837 0fbe
00000210: bd7a 0a3d 112e 99be 494b 6bbe b060 52be
00000220: 6249 21bf f80b 9c3e 0531 333d b11b 06ba
00000230: 9662 e03e 5a08 83bc 82ef 74be cffb 203e
00000240: c035 9c3d c267 20be b01d a6be 807a 27be
00000250: e961 f83d 1f2b 393e 6f7f d63d 2f2a 76bd
00000260: dd7f 32be f546 a53d cd62 22bd cf3f 33bc
00000270: 6fce b3bd 859a fa3c df01 3f3e e487 23be
00000280: ddfe 14be 21f1 703e ff4f 1abe 2a06 b6be
00000290: 2d64 0a3e 926c 4a3e 9fc2 9d3d 030e 35be
000002a0: becd a3be a573 c9bd 04ac 8e3a b679 843d
000002b0: 752d 18be 8cfe 69be 332a e43e 7524 84be
000002c0: 45b7 743e 578f ed3c 869f d63c ef89 07bd
000002d0: e04c 9b3c f2f9 9abd dec9 18be d94a 97be
000002e0: e93a 4ebe 5133 423d 87e8 1c3d 848a 913e
000002f0: 06ec 23bd 46fa b03c b3d2 48be f5d6 3fbd
00000300: 71db 41be a580 dabe 70a9 babe bad7 493d
00000310: 3725 62be d428 31be 8933 bd3c 6554 1f3d
00000320: 20c8 7b3b d50d 5cbd 58e5 8f3c b71d 5fbe
00000330: 572d 9f3e 8bf1 ed3d edc8 4fbe f365 44be
00000340: 4e81 36be 2b9d 103f e17b a63d fe02 2bbd
00000350: 59d9 f13d a20d 863e 65ec 1bbe 61d3 d73d
00000360: c1d9 e73d 582a 973e 47d4 80be 875c 2bbb
00000370: 8bea 113e 5f80 26bd 56ea 56be 700c a43d
00000380: ea0f 6b3d 27b0 943e 678a 95be 9461 8abe
00000390: 95b2 01bf 0ba2 82be 4664 363e 9519 71be
000003a0: 5b06 7ebd 07e8 8a3c b989 8cbb 815e acbe
000003b0: e4d9 603e c934 a8be 055e e8be b792 093d
000003c0: da2e 64be 91e0 463e 1b9d 95bd 9aa7 22be
000003d0: 1972 2abd 0cbf 2f3f 2275 6abd 548c 84be
000003e0: a001 a7bd dd3d 863c 8369 41be 1b45 92be
000003f0: 7058 403e cd3a d6be 331b 9a3e e047 d4bc
0.18441747 0.43413946 0.19207047 0.20238158 -0.2564715 0.36148208 0.3039473 -0.2532706
0.016739704 0.1446668 -0.004144786 -0.021736655 -0.38290527 -0.13653521 0.14304322 0.089320846
0.17171896 -0.13509974 0.17086032 0.33471003 0.6127561 -0.4425098 0.63463634 0.36831298
0.024246084 0.042007133 -0.010235184 0.3685141 -0.13074127 0.16424353 0.09229073 -0.29571185
-0.15247515 -0.2110507 -0.109774575 -0.1575773 -0.25452653 0.34283996 -0.23215671 0.23190334
0.32360217 -0.2990862 0.105133526 -0.07743118 0.2780608 0.038828637 0.034236886 0.032367755
0.120630644 0.16945998 0.086107485 -0.4895571 -0.40281862 0.56615114 0.18117297 0.24206343
0.12092515 0.18046486 0.12958919 -0.12085161 0.089865424 0.004071436 0.30960575 -0.17999116
-0.06246497 0.0376691 0.16746347 -0.39502618 0.08223943 -0.11796677 -0.11375072 -0.03620158
-0.35394832 0.39461166 0.10054494 0.08064196 -0.23247837 0.040812243 0.16055787 0.16110998
-0.39629245 -0.19093715 0.10408318 0.040806137 0.004873822 0.09167356 0.12027089 0.12001613
0.38070646 -0.012986336 0.16361709 0.020007094 -0.154736 -0.019075658 -0.42286393 -0.15345907
-0.24252647 0.10333819 -0.39511716 0.514742 -0.27356982 0.1340903 -0.16106261 0.17059359
-0.020382948 0.1254008 0.20517518 0.10682859 0.65029275 -0.2637913 -0.05591084 -0.12958136
-0.15193065 0.3055667 -0.0012723769 0.040682033 -0.4467336 -0.02071942 -0.11665831 -0.16689427
0.078238904 -0.11164195 0.2735107 0.25869057 0.2036525 -0.040928196 -0.05377329 0.11278325
-0.29349026 -0.37855095 -0.19606552 -0.13986146 0.03380846 -0.29917958 -0.22977938 -0.20544696
-0.630026 0.3047788 0.04374792 -0.00051158207 0.43825215 -0.015995193 -0.2391949 0.15721057
0.076274395 -0.1566458 -0.32444525 -0.16355324 0.1212805 0.18082856 0.10473525 -0.060098823
-0.17431588 0.080701746 -0.039645005 -0.010940506 -0.087796085 0.030591259 0.18653058 -0.15969807
-0.14550348 0.23529483 -0.15069579 -0.35551578 0.13514777 0.19767979 0.07703137 -0.17681126
-0.31992906 -0.098365106 0.0010885005 0.06468527 -0.1486109 -0.22851008 0.44563445 -0.25809065
0.23898037 0.028999014 0.026199114 -0.033090528 0.018957555 -0.075672045 -0.14920756 -0.29549292
-0.2013966 0.04741222 0.038307693 0.28425992 -0.04002001 0.021603715 -0.19611625 -0.04683586
-0.18931367 -0.42676273 -0.36457396 0.049278 -0.22084509 -0.17300731 0.023095863 0.038898844
0.0038418844 -0.05372413 0.017565414 -0.21788679 0.3108928 0.11618336 -0.20291491 -0.19179516
-0.17822763 0.5648982 0.08129097 -0.0417509 0.11809034 0.26182276 -0.15226896 0.10538364
0.1132083 0.29524493 -0.25161955 -0.002614768 0.14249627 -0.040649768 -0.2098783 0.08010185
0.057388224 0.29040644 -0.29207155 -0.2702757 -0.5066312 -0.25514254 0.17811689 -0.23544915
-0.06201778 0.016956342 -0.0042888788 -0.3366585 0.21958119 -0.32852772 -0.4538423 0.033587184
-0.22283497 0.19421603 -0.07305356 -0.15884247 -0.04161272 0.6865089 -0.057240613 -0.25888312
-0.08154607 0.01638692 -0.18887906 -0.28568348 0.18783736 -0.41841736 0.30098876 -0.025913179

actor.init_leaf_node_embed.2.add_bias._bias f4 [64, 1]
00000000: f410 8a3e 8ffd 113e ca71 243d 5219 393c
00000010: 8c11 3bbe 778b 753c 5280 55be de88 8cbe
00000020: 3e13 32be 57bf 2abe 05e5 8c3e f9f9 1abe
00000030: 0d69 c83d 4eab b7bd 0a7d d2bd 4b2e 9dbd
00000040: 7747 103e 62ac 11be 311f a3be aca8 07bd
00000050: 7152 1b3d c2db ac3d 0bfb 303c 3a66 3a3d
00000060: 479f 713e 2dba 49bd 0437 cbbb 927d a8bd
00000070: e8da 2dbe 3734 e93d 8fa3 13be 0389 c1bc
00000080: 52b6 e03d 6d47 75bd f77b 1fbe 5240 1a3e
00000090: e3cb 673e c140 27bd f72c 13bd 623d 04be
000000a0: 469d 763d db92 fdbe e99c 3e3e efe9 6f3d
000000b0: 3b2a 12be 278a 32bd a0d1 10be 12ce 2dbd
000000c0: 9307 6dbe 9de1 363d 125a 6ebd beb2 7dbd
000000d0: 53a1 d33d 951d 27be 4013 3fbe f128 d93d
000000e0: ee45 813c 8fa8 6ebe e4ee 443e 5d74 8bbe
000000f0: 129b 073e 5946 06be cd7d 923d 04d4 a73c
0.2696606 0.14256881 0.04014758 0.011297541 -0.18268412 0.014986864 -0.20849732 -0.2744817
-0.17390153 -0.16674553 0.27518478 -0.1513442 0.09785662 -0.08968221 -0.102777556 -0.07674845
0.14089762 -0.14225915 -0.31859735 -0.033119842 0.03792042 0.08440353 0.010802041 0.045507647
0.23595916 -0.049249817 -0.0062016267 -0.08227076 -0.16978037 0.11386912 -0.14417861 -0.023624903
0.10972275 -0.05988257 -0.15574633 0.15063599 0.2263637 -0.04083324 -0.035931554 -0.1291404
0.06020858 -0.49526104 0.18614544 0.058572706 -0.14273922 -0.043588784 -0.14142466 -0.042432852
-0.2314742 0.044648755 -0.058191366 -0.06193804 0.103335045 -0.16319878 -0.18659687 0.10603512
0.015780415 -0.23306488 0.19231755 -0.27237216 0.13242748 -0.13112773 0.07152901 0.02048684

actor.init_next_embed.0.module.weight f4 [32, 6]
00000000: 4093 1a3e b261 17be d209 99be 57f0 e9be
00000010: 3885 7dbe 6544 30bc 21e4 4fbe 51ff c7bd
00000020: 0851 3f3e d75f 6dbe 1720 e03c c1dd 72be
00000030: 82e7 a83e 0d16 89be 7bfc 83be 2617 cfbc
00000040: 4bb2 6cbe f8e6 b43e 4b0c 15bc fffb 143d
00000050: 9595 07bd bff6 d73e af27 ecbe 2bcb b6be
00000060: b2dd e23d 5213 d8be 941b febd c462 80be
00000070: 371e b9bd 15f6 22be 4e7b abbc ccc5 13bf
00000080: bf29 913e ed27 37bf c44d fdbd d803 183e
00000090: 4af6 7d3f 8cc7 d23d 905a 913d 908b 36be
000000a0: f213 fdbc 3ede c3be 47ef b4bd c359 c93d
000000b0: b652 153e 4175 a73d 8415 9ebe 373b 363e
000000c0: 1019 a7be 7928 17bf 3854 7a3e 2b34 5a3d
000000d0: a8f8 b13f 91db 37bf ed58 d53d 8da0 95be
000000e0: 02a6 3abe 7a50 723d c0d8 afbe eb52 e2be
000000f0: dd3c a5be 3678 3a3e 4412 843c efeb c93e
00000100: b347 8d3e c649 debe 6237 303e a37c efbc
00000110: 0a2d b1bc 431a 543e 48b9 d53c 2a7f e03d
00000120: 3bf5 b7be 917e 06bd 6350 153e d5c3 733c
00000130: cd56 70be 7151 aebe 699f ac3d 0aa8 153c
00000140: 5446 fe3d 465a d33d 333c 85be 252d ffbd
00000150: 2214 9f3f 2d89 69be da14 83be 223b fbbe
00000160: 9801 24be bd63 983d 20f7 33be 103a 82bd
00000170: 696d 98be 93f7 2fbe 557d 66bd 04f5 283e
00000180: a775 8ebe cc78 0bbd 7749 e6bd 1793 09be
00000190: f840 d7be 8e53 c03d 87bb 123f 30f0 4ebd
000001a0: 52bc 493e 1a98 81be 58b8 4cbd 37d7 ab3b
000001b0: 9bd4 78bd 3d85 933e 1918 6a3e f99e 95ba
000001c0: c03f 83bd 9804 883e ded8 663f 65fe 793e
000001d0: eba9 b7be 8e9b bebe 6806 453e 5e3d 033e
000001e0: 36f2 873e 5055 d63c 59e4 14bd 7e10 0bbe
000001f0: 98a0 84be 1577 263e 427b e0bc e210 58be
00000200: 23e0 37bf b523 c9bd 0f01 fdbd bd36 04bd
00000210: 8e56 ee3d a445 17be a075 c7bd f41a 083e
00000220: d9f8 b1be 41cd 713d 4e19 363f 0e27 88be
00000230: 3362 a93e ceaa 16bf 7246 df3e 79bd ec3e
00000240: c35f b83f 5fdc cbbd 22d6 3abe 44e5 c9be
00000250: 64b8 01be da31 0a3e 7a40 2e3e b767 923e
00000260: a8c0 83bd 058f 40be 4aa7 3dbe 878c c8be
00000270: 28e7 ba3b 93fe a3be 6c75 393e 604a 72bd
00000280: f418 61be 78c0 79bc 2c37 03bf a3c9 c3be
00000290: 824f 41be c99a 42be 65d5 003e 1f1d 1fbe
000002a0: 05e1 0b3f 6597 523e 0aec 9bbc b9b2 abbf
000002b0: 7210 9a3d 491d 333e de76 ee3e ab43 6c3e
000002c0: cef5 afbe 641a 48bf 3e4b 31bc e227 443e
000002d0: 2e26 08be a4b2 84be ec67 973e 02f6 e73c
000002e0: 3648 6c3b b74e 4abd 201f 053d 89e3 67be
000002f0: 9db3 f0be 940c 03be 3089 5abd a24c 97bc
0.15095234 -0.14783362 -0.29890305 -0.45691177 -0.2475785 -0.010758494 -0.20301868 -0.097654946
0.18683255 -0.23181091 0.027359052 -0.23717405 0.32989126 -0.26774636 -0.25778565 -0.025279593
-0.23114888 0.35332465 -0.009097169 0.036373135 -0.033101637 0.4218044 -0.46124026 -0.3570188
0.11077441 -0.4220224 -0.12407604 -0.25075352 -0.09038966 -0.15914185 -0.02093282 -0.5772369
0.28352162 -0.71545297 -0.12368348 0.14845216 0.9920393 0.10291967 0.070973516 -0.17826676
-0.0308933 -0.38255495 -0.08834701 0.09831574 0.14582333 0.08176661 -0.3087579 0.17796026
-0.3263631 -0.5904613 0.2444619 0.053272408 1.3904009 -0.71819407 0.10417352 -0.29224053
-0.1822739 0.05915878 -0.34345055 -0.44203886 -0.32272997 0.1820992 0.016121991 0.39437816
0.27593765 -0.4341566 0.17208627 -0.029234236 -0.021627922 0.20713143 0.026089326 0.109617546
-0.35929283 -0.032835547 0.14581446 0.014878233 -0.23470612 -0.3404651 0.084288426 0.009134302
0.12415758 0.10319953 -0.2602249 -0.124597825 1.2428019 -0.22806235 -0.25601846 -0.49068552
-0.16016233 0.074408986 -0.1757474 -0.06358731 -0.29770973 -0.17184286 -0.05627187 0.16499716
-0.27824137 -0.034050748 -0.11244481 -0.13435017 -0.42041755 0.09390937 0.57317394 -0.05052203
0.19700745 -0.25311357 -0.04998049 0.0052441615 -0.06074963 0.2881259 0.22860755 -0.0011415175
-0.06408644 0.26566005 0.90174663 0.2441345 -0.35871825 -0.37228054 0.19240725 0.12816378
0.2655198 0.026163727 -0.03635058 -0.1358051 -0.25903773 0.16256364 -0.027402524 -0.2110019
-0.7182638 -0.09821264 -0.123537175 -0.032278765 0.11637603 -0.1477266 -0.09739232 0.13291532
-0.34760168 0.059033636 0.7113236 -0.26592296 0.33082733 -0.5885438 0.43608433 0.46238306
1.4404224 -0.09954142 -0.18245748 -0.39432728 -0.12667996 0.1349558 0.17016783 0.28594753
-0.06433231 -0.18804558 -0.18520847 -0.39169714 0.0057038255 -0.32030162 0.18111199 -0.05915296
-0.21982175 -0.015243642 -0.5125606 -0.38239774 -0.18877986 -0.19004358 0.12581404 -0.15538453
0.5464023 0.20565565 -0.01903345 -1.3413917 0.07522668 0.1749164 0.46575063 0.23072688
-0.34367222 -0.7816527 -0.010821162 0.19155839 -0.13295814 -0.25917542 0.29571474 0.028315548
0.0036053783 -0.049391475 0.032500386 -0.22645392 -0.47012034 -0.12797767 -0.05335349 -0.018469159

actor.init_next_embed.0.add_bias._bias f4 [32, 1]
00000000: 7ea1 2a3e 9517 6a3d 278e 84bd 2b9d 56bd
00000010: c839 cf3c 5938 89be 67be f23d f080 9bbd
00000020: f431 62be 802f edbc e914 0cbe da83 a43e
00000030: 834f 66bc 2d60 1d3e f602 c43e 0d4b 8a3e
00000040: c76c 0bbd 08da 41be fcee 82be 25c7 ae3e
00000050: 3bfb c9bd 6a6e 8d3c 2c0e 72be c127 47bd
00000060: 8032 7a3e 4c3b aabd c16e e1bd 5b00 e63c
00000070: dec3 733d 713d 303e 083f 363e 4e26 2a3e
0.16663167 0.057151396 -0.06472426 -0.05239598 0.025296107 -0.26800802 0.118527226 -0.07592952
-0.22089368 -0.028953314 -0.13679852 0.32131845 -0.014057043 0.1536872 0.3828351 0.27010384
-0.034039285 -0.18930829 -0.25572956 0.3413631 -0.098623715 0.017264564 -0.23638219 -0.048621897
0.24433327 -0.08312091 -0.11007453 0.028076341 0.059512965 0.17210938 0.17797482 0.16616175

actor.init_next_embed.2.module.weight f4 [64, 32]
00000000: 623b e53d b639 e0bd 51c5 bebc 2bfe 363e
00000010: 92c9 173e 4a82 9e3d 7194 6bbe 8159 6bbe
00000020: 5854 acbd a172 9f3e 9c10 a73d 340e e3be
00000030: f98a c13d 0bae ba3e 6af8 a43d 9a5d a2be
00000040: b390 18be a887 863d 8933 8cbc ef16 50be
00000050: d691 813d 73f7 6fbd 2ccf f3be 8f8d cebe
00000060: 58bd fbbe c4a5 b33e 5059 31be d06d bbbd
00000070: 0c96 243e 6f21 a73d bb4b 623e c3fa 0bbe
00000080: f50a 9b3e b266 68bd f773 11be 021a 8cbd
00000090: 9254 b8bd 42de 2abe bf27 74bd 607e 8bba
000000a0: 8666 d33e a06f 2e3d e973 f43e ccfc a73e
000000b0: d197 b5bc 5130 91bd 31d5 b7bd bda9 24bd
000000c0: 04e9 3a3e bd6d a93c 4577 98bd fba4 143f
000000d0: 3d72 2e3e 2576 bb3c f852 613d 3aa3 32be
000000e0: e59e f9bd b8c8 5f3e 7cba 14bc 7f76 9fbe
000000f0: 2734 20bd 3ad2 813d 0d30 c8bc c399 63bd
00000100: 9e6f 8ebd 0c99 1f3d a49a 303e 26e4 0abe
00000110: 5dce abb9 8ea4 4a3e 1af5 f2be fde9 b3be
00000120: c408 a8be 99bf 0fbe ed66 1a3d d9e2 973e
00000130: 03a3 ba3d 4975 9cbe e66d 35bf 852a 063e
00000140: 30de 67be 7abc 853d f0ba 3e3e 38fd 1b3e
00000150: 380b a2bd 8b31 a2bd 9938 67bd 89ae ca3e
00000160: 48b6 cfbe 6bdb ca3d 62e1 58be 20aa 26be
00000170: 9507 fabe c573 22bf 756f 87be 8a61 69be
00000180: 232c 1abe 865a 2a3e b156 b33e bf24 c2bd
00000190: ad0d 9fbe c74d d03c 67fa abbe b225 023e
000001a0: 4096 0ebd 71a7 723e 66eb acbe 771b 5f3e
000001b0: 3816 dd3d 3637 273e c77b 94be 4639 88be
000001c0: 4d77 28be d872 4f3e 4fce fe3c 94a4 bebe
000001d0: 14ef 8abc c260 953d 9964 283e e9d4 363f
000001e0: 1a66 bcbe 5c04 ddbe debe bfbd 3068 a7be
000001f0: 8e93 adbe a35c 4bbe 85ca 873d 127d 58be
00000200: 6fca 4dbe 28ad c5be 6bde c4bd 1bb9 7b3e
00000210: 9c07 ef3d 5f8f 2bbe 088a a0bd 976e a8bd
00000220: 2d7f e03d 3fe5 fcbd 5981 7ebe c289 443d
00000230: bc87 03bd e750 463d 9819 233e f74a 333a
00000240: affa 273e 945c 1b3e 9cf9 18be af5f a6be
00000250: f4b1 2fbe 6114 c23d 0979 1f3e d8bf a23d
00000260: 267e 7e3e 95a0 c1bd f88d e43e 3351 4f3e
00000270: f9fd 82be 4937 02be 073f 9fbd 446d 923d
00000280: 48cc 1b3d b112 ebbc e7d6 b63d 46fb e2bd
00000290: 82f1 ad3e ff07 513e 2f9a 353d c712 103e
000002a0: 0f61 2e3e 78f9 5a3e 0090 1c3d b52e 3d3f
000002b0: 289c 283d d9c7 413e 3dcd c3bc 9f23 0e3f
000002c0: c8be f9bc 97c9 a43e a727 e43d 5b94 683f
000002d0: dd26 343d 3c0c 09bd 0ed5 843e 8b99 363e
000002e0: c27c fc3e fa44 acbd 9591 8d3d d5da b13e
000002f0: b1ee 24be ce0a 9abe dadf 993e 3e25 10be
00000300: 1105 3b3d 1713 333e 81f0 203d a28c 363e
00000310: 4027 95bd 853e e73c ffe3 81be 3d9e a6be
00000320: 795e 223e 52fa 643e bb69 903d b1c2 6c3e
00000330: fc83 cb3c bde4 553b 34f5 c2bd 1701 85bd
00000340: 2ab0 b1bc d82e 2b3e 0280 59be b045 923a
00000350: 23dc 4f3e b7fd 8abe 1a8c 2c3e 7fde 373e
00000360: 339a 1fbe 8b13 943d 47ca 213d 9a57 67be
00000370: 8d35 2cbe 6b8d e8bd dca3 0c3e ef62 95be
00000380: 840e 8ebe c339 233d 66be 97be 4ad6 af3c
00000390: b72a 653e 37f2 94be 6cac 11be 2cb9 48be
000003a0: 1a82 483c ffbd 05bd 74d2 b73e 1295 a33e
000003b0: 4f53 c23d 30e7 273e 0b60 e33e 523f fa3e
000003c0: ef44 843d bc16 b23e 0e57 4e3e 4f23 aa3e
000003d0: 1ab9 abbe c7c2 603c 3a78 27be aba6 363f
000003e0: dff8 f83e 0cc9 bb3c 39ea c03d 0584 c6bd
000003f0: d81b 043d 5c8a 983e 86bb 6a3d b830 b63e
0.11192967 -0.109485075 -0.023287447 0.17870395 0.14822987 0.077396944 -0.23005845 -0.22983362
-0.08414525 0.31142142 0.08157465 -0.44346774 0.09450335 0.3646091 0.08055194 -0.31712037
-0.14898948 0.06568843 -0.017114418 -0.20321248 0.06326644 -0.058585595 -0.47618997 -0.40342376
-0.49167895 0.35087407 -0.17319226 -0.091518044 0.16072863 0.08160674 0.22099201 -0.13669877
0.30281797 -0.056738563 -0.14204393 -0.06840898 -0.090005055 -0.16686347 -0.059608217 -0.0010642521
0.41289157 0.042586923 0.47744682 0.32810056 -0.022167118 -0.07089294 -0.0897621 -0.040200938
0.18252951 0.02068221 -0.07444624 0.5806424 0.17035766 0.022883484 0.055010766 -0.17445078
-0.1218851 0.21853912 -0.009077664 -0.31145093 -0.039112236 0.06338926 -0.024436975 -0.05556656
-0.06954883 0.038964316 0.1724649 -0.13563594 -0.00032769414 0.19789335 -0.47452623 -0.35139456
-0.32819188 -0.14037932 0.037695814 0.2966526 0.09113123 -0.3055823 -0.70870817 0.13102157
-0.22643352 0.0653009 0.18625998 0.15233314 -0.07912296 -0.07919606 -0.05645046 0.39586285
-0.40568757 0.09905132 -0.21179727 -0.16275835 -0.4883391 -0.634579 -0.26452222 -0.22791114
-0.150559 0.16636094 0.35027078 -0.09479665 -0.3106512 0.025427712 -0.3358948 0.12709692
-0.03481126 0.23696686 -0.33773345 0.21787821 0.107952535 0.16329655 -0.29000685 -0.26606196
-0.1645176 0.20258653 0.031104235 -0.37234938 -0.016959704 0.07293846 0.16444625 0.71418625
-0.36796647 -0.43167388 -0.09362577 -0.32696676 -0.33901638 -0.19859557 0.066304244 -0.2114146
-0.20096754 -0.3860867 -0.09612735 0.24582331 0.11671373 -0.1675391 -0.07838827 -0.08224218
0.10961757 -0.12348413 -0.2485403 0.04798294 -0.03211187 0.048417 0.15927732 0.0006839479
0.16404222 0.15172035 -0.14938968 -0.32494876 -0.17157727 0.09476543 0.15573515 0.079467475
0.2485281 -0.09454457 0.44639564 0.20245819 -0.2558439 -0.12716402 -0.077756934 0.07149747
0.038036615 -0.028695436 0.08927708 -0.11083083 0.33973318 0.20413207 0.044336494 0.14069663
0.17029212 0.21384227 0.038223267 0.73899394 0.041164547 0.18923892 -0.023901576 0.55523103
-0.03048648 0.3218505 0.111403756 0.9085137 0.043982375 -0.033458933 0.25943798 0.1783201
0.49313933 -0.08411594 0.06912533 0.34737268 -0.16106679 -0.30086368 0.30053598 -0.14076707
0.04565913 0.17487751 0.039291862 0.17827085 -0.07282877 0.028228054 -0.2536926 -0.325426
0.15856351 0.22361115 0.070514165 0.23121144 0.024843208 0.003263756 -0.09519425 -0.064943485
-0.021690447 0.16717088 -0.21240237 0.0011159685 0.20298819 -0.27146694 0.1685032 0.1795597
-0.15586166 0.0723029 0.039499547 -0.22592011 -0.16817303 -0.11355098 0.13734382 -0.29177043
-0.2774545 0.039850008 -0.2963745 0.021464486 0.22379576 -0.29091045 -0.1422593 -0.19601887
0.01223805 -0.032651898 0.3590275 0.3194967 0.09488546 0.16396785 0.44409212 0.48876435
0.064584605 0.3478297 0.20150396 0.33230063 -0.3353966 0.013718314 -0.16354457 0.71348065
0.48627374 0.022923015 0.094196744 -0.096931495 0.032253116 0.2979306 0.057307743 0.35584044

actor.init_next_embed.2.add_bias._bias f4 [64, 1]
00000000: a767 efbe dd56 8fbe c947 cabe 8b06 d5be
00000010: 3489 033d 5eb6 953f f2fb 87be 6083 213f
00000020: 01a4 843f 2292 2bbf 49e2 3ebf a2e5 713e
00000030: ae3f 9b3f 42f6 96bf 7891 83bf 636c 2dbf
00000040: d697 68bf e3e1 4a3f 7dae 123f 1e0c 86bd
00000050: 8955 31be 5658 9abe fc24 a0bf 17a6 023f
00000060: 99b6 12c0 b853 55bf d256 91be 9c9c 73bf
00000070: 4d2c 073f f3ab 723e e71e 37bf e99b 54bf
00000080: 524a 3bbe 1dc5 513f b774 30be 3758 a1be
00000090: 5b41 bf3f d9fb 213f 1469 85be 7b34 163f
000000a0: c5e3 d4bf 9514 8d3f 0b79 b5be 18cd cebf
000000b0: ad32 ec3e 1ee4 b53f c2e2 603f 75a6 243f
000000c0: 5fbc cdbe 4425 b13e 3a43 2f3f 0b25 0f3f
000000d0: c748 b43e 4ad7 87bd 7072 fcbd f3cb 20bf
000000e0: 6f5c 9c3d c266 1e3f bb50 20bf fbc3 eb3e
000000f0: 472d d03e d85e 503f ad72 55bd 495d 313e
-0.46758768 -0.2799596 -0.39507893 -0.41606554 0.03211327 1.1696279 -0.26559407 0.6309109
1.036255 -0.67019856 -0.74564034 0.23622754 1.2128808 -1.1793902 -1.0278769 -0.6774351
-0.90856683 0.79250926 0.572975 -0.0654528 -0.17317785 -0.3014552 -1.2511287 0.51034683
-2.2923949 -0.8333087 -0.2838655 -0.9516084 0.5280197 0.23698406 -0.7153153 -0.830504
-0.1829007 0.81941396 -0.17232023 -0.31512615 1.494182 0.63274914 -0.2605673 0.5867383
-1.663201 1.1021906 -0.3544391 -1.615634 0.46132413 1.4210241 0.87846005 0.64316493
-0.40182778 0.34598744 0.68461955 0.559159 0.35211775 -0.0663286 -0.12326515 -0.628112
0.07634818 0.61875546 -0.62623185 0.4604796 0.40659544 0.8139472 -0.052111316 0.17320742

actor.embedder.layers.0.0.module.W_query.weight f4 [64, 64]
00000000: 3335 b13c f87f 5fbd d4c5 193e 312d 1dbe
00000010: f6fb 353d 415c dabd 676b abbd b620 d3bb
00000020: f96c 263e 4030 05be 356b 093e fa48 fa3b
00000030: 2034 283d 6806 f63c 5785 cc3c 57ac 083a
00000040: 4e83 343d bd90 4c3d 3062 62bc ec13 cb3d
00000050: 4c10 003d a537 acbd e522 fb3d e2ab 563e
00000060: 0f22 41be f0ca 1e3e 6fa5 7e3d 8cde dabc
00000070: e66b aa3c 7386 3b3e e347 a2ba b489 0c3d
00000080: cc33 bd3d 88b1 6cbc 1817 40be dceb ed3d
00000090: 845b b2bb 2cfc d93d 9de7 c53d 07ca 25bd
000000a0: 4989 d93d 28d1 093d fc59 cebc 57e5 1e3e
000000b0: 0d8c acbd b7a1 ecbd 7f5b 293e 671f 87bd
000000c0: b113 94bd 8a3d f9bb f44b 1ebd 4bf5 cbbd
000000d0: 1292 dbbd 75f7 033d abf1 693d cebf 82bd
000000e0: b4a6 c23d 936e f6bd 4095 263e 1ffa 18bd
000000f0: db00 8ebd c3e5 9ebd cd18 80bd a7c9 10bd
00000100: b626 9dbe f476 20be 2396 0dbe b3e0 e0bd
00000110: 1e0a cbbc d6da 18be 131b 213e df8e 6a3e
00000120: a1d4 753e d245 bf3d dd2c 26be cdac 36bd
00000130: 1607 363e 03eb 323d 6775 4dbc fe9b 673a
00000140: 9e3f d1bd 79c4 0e3e 5088 f93b 39cd 8a3e
00000150: 057e 3c3d 8ba9 f7bd 2932 8bbd c376 57be
00000160: 607f 46be d501 e5bd abbc 453e 2ef6 4c3d
00000170: 48af 023e 224f 09be 9be2 0e3e 278e 9abc
00000180: 3710 29be 60af d8bd a24a 733d 364d 88bd
00000190: 4e42 aabd f68e 23be f64f 22be f2cc cabd
000001a0: 4c53 31be d509 963e 49bd 40be 89fb dc3c
000001b0: e561 453e 027d adbd ef2b e0bc e9bf 143e
000001c0: c605 523e 05cb b0bd 2641 96bd e899 3dbe
000001d0: e0fd 1cbe 9191 0c3e 7854 43bc a564 56be
000001e0: 9d17 22be e061 ac3e 0ae9 4dbe aa42 ab3e
000001f0: 3c19 bcbd 24b5 413e 20c7 34be 8f04 103e
00000200: 6d5a 84be 0eb5 afbc 71de 2b3c f0e9 683d
00000210: 40ed 033e 82a6 58bd ff06 5dbd 0bb7 4f3d
00000220: 1eb9 2b3c e58e 873d 00e1 69bd cd19 60bd
00000230: 3e68 dd3d a398 6e3d a55a 323d 5e70 043e
00000240: 0b3e 3e3c 95a6 033e e491 e63d 6595 933d
00000250: 12d8 d13d 0d8e ab3c cba0 d4bd d2de dbbd
00000260: 8350 b5bd ad54 8dbd f46d 923d 2f0b 37bd
00000270: cd8e 873b db60 8bbc ac54 93bc bf94 7cb8
00000280: 3345 2abd b782 7fbd cc04 1bbc 71bf ea3c
00000290: 6ad9 943d a1ce 303d 4b1c c83c 2197 963c
000002a0: 70ad 123d e2fc d23d eb30 a7bc a001 b03c
000002b0: 68a5 9d3d cb02 c2bd 3a2f 4e3e d032 393e
000002c0: e6c2 62bd a269 0cbd f270 123d db67 833b
000002d0: 2f95 70bd 611d 443d 2752 8a3b 03cb 603c
000002e0: 2ed2 2fbd d6f9 a63d d0ac 94bd 75c4 c6bc
000002f0: d060 07be 1fc6 a1bb 485e bcbd fe85 87bd
00000300: da72 74bd dc27 913d e27f 16bd 4fec e83d
00000310: 4ed9 df3d b3d3 2a3e 2606 2f3d f352 d6bd
00000320: b557 8dbc d205 6f3a 7db1 7cbd 26d3 24bd
00000330: 8e0e 33be 9a24 083d 5526 e03c 93ca 443d
00000340: 4462 9dbc 7ee8 c23c 4642 b23b 018e 933d
00000350: eb81 0ebe 66e5 5c3d 368c 8dbb 97aa 2dbd
00000360: 0877 92bc 5916 3c3d e568 99bd 9c19 d83d
00000370: 3f24 9c3d 8710 27bd e800 a93d 28e8 33bd
00000380: 1b5c aebc 4f6e 2abd bd0f 62bc 5f27 2f3e
00000390: 5e20 15bd 9442 423d 3c4b 1a3d afe7 0bbc
000003a0: 0b82 f5bd b9ea 7d3d 0ce3 313e 1cc8 30bd
000003b0: e947 983d 427a e2bd 86a2 0a3d ed08 83bd
000003c0: 70d3 17bd 8c5f 3d3d b576 aa3d 482a f1bc
000003d0: decd 373e 812c 9e3d 1279 c43d 4691 5f3d
000003e0: 6160 353e 847f d3bd a060 3dbd e80d 54bd
000003f0: 7f7e eebd d061 adbd 3d65 353b ba69 b4bd
0.021631813 -0.0545654 0.15016872 -0.1534927 0.04442974 -0.10662127 -0.08370095 -0.0064431084
0.16252507 -0.13006687 0.13419802 0.007638094 0.041065335 0.030032352 0.024965925 0.0005213669
0.044070534 0.04994272 -0.013817355 0.09915909 0.031265542 -0.08409051 0.12262515 0.20964006
-0.18860649 0.15507102 0.06216949 -0.026717447 0.020803403 0.18313007 -0.0012381043 0.03431101
0.09238395 -0.014446624 -0.1875881 0.11617252 -0.0054430384 0.10643801 0.09663317 -0.04047587
0.10621888 0.033646733 -0.025189392 0.15517174 -0.0842515 -0.11554282 0.16538809 -0.065977864
-0.07230318 -0.007606213 -0.038646653 -0.09958895 -0.1072122 0.032218415 0.05711524 -0.0638424
0.09504452 -0.12032809 0.16267872 -0.03734791 -0.06933757 -0.07758667 -0.062547304 -0.03534856
-0.30693597 -0.15670377 -0.13826804 -0.10980358 -0.024785098 -0.1492723 0.15732984 0.22906063
0.24006893 0.09339489 -0.16228051 -0.04459839 0.1777614 0.043681156 -0.012540198 0.00088351953
-0.10217212 0.13942136 0.0076151267 0.27109697 0.04601862 -0.12092885 -0.06796677 -0.21041398
-0.19384527 -0.1118199 0.19310252 0.050039463 0.12762177 -0.13409093 0.1395363 -0.018866612
-0.16510092 -0.10580325 0.059397347 -0.06655352 -0.08313428 -0.15972504 -0.15850815 -0.099023715
-0.17316931 0.29304376 -0.18822207 0.02697541 0.19275625 -0.08471109 -0.0273647 0.14526333
0.20510015 -0.08632473 -0.07336645 -0.18515742 -0.1533122 0.13727404 -0.011921994 -0.2093683
-0.1582932 0.33668423 -0.20108429 0.33449298 -0.091845006 0.18916756 -0.17654085 0.14064239
-0.2585024 -0.021448638 0.010490046 0.056863725 0.12883472 -0.05289317 -0.05396175 0.050711673
0.010481147 0.06619052 -0.057099342 -0.054712106 0.10810898 0.058251034 0.043543477 0.1293349
0.011611472 0.12856515 0.11258295 0.07206229 0.1024629 0.020941759 -0.10382231 -0.10735859
-0.08853247 -0.06900916 0.07149878 -0.0446884 0.004136896 -0.017013958 -0.01798471 -6.0220013e-05
-0.0415699 -0.06238052 -0.009461593 0.02865574 0.07268031 0.043165807 0.024427554 0.01838261
0.035809934 0.1030214 -0.020409068 0.02148515 0.07697564 -0.09473189 0.20135203 0.1808579
-0.05536165 -0.034280427 0.035752244 0.0040101833 -0.058736023 0.04787958 0.004221219 0.013720277
-0.042925052 0.08153121 -0.07259524 -0.0242636 -0.13220525 -0.004936948 -0.0919767 -0.06617354
-0.059679843 0.07087681 -0.036743052 0.11373197 0.109301195 0.1668232 0.042730473 -0.1046504
-0.017253736 0.0009117994 -0.061692704 -0.04024043 -0.17486021 0.03323803 0.027362028 0.048044752
-0.019211896 0.023792502 0.0054400293 0.072048195 -0.13916747 0.05392971 -0.004319693 -0.042399015
-0.017879024 0.04591975 -0.0749071 0.105517596 0.07624101 -0.040787246 0.08252126 -0.043922573
-0.021284154 -0.041609105 -0.013797698 0.17104863 -0.03640782 0.047426775 0.037669405 -0.008539124
-0.11987694 0.061991427 0.17371768 -0.04315959 0.07435591 -0.11058475 0.0338464 -0.06398187
-0.037066877 0.0462337 0.08323423 -0.029439107 0.17949626 0.07723332 0.09593405 0.054581903
0.17712547 -0.10327056 -0.046234727 -0.051771075 -0.11645221 -0.08465922 0.002767875 -0.08809228
