logs/experiment/Discrete_A2C_1-5Box_10x10x10Bin-2022.08.09-15-00-00/PCT-Discrete_A2C_1-5Box_10x10x10Bin-2022.08.09-15-00-00_2022.08.09-23-41-53.pt (torch, 236314 bytes, 24 tensors)

actor.init_internal_node_embed.0.module.weight f4 [32, 6]
000000 90 93 02 bf 41 58 f2 3c cd 28 34 bf 5c 29 23 3d
       -0.5100641 0.029583098 -0.7037476 0.039834365
000010 89 7d 54 be 84 37 90 3d bf 8a 9c bd 8a fe 0e 3e
       -0.20751013 0.07041839 -0.07643651 0.13964286
000020 4a 41 b7 be c3 dd 95 be 78 a2 cd be 05 67 e6 be
       -0.35792 -0.29270753 -0.40163016 -0.45000473
000030 a9 a8 a2 bd 61 3b 26 3d bd cb 51 3e e0 3f 62 3e
       -0.079423256 0.040583972 0.20487876 0.22094679
000040 ca 23 01 3e 8a 78 2e bf 94 84 9b 3e 15 0f 25 be
       0.12611309 -0.6815268 0.30374587 -0.16119035
000050 a5 4a 96 3e d2 d8 fa be 4c da 17 be b7 29 1e 3f
       0.29353824 -0.48993546 -0.14829367 0.617824
000060 a0 b1 9e bd ef ae c1 be f6 19 24 3e 1d 74 91 3d
       -0.07748723 -0.37828776 0.16025528 0.07102225
000070 69 e7 90 3e 01 ea 53 3f 13 9a 1c bd fd 2b bc 3d
       0.28301552 0.82778937 -0.038232874 0.091880776
000080 8e 32 72 3e 9b c1 c5 3c b7 3e b0 bd 1a 5d 80 be
       0.23652098 0.02414017 -0.08605712 -0.2507103
000090 01 7d a7 3f b7 27 f4 be 80 c3 4a bf 82 a0 b1 bf
       1.3085023 -0.4768655 -0.7920456 -1.3877108
0000a0 72 6f 2e 3f 7f d3 2a 3f 37 33 be be 3e ae b0 be
       0.681388 0.6672897 -0.3714845 -0.34507936
0000b0 a0 90 a3 3d e3 97 54 be 0f 5b 90 3e 17 9a 12 3f
       0.079865694 -0.20761065 0.28194472 0.5726637
0000c0 4e 00 a6 bd 34 40 d6 3e d7 f0 18 3f 6f 27 65 be
       -0.08105527 0.41845858 0.5974249 -0.22378324
0000d0 00 00 7d be 64 78 b3 3e 0f 13 cf 3e 1d 79 5e bd
       -0.24707031 0.35052788 0.40444228 -0.05431472
0000e0 a6 8c 05 3f 80 6e 8c bd 48 fe 92 bd dc de 0f bd
       0.5216774 -0.06857014 -0.071774065 -0.035124645
0000f0 0d 8e ec be 85 a2 ac be e9 ad 8b be f5 6b fe 3e
       -0.46202126 -0.33717743 -0.2728112 0.4969174
000100 40 e7 a1 3e 39 5d a6 be b5 8a e1 bd 31 14 26 3f
       0.31621742 -0.32492998 -0.110127844 0.6487456
000110 7e 9c fa be 22 7c 0c 3e a9 21 25 bf d1 f2 f0 3e
       -0.4894752 0.13719228 -0.64504486 0.47060254
000120 a1 43 98 3e 66 da 13 bf 30 1b 6c be d9 cf 88 3e
       0.29739097 -0.57755125 -0.23057246 0.26721075
000130 1e 02 98 be 92 a3 27 3e f4 5e 46 3e 52 b4 8b 3e
       -0.29689115 0.16370991 0.19372159 0.2728601
000140 55 63 f5 bd 0c e4 94 be a3 a1 6a bd ed 1f e5 bd
       -0.11981837 -0.29080236 -0.057283055 -0.1118773
000150 aa 4d 8d 3e 34 b2 35 bc 1a 96 f6 b9 a5 37 1d be
       0.27598315 -0.01108985 -0.0004703261 -0.15353258
000160 bd 1c e2 3a 04 27 e6 3c 52 1f a7 3e 00 ad e6 bd
       0.0017250996 0.028094776 0.32641083 -0.11263466
000170 51 64 9e 3e 6e c1 70 be a9 91 58 be f2 4a 8e 3e
       0.3093591 -0.23511288 -0.21149315 0.27791554
000180 3b 83 00 bf d9 8f 06 bf f8 f2 bd be 3d 12 cc be
       -0.5020024 -0.52563244 -0.37099433 -0.39857665
000190 79 04 f6 bd 44 71 a2 be b9 bf b6 3c 2b cc 1d 3e
       -0.12012572 -0.3172704 0.022308217 0.15409915
0001a0 15 43 a0 3e e6 96 a8 bd 7c 15 a7 bc 49 1c b0 ba
       0.3130118 -0.082319066 -0.020395987 -0.0013436164
0001b0 f4 9a c2 bd 5f 68 38 bf 9b fb 2c bf 4a 47 96 bd
       -0.09502211 -0.7203426 -0.6757142 -0.07337816
0001c0 08 aa 15 be 75 b7 1c be c2 ff 71 3e 61 78 d4 bd
       -0.14615643 -0.15304358 0.2363272 -0.10374523
0001d0 2e 32 52 bf 52 4f a3 bd a3 bc a2 bd d1 30 df 3e
       -0.8210782 -0.079741135 -0.07946136 0.4359193
0001e0 06 63 ed 3c 14 5c 6c be 2c 61 34 bc 12 09 d9 be
       0.028977882 -0.23082 -0.011009496 -0.42389733
0001f0 8b 2b 2c bf 01 10 d0 3d f2 1f 87 bd c2 75 d1 be
       -0.6725394 0.101593025 -0.0659789 -0.40910155
000200 db 65 26 bf b2 5d 85 3d 6d 45 99 3e 2e 8d 1c 3f
       -0.6499917 0.065120116 0.2993578 0.61152923
000210 62 0d b0 be ab 0d 95 3a 9f bd 48 bf 30 fc 95 3e
       -0.3438521 0.0011371871 -0.7841434 0.29293966
000220 7e f9 00 3f 68 9c f6 3c 49 14 eb 3d ae ad 53 bd
       0.50380695 0.030103877 0.114784785 -0.051679306
000230 00 63 da be 1d bd 2d be 63 43 d9 be 82 d0 0e bf
       -0.42653656 -0.16966672 -0.42434224 -0.5578691
000240 63 a1 27 3e 07 ec 17 be 3c ff 38 3f 0f a8 89 bc
       0.16370158 -0.14836131 0.72264457 -0.01680377
000250 51 d9 08 3e ac 41 bd bd 7b be c4 3d b7 7b 8f be
       0.1336415 -0.092410415 0.09606644 -0.28024074
000260 5e 77 0e bf 5b 21 4d 3e d8 fb cf 3e 5a bb 02 be
       -0.5565089 0.20032255 0.4062183 -0.12766781
000270 76 bd 27 3f cb bf 1b 3d 53 15 57 3e 8c 6c 18 3e
       0.6552347 0.038024705 0.21004228 0.14885157
000280 8f 7d 22 be 47 e1 64 be e6 fc b7 3e b9 95 27 3d
       -0.1586821 -0.22351561 0.35935134 0.04091427
000290 cf b3 50 be 35 b3 e1 3e ec 38 92 3d 3e c1 f8 bd
       -0.20381092 0.44082037 0.07139763 -0.12146233
0002a0 26 12 cc bd 20 88 62 be f0 79 06 3e ce 32 07 3f
       -0.09964399 -0.2212224 0.13132453 0.52811897
0002b0 5b 83 00 3f 56 e1 4e bf 9f 6d 8c 3e 8d 48 78 be
       0.5020043 -0.80812585 0.27427384 -0.24246426
0002c0 0a 18 b3 be 81 0f b8 bd 66 07 d6 3d f2 01 69 bd
       -0.34979278 -0.08987332 0.1045063 -0.05688662
0002d0 9a db a0 be 05 3a cc be aa 01 a6 3f b8 5a f4 bd
       -0.31417543 -0.39888015 1.2969258 -0.11931366
0002e0 99 ee 5b be 6f 38 f1 3d c7 ce 6e 3e 7b 18 95 3d
       -0.21477737 0.11778342 0.23321067 0.0728006
0002f0 dc 7f d9 bd 98 34 61 3d 73 41 1b be af 2b d0 bd
       -0.1062009 0.054981798 -0.15161686 -0.10164582

actor.init_internal_node_embed.0.add_bias._bias f4 [32, 1]
000000 71 9d 5f 3c fb 9c d1 be 47 e2 a5 bb ae a3 bb bc
       0.013648377 -0.4094008 -0.0050623748 -0.022905197
000010 61 2c 16 3e 95 d0 1f 3d b0 45 cd 3b 40 f4 09 bc
       0.14665367 0.03901728 0.006264411 -0.00842005
000020 8c 66 36 3d f5 76 d7 3d 37 f9 06 3c 90 d5 80 3c
       0.04453139 0.10520736 0.008238128 0.015726835
000030 d4 16 45 ba 75 04 16 3a 37 01 58 bc 48 e7 f5 3c
       -0.0007518355 0.000572271 -0.013183883 0.03001751
000040 1b d6 97 be 0c 2d 75 bd 51 19 3d 3d 63 b8 02 3b
       -0.29655537 -0.059857413 0.04616672 0.0019946329
000050 b0 ee 6b be d6 70 67 3d d1 9f 47 3d 64 54 ee 3d
       -0.23040271 0.056504093 0.048736397 0.1163719
000060 8c 55 0c 3d 00 92 65 3b 0f ee bb 3b ed af 8f 3d
       0.03426127 0.003502965 0.005735166 0.07015977
000070 db 52 de 3c 33 c5 41 bd 94 7f 93 3d a7 4f 90 bd
       0.027139118 -0.047307204 0.07202068 -0.070464425

actor.init_internal_node_embed.2.module.weight f4 [64, 32]
000000 eb 91 2d 3e e9 dd 20 3e be da 1e be 49 e8 18 3e
       0.16950195 0.15709652 -0.15513131 0.1493236
000010 b9 96 2a 3d b2 b5 de 3d 0a f7 2a 3e ca de fe 3e
       0.041647647 0.108744994 0.166958 0.4977935
000020 ac b8 b4 3e 27 52 ee bd 22 bb 54 3f 4c 33 4e 3e
       0.35297143 -0.11636763 0.8309804 0.20136756
000030 3e 77 02 3d 63 fc 3d be 67 5b 32 bf ab aa 99 3e
       0.031852 -0.18553309 -0.6967072 0.30013022
000040 74 1b 2e bd 09 28 8a 3e 57 82 81 3c aa 66 65 3e
       -0.04250665 0.2698367 0.015809221 0.22402444
000050 19 8c 6d be f9 41 04 3e 4f 35 8c 3f 6a 9b 09 bd
       -0.23197974 0.12915792 1.0953768 -0.03359548
000060 65 44 1c 3f 3d ab 39 3e db bf 17 3e d4 59 95 3e
       0.6104186 0.18131728 0.14819281 0.29170096
000070 be c3 96 3d 71 f9 15 bc f1 6d 35 be 55 19 89 3d
       0.073615536 -0.00915371 -0.1771772 0.06694285
000080 96 93 9f 3e dd da d6 3d 72 26 07 bf 14 53 f0 be
       0.31167287 0.104909636 -0.5279304 -0.46938384
000090 96 f7 9a bc 78 87 4b 3e fe 18 78 3d 34 f9 8e be
       -0.018916886 0.19875896 0.06057071 -0.27924502
0000a0 21 a0 3d be dd 83 1f 3e 32 f7 cc 3e 56 99 ec 3d
       -0.18518116 0.15577646 0.40032345 0.11552684
0000b0 e6 24 01 3f 0e 7a 84 bb 42 42 bd bc 87 6a 78 3e
       0.5044693 -0.0040428704 -0.023102883 0.24259387
0000c0 f3 cb 41 bd 0d ff 29 be 8c 6e 0d be d0 61 1a be
       -0.04731364 -0.166012 -0.13811702 -0.15076375
0000d0 19 63 6d 3d e0 49 cc 3e 8e 4d 72 3f 69 05 ae 3e
       0.057955835 0.39900112 0.9464959 0.33988503
0000e0 1d 72 7b be 45 6b 31 3e 62 6f 52 bb e1 98 7d 3d
       -0.2455525 0.17326076 -0.0032109846 0.061913375
0000f0 a7 21 27 3f 1f 98 1e 3e 4e 6d 91 3e 25 de 28 bc
       0.65285724 0.15487717 0.28403705 -0.01030687
000100 39 fb 9d be 0f a0 14 3d f1 41 0e 3f 77 ba 38 3f
       -0.3085573 0.036285456 0.5556937 0.7215952
000110 67 76 00 3f 63 3f eb bc b3 76 9c be 5d 7b 83 3f
       0.5018067 -0.028716749 -0.3055931 1.0272022
000120 b5 fd 93 be 28 09 99 be 6a 24 ed be 02 01 58 bf
       -0.289045 -0.29889798 -0.46316844 -0.8437654
000130 3e c0 e6 3d 6c da 75 3e 0e 13 1b 3f 8b 34 20 bf
       0.11267136 0.24009103 0.6057595 -0.62580174
000140 f1 df 72 bd 31 6b 65 3d 6a bb f4 3c c5 7b db be
       -0.0592956 0.05601043 0.029874522 -0.42867866
000150 17 56 76 bc 52 22 dd 3e 7d 48 a6 bd cb 01 51 be
       -0.015035174 0.43190247 -0.08119295 -0.2041084
000160 82 ff cd bd 5e 84 65 3d 75 bd 13 bd de 1a ee 3c
       -0.100585 0.05603444 -0.036069352 0.029065546
000170 16 60 ae 3e 6c 15 3d be 91 7e 7a 3e 14 b5 0a 3e
       0.34057683 -0.18465203 0.24462344 0.13545638
000180 1a 9e 82 3c d6 e5 5d be cd 5e 43 bd 5d cd 11 3f
       0.01594453 -0.21669707 -0.04769783 0.56953984
000190 b3 65 1d 3e 38 e8 ab bc 34 3e 3b bc 65 ba 7b 3e
       0.15370826 -0.020984754 -0.011428405 0.24582823
0001a0 3d fd 4a 3d 6c 08 a0 bd 9e cb 2f 3b 5d a2 c8 bd
       0.049557913 -0.07814106 0.0026824246 -0.09796593
0001b0 86 24 a0 be 72 a5 8b 3d d3 f5 af be ce c5 cb bc
       -0.31277865 0.068186656 -0.34367236 -0.024874594
0001c0 d0 cb e7 3d 67 67 9f be d0 00 b7 3d bc 0a 1b 3d
       0.11318171 -0.31133577 0.08935702 0.037852034
0001d0 c3 94 88 be 42 3f 24 3f 48 0c 66 be ec af 75 3e
       -0.26675996 0.64159024 -0.22465622 0.2399289
0001e0 da 49 3e 3e e3 1d 9a 3c 7e 3d 60 3d 20 17 8f 3e
       0.1858286 0.01881308 0.054746144 0.2794733
0001f0 27 6f 5c 3e 98 f6 2d bd 19 cd 4f be 3d 2f 74 3e
       0.21526776 -0.0424715 -0.20293082 0.23846145
000200 b1 9e ab 3e 6c 72 11 be 62 75 37 be ec 11 11 3e
       0.3351951 -0.14203805 -0.17915872 0.14166993
000210 2a 7a 09 bf f0 e7 db bd 01 36 09 3f f3 34 cd be
       -0.5370203 -0.10737598 0.5359803 -0.4007946
000220 2d 51 24 bf ed 19 06 3f a2 e2 d8 3e fa f8 c5 3e
       -0.64186364 0.5238331 0.42360407 0.38666517
000230 b1 cc 35 bc 97 c1 28 be 03 d8 af 3e 0e 55 09 bd
       -0.0110961655 -0.16480099 0.3434449 -0.03352838
000240 af 99 93 bc d7 b4 22 be dc fe db bb e1 57 0e 3e
       -0.018017618 -0.15889297 -0.006713731 0.1390071
000250 a2 d6 25 be 4d ff f3 3e 3f 73 3c 3e c1 71 c8 bd
       -0.16195157 0.47655717 0.18403338 -0.09787322
000260 08 50 6d be 03 7e 55 3e ed c1 76 3e 40 cd f4 3d
       -0.23175061 0.20848851 0.24097414 0.11953211
000270 e9 9a 17 3f 71 05 bf 3d fd bf 2e 3e fb 36 f8 bd
       0.5922075 0.0932721 0.17065425 -0.12119862
000280 71 d6 90 be cf f0 bb bd 0f 42 7b bd 4a 04 76 bd
       -0.28288606 -0.0917679 -0.061342295 -0.060062684
000290 de 48 65 3f 65 38 ad be a2 db 7b be 36 c7 81 3e
       0.8956431 -0.33832088 -0.24595502 0.25347298
0002a0 65 d3 7d 3e 7c ff 66 3c 3a 82 5b 3f bd f6 96 be
       0.24787672 0.014098998 0.85745585 -0.2948512
0002b0 55 31 21 bd 33 f8 5a be c9 f0 89 bc fd 0e 89 3e
       -0.039353687 -0.21383743 -0.016838448 0.26769248
0002c0 69 95 6d 3e 95 23 83 3e 2c df f1 bd df 52 e3 3d
       0.23201527 0.25613084 -0.11810145 0.11099791
0002d0 11 03 34 bd 57 ff b3 3b 0d 5d b7 3e cf c2 23 bf
       -0.043948237 0.0054930854 0.3581318 -0.6396913
0002e0 f0 0d 04 bd ca c2 8d 3e 05 71 5f 3e d3 e8 d7 3e
       -0.032239854 0.27687675 0.21820457 0.42169818
0002f0 f0 f8 93 bb c1 40 76 bd 76 e8 11 3c d1 a0 02 3e
       -0.0045157596 -0.060120348 0.008905521 0.12756659
000300 93 14 82 3e 7e a3 a7 3c 3f 4f 1d 3e b7 c2 13 3d
       0.25406322 0.020463701 0.15362261 0.036074366
000310 a4 f4 00 3f 20 aa 90 3d 80 d9 1a be b8 1c 3c 3e
       0.5037329 0.07063699 -0.15122032 0.1837033
000320 8f 08 9e 3d 76 82 97 be 28 c1 c2 3e 2f 2d 04 be
       0.07716476 -0.2959172 0.38037992 -0.12907861
000330 68 40 8b be 99 e6 9b bb 5a 88 8f 3e 65 3a e1 be
       -0.27197576 -0.004757714 0.28033715 -0.43989864
000340 1c 1d 8f 3c f9 84 90 be 14 35 ad 3d fd b0 1d bc
       0.017469935 -0.2822645 0.084573895 -0.009624717
000350 3d e0 7e 3c 27 78 eb 3d 4c 22 63 bc 7b 6d 41 3e
       0.015556392 0.114975266 -0.0138631575 0.1888942
000360 12 08 36 bd 52 3a b9 3d 8a ed 79 be 93 c9 db 3e
       -0.04444129 0.09044327 -0.2440702 0.42927226
000370 6d 18 a7 be 78 e6 c8 3d 1f 03 e9 be 8e 5e fc bc
       -0.32635823 0.098095834 -0.45510194 -0.030806806
000380 a6 3a 20 be 1e 2e fa bd ba 3b ed be c1 ad b9 be
       -0.15647373 -0.122158274 -0.4633463 -0.36265376
000390 84 36 b8 be 74 39 98 bc 32 92 d9 3d fc 9c 14 bd
       -0.35979092 -0.018582083 0.10623588 -0.036282524
0003a0 c2 40 67 3e fb 6b d4 3e 0c c1 e7 3e 02 6e ea 3e
       0.22583297 0.41488633 0.4526447 0.45787054
0003b0 f6 b1 5b be 6c b5 4f 3d 18 41 55 be e3 f6 39 bd
       -0.21454605 0.050710127 -0.20825613 -0.045401465
0003c0 da f1 81 bd a6 10 2b be b5 55 4f 3e 8c 52 73 3e
       -0.06344958 -0.1670557 0.20247538 0.23761958
0003d0 34 ff 29 3d 74 21 f1 be 20 39 29 3f de e0 b4 bc
       0.041503146 -0.47095835 0.6610279 -0.022079881
0003e0 2b 25 29 bf 2f 87 0a 3e 93 a0 d5 be 27 b6 fe be
       -0.6607234 0.13528131 -0.4172407 -0.49748346
0003f0 64 94 2f 3f a6 34 3c 3e df d7 ba 3e 1b 63 a1 bd
       0.685858 0.18379459 0.36492822 -0.07880231

actor.init_internal_node_embed.2.add_bias._bias f4 [64, 1]
000000 47 ca 36 3e f0 40 9a 3e 7c 2c 5c bd 66 77 96 3d
       0.178506 0.30127668 -0.05375336 0.07346992
000010 a7 a6 25 3e de b4 92 3e 2c 0e 3c 3d 4d 4f e2 3d
       0.16176854 0.28653616 0.045911953 0.11050282
000020 bb 63 b3 bd 27 4c c8 bd 5a 3d ac 3b c6 5d 05 3d
       -0.087592565 -0.0978015 0.005256337 0.032560132
000030 b5 79 80 bd fb 3f a4 3d 69 82 14 3e 0f ef 1a 3e
       -0.06273214 0.08020016 0.14502873 0.15130256
000040 1a 74 cd 3c 2e 52 45 be c5 86 be 3c 22 14 a2 3d
       0.025079776 -0.1926963 0.023257622 0.07913996
000050 d3 bb 28 bc 42 9c 9f 3c 09 94 6a bd c6 9d 8e bd
       -0.010298687 0.01948369 -0.057270084 -0.06963687
000060 91 c5 e8 3d 04 ec 1a bd a6 64 3a bd 25 25 13 3d
       0.11365808 -0.03782274 -0.045506142 0.035924096
000070 fe 28 b6 bd c4 97 b2 39 81 25 1e 3c 28 5f c9 3b
       -0.088945374 0.0003406388 0.009652496 0.0061453767
000080 b0 32 aa 3d ca dc d5 3c 19 0b 92 3e 2d 7d 81 bd
       0.08310449 0.026106257 0.28524092 -0.063227035
000090 f0 54 b3 3c 12 f3 0f be f1 97 fb bc d6 92 4c 3e
       0.021891087 -0.14057568 -0.0307121 0.19977888
0000a0 f6 58 43 bd 3e a5 80 be 91 79 1e 3e 3c 9f f4 bb
       -0.04769226 -0.2512607 0.15476061 -0.0074652713
0000b0 fa 33 0d be a9 fb 64 bd 27 ff 90 be 2b 28 85 be
       -0.13789359 -0.055904064 -0.28319666 -0.26007208
0000c0 9e a3 89 3e cb 5f f7 3b c7 39 cf 3d 7f 62 6d 3d
       0.26882643 0.007549261 0.10118442 0.05795526
0000d0 6a ee aa bc db 8e 8d bc ad 98 30 bd 38 79 58 3e
       -0.020865638 -0.017280033 -0.043114353 0.21139991
0000e0 44 fe 68 3e ac 7d aa bd 81 da 51 3c 59 87 3f 3d
       0.22753245 -0.08324751 0.012808443 0.046759937
0000f0 dd a0 5b 3d 1b ea d5 3d 8e d1 11 bd 64 0b 8c 3c
       0.053620208 0.10445043 -0.035600238 0.017095275

actor.init_leaf_node_embed.0.module.weight f4 [32, 8]
000000 03 e8 9a bd 0b bf af be e1 de c9 be 3d f4 95 bd
       -0.07563784 -0.34325442 -0.39427856 -0.073219754
000010 e7 a5 2d 3e 50 aa bd 3e ae ba fd 3e 61 07 8a 3e
       0.16957818 0.37044 0.49556488 0.26958755
000020 69 9b d0 be 24 3e 30 bf 80 bf 88 bd 85 53 9e be
       -0.4074357 -0.6884482 -0.06677151 -0.30923095
000030 b1 26 72 be e1 7f a9 3e e4 d3 b4 bc e5 bd ba 3e
       -0.23647572 0.33105376 -0.022073694 0.36473003
000040 a5 b5 51 3e f3 dc c2 be da e1 ff bd 22 1c d0 3e
       0.20479448 -0.38059196 -0.1249425 0.40646464
000050 ec 7d ec 3b ce 1e a3 be 08 2d 68 bd 79 1e 8a bd
       0.0072171595 -0.3185944 -0.05668357 -0.067440934
000060 75 d5 ce be 88 f4 45 be f3 f7 77 be b0 34 81 be
       -0.4039723 -0.19331563 -0.24215679 -0.2523551
000070 9f 5e a9 3e 73 66 39 3d 99 0d e7 3e b1 e4 e9 3d
       0.33080003 0.04526372 0.45127562 0.114205725
000080 7a e2 08 bd 32 43 2e be 8b 36 96 3d cf 30 dc 3d
       -0.03341911 -0.1701782 0.07334622 0.10751497
000090 8b 55 bc 3e 84 42 08 3e 05 50 ff be a0 52 c8 3e
       0.36784014 0.13306624 -0.49865738 0.39125538
0000a0 20 af c6 3d 02 c7 15 3e 09 b7 08 bf 21 3a 1e 3e
       0.09701371 0.14626697 -0.5340429 0.15451862
0000b0 a5 70 ed be 01 4a 06 3f e4 ad fa bd 89 8a 83 be
       -0.46375003 0.5245667 -0.12240198 -0.2569163
0000c0 b3 fe d3 be 6d c1 49 be aa 42 5d bd aa 35 7e 3c
       -0.41405258 -0.19702692 -0.054018654 0.015515724
0000d0 7a 9c 47 3d 77 71 38 be 65 68 cc bd 80 15 e0 bd
       0.048733212 -0.18012033 -0.09980849 -0.10941601
0000e0 cf 38 c4 3e d8 ab e0 be b9 bd 86 3e 59 aa e7 3e
       0.38324592 -0.43881106 0.26316622 0.45247152
0000f0 44 77 20 bd cd f0 c6 3e 3e 1e 38 3d 19 c2 66 3e
       -0.03917624 0.3885559 0.044950716 0.2253498
000100 cf 18 cf 3d 45 ac 02 3e ac bb 2b be 63 fc ad 3e
       0.10112154 0.12761028 -0.1677081 0.33981618
000110 02 b2 c7 3d 77 60 ad 3d 66 12 fb 3e 08 2f b2 3e
       0.09750749 0.08465665 0.49037474 0.34801507
000120 3d 55 b9 bd fe ec aa 3e 29 3b 39 be 1b 97 9b 3e
       -0.09049461 0.33383936 -0.18088974 0.30388722
000130 89 89 01 3d 83 86 f6 bd b2 a1 e7 3e c9 05 99 be
       0.031625304 -0.12037375 0.4524055 -0.29887226
000140 84 4b 5c 3d 02 fb c2 3d 1a 7f 8e 3e 0d 08 8f bd
       0.053782955 0.09520532 0.27831346 -0.069839574
000150 84 c3 b3 3e 71 28 f4 bc c8 b2 45 be e2 61 ad 3c
       0.35110104 -0.02980444 -0.19306481 0.021164838
000160 fe 7c 95 be 8a 85 ff 3c ea fd 3d 3e 94 4b ce 3d
       -0.29196924 0.031191606 0.18553892 0.10073009
000170 82 8d ef 3e 3f 3b c0 3d 92 83 88 bc 1b 41 b7 be
       0.4678765 0.093863 -0.0166643 -0.3579186
000180 7c 4a c6 3e 40 49 a1 3d 61 45 11 3f d5 b4 ae be
       0.38728702 0.078752995 0.5674649 -0.3412234
000190 b9 1b b8 bd f2 97 82 bd 2c f3 bb 3e 20 c1 ee bd
       -0.08989663 -0.063766375 0.36708963 -0.116579294
0001a0 d6 d7 61 be 66 39 7f 3b a1 da 80 3e 99 9d 00 be
       -0.22054991 0.0038944124 0.251668 -0.12560119
0001b0 c8 6d 91 be 7a 5a 24 be c3 2c b6 3e a3 2a 9c 3d
       -0.2840407 -0.16050139 0.35581025 0.0762532
0001c0 82 eb 2c 3e 30 a0 84 bc 6f 58 26 3e 86 6a ea 3e
       0.16886714 -0.016189665 0.16244672 0.45784396
0001d0 9d 02 e6 3d 2e 8c d2 3e 12 43 e9 3d af f0 94 bd
       0.11230967 0.41122574 0.11389746 -0.07272469
0001e0 d8 0b 01 3f 09 68 13 3e 8b 6b eb bd 5b c7 06 bf
       0.504087 0.14395155 -0.114951216 -0.5264794
0001f0 a1 94 3d 3e 06 8c f2 3e 72 4a 12 3d cf 02 9c be
       0.18513729 0.47372454 0.035715528 -0.30470893
000200 76 d2 48 bd bd 58 a2 3d 10 9e 92 be 0c fb b5 3e
       -0.049028836 0.07927082 -0.28636217 0.35543096
000210 95 f0 48 3e ce b9 73 3c e4 f7 77 be b2 90 a0 3d
       0.19623025 0.014875842 -0.24215657 0.078400984
000220 db 76 a4 bd b3 4d c1 3e cd 9f e3 3d 00 9a 97 3d
       -0.080304824 0.37754592 0.11114464 0.0740242
000230 67 4a 8e be e6 82 bd 3d 66 e4 3d 3e c6 6e 93 3e
       -0.2779114 0.092534825 0.18544158 0.2879545
000240 7d 00 5a be 22 4c 41 3d f7 aa 87 3d d5 05 b3 be
       -0.21289249 0.047191747 0.06624406 -0.34965387
000250 2d a4 6e be 1c b6 b6 3e 5c bb 48 3d 29 d3 f4 3d
       -0.23304816 0.35685813 0.049006805 0.11954338
000260 92 97 c9 be b9 e4 15 3e 8e 7a c1 bd 70 fa 90 3e
       -0.3937345 0.14638032 -0.094472036 0.2831607
000270 56 dc 2f 3d 40 49 05 3f ae 72 b7 bd b7 1a d9 3d
       0.042934738 0.52064896 -0.0895742 0.106007986
000280 c5 ec 79 be f9 27 8b be b3 c5 9d be bd 66 40 bd
       -0.24406727 -0.27178934 -0.30814895 -0.04697298
000290 57 08 ec 3c e7 4f d5 3e a2 a5 10 be 68 2f 86 be
       0.02881257 0.41662523 -0.14125684 -0.26208043
0002a0 85 d7 06 3e fe 6d 12 be 7b 98 f8 3e aa ab e5 bd
       0.13168152 -0.14299771 0.48553833 -0.11214383
0002b0 55 5e a3 3c 03 92 e3 bd 4e a6 47 be a4 99 6d 3d
       0.019942442 -0.11111834 -0.19497034 0.05800785
0002c0 37 f2 a8 be 88 6b b4 3e 29 e4 88 3c 88 86 a3 3e
       -0.32997295 0.3523829 0.016710358 0.31938577
0002d0 9d a8 7f 3e 17 8b 37 3e c3 c9 f1 3d 41 63 07 3e
       0.24966665 0.17924152 0.11806061 0.13221456
0002e0 ef a2 98 be 5e 72 14 be b7 a4 8c 3d e2 30 96 bd
       -0.29811808 -0.14496753 0.06867354 -0.073335424
0002f0 dc 2c e7 3e cc a3 2b bd 7f a2 17 bd 2a 7b 7e bd
       0.45151412 -0.041904256 -0.037020203 -0.062129177
000300 47 53 5c 3d 27 c8 9e 3d 81 54 7f 3e e6 eb 82 bc
       0.053790357 0.0775302 0.2493458 -0.015981626
000310 95 85 6b 3e 4f af 7d 3d 4c bb 8c bc d4 e8 fc 3e
       0.23000176 0.061934765 -0.017179154 0.49396384
000320 27 de 99 3e e9 68 50 3e c6 03 fe be 39 d2 a4 be
       0.300523 0.2035252 -0.49612254 -0.32191637
000330 ba ea 51 3d d0 44 b0 bc 40 cb 3f 3d 0f 97 99 be
       0.051249243 -0.021517187 0.046824694 -0.2999806
000340 11 9f 7a 3e fe 41 31 be 88 64 f2 3d 51 e4 d3 3e
       0.24474742 -0.1731033 0.11835581 0.4138513
000350 c6 7b 1f 3e 20 33 f4 3d 36 f3 e3 3e 1c 7b 8e be
       0.1557456 0.11923814 0.44521493 -0.278283
000360 6a 30 f6 3c 79 22 2f be fa c9 c4 be 73 d8 14 3e
       0.030052382 -0.17102994 -0.38435346 0.14535694
000370 52 7d 18 3f 4e d4 76 bd ba 31 5e 3e ee 74 ba 3e
       0.59566224 -0.060261063 0.21698657 0.36417335
000380 0c c4 9b 3e 1c 23 44 be a2 5b f7 bd 97 08 e9 bd
       0.3042301 -0.19154018 -0.120780244 -0.113785915
000390 76 65 3e bd 58 1d c5 be bd 58 d1 3d 25 06 50 3e
       -0.04648348 -0.3849895 0.102220036 0.20314844
0003a0 6b dc e5 3d 83 08 7c 3e de 4d 3e be 85 d2 58 be
       0.11223682 0.24612622 -0.18584391 -0.21174057
0003b0 9b 41 94 3e d1 ad 31 3c 3e 4b 5e be 8f dc 28 3e
       0.28956303 0.010844664 -0.2170839 0.16490386
0003c0 23 72 91 3e 01 8e f1 3e 1b 9f 03 bf d0 37 00 be
       0.28407392 0.47178653 -0.5141465 -0.12521291
0003d0 63 fb 57 be 38 ec 2f be 71 0d 10 bd 59 9f e9 3e
       -0.2109199 -0.17179954 -0.03516907 0.45629385
0003e0 90 95 d6 3d e4 d4 d7 3e 7d b5 83 bd 1a 0c 58 be
       0.104777455 0.4215461 -0.064311005 -0.21098366
0003f0 74 71 e7 3d a4 3c c7 3e 45 3c 30 3e b5 d1 c6 bd
       0.11300936 0.38913453 0.17210491 -0.09707967

actor.init_leaf_node_embed.0.add_bias._bias f4 [32, 1]
000000 e4 e1 3d 3c 14 63 f1 3c ef 65 bf 3b a8 99 02 3c
       0.011589501 0.02946619 0.005841009 0.007971205
000010 77 27 f0 bd b7 b2 76 3c cc f3 52 bd 0b ce d9 bc
       -0.11726277 0.015057257 -0.051502034 -0.026587507
000020 87 5c 9f 3d c6 e7 0e 3d 35 e0 24 3d e9 69 f4 bc
       0.0778132 0.034889005 0.040252883 -0.029835658
000030 e3 a5 d8 3a 17 65 58 bc 71 09 04 3e 19 1d 42 3a
       0.001652893 -0.013207695 0.12894227 0.00074048486
000040 4c 40 22 bd f9 db 46 bd bb bf 39 3c 2c 83 57 bb
       -0.0396121 -0.048549626 0.011337216 -0.003288458
000050 1d 62 13 3d a9 b8 20 3d 19 05 f6 3d b7 c6 ad bc
       0.03598224 0.039238606 0.12012691 -0.021212919
000060 17 7d 49 3c 14 b3 4c 3c be 34 bb 3d 29 72 ac bc
       0.01229789 0.012493867 0.09140919 -0.02105053
000070 bc c0 ca bd ab bf 45 3b f7 fc 0f 3c 40 fe 1b be
       -0.099000424 0.0030174057 0.008788339 -0.15233707

actor.init_leaf_node_embed.2.module.weight f4 [64, 32]
000000 b1 9b 07 3e a0 38 0b 3f a4 e2 1c 3e 8e 78 c5 3e
       0.13242985 0.5438328 0.15320832 0.38568538
000010 10 42 80 be 61 03 c8 3e 32 cd 9b 3e 22 0f 82 be
       -0.25050402 0.39065078 0.3042999 -0.2540217
000020 37 b9 ce bb 96 9e 36 3e 61 1b 91 3c 51 c3 02 bc
       -0.0063087004 0.17833933 0.01771325 -0.007981137
000030 11 d7 ac be 65 93 0a be 38 cb 12 3e 92 d9 bf 3d
       -0.33757833 -0.13532789 0.14335334 0.0936767
000040 22 8a 39 3e a7 0f 03 be b9 68 c8 3d 64 33 a7 3e
       0.181191 -0.1279894 0.09785599 0.32656395
000050 fb c2 21 3f bb 73 02 bf b0 40 23 3f 73 38 c0 3e
       0.6318814 -0.5095784 0.6377058 0.37543067
000060 f4 ef 1d 3d 04 c5 08 bd cb 51 45 bc d0 1b a8 3e
       0.038558915 -0.033391014 -0.012043427 0.3283372
000070 1b 0a 08 be d9 f3 15 3e b2 ad cd 3d 50 d7 98 be
       -0.13285105 0.14643802 0.100428954 -0.2985177
000080 05 10 f8 bd 16 d6 89 be 5b 78 62 be a8 00 24 be
       -0.121124305 -0.26921147 -0.22116224 -0.16015875
000090 02 7d 8c be 31 b6 ad 3e 0a 46 6c be 1e 30 61 3e
       -0.27439123 0.33928064 -0.23073593 0.21991012
0000a0 a0 d7 9b 3e fd 9f b2 be 1a b7 89 3d 71 68 01 be
       0.30437946 -0.34887686 0.06724377 -0.12637497
0000b0 1d 83 93 3e 00 b6 40 3d 00 64 a1 3d 62 cc bc 3d
       0.2881097 0.04704857 0.078804016 0.092186704
0000c0 a4 56 d6 3c 75 45 1c 3e d1 40 30 3d 9a f0 ed be
       0.02616436 0.15260871 0.043030564 -0.46472627
0000d0 53 f4 eb be 36 c6 1a 3f b7 11 4b 3e 7c 5a 85 3e
       -0.46084842 0.60458696 0.19830976 0.26045597
0000e0 fa a2 b0 3d c5 46 2f 3e 93 fb fc 3d 9b eb 5a be
       0.08624835 0.1711684 0.123526715 -0.21378939
0000f0 e4 1f a1 3d 2e f6 b0 3d 59 81 81 3e 99 fe 29 be
       0.07867411 0.08640705 0.25293997 -0.16601028
000100 d4 5b d7 36 04 9c e7 ba 8b 3d 68 3e fd 0e be be
       6.4181895e-06 -0.0017670398 0.22679727 -0.3712081
000110 9d 26 30 3e 91 06 f1 bd 30 2d e4 bd 0d 5f ad bd
       0.1720223 -0.117688306 -0.11141431 -0.08465395
000120 f8 7c b1 be 1d 38 db 3e 39 17 72 3d d6 5a 03 3e
       -0.34665656 0.4281625 0.059104178 0.1282762
000130 e5 98 3d be 3c ee 2a 3d 86 58 15 3e 31 c5 1b 3e
       -0.18515356 0.041731104 0.1458455 0.15211941
000140 2f 32 a8 be 9b b7 95 be 1c 48 48 3e a3 b3 9a 3d
       -0.32850787 -0.29241642 0.19558758 0.07553794
000150 44 d4 8e bd 36 66 0b 3e 35 35 0c 3e 2f 0e 84 3d
       -0.0697408 0.13613209 0.13692172 0.06448018
000160 82 be a1 3e 9e aa d1 bd 4b 21 3f 3e 66 6e 97 3b
       0.31590658 -0.10237621 0.18665044 0.004621315
000170 66 9d 21 be b3 bb 23 bc 30 fd fd be 52 d2 65 be
       -0.15782699 -0.009993481 -0.4960723 -0.22443512
000180 c8 1f 57 be 08 3f 0c 3e e8 b1 9f be 66 1e 20 3f
       -0.21008217 0.1369592 -0.3119042 0.62546384
000190 b4 52 4f be 2c 08 83 3d 7e 9a 24 be 1e ae 3c 3e
       -0.20246392 0.06398043 -0.16074559 0.18425795
0001a0 41 ec c4 bc 44 33 f2 3d 1d 02 65 3e a3 08 3d 3e
       -0.024038436 0.118261844 0.22364087 0.18460326
0001b0 21 51 1d 3f 8e a7 88 be c1 fe 99 bd 4b 3f 43 be
       0.6145192 -0.26690334 -0.075192936 -0.19067113
0001c0 37 5c 0d be f0 01 6f 3e ec e1 1f bb 84 4e 6e 3d
       -0.13804708 0.23340583 -0.0024396135 0.058180347
0001d0 49 41 02 bf d8 d4 28 3c 7b 45 e0 bd 1e c7 85 be
       -0.5088087 0.010304652 -0.10950752 -0.26128477
0001e0 f8 12 cc 3d 75 9d 18 be 3d d0 8c 3e 6b b9 47 3e
       0.099645555 -0.14903815 0.27502623 0.19504325
0001f0 9b a1 56 3e a1 1d bb 3c bd d7 4c bd cf 7d a0 3d
       0.20960085 0.022841277 -0.05001043 0.07836496
000200 0f 92 b5 be 6b 85 d4 be da 24 9b bd 26 19 1d be
       -0.35462996 -0.4150804 -0.07575388 -0.15341625
000210 95 44 b3 ba 82 21 8f be 8f c5 6c be 34 b2 4e be
       -0.0013677055 -0.27955252 -0.23122238 -0.20185167
000220 98 6a 19 bf 90 09 cb 3e 03 e0 4c ba fb 01 85 bb
       -0.59928274 0.39655733 -0.0007815363 -0.004059074
000230 d4 6d f1 3e a4 de 9e bc 1e 9a 8f be 1d 67 3f 3e
       0.47154105 -0.019393273 -0.2804727 0.18691678
000240 50 60 b2 3d 47 73 87 be d6 2f 91 be 3e f0 cd bd
       0.087097764 -0.26455137 -0.28356808 -0.10055588
000250 db 1f 27 3e 4a ca 8c 3e d8 5e c1 3d aa d2 ac bd
       0.16320746 0.27498084 0.09441918 -0.084386185
000260 d6 02 54 be e3 bb cf 3d 2d fa 86 bd 32 13 89 3d
       -0.20704207 0.101432584 -0.06590686 0.06693114
000270 28 46 ad bd 67 7a 60 3c 06 a7 5b 3e fd 82 13 be
       -0.08460647 0.013701058 0.21450433 -0.14405437
000280 58 4a 1d be d0 1b 67 3e 7b 22 32 be f4 2b c5 be
       -0.15360391 0.22569203 -0.17395966 -0.38510096
000290 67 c6 cc 3d 9d b3 59 3e a8 fe 96 3d a8 6e 29 be
       0.0999878 0.21259923 0.073727906 -0.16546118
0002a0 68 a4 a2 be cf 7b 8d bd 83 d8 94 3c 52 0e 60 3d
       -0.31766057 -0.0690838 0.018169647 0.054701157
0002b0 5a eb 3b be 80 d7 75 be a2 0b ec 3e 89 87 57 be
       -0.18351498 -0.24007988 0.46102625 -0.21047796
0002c0 60 33 7c 3e e3 2a 18 3d b0 6b 7e bb 79 b9 55 bd
       0.24628973 0.037150275 -0.003882151 -0.052178834
0002d0 b2 3a be 3c e6 f5 9f bd c3 57 2f be 52 66 a9 be
       0.023221347 -0.07810573 -0.17123322 -0.33085877
0002e0 af 5e 4c be 92 86 91 bc 23 b0 12 3d 5d 73 48 3e
       -0.19957994 -0.017764363 0.03581251 0.19575258
0002f0 cb 8f ce bc f9 3c ba 3d 80 a0 6b be 6c 4c 8a bd
       -0.02521505 0.09093661 -0.23010445 -0.067528576
000300 66 53 2a be 27 70 f4 be d7 d9 dd be a1 a9 9d 3d
       -0.16633376 -0.47741815 -0.4333026 0.0769837
000310 f8 cc 50 be 01 47 53 be 17 6a d2 3c f8 70 0c 3d
       -0.2039069 -0.20632555 0.025685353 0.034287423
000320 a2 86 20 bd 49 f6 08 3c a2 54 7c bc 3a d0 81 be
       -0.039190896 0.0083595 -0.015401037 -0.25354177
000330 f8 dd 9f 3e d9 25 f9 3d c4 25 2d be 6c fc 55 be
       0.31224036 0.12165422 -0.16908938 -0.20897073
000340 e9 da 18 be cc ef 2b 3f 3f af e0 3d 33 b2 34 bd
       -0.14927258 0.67162776 0.109709255 -0.044115257
000350 3c c6 e7 3d 08 3f 7c 3e c8 52 0e be 4d a1 2b 3e
       0.11317107 0.2463342 -0.13898766 0.1676075
000360 46 72 a8 3d 26 35 8c 3e ae cb 7d be 24 c6 93 3c
       0.08224921 0.273843 -0.24784729 0.018038817
000370 03 73 0c 3e 82 0e b4 bd 8c 60 8c be 8d 73 58 3d
       0.13715748 -0.0879183 -0.2741741 0.052844573
000380 53 3a 34 3d 02 af 3e 3e 1d a9 bb be d8 ee d5 be
       0.044000935 0.18621448 -0.3665246 -0.41783786
000390 59 e8 09 bf b1 a7 9f be 95 90 37 3e 19 09 5f be
       -0.5387016 -0.31182626 0.17926247 -0.21780814
0003a0 50 43 cc bd d9 28 b6 3d 0d 4b fc bb da ef bf be
       -0.09973776 0.0889451 -0.0076993764 -0.3748768
0003b0 a4 c9 10 3e 13 a8 a4 be eb 49 d4 be 40 66 02 3e
       0.1413942 -0.3215948 -0.41462645 0.12734318
0003c0 26 84 d4 be 50 c4 63 3e 8f 95 01 be da df 29 be
       -0.4150707 0.22242856 -0.12654708 -0.16589299
0003d0 f3 e2 88 3c b3 9e 2f 3f d9 5d 86 bd c4 0c 57 be
       0.01670978 0.6860153 -0.06560869 -0.21000963
0003e0 fe 0e 9a bd 6d 5e a2 3d 09 d7 4b be 14 ae 87 be
       -0.07522391 0.079281665 -0.19906248 -0.265
0003f0 69 a0 38 3e 58 62 07 bf 6c e9 a0 3e 30 07 8f 3c
       0.18029942 -0.52884436 0.31428087 0.017459482

actor.init_leaf_node_embed.2.add_bias._bias f4 [64, 1]
000000 ed 32 8b 3e 18 fd 0b 3e 76 33 21 3d 41 0c 0d 3c
       0.2718729 0.13670766 0.039355718 0.008608879
000010 e6 71 36 be 55 10 2d 3c 6e f1 5a be 9b 56 8e be
       -0.17816886 0.010562976 -0.2138116 -0.2780045
000020 9a 75 26 be f6 87 33 be ac 7b 8e 3e 8b ac 1e be
       -0.16255799 -0.17532334 0.2782873 -0.15495507
000030 22 c2 c3 3d 27 e0 bb bd ce 08 c6 bd 0e 68 94 bd
       0.09558512 -0.09173613 -0.09669648 -0.07246409
000040 b8 3b 12 3e ec 4b 12 be 2a cf a5 be 85 d4 13 bd
       0.14280593 -0.14286774 -0.32384616 -0.036091346
000050 e8 0e 18 3d 24 16 b0 3d 31 f0 14 3c 3d de 34 3d
       0.03712359 0.08597973 0.009090469 0.044157255
000060 a2 cb 70 3e 69 87 2e bd 01 83 ea ba 4b 30 b0 bd
       0.2351518 -0.042609606 -0.0017891825 -0.08602961
000070 7e 30 31 be 46 78 ea 3d 52 60 13 be bd a9 82 bc
       -0.17303655 0.114487216 -0.14392212 -0.015950078
000080 14 08 de 3d 94 e6 7c bd 57 38 1e be cb 92 18 3e
       0.108413845 -0.061743334 -0.1545118 0.14899747
000090 52 88 65 3e 3c e3 4a bd 6f d3 e2 bc 68 59 08 be
       0.22415283 -0.049533114 -0.02768871 -0.13315356
0000a0 51 b5 61 3d 39 87 01 bf dc 3e 43 3e ec 65 6c 3d
       0.055104557 -0.5059696 0.19066948 0.057714388
0000b0 66 04 0b be 76 0b 31 bd f9 26 14 be 6c 1a 1d bd
       -0.13575897 -0.04322382 -0.14467992 -0.038355276
0000c0 19 80 6e be 86 79 26 3d c7 e6 5b bd 9a 7a 70 bd
       -0.23291053 0.040643238 -0.053686883 -0.058710672
0000d0 39 36 cc 3d e6 de 28 be 08 72 43 be f9 bc cc 3d
       0.0997128 -0.16491279 -0.19086468 0.09996981
0000e0 65 9c 55 3c 28 dd 67 be 57 67 45 3e 52 65 8b be
       0.013037776 -0.22642958 0.19277702 -0.2722574
0000f0 79 39 0a 3e 7b 1c 0a be 2b 18 8e 3d d8 ba d2 3c
       0.13498487 -0.13487427 0.069382034 0.02572386

actor.init_next_embed.0.module.weight f4 [32, 6]
000000 6b a5 2d 3e b2 61 17 be d2 09 99 be 9c 0e d9 be
       0.16957633 -0.14783362 -0.29890305 -0.4239396
000010 92 8f a6 be 42 11 dc 3c 2b 44 67 be 51 ff c7 bd
       -0.3253141 0.026863698 -0.22584598 -0.097654946
000020 08 51 3f 3e e8 ad 7b be 3b e3 ed 3c 5d 6f 68 be
       0.18683255 -0.24578059 0.029039016 -0.22698732
000030 02 8a 0f 3f 0d 16 89 be 7b fc 83 be 70 e8 89 bd
       0.5606996 -0.26774636 -0.25778565 -0.06733787
000040 0b 33 05 be 82 e7 66 3e fc cb 05 bc ff fb 14 3d
       -0.13007753 0.2254925 -0.008166309 0.036373135
000050 95 95 07 bd eb e7 d5 3e 68 30 ef be 2c 1c ba be
       -0.033101637 0.41778502 -0.4671662 -0.36349618
000060 ca b0 dd 3d 52 13 d8 be 94 1b fe bd 2a 3e 80 be
       0.108247355 -0.4220224 -0.12407604 -0.25047427
000070 af fd bc bd 11 ee 19 be f2 b7 b5 bc cc c5 13 bf
       -0.09228074 -0.15032221 -0.022182439 -0.5772369
000080 bf 29 91 3e 22 72 37 bf e5 61 ed bd 4d 78 2d 3e
       0.28352162 -0.7165853 -0.115909375 0.16940422
000090 84 11 54 3f 8c c7 d2 3d 90 5a 91 3d 88 65 ee bd
       0.82839227 0.10291967 0.070973516 -0.11640459
0000a0 98 11 30 bd 4e c5 b9 be c2 5a b4 bd c3 59 c9 3d
       -0.04298553 -0.36283344 -0.08806373 0.09831574
0000b0 b6 52 15 3e 49 89 af 3d 6f 80 9c be 31 a1 33 3e
       0.14582333 0.08571107 -0.30566737 0.17541958
0000c0 34 b1 0e be 79 28 17 bf 38 54 7a 3e 22 11 3d bd
       -0.13934785 -0.5904613 0.2444619 -0.046158917
0000d0 0f a4 ae 3f 0d 05 34 bf 9c 82 cf 3d 8d a0 95 be
       1.3643817 -0.70320207 0.10132334 -0.29224053
0000e0 02 a6 3a be 01 e0 52 3d 92 b8 b3 be 0a 9d ee be
       -0.1822739 0.051483158 -0.35101753 -0.46604186
0000f0 61 0b a4 be 36 78 3a 3e 44 12 84 3c 0d f1 b9 3e
       -0.3203993 0.1820992 0.016121991 0.3631672
000100 73 80 88 3e b1 09 d8 be ec 2b 17 be a3 7c ef bc
       0.266605 -0.42194894 -0.14762849 -0.029234236
000110 bf 2c b1 bc c8 30 e9 3d e8 8b 85 3d 72 48 a5 3d
       -0.021627782 0.113862574 0.065208256 0.080704585
000120 8f 20 b6 be 91 7e 06 bd 63 50 15 3e 2a 4c bd 3c
       -0.35571715 -0.032835547 0.14581446 0.023107607
000130 bd 19 6a be 86 b7 a7 be 08 aa c0 bc 0a a8 15 3c
       -0.22861381 -0.32757205 -0.023518577 0.009134302
000140 54 46 fe 3d 91 4c 73 3e 7c 27 c6 be 44 94 82 bd
       0.12415758 0.23759677 -0.38702 -0.06375936
000150 06 aa a6 3f 2d 89 69 be da 14 83 be 68 6e 20 bf
       1.3020637 -0.22806235 -0.25601846 -0.62668467
000160 17 3f b7 bd c0 92 a3 3c db bb 43 be 10 3a 82 bd
       -0.0894758 0.019967437 -0.1911463 -0.06358731
000170 69 6d 98 be 3b b8 a0 bd c4 e8 5f bd 4a 05 cf 3d
       -0.29770973 -0.07847639 -0.054665342 0.10108431
000180 35 c0 95 be cc 78 0b bd 77 49 e6 bd eb cb 06 be
       -0.29248205 -0.034050748 -0.11244481 -0.13163726
000190 2d 40 81 be b3 39 a2 3d 0e dd 11 3f 30 f0 4e bd
       -0.25244275 0.079211615 0.5697793 -0.05052203
0001a0 52 bc 49 3e 3b e2 81 be 7e 24 77 bd 0a 07 65 bb
       0.19700745 -0.25367913 -0.060337536 -0.0034946823
0001b0 ab ed 7e bd 3d 85 93 3e 19 18 6a 3e b6 d6 1e bc
       -0.062238377 0.2881259 0.22860755 -0.009694746
0001c0 1f da 8e bd 19 2b 81 3e a0 39 78 3f 65 fe 79 3e
       -0.06975197 0.25228193 0.9696293 0.2441345
0001d0 eb a9 b7 be 45 26 59 be 7e c6 13 3e ca 8d 16 3e
       -0.35871825 -0.21206005 0.14431188 0.14702526
0001e0 db b6 88 3e 50 55 d6 3c 59 e4 14 bd a1 85 12 be
       0.26702008 0.026163727 -0.03635058 -0.14308788
0001f0 ef 9e 85 be 89 77 2a 3e 31 f2 ef bc e2 10 58 be
       -0.2609782 0.16647162 -0.02929029 -0.2110019
000200 23 e0 37 bf d9 8c d5 bd 2b ee 06 be 98 89 0c bd
       -0.7182638 -0.10427255 -0.13176791 -0.034310907
000210 a1 d7 ea 3d a4 45 17 be a0 75 c7 bd 66 49 04 3e
       0.11466909 -0.1477266 -0.09739232 0.12918624
000220 64 b3 b5 be c4 66 7b 3d 23 ad 28 3f 0e 27 88 be
       -0.35488427 0.0613773 0.65889186 -0.26592296
000230 33 62 a9 3e db ed a3 be da 69 d0 3e b9 40 bb 3e
       0.33082733 -0.32017407 0.40705758 0.36572817
000240 bc af a1 3f 5f dc cb bd 22 d6 3a be ee c0 a9 be
       1.2631755 -0.09954142 -0.18245748 -0.33155006
000250 2e 3d 47 be 7c 66 72 3e 7a 90 2e 3e b7 67 92 3e
       -0.19456932 0.23671907 0.17047301 0.28594753
000260 a8 c0 83 bd 15 e1 45 be 4b 49 41 be af 77 c8 be
       -0.06433231 -0.19324143 -0.18875615 -0.3915381
000270 a3 03 aa 3a 93 fe a3 be 6c 75 39 3e d6 92 85 bd
       0.0012971055 -0.32030162 0.18111199 -0.06522147
000280 56 56 6c be 5b ef a7 bc 63 2b 03 bf a3 c9 c3 be
       -0.2307981 -0.020499876 -0.5123808 -0.38239774
000290 82 4f 41 be ef 28 48 be ed 2c 01 3e d4 f0 2d be
       -0.18877986 -0.19546865 0.12614794 -0.169864
0002a0 36 12 13 3f 65 97 52 3e 0a ec 9b bc 38 53 a3 bf
       0.5744966 0.20565565 -0.01903345 -1.2759771
0002b0 5f c6 e2 3c 9a 86 f9 3d 30 df d1 3e ab 43 6c 3e
       0.027682481 0.12183876 0.4099059 0.23072688
0002c0 ce f5 af be f5 4e 16 bf b8 1d 3a bd d7 4a 02 3e
       -0.34367222 -0.5871423 -0.0454385 0.12723862
0002d0 3b 55 5b be a4 b2 84 be ec 67 97 3e 41 94 c7 3d
       -0.21419232 -0.25917542 0.29571474 0.09745074
0002e0 af ff 5b 3b 9c 5d ee bd e8 04 89 bd 89 e3 67 be
       0.0033569147 -0.11638948 -0.06690389 -0.22645392
0002f0 9d b3 f0 be a6 a1 bb bd ac 94 f2 bd 94 2b 7b bd
       -0.47012034 -0.09161691 -0.11844763 -0.061320856

actor.init_next_embed.0.add_bias._bias f4 [32, 1]
000000 89 9a 2e 3e 4f 00 75 3d ff 18 8f bd 0f 4b 53 bd
       0.17051138 0.059814747 -0.069871895 -0.051585253
000010 4a 5a fe 3b 5b 63 82 be f8 fe ef 3d ef c6 84 bd
       0.007762228 -0.25466427 0.11718553 -0.06483256
000020 f1 3f 5e be e1 da 83 bd 8f 38 b6 bd 9b 53 82 3e
       -0.21704079 -0.06438232 -0.088975064 0.2545441
000030 f2 a4 e0 3c 9a a2 15 3e c8 86 c0 3e 0f 60 89 3e
       0.027422402 0.14612809 0.3760283 0.268311
000040 f2 df 9f 3d 67 bf 63 be 61 15 89 be ac cd bf 3e
       0.07806386 -0.22240983 -0.26774123 0.37461603
000050 b6 8d a0 bd ca da e7 3b 5b 2f 7d be a8 9e 79 bd
       -0.07839529 0.0070756422 -0.24725096 -0.060942322
000060 68 9f 7f 3e 7e 5b b7 bd e9 2b 1a be de 94 a4 3c
       0.24963152 -0.089529976 -0.15055813 0.020090517
000070 50 f5 1e 3d ee 81 15 3e 8d e6 01 3e d8 dc dd 3d
       0.038808167 0.14600345 0.12685604 0.10833138

actor.init_next_embed.2.module.weight f4 [64, 32]
000000 61 0c 1b 3d 93 8e da bd 10 de 69 bc 6a c9 36 3e
       0.037853602 -0.10671725 -0.014274135 0.17850271
000010 09 74 1a 3e 07 a1 a4 3d 2a 4c 37 be 17 ee 6b be
       0.15083326 0.08038526 -0.17900148 -0.23040043
000020 90 a0 c6 bd 37 ec a0 3e 61 ae b7 3d ee 21 10 bf
       -0.096985936 0.31430218 0.08968807 -0.5630177
000030 e4 fa c3 3d b8 02 cf 3e 56 0a 85 3e 5f b9 a8 be
       0.09569338 0.40431762 0.25984448 -0.32953927
000040 5e 81 d6 bd a1 14 89 3d 29 aa 9c bc 2b 8f 70 be
       -0.104738936 0.06693388 -0.019124107 -0.23492114
000050 dd 19 82 3d 5c d4 6d bd 2b 17 f3 be 5b 9b f3 be
       0.06352589 -0.05806385 -0.47478613 -0.47579464
000060 5d 18 c7 be 9b f6 b4 3e 68 6b 30 be 24 ad b9 bd
       -0.38885775 0.35344395 -0.17228472 -0.09066227
000070 90 2d a6 3d 48 14 6b 3e a9 3a 9e 3e 95 93 9b bd
       0.08114159 0.22956955 0.3090413 -0.075965084
000080 33 d0 2d 3e 9f e2 77 bd 7d 3b 2f be dd cd 87 bd
       0.16973953 -0.060518857 -0.17112537 -0.06631062
000090 10 1f bf bd c5 81 2e be 04 fc 3e be 64 42 9a 3a
       -0.093320966 -0.1704169 -0.18650824 0.0011769054
0000a0 d5 b9 6a 3e eb 93 33 3d ed 6a f4 3e bb a2 a6 3e
       0.22922452 0.043842237 0.47737828 0.32546028
0000b0 b6 9e a9 bc 1d 49 23 be db 9d 89 be d8 84 86 bc
       -0.020705562 -0.15945859 -0.26878247 -0.016420767
0000c0 a7 a8 31 3e f7 d4 a6 3c 2c 67 92 bd c1 aa ff 3e
       0.17349492 0.020365221 -0.07148585 0.49934962
0000d0 a4 b6 2f 3e 11 28 b9 3c 25 39 57 3d 35 a5 47 be
       0.17159516 0.022602113 0.05254473 -0.19496615
0000e0 04 38 2c be b0 07 5e 3e a9 de 3b bc e6 32 9e be
       -0.16818243 0.2168262 -0.011466661 -0.30898207
0000f0 29 cc f8 bd 34 32 c2 bc 8a 4a 2c bd a5 ad 82 bd
       -0.121483155 -0.02370558 -0.042063273 -0.06380776
000100 14 f2 de bc dc d3 e6 3c 5e c1 46 3e c0 ae 01 be
       -0.027215041 0.028177194 0.19409701 -0.12664318
000110 54 6f ec bb f9 39 41 3e fb 0a f2 be ec 81 b2 be
       -0.00721542 0.18869771 -0.47274002 -0.34864748
000120 20 8f d5 be 6f b3 11 be 52 21 ab 3c fd ce e8 3e
       -0.41710758 -0.14228605 0.020889912 0.4547042
000130 cd 37 cb 3d fe 6a 95 be d2 73 54 bf c7 78 02 3e
       0.099227525 -0.2918319 -0.8298923 0.12741385
000140 64 42 57 be 70 83 83 3d 0a 56 45 3e d9 f9 6c 3e
       -0.2102142 0.06421554 0.19271103 0.23142184
000150 40 c5 96 bd d7 3c a5 bd e5 77 80 bd 9e 0b e9 3e
       -0.07361841 -0.08068245 -0.06272868 0.45516676
000160 d1 fc db be ff 37 c9 3d e4 47 5d be 5e 48 21 be
       -0.4296632 0.098251335 -0.21609455 -0.15750262
000170 3e 44 fb be a8 ea 4a bf c6 63 93 be e2 9f 6e be
       -0.49075502 -0.7926431 -0.2878706 -0.23303178
000180 eb b5 8a be c7 07 28 3e 54 3c c3 3e e3 03 bd bd
       -0.27091917 0.16409217 0.38131964 -0.09229257
000190 a8 ee 9e be 49 21 c9 3c 01 4c dc be f5 5e 01 3e
       -0.31041455 0.024552004 -0.43026736 0.1263388
0001a0 86 f4 df bb 2e 9c 70 3e 06 ca af be 88 84 70 3e
       -0.0068345694 0.23497078 -0.3433382 0.23488057
0001b0 7e e5 e2 3d 37 62 10 3e 54 9e 45 be 87 7d 79 be
       0.110789284 0.14099966 -0.19298679 -0.24364291
0001c0 05 b8 21 be ce 39 4f 3e 18 2c 01 3d b6 1d 95 be
       -0.15792854 0.20236894 0.03153619 -0.2912423
0001d0 13 d7 7b bc e7 37 94 3d 89 93 27 3e c4 e7 49 3f
       -0.015371102 0.07237225 0.16364874 0.7886927
0001e0 9f fc 99 be 32 3d dc be e6 64 bf bd 2a 4a a7 be
       -0.30075547 -0.43015438 -0.09345417 -0.3267377
0001f0 31 2f 85 be f8 52 5b be 95 81 d4 3d be db 64 be
       -0.26012567 -0.21418369 0.10376278 -0.2234945
000200 fc 61 6c be de 67 c2 be 1e c5 0f bc 48 db 73 3e
       -0.23084253 -0.3796987 -0.008775024 0.23814118
000210 2a 9d f7 3d ce 3f 26 be b0 c8 16 be c9 14 aa bd
       0.120905235 -0.16235277 -0.14724994 -0.08304746
000220 1c be 97 3e 47 25 fb bd 20 e5 6f be 86 79 98 3c
       0.2963723 -0.122629695 -0.23427248 0.018612634
000230 e3 cf 24 bd c5 6f 00 3e 46 4a 96 3d ee 5b 6d bc
       -0.04023732 0.12542637 0.07338385 -0.01448725
000240 e2 6c ca 3d ff 1f 1b 3e f8 94 1d be 48 ca dc be
       0.09884049 0.15148924 -0.15388858 -0.43123078
000250 c7 3e 34 be 72 b2 c3 3d 52 54 25 3e 36 39 8b bc
       -0.17602073 0.0955552 0.16145447 -0.016995054
000260 72 fb 58 3e 32 a6 c5 bd 99 e5 e5 3e 78 fa 49 3e
       0.21189669 -0.0965084 0.44901732 0.19724452
000270 7b 22 7a be 65 d2 fc bd d8 26 9c bd 8f 5d 92 3d
       -0.24427216 -0.12344817 -0.07624596 0.07146751
000280 1f b9 5c 3d d8 ce 19 bd 23 82 3c 3d 98 f0 cf bd
       0.053887483 -0.037550777 0.046022546 -0.101533115
000290 d7 1d ab 3e ef 93 4a 3e 54 1e e3 bc c7 be 12 3e
       0.33421203 0.19782995 -0.027724423 0.14330588
0002a0 cc 07 05 3d ff d9 5a 3e 44 fa b7 3c c8 9d 29 3f
       0.03247814 0.21372221 0.022458203 0.6625638
0002b0 39 fe 4a 3d 70 41 dd 3c 25 bc 38 be cd 15 08 3f
       0.049558852 0.027008742 -0.18040521 0.53158265
0002c0 3f 1a d5 bb bb d8 a4 3e 8d 04 f2 3d d3 3d 5f 3f
       -0.006503373 0.32196602 0.11817274 0.8720371
0002d0 af 8a 4a 3d 5f c3 0b bd 66 1b 82 3e 06 74 38 3e
       0.049448665 -0.034121867 0.25411528 0.1801301
0002e0 81 b8 d7 3e 5a 96 a9 bd 23 d0 87 3d 2c a6 b4 3e
       0.42132953 -0.082806304 0.06631496 0.3528303
0002f0 d2 6b 66 be da 46 7a be ea b0 5a 3e 48 77 1e be
       -0.22502068 -0.2444109 0.2135655 -0.1547519
000300 db 5d 2d 3e 00 8d 34 3e 11 ea 93 3b 05 ad 32 3e
       0.16930334 0.17631912 0.004513987 0.17448814
000310 29 9b 93 bd 5c df fa 3c b3 44 2d be 17 cf a6 be
       -0.07207329 0.030624084 -0.16920738 -0.32579872
000320 ca b3 c0 3d 25 48 65 3e fd 6c 9c 3d 71 35 3d 3e
       0.09409292 0.22390802 0.07637975 0.18477418
000330 be f4 b5 3c ce d8 1f bd c8 fb 41 be 74 d1 19 be
       0.022211429 -0.03902512 -0.18943703 -0.15021306
000340 10 73 3d bd fe d5 2b 3e 4f 7d 5a be ed 46 8c bd
       -0.04625231 0.1678085 -0.21336864 -0.068494655
000350 08 f2 4d 3e 7d eb 8a be 0e 2b 2d 3e 04 09 7b 3e
       0.20111859 -0.27132788 0.16910955 0.24515158
000360 b6 d2 7d be c4 4b 92 3d df 09 22 3d 20 96 67 be
       -0.24787411 0.071433574 0.039560195 -0.22615862
000370 88 82 11 bd 4d 4f b2 bd 08 86 dd 3d 88 6b 9e be
       -0.035524875 -0.08706532 0.1081658 -0.30941415
000380 26 ec f5 be 83 4d 25 3d 97 1c 9d be 5a 1c c0 3c
       -0.4803173 0.040357124 -0.30685875 0.02345102
000390 59 ce 64 3e ef 1b 96 be 84 83 6b be af bf 49 be
       0.2234434 -0.29318187 -0.22999388 -0.19702028
0003a0 5f bd 73 bd b5 93 0e bd b2 8c b4 3e e5 65 eb 3e
       -0.05950677 -0.034808833 0.35263592 0.45976177
0003b0 41 7b c5 3d 10 3f 28 3e 14 e6 f9 3e eb df 07 3f
       0.096426494 0.16430306 0.48808348 0.53076047
0003c0 fb b1 0d 3d 74 7f b1 3e 09 3d 4e 3e 68 ea e3 3e
       0.034593564 0.34667552 0.2014047 0.44514775
0003d0 fb 7f ab be 40 99 5a 3c 46 a1 28 be 6e 64 37 3f
       -0.3349608 0.013342202 -0.16467771 0.7163762
0003e0 ec ed f4 3e 52 23 c2 3c 28 95 c0 3d b0 4d c7 bd
       0.4783777 0.023698483 0.09403449 -0.097316146
0003f0 ea bc ff 3c 3e d0 56 3e 3e 2b bc 3d 2a 4f b5 3e
       0.031218011 0.20977876 0.09187935 0.3541196

actor.init_next_embed.2.add_bias._bias f4 [64, 1]
000000 dc 0c f5 be 47 7f dc be b9 bb 98 be 9e db a6 be
       -0.47861373 -0.43065855 -0.2983072 -0.3258943
000010 2b 13 b6 bd 18 1b 82 3f 77 ff fd be c4 d0 48 3f
       -0.08890375 1.0164518 -0.49608967 0.7844355
000020 96 ee 7b 3f d8 95 26 bf bc 44 35 bf 43 5a 2b 3d
       0.9841093 -0.65072393 -0.70808005 0.041834127
000030 e6 09 a4 3f 79 df 7c bf 60 b0 5e bf 47 89 1f bf
       1.2815521 -0.9877849 -0.86987877 -0.62318844
000040 07 b7 60 bf 3b 28 5d 3f 7d 82 17 3f 6c 69 79 be
       -0.8777928 0.8638951 0.59183484 -0.24356622
000050 4a 44 a5 bd 1b 40 4e be a9 77 b0 bf f7 ed 12 3f
       -0.08069666 -0.20141642 -1.3786517 0.57394356
000060 31 7c 10 c0 16 9b 4d bf 50 ef 5e be 6b dd 8a bf
       -2.25758 -0.8031477 -0.21770978 -1.0848821
000070 10 25 1c 3f 71 09 d7 3e bf 94 04 bf 5c 9f 24 bf
       0.6099405 0.4199939 -0.5178947 -0.64305663
000080 46 37 15 bd b2 bc 65 3f 7f d0 be be 40 80 8b bd
       -0.036429666 0.8974105 -0.37268445 -0.06811571
000090 78 e3 b1 3f 3c 5d 46 3f 0f 88 a9 be 06 9a 1c 3f
       1.3897543 0.77486014 -0.33111617 0.6117252
0000a0 9b cc ec bf b8 e1 9b 3f 7c eb d1 be b1 8d b2 bf
       -1.8499941 1.2178259 -0.40999973 -1.3949491
0000b0 8a c8 ce 3e ae 1e a3 3f 03 bf 96 3f 2d c1 42 3f
       0.40387374 1.2743738 1.1777042 0.7607601
0000c0 46 7e 2b bf 24 de aa 3e 6c 43 44 3f 57 d7 d8 3e
       -0.6698955 0.33372605 0.7666538 0.4235179
0000d0 9c f4 9d 3e 3e e8 a6 bc 2c 01 9b be ab 15 3d bf
       0.30850685 -0.020374414 -0.30274332 -0.7386119
0000e0 ac 3c cb 3d 38 57 fe 3e 10 de d4 be 81 9b 66 3e
       0.099236816 0.49675918 -0.4157567 0.22520258
0000f0 a2 cb c2 3e 73 ca 55 3f 1b a3 b0 3d de 68 84 3e
       0.38045985 0.8351204 0.0862486 0.25861257
