logs/experiment/Discrete_A2C_1-5Box_10x10x10Bin-2022.08.09-15-00-00/PCT-Discrete_A2C_1-5Box_10x10x10Bin-2022.08.09-15-00-00_2022.08.09-17-18-52.pt (torch, 236314 bytes, 24 tensors)

actor.init_internal_node_embed.0.module.weight f4 [32, 6]
0	0xbf036b0f	-0.51335233
1	0x3d0f6a9e	0.035013787
2	0xbf12fa36	-0.5741304
3	0x3d9a9ebe	0.07549809
4	0xbe6c734f	-0.23090862
5	0xbd90a94f	-0.07063543
6	0xbdcf17c6	-0.10111956
7	0x3e15174a	0.14559665
8	0xbebbb2d5	-0.36659876
9	0xbe942b65	-0.28939357
10	0xbeb95a24	-0.36201584
11	0xbee18e8f	-0.44054076
12	0xbe26cb37	-0.16288458
13	0x3d913085	0.070893325
14	0x3e31f40b	0.17378251
15	0x3e97eb76	0.2967183
16	0x3dba2044	0.090881854
17	0xbf3014af	-0.6878156
18	0x3ea930e5	0.33045116
19	0xbeaa0016	-0.3320319
20	0x3eaa0fc5	0.33215156
21	0xbf0e3d6c	-0.5556247
22	0x3c00c4df	0.007859438
23	0x3f19601b	0.5991227
24	0xbda88456	-0.08228366
25	0xbec8860f	-0.3916478
26	0x3e3e799c	0.18601078
27	0x3da4aae7	0.080404095
28	0x3e95b9bc	0.29243267
29	0x3f4a4931	0.7901793
30	0x3aad81ea	0.001323757
31	0x3d2d03aa	0.042239822
32	0x3e756000	0.23962402
33	0xbbe0f9fa	-0.006865737
34	0xbd2e2573	-0.042516183
35	0xbe74597b	-0.23862259
36	0x3f889355	1.0669962
37	0xbe3fc144	-0.18726069
38	0xbf4b6225	-0.7944663
39	0xbfa00f76	-1.2504718
40	0x3ef52a10	0.47883654
41	0x3f2f889a	0.6856781
42	0xbeb79e14	-0.35862792
43	0xbebb6059	-0.36596945
44	0x3da7d98a	0.08195789
45	0xbe682310	-0.22669625
46	0x3e9f8844	0.3115865
47	0x3f15254c	0.58260036
48	0xbe214054	-0.15747195
49	0x3ed65b01	0.41866305
50	0x3f2d0f87	0.6760182
51	0xbe1e21e2	-0.15442613
52	0xbe7db280	-0.24775124
53	0x3e88e429	0.26736572
54	0x3ec5352b	0.38517126
55	0xbd9766de	-0.07392667
56	0x3f0af78a	0.54283965
57	0xbd8a25e0	-0.06745505
58	0xbd702134	-0.058625415
59	0xbd0351be	-0.032060377
60	0xbed22ad7	-0.4104831
61	0xbe824098	-0.25439906
62	0xbed222c0	-0.41042137
63	0x3ef91a45	0.48652855
64	0x3e60e2d6	0.21961531
65	0xbe829a3c	-0.25508296
66	0xbe000c4d	-0.12504692
67	0x3f1e57ba	0.6185261
68	0xbecfc0e6	-0.40576857
69	0x3e17ac69	0.14811863
70	0xbf1ffc4b	-0.62494344
71	0x3ee41b4d	0.4455208
72	0x3ebcbe70	0.36864042
73	0xbf0ca061	-0.5493222
74	0xbe4f8961	-0.2026725
75	0x3e485cd2	0.19566658
76	0xbe92df67	-0.28686067
77	0x3e1fa1f5	0.15589125
78	0x3db5a24c	0.08868846
79	0x3e3d815b	0.18506376
80	0x3ae69e56	0.0017594795
81	0xbe52249c	-0.20521778
82	0xbd9e745c	-0.077370375
83	0xbe183c8b	-0.14866845
84	0x3e73a349	0.23792757
85	0xbbfbe07b	-0.0076866723
86	0x3c29c594	0.010362048
87	0xbe11f259	-0.14252605
88	0xbbef8b38	-0.0073102973
89	0x3d161f2e	0.03665083
90	0x3e960ea6	0.2930805
91	0xbdc86613	-0.09785094
92	0x3eab70c8	0.33484483
93	0xbe48ce37	-0.19609915
94	0xbe48dc2d	-0.1961524
95	0x3e35dac8	0.1775924
96	0xbf006624	-0.50155854
97	0xbf0fdb45	-0.56193954
98	0xbeb9fc36	-0.36325234
99	0xbec414aa	-0.38297015
100	0xbe15fae8	-0.14646494
101	0xbe86b7ac	-0.26312006
102	0xbbe8f52a	-0.007109304
103	0x3e06a091	0.13147189
104	0x3eac9998	0.33710933
105	0xbd99617e	-0.07489298
106	0xbbffc76c	-0.0078057554
107	0xbc4ba599	-0.012429618
108	0xbe1b9ad6	-0.15195784
109	0xbf31cfec	-0.6945789
110	0xbf1f3728	-0.62193537
111	0xbd0e28da	-0.034706928
112	0xbe21dcc3	-0.1580687
113	0xbe2d10e7	-0.16900979
114	0x3e4a82cd	0.19776459
115	0xbdc8a072	-0.097962275
116	0xbf306c1f	-0.6891498
117	0xbd194d6a	-0.037427343
118	0xbd7c34ec	-0.061573908
119	0x3e97f391	0.29678014
120	0x3cf8f8b1	0.030392023
121	0xbe54b7e2	-0.2077327
122	0xbc85120d	-0.016243959
123	0xbed70e42	-0.42003065
124	0xbf20dc35	-0.6283601
125	0x3db96878	0.09053129
126	0xbe0c0fbc	-0.13677877
127	0xbea94ae3	-0.33064947
128	0xbf182bfd	-0.5944212
129	0x3e016581	0.12636377
130	0x3e75661a	0.2396473
131	0x3f131e46	0.5746807
132	0xbec9ffa1	-0.39452842
133	0xbd09f000	-0.033676147
134	0xbf43df0e	-0.7651223
135	0x3ead33b3	0.33828506
136	0x3f0cdc8b	0.5502402
137	0x3c1ff47d	0.00976288
138	0x3d9789f8	0.07399362
139	0xbcf30b8b	-0.02966859
140	0xbee2174a	-0.44158393
141	0xbe0d19b5	-0.13779338
142	0xbee45c7f	-0.4460182
143	0xbf100e85	-0.56272155
144	0x3e128adb	0.14310782
145	0xbe1a48a6	-0.15066776
146	0x3f447435	0.7673982
147	0x3c23fa3f	0.010008394
148	0x3e053154	0.13007098
149	0xbe116021	-0.14196827
150	0x3d0d73ca	0.034534253
151	0xbe450195	-0.19238885
152	0xbefdf2c5	-0.4959928
153	0x3e83ca28	0.2574017
154	0x3eabd46f	0.3356051
155	0xbe32cc02	-0.17460635
156	0x3f037c93	0.5136196
157	0x3de2c23d	0.11072204
158	0x3e2f0987	0.17093478
159	0x3e8ba6aa	0.27275592
160	0xbe7cb1cc	-0.24677199
161	0xbe81a23a	-0.25319082
162	0x3ea7e236	0.32789773
163	0x3d6d2bac	0.057902977
164	0xbe835a7d	-0.25654975
165	0x3ef74d5f	0.48301217
166	0x3d5ef88c	0.05443625
167	0xbdce1750	-0.1006304
168	0xbdca487c	-0.098771065
169	0xbe62e995	-0.22159417
170	0x3e014aad	0.12626143
171	0x3f115779	0.567741
172	0x3efe3e81	0.49657062
173	0xbf5b0acb	-0.85563344
174	0x3e683a36	0.22678456
175	0xbe30c977	-0.17264353
176	0xbed871c3	-0.42274293
177	0xbcfed9c6	-0.031109702
178	0x3c66b904	0.014082197
179	0x3b638c24	0.0034720981
180	0xbebb1bae	-0.36544555
181	0xbed1b6c2	-0.40959746
182	0x3faf1fb8	1.3681555
183	0xbd93dc1d	-0.07219718
184	0xbe68fe04	-0.2275315
185	0x3dd88ca7	0.10573702
186	0x3e6a3f7e	0.22875783
187	0x3e110e0b	0.14165513
188	0xbd56ea11	-0.052469317
189	0x3db8ece4	0.09029558
190	0xbe54aa2a	-0.20768037
191	0xbe1397ff	-0.1441345

actor.init_internal_node_embed.0.add_bias._bias f4 [32, 1]
0	0x3cb18c47	0.021673335
1	0xbe6ece57	-0.233209
2	0xbbcdca02	-0.0062801847
3	0xbcac3a77	-0.021023972
4	0x3e147b29	0.14500107
5	0x3cfb6b8c	0.03069093
6	0x3bb4d904	0.0055190343
7	0xbbe1f26f	-0.0068953554
8	0x3d361755	0.044455845
9	0x3dd7fe50	0.10546553
10	0x3b556865	0.0032563445
11	0x3c9303b5	0.017946104
12	0xbb7ff82d	-0.0039057836
13	0xbb2a61ee	-0.0025998312
14	0xbc5ae82f	-0.013361021
15	0x3cf11007	0.029426588
16	0xbe9d883e	-0.30768007
17	0xbd77b231	-0.06047267
18	0x3d2a4f92	0.04157979
19	0x3a04bc5a	0.0005063467
20	0xbe8350ae	-0.2564749
21	0x3d6d285b	0.057899814
22	0x3d548a61	0.05188978
23	0x3dfa6f25	0.122282304
24	0x3d08e4e3	0.03342141
25	0x3b36e3c8	0.0027906764
26	0x3bb6f943	0.0055839135
27	0x3d952b28	0.07283622
28	0x3cdbc795	0.026828567
29	0xbd3f4c9c	-0.04670392
30	0x3d91a700	0.07111931
31	0xbd8bf40c	-0.068336576

actor.init_internal_node_embed.2.module.weight f4 [64, 32]
0	0x3dc24cab	0.094872795
1	0x3e365d33	0.1780899
2	0x3d303799	0.043021772
3	0x3e321b4f	0.1739323
4	0x3d0828d0	0.033242047
5	0x3dab1aba	0.08354707
6	0x3d826fa2	0.063689485
7	0x3f0f6cea	0.56025565
8	0x3eba46e7	0.3638222
9	0xbd981fe9	-0.074279614
10	0x3f4ae89c	0.79261184
11	0x3d8f96c6	0.070111796
12	0x3dca674f	0.09882986
13	0xbe653961	-0.2238517
14	0xbf30c608	-0.6905217
15	0x3eb4191c	0.35175407
16	0xbca14b7c	-0.019689314
17	0x3e4a65e5	0.19765432
18	0xbc1082c9	-0.008820244
19	0x3e871ff2	0.2639156
20	0xbe62fc4c	-0.22166556
21	0x3e50475f	0.20339726
22	0x3f93014b	1.148477
23	0xbe230194	-0.15918571
24	0x3f0c8de9	0.5490404
25	0x3e9ea8a6	0.30988044
26	0x3e019294	0.12653571
27	0x3e6cf941	0.23141958
28	0x3e9b719e	0.3036012
29	0xbd9c0d20	-0.07619691
30	0xbd1e2c4b	-0.03861646
31	0x3b758c7f	0.0037467775
32	0x3eb6b6e4	0.3568641
33	0x3d9de815	0.07710282
34	0xbef8d03f	-0.4859638
35	0xbf074618	-0.5284133
36	0xbbee8d1b	-0.0072800047
37	0x3e900a8f	0.28133056
38	0x3d65aeaa	0.056074776
39	0xbecd132f	-0.40053698
40	0xbe9ca91e	-0.30597776
41	0x3ddc95e1	0.10770775
42	0x3f1104fd	0.56648237
43	0x3e906bea	0.28207332
44	0x3ea1c97f	0.31599042
45	0x3dcc5dcc	0.09978828
46	0xbbd8b14e	-0.0066129332
47	0x3ea2b623	0.31779584
48	0xbd759023	-0.059951913
49	0x3cfb5b8f	0.030683307
50	0xbe0b9c82	-0.13633922
51	0xbe08427a	-0.13306609
52	0x3d1315b6	0.035909377
53	0x3ecd7cd2	0.40134293
54	0x3f61b8e3	0.8817274
55	0x3eb5cfe0	0.3551016
56	0xbdf99a0a	-0.12187584
57	0x3d857f85	0.06518463
58	0x3d15df91	0.036590163
59	0x3d927737	0.07151645
60	0x3f1d992f	0.61561865
61	0x3e815c0f	0.25265548
62	0x3b565aca	0.0032707923
63	0xbd8f3475	-0.06992427
64	0xbe84e72e	-0.25957626
65	0xbcc0b009	-0.02352144
66	0x3f0bda00	0.54629517
67	0x3f0116ff	0.50425714
68	0x3ef8045f	0.48440835
69	0xbcc52eec	-0.024070226
70	0xbe17158c	-0.14754313
71	0x3f728bfe	0.9474486
72	0xbe1e9034	-0.15484697
73	0xbe1874cf	-0.14888309
74	0xbeeaf8f2	-0.45893055
75	0xbf0b841e	-0.5449847
76	0xbdaef44f	-0.08542692
77	0x3e30c790	0.17263627
78	0x3e8f1e69	0.2795289
79	0xbecccd2b	-0.4000028
80	0xbdf443e4	-0.119270116
81	0x3e0e2ea1	0.13884975
82	0x3c000842	0.007814469
83	0xbed6301a	-0.41833574
84	0xbd2bf40b	-0.041980784
85	0x3ebce508	0.36893487
86	0xbdc0ba8f	-0.09410583
87	0xbe8a0605	-0.26957718
88	0x3beebea0	0.007285908
89	0xbd8c93aa	-0.06864102
90	0x3e3bda24	0.18344933
91	0x3e08aff4	0.13348371
92	0x3e15afbb	0.14617817
93	0xbe1c685b	-0.15274183
94	0x3e447a36	0.19187245
95	0x3d95a299	0.07306404
96	0xbd5fc01f	-0.05462658
97	0xbe5b824b	-0.21436422
98	0x3d4c4e1d	0.049879182
99	0x3ec91208	0.3927157
100	0x3e2a46f9	0.16628636
101	0xbcd78a42	-0.026311044
102	0x3d002443	0.031284582
103	0xbcadd96a	-0.021221835
104	0x3e146470	0.14491439
105	0x3d756976	0.05991503
106	0x3e0f1fa0	0.13976908
107	0xbbc79446	-0.0060906736
108	0xbe6d36b9	-0.23165406
109	0x3d6e0c3d	0.05811714
110	0xbea42f88	-0.32067513
111	0x3e1ae868	0.15127718
112	0x3ddf271a	0.1089613
113	0xbe88ba14	-0.26704466
114	0x3dc721bb	0.097232305
115	0x3e3610c1	0.17779829
116	0xbe81d5fd	-0.25358573
117	0x3f0387f0	0.513793
118	0xbe3ebc68	-0.18626559
119	0x3e1adb8b	0.15122811
120	0x3e95dadb	0.29268536
121	0xbc6ff4e5	-0.01464579
122	0x3e01b757	0.12667595
123	0x3ecaabdc	0.39584243
124	0x3e3c0ba1	0.18363811
125	0xbdca05ec	-0.09864411
126	0xbe89b2e5	-0.26894298
127	0x3e3a0e01	0.18169405
128	0x3e9fa9f9	0.31184366
129	0xbddf90d9	-0.109162994
130	0xbe159a70	-0.14609694
131	0x3dc96fcf	0.09835779
132	0xbf16c1b2	-0.58889306
133	0xbd9cc240	-0.07654238
134	0x3e92b3af	0.28652713
135	0xbf1eb85c	-0.6200006
136	0xbf082253	-0.53177375
137	0x3ed2f8a2	0.41205317
138	0x3e9512fc	0.29116046
139	0x3ec55eaf	0.385488
140	0xbdee6926	-0.11641149
141	0xbe458802	-0.19290164
142	0x3e487c18	0.19578588
143	0xbdb7d186	-0.0897551
144	0x3c6a077b	0.01428401
145	0xbd93a2d7	-0.072087936
146	0x3c869254	0.016427197
147	0xbd05e805	-0.032691974
148	0xbe0cafd2	-0.13738945
149	0x3eddac50	0.43295527
150	0x3dedd87e	0.11613558
151	0x3c5ad6bb	0.01335686
152	0xbe5bdb3c	-0.2147035
153	0x3e9a7c04	0.3017274
154	0x3ea2b055	0.31775156
155	0x3e259ffb	0.16174309
156	0x3f04ec76	0.5192331
157	0x3d4739c7	0.048639085
158	0x3e195fd6	0.14977965
159	0xbdd8f99c	-0.10594484
160	0xbe96dd15	-0.29465547
161	0xbdd5b4dc	-0.10434887
162	0xbbac747b	-0.005262909
163	0xbbfb9a99	-0.0076783416
164	0x3f5d3a9b	0.8641755
165	0xbe74a781	-0.23892023
166	0xbe2be2d3	-0.16785745
167	0x3ea651ad	0.3248419
168	0x3d93fe0a	0.072261885
169	0xbe83f3f6	-0.25772065
170	0x3f5e0ddb	0.8673989
171	0xbec0a847	-0.37628385
172	0x3d63e1aa	0.055635132
173	0xbdc98264	-0.09839323
174	0x3def089e	0.116715655
175	0x3e91a743	0.28447923
176	0x3e5af988	0.21384251
177	0x3e5182d2	0.2046006
178	0xbd8e20af	-0.06939828
179	0xbd081a4f	-0.033228215
180	0xbd015ab2	-0.031580634
181	0x3e000ee6	0.12505683
182	0x3eeea326	0.46608847
183	0xbf025533	-0.50911254
184	0x3e50ef3d	0.20403762
185	0x3e9ea21c	0.30983055
186	0x3e78828c	0.2426855
187	0x3f055a43	0.52090853
188	0xbc187f81	-0.009307743
189	0xbd986c96	-0.07442586
190	0x3bf0ce01	0.0073487763
191	0x3e825f7b	0.2546347
192	0x3ea7ba53	0.32759342
193	0x3bb938c8	0.005652521
194	0x3d7c7bb7	0.06164142
195	0xbd31b3b1	-0.043384258
196	0x3ee86a09	0.45393398
197	0x3cd8293d	0.026386851
198	0xbe965e53	-0.2936884
199	0x3e4512a9	0.192454
200	0xbca41ff1	-0.020034762
201	0xbdce2f43	-0.10067608
202	0x3e779e1e	0.2418141
203	0xbe44c3a2	-0.19215253
204	0xbe8a5715	-0.27019563
205	0xbd8db1ad	-0.069186546
206	0x3dfa6ea4	0.12228134
207	0xbf00b3f3	-0.5027458
208	0x3b6c09d9	0.0036016612
209	0xbec88deb	-0.39170775
210	0x3d81a902	0.06331064
211	0x3bd69790	0.0065488294
212	0xbb034b14	-0.0020033764
213	0x3dce21e3	0.10065057
214	0xbbfcc8a4	-0.007714348
215	0x3e32223f	0.17395876
216	0xbe841b27	-0.25801966
217	0x3cc6e11b	0.02427726
218	0xbe3e2125	-0.18567331
219	0x3ec4568c	0.3834728
220	0xbec0a84e	-0.37628406
221	0x3d3c7342	0.046008356
222	0xbe9e8a35	-0.3096482
223	0xbdc0b08e	-0.09408675
224	0xbdcfabd1	-0.10140193
225	0xbdf1c07b	-0.11804291
226	0xbecf23dc	-0.40457046
227	0xbea16773	-0.31524238
228	0xbecb3b47	-0.39693663
229	0xba406662	-0.0007339475
230	0x3e4cfef7	0.20019136
231	0xbd44b84c	-0.04802732
232	0x3ca52c97	0.020162864
233	0x3e3273d2	0.17426994
234	0x3ee63867	0.44964907
235	0x3eddc7ff	0.43316647
236	0xbe28cc3f	-0.16484164
237	0x3e216e91	0.15764834
238	0xbd929aa2	-0.071584
239	0xbe1806eb	-0.14846389
240	0xbd5052a4	-0.050860062
241	0xbea6fea9	-0.32616165
242	0x3e6caff1	0.23113991
243	0x3dffd6b7	0.124921255
244	0x3ccbb3ba	0.024865974
245	0xbeae3c03	-0.3403016
246	0x3f28d075	0.6594308
247	0x3d7227b2	0.059119888
248	0xbeb9317f	-0.36170575
249	0x3de41d8b	0.111384474
250	0xbe905ab8	-0.28194213
251	0xbe8e2fcc	-0.2777084
252	0x3f3c868e	0.73642814
253	0x3e63ea9b	0.22257464
254	0x3ec255ca	0.37956077
255	0xbdcc82b6	-0.09985869

actor.init_internal_node_embed.2.add_bias._bias f4 [64, 1]
0	0x3e4ed0c0	0.2019682
1	0x3e914d88	0.28379464
2	0xbd30d4b0	-0.043171585
3	0x3dd3a93f	0.103350155
4	0x3e0abe0e	0.13549063
5	0x3ea183b0	0.31545782
6	0x3ce66fe1	0.02812952
7	0x3e0bed68	0.13664782
8	0xbd8111f6	-0.06302254
9	0xbdcbd3fb	-0.099525414
10	0x3bfb991b	0.0076781637
11	0x3d2b4019	0.041809175
12	0xbd7a1fde	-0.061065547
13	0x3deca542	0.11554958
14	0x3e15acd0	0.14616704
15	0x3e090bc1	0.1338339
16	0xbb403d4e	-0.0029333415
17	0xbe549190	-0.20758653
18	0x3c9459da	0.01810925
19	0x3da8ff1b	0.082517825
20	0xbcb5c8ec	-0.022190534
21	0x3d53c442	0.051700838
22	0xbd58d71b	-0.052939516
23	0xbdc79745	-0.09745649
24	0x3e337cc5	0.17528065
25	0xbc814e2f	-0.015784351
26	0xbc1862e3	-0.00930092
27	0x3d7a0c68	0.061046988
28	0xbde17744	-0.11009076
29	0xbd02be24	-0.031919613
30	0xbbc15544	-0.005900057
31	0xbcaeb378	-0.021325812
32	0x3d9142ca	0.07092817
33	0x3d74ae78	0.0597367
34	0x3e89f05e	0.26941198
35	0xbdd78671	-0.105236895
36	0x3d1a08c6	0.037606023
37	0xbe104897	-0.14090191
38	0xbcd6ef87	-0.026237262
39	0x3e414d75	0.18877204
40	0xbd8a04dc	-0.06739208
41	0xbe7362e0	-0.23768187
42	0x3e33b0b6	0.17547879
43	0x3c433205	0.011913781
44	0xbe10079d	-0.14065404
45	0xbd256b78	-0.040385693
46	0xbea796d6	-0.32732266
47	0xbe94fef6	-0.2910077
48	0x3e791f62	0.24328378
49	0x3ca6055d	0.02026623
50	0x3db22ec0	0.08700323
51	0x3d61ec61	0.05515707
52	0x3c617ff6	0.013763418
53	0x3b96e6df	0.0046051587
54	0xbca76356	-0.02043311
55	0x3e63ec7a	0.22258177
56	0x3e66e0f2	0.22546747
57	0xbd8ebe2c	-0.06969866
58	0x3bd6f57a	0.006560025
59	0x3da0ad29	0.07845528
60	0x3d810989	0.06300647
61	0x3de3b629	0.11118729
62	0xbd081e79	-0.033232186
63	0x3d3befaf	0.045882877

actor.init_leaf_node_embed.0.module.weight f4 [32, 8]
0	0xbda490d1	-0.08035434
1	0xbeb09449	-0.34488133
2	0xbec84d40	-0.39121437
3	0xbd8a8eed	-0.06765542
4	0x3e2cab9b	0.16862337
5	0x3ebce56b	0.36893782
6	0x3efdbaae	0.49556488
7	0x3e8a0761	0.26958755
8	0xbeb7914a	-0.35853034
9	0xbf27b38f	-0.6550836
10	0xbda45f28	-0.08025962
11	0xbeb464b1	-0.3523307
12	0xbe823157	-0.25428268
13	0x3eaefd6b	0.34177718
14	0xbcb4d3e4	-0.022073694
15	0x3ebabde5	0.36473003
16	0x3e405265	0.18781431
17	0xbebd541b	-0.3697823
18	0xbe0f281c	-0.13980144
19	0x3ed71d63	0.42014608
20	0xba91f0d6	-0.0011134397
21	0xbea020a0	-0.3127489
22	0xbd682d08	-0.05668357
23	0xbd8a1e79	-0.067440934
24	0xbecfb4f8	-0.40567756
25	0xbe50f62d	-0.20406409
26	0xbe7a08c1	-0.24417402
27	0xbe804349	-0.25051335
28	0x3eae6e76	0.3406865
29	0x3d31a4ba	0.043369986
30	0x3ee70d99	0.45127562
31	0x3de9e4b1	0.114205725
32	0xbd5c9eb9	-0.053862307
33	0xbe43aea9	-0.19109596
34	0x3d8c65c2	0.06855346
35	0x3e01ebe4	0.12687641
36	0x3ec221f5	0.37916532
37	0x3e05cfcf	0.13067554
38	0xbeff5005	-0.49865738
39	0x3ec852a0	0.39125538
40	0x3db84c3b	0.08998915
41	0x3e1acd7c	0.15117449
42	0xbf06ef55	-0.5270894
43	0x3e27cdcf	0.16387103
44	0xbef2871e	-0.4736871
45	0x3f05ded4	0.52293134
46	0xbdfaade4	-0.12240198
47	0xbe838a89	-0.2569163
48	0xbeac6bfe	-0.33676142
49	0xbe2339f7	-0.1594008
50	0xbd9dd90c	-0.07707414
51	0x3d83fe24	0.06444958
52	0x3e04fbfa	0.12986746
53	0xbe346a50	-0.1761868
54	0xbdcc6865	-0.09980849
55	0xbde01580	-0.10941601
56	0x3ebc853c	0.368204
57	0xbee0fd2f	-0.43943164
58	0x3e7e594f	0.24838756
59	0x3eea7446	0.45791835
60	0xbd0c5753	-0.034262966
61	0x3ec8e017	0.39233467
62	0x3d381e3e	0.044950716
63	0x3e66c219	0.2253498
64	0x3dce5bc7	0.10076099
65	0x3e07bd14	0.13255721
66	0xbe27b1ec	-0.16376466
67	0x3eac374a	0.33635932
68	0x3dbdcda6	0.0926774
69	0x3db2f3c9	0.087379046
70	0x3efb1266	0.49037474
71	0x3eb22f08	0.34801507
72	0xbdb14da1	-0.08657385
73	0x3eacb764	0.33733666
74	0xbe39e4ba	-0.18153659
75	0x3e9945d0	0.29936075
76	0x3ceb0933	0.02869091
77	0xbdf26a62	-0.11836697
78	0x3ee7a1b2	0.4524055
79	0xbe9905c9	-0.29887226
80	0x3d8144c0	0.06311941
81	0x3df201d5	0.11816756
82	0x3e8f47a3	0.27984342
83	0xbda25795	-0.07926861
84	0x3ea6d892	0.32587105
85	0xbcac91fc	-0.021065705
86	0xbe45b2c8	-0.19306481
87	0x3cad61e2	0.021164838
88	0xbe86b0d4	-0.26306784
89	0x3d3741b0	0.04474038
90	0x3e3d437c	0.18482774
91	0x3d96e8bc	0.07368609
92	0x3eeb07c7	0.4590437
93	0x3dd012c7	0.101598315
94	0xbc888392	-0.0166643
95	0xbeb7411b	-0.3579186
96	0x3ec7ee10	0.39048815
97	0x3d8534f9	0.06504244
98	0x3f1161bc	0.56789756
99	0xbeaf6476	-0.34256333
100	0xbd9bbed5	-0.07604758
101	0xbd8aa892	-0.067704335
102	0x3ebbf32c	0.36708963
103	0xbdeec120	-0.116579294
104	0xbe8e2fb1	-0.2777076
105	0x3c7821b5	0.015144755
106	0x3e8e4968	0.2779038
107	0xbe39ff29	-0.18163742
108	0xbe7b3d7a	-0.2453517
109	0xbe7c0549	-0.24611391
110	0x3eb62cc3	0.35581025
111	0x3d9c2aa3	0.0762532
112	0x3e35ed55	0.17766316
113	0xbd0fa176	-0.03506609
114	0x3e23e8cd	0.16006775
115	0x3ee5f788	0.44915414
116	0x3e031497	0.12800823
117	0x3ed29cb2	0.41135174
118	0x3de94312	0.11389746
119	0xbd94f0af	-0.07272469
120	0x3effcd3e	0.49961275
121	0x3deec707	0.11659055
122	0xbded463e	-0.11585663
123	0xbf03c354	-0.5146992
124	0x3e54c316	0.20777544
125	0x3eee406b	0.46533522
126	0x3d124a72	0.035715528
127	0xbe9c02cf	-0.30470893
128	0xbd6ed53f	-0.058308836
129	0x3dcbec87	0.099572234
130	0xbe9454cc	-0.28970945
131	0x3eb92eb8	0.36168456
132	0x3e32d8b5	0.1746548
133	0x3caf22df	0.021378933
134	0xbe77f7e4	-0.24215657
135	0x3da090b2	0.078400984
136	0xbdbf2c96	-0.09334676
137	0x3ebbda45	0.36689964
138	0x3dd5cf6e	0.10439955
139	0x3db2f701	0.087385185
140	0xbe89b525	-0.26896015
141	0x3db74fee	0.08950792
142	0x3e3de466	0.18544158
143	0x3e936ec6	0.2879545
144	0xbe4b0e51	-0.1982968
145	0x3d68af17	0.056807604
146	0x3d8cd954	0.068773896
147	0xbeb87e82	-0.36034018
148	0xbe7bbe1e	-0.24584243
149	0x3eb9ae8f	0.3626599
150	0x3d48bb5c	0.049006805
151	0x3df4d329	0.11954338
152	0xbebfc0c6	-0.37451762
153	0x3de3fcb3	0.11132183
154	0xbdd19850	-0.102341294
155	0x3e886e24	0.2664653
156	0x3d96685a	0.07344122
157	0x3f05297c	0.52016425
158	0xbdb772ae	-0.0895742
159	0x3dd91ab7	0.106007986
160	0xbe7b8240	-0.24561405
161	0xbe8cc5af	-0.2749457
162	0xbe9bccbe	-0.30429643
163	0xbd32ee2b	-0.043684166
164	0x3cde035f	0.027101217
165	0x3ed49ef9	0.41527537
166	0xbe10a5a2	-0.14125684
167	0xbe862f68	-0.26208043
168	0x3e111222	0.14167073
169	0xbe1397b1	-0.14413334
170	0x3ef5d6ac	0.48015344
171	0xbdeedede	-0.11663602
172	0x3ca9f52c	0.02074679
173	0xbdde23ad	-0.10846648
174	0xbe47a64e	-0.19497034
175	0x3d6d99a4	0.05800785
176	0xbea1668b	-0.31523547
177	0x3eb59e47	0.3547232
178	0x3c4340d9	0.011917316
179	0x3e9fdb47	0.31221983
180	0x3e7c3d28	0.24632704
181	0x3e3b4cec	0.18291062
182	0x3df1c9c3	0.11806061
183	0x3e076341	0.13221456
184	0xbe933bda	-0.287566
185	0xbe174b4e	-0.1477482
186	0x3d98e104	0.07464793
187	0xbd9b042b	-0.07569154
188	0x3eea3a09	0.45747402
189	0xbd441fcf	-0.047881898
190	0xbd17a27f	-0.037020203
191	0xbd7e7b2a	-0.062129177
192	0x3d80fc7c	0.062981576
193	0x3da07431	0.07834662
194	0x3e833644	0.2562734
195	0xbcb69859	-0.022289442
196	0x3e699df2	0.22814158
197	0x3d747434	0.059681132
198	0xbc8cbb4c	-0.017179154
199	0x3efce8d4	0.49396384
200	0x3e9a0449	0.30081394
201	0x3e5a3a63	0.21311335
202	0xbefa0081	-0.4882851
203	0xbea56be0	-0.32308865
204	0x3d246100	0.04013157
205	0xbcae4390	-0.02127245
206	0x3d3fcb40	0.046824694
207	0xbe99970f	-0.2999806
208	0x3e77643a	0.24159327
209	0xbe30353c	-0.17207807
210	0x3dfc13a1	0.123084314
211	0x3ed4fc54	0.4159876
212	0x3e1f577b	0.15560715
213	0x3deedfc2	0.11663772
214	0x3ee3f336	0.44521493
215	0xbe8e7b1c	-0.278283
216	0x3d38b5c9	0.04509524
217	0xbe33685c	-0.17520279
218	0xbec260d8	-0.3796451
219	0x3e0a6cd2	0.13518074
220	0x3f1a8796	0.6036314
221	0xbd843be9	-0.064567395
222	0x3e5e31ba	0.21698657
223	0x3eba74ee	0.36417335
224	0x3e9c5c7e	0.30539316
225	0xbe03c903	-0.12869649
226	0xbe205200	-0.1565628
227	0xbde3e97a	-0.111285165
228	0x3c7e7a90	0.015532151
229	0xbebf2797	-0.37334892
230	0x3dd158bd	0.102220036
231	0x3e500625	0.20314844
232	0x3de2e71d	0.110792376
233	0x3e7768c7	0.24161063
234	0xbe3f7f09	-0.18700804
235	0xbe5858c6	-0.21127614
236	0x3e96eb06	0.29476184
237	0x3c1a37da	0.00941273
238	0xbe5e4b3e	-0.2170839
239	0x3e28dc8f	0.16490386
240	0x3e8a5612	0.2701879
241	0x3edae090	0.42749453
242	0xbee1f2fe	-0.441307
243	0xbe334eb0	-0.17510486
244	0xbe6999b8	-0.22812545
245	0xbe2115b7	-0.1573094
246	0xbd100d71	-0.03516907
247	0x3ee99f59	0.45629385
248	0x3de7feca	0.11327894
249	0x3ed504ed	0.4160532
250	0xbd72c1fa	-0.05926702
251	0xbe607f09	-0.2192346
252	0x3df6253e	0.12018822
253	0x3ec60800	0.3867798
254	0x3e303c45	0.17210491
255	0xbdc6d1b5	-0.09707967

actor.init_leaf_node_embed.0.add_bias._bias f4 [32, 1]
0	0x3c42c4ad	0.0118877115
1	0x3cce6607	0.025195135
2	0x3bf23aff	0.007392287
3	0x3c07c4be	0.008286653
4	0xbdeda842	-0.11604358
5	0x3c75a30b	0.014992486
6	0xba80f876	-0.0009839672
7	0xbcd73950	-0.026272446
8	0x3da0db9d	0.07854388
9	0x3d0e2ce8	0.034710795
10	0x3d217561	0.039418582
11	0xbcf9be83	-0.03048635
12	0x3ae9daa0	0.0017841645
13	0xbda9b73c	-0.08286902
14	0x3e0428aa	0.12906137
15	0x3ae8e233	0.0017767608
16	0xbd224cfb	-0.039624196
17	0xbd458b51	-0.048228566
18	0x3c3b0599	0.011414909
19	0xbb6c19be	-0.0036026086
20	0x3d11ddfe	0.0356121
21	0x3d235b28	0.039881855
22	0x3df6f650	0.12058699
23	0xbcad2cfd	-0.021139616
24	0x3c3386cf	0.010957434
25	0x3c3ff497	0.01171603
26	0x3dbaa69b	0.09113809
27	0xbcb2aecd	-0.021811867
28	0xbd7e4e02	-0.062086113
29	0x3b359ded	0.002771254
30	0xb9ab9a9f	-0.00032730863
31	0xbe1c3a83	-0.15256695

actor.init_leaf_node_embed.2.module.weight f4 [64, 32]
0	0x3e296355	0.16541798
1	0x3ec02afe	0.375328
2	0x3dc8b011	0.09799207
3	0x3e08ca77	0.13358484
4	0xbe8ba891	-0.27277043
5	0x3e932b71	0.2874408
6	0x3e9b00b6	0.3027398
7	0xbe68b8e7	-0.22726785
8	0x3cd229d1	0.025654705
9	0x3e1cb39e	0.15302894
10	0xbbc1f0a0	-0.0059185773
11	0xbd6f6216	-0.05844315
12	0xbed27c60	-0.41110516
13	0xbe0c8175	-0.13721259
14	0x3e295fca	0.16540447
15	0x3dd59ece	0.1043068
16	0x3e5c4061	0.21508934
17	0xbdd16408	-0.102241576
18	0x3e6bbd4b	0.23021428
19	0x3e9833d8	0.29727054
20	0x3f25cc0d	0.6476448
21	0xbf01ec74	-0.50751424
22	0x3f1c74e3	0.61115855
23	0x3ed3be79	0.41356257
24	0x3ca2cb10	0.019872218
25	0x3d0c3911	0.03423411
26	0x3c19a963	0.009378764
27	0x3ed07e27	0.40721247
28	0xbe03dcd5	-0.1287721
29	0x3df75b2e	0.12077938
30	0x3e5927d8	0.21206605
31	0xbe9b22fb	-0.30300125
32	0xbe591557	-0.21199547
33	0xbe3017b7	-0.17196546
34	0xbda1af7c	-0.07894799
35	0xbe3e8089	-0.1860372
36	0xbe882673	-0.26591834
37	0x3e8c3f46	0.27392024
38	0xbe7338b0	-0.23752093
39	0x3e782b52	0.24235275
40	0x3e97b103	0.29627237
41	0xbeb6bb0d	-0.35689583
42	0x3de7d76f	0.113203876
43	0xbdb1b8a6	-0.08677797
44	0x3e54f99e	0.20798346
45	0x3d205504	0.039143577
46	0x3d5410b7	0.051773753
47	0x3d47de40	0.04879594
48	0x3e2afe9a	0.16698685
49	0x3e1117fc	0.14169306
50	0x3db07767	0.08616524
51	0xbef9dd63	-0.48801717
52	0xbeb5e0aa	-0.35522968
53	0x3f116ddb	0.5680825
54	0x3e35bbeb	0.17747466
55	0x3e822b0a	0.2542346
56	0x3e09ecf8	0.13469303
57	0x3e2e15d7	0.17000519
58	0x3e03e91a	0.1288189
59	0xbdb67839	-0.089096494
60	0x3daf67f1	0.08564747
61	0xbd0bc2b7	-0.03412124
62	0x3e717714	0.23580581
63	0xbe421421	-0.18952991
64	0xbd87d325	-0.066320695
65	0x3d9ca10d	0.076479055
66	0x3e005f36	0.1253632
67	0xbeae6c4c	-0.34067
68	0x3da9c6b6	0.08289854
69	0xbdb4b76c	-0.088240474
70	0xbdee9951	-0.116503365
71	0xbd347d7f	-0.044064995
72	0xbea2e78b	-0.31817278
73	0x3ecde728	0.4021542
74	0x3d93b930	0.07213056
75	0x3d885208	0.06656271
76	0xbe5aebe1	-0.21379043
77	0x3d29e2a5	0.04147591
78	0x3e1802fc	0.14844888
79	0x3e207406	0.1566926
80	0xbebe2cac	-0.37143457
81	0xbe3d0156	-0.18457541
82	0x3dba6ed5	0.09103171
83	0x3d226640	0.039648294
84	0x3b5874ca	0.0033028596
85	0x3dc40d70	0.095728755
86	0x3dfabbcd	0.122428514
87	0x3e1a2fb5	0.15057261
88	0x3eb65f0b	0.35619387
89	0xbd0d2996	-0.034463488
90	0x3e3204c0	0.17384624
91	0x3c76ea72	0.015070545
92	0xbe1f169d	-0.1553597
93	0x3cc05a0a	0.023480434
94	0xbef92a78	-0.48665214
95	0xbe156e55	-0.1459287
96	0xbe606aee	-0.2191579
97	0x3c9fc438	0.019502744
98	0xbecb2880	-0.39679337
99	0x3ee2ec5b	0.4432095
100	0xbea4a34a	-0.3215583
101	0x3e2fe21f	0.17176102
102	0xbe234b82	-0.15946773
103	0x3e130bed	0.14360018
104	0x3ae33f3b	0.001733757
105	0x3e0f80c1	0.1401396
106	0x3e33dcf6	0.17564759
107	0x3d8ff399	0.070288844
108	0x3f307167	0.6892304
109	0xbe86cc2a	-0.2632764
110	0xbd636fab	-0.055526417
111	0xbd570901	-0.05249882
112	0xbe3a8f93	-0.18218832
113	0x3ea1f828	0.3163464
114	0x3bc86127	0.006115097
115	0x3d7ac2e8	0.061221033
116	0xbee95538	-0.4557283
117	0x3c546397	0.012963197
118	0xbde13997	-0.109973125
119	0xbdd2be06	-0.1029015
120	0x3d3fcee9	0.046828184
121	0xbd19b675	-0.03752752
122	0x3e826892	0.25470406
123	0x3e5268b5	0.20547755
124	0x3e500509	0.20314421
125	0xbdd32a3c	-0.1031079
126	0xbda638e8	-0.08116323
127	0x3e23b77e	0.15987965
128	0xbe693663	-0.22774653
129	0xbebf4f21	-0.37365058
130	0xbe7d5128	-0.2473799
131	0xbe036009	-0.12829603
132	0x3d258cbf	0.04041743
133	0xbe9525c6	-0.2913038
134	0xbe67733e	-0.22602555
135	0xbe5e544e	-0.21711847
136	0xbf1e90f0	-0.6193991
137	0x3e8d81f7	0.27638218
138	0x3d897e1e	0.06713508
139	0xbc195377	-0.0093582785
140	0x3edee32c	0.43532693
141	0xbc8e1348	-0.017343178
142	0xbe6d2c28	-0.23161376
143	0x3e2b3382	0.16718867
144	0x3d81e334	0.06342164
145	0xbde7018d	-0.11279593
146	0xbea2d25a	-0.3180111
147	0xbe4738d8	-0.19455278
148	0x3da2496a	0.07924159
149	0x3e2a27f3	0.16616802
150	0x3de7c6e1	0.1131723
151	0xbd0d3038	-0.034469813
152	0xbe2243d1	-0.15846182
153	0x3c882521	0.016619267
154	0xbce99259	-0.028512167
155	0xbd9d1daf	-0.07671677
156	0xbdaedcd4	-0.08538213
157	0xbb8f177f	-0.0043668146
158	0x3b90ac5a	0.004415077
159	0xbe1dde03	-0.15416722
160	0xbde7b42c	-0.11313662
161	0x3e484943	0.19559197
162	0xbe281c61	-0.16417076
163	0xbeafeaac	-0.34358728
164	0x3e15f21b	0.14643137
165	0x3e18a0c7	0.14905082
166	0x3daf1615	0.08549134
167	0xbe2ee6ed	-0.17080279
168	0xbea2bb4e	-0.31783527
169	0xbdd77c27	-0.10521727
170	0x3baa666a	0.005200197
171	0x3d81c444	0.06336263
172	0xbe33ec09	-0.17570509
173	0xbe6928a9	-0.22769417
174	0x3ee5449c	0.44778907
175	0xbe6f67f1	-0.23379494
176	0x3e6bc006	0.2302247
177	0x3cbe321b	0.023217252
178	0x3c9ebc08	0.01937677
179	0xbd14df32	-0.036345668
180	0x3d3b234b	0.045687955
181	0xbdc691a8	-0.096957505
182	0xbe206508	-0.1566354
183	0xbe90e54c	-0.2829994
184	0xbe5751ce	-0.210273
185	0x3c0cba54	0.008589346
186	0x3d236883	0.039894592
187	0x3e97beef	0.29637858
188	0xbd1c1c4d	-0.038112927
189	0xbce03919	-0.027370976
190	0xbdf794c6	-0.12088923
191	0xbd6027f5	-0.054725606
192	0xbe80be3c	-0.25145137
193	0xbedca504	-0.43094647
194	0xbecbeb09	-0.39827755
195	0xbd4a469a	-0.049383737
196	0xbe4c7f7a	-0.19970503
197	0xbe2f4989	-0.17117895
198	0x3c95e579	0.018297898
199	0x3d115d30	0.03548926
200	0xbb88e283	-0.004177393
201	0xbe11e114	-0.14246017
202	0x3d23fb8d	0.04003482
203	0xbe50affd	-0.20379634
204	0x3e8e03f3	0.27737388
205	0x3dee82ca	0.1164604
206	0xbe47138f	-0.19441055
207	0xbe414792	-0.18874958
208	0xbe2c0cee	-0.16801807
209	0x3ef7d986	0.48408145
210	0x3da090c9	0.078401156
211	0xbd92af05	-0.071622886
212	0x3e1a0dba	0.15044299
213	0x3e5cafda	0.21551457
214	0xbe07ece9	-0.13273968
215	0x3e2f7d92	0.17137745
216	0x3df23cac	0.118279785
217	0x3e888661	0.26665023
218	0xbe669d09	-0.22520842
219	0xbd06d902	-0.0329218
220	0x3e10e13f	0.14148425
221	0xbc673c5e	-0.014113514
222	0xbe8fc979	-0.280834
223	0x3d88a279	0.06671614
224	0x3d7a8c7b	0.06116913
225	0x3eb55551	0.35416654
226	0xbea78a98	-0.32722926
227	0xbe8cd24c	-0.27504194
228	0xbef6faad	-0.48238125
229	0xbe283985	-0.16428192
230	0x3e36de1d	0.17858167
231	0xbe868402	-0.2627259
232	0xbd8c3063	-0.068451665
233	0xbd016684	-0.031591907
234	0x3c485d2e	0.012229247
235	0xbea311c4	-0.31849492
236	0x3e6241c0	0.22095394
237	0xbea900a4	-0.330083
238	0xbeef5d40	-0.46750832
239	0x3c929930	0.017895311
240	0xbe547736	-0.207486
241	0x3de3f15a	0.111300185
242	0xbd34339d	-0.043994535
243	0xbe25d7c1	-0.16195585
244	0xbdb980b9	-0.09057755
245	0x3f343111	0.7038737
246	0xbd3ec2b4	-0.046572402
247	0xbe8f5b50	-0.27999353
248	0xbd8b041f	-0.067878954
249	0x3d5a7e36	0.05334302
250	0xbe407a35	-0.18796618
251	0xbea98a58	-0.3311336
252	0x3e3fcdaa	0.18730798
253	0xbead32f0	-0.33827925
254	0x3e1cba3d	0.1530542
255	0xbcdebf85	-0.027190933

actor.init_leaf_node_embed.2.add_bias._bias f4 [64, 1]
0	0x3e87b391	0.26504186
1	0x3e0e84ec	0.13917893
2	0x3d31dbb3	0.043422412
3	0x3c34676a	0.011010984
4	0xbe39b1ad	-0.18134184
5	0x3c5a134e	0.013310267
6	0xbe50630c	-0.20350283
7	0xbe8d004f	-0.27539298
8	0xbe3e7f4b	-0.18603246
9	0xbe22826e	-0.15870067
10	0x3e8cf68b	0.27531847
11	0xbe15626f	-0.1458833
12	0x3dc95c98	0.09832114
13	0xbdc51aed	-0.09624276
14	0xbdcc6715	-0.09980599
15	0xbd97970a	-0.07401855
16	0x3e10458d	0.14089032
17	0xbe0a02da	-0.1347765
18	0xbe9fa7a6	-0.31182593
19	0xbd1ef3e9	-0.03880683
20	0x3d0a2457	0.033726063
21	0x3da9f09f	0.08297848
22	0x3c7258fe	0.014791725
23	0x3d5c3572	0.053761907
24	0x3e735237	0.23761831
25	0xbd3cab5a	-0.04606185
26	0xbc7be32b	-0.015373985
27	0xbd9c368a	-0.0762759
28	0xbe2f10d7	-0.17096268
29	0x3dd8810b	0.10571488
30	0xbe176f17	-0.14788471
31	0xbcf791ee	-0.030220952
32	0x3dee9ba2	0.11650778
33	0xbd713835	-0.058891494
34	0xbe211205	-0.1572953
35	0x3e1a9a61	0.15097953
36	0x3e69ffc0	0.22851467
37	0xbd0d7511	-0.03453547
38	0xbd315825	-0.04329695
39	0xbdfd7ec1	-0.12377692
40	0x3d8167eb	0.06318649
41	0xbefadc65	-0.48996273
42	0x3e3fe9f6	0.18741593
43	0x3d646ec9	0.055769715
44	0xbe1aa280	-0.15101051
45	0xbd2ecbea	-0.042674936
46	0xbe0ddf37	-0.13854681
47	0xbd3f900e	-0.04676824
48	0xbe6c624f	-0.23084377
49	0x3d4c41b8	0.04986736
50	0xbd617ae6	-0.055048846
51	0xbd8c3bd4	-0.06847349
52	0x3dde201f	0.1084597
53	0xbe28e69f	-0.16494225
54	0xbe445937	-0.19174658
55	0x3de86377	0.113470964
56	0x3c611620	0.013738185
57	0xbe6f59e0	-0.23374128
58	0x3e4204e6	0.18947181
59	0xbe874ae3	-0.26424322
60	0x3e04c6ba	0.12966433
61	0xbdfaaf45	-0.12240461
62	0x3d999c63	0.075005315
63	0x3c838572	0.016054843

actor.init_next_embed.0.module.weight f4 [32, 6]
0	0x3e2e0b0e	0.16996405
1	0xbe1761b2	-0.14783362
2	0xbe9909d2	-0.29890305
3	0xbed463c1	-0.41482356
4	0xbe7952fe	-0.24348065
5	0xbda6d2d1	-0.08145679
6	0x3b9f96e2	0.0048702816
7	0xbdc7ff51	-0.097654946
8	0x3e3f5108	0.18683255
9	0xbe15cd1d	-0.14629026
10	0xbe0aae46	-0.13543043
11	0xbe1d6891	-0.1537192
12	0x3e243069	0.16034092
13	0xbe89160d	-0.26774636
14	0xbe83fc7b	-0.25778565
15	0x3db38bfd	0.08766935
16	0xbe91df8b	-0.28490862
17	0x3eb61660	0.35563946
18	0xbaf8f629	-0.001899426
19	0x3d14fbff	0.036373135
20	0xbd079595	-0.033101637
21	0x3ee19e40	0.44066048
22	0xbedbfe2f	-0.42967364
23	0xbea63f1c	-0.32470024
24	0x3ddc90ed	0.1076983
25	0xbed81352	-0.4220224
26	0xbdfe1b94	-0.12407604
27	0xbe84b88c	-0.25922048
28	0xbdd6ef5d	-0.10494874
29	0xbe32a555	-0.17445882
30	0xbce423ab	-0.027849039
31	0xbf13c5cc	-0.5772369
32	0x3e9129bf	0.28352162
33	0xbf3d9311	-0.7405253
34	0xbe2b3f3b	-0.1672334
35	0x3ddb90bc	0.10720965
36	0x3f5b0ef4	0.8556969
37	0x3dd2c78c	0.10291967
38	0x3d915a90	0.070973516
39	0xbe891362	-0.267726
40	0xbd84c34c	-0.064825624
41	0xbe867dcc	-0.2626785
42	0xbdbb317c	-0.09140298
43	0x3dc959c3	0.09831574
44	0x3e1552b6	0.14582333
45	0x3d937d4f	0.07201635
46	0xbea3792a	-0.31928378
47	0x3e2889a5	0.16458757
48	0xbec75c10	-0.38937426
49	0xbf172879	-0.5904613
50	0x3e7a5438	0.2444619
51	0x3ddecc83	0.10878851
52	0x3fafd2b4	1.3736176
53	0xbf3f1d86	-0.74654424
54	0x3de00de4	0.109401494
55	0xbe95a08d	-0.29224053
56	0xbe3aa602	-0.1822739
57	0x3d901c48	0.07036644
58	0xbea4aeef	-0.32164714
59	0xbed7ac9a	-0.42123872
60	0xbea7d54e	-0.32779926
61	0x3e3a7836	0.1820992
62	0x3c841244	0.016121991
63	0x3ec3faa8	0.38277173
64	0x3e831614	0.25602782
65	0xbeea2210	-0.45729113
66	0x3ee43307	0.4457018
67	0xbcef7ca3	-0.029234236
68	0xbcb12d10	-0.021627933
69	0x3d74b683	0.05974437
70	0x3c935adb	0.01798766
71	0x3e2b4689	0.16726126
72	0xbeb5c43e	-0.35501283
73	0xbd067e91	-0.032835547
74	0x3e155063	0.14581446
75	0x3cb205b0	0.021731228
76	0xbe61476a	-0.21999899
77	0xbea5f353	-0.32412204
78	0x3daa045e	0.08301614
79	0x3c15a80a	0.009134302
80	0x3dfe4654	0.12415758
81	0x3dd94917	0.10609644
82	0xbec61135	-0.38685003
83	0xbd9b9edf	-0.07598662
84	0x3f99cbb8	1.2015295
85	0xbe69892d	-0.22806235
86	0xbe8314da	-0.25601846
87	0xbefe20c0	-0.4963436
88	0xbe6237b5	-0.22091563
89	0x3d98ca81	0.074604996
90	0xbd8b4f08	-0.068021834
91	0xbd823a10	-0.06358731
92	0xbe986d69	-0.29770973
93	0xbeb616fa	-0.35564405
94	0xbdc91d34	-0.09820023
95	0x3e3f3b11	0.18674876
96	0xbe8e9ba4	-0.2785312
97	0xbd0b78cc	-0.034050748
98	0xbde64977	-0.11244481
99	0xbe0af513	-0.13570051
100	0xbed719f7	-0.42011997
101	0x3dc19fd8	0.09454316
102	0x3f124aa0	0.5714512
103	0xbd4ef030	-0.05052203
104	0x3e49bc52	0.19700745
105	0xbe830169	-0.25587013
106	0xbd770ced	-0.06031506
107	0xbbbc4f4a	-0.0057467567
108	0xbd69514c	-0.056962296
109	0x3e93853d	0.2881259
110	0x3e6a1819	0.22860755
111	0x3c2da7a6	0.0105990525
112	0xbd536a88	-0.051615268
113	0x3e8f7861	0.2802153
114	0x3f6102e1	0.8789502
115	0x3e79fe65	0.2441345
116	0xbeb7a9eb	-0.35871825
117	0xbe74cd78	-0.23906505
118	0x3e100969	0.1406609
119	0x3db90e2a	0.09035905
120	0x3e873b7f	0.2641258
121	0x3cd65550	0.026163727
122	0xbd14e459	-0.03635058
123	0xbe0a592f	-0.13510583
124	0xbe8540ac	-0.26025903
125	0x3e1fd8ce	0.15610048
126	0xbcd675c0	-0.026179194
127	0xbe5810e2	-0.2110019
128	0xbf37e023	-0.7182638
129	0xbdc75bf2	-0.09734334
130	0xbe00c8a1	-0.12576534
131	0xbd134542	-0.03595472
132	0x3decdfb9	0.11566109
133	0xbe1745a4	-0.1477266
134	0xbdc775a0	-0.09739232
135	0x3e061a6a	0.13096014
136	0xbeb36d50	-0.35044336
137	0x3d5dea6d	0.054178644
138	0x3f5538b9	0.83289677
139	0xbe88270e	-0.26592296
140	0x3ea96233	0.33082733
141	0xbf0ae154	-0.54250073
142	0x3e81004f	0.25195548
143	0x3f088442	0.5332681
144	0x3fcebe56	1.6151836
145	0xbdcbdc5f	-0.09954142
146	0xbe3ad622	-0.18245748
147	0xbedca6da	-0.43096048
148	0xbe71bd1e	-0.23607299
149	0x3e452f1a	0.19256249
150	0x3e31d9a7	0.17368184
151	0x3e9267b7	0.28594753
152	0xbd83c0a8	-0.06433231
153	0xbe3766b4	-0.17910272
154	0xbe309d18	-0.17247427
155	0xbebe7e60	-0.3720579
156	0x3b707453	0.0036690428
157	0xbea3fe93	-0.32030162
158	0x3e39756c	0.18111199
159	0xbd831973	-0.064013384
160	0xbe70aa69	-0.23502506
161	0xbcf22670	-0.029559344
162	0xbf02fe19	-0.5116897
163	0xbec3c9a3	-0.38239774
164	0xbe414f82	-0.18877986
165	0xbe3d5886	-0.184908
166	0x3e0bfeb7	0.13671385
167	0xbe17f9bf	-0.14841364
168	0x3ecf35c3	0.40470704
169	0x3e529765	0.20565565
170	0xbc9bec0a	-0.01903345
171	0xbfa1efbf	-1.265129
172	0xbd2c6404	-0.04208757
173	0x3e510771	0.20412995
174	0x3ef1d0ea	0.472297
175	0x3e6c43ab	0.23072688
176	0xbeaff5ce	-0.34367222
177	0xbf589a79	-0.84610707
178	0xbdd72f77	-0.105071
179	0x3eb2f3ff	0.3495178
180	0xbe227bf5	-0.15867598
181	0xbe84b2a4	-0.25917542
182	0x3e9767ec	0.29571474
183	0x3de9e632	0.114208594
184	0xbd48d2b1	-0.049029056
185	0x3d3a5dba	0.04549954
186	0x3d9d30a2	0.076752916
187	0xbe67e389	-0.22645392
188	0xbef0b39d	-0.47012034
189	0xbe8754f3	-0.26432
190	0xbd4f9f8c	-0.050689265
191	0x3d89f601	0.06736375

actor.init_next_embed.0.add_bias._bias f4 [32, 1]
0	0x3e17c9f6	0.14823136
1	0x3daa63a6	0.08319788
2	0xbdb2a5f8	-0.08723062
3	0x3c812801	0.015766146
4	0xbb3d3a18	-0.0028873738
5	0xbeaa09b6	-0.33210534
6	0x3dfbbb56	0.12291591
7	0xbde18218	-0.110111415
8	0xbe6abd88	-0.22923863
9	0x3c39ed16	0.01134803
10	0xbe408e4d	-0.18804283
11	0x3eb4e4e1	0.3533087
12	0x3c9b2d12	0.01894239
13	0x3e171980	0.14755821
14	0x3eb2ce86	0.3492319
15	0x3e82d1b9	0.2555063
16	0xbd355fd8	-0.044280857
17	0xbe5a73c6	-0.21333227
18	0xbe5ecc48	-0.21757615
19	0x3ea440c7	0.3208067
20	0xbdeeec4a	-0.11666162
21	0x3cc01bbb	0.023450723
22	0xbe7dfdd6	-0.24803862
23	0xbd56ff81	-0.05248976
24	0x3e8b4261	0.2719908
25	0xbcf17e56	-0.029479187
26	0xbdfff49f	-0.1249783
27	0x3cf78041	0.030212523
28	0x3d012c13	0.031536173
29	0x3e4d8aa4	0.20072418
30	0x3e5e3fce	0.21704027
31	0x3e429b4a	0.1900455

actor.init_next_embed.2.module.weight f4 [64, 32]
0	0x3d881357	0.06644314
1	0xbddf1a51	-0.10893691
2	0xbc6e7157	-0.0145533895
3	0x3e3558b2	0.17709616
4	0x3e165d78	0.14684093
5	0x3da2a897	0.07942312
6	0xbe7b23cf	-0.24525379
7	0xbe6a1117	-0.22858082
8	0xbe37c2d2	-0.17945412
9	0x3e9df8d8	0.30853915
10	0x3da8d501	0.08243752
11	0xbee14a33	-0.44001922
12	0x3dbbf311	0.091772206
13	0x3e9a69d5	0.30158868
14	0xbb99c2d5	-0.0046924152
15	0xbea75fba	-0.3269022
16	0xbe1a957f	-0.1509609
17	0x3d844006	0.06457524
18	0xbc89ea05	-0.016835222
19	0xbe59f307	-0.21284114
20	0x3d812552	0.063059464
21	0xbd6ea96d	-0.058267046
22	0xbef306f2	-0.47466236
23	0xbeac0237	-0.3359544
24	0xbf0d4907	-0.55189556
25	0x3eb2abe7	0.34896776
26	0xbe3062e8	-0.1722523
27	0xbdc11d3e	-0.09429406
28	0x3db1eb86	0.08687501
29	0x3d795194	0.060868815
30	0x3e26e8c9	0.16299738
31	0xbe51e37f	-0.20496939
32	0x3e969c32	0.29416043
33	0xbd675301	-0.056475643
34	0xbde4d48b	-0.11173352
35	0xbd8c9182	-0.06863691
36	0xbdb6a5dc	-0.08918354
37	0xbe27f522	-0.16402104
38	0xbddad662	-0.106854215
39	0xb992f63f	-0.00028030758
40	0x3ebb3ce3	0.3656989
41	0x3d266a31	0.040628616
42	0x3ef4755f	0.47745797
43	0x3eb1492b	0.34626135
44	0xbcc0cd42	-0.023535375
45	0xbd169706	-0.03676512
46	0xbd0970df	-0.033554908
47	0xbd298c39	-0.041393492
48	0x3e38f26e	0.1806123
49	0x3caab753	0.020839369
50	0xbd9c04d4	-0.076181084
51	0x3f001ba2	0.50042164
52	0x3e2e0e2e	0.16997597
53	0x3cbc3a73	0.02297709
54	0x3d6b67e5	0.05747213
55	0xbe689dbd	-0.22716422
56	0xbd980db3	-0.07424488
57	0x3e605560	0.21907568
58	0xbbcc157c	-0.006228147
59	0xbea108b0	-0.3145194
60	0xbd77b34d	-0.06047373
61	0x3dccfef0	0.10009563
62	0xbd1f97b7	-0.038963046
63	0x3c152034	0.009101916
64	0xbdefe987	-0.11714464
65	0x3ce30178	0.027710661
66	0x3de24c16	0.110496685
67	0xbe0bfbb9	-0.13670243
68	0xb98ccfd1	-0.00026857716
69	0x3e4d9073	0.20074634
70	0xbeceacba	-0.40366155
71	0xbeb3abf9	-0.35092142
72	0xbe94d7a4	-0.2907077
73	0xbe139b8f	-0.1441481
74	0x3d222650	0.03958732
75	0x3ec20761	0.37896255
76	0x3db40cf3	0.08791532
77	0xbe89e9bf	-0.26936147
78	0xbf2bcc5d	-0.6710871
79	0x3de91f6c	0.11382946
80	0xbe6cc756	-0.23122916
81	0x3d8362c7	0.06415325
82	0x3e3ba964	0.18326336
83	0x3dd9a064	0.10626295
84	0xbda5df50	-0.08099234
85	0xbda204a3	-0.07911041
86	0xbd5cc38f	-0.053897437
87	0x3eabe35e	0.33571905
88	0xbec90516	-0.39261693
89	0x3dca2c51	0.09871734
90	0xbe558b30	-0.20853877
91	0xbe2bbbbd	-0.16770835
92	0xbee8d1f9	-0.45472696
93	0xbf207037	-0.62671226
94	0xbe807e8c	-0.25096548
95	0xbdd8009d	-0.10546992
96	0xbda50cd6	-0.08059089
97	0x3e26fdd8	0.16307771
98	0x3eb7557a	0.358074
99	0xbdbfb915	-0.093614735
100	0xbe9efda8	-0.310529
101	0x3cd3ea0c	0.025868438
102	0xbeb08aa0	-0.34480762
103	0x3e02dc00	0.12779236
104	0xbe167c41	-0.14695837
105	0x3e743582	0.23848537
106	0xbead1fda	-0.33813363
107	0x3e08d4ba	0.13362399
108	0x3ddf62dc	0.10907528
109	0x3e344fee	0.17608616
110	0xbea5a1d8	-0.3235004
111	0xbe89db94	-0.26925337
112	0xbe26c050	-0.16284299
113	0x3e501fa8	0.20324576
114	0x3d03d126	0.03218188
115	0xbec29ae0	-0.38008785
116	0xbc83cfef	-0.016090361
117	0x3d967bd5	0.07347838
118	0x3e28e80d	0.1649477
119	0x3f2e95fd	0.68197614
120	0xbec19144	-0.3780614
121	0xbedccff5	-0.4312741
122	0xbdbfad4f	-0.09359228
123	0xbea71c05	-0.32638565
124	0xbecfa69f	-0.4055681
125	0xbe1d583a	-0.15365687
126	0x3d768632	0.060186572
127	0xbe840fbf	-0.25793263
128	0xbe2d8f0e	-0.16949102
129	0xbec12b72	-0.3772846
130	0xbdce8b8b	-0.100852095
131	0x3e7ba059	0.24572887
132	0x3def94cc	0.116983026
133	0xbe2d59bb	-0.1692876
134	0xbdc79d1b	-0.09746762
135	0xbdab770b	-0.08372315
136	0x3de779d4	0.11302534
137	0xbdf8c301	-0.12146569
138	0xbe7f7b39	-0.2494935
139	0x3d19ffa7	0.037597325
140	0xbcf6cd52	-0.030127201
141	0x3b097e4f	0.0020979827
142	0x3e2f8577	0.17140757
143	0x3c99a5eb	0.018755874
144	0x3e2a32e3	0.16620974
145	0x3e1c38f3	0.152561
146	0xbe179735	-0.14803775
147	0xbe776201	-0.2415848
148	0xbe2f32e7	-0.17109261
149	0x3dc1c5cf	0.09461557
150	0x3e1cc40e	0.15309164
151	0x3e35d2ee	0.17756245
152	0x3e874562	0.26420122
153	0xbdc071e5	-0.09396724
154	0x3ee35baf	0.44405887
155	0x3e52efef	0.2059934
156	0xbe7f19bf	-0.24912165
157	0xbd4489be	-0.047982924
158	0xbd820c7c	-0.063500375
159	0x3cc3d6a8	0.023906067
160	0xbd0d81b2	-0.034547515
161	0xbc4c2b94	-0.012461562
162	0x3d0d3d18	0.03448209
163	0xbddfca41	-0.10927249
164	0x3eaec65f	0.3413572
165	0x3e54abcb	0.20768659
166	0x3d4c0d6c	0.049817488
167	0x3e10deff	0.14147566
168	0x3daebbaf	0.085318916
169	0x3e5c75f1	0.21529366
170	0x3d1f1782	0.03884078
171	0x3f18e284	0.59720635
172	0x3d2ce773	0.042212915
173	0x3e9f2dad	0.31089535
174	0x3ca7464f	0.020419268
175	0x3efde920	0.49591923
176	0xbcf90aee	-0.03040072
177	0x3ea54d6a	0.32285625
178	0x3de1d3ca	0.11026724
179	0x3f3b80d8	0.73243475
180	0x3d34c6a5	0.044134755
181	0xbd05d47d	-0.032673348
182	0x3e86027e	0.26173776
183	0xbd1c1d1b	-0.038113695
184	0x3f050347	0.51958126
185	0xbda700a5	-0.0815442
186	0x3d92e8f8	0.071733415
187	0x3eb14d33	0.3462921
188	0xbe0c3306	-0.13691339
189	0xbea1d3dd	-0.3160695
190	0x3e859bce	0.26095432
191	0xbdfb9fd8	-0.12286347
192	0xbd019d05	-0.031643886
193	0x3e2433f6	0.16035447
194	0x3a2a7870	0.0006502932
195	0x3e37d467	0.17952119
196	0xbd94eb32	-0.072714224
197	0x3cddf281	0.027093174
198	0xbe760041	-0.24023534
199	0xbea6c966	-0.3257553
200	0x3e3a6bff	0.1820526
201	0x3e65d0cf	0.22442935
202	0x3d929e8a	0.07159145
203	0x3e52b5e5	0.205772
204	0x3cd1fc94	0.025633134
205	0x3c54f2af	0.012997313
206	0xbe423b81	-0.18968011
207	0xbe05ab39	-0.13053598
208	0xbcb2a9cc	-0.021809481
209	0x3e2b2e18	0.16716802
210	0xbe59a1d3	-0.21253137
211	0xbd351446	-0.044208787
212	0x3e4f8522	0.2026563
213	0xbe8b0adb	-0.2715672
214	0x3e2c7cd8	0.16844499
215	0x3dd449e0	0.10365653
216	0xbe83e38c	-0.25759542
217	0x3d94c7d0	0.07264674
218	0x3d2157ef	0.0393905
219	0xbe67318d	-0.22577496
220	0xbe717c0e	-0.2358248
221	0xbe76a5ed	-0.24086733
222	0x3e306e13	0.1722949
223	0xbe837c89	-0.2568095
224	0xbe34578a	-0.17611519
225	0x3d1b4817	0.037910547
226	0xbdf48595	-0.11939541
227	0x3ccb05fb	0.024783125
228	0x3e65010f	0.22363685
229	0xbe9656b4	-0.29363024
230	0xbe09d832	-0.13461378
231	0xbe48077d	-0.19534107
232	0x3dc170e2	0.09445359
233	0xbcedd295	-0.029031077
234	0x3eb6fbe7	0.3573906
235	0x3e89f61c	0.2694558
236	0x3dc87cda	0.097894385
237	0x3e8179c1	0.25288203
238	0x3ecf652c	0.40506876
239	0x3ef26e53	0.47349796
240	0x3d8d3b16	0.068960354
241	0x3eb26c76	0.34848374
242	0x3e50e5ed	0.2040021
243	0x3e7beb14	0.24601394
244	0xbeaacbc8	-0.33358598
245	0x3c64ebb0	0.013972208
246	0xbe279de5	-0.16368826
247	0x3f12251e	0.57087886
248	0x3eeff03c	0.46862972
249	0x3cbf2da9	0.023337202
250	0x3dbe4157	0.09289806
251	0xbdc1fcbe	-0.09472035
252	0x3da3bd79	0.079951234
253	0x3e6f33ff	0.23359679
254	0x3da542e9	0.08069403
255	0x3e9a099e	0.30085462

actor.init_next_embed.2.add_bias._bias f4 [64, 1]
0	0xbf060cbb	-0.52363175
1	0xbe8bcf0b	-0.273064
2	0xbeafe48b	-0.34354052
3	0xbee87e84	-0.45409024
4	0x3da7efdb	0.08200046
5	0x3f74e2e2	0.95658696
6	0xbec05544	-0.37565053
7	0x3ef6d921	0.4821253
8	0x3f8fbe9b	1.1230043
9	0xbf24f3d0	-0.6443453
10	0xbf38ec08	-0.72235155
11	0x3eeb6aa0	0.45979786
12	0x3f90477f	1.1271819
13	0xbf9d6608	-1.2296762
14	0xbf772a41	-0.9654885
15	0xbf46300c	-0.77417064
16	0xbf4f0c72	-0.80878365
17	0x3f30eacc	0.6910827
18	0x3eec8fbb	0.46203408
19	0x3d8524c2	0.065011516
20	0xbe855a19	-0.26045302
21	0xbed1a8cb	-0.4094909
22	0xbf972725	-1.1808821
23	0x3e929dc8	0.28636003
24	0xc00ae9c9	-2.170519
25	0xbf3b99ca	-0.7328154
26	0xbee6f377	-0.45107624
27	0xbf3524d5	-0.70759326
28	0x3eb9d911	0.3629842
29	0x3e8cc4cd	0.27493897
30	0xbf45419a	-0.77053225
31	0xbf05d287	-0.52274364
32	0xbe691377	-0.22761331
33	0x3f34f2f4	0.7068322
34	0xbe336bfb	-0.1752166
35	0xbe9efc4e	-0.31051868
36	0x3fc1a2fd	1.5127865
37	0x3f1c4508	0.61042833
38	0xbe9af94a	-0.30268317
39	0x3eec859b	0.46195683
40	0xbfcb7ef3	-1.5898117
41	0x3f8ce603	1.1007694
42	0xbeb6b266	-0.35682982
43	0xbfd72c47	-1.6810387
44	0x3eafeaa8	0.34358716
45	0x3fa14d98	1.2601805
46	0x3f514da2	0.81759083
47	0x3f0ec9a0	0.55776405
48	0xbe638336	-0.22218022
49	0x3e82cca1	0.25546744
50	0x3f1e961e	0.6194781
51	0x3f271cf2	0.6527854
52	0x3dc23422	0.094826
53	0xbdefdc85	-0.11711983
54	0xbd100dd9	-0.035169456
55	0xbf0de14b	-0.55421895
56	0x3d26ba70	0.040705144
57	0x3f0a50cf	0.54029554
58	0xbf38a430	-0.7212553
59	0x3ee30066	0.4433624
60	0x3ed0e86c	0.40802324
61	0x3f15f52e	0.5857724
62	0xbe3f5b2e	-0.18687126
63	0x3e366fde	0.17816111
