logs/experiment/Discrete_A2C_1-5Box_10x10x10Bin-2022.08.09-15-00-00/PCT-Discrete_A2C_1-5Box_10x10x10Bin-2022.08.09-15-00-00_2022.08.09-23-13-42.pt (torch, 236314 bytes, 24 tensors)

actor.init_internal_node_embed.0.module.weight f4 [32, 6]
000000 62 c2 00 bf 9e c8 dc 3c 27 66 30 bf 84 5b 0f 3d
       -0.50296605 0.02695113 -0.6890587 0.034999385
000010 41 ba 4f be b3 78 72 3d 05 3d 9b bd 3b 57 0c 3e
       -0.20285894 0.05919714 -0.07579998 0.13705151
000020 2d 0b bb be ae 0c 95 be cb bb ce be 6e d6 e8 be
       -0.36531964 -0.29111236 -0.4037765 -0.45476097
000030 cd 00 a5 bd ce 23 30 3d c0 5c 4e 3e 20 2c 63 3e
       -0.08056793 0.043002896 0.20152569 0.22184801
000040 2f d3 fe 3d 24 dc 2d bf 29 56 9e 3e f7 0e 30 be
       0.12442624 -0.6791403 0.3092511 -0.17193209
000050 2c 04 97 3e 37 9e fd be f4 2d 0e be 5d ee 1d 3f
       0.2949537 -0.4953477 -0.13884717 0.6169184
000060 4f 32 a2 bd 3f bf c2 be 91 d8 27 3e 77 8f 92 3d
       -0.07919752 -0.38036534 0.16391207 0.0715627
000070 15 db 91 3e d9 68 53 3f 76 df 1e bd 19 7d c0 3d
       0.2848746 0.8258186 -0.038787328 0.093988605
000080 11 87 71 3e fc 93 cb 3c 03 3f b1 bd d9 45 81 be
       0.2358668 0.024850838 -0.08654597 -0.25248602
000090 32 e8 a4 3f 89 8c ed be b4 c6 4b bf f7 54 b0 bf
       1.288336 -0.46396282 -0.7960007 -1.3775929
0000a0 fb 1a 2c 3f 20 ec 2b 3f 2e 63 bd be 0d c6 af be
       0.6722867 0.67157173 -0.3698973 -0.34330788
0000b0 93 dd 96 3d 9f b0 56 be a5 d0 8f 3e a3 39 14 3f
       0.07366481 -0.20965813 0.2808887 0.57900447
0000c0 84 c2 bd bd 71 c9 d6 3e 16 0d 1c 3f 13 9e 5b be
       -0.092656165 0.41950563 0.6095747 -0.2144702
0000d0 b2 08 7e be ae 2d ae 3e a9 cf cf 3e 24 c9 68 bd
       -0.24808004 0.34019226 0.4058812 -0.056832448
0000e0 74 74 05 3f 36 74 90 bd f8 3d 8f bd fd 09 09 bd
       0.5213082 -0.070534155 -0.069942415 -0.03345679
0000f0 8c 1c e8 be fa 39 ab be bd c2 90 be 7f a2 fb 3e
       -0.4533428 -0.3344267 -0.28273574 0.49147412
000100 b2 d0 9f 3e 99 ec a0 be cb 25 e7 bd b8 81 26 3f
       0.3121391 -0.3143051 -0.11286505 0.65041685
000110 4e 11 fa be 57 e0 0e 3e 8e 69 25 bf 63 36 f0 3e
       -0.48841327 0.13952766 -0.6461419 0.46916494
000120 3c 8d 9f 3e b0 c2 16 bf dd 3c 6d be fc 3c 81 3e
       0.3116244 -0.5889082 -0.23167749 0.2524184
000130 53 71 92 be c1 bb 30 3e 87 e2 44 3e 23 cc 8b 3e
       -0.28602085 0.17259122 0.19227038 0.2730418
000140 7c 6c e5 bd bd a7 93 be b3 6a 6c bd fc 61 f3 bd
       -0.112023324 -0.28838912 -0.057718944 -0.118839234
000150 4b 07 8e 3e cc ca 0d bc dd 75 e1 39 a7 d2 1e be
       0.2773994 -0.008654308 0.0004300316 -0.15510045
000160 82 6c 34 39 59 76 f1 3c c8 20 a8 3e 4e 84 f5 bd
       0.0001720656 0.029475378 0.3283751 -0.11988126
000170 e2 6e a0 3e 23 0d 72 be 8b 8c 50 be 72 da 8a 3e
       0.31334597 -0.23637824 -0.20366113 0.27119786
000180 21 67 fa be 2d ee 05 bf 7a 96 bd be 49 39 c2 be
       -0.48906806 -0.5231655 -0.37028867 -0.3793433
000190 0b 93 e2 bd 36 fa 98 be 06 47 a3 3c 41 8c 1c 3e
       -0.110632025 -0.29878396 0.019931328 0.15287878
0001a0 2a 10 a1 3e e9 29 a6 bd 7d 73 a3 bc 9a 8b e6 ba
       0.31457645 -0.081134625 -0.01995253 -0.0017589212
0001b0 bb cd c1 bd 94 76 37 bf 3c fe 2d bf 76 7f 90 bd
       -0.09463068 -0.7166531 -0.67966056 -0.07055561
0001c0 ac 47 1a be 20 9b 1d be fc d0 72 3e f7 89 d4 bd
       -0.15066403 -0.15391207 0.23712534 -0.10377877
0001d0 9a e9 4f bf fb 1c a3 bd dc aa 9d bd 77 3a db 3e
       -0.8121582 -0.07964512 -0.076986045 0.42818043
0001e0 9b ce e6 3c f0 a4 6e be f5 d2 a4 bc 1d b4 db be
       0.028174689 -0.23305106 -0.020120123 -0.42910853
0001f0 64 54 2e bf ce e3 c2 3d 45 8c 8c bd a6 33 d0 be
       -0.6809752 0.095161065 -0.06862692 -0.40664405
000200 7f 13 27 bf d9 f9 86 3d 3e 9b 98 3e 88 21 1d 3f
       -0.65264124 0.065906234 0.2980594 0.6137929
000210 81 87 b0 be 9d da 9d 3b cd 30 48 bf 04 42 97 3e
       -0.3447838 0.0048173205 -0.78199464 0.29542553
000220 51 b8 00 3f 39 7a cb 3c d7 d8 e8 3d c9 64 54 bd
       0.50281245 0.024838554 0.11369484 -0.05185393
000230 4e 39 da be d3 0d 2d be 46 43 d9 be 52 c6 0e bf
       -0.42621845 -0.16899805 -0.42434138 -0.5577136
000240 8e de 26 3e 13 65 18 be 88 50 39 3f b2 ed 88 bc
       0.16295835 -0.14882307 0.72388506 -0.016714904
000250 5e b0 08 3e 63 77 bd bd ef 41 c5 3d 38 56 8e be
       0.13348529 -0.09251287 0.096317165 -0.27800155
000260 5b c9 0e bf d4 5a 4d 3e 61 53 cf 3e 87 42 02 be
       -0.55775994 0.2005418 0.404933 -0.1272069
000270 b0 02 23 3f c1 8f 24 3d d2 b7 59 3e d7 96 24 3e
       0.63675976 0.040176157 0.21261528 0.16073166
000280 6d 32 24 be 12 0b 6b be b6 21 b5 3e 38 cd 2c 3d
       -0.16034861 -0.22953442 0.35377282 0.0421879
000290 4c 5c 54 be ac f0 e3 3e 75 0e 90 3d 47 19 f6 bd
       -0.20738333 0.44519556 0.070340075 -0.1201654
0002a0 6b ff d4 bd ec ad 63 be ef ea 06 3e d2 27 08 3f
       -0.104002796 -0.22234315 0.13175558 0.5318576
0002b0 98 7b 00 3f ce 1e 4f bf c3 b4 8b 3e e5 d3 7d be
       0.5018859 -0.8090638 0.27286348 -0.24787863
0002c0 d0 63 b7 be 17 03 b6 bd 3c b4 d8 3d 66 0f 4e bd
       -0.35818338 -0.08887308 0.10581252 -0.050307654
0002d0 81 f0 9d be d9 1c cd be 8e e4 a6 3f f8 ec f6 bd
       -0.30847552 -0.40061072 1.3038499 -0.12056917
0002e0 d4 40 59 be 3c db d9 3d cd 2b 6f 3e 7f 85 95 3d
       -0.21216136 0.10637519 0.23356552 0.07300853
0002f0 ea 57 d8 bd 7e 89 62 3d 0d 7e 1c be eb ed d0 bd
       -0.10563643 0.055306904 -0.1528246 -0.10201629

actor.init_internal_node_embed.0.add_bias._bias f4 [32, 1]
000000 67 0f 56 3c ea 20 cd be ee ea a6 bb 0c 5e ba bc
       0.013065196 -0.40064174 -0.005093924 -0.022749923
000010 69 39 16 3e 91 6f 1f 3d c5 52 cf 3b 99 1b 08 bc
       0.14670338 0.038924757 0.0063270056 -0.008307361
000020 ab a7 36 3d e8 6d d7 3d e3 bf 05 3c bc 63 81 3c
       0.044593494 0.1051901 0.008163425 0.015794627
000030 e6 76 3f ba cd d0 ea 39 c5 7c 57 bc 19 84 f6 3c
       -0.0007303789 0.00044787527 -0.013152306 0.030092286
000040 21 3b 94 be fa 15 75 bd 4d 90 34 3d 1d b6 08 3b
       -0.28951362 -0.05983541 0.04408293 0.00208605
000050 a2 4e 76 be 60 bd 67 3d 1c ed 47 3d 69 ac ee 3d
       -0.24053434 0.056577086 0.04881011 0.116539784
000060 98 2f 0c 3d c9 1c 68 3b a8 50 be 3b a6 05 90 3d
       0.034225076 0.0035417548 0.005807955 0.07032327
000070 7e c1 de 3c 95 b3 41 bd 33 b9 92 3d e4 5e 90 bd
       0.027191874 -0.047290403 0.0716423 -0.07049349

actor.init_internal_node_embed.2.module.weight f4 [64, 32]
000000 76 48 22 3e f0 74 22 3e f4 89 23 be 42 6c 08 3e
       0.15847954 0.1586492 -0.15970594 0.13322547
000010 67 1e 15 3d 82 27 da 3d 71 af 23 3e cc a4 00 3f
       0.036405947 0.10652067 0.15984894 0.5025146
000020 3f 34 b0 3e e8 27 e4 bd a4 d0 54 3f 2a 9e 57 3e
       0.3441486 -0.11140424 0.8313086 0.21056429
000030 77 b4 26 3d e6 d7 38 be 55 de 33 bf 1c a2 96 3e
       0.04069945 -0.18051109 -0.70261127 0.29420555
000040 0c 06 20 bd 97 fe 85 3e 41 9f a5 3c 4d 02 65 3e
       -0.039068267 0.261708 0.02021754 0.22364159
000050 b8 c1 6c be 3c 8a 0a 3e 65 4a 8c 3f a7 e8 f7 bc
       -0.23120773 0.13529295 1.0960203 -0.030262304
000060 74 dd 1a 3f e2 62 3b 3e 98 45 1a 3e 3e 84 90 3e
       0.6049416 0.1829944 0.1506561 0.28225893
000070 1f b8 b0 3d 30 13 44 bb b2 e3 40 be e7 1b 52 3d
       0.08628868 -0.0029918663 -0.18836859 0.05129614
000080 b2 6f a2 3e 3f e0 cd 3d 15 c0 09 bf 8c 13 ea be
       0.31725842 0.10052537 -0.5380872 -0.45718038
000090 6c 07 06 bd 46 2b 52 3e b4 50 91 3d da 25 a1 be
       -0.03272192 0.2052432 0.07095471 -0.3147419
0000a0 60 3e 4e be f8 ec 3e 3e 81 9e ce 3e ea b5 ff 3d
       -0.20140982 0.18645084 0.40355304 0.12485869
0000b0 c4 10 f7 3e b7 6c 3a ba b3 7d 07 bd 40 e5 7f 3e
       0.4825498 -0.00071115367 -0.03307886 0.24989796
0000c0 d4 cc 4f bd 27 e6 20 be 71 6a 07 be bb 23 1b be
       -0.05073245 -0.15712796 -0.13224198 -0.15150349
0000d0 ea 17 5f 3d fb aa bc 3e ed 46 71 3f d5 34 b3 3e
       0.054466166 0.36849198 0.9424885 0.35001245
0000e0 b5 04 78 be ea a2 2a 3e 13 af b9 3b 68 ae 87 3d
       -0.24220546 0.1666371 0.0056666224 0.06625062
0000f0 a5 bb 26 3f 50 fc 33 3e 73 ab 85 3e 37 19 e7 bc
       0.6513007 0.17576718 0.26107368 -0.028210266
000100 a9 ab 93 be 35 fa 00 3d 6f a3 0e 3f 87 39 2d 3f
       -0.28841904 0.031488616 0.5571813 0.67665905
000110 be 20 03 3f b6 1e ba bc 4b 70 a5 be c2 45 84 3f
       0.51221836 -0.022719722 -0.32312235 1.0333788
000120 8a c2 96 be 1b 9c 9a be bc ff e9 be 81 e2 58 bf
       -0.29445297 -0.30197224 -0.45702922 -0.8472062
000130 07 de d8 3d 5a d8 72 3e fb 92 15 3f cc 92 1e bf
       0.10589223 0.23715344 0.584274 -0.61942744
000140 72 68 86 bd 9d b7 56 3d 6a 0a f1 3c 11 46 d4 be
       -0.0656289 0.0524212 0.029423911 -0.41459706
000150 58 3c 91 bc 8d 4e e8 3e 0a c2 98 bd b1 3b 54 be
       -0.01772897 0.4537243 -0.07458885 -0.20725895
000160 d5 75 c1 bd 76 f7 52 3d bd 65 af bc e8 d7 f8 3c
       -0.09446303 0.05150553 -0.021410817 0.03037639
000170 43 19 a3 3e 26 19 38 be 07 87 65 3e c6 10 04 3e
       0.3185521 -0.17978343 0.2241479 0.12897024
000180 97 cd f1 3b 16 58 5d be 8e 88 1e bd be c9 06 3f
       0.0073792445 -0.21615633 -0.038704447 0.52651584
000190 b9 bc 12 3e 71 fb 15 bc 01 a0 97 3a f2 ff 7c 3e
       0.14329804 -0.009154187 0.0011568071 0.2470701
0001a0 e3 78 1e 3d 85 34 a7 bd 46 e0 9f 3c e6 30 b5 bd
       0.038689505 -0.08164314 0.019516122 -0.08847217
0001b0 d6 88 98 be d1 21 94 3d 75 ea ab be c7 03 e1 bc
       -0.29791898 0.072330125 -0.33577314 -0.027467621
0001c0 fe 17 e7 3d d4 b2 9f be c8 00 c5 3d 57 c9 34 3d
       0.11283873 -0.31191123 0.0961929 0.044137325
0001d0 0b 0f 88 be d1 72 26 3f 8c 25 46 be 84 8b 7f 3e
       -0.26573977 0.65018946 -0.1935026 0.24955565
0001e0 bd 37 3b 3e a1 f4 80 3c 0b d9 7b 3d 60 fb 8e 3e
       0.18282981 0.015741648 0.061486285 0.2792616
0001f0 c6 29 55 3e 65 f0 34 bd 32 0f 6c be 61 ee 71 3e
       0.20816717 -0.04417457 -0.23052672 0.2362609
000200 75 8d a8 3e cc b0 0e be 6f 5a 43 be cb 13 10 3e
       0.32920423 -0.1393463 -0.19077466 0.1407005
000210 70 4b 0b bf 07 a7 d8 bd cd 70 01 3f de c2 de be
       -0.54411983 -0.10578733 0.50562745 -0.43508047
000220 d6 c0 20 bf 5f 79 05 3f 05 f8 d2 3e 1a fa bd 3e
       -0.62794244 0.5213832 0.4120485 0.37104875
000230 45 66 8a bc 2b 37 28 be bb b6 b5 3e a0 df f1 bc
       -0.016894469 -0.16427295 0.35490975 -0.029525578
000240 5c 05 72 bc 8f a9 18 be e8 a7 fd b8 cc 6d f3 3d
       -0.014771786 -0.14908431 -0.00012095255 0.118861765
000250 e4 0a 23 be 53 64 ec 3e 19 9b 3a 3e f1 3a 9c bd
       -0.15922123 0.4617029 0.18223228 -0.0762843
000260 43 fb 63 be a0 eb 5f 3e 81 1c 80 3e 5c 01 f7 3d
       -0.22263817 0.21867228 0.25021747 0.12060806
000270 57 fe 11 3f ec 48 ba 3d 3d ce 1a 3e a2 4d fa bd
       0.57028717 0.0909594 0.15117736 -0.122218385
000280 51 76 90 be 74 08 bc bd 08 58 80 bd 5a 1a 39 bd
       -0.28215268 -0.091813 -0.06266791 -0.045191146
000290 e6 ff 69 3f 4a 9b a2 be eb d1 84 be 22 88 92 3e
       0.91406095 -0.317591 -0.25941405 0.28619486
0002a0 d6 1e 79 3e 82 65 a2 bc 16 a3 54 3f e8 8c 97 be
       0.24328169 -0.019823793 0.8306135 -0.2959969
0002b0 b0 52 21 bd 45 a6 55 be 8f df e7 bb 7c a1 88 3e
       -0.039385498 -0.20864208 -0.007076211 0.26685703
0002c0 c6 c2 6a 3e 36 73 81 3e e1 e6 ee bd 08 4b cd 3d
       0.22925863 0.2528321 -0.116651304 0.10024077
0002d0 ae cf 32 bd 70 14 ab 3c 52 45 ad 3e 9a d8 23 bf
       -0.04365509 0.020883769 0.3384195 -0.6400238
0002e0 cc 09 c4 bc 6f 92 85 3e 65 5c 65 3e 54 16 dd 3e
       -0.023930453 0.26088282 0.22398527 0.43181098
0002f0 8a 08 4b 3c 5c 3c b5 bd ae 51 cf 3c 4d 87 1c 3e
       0.012392173 -0.08849403 0.025307503 0.15285988
000300 5e 58 8a 3e a3 af 89 3c d8 26 10 3e 68 7d 38 3c
       0.27020544 0.016807383 0.14077318 0.011260368
000310 bf bf 00 3f 09 d0 5f 3d 10 fd 22 be 4e c7 29 3e
       0.5029258 0.054641757 -0.15916848 0.16579935
000320 90 e5 a1 3d 2d fe 8e be 6e fb ba 3e 11 af 04 be
       0.07905114 -0.27928296 0.3651995 -0.12957408
000330 32 fe 89 be ce da e9 bb 79 58 88 3e e9 db e7 be
       -0.26951748 -0.0071366793 0.2663 -0.45284966
000340 2b db 6e 3c fe 12 9a be 30 68 a0 3d f3 04 85 bc
       0.014578621 -0.30092615 0.07832372 -0.016237712
000350 d8 b6 56 3c 41 e3 de 3d 1f 89 9c bb b4 60 3a 3e
       0.013105117 0.10883189 -0.0047770883 0.18200952
000360 74 c1 83 bd e0 ac aa 3d 63 d4 79 be 88 4e e2 3e
       -0.06433383 0.083337545 -0.24397425 0.4420054
000370 84 56 af be ad b1 be 3d 4a 8c e9 be e4 55 2a bd
       -0.34245694 0.09311233 -0.45614845 -0.041585818
000380 13 2b 1b be 57 ea f9 bd 6b 53 ed be 82 b8 b2 be
       -0.1515315 -0.122029 -0.46352705 -0.34906393
000390 0a b0 b1 be 97 cb e5 bc 0e 0e c9 3d 8d f6 13 bd
       -0.3470462 -0.02805118 0.09817134 -0.0361238
0003a0 aa 70 5e 3e d3 64 c8 3e cb 65 eb 3e 28 0f e5 3e
       0.21722665 0.39139423 0.459761 0.44738126
0003b0 00 2c 4f be c0 83 51 3d 8a 16 5d be 12 3d ea bc
       -0.20231628 0.051151037 -0.21590629 -0.028593574
0003c0 78 4c 80 bd a0 53 38 be 26 19 4b 3e 23 1b 60 3e
       -0.06264585 -0.1800065 0.19833812 0.21885352
0003d0 20 bb 23 3d bc d3 e8 be 70 0e 2b 3f 66 63 f9 bc
       0.03997338 -0.4547404 0.66818905 -0.030442905
0003e0 59 47 24 bf 57 8c 07 3e ae ee d0 be f3 2d fa be
       -0.6417137 0.13237129 -0.40807098 -0.4886318
0003f0 d5 40 2c 3f cc bc 4d 3e 06 ff b8 3e f1 34 bb bd
       0.67286426 0.20091552 0.36132067 -0.09140957

actor.init_internal_node_embed.2.add_bias._bias f4 [64, 1]
000000 ec 7c 36 3e 7e ad 99 3e 2d 0c 54 bd 7b 7c 9a 3d
       0.17821091 0.30015177 -0.051769424 0.07543274
000010 3a 50 21 3e c2 3b 94 3e 7a dd 35 3d 8c 13 e7 3d
       0.1575326 0.28951842 0.04440067 0.11283025
000020 3b 1d af bd 48 56 cc bd 41 b9 c0 3b e3 97 12 3d
       -0.08550497 -0.09977394 0.005881459 0.03578938
000030 6d 4e 7c bd 56 4d a6 3d 46 94 13 3e b5 01 1c 3e
       -0.06159823 0.081202194 0.1441203 0.15235026
000040 09 4f 9c 3c 2f 2e 44 be 6d e7 c8 3c d4 58 a4 3d
       0.019080656 -0.19158243 0.024524415 0.08024755
000050 21 ca 23 bc 74 df b1 3c bc 67 67 bd 5f c0 91 bd
       -0.009996922 0.021712996 -0.056495413 -0.0711677
000060 39 a1 ef 3d 2e 3f 1f bd 38 e8 39 bd 25 c4 16 3d
       0.11700673 -0.038878612 -0.045387477 0.03680815
000070 86 da b9 bd 06 56 88 ba 4c b0 1a 3c 64 88 80 3b
       -0.09074883 -0.0010401614 0.0094414465 0.003922509
000080 08 5b a9 3d e8 9b dd 3c b8 a2 90 3e 76 41 82 bd
       0.08269316 0.027051881 0.28249145 -0.06360142
000090 0f ba af 3c 1d 87 12 be 95 88 fe bc 94 13 4e 3e
       0.021451024 -0.14309354 -0.031070987 0.20124656
0000a0 88 be 38 bd 4e 00 80 be 4a b9 1c 3e 20 c9 07 bc
       -0.04510358 -0.25000232 0.15305057 -0.008287698
0000b0 54 01 0b be 9c c7 52 bd 1c 1c 92 be 51 46 86 be
       -0.13574725 -0.051459894 -0.2853707 -0.26225522
0000c0 2e 26 89 3e 9d e4 06 3c 0d 49 ce 3d 3a 2e 6c 3d
       0.2678694 0.008233217 0.10072527 0.057661273
0000d0 9a 21 b7 bc ac 44 7b bc 28 24 28 bd c7 28 5a 3e
       -0.02235489 -0.015336197 -0.041050106 0.21304618
0000e0 76 b0 6c 3e bc 0c a5 bd de 43 83 3c 99 08 3e 3d
       0.2311419 -0.080590695 0.016023573 0.046394918
0000f0 fb be 5e 3d 37 3d dc 3d db 5d 11 bd bc 7d 77 3c
       0.054381352 0.10753863 -0.0354899 0.015105661

actor.init_leaf_node_embed.0.module.weight f4 [32, 8]
000000 18 aa 9a bd c5 db af be cd ed c9 be bf 8c 96 bd
       -0.07551974 -0.34347358 -0.3943924 -0.07351064
000010 99 bd 2d 3e 6e c0 bd 3e ae ba fd 3e 61 07 8a 3e
       0.16966857 0.37060875 0.49556488 0.26958755
000020 fc 2d d0 be b1 20 30 bf bd d7 88 bd 25 ec 9e be
       -0.40660083 -0.68799883 -0.06681774 -0.3103954
000030 26 62 72 be ab ab a9 3e e4 d3 b4 bc e5 bd ba 3e
       -0.23670253 0.33138785 -0.022073694 0.36473003
000040 05 43 51 3e fe 82 c2 be 79 af 00 be 6b 1f d0 3e
       0.20435722 -0.37990564 -0.12566938 0.4064897
000050 b2 ff d2 3b d7 cf a2 be 08 2d 68 bd 79 1e 8a bd
       0.0064391727 -0.31799194 -0.05668357 -0.067440934
000060 78 a9 ce be 97 a2 46 be e2 07 78 be b3 63 81 be
       -0.4036367 -0.1939796 -0.24221757 -0.25271377
000070 5a a9 a9 3e e2 74 39 3d 99 0d e7 3e b1 e4 e9 3d
       0.33137017 0.045277484 0.45127562 0.114205725
000080 67 6d 09 bd 6e 69 2f be af 38 93 3d 94 04 dd 3d
       -0.0335516 -0.17130062 0.07188546 0.10791889
000090 5a 33 bd 3e a0 f4 07 3e 05 50 ff be a0 52 c8 3e
       0.3695324 0.13276911 -0.49865738 0.39125538
0000a0 a2 f4 c4 3d 5e d1 15 3e b0 9d 08 bf 07 6e 1f 3e
       0.096169725 0.14630648 -0.5336561 0.15569316
0000b0 df 65 ed be b4 21 06 3f e4 ad fa bd 89 8a 83 be
       -0.46366784 0.52395177 -0.12240198 -0.2569163
0000c0 a0 68 d0 be e2 6a 47 be 28 27 72 bd 51 23 60 3c
       -0.40704823 -0.19474366 -0.059119374 0.013680295
0000d0 81 da 5d 3d a7 a1 3f be 65 68 cc bd 80 15 e0 bd
       0.05416346 -0.18714009 -0.09980849 -0.10941601
0000e0 1c 88 c4 3e 33 1f e1 be 36 be 85 3e 28 92 e7 3e
       0.38385093 -0.43969116 0.26121682 0.45228696
0000f0 7e 2b 19 bd 9d d8 c6 3e 3e 1e 38 3d 19 c2 66 3e
       -0.037394993 0.38837138 0.044950716 0.2253498
000100 be a2 d0 3d 46 ec 02 3e 42 c6 2a be dc be ad 3e
       0.101872906 0.12785444 -0.16677192 0.33934677
000110 c6 ac c6 3d f9 4b ad 3d 66 12 fb 3e 08 2f b2 3e
       0.09700923 0.08461756 0.49037474 0.34801507
000120 7d 20 b8 bd d7 bf aa 3e 59 f8 39 be 20 61 9b 3e
       -0.08990572 0.33349487 -0.18161143 0.30347538
000130 a4 fc 03 3d 40 82 f6 bd b2 a1 e7 3e c9 05 99 be
       0.03222336 -0.12036562 0.4524055 -0.29887226
000140 67 36 57 3d 88 08 c3 3d 36 ef 8e 3e 37 6e 8c bd
       0.052542116 0.095231116 0.27916878 -0.06856959
000150 33 8b b3 3e 50 15 f7 bc c8 b2 45 be e2 61 ad 3c
       0.35067138 -0.03016153 -0.19306481 0.021164838
000160 9b a8 94 be d6 48 fd 3c 95 d9 3d 3e b6 16 cb 3d
       -0.29034886 0.03091852 0.18540032 0.09916441
000170 a4 c1 ef 3e cd a8 c0 3d 92 83 88 bc 1b 41 b7 be
       0.46827424 0.09407196 -0.0166643 -0.3579186
000180 f5 5c c6 3e f0 19 a0 3d 60 39 11 3f 0d 9e ae be
       0.38742796 0.07817447 0.5672817 -0.34104958
000190 51 55 b6 bd 74 57 83 bd 2c f3 bb 3e 20 c1 ee bd
       -0.089029916 -0.06413165 0.36708963 -0.116579294
0001a0 3c 7a 62 be 18 46 ab 3c be e4 7b 3e 2d c3 0b be
       -0.22116941 0.020907447 0.24598977 -0.13648672
0001b0 be 8c 8b be b1 88 30 be c3 2c b6 3e a3 2a 9c 3d
       -0.27255815 -0.17239644 0.35581025 0.0762532
0001c0 cc 06 2f 3e 9d 2e 88 bc 75 15 25 3e 4b cc e9 3e
       0.17092437 -0.01662379 0.16121466 0.45663676
0001d0 9e da e7 3d fb 95 d2 3e 12 43 e9 3d af f0 94 bd
       0.11320995 0.4113005 0.11389746 -0.07272469
0001e0 35 29 01 3f 00 f2 12 3e e7 de eb bd 09 c3 06 bf
       0.504535 0.14350128 -0.115171246 -0.5264135
0001f0 c9 62 3e 3e 10 60 f2 3e 72 4a 12 3d cf 02 9c be
       0.18592371 0.47338915 0.035715528 -0.30470893
000200 9c cd 49 bd 15 e3 a3 3d 08 05 93 be 02 e8 b5 3e
       -0.04926835 0.08002297 -0.28714776 0.3552857
000210 ce 2d 48 3e 5e ac 7d 3c e4 f7 77 be b2 90 a0 3d
       0.19548723 0.01548299 -0.24215657 0.078400984
000220 84 a0 a7 bd a4 bd c0 3e 26 a2 e3 3d 8f 46 9a 3d
       -0.08184913 0.37644684 0.11114912 0.07532989
000230 bc 94 8d be 83 25 bc 3d 66 e4 3d 3e c6 6e 93 3e
       -0.27652538 0.09186842 0.18544158 0.2879545
000240 ec 4e 58 be 3f 76 44 3d 7d a3 88 3d 09 a6 b3 be
       -0.21123856 0.04796433 0.06671808 -0.35087612
000250 71 4d 6f be fc e5 b6 3e 5c bb 48 3d 29 d3 f4 3d
       -0.23369385 0.3572234 0.049006805 0.11954338
000260 36 ba c8 be db de 14 3e ef a6 c3 bd c4 64 90 3e
       -0.39204568 0.14538138 -0.095533244 0.28201878
000270 d9 0f 33 3d 12 5e 05 3f ae 72 b7 bd b7 1a d9 3d
       0.043716285 0.52096665 -0.0895742 0.106007986
000280 3c 03 7a be 95 5f 8b be 29 07 9e be 88 e2 3f bd
       -0.24415296 -0.2722136 -0.30864838 -0.046846896
000290 87 3f ee 3c 89 65 d5 3e a2 a5 10 be 68 2f 86 be
       0.029083027 0.41679028 -0.14125684 -0.26208043
0002a0 23 fd 06 3e 0d 27 12 be 94 c4 f8 3e 1d d2 e5 bd
       0.13182501 -0.14272709 0.48587477 -0.112217166
0002b0 0c 02 9f 3c 1a 1a e3 bd 4e a6 47 be a4 99 6d 3d
       0.019410156 -0.11088963 -0.19497034 0.05800785
0002c0 a4 3f a9 be 69 c7 b3 3e 57 13 8e 3c ed dc a3 3e
       -0.33056366 0.35113075 0.017343206 0.3200449
0002d0 4d 9a 80 3e 87 af 36 3e c3 c9 f1 3d 41 63 07 3e
       0.25117722 0.17840396 0.11806061 0.13221456
0002e0 14 88 98 be 13 c6 14 be cd 65 8c 3d df b9 95 bd
       -0.2979132 -0.14528684 0.068553545 -0.07310843
0002f0 52 9b e7 3e fb 12 2e bd 7f a2 17 bd 2a 7b 7e bd
       0.45235687 -0.04249857 -0.037020203 -0.062129177
000300 0e 3d 61 3d 80 58 9d 3d 99 dc 7d 3e 7a 88 95 bc
       0.054989867 0.07682896 0.24791183 -0.018253554
000310 98 3f 6c 3e 14 52 81 3d 4c bb 8c bc d4 e8 fc 3e
       0.23071134 0.06314483 -0.017179154 0.49396384
000320 02 eb 99 3e 30 c3 50 3e d3 02 fe be 64 ef a4 be
       0.3006211 0.20386958 -0.4961153 -0.3221389
000330 13 02 51 3d 11 71 af bc 40 cb 3f 3d 0f 97 99 be
       0.05102737 -0.021416219 0.046824694 -0.2999806
000340 d0 d2 79 3e 0d 80 30 be cd da f2 3d 82 57 d4 3e
       0.24396825 -0.17236347 0.11858139 0.41473013
000350 18 b6 1e 3e 0f cd f3 3d 36 f3 e3 3e 1c 7b 8e be
       0.15499151 0.11904346 0.44521493 -0.278283
000360 f3 5e fa 3c e8 60 2f be 64 62 c4 be e7 c3 14 3e
       0.030562853 -0.1712681 -0.38356316 0.14527856
000370 f9 93 18 3f c0 98 78 bd ba 31 5e 3e ee 74 ba 3e
       0.5960079 -0.06069255 0.21698657 0.36417335
000380 70 96 99 3e b2 2b 3a be 37 5a f0 bd 17 73 eb bd
       0.29997587 -0.18180731 -0.11735957 -0.11496561
000390 99 30 14 bd 3d 27 c3 be bd 58 d1 3d 25 06 50 3e
       -0.03617916 -0.38115874 0.102220036 0.20314844
0003a0 77 89 e5 3d 48 ef 7b 3e f9 66 3e be 25 cc 58 be
       0.1120786 0.24602997 -0.18593968 -0.21171625
0003b0 19 5b 94 3e c3 09 31 3c 3e 4b 5e be 8f dc 28 3e
       0.28975752 0.01080555 -0.2170839 0.16490386
0003c0 3d 3d 92 3e a0 a4 f1 3e ef 91 03 bf 4f 70 01 be
       0.28562346 0.4719591 -0.5139455 -0.12640499
0003d0 a1 02 58 be 61 c5 2f be 71 0d 10 bd 59 9f e9 3e
       -0.21094753 -0.17165138 -0.03516907 0.45629385
0003e0 a8 38 d9 3d 8b 36 d7 3e fa 8c 84 bd 21 c1 59 be
       0.106065094 0.420338 -0.06472202 -0.21265079
0003f0 98 6b e9 3d 18 80 c7 3e 45 3c 30 3e b5 d1 c6 bd
       0.11397475 0.38964915 0.17210491 -0.09707967

actor.init_leaf_node_embed.0.add_bias._bias f4 [32, 1]
000000 bb b1 3d 3c 2a c1 f0 3c 11 2b bf 3b a8 b5 02 3c
       0.011578019 0.029388983 0.0058339913 0.007977881
000010 1b 26 f0 bd 47 d1 76 3c c0 91 63 bd 06 42 da bc
       -0.11726018 0.015064544 -0.05555892 -0.02664281
000020 55 66 9f 3d 4f ab 0e 3d 7d 2d 25 3d de 36 f5 bc
       0.0778319 0.03483134 0.040326584 -0.02993339
000030 39 57 db 3a 57 82 aa bc 06 f1 03 3e c8 35 4c 3a
       0.0016734368 -0.020814104 0.12884912 0.00077899965
000040 36 5a 22 bd 1d 7a 46 bd 2a b2 3b 3c 0f a7 5c bb
       -0.039636813 -0.0484563 0.011456052 -0.003366891
000050 f5 92 13 3d 9b 1b 21 3d 7e 30 f6 3d 06 3d ae bc
       0.03602882 0.039332967 0.12020968 -0.021269333
000060 5b ec 48 3c 89 72 4c 3c a4 22 bb 3d a3 f2 ab bc
       0.012263383 0.012478479 0.091374665 -0.020989722
000070 ec 51 ba bd 6d ba 44 3b d9 0b 10 3c ca 00 1c be
       -0.090976566 0.0030018345 0.008791887 -0.15234676

actor.init_leaf_node_embed.2.module.weight f4 [64, 32]
000000 c5 21 14 3e 04 41 0a 3f e6 1f 26 3e e0 d9 bf 3e
       0.14466007 0.54005456 0.16223106 0.37470913
000010 a3 7f 82 be 51 72 c6 3e eb b2 9b 3e 91 65 81 be
       -0.25488004 0.38759091 0.3040994 -0.25272802
000020 5f 55 c2 bb 89 39 3a 3e 0b 26 89 3c f0 2f 4f bc
       -0.005930587 0.1818601 0.016741773 -0.012645707
000030 5e a6 ae be 08 f9 0a be af 36 10 3e 0e ff c6 3d
       -0.34111303 -0.1357156 0.1408336 0.097166166
000040 94 07 3a 3e 23 7a 00 be 12 fc c5 3d c1 f3 a5 3e
       0.18166953 -0.12546591 0.09667219 0.32412532
000050 d2 5b 23 3f 46 c5 00 bf 0a ca 22 3f 9d d3 b9 3e
       0.6381198 -0.50301015 0.6358954 0.3629426
000060 e3 5f 2b 3d cb 78 af bc 57 d6 60 bc ba c7 aa 3e
       0.04183949 -0.021419903 -0.013722978 0.33355504
000070 a9 ab 07 be a9 d9 23 3e 22 74 cf 3d a3 a7 96 be
       -0.13249077 0.16001 0.101295725 -0.29424772
000080 0f d8 fd bd 03 08 8b be e6 81 5b be 23 88 28 be
       -0.123947255 -0.2715455 -0.21436271 -0.16458182
000090 b2 3d 8c be 47 bc a5 3e 48 55 6c be 0a f3 62 3e
       -0.2739082 0.32370207 -0.23079407 0.22163025
0000a0 8f c9 9c 3e 3a 1b b3 be 97 83 88 3d 83 e4 09 be
       0.30622527 -0.3498171 0.06665724 -0.13466077
0000b0 b2 1d 8f 3e f6 42 3c 3d a0 75 9c 3d c2 b9 bd 3d
       0.27952343 0.045962296 0.07639623 0.09263946
0000c0 09 02 cd 3c ef 23 22 3e c2 31 41 3d dd 74 eb be
       0.025025385 0.1583402 0.047166593 -0.45987597
0000d0 03 6c e6 be a1 c0 17 3f c4 f2 4d 3e fb b9 83 3e
       -0.4500428 0.59278303 0.20112139 0.2572783
0000e0 f7 71 bb 3d 73 e5 26 3e e0 03 02 3e 81 f7 57 be
       0.091525964 0.16298465 0.1269679 -0.21090509
0000f0 dd b4 a2 3d 86 3d b5 3d d0 d1 7d 3e 18 7d 32 be
       0.07944653 0.08849625 0.24787068 -0.17430532
000100 e8 06 08 3c 9f dd 0a 3b ad c7 69 3e 45 b7 c5 be
       0.008302428 0.0021189225 0.22830077 -0.38616386
000110 af 83 33 3e 6a 9b e1 bd af 49 e4 bd b6 a3 b2 bd
       0.17530702 -0.11015971 -0.111468665 -0.08722632
000120 24 e3 ac be 63 b8 d9 3e 08 d2 87 3d ba 7f 09 3e
       -0.33767045 0.42523488 0.06631857 0.1342763
000130 91 2b 40 be 3a 8a 29 3d c0 c0 0e 3e a7 9a 1e 3e
       -0.1876662 0.04139159 0.13940716 0.15488683
000140 96 21 aa be ac 3d 99 be c5 85 41 3e f3 d5 8b 3d
       -0.3322875 -0.29929864 0.18898685 0.06827917
000150 bd f0 8f bd 2c f2 07 3e 35 5d 0c 3e 11 8f 80 3d
       -0.07028339 0.13275975 0.1370743 0.06277288
000160 fe b4 a5 3e 49 d7 da bd 84 58 41 3e a8 8e 38 bb
       0.3236465 -0.10685594 0.18881422 -0.0028161202
000170 a2 45 21 be d6 a3 61 bc d9 45 fe be 12 0e 63 be
       -0.15749219 -0.013771972 -0.49662665 -0.22173336
000180 90 a6 56 be 81 e5 12 3e 26 ae a7 be 9d 6b 1d 3f
       -0.20961976 0.14345361 -0.32750052 0.6149233
000190 e9 46 55 be 4a 62 87 3d f1 6b 24 be 80 3a 3b 3e
       -0.20827831 0.06610544 -0.16056801 0.18284035
0001a0 cf c6 d7 bc 68 b5 e1 3d a9 d5 69 3e a5 81 35 3e
       -0.026339917 0.110209286 0.22835411 0.17725237
0001b0 74 a1 1e 3f 04 74 88 be c6 53 8f bd 0f fa 42 be
       0.6196511 -0.26651013 -0.069984004 -0.19040702
0001c0 cf 27 0d be 77 60 72 3e 79 cb d9 bb 64 46 58 3d
       -0.13784717 0.23669611 -0.0066465703 0.052801505
0001d0 bf 23 02 bf a0 64 46 39 f1 67 e0 bd a4 7c 80 be
       -0.50835794 0.00018920237 -0.10957325 -0.25095093
0001e0 e2 d2 cc 3d ce 19 28 be 90 7e 8d 3e e1 ab 42 3e
       0.1000116 -0.16416094 0.27635622 0.19010879
0001f0 01 60 56 3e 38 97 fe 3c a8 20 71 bd dd ef a7 3d
       0.2093506 0.031077966 -0.058869034 0.08200047
000200 6a e1 b0 be f4 e4 d3 be be e4 9f bd 60 7c 1e be
       -0.34546977 -0.41385615 -0.07807301 -0.15477133
000210 86 f0 65 bb 6d 38 90 be 18 0a 6d be 0e aa 4f be
       -0.003508599 -0.2816805 -0.23148382 -0.20279714
000220 8e bd 18 bf 27 d0 c9 3e 32 2b d3 ba 38 47 a0 bb
       -0.5966424 0.3941662 -0.0016110896 -0.0048913024
000230 ee 85 f2 3e e0 13 9e bc c9 fb 8d be 0c 2b 3d 3e
       0.47367805 -0.019296587 -0.2773116 0.18473452
000240 a9 4c b9 3d 3e 10 87 be 8f 72 8f be a7 5f d8 bd
       0.09047825 -0.2637958 -0.2801709 -0.10565119
000250 11 4d 24 3e 6d ec 85 3e f0 21 c7 3d 4b c4 a6 bd
       0.16045024 0.2615694 0.0972327 -0.08142909
000260 2e a1 52 be 26 b8 ce 3d 60 02 8d bd fb 8a 77 3d
       -0.20569298 0.10093717 -0.068852186 0.060435276
000270 4a 67 ad bd 0b 96 bf 3b 34 e2 58 3e 72 cd 0b be
       -0.084669665 0.005846744 0.2118004 -0.1365259
000280 a7 9a 1b be 3d 70 67 3e e3 bd 30 be bc 58 c2 be
       -0.15195714 0.2260141 -0.17259936 -0.37958324
000290 a2 36 d5 3d 8a e9 52 3e 49 80 97 3d ed 7d 28 be
       0.10410811 0.205969 0.07397515 -0.16454287
0002a0 69 93 a5 be fe bd 97 bd 56 3b 81 3c 05 17 77 3d
       -0.32339028 -0.07409285 0.015775364 0.060324688
0002b0 f2 8b 44 be a5 e2 74 be 5a 1d ef 3e 0c e9 61 be
       -0.1919401 -0.23914583 0.4670208 -0.22061557
0002c0 66 02 7c 3e a3 50 0e 3d 35 aa 94 bb 41 59 48 bd
       0.2461029 0.03474487 -0.004536892 -0.048913244
0002d0 04 a7 ff 3c 65 80 9c bd 44 09 30 be 02 b6 af be
       0.031207569 -0.07641677 -0.17191035 -0.34318548
0002e0 dd bf 53 be 52 e3 51 bc f4 72 06 3d b8 0d 51 3e
       -0.20678659 -0.012810545 0.03282447 0.2041539
0002f0 bd 6c d6 bc cf 7c bc 3d a8 a2 6e be de fc 83 bd
       -0.026174897 0.09203493 -0.23304236 -0.06444715
000300 00 26 1d be 6b fb ed be dc a9 dd be c9 ca 9f 3d
       -0.15346527 -0.4648088 -0.43293655 0.0780235
000310 32 cd 48 be 37 61 5b be 44 26 d4 3c de c5 fb 3c
       -0.19609526 -0.21423803 0.025897153 0.030733999
000320 8d 64 a5 bc cf 37 f0 3a 36 a9 8c bc 16 7b 82 be
       -0.020189548 0.0018327179 -0.01717053 -0.25484532
000330 2b 57 a6 3e 73 c5 f7 3d 28 93 33 be 2f ed 59 be
       0.3248838 0.12098207 -0.17536604 -0.21281885
000340 d5 ef 11 be 98 23 2b 3f 7b 01 ec 3d 60 ad 1a bd
       -0.14251645 0.66851187 0.1152372 -0.037763
000350 67 20 e3 3d a9 0e 7e 3e e3 dc 12 be 0c 4d 28 3e
       0.11090165 0.2481028 -0.14342074 0.16435641
000360 dd 7a a6 3d 9b 89 86 3e 60 37 7d be 80 c4 bf 3c
       0.08128903 0.2627686 -0.24728155 0.023409128
000370 21 96 0d 3e 39 3a af bd e6 a8 8b be 68 fe 37 3d
       0.13826801 -0.08556027 -0.27277297 0.044920355
000380 60 7d f9 3c c1 7e 42 3e b0 a5 bc be c0 e1 cf be
       0.030455291 0.18993665 -0.3684516 -0.4060192
000390 e1 1d 09 bf b9 d6 9e be 80 9a 37 3e a2 9e 5d be
       -0.53561217 -0.31023195 0.17930031 -0.21642545
0003a0 03 3d cc bd 21 f1 93 3d ab 8e 3c bb 58 cf c2 be
       -0.099725746 0.07223726 -0.002877156 -0.38048816
0003b0 23 69 04 3e 85 ec a4 be 7e 3b d3 be b6 ff f1 3d
       0.12930731 -0.322117 -0.41256326 0.11816351
0003c0 2f a2 d4 be 18 9d 5a 3e 08 ba 00 be 92 98 24 be
       -0.41529986 0.21348989 -0.12570965 -0.16073826
0003d0 06 58 62 3c 22 8e 2e 3f 10 30 80 bd ba 98 50 be
       0.013814932 0.6818563 -0.06259167 -0.2037076
0003e0 58 13 90 bd c7 fd 8f 3d b0 94 4b be 70 19 88 be
       -0.070349395 0.07030826 -0.19880939 -0.26581907
0003f0 e1 4d 39 3e 83 86 06 bf 82 d8 97 3e 8a ba 49 3c
       0.18096115 -0.52549 0.2965737 0.012312541

actor.init_leaf_node_embed.2.add_bias._bias f4 [64, 1]
000000 1c 5d 8b 3e c4 9a 0b 3e 80 a1 25 3d d9 a9 01 3c
       0.27219474 0.13633257 0.04043722 0.00791403
000010 01 93 36 be ac 3f 2e 3c 1c c6 5a be b0 af 8e be
       -0.17829515 0.010635298 -0.21364635 -0.27868414
000020 22 b8 27 be ab c5 32 be 30 5f 8e 3e fa c2 1e be
       -0.16378835 -0.17458217 0.27806997 -0.15504065
000030 32 09 c4 3d d7 12 bb bd 75 2f c8 bd bf 65 94 bd
       0.09572066 -0.09134453 -0.09774677 -0.07245969
000040 6c 19 13 3e b5 63 12 be 94 dc a5 be dd 61 12 bd
       0.14365166 -0.14295848 -0.3239485 -0.03573786
000050 21 90 19 3d 1d 18 af 3d ef 69 0d 3c a6 40 36 3d
       0.037490968 0.08549521 0.008631214 0.044495247
000060 b3 49 70 3e d3 75 34 bd ed fb 16 bb 34 72 b1 bd
       0.23465614 -0.04405768 -0.0023038343 -0.08664361
000070 17 38 30 be d8 f7 e9 3d 09 b2 12 be 48 41 89 bc
       -0.17208897 0.114242256 -0.14325728 -0.016754761
000080 41 c7 de 3d 61 7c 78 bd df ef 1e be e1 2b 18 3e
       0.108778484 -0.060665492 -0.15521191 0.14860488
000090 e6 3a 67 3e d6 21 45 bd de 21 e7 bc 4b cc 07 be
       0.22581062 -0.04812797 -0.028214391 -0.13261525
0000a0 fc 4e 64 3d 14 1a 01 bf 06 0e 43 3e c0 fa 71 3d
       0.055739388 -0.5043042 0.19048318 0.059077024
0000b0 ef 8a 0c be 9c 33 33 bd 32 34 14 be 67 07 21 bd
       -0.13724874 -0.04375039 -0.14473036 -0.0393137
0000c0 cd 06 6e be f2 13 2a 3d 96 9d 5a bd f8 98 72 bd
       -0.23244782 0.041522928 -0.053372942 -0.059227914
0000d0 b0 de ca 3d bb 1b 29 be f9 bf 42 be 3e 04 cd 3d
       0.099057555 -0.16514485 -0.19018544 0.10010575
0000e0 01 c6 48 3c 9a 70 67 be 31 2d 45 3e de 05 8b be
       0.012254239 -0.22601548 0.1925552 -0.27152914
0000f0 15 e1 09 3e 84 5b 0a be 15 23 8e 3d 22 fe d0 3c
       0.13464768 -0.13511473 0.06940285 0.025511805

actor.init_next_embed.0.module.weight f4 [32, 6]
000000 11 58 17 3e b2 61 17 be d2 09 99 be d9 7b e0 be
       0.14779688 -0.14783362 -0.29890305 -0.43844488
000010 15 c3 93 be 08 7c 2c 3c 2a e6 66 be 51 ff c7 bd
       -0.28859773 0.010527618 -0.22548738 -0.097654946
000020 08 51 3f 3e f1 24 7b be 6e 95 fa 3c 90 45 6a be
       0.18683255 -0.24525811 0.030588832 -0.22878098
000030 a7 56 0d 3f 0d 16 89 be 7b fc 83 be 13 65 96 bd
       0.55210346 -0.26774636 -0.25778565 -0.07343497
000040 bb 70 11 be 49 55 6b 3e 3c 81 0c bc ff fb 14 3d
       -0.1420316 0.22981752 -0.008575734 0.036373135
000050 95 95 07 bd 8c 61 d5 3e 03 b0 f0 be fa 22 bb be
       -0.033101637 0.41675985 -0.47009286 -0.36550122
000060 37 6a dd 3d 52 13 d8 be 94 1b fe bd 2f 35 81 be
       0.108112745 -0.4220224 -0.12407604 -0.25235888
000070 61 e9 c0 bd 17 71 1c be a9 b3 b3 bc cc c5 13 bf
       -0.094195135 -0.15277515 -0.021936255 -0.5772369
000080 bf 29 91 3e a0 ef 36 bf cb d7 e7 bd 8a f0 2b 3e
       0.28352162 -0.7145939 -0.11320456 0.16790977
000090 ca 8c 50 3f 8c c7 d2 3d 90 5a 91 3d 56 45 07 be
       0.8146483 0.10291967 0.070973516 -0.13210043
0000a0 d7 d7 33 bd 7f a6 b3 be b0 70 b3 bd c3 59 c9 3d
       -0.043907013 -0.35087964 -0.08761728 0.09831574
0000b0 b6 52 15 3e b6 b1 b0 3d ef 38 9c be da aa 35 3e
       0.14582333 0.08627646 -0.30512187 0.17740956
0000c0 fb 0f 2b be 79 28 17 bf 38 54 7a 3e 82 f4 05 bd
       -0.16705315 -0.5904613 0.2444619 -0.032703884
0000d0 84 b2 af 3f 89 20 34 bf a7 5c d0 3d 8d a0 95 be
       1.3726354 -0.70362145 0.10173922 -0.29224053
0000e0 02 a6 3a be 0f 16 52 3d 0f 3d b3 be 45 c4 ec be
       -0.1822739 0.051290568 -0.35007522 -0.46243492
0000f0 31 18 a4 be 36 78 3a 3e 44 12 84 3c e2 43 c2 3e
       -0.32049707 0.1820992 0.016121991 0.37942415
000100 8c a8 8d 3e de 2d d7 be 7d 04 e8 bd a3 7c ef bc
       0.27667654 -0.4202718 -0.11328981 -0.029234236
000110 9c 2c b1 bc 56 77 b0 3d ea 3f 87 3d d9 21 bf 3d
       -0.021627717 0.086165115 0.066039875 0.09332628
000120 5f 2b b6 be 91 7e 06 bd 63 50 15 3e cd 4f b9 3c
       -0.35579965 -0.032835547 0.14581446 0.02262106
000130 03 32 6c be 0e 20 a8 be b1 00 cb 3c 0a a8 15 3c
       -0.23065953 -0.32836956 0.024780603 0.009134302
000140 54 46 fe 3d 0d 58 67 3e 11 db cc be bc 5f 75 bd
       0.12415758 0.22592182 -0.40010884 -0.059905753
000150 c2 07 a6 3f 2d 89 69 be da 14 83 be bb 76 23 bf
       1.2971117 -0.22806235 -0.25601846 -0.63853043
000160 4d 7b aa bd e5 7e 8b 3c d2 5b 5f be 10 3a 82 bd
       -0.08324299 0.017028281 -0.2181237 -0.06358731
000170 69 6d 98 be da 2b a9 bd 6f 64 f1 bc 18 0d ca 3d
       -0.29770973 -0.08260317 -0.029466836 0.09865779
000180 f0 9c 8b be cc 78 0b bd 77 49 e6 bd 49 21 0c be
       -0.2726817 -0.034050748 -0.11244481 -0.13684572
000190 aa 7e 94 be c2 88 d7 3d 92 d5 11 3f 30 f0 4e bd
       -0.29002887 0.10524131 0.5696651 -0.05052203
0001a0 52 bc 49 3e 21 6d 82 be b2 bd 7d bd cf fa 6f bb
       0.19700745 -0.25473884 -0.061948486 -0.0036618
0001b0 fd 90 80 bd 3d 85 93 3e 19 18 6a 3e 3d 6d 36 bc
       -0.06277654 0.2881259 0.22860755 -0.011134443
0001c0 42 7a 95 bd 0f eb 7f 3e 70 d0 75 3f 65 fe 79 3e
       -0.072987095 0.24992011 0.96021175 0.2441345
0001d0 eb a9 b7 be fd 70 58 be 63 e1 10 3e f7 d8 0f 3e
       -0.35871825 -0.21136852 0.14148478 0.1404761
0001e0 50 c4 88 3e 50 55 d6 3c 59 e4 14 bd b0 9b 11 be
       0.26712275 0.026163727 -0.03635058 -0.14219546
0001f0 c3 96 85 be 42 58 2a 3e 2c ec ee bc e2 10 58 be
       -0.26091585 0.1663523 -0.02916535 -0.2110019
000200 23 e0 37 bf 19 29 d3 bd a5 8c 05 be 54 de 0a bd
       -0.7182638 -0.10310573 -0.13041933 -0.033903435
000210 08 ad eb 3d a4 45 17 be a0 75 c7 bd 92 18 06 3e
       0.115076125 -0.1477266 -0.09739232 0.1309531
000220 aa 2d b4 be 0e 58 79 3d d3 cf 1c 3f 0e 27 88 be
       -0.3519109 0.06087499 0.61254615 -0.26592296
000230 33 62 a9 3e 2a b6 b0 be cb 1c dd 3e 73 58 bc 3e
       0.33082733 -0.3451398 0.4318603 0.3678623
000240 82 bc a4 3f 5f dc cb bd 22 d6 3a be 46 47 9f be
       1.2870028 -0.09954142 -0.18245748 -0.31109065
000250 6c 0c 3f be f7 27 66 3e 7e d1 2d 3e b7 67 92 3e
       -0.18657082 0.22476183 0.16974446 0.28594753
000260 a8 c0 83 bd af f7 47 be ec 3e 45 be cc 32 ca be
       -0.06433231 -0.19528078 -0.19262284 -0.3949188
000270 d5 a6 9a 3a 93 fe a3 be 6c 75 39 3e 32 fc 85 bd
       0.0011798987 -0.32030162 0.18111199 -0.06542243
000280 e9 ba 6b be 9b 85 b8 bc 9c 26 03 bf a3 c9 c3 be
       -0.2302052 -0.022524646 -0.5123079 -0.38239774
000290 82 4f 41 be 32 49 48 be 23 c1 00 3e 84 bb 2c be
       -0.18877986 -0.19559172 0.12573676 -0.16868407
0002a0 cf 49 11 3f 65 97 52 3e 0a ec 9b bc 91 16 a3 bf
       0.5675325 0.20565565 -0.01903345 -1.2741262
0002b0 23 bb f2 bb d2 eb 19 3e bf 65 d7 3e ab 43 6c 3e
       -0.0074075623 0.15031365 0.42069814 0.23072688
0002c0 ce f5 af be 85 c3 1d bf 2d c1 cb bc 3c d4 fb 3d
       -0.34367222 -0.61626464 -0.024872387 0.1229634
0002d0 63 bb 6d be a4 b2 84 be ec 67 97 3e e8 24 a8 3d
       -0.23216014 -0.25917542 0.29571474 0.08210164
0002e0 d6 a9 9b bb 44 ca c1 bd 68 ff 71 bd 89 e3 67 be
       -0.0047504706 -0.09462407 -0.059081465 -0.22645392
0002f0 9d b3 f0 be 5e 50 fb bd a3 f9 d3 bd b0 a4 75 bd
       -0.47012034 -0.12271188 -0.10350349 -0.05997151

actor.init_next_embed.0.add_bias._bias f4 [32, 1]
000000 46 f4 2c 3e 08 0e 79 3d 59 90 94 bd 87 be 64 bd
       0.16890058 0.060804397 -0.07254095 -0.055845764
000010 9f cf b1 3b 62 ec 80 be 65 d8 f0 3d 5e 3c 7a bd
       0.0054263617 -0.25180346 0.11760024 -0.061092727
000020 91 d1 5c be 22 7f 70 bd 63 20 b7 bd 91 f3 84 3e
       -0.21564318 -0.058714993 -0.08941724 0.25967076
000030 47 aa c7 3c d7 4d 18 3e 85 2e bf 3e f2 9b 86 3e
       0.024373187 0.14873444 0.3734018 0.26290852
000040 17 60 a0 3d 6a aa 66 be ca 74 8c be cc cc be 3e
       0.07830828 -0.22525945 -0.27432853 0.37265623
000050 28 8b a1 bd 0c 56 ca 3b bf 90 7a be a4 4f 7f bd
       -0.0788787 0.0061748084 -0.24469279 -0.06233181
000060 cd 38 83 3e fa 7f c2 bd dd 88 1c be a7 a5 98 3c
       0.25629273 -0.09497066 -0.15286584 0.018633677
000070 da f0 21 3d 6c 37 16 3e d0 f3 06 3e 57 f1 db 3d
       0.039536335 0.1466958 0.13178945 0.10739391

actor.init_next_embed.2.module.weight f4 [64, 32]
000000 86 ec fe 3c 91 f9 da bd c3 54 5f bc 0b fe 36 3e
       0.031118643 -0.10692132 -0.013631049 0.17870347
000010 6b 45 1a 3e 78 be a4 3d 29 97 2b be 21 d9 6b be
       0.15065543 0.080441415 -0.16756882 -0.23032047
000020 d1 34 02 be 35 df a0 3e 55 b3 b5 3d 57 78 15 bf
       -0.1271546 0.31420293 0.088720955 -0.5838675
000030 f4 54 c4 3d b3 9e cc 3e bf 10 60 3e 7c 1b b3 be
       0.09586516 0.39964828 0.21881388 -0.34981906
000040 b2 18 d6 bd 00 73 89 3d 4a 9a 99 bc 64 3f 88 be
       -0.10453929 0.06711388 -0.018750329 -0.26610863
000050 14 4a 82 3d 57 0b 6e bd f7 23 f3 be 7c 20 f0 be
       0.063617855 -0.058116283 -0.47488376 -0.46899784
000060 71 23 d9 be 60 ff b4 3e 58 68 30 be 57 62 b9 bd
       -0.42409852 0.35351086 -0.17227304 -0.0905196
000070 23 0e 8f 3d 01 97 5a 3e 82 8b 94 3e 58 4f b9 bd
       0.06985118 0.21346666 0.29012686 -0.09048337
000080 83 5c 58 3e 21 03 77 bd 7c 6e 24 be db 4b 88 bd
       0.2112904 -0.06030572 -0.16057771 -0.06655093
000090 70 98 be bd 11 0c 2e be 5e eb 2c be 86 90 9d 3a
       -0.09306419 -0.1699679 -0.1688666 0.0012021221
0000a0 3b cd 7b 3e 8d de 33 3d 3a a8 f4 3e 86 94 a9 3e
       0.24590008 0.043913413 0.47784597 0.33121127
0000b0 79 ca aa bc 94 6b 1d be 48 f1 7b be 27 3a 56 bc
       -0.0208485 -0.15373069 -0.2460376 -0.013075388
0000c0 8f a5 45 3e 4e 9a a6 3c 22 df 92 bd c1 35 01 3f
       0.19301437 0.02033725 -0.071714655 0.50472647
0000d0 27 c1 2f 3e 5b a3 b9 3c c5 02 59 3d e3 9a 52 be
       0.17163526 0.022660902 0.052981157 -0.20566897
0000e0 ae db 12 be b8 09 5e 3e e9 87 38 bc f3 52 9e be
       -0.14341614 0.21683395 -0.011262872 -0.3092266
0000f0 92 3e e7 bd eb b2 2b bb 60 75 1b bd bc 6d 63 bd
       -0.11291231 -0.0026199173 -0.037953734 -0.055524573
000100 22 1d e7 bc d3 21 ed 3c 0d cb 40 3e 43 b6 02 be
       -0.028212134 0.028946793 0.18827458 -0.1276484
000110 c0 32 dd bb 01 e6 41 3e 06 30 01 bf 78 9c b2 be
       -0.0067504346 0.18935396 -0.504639 -0.34885
000120 49 c3 d4 be a0 28 11 be 9d 14 bf 3c b2 7a e7 3e
       -0.4155524 -0.14175653 0.023325259 0.45210797
000130 0e 7c c9 3d d3 99 a0 be c5 c4 53 bf 06 1c f3 3d
       0.09838115 -0.3136736 -0.8272212 0.118705794
000140 8a cc 4d be c3 44 83 3d c7 a2 44 3e d8 d8 59 3e
       -0.20097557 0.064096 0.1920272 0.21274126
000150 93 a9 97 bd bf ce a4 bd 15 3b 7d bd 96 1f e2 3e
       -0.074053906 -0.08047246 -0.061823923 0.44164723
000160 b4 9f df be f0 a9 c8 3d b4 fd 5c be 02 a1 21 be
       -0.4367653 0.09798038 -0.21581155 -0.15784076
000170 35 69 f5 be 2f 65 48 bf 07 56 90 be 58 67 61 be
       -0.4793183 -0.78279394 -0.28190634 -0.22012079
000180 22 c5 85 be 20 26 28 3e f2 eb c3 3e 5b da bd bd
       -0.26126963 0.16420794 0.3826595 -0.092701636
000190 a3 01 9f be cf 7a c8 3c 31 41 d3 be c3 6a 01 3e
       -0.31055936 0.024472622 -0.41260675 0.12638383
0001a0 19 87 90 bb e6 c3 70 3e d8 4e af be 33 a0 74 3e
       -0.004410636 0.2351223 -0.3423984 0.23889236
0001b0 1d ec e1 3d 36 fc 1c 3e 4b db 5d be 48 c3 80 be
       0.11031363 0.15330586 -0.21665685 -0.25148988
0001c0 71 24 1c be da 30 4f 3e 42 06 01 3d 3e 57 9b be
       -0.15248276 0.20233479 0.03150011 -0.30339998
0001d0 a7 43 7f bc 36 60 94 3d 97 af 27 3e 43 f2 4a 3f
       -0.015580094 0.07244913 0.16375576 0.7927591
0001e0 8e 4e a5 be 08 6e dc be 4b 84 bf bd 9f 4f a7 be
       -0.32286495 -0.43052697 -0.09351405 -0.32677934
0001f0 5e 9f 86 be 96 5a 63 be 6b a2 c7 3d 06 c9 60 be
       -0.26293463 -0.22202525 0.09747776 -0.21951684
000200 35 da 5c be 65 bb c2 be ae 57 c6 ba 52 c3 74 3e
       -0.21567614 -0.38033596 -0.0015132332 0.23902634
000210 a5 f1 f6 3d 8d 65 26 be 94 f7 1b be 73 6f a9 bd
       0.12057809 -0.16249676 -0.15231162 -0.082732104
000220 a6 06 8e 3e a1 f8 fb bd 87 0e 72 be 83 d1 03 3c
       0.27739447 -0.123032816 -0.23638354 0.008045557
000230 76 a0 21 bd e4 c2 ee 3d b5 be a2 3d 5b d3 e9 bb
       -0.039459668 0.11658266 0.07946531 -0.0071357912
000240 3c 9d d8 3d 37 72 1b 3e 52 c1 1c be 75 b9 dc be
       0.10576865 0.15180288 -0.15308121 -0.43110242
000250 85 ab 33 be cc 83 c3 3d 54 aa 24 3e 14 1d ca bb
       -0.17545898 0.09546623 0.160806 -0.006168017
000260 4c 41 5d 3e 90 e2 c4 bd 16 dd e5 3e 39 48 4a 3e
       0.2160694 -0.09613526 0.44895238 0.19754113
000270 fe de 75 be ca 91 f1 bd 41 45 bc bd 77 c2 62 3d
       -0.24010846 -0.11795385 -0.09192897 0.055361237
000280 9c 4a c6 3d c1 86 16 bd ba 9c 33 3d 49 b3 d1 bd
       0.09682199 -0.036749605 0.043850638 -0.10239274
000290 2a 67 ab 3e d4 30 4b 3e 8d 72 9d bb 22 70 12 3e
       0.33477145 0.19842845 -0.0048049153 0.14300588
0002a0 13 2a 71 3d 30 56 5b 3e fe ae c7 3c d3 5a 2c 3f
       0.058878016 0.21419597 0.024375435 0.67326087
0002b0 4e 98 48 3d 9a 5e b5 3c dd f4 09 be 56 fb 0a 3f
       0.048973374 0.022139836 -0.13472314 0.5428976
0002c0 f6 10 72 3b b7 c5 a4 3e 0c 43 f0 3d 08 28 62 3f
       0.003693638 0.32182094 0.11731538 0.8834233
0002d0 4d ec 48 3d e3 e2 0a bd 13 7b 82 3e ea 76 2b 3e
       0.04905348 -0.033907782 0.25484523 0.16744581
0002e0 56 3d e4 3e c1 bf a9 bd 80 58 88 3d 32 7f b4 3e
       0.44578046 -0.08288527 0.06657505 0.35253292
0002f0 07 a2 55 be b5 15 65 be 2d 2d 6f 3e 63 20 05 be
       -0.2086259 -0.22371562 0.23357077 -0.13000636
000300 b3 24 2d 3e d7 a1 34 3e 45 9b 66 3c bf 93 32 3e
       0.16908531 0.17639862 0.014075105 0.17439173
000310 36 41 93 bd 5d 80 fd 3c 89 70 45 be ee bd a6 be
       -0.071901724 0.030944997 -0.1928121 -0.3256678
000320 59 7f e3 3d 6e 54 65 3e 16 d8 9b 3d c5 e3 3e 3e
       0.11108274 0.22395489 0.076095745 0.18641575
000330 10 da b5 3c a3 e2 0c bd 41 cd 0a be 66 1e 09 be
       0.022198707 -0.034395825 -0.1355486 -0.13390502
000340 02 c2 46 bd bc e8 2b 3e 6c 82 5a be 7a 36 30 bd
       -0.048524864 0.16788 -0.21338814 -0.043020703
000350 87 2c 4e 3e 4e dd 8a be ac 37 2d 3e 3c 2f 7e 3e
       0.20134173 -0.27121967 0.16915768 0.24822706
000360 c2 d7 4d be b8 6e 92 3d 00 66 22 3d 55 99 67 be
       -0.20101836 0.07150024 0.039648056 -0.22617085
000370 e9 51 2c bd f2 87 54 bd da 9d e2 3d 35 41 97 be
       -0.042070303 -0.05188746 0.11065264 -0.29541937
000380 69 ea db be fe ac 26 3d 18 33 94 be 2e ba bd 3c
       -0.42952278 0.040692322 -0.2894523 0.023160066
000390 75 09 65 3e e7 ae 95 be 1f 14 67 be c1 92 49 be
       0.22366889 -0.29235002 -0.2256627 -0.19684888
0003a0 3f 6a 74 bd 67 35 0d bd fe 87 b4 3e 92 68 db 3e
       -0.059671637 -0.034474757 0.35260004 0.42853218
0003b0 31 0f c5 3d 97 36 2d 3e 55 89 05 3f cb 02 09 3f
       0.09622038 0.16915356 0.5216268 0.53519887
0003c0 1c c3 fb 3c 51 ab b1 3e 1b 57 4e 3e 08 bb db 3e
       0.030732684 0.34701017 0.20150416 0.4291613
0003d0 9f 6b ab be 00 8b 5f 3c ff 3f 28 be 6b 0a 38 3f
       -0.33480546 0.01364398 -0.16430663 0.71890897
0003e0 eb a1 fb 3e 1b d0 c2 3c 5b 59 c1 3d 3c 49 c7 bd
       0.4914697 0.023780873 0.09440871 -0.09730765
0003f0 32 2a c7 3c bf 4e 7a 3e 72 1c 98 3d 55 2c c6 3e
       0.024312112 0.24444102 0.074273005 0.38705698

actor.init_next_embed.2.add_bias._bias f4 [64, 1]
000000 78 af 0d bf 5c 10 ce be 5a cd a1 be 7b a2 b3 be
       -0.5534587 -0.40246856 -0.31601983 -0.350849
000010 a8 27 b3 bd c2 fc 86 3f 7c 0c d8 be 07 e7 48 3f
       -0.08747798 1.0545886 -0.42197025 0.7847752
000020 6b 5a 74 3f d0 98 17 bf b5 9a 38 bf 29 bc e1 3b
       0.95450467 -0.5921755 -0.72111064 0.0068888855
000030 b8 63 99 3f f3 13 7e bf 81 53 74 bf 0a 91 24 bf
       1.1983557 -0.9924919 -0.95439917 -0.6428381
000040 0d ea 57 bf dd 00 55 3f d5 19 15 3f 38 9f 58 be
       -0.8434151 0.8320444 0.5824254 -0.21154487
000050 6b 1e d8 bd 72 7a 38 be 7d 7f b0 bf 6b 4c 0b 3f
       -0.10552677 -0.18015459 -1.3788906 0.5441348
000060 d4 81 12 c0 b2 7a 48 bf 16 d3 73 be e0 f9 89 bf
       -2.289174 -0.7831222 -0.23810992 -1.0779381
000070 88 16 01 3f 45 4e c5 3e 4e f8 06 bf c9 9c 1a bf
       0.50425005 0.38536277 -0.5272263 -0.60395485
000080 c9 ec 91 bd 8f db 62 3f 23 f4 a5 be 2f a2 c4 bd
       -0.07125241 0.8861627 -0.32412824 -0.096012466
000090 df 95 b2 3f 3a 08 3c 3f 21 f3 a9 be 65 01 20 3f
       1.3951987 0.7345005 -0.33193305 0.6250213
0000a0 1f e2 dd bf db ad 99 3f 58 29 e4 be 47 a3 b1 bf
       -1.7334632 1.2006181 -0.44562793 -1.3877953
0000b0 a2 b7 dd 3e 02 7c a3 3f db 81 93 3f ae 66 37 3f
       0.43304163 1.2772219 1.1524004 0.7164105
0000c0 56 2a 1f bf 37 6f a9 3e 38 66 43 3f 79 40 c7 3e
       -0.62173975 0.33092663 0.7632785 0.38916376
0000d0 b0 f1 96 3e a1 6b 3a ba 10 d8 94 be 70 60 33 bf
       0.29481268 -0.0007111375 -0.29071093 -0.70069027
0000e0 a6 d4 d7 3d 29 7e 06 3f 36 cb e0 be 86 d8 89 3e
       0.10538606 0.52536255 -0.43905038 0.26923007
0000f0 ec 09 bc 3e e4 eb 54 3f d2 89 7a 3d 26 b1 82 3e
       0.3672632 0.8317244 0.061166592 0.2552578
