logs/experiment/Discrete_A2C_1-5Box_10x10x10Bin-2022.08.09-15-00-00/PCT-Discrete_A2C_1-5Box_10x10x10Bin-2022.08.09-15-00-00_2022.08.09-19-29-47.pt (torch, 236314 bytes, 24 tensors)

actor.init_internal_node_embed.0.module.weight f4 [32, 6]
00000000: e501 05bf 1290 a73c b93b 20bf 81ac 683d
00000010: dfe3 48be 15a1 edba ea10 a1bd 59f1 133e
00000020: f367 b5be 812d 8fbe 0815 c1be 8e70 ddbe
00000030: 4d3b d6bd e3fc 8a3d c9b4 483e 975c 793e
00000040: 3bc1 cc3d 7c66 2dbf 8d9f aa3e 4f20 75be
00000050: d80f 9b3e 45da 07bf 3bf1 a2bd 2420 203f
00000060: cfac a8bd efb1 bebe a7ac 323e cc1f 963d
00000070: 2d0f 8f3e f64b 513f fb58 cebc 0ecd 753d
00000080: 5e90 6c3e 4b71 753c 8310 8abd f2ad 76be
00000090: 07d8 983f c2f1 b0be 966d 54bf 43f9 aabf
000000a0: 29ae 173f 94fc 353f 27f6 b0be 0fb2 b3be
000000b0: 1e43 533d f7c0 65be 3b9d 933e fada 163f
000000c0: 5130 00be 1961 db3e 1933 1f3f 7f0c 3dbe
000000d0: 58cf 83be 99ff a13e dac1 ce3e 441e 8fbd
000000e0: beba 063f 632f 95bd f204 74bd b66f 07bd
000000f0: e615 dfbe fc71 9dbe 9eb6 b0be 1288 f73e
00000100: 6f10 8e3e 417a 8abe 39c8 e8bd b086 263f
00000110: 0034 e5be 2e38 143e 4e68 25bf 6787 e63e
00000120: c600 b53e f654 10bf 28e0 79be e018 5c3e
00000130: eac5 92be 4362 343e 6150 313e a934 773e
00000140: 85a1 8abd 8dff 8ebe 5589 16bd 1b46 14be
00000150: 9eb4 843e ea7f 03bb bcd1 853b 050f 18be
00000160: 0e4e edbb 250f 053d 375b b43e bb6d edbd
00000170: ae98 9d3e c90d 7abe ba8a 4fbe d6b4 823e
00000180: edc2 03bf d7e7 0ebf 74e8 c3be 4eec d8be
00000190: 8a21 2dbe bd7c 9ebe abaa 473c e512 1f3e
000001a0: 32c5 a63e 6551 a1bd c83a aebc 91c3 0bbc
000001b0: c4f1 c9bd 99fd 2cbf f3cd 24bf 17c6 89bd
000001c0: 68bd 31be 8102 2fbe 9bd7 693e 8353 b6bd
000001d0: 580d 46bf 20b5 80bd a349 a3bd 34bc c03e
000001e0: 26c5 763c a3e4 60be 637d b2bc 0127 dabe
000001f0: e9f6 2ebf 35d9 c43d f01c abbd c2ad c3be
00000200: ebcc 23bf 69d5 a03d 4698 8f3e 0e4e 1c3f
00000210: cdc4 b7be 7bfd b83c d073 47bf 78b8 a63e
00000220: d284 fc3e 8e34 843b 64fd c83d e59e 44bd
00000230: 84c1 debe 32a2 21be dac3 dabe 0fc3 0ebf
00000240: 953e 253e 1c0b 1dbe 8d37 3e3f 56c5 53bc
00000250: 78c7 083e cd97 d5bd 1610 a33d f30f 80be
00000260: 3d00 0bbf da59 5d3e 6135 c43e 8d73 0cbe
00000270: f52a 123f 9205 583d 899d 493e 3149 513e
00000280: 1b16 37be 869c 66be 9bd0 b23e 2579 cc3c
00000290: 5330 77be f8fe e73e cfc5 ad3d deb5 e2bd
000002a0: 3358 d9bd ee74 6dbe 4854 0a3e 4f8f 0a3f
000002b0: 5a9f 013f 6c74 51bf 456c 6d3e ce8c 5bbe
000002c0: a2ed d1be 0de5 80bd ae36 773d cf77 6b3b
000002d0: c1b9 acbe a2d1 c8be 7546 ae3f 02d6 b5bd
000002e0: 1755 70be 04f7 b03d c889 5b3e e813 bc3d
000002f0: 1146 9cbd 1d28 9c3d 5b55 2ebe 7a55 f6bd
-0.51956016 0.02045444 -0.6259113 0.056805138 -0.19618176 -0.0018129671 -0.07864554 0.14447536
-0.3543087 -0.27964404 -0.37711358 -0.43249935 -0.104605295 0.067865156 0.19600214 0.24351726
0.09997793 -0.67734504 0.33324853 -0.23938106 0.30285525 -0.5306743 -0.07956167 0.6254904
-0.082360856 -0.37245128 0.17448674 0.073302835 0.27941266 0.8175653 -0.025188914 0.06001001
0.23101947 0.014980624 -0.067414306 -0.24089792 1.1940926 -0.34559447 -0.82979715 -1.3357319
0.5925012 0.7108853 -0.345628 -0.35096785 0.05157768 -0.22436891 0.28830895 0.5892788
-0.12518431 0.42847517 0.62187344 -0.18461798 -0.25744128 0.31640318 0.40382272 -0.069881946
0.52628696 -0.07284429 -0.05957503 -0.03306552 -0.43571395 -0.30751026 -0.34514326 0.48346
0.27746913 -0.27046397 -0.113663144 0.65049267 -0.44766235 0.14474556 -0.6461228 0.4502518
0.35352153 -0.5637964 -0.24401915 0.21493864 -0.2866662 0.17615609 0.17315818 0.24141182
-0.06769089 -0.27929345 -0.036752064 -0.14479868 0.2591905 -0.0020065256 0.00408384 -0.1484948
-0.007241971 0.032485146 0.3522584 -0.11593195 0.30780548 -0.24419321 -0.20267764 0.25528592
-0.5146931 -0.5582251 -0.38263285 -0.42367786 -0.16907325 -0.30954543 0.0121866865 0.15534551
0.32572323 -0.07876853 -0.021268263 -0.008530513 -0.09860566 -0.6757446 -0.64376754 -0.06727236
-0.17357409 -0.17090799 0.22836153 -0.08902647 -0.7736411 -0.06284547 -0.079730295 0.37643588
0.015061652 -0.21962218 -0.021788305 -0.42607883 -0.68345505 0.096117415 -0.08355129 -0.38218504
-0.63984555 0.07853205 0.28045863 0.610566 -0.35892335 0.022581806 -0.7791109 0.32562613
0.49320084 0.0040345853 0.098139554 -0.048003096 -0.43507016 -0.15784529 -0.42727548 -0.55766386
0.16137154 -0.15336269 0.74303514 -0.0129254665 0.13357341 -0.10429344 0.079620525 -0.25012168
-0.5429724 0.21616307 0.38321975 -0.13715954 0.570968 0.052739687 0.19689001 0.20438077
-0.17879526 -0.22520646 0.34924778 0.02496011 -0.24139528 0.45311713 0.084849946 -0.11069845
-0.10612526 -0.23189136 0.13508713 0.5412492 0.50633776 -0.8181827 0.23185833 -0.21440431
-0.41001612 -0.06293688 0.06035488 0.0035929566 -0.3373547 -0.39222437 1.3615252 -0.088787094
-0.23469959 0.086408645 0.21439278 0.09183484 -0.076305516 0.076248385 -0.17024748 -0.12028022

actor.init_internal_node_embed.0.add_bias._bias f4 [32, 1]
00000000: 83f0 823c 9217 91be b132 b8bb 9ee7 b0bc
00000010: f2d0 153e f443 1c3d 2d1c c13b e288 07bc
00000020: 61ff 353d 7391 d73d 8b60 d33b d107 883c
00000030: f7a2 0ebb 0f58 a038 92c9 59bc 3a95 f13c
00000040: 92dc a3be 2594 75bd a87e f43c 38f0 e63a
00000050: 73a7 7dbe d508 6b3d bfb1 4e3d 0365 f33d
00000060: 224b 0b3d a415 5f3b 03f9 e03b 38d2 903d
00000070: 1b16 dd3c 00bd 42bd 4e8e 8f3d 13be 8ebd
0.015983826 -0.28338295 -0.0056212773 -0.021594819 0.14630488 0.038150743 0.0058932514 -0.0082723815
0.044433 0.10525789 0.006450718 0.01660529 -0.0021764615 7.645797e-05 -0.013292687 0.029490102
-0.3200422 -0.059955735 0.02984555 0.0017619198 -0.24770908 0.05738147 0.05046248 0.11884501
0.0340072 0.0034039998 0.006865622 0.07071346 0.02698808 -0.047543526 0.07009564 -0.069698475

actor.init_internal_node_embed.2.module.weight f4 [64, 32]
00000000: 9d96 d33d e45c 353e 5934 f8bd 9582 253e
00000010: cec8 df3c 5a56 e93d ad43 103e 08cd 113f
00000020: 8b0e 8c3e 8535 0ebe 4d50 4e3f 0995 043e
00000030: 7892 0d3d f010 50be 7fe5 2fbf edde 973e
00000040: 92b6 8ebc df07 553e 51bf d23c 08cb 673e
00000050: 1967 63be e345 443e c899 8d3f c17a 61bd
00000060: a638 133f b9b5 583e 2a42 0b3e e28f 8a3e
00000070: 1505 133e 341c e3bb c21b 18be 087e 2c3c
00000080: f2c8 ab3e 3fb6 b03d b944 0abf d7f9 07bf
00000090: 3d95 1fbd f041 8b3e 34bd 893d e4df bcbe
000000a0: ca22 6cbe d360 453e 487d e33e c44e 1f3e
000000b0: 8e9a ae3e bee3 2f3d 6c21 3fbd 5eb2 803e
000000c0: 9310 6dbd 1e8f 5bbd 2866 f1bd 1bd4 10be
000000d0: aea4 1c3d d3e6 a43e ea9e 713f 11a6 b33e
000000e0: 92d7 2fbe 6f55 e93d 0f43 373c 0fe9 923d
000000f0: e9ea 2d3f f7b1 503e 191d 093e fecd f8bc
00000100: b06e 8dbe 97e7 b9bb de59 093f b896 183f
00000110: 1214 123f eda6 03bc 0384 9dbe 20e7 8b3f
00000120: 5838 53be b089 9bbe 7e07 fcbe 6301 41bf
00000130: 9f4e 263d f368 643e af3c f43e ef58 0dbf
00000140: d1cd cabd 6003 953d 73e2 033d c48c c8be
00000150: 1355 1abd ebc9 f73e becb cebd 7853 84be
00000160: 69ad 7bbd 9b01 3fbd bf13 b83d ea05 a93c
00000170: 4b9b 503e 36f3 2abe 57c5 533e c9e1 d93d
00000180: 6f1a aabc 4298 60be 26a8 02bd 56b8 e53e
00000190: 3830 b73d 1e3e 843c 8d6a 683d 1e2b 1a3e
000001a0: f134 ad3c 5e84 00bd 9ba5 933d f75a 91bd
000001b0: 84db 97be f5b0 853d 8bec a8be 293e 7b3b
000001c0: 12c4 e13d 858e 9ebe c81b 073e b4fd d73d
000001d0: b20e 85be 8e42 1e3f c307 12be 6df8 933e
000001e0: 3045 483e 7557 d9bb 3c18 133e 59ab b43e
000001f0: 9f95 ea3d d7c8 39bd ae22 ccbe c986 4c3e
00000200: 51c3 a33e 4a86 f0bd 07ec 48be 154c cf3d
00000210: caf4 12bf 08bd d0bd 14aa d73e bf08 06bf
00000220: 2750 0fbf c983 f53e bf5e d13e 5f68 c13e
00000230: 2778 a8bd 9a2f 4dbe 6120 8d3e 437c c3bd
00000240: 0a4c 683b c51c dabd 3c60 ea3a 09bd 803d
00000250: 7d71 10be ee0f cf3e b90b 4c3e 0f04 a1bc
00000260: e86e 53be de24 903e af09 af3e 861a 0b3e
00000270: 3c69 103f 6de9 2d3d c7c8 2a3e b11d 09be
00000280: 80f1 95be 0c7c dbbd 042e b2bc 46f8 e93c
00000290: 5777 603f 2c6f 84be c852 6dbe 55c3 b63e
000002a0: 4395 5a3e b625 a4bd 00a6 5c3f 669a c1be
000002b0: bb0a 97bc 4a36 47be bae5 373c 07e7 903e
000002c0: 7bb3 593e 6b02 553e 2664 a7bd d9c6 373b
000002d0: b43c 24bd 94ad b43d 85b5 ca3e 5c71 1bbf
000002e0: 0c5e 883d 9588 863e 460c 753e 1ec9 df3e
000002f0: 431f 4e3b fd47 f7bd ad8a f63c 743a 4d3e
00000300: 8435 aa3e 2866 2a3c 20d2 033e ef74 94bd
00000310: 4336 e73e ed8a 293d 6a87 65be efb4 213e
00000320: 6b16 993b 7355 44be 2a57 a73e 6479 55be
00000330: b1bf acbe 7bf2 c1ba b317 873e a783 f4be
00000340: 7c56 243c e103 afbe a752 9f3d 87af d5bc
00000350: 9dc2 2b3a fc4a 6f3d 5fd3 133c 3688 7a3e
00000360: 2931 0dbe e1e8 a43d 5597 34be 5566 e33e
00000370: 4ec2 a7be 77be ab3d 6086 dfbe 69f6 acbd
00000380: 8b4c e1bd 11b6 fabd 51e4 eebe ed55 a1be
00000390: ec49 cdbe ffe3 b7bc e82e 2d3e 2d9c 75bd
000003a0: 2e18 023e 81dd 973e 1794 f03e fcb0 ee3e
000003b0: d62f 41be 0bb4 ca3d e4ee 53be 7894 a5bd
000003c0: c368 78bd b3da 5ebe 4bf1 5e3e d408 323e
000003d0: 38fc e23c 1fc3 ccbe f311 2c3f b8ec d73c
000003e0: 3bac 0abf 20a6 293e 51a9 b1be c192 e0be
000003f0: 51e2 293f 494c 373e d3f1 c63e 6c86 d0bd
0.103314616 0.17711216 -0.121193595 0.16163094 0.02731743 0.113934234 0.14088316 0.5695348
0.27354845 -0.13887604 0.8059128 0.12947477 0.03456351 -0.20318961 -0.6870956 0.29662266
-0.01742104 0.20803784 0.025725992 0.22636044 -0.22207297 0.19167285 1.1062555 -0.055048708
0.57508314 0.21163072 0.13599458 0.270629 0.14357407 -0.0069308523 -0.14854339 0.010528095
0.33551747 0.08628511 -0.5401111 -0.531156 -0.038960684 0.27198744 0.06725541 -0.36889565
-0.23060146 0.19275217 0.4443152 0.1555739 0.3410229 0.0429418 -0.046662733 0.25136083
-0.057877135 -0.053603284 -0.11787063 -0.14143412 0.03824299 0.32207355 0.9438311 0.35087636
-0.17172077 0.11393248 0.011185422 0.07173359 0.6793657 0.20380388 0.13390006 -0.030371662
-0.2762351 -0.0056733596 0.5365275 0.5960498 0.57061875 -0.008035404 -0.3076478 1.0929909
-0.20626962 -0.30378485 -0.49224466 -0.7539274 0.040602323 0.2230566 0.47702548 -0.55213827
-0.099025376 0.07276034 0.03219838 -0.39169896 -0.03767879 0.4839624 -0.100974545 -0.25844932
-0.061444674 -0.04663239 0.08988141 0.020632703 0.2037174 -0.1669434 0.20680748 0.10638768
-0.020764558 -0.21933082 -0.03189864 0.448672 0.08944744 0.016142901 0.05674224 0.1505551
0.021143408 -0.031376235 0.07209321 -0.07097428 -0.29659665 0.065278925 -0.32992968 0.003833661
0.110237256 -0.3096811 0.13194191 0.10546437 -0.25987774 0.61820304 -0.14260773 0.2890047
0.19557643 -0.00663274 0.14364713 0.35286978 0.11454319 -0.04535755 -0.39870209 0.19973291
0.31984952 -0.117443636 -0.19621287 0.10121933 -0.5740477 -0.10192305 0.42121947 -0.52357095
-0.5598168 0.47952107 0.40892598 0.3777494 -0.08226042 -0.2003769 0.27563766 -0.095451854
0.0035445713 -0.106500186 0.0017881463 0.062860556 -0.14105792 0.4044184 0.19926347 -0.019655256
-0.20647776 0.28153127 0.34187075 0.13584337 0.56410575 0.04245894 0.16678153 -0.13390233
-0.29285812 -0.107170194 -0.021750458 0.028560769 0.876821 -0.25866067 -0.2317611 0.35695902
0.21346001 -0.08015005 0.86190796 -0.3781311 -0.018437734 -0.19454303 0.011224205 0.2830126
0.21259873 0.20801704 -0.08173399 0.0028042106 -0.040096954 0.0882217 0.39591613 -0.6071985
0.06658563 0.2627608 0.23930463 0.43708128 0.003145174 -0.120742775 0.030095423 0.2004183
0.33243954 0.0104003325 0.12873125 -0.07248866 0.45158586 0.041392256 -0.22414938 0.15791677
0.004671862 -0.19173221 0.32683688 -0.20847088 -0.3374 -0.0014796996 0.2638527 -0.47756693
0.010030385 -0.34182647 0.077794366 -0.026084675 0.0006552132 0.05842112 0.009022563 0.24466023
-0.13788284 0.080522306 -0.17635854 0.4441401 -0.3276543 0.08385938 -0.43657207 -0.084454365
-0.110009275 -0.12241758 -0.46658567 -0.3151087 -0.4009546 -0.022447584 0.16912425 -0.059963394
0.12704536 0.29661182 0.46987984 0.46619403 -0.18865904 0.09897622 -0.20696598 -0.08084959
-0.060646784 -0.21763115 0.21771733 0.1738618 0.027708158 -0.39992616 0.6721489 0.026357993
-0.5416905 0.16567278 -0.3469949 -0.43861964 0.66360956 0.17900194 0.38856372 -0.10181889

actor.init_internal_node_embed.2.add_bias._bias f4 [64, 1]
00000000: 68af 343e 194a 983e f9b0 50bd 1b2d 963d
00000010: 1ced 233e 2b74 993e be3c 283d bbcd e13d
00000020: 2a52 9dbd 11a4 cdbd 64c5 813b 2c8f f53c
00000030: c049 92bd c5b5 a03d 19dc 0b3e 9495 193e
00000040: 9554 933c c2e5 49be 1d20 d33c dc9e b43d
00000050: 7065 89bb caf2 fc3c dec2 6fbd f786 85bd
00000060: 2b52 0b3e ffd3 32bd 5e25 34bd 94b3 373d
00000070: 56bb bfbd 1fd1 56bc 17aa e23b 8c53 16bb
00000080: 1357 993d f36a 063d 8408 883e 4224 a8bd
00000090: b0c5 a03c ec90 0fbe c2f7 07bd e8aa 533e
000000a0: 5cd2 31bd 8127 7fbe 219f 173e b954 29bc
000000b0: 0474 02be 729a 84bd d2a1 99be 3c54 8ebe
000000c0: 4e19 8e3e 5b55 4e3c e7fa c23d 93bc 7c3d
000000d0: 40f0 59bc 27a2 6cbc 47b1 2abd 8f84 513e
000000e0: b64f 643e 57ff 9cbd ef8e ce3c 7501 543d
000000f0: 9c34 673d 5e88 ee3d 49f1 19bd 66be ef3c
0.17645037 0.29744032 -0.050950024 0.07332822 0.16008419 0.29971442 0.041073553 0.11025568
-0.07681687 -0.10041059 0.0039602984 0.029975496 -0.07142973 0.0784717 0.1365818 0.14998466
0.017984668 -0.19716552 0.025772149 0.088193625 -0.0041930005 0.03087749 -0.05853545 -0.06519883
0.13605563 -0.043659206 -0.04398095 0.044848993 -0.09361903 -0.013111382 0.006917249 -0.0022937981
0.07487311 0.03281684 0.26568997 -0.08210041 0.019625515 -0.14020127 -0.033195265 0.20670664
-0.043413505 -0.24917413 0.14806797 -0.010335141 -0.12739569 -0.064747706 -0.30006272 -0.2779864
0.2775368 0.0125935925 0.09520512 0.061703276 -0.013301909 -0.014442957 -0.04167297 0.20460723
0.22296032 -0.0766589 0.02521464 0.051759202 0.056446657 0.11647104 -0.037583623 0.029265594

actor.init_leaf_node_embed.0.module.weight f4 [32, 8]
00000000: d312 9ebd 8fbc afbe 369b c9be 0a4d 93bd
00000010: 5529 2c3e 91e7 bd3e aeba fd3e 6107 8a3e
00000020: 805e c8be 9161 2cbf be3e 93bd 4e8a a6be
00000030: 665e 7cbe 92c0 ac3e e4d3 b4bc e5bd ba3e
00000040: 4df0 483e de09 c1be 3546 06be 255c d43e
00000050: 7e41 c53b 2ef0 a2be 082d 68bd 791e 8abd
00000060: 7f69 cebe 15f6 4abe 146b 78be 4cb7 81be
00000070: 9b67 ab3e 1950 383d 990d e73e b1e4 e93d
00000080: a5dd 1cbd bdc6 38be c5fc 953d d7dd e13d
00000090: 6420 c13e 5957 063e 0550 ffbe a052 c83e
000000a0: fd6b be3d bd6e 163e 5575 08bf bc87 223e
000000b0: cece eebe 091f 063f e4ad fabd 898a 83be
000000c0: ced4 b4be c10a 28be ace9 a0bd 0043 6f3d
000000d0: befb b93d 3fd1 48be 6568 ccbd 8015 e0bd
000000e0: 8d23 c23e 320d e3be beeb 823e 8ac9 e83e
000000f0: 98c6 fdbc f0f8 c63e 3e1e 383d 19c2 663e
00000100: 63ea d63d c598 013e f974 2cbe 3cb3 ac3e
00000110: 35ee c93d df98 ae3d 6612 fb3e 082f b23e
00000120: 0589 b4bd 7eab ab3e ba82 36be ad89 993e
00000130: f56d f23c 9981 f2bd b2a1 e73e c905 99be
00000140: c774 5d3d f0ee cb3d 980d 903e 03b4 91bd
00000150: f66e b03e 9487 eabc c8b2 45be e261 ad3c
00000160: 5364 8ebe ce37 083d ec38 3f3e 00b5 b33d
00000170: c076 ee3e 9f9a c63d 9283 88bc 1b41 b7be
00000180: 90d0 c63e 8de0 963d cb6b 113f 4bc2 aebe
00000190: 6c2b acbd 42d7 86bd 2cf3 bb3e 20c1 eebd
000001a0: cecf 4fbe 9514 2e3d cee1 723e 269d 04be
000001b0: 44c1 80be 2dff 5fbe c32c b63e a32a 9c3d
000001c0: b5a6 343e b72c b6bc 11f7 233e 0368 e83e
000001d0: c9e3 f63d 8fb1 d13e 1243 e93d aff0 94bd
000001e0: e019 013f e5e8 0a3e 6002 f0bd 8568 06bf
000001f0: 33d2 453e e39a f13e 724a 123d cf02 9cbe
00000200: 8137 47bd 22d7 b13d 5d25 94be c924 b53e
00000210: 4b8d 423e 11a7 923c e4f7 77be b290 a03d
00000220: b9ed afbd 095e bf3e 8f24 e03d 5474 a13d
00000230: 20be 8bbe 85f3 b83d 66e4 3d3e c66e 933e
00000240: 1746 50be 2dbe 563d c3b2 8b3d b8df b6be
00000250: 66ba 74be a95d b83e 5cbb 483d 29d3 f43d
00000260: b16f c6be c932 093e 16fe c4bd ad42 8f3e
00000270: 2b9b 603d 1794 043f ae72 b7bd b71a d93d
00000280: bcb2 7bbe 17ab 8bbe 6bae 9bbe 5b13 3abd
00000290: 6866 d53c e857 d53e a2a5 10be 682f 86be
000002a0: 2814 063e 240a 14be 2d71 f73e 3365 e0bd
000002b0: 16d4 b23c 5804 e4bd 4ea6 47be a499 6d3d
000002c0: e546 a6be 8da2 b53e f507 a13c 1003 a03e
000002d0: 2c2c 7a3e 26d4 3a3e c3c9 f13d 4163 073e
000002e0: 154c 97be a44e 16be fbfd 933d 12c3 99bd
000002f0: f716 e83e 3db1 31bd 7fa2 17bd 2a7b 7ebd
00000300: 1215 703d 8c91 a53d c324 833e 6787 b8bc
00000310: fa2b 653e 842a 833d 4cbb 8cbc d4e8 fc3e
00000320: 3baa 9a3e 1d3b 533e e68d fcbe 72c2 a5be
00000330: 4be6 443d 7718 aebc 40cb 3f3d 0f97 99be
00000340: 6db4 733e ce05 31be d82d f23d 22a7 d63e
00000350: 2028 1d3e 7cdd f33d 36f3 e33e 1c7b 8ebe
00000360: 619c 153d 78c4 31be 5ab9 c3be 3c1f 103e
00000370: 4788 193f f7d3 7dbd ba31 5e3e ee74 ba3e
00000380: 2d4a aa3e ad97 ddbd d2e2 0dbe 7986 b8bd
00000390: 2c8a 393c 6eac dbbe bd58 d13d 2506 503e
000003a0: ee93 e33d 0180 7a3e 7fc1 3ebe aa7f 57be
000003b0: f86b 953e 766f 1d3c 3e4b 5ebe 8fdc 283e
000003c0: f12f 963e b33c f13e 3b6d 02bf acdc 08be
000003d0: 85bd 58be 1933 2fbe 710d 10bd 599f e93e
000003e0: 28ff e33d b993 d63e 500f 7ebd 077a 60be
000003f0: 316a e93d 9b63 c83e 453c 303e b5d1 c6bd
-0.07718434 -0.34323546 -0.3937623 -0.071924284 0.16812642 0.37090734 0.49556488 0.26958755
-0.39134598 -0.67336375 -0.071897015 -0.32527393 -0.24645385 0.3374067 -0.022073694 0.36473003
0.19622917 -0.3770284 -0.1311272 0.4147655 0.00601977 -0.31823868 -0.05668357 -0.067440934
-0.40314862 -0.19820435 -0.24259597 -0.25335157 0.33477482 0.044998262 0.45127562 0.114205725
-0.038297314 -0.18044563 0.073236026 0.11028641 0.37720025 0.13119258 -0.49865738 0.39125538
0.09297941 0.14690681 -0.53304034 0.15872091 -0.46642154 0.52391106 -0.12240198 -0.2569163
-0.35318607 -0.16410352 -0.078570694 0.058413506 0.09081219 -0.19611071 -0.09980849 -0.10941601
0.37917748 -0.44346005 0.25570482 0.45466262 -0.030978486 0.388618 0.044950716 0.2253498
0.104939245 0.12655933 -0.16841497 0.33730495 0.098598875 0.085252516 0.49037474 0.34801507
-0.08815197 0.33529276 -0.17823306 0.2998785 0.029593447 -0.11841125 0.4524055 -0.29887226
0.054066446 0.09957683 0.2813537 -0.07114413 0.34459656 -0.028629102 -0.19306481 0.021164838
-0.27810916 0.033256344 0.18674058 0.087747574 0.46574974 0.096974604 -0.0166643 -0.3579186
0.38830996 0.073670484 0.56805104 -0.3413261 -0.084067196 -0.06584026 0.36708963 -0.116579294
-0.20294115 0.042500097 0.2371895 -0.12950572 -0.2514745 -0.21874686 0.35581025 0.0762532
0.17641719 -0.022238119 0.16012217 0.45391855 0.12055165 0.4095578 0.11389746 -0.07272469
0.5043011 0.13565405 -0.11719203 -0.52503234 0.19318466 0.47188482 0.035715528 -0.30470893
-0.048636917 0.086836115 -0.28934756 0.35379627 0.18999211 0.01790193 -0.24215657 0.078400984
-0.08590264 0.3737643 0.10944473 0.07883516 -0.2729349 0.09030823 0.18544158 0.2879545
-0.20339237 0.05242746 0.068212055 -0.3571756 -0.2389923 0.36008957 0.049006805 0.11954338
-0.3875709 0.13398279 -0.096187755 0.27980557 0.05483548 0.5178847 -0.0895742 0.106007986
-0.245799 -0.2727897 -0.30406508 -0.045428615 0.026049808 0.4166863 -0.14125684 -0.26208043
0.13093626 -0.14456993 0.48328534 -0.10956802 0.021829646 -0.11133641 -0.19497034 0.05800785
-0.32475963 0.3547558 0.019657115 0.31252337 0.24430913 0.1824499 0.11806061 0.13221456
-0.29550233 -0.14678437 0.07226177 -0.0750791 0.4533002 -0.04338192 -0.037020203 -0.062129177
0.058613844 0.080844015 0.25613984 -0.022525502 0.22380057 0.064045936 -0.017179154 0.49396384
0.30208 0.20628019 -0.4932701 -0.32374913 0.048071187 -0.0212519 0.046824694 -0.2999806
0.23799296 -0.1728737 0.1182515 0.41924387 0.15347338 0.11907479 0.44521493 -0.278283
0.036526088 -0.17360103 -0.3822735 0.14074415 0.5997357 -0.061969724 0.21698657 0.36417335
0.33259717 -0.108199455 -0.13856056 -0.090100236 0.011324447 -0.4290499 0.102220036 0.20314844
0.111122 0.24462892 -0.186285 -0.21044794 0.29183936 0.009609094 -0.2170839 0.16490386
0.2933345 0.47116622 -0.5094792 -0.1336543 -0.21166046 -0.17109336 -0.03516907 0.45629385
0.111326516 0.41909578 -0.062026322 -0.2192155 0.113972075 0.39138493 0.17210491 -0.09707967

actor.init_leaf_node_embed.0.add_bias._bias f4 [32, 1]
00000000: 61a0 3f3c dc82 e83c 0569 d23b 8d51 033c
00000010: 3fe7 eebd c864 723c 8aed f0bc df18 d4bc
00000020: 40bc 9f3d 9946 113d 2f9c 223d 7c14 f8bc
00000030: 58da ea3a 284c 27bd c51c 043e 1bfb 813a
00000040: d0fa 22bd 1d9e 46bd 0de3 3e3c 5970 6cbb
00000050: 20b6 133d 4624 233d 3668 f53d 5fe8 adbc
00000060: 150d 453c 2092 483c 06de ba3d 8dcb adbc
00000070: 1c30 cabd 1209 3f3b 1f70 0a3c b2e1 1bbe
0.011695952 0.028382711 0.0064212107 0.008015049 -0.116652004 0.014794536 -0.029410142 -0.025890766
0.07799578 0.035467718 0.03969973 -0.030283205 0.0017917855 -0.040844113 0.129016 0.0009916754
-0.039789975 -0.048490632 0.011650813 -0.0036077707 0.03606236 0.039829515 0.11982767 -0.021228967
0.012027045 0.01224187 0.09124379 -0.021215225 -0.098724574 0.0029149693 0.008449583 -0.15222815

actor.init_leaf_node_embed.2.module.weight f4 [64, 32]
00000000: 7319 213e 5cc5 f03e 3eb3 203e 2db7 703e
00000010: fa0e 6dbe 679a d03e 5ecb 9b3e 4e36 86be
00000020: 22a4 733c 463f 263e eab2 e038 7552 04bc
00000030: 70e3 b6be fa27 0cbe 96c6 023e 7e5f b63d
00000040: fd22 363e 6205 11be e061 1e3e c46d aa3e
00000050: d383 213f e2a9 dbbe 760f 233f 8475 b73e
00000060: cd44 af3c 0384 413b c4af 2dbc 952e b83e
00000070: 9ce9 05be fc38 483e f7fc c23d 2bbf 9fbe
00000080: d5c5 01be 310e 75be 44d1 1dbe 88b6 2cbe
00000090: 99e8 82be b98a b33e edc4 6cbe d021 683e
000000a0: 8b65 9f3e 8f93 96be 6ba3 c83d ca34 c0bd
000000b0: 93bf 933e e6aa 2a3d 59c1 333d 6413 253d
000000c0: e977 9b3d 93e5 293e 9f4c a43d 7a5d f9be
000000d0: bfed d2be 93e1 163f d308 3f3e 5312 6a3e
000000e0: 9870 ec3d b16b 1e3e 6726 033e 4df8 f9bd
000000f0: 2de3 b43d f63a 703d 3d58 663e 0681 3fbe
00000100: e5ec a6bc 14d9 5c3d c2bd 703e 5b50 b8be
00000110: 32b4 d83d 13dd d5bd e1f7 e6bd 8e4d 6fbd
00000120: 3ff0 babe 4264 d13e c7e7 cd3d 096c ec3d
00000130: 3b74 45be 5c79 293d 1728 223e 9395 0a3e
00000140: 1141 bfbe 856b 69be 4d18 a93d 1517 543d
00000150: a09a fabb 2ba2 d83d 1069 083e 8b53 c03d
00000160: 9be4 c13e e935 e9bd d5b6 243e 9eff 833b
00000170: 5d3e 1ebe b5d5 30bd 344b 06bf 2d62 2ebe
00000180: a3f5 82be e1bb fe3d f87b cabe 7b69 0c3f
00000190: 4f7f 80be c658 9c3d 03e1 24be 16ce 383e
000001a0: 0d51 89bc 9a6c ba3d 2938 6b3e 46e6 073e
000001b0: fa1d 1a3f 45ad 87be 689b 5bbd 8e25 18be
000001c0: 7118 23be 9c4b 8c3e eb82 733a ee7f 173d
000001d0: 7281 f7be 2707 43bd 25f4 debd e446 48be
000001e0: 1b2f cb3d 42b6 08be a49d 913e 167b 583e
000001f0: 6ced 523e c26c d1bc 7018 a3bd a578 e83d
00000200: 7ce0 afbe d8d5 c1be 9b0a 01be ddb2 fcbd
00000210: b328 0e3c d563 8dbe 3664 6cbe b4d0 4dbe
00000220: 3317 21bf fdc5 ad3e f076 263d b690 dfbb
00000230: 0025 e63e 9e21 90bc 90ce 84be 97a4 293e
00000240: afce 873d 0196 4cbe 310f b1be 422b 11be
00000250: 871b 303e 9794 503e a6c4 d03d 193c 8bbd
00000260: d895 2bbe b911 a23d b557 5abd b177 8d3c
00000270: 6859 b4bd 47cc 8a3c b562 203e 02d9 07be
00000280: 52e3 f9bd 44e1 613e 71a5 31be f720 c3be
00000290: 76aa 0b3e c3c7 5f3e f035 9a3d 97a6 35be
000002a0: aecc a6be fb49 cbbd 34f0 cb3b 5f5b 733d
000002b0: 4599 1bbe 9cbf 6ebe 0b49 e33e 7847 85be
000002c0: 28ef 713e b4ef 053d 0f22 963c 21cf b9bc
000002d0: f577 07bc 3e35 7bbd c41e 11be 12e8 aabe
000002e0: d086 54be b92b bf3c eff2 2f3d 4e1b 843e
000002f0: be71 1abd 8179 993d a430 53be c63a 92bd
00000300: e13d 29be 54b7 dcbe b053 b4be 244f 0f3e
00000310: e310 60be 54c9 43be 5f7e cb3c d32c f63c
00000320: 1baa 66bb 428e 5cbc 7bec 4fbb 7eb3 6ebe
00000330: abae ae3e a30d f23d 0e1e 44be a5af 54be
00000340: c48f 21be 5ca9 1f3f f617 933d e6da 10bd
00000350: a1d5 023e 5698 803e 6683 17be ebd8 063e
00000360: 6d64 c83d 15a2 783e 08a8 81be e044 773b
00000370: 6ca9 123e 76fd a1bd 45db 91be f79d ac3d
00000380: b390 d33c e855 833e 3407 9bbe f4a5 aabe
00000390: f05a 06bf 22ca 8ebe 0542 373e b283 6bbe
000003a0: 3585 97bd 4a36 c63c fffe 5dbb e73a b1be
000003b0: 9b87 2b3e 15c2 a6be a06f dfbe d7c6 8e3d
000003c0: 118f 9abe 99c2 5d3e f149 cfbd 2b9c 1ebe
000003d0: f8c7 54bc bfd4 333f 8a6c 7abd c708 7ebe
000003e0: a252 9fbd f29e 963d 4d1d 48be c81b 81be
000003f0: 1aea 3e3e 4949 f7be 80df 793e 71b7 73b9
0.15732364 0.47025573 0.15693375 0.23507376 -0.23150244 0.407428 0.30428594 -0.26213306
0.014870675 0.16235074 0.00010714478 -0.0080763 -0.35720396 -0.13687125 0.12771067 0.089049324
0.17786784 -0.1416221 0.15467024 0.3328687 0.6309177 -0.42903048 0.63695467 0.35831845
0.021395111 0.0029528148 -0.010600988 0.3597304 -0.13077396 0.19552988 0.095209055 -0.31200537
-0.12673123 -0.23931195 -0.1541186 -0.16866505 -0.25568083 0.35066774 -0.23121996 0.22669148
0.3113216 -0.29409453 0.097967945 -0.09385069 0.28857097 0.041666888 0.043885563 0.040301695
0.075912304 0.16591482 0.08022427 -0.4870413 -0.4119701 0.5893795 0.1865571 0.22858553
0.11544913 0.15470769 0.12807618 -0.12205563 0.08832393 0.05864998 0.22494598 -0.18701562
-0.020376632 0.05391796 0.23509887 -0.35998806 0.105812445 -0.10442557 -0.11277748 -0.05842357
-0.36511418 0.40896803 0.10053974 0.115440436 -0.1928262 0.041375503 0.15835606 0.1353362
-0.3735433 -0.22794922 0.08256588 0.051779825 -0.0076478273 0.10577806 0.13321328 0.093909346
0.37869725 -0.11387236 0.1608537 0.0040282747 -0.15453477 -0.043172557 -0.524585 -0.17029639
-0.2557803 0.12438179 -0.39547706 0.5484845 -0.2509713 0.0763412 -0.1610146 0.18047366
-0.01676228 0.09102745 0.22970642 0.13271436 0.6020199 -0.26499382 -0.053615004 -0.14858076
-0.15927292 0.27401435 0.00092892227 0.036987238 -0.48340946 -0.047614243 -0.108864106 -0.19558293
0.09921094 -0.13350776 0.28440583 0.21140704 0.20598382 -0.025564555 -0.079636455 0.11351136
-0.34350955 -0.37858462 -0.12601702 -0.12338803 0.008676696 -0.27615228 -0.23085102 -0.20099145
-0.62926024 0.33940116 0.04064077 -0.006822671 0.44950104 -0.017594155 -0.25938845 0.16566692
0.06631219 -0.19979097 -0.34581903 -0.14176658 0.17198001 0.20369183 0.10193758 -0.06798572
-0.1675638 0.079135366 -0.0533063 0.017268987 -0.088061154 0.01694311 0.15662654 -0.13266376
-0.12201561 0.22058588 -0.17348267 -0.38111088 0.13639244 0.21853547 0.07529819 -0.1773933
-0.32578033 -0.0992622 0.006223703 0.05941331 -0.15195186 -0.2331528 0.44391665 -0.2603109
0.23626387 0.0326993 0.018326787 -0.022681775 -0.008268346 -0.061330073 -0.14171892 -0.3338018
-0.20754552 0.023336278 0.04295629 0.25802082 -0.03770613 0.07493878 -0.20624024 -0.071401164
-0.16527511 -0.43108618 -0.35220098 0.13995034 -0.21881442 -0.1911977 0.024840532 0.03005067
-0.0035196606 -0.013461651 -0.0031726647 -0.23310658 0.34117636 0.11819007 -0.1915209 -0.20770128
-0.15777498 0.62367797 0.071823046 -0.035365008 0.12776805 0.25116223 -0.14796218 0.13168685
0.0978478 0.2428058 -0.2532351 0.0037730262 0.14322442 -0.07909672 -0.28487602 0.08428567
0.025825834 0.2565148 -0.30278933 -0.33329737 -0.5248251 -0.2788859 0.17896278 -0.22999457
-0.07398454 0.024195809 -0.0033873913 -0.3461525 0.16750948 -0.32569948 -0.4363985 0.069715194
-0.30187276 0.21656264 -0.10121525 -0.15489261 -0.012987129 0.702465 -0.061138667 -0.24808036
-0.07779433 0.07354535 -0.19542427 -0.25216508 0.1864399 -0.482981 0.24401665 -0.00023242623

actor.init_leaf_node_embed.2.add_bias._bias f4 [64, 1]
00000000: 11ec 8a3e d210 103e d093 2e3d d77c 213c
00000010: 0bc7 38be 92a9 693c 37ac 54be 911e 8cbe
00000020: d22d 2fbe e672 2abe 1e53 8f3e 969f 18be
00000030: 010a c53d 0d80 b9bd 4353 cfbd aa2a 97bd
00000040: 9fd9 0c3e b9af 11be 9c1d a3be 96e5 09bd
00000050: b752 163d fe68 a93d 99d2 4f3c 2fac 303d
00000060: ad23 733e c588 37bd 1750 dfbb f10c a8bd
00000070: fc73 31be 1239 e63d 0627 15be 6bfd c6bc
00000080: 59f8 e53d 6980 7dbd 6fad 1cbe b0e2 1a3e
00000090: c589 663e 1a24 23bd 635f 0abd d0c9 03be
000000a0: 43fb 703d cb43 ffbe b1b9 3e3e 5cea 6f3d
000000b0: 0cc3 0fbe e1de 1dbd e448 11be 274e 29bd
000000c0: 9259 6abe 9726 383d 7ac7 64bd 0ddc 89bd
000000d0: 6894 d83d 5c86 27be 1b2c 3fbe 88b3 d13d
000000e0: d007 a73c e939 6cbe fbbd 433e 49a9 8abe
000000f0: 7129 093e ed1e 07be 43e0 933d 586b c13c
0.2713323 0.14068916 0.042621434 0.009856424 -0.18044679 0.01426162 -0.2076882 -0.2736707
-0.17107323 -0.16645393 0.279931 -0.14904627 0.09621049 -0.09057627 -0.10123303 -0.073811844
0.13754891 -0.14227189 -0.31858528 -0.033666216 0.036699977 0.08271979 0.012684488 0.043132957
0.23744078 -0.044808168 -0.0068149674 -0.082055934 -0.17329401 0.11241354 -0.14565668 -0.024290761
0.11229009 -0.06189004 -0.15300535 0.15125537 0.22513492 -0.03982935 -0.033782374 -0.12869954
0.05883337 -0.4985641 0.18625523 0.058573112 -0.14039248 -0.038542632 -0.14187962 -0.041334298
-0.22885731 0.044958677 -0.0558543 -0.067314245 0.10575181 -0.16359848 -0.18669169 0.10239321
0.020389467 -0.23068966 0.1911544 -0.2708228 0.13394715 -0.13195391 0.07220509 0.023610756

actor.init_next_embed.0.module.weight f4 [32, 6]
00000000: cb30 f33d b261 17be d209 99be beda e5be
00000010: a4d5 78be c951 49bc 376c 60be 51ff c7bd
00000020: 0851 3f3e ad8b 77be 7c58 c93c 8bc0 72be
00000030: 4dbc e83e 0d16 89be 7bfc 83be 7e34 a3bd
00000040: 94f2 75be 103d ae3e 4d05 2ebc fffb 143d
00000050: 9595 07bd 92c3 d43e 17c9 f1be 8f72 bdbe
00000060: 997c e23d 5213 d8be 941b febd 1818 7ebe
00000070: 2dd5 b3bd 4bcd 19be 640d aebc ccc5 13bf
00000080: bf29 913e e6c3 36bf 5c75 f5bd 9526 243e
00000090: e85f 633f 8cc7 d23d 905a 913d 2bef 23be
000000a0: 66cf bbbc c96b c0be cd64 b3bd c359 c93d
000000b0: b652 153e 8c13 b03d 866b 9bbe f6a8 383e
000000c0: ec6f 78be 7928 17bf 3854 7a3e d97d f53b
000000d0: d30b ac3f a565 31bf a1c9 d63d 8da0 95be
000000e0: 02a6 3abe 615a 743d f0eb adbe 8bd3 e3be
000000f0: bfc2 a4be 3678 3a3e 4412 843c 8fa5 cc3e
00000100: ba02 903e e469 dbbe 5c7d 443d a37c efbc
00000110: c62c b1bc 6ca5 293e f9f2 b93b d596 f43d
00000120: ed04 b8be 917e 06bd 6350 153e d6d7 883c
00000130: 4b33 72be d2d1 afbe efd8 ef3c 0aa8 153c
00000140: 5446 fe3d 1d33 1a3e 87ec 8fbe e89b ddbd
00000150: dc16 a53f 2d89 69be da14 83be 88ed 1fbf
00000160: 0865 17be 7c27 9b3d 87a3 36be 103a 82bd
00000170: 696d 98be 4bd1 24be 4d01 06bc 5cfd 193e
00000180: 1ac2 8ebe cc78 0bbd 7749 e6bd 6f6f 0ebe
00000190: 2c6f d8be 8bb2 b73d bdc9 113f 30f0 4ebd
000001a0: 52bc 493e 800f 84be 80cc 76bd 37e9 b3bb
000001b0: ccb5 80bd 3d85 933e 1918 6a3e a7e0 c9bb
000001c0: 273d 92bd 37f4 803e 195c 713f 65fe 793e
000001d0: eba9 b7be b38a 8abe 1e9b 473e ce41 da3d
000001e0: 5d4a 883e 5055 d63c 59e4 14bd 4400 0fbe
000001f0: 6c20 86be 236b 293e 0830 fabc e210 58be
00000200: 23e0 37bf aa8f d1bd a22f 06be eba6 21bd
00000210: 9d8b eb3d a445 17be a075 c7bd 6675 053e
00000220: eb7d b4be f1a7 6f3d e6ec 2b3f 0e27 88be
00000230: 3362 a93e 6f03 dcbe e362 f33e 4b3c be3e
00000240: 58e3 af3f 5fdc cbbd 22d6 3abe 7f69 aebe
00000250: 0fc2 48be e505 293e 60e4 2e3e b767 923e
00000260: a8c0 83bd 9b8c 42be 43df 3fbe 77fe c6be
00000270: badf 0d3b 93fe a3be 6c75 393e 0460 89bd
00000280: 8738 6bbe cf2e babc 1437 03bf a3c9 c3be
00000290: 824f 41be 14c5 44be 41c6 fe3d 0a9d 28be
000002a0: 8501 0a3f 6597 523e 0aec 9bbc f533 a6bf
000002b0: 9489 163d 1320 103e 7d47 c73e ab43 6c3e
000002c0: cef5 afbe 2a28 25bf e234 25bc 6279 1b3e
000002d0: 052c 0bbe a4b2 84be ec67 973e 6fce 0b3e
000002e0: 2a6a 2c3a fd59 0fbe 82b5 953c 89e3 67be
000002f0: 9db3 f0be 8349 1dbe 92ce 85bd 4e37 4bbc
0.11874541 -0.14783362 -0.29890305 -0.4489345 -0.24300247 -0.0122875655 -0.2191628 -0.097654946
0.18683255 -0.24174376 0.024578325 -0.23706262 0.45456162 -0.26774636 -0.25778565 -0.079689965
-0.24018317 0.34030962 -0.010621381 0.036373135 -0.033101637 0.41555458 -0.47223732 -0.37001464
0.11058921 -0.4220224 -0.12407604 -0.24813879 -0.087808944 -0.1501972 -0.02124662 -0.5772369
0.28352162 -0.7139267 -0.11985275 0.16030343 0.88818216 0.10291967 0.070973516 -0.16009204
-0.022926044 -0.37582234 -0.087594606 0.09831574 0.14582333 0.08597478 -0.3035547 0.18033203
-0.24261445 -0.5904613 0.2444619 0.007491809 1.3441108 -0.6929572 0.104876764 -0.29224053
-0.1822739 0.059656505 -0.3396907 -0.44497332 -0.3217983 0.1820992 0.016121991 0.3997006
0.2812708 -0.42854226 0.047971115 -0.029234236 -0.021627795 0.1656701 0.0056747166 0.119428314
-0.35941258 -0.032835547 0.14581446 0.016704481 -0.23652379 -0.34339768 0.029278247 0.009134302
0.12415758 0.1505856 -0.28110144 -0.108207524 1.2897601 -0.22806235 -0.25601846 -0.6247182
-0.14784634 0.075758904 -0.17835818 -0.06358731 -0.29770973 -0.16095464 -0.008179021 0.15038055
-0.27882463 -0.034050748 -0.11244481 -0.13909696 -0.42272317 0.08969601 0.56948453 -0.05052203
0.19700745 -0.25793076 -0.06025362 -0.005490448 -0.06284675 0.2881259 0.22860755 -0.006160814
-0.0714057 0.2518632 0.94281155 0.2441345 -0.35871825 -0.27058944 0.19492766 0.106570825
0.26619235 0.026163727 -0.03635058 -0.13964945 -0.2619661 0.16544776 -0.030540481 -0.2110019
-0.7182638 -0.1023248 -0.13104108 -0.039465826 0.115012385 -0.1477266 -0.09739232 0.13033065
-0.35252318 0.05850977 0.67158353 -0.26592296 0.33082733 -0.4297137 0.47536382 0.37155375
1.3741255 -0.09954142 -0.18245748 -0.34064862 -0.19605277 0.16506155 0.17079306 0.28594753
-0.06433231 -0.18998949 -0.18737511 -0.38866016 0.0021648244 -0.32030162 0.18111199 -0.06707767
-0.22970782 -0.022727398 -0.5125592 -0.38239774 -0.18877986 -0.19215804 0.12440158 -0.16466156
0.5390857 0.20565565 -0.01903345 -1.2984606 0.0367523 0.14074735 0.3892173 0.23072688
-0.34367222 -0.6451441 -0.010083409 0.15183023 -0.13591011 -0.25917542 0.29571474 0.13652967
0.0006577099 -0.13999172 0.018275026 -0.22645392 -0.47012034 -0.15360074 -0.06533541 -0.012403322

actor.init_next_embed.0.add_bias._bias f4 [32, 1]
00000000: 5640 293e bd30 4b3d c460 8abd e5bb 8dbd
00000010: f600 cb3c 61d8 85be 4874 ee3d b593 88bd
00000020: b3f1 62be 85a1 d2bc 1024 febd 592f 943e
00000030: de0d 52bc 8ec7 1c3e d065 c03e 1156 903e
00000040: 52a3 11bd 088a 65be bc22 8dbe 8a26 b83e
00000050: 4798 b6bd e6fc 0dbc 465e 7dbe 98d6 60bd
00000060: b371 6f3e 8cc7 a5bd ebda 13be 043f c03c
00000070: cefd 1f3d 3ba1 243e b5ab 113e 4b20 1c3e
0.16528448 0.049607027 -0.06756738 -0.06920604 0.024780732 -0.26141647 0.11643273 -0.06668798
-0.22162513 -0.025711784 -0.12409222 0.28942373 -0.012820689 0.15310499 0.37577677 0.28190663
-0.035556145 -0.22415936 -0.27565563 0.35966903 -0.08915763 -0.008666253 -0.24742994 -0.054892153
0.23383217 -0.08094701 -0.1443898 0.023467548 0.039060406 0.1607713 0.14225657 0.15246694

actor.init_next_embed.2.module.weight f4 [64, 32]
00000000: f1cd 613d 6a06 e0bd d2f7 b9bc 0a5f 383e
00000010: f034 183e 2860 9e3d 47c2 7abe 5545 6bbe
00000020: 92c4 b0bd 601b a03e 1749 a63d e48d fabe
00000030: f514 c53d 2fda c33e f6ec fd3d ade6 a3be
00000040: 840a 17be 3877 873d 5f9f 8ebc 22e3 5dbe
00000050: ee2a 833d b3f0 6fbd 10cd f3be 5a57 e7be
00000060: f5f9 efbe ca41 b43e 7274 31be 6460 b9bd
00000070: d3b9 d53d db44 da3d 2c02 813e 749c ebbd
00000080: 487a 443e 7a88 73bd 5d49 e3bd 584b 8abd
00000090: 4b3c bbbd ee10 2cbe c2a1 24be 09c3 b739
000000a0: f8b4 8f3e eea6 313d f5c8 f33e b6e0 a83e
000000b0: 2dbd adbc 5b0f 9ebd 8813 33be c7bd 5dbd
000000c0: ede9 3c3e a244 aa3c 261c 95bd 86f1 043f
000000d0: c0b7 2f3e 9b6e b93c 0b59 5f3d 05bd 47be
000000e0: 95f7 19be 72f4 5e3e 80c8 26bc 82c0 9ebe
000000f0: ec94 07be ac5d f63c 8340 6ebd 3a1f 41bd
00000100: 20b3 44bd 750e 0a3d 738f 4a3e 335e 09be
00000110: b35c 17bb a636 483e 865c 06bf cf1f b3be
00000120: 1489 ccbe e904 0fbe d610 0e3d a507 c33e
00000130: 23ae bf3d f68c 99be 286c 34bf 7343 ff3d
00000140: ce1d 64be d239 863d 2b3b 403e 910d 1c3e
00000150: 6b21 9dbd a08c a3bd a42b 6dbd b19b d03e
00000160: e427 d0be 5144 c93d 0a03 5bbe 46c4 23be
00000170: 94d0 07bf 5c12 29bf 0650 89be 8949 3bbe
00000180: 77df 3fbe a7b0 293e 6a08 ad3e 7106 c2bd
00000190: 20dd 9ebe 95f2 d03c 6f74 cbbe d9ac 013e
000001a0: 6eb6 9d3c a95c 723e 50dc acbe 4312 493e
000001b0: 72d3 dd3d b8c3 193e e3bf 8ebe 9e16 87be
000001c0: 6e6a 28be df84 4f3e 5b4c fa3c a4e3 b6be
000001d0: 55d3 8abc e509 953d 3d53 283e f3b8 3c3f
000001e0: 150e bfbe 77ca dcbe 30ad bfbd 6d6a a7be
000001f0: 5c7d 9abe 3990 54be 081f a03d 956a 67be
00000200: f539 35be ba28 c4be 41bf 40bd ef92 7a3e
00000210: dc36 f23d f56e 28be 628e 90bd 50ee a8bd
00000220: 1334 183e 9555 fdbd af01 7dbe bacf 83bd
00000230: 7048 0bbd 2a02 3c3d 7b24 163e e812 0ebd
00000240: c6f3 253e 86b7 1b3e 8703 19be f39c d2be
00000250: c0d2 30be 099e c33d ab58 213e 8b1f 793d
00000260: 4caf 6d3e c464 c0bd ab92 e53e 1620 4d3e
00000270: 4213 57be 7430 97bd 30a2 eebd d261 df3c
00000280: 35ce 0f3d 542a 05bd 1f2e 9e3d 62da e0bd
00000290: 8b0b ad3e 3d0c 4f3e ebc3 8c3c 9b28 113e
000002a0: a5c6 9d3d 5a6b 5b3e 4945 153d 06bd 3a3f
000002b0: 19d6 2f3d 1a88 e23d c942 f5bd c633 0a3f
000002c0: fdd7 e5bc 96e3 a43e 19e5 e63d a1da 643f
000002d0: 9deb 3a3d 4761 0bbd d13d 843e 9e11 4d3e
000002e0: 4d5e ea3e 19a2 adbd b72a 8a3d de05 b33e
000002f0: ca5b 44be 685d 94be fdbb 833e f543 14be
00000300: b85b f53d 5e0a 333e 414c 9f3c 1f79 363e
00000310: 8966 94bd fbd6 ee3c 2585 43be 8e98 a6be
00000320: 3abe 173e ac8f 653e 6db7 903d 3641 593e
00000330: 51d9 cd3c ffec 9d3c a152 a2bd 1e08 d7bd
00000340: f279 b1bc 0195 2b3e f05f 59be 74c7 11bd
00000350: 8cc7 4f3e 85de 8abe 7c8d 2c3e c711 253e
00000360: 5415 29be 8050 953d 35f2 223d a804 67be
00000370: 9703 debd fa51 99bd 9cd2 133e 9461 8abe
00000380: 0ba8 92be 2585 2d3d 8273 95be d6f8 a63c
00000390: ca6d 653e adac 94be f86b 04be c540 49be
000003a0: 9918 983c 24e7 09bd 8b26 b83e 840a bd3e
000003b0: 4ccf bf3d bc57 2d3e 11e6 e63e 448a 083f
000003c0: 0aa4 813d abef b13e d2d6 4d3e 3261 b03e
000003d0: ff08 acbe 7503 623c a744 27be 0573 443f
000003e0: 63ce fa3e dc3e b83c 0097 c13d 016a c8bd
000003f0: a01a 683d 424b 8a3e 033b 923d 610d b13e
0.05512804 -0.109387234 -0.022701178 0.18005005 0.14863944 0.07733184 -0.24488173 -0.22975667
-0.08631243 0.31270885 0.081194095 -0.4893638 0.09623138 0.38252398 0.12398712 -0.3201193
-0.14750105 0.06614536 -0.017409978 -0.21668676 0.064046726 -0.058579158 -0.47617388 -0.4518383
-0.4687039 0.35206443 -0.17329577 -0.09051588 0.10435834 0.106576644 0.2519697 -0.115044504
0.19187272 -0.059456326 -0.11097977 -0.06752652 -0.09142359 -0.16803333 -0.1607733 0.00035049792
0.28067756 0.043372087 0.47614256 0.3298394 -0.02120837 -0.077177726 -0.1748792 -0.054136064
0.1844861 0.02078468 -0.072807595 0.51931036 0.17159939 0.022635749 0.054528277 -0.19505699
-0.15035851 0.21772936 -0.010179639 -0.31006247 -0.13240403 0.030073963 -0.058166992 -0.04714892
-0.04802239 0.033705194 0.19781284 -0.1341484 -0.0023096025 0.19552097 -0.5248493 -0.34985206
-0.39948332 -0.13966717 0.034684025 0.3809177 0.09359386 -0.29990357 -0.70477533 0.12464037
-0.22276995 0.06553997 0.18772571 0.1523955 -0.076723896 -0.079858065 -0.057902947 0.40743783
-0.40655434 0.098274834 -0.21387878 -0.15992841 -0.5305264 -0.6604364 -0.26818866 -0.1828977
-0.18737589 0.16571294 0.33795482 -0.09473885 -0.3102808 0.025506297 -0.3973727 0.12663592
0.019252028 0.2366816 -0.33761835 0.19635873 0.108313456 0.15016067 -0.27880773 -0.26384443
-0.1644685 0.2026553 0.030553987 -0.3572055 -0.016946474 0.07277278 0.16438003 0.7371971
-0.3731543 -0.43123218 -0.09359205 -0.32698384 -0.30173767 -0.20758142 0.07818419 -0.22599252
-0.1769789 -0.38312322 -0.047057394 0.24470113 0.1182687 -0.16448577 -0.07058407 -0.082485795
0.14863615 -0.12369839 -0.24707673 -0.06436105 -0.03400463 0.0459005 0.14662354 -0.034686
0.16206273 0.15206727 -0.14942752 -0.41135368 -0.17267895 0.09551627 0.1575648 0.060821097
0.23211402 -0.093942195 0.4483846 0.20031771 -0.2100344 -0.073822886 -0.116520286 0.027268324
0.035108764 -0.03251107 0.07723641 -0.10979153 0.3379787 0.20219512 0.017183265 0.14175646
0.07703904 0.2142767 0.03644303 0.72944677 0.04292879 0.110611156 -0.11975629 0.5398525
-0.028057093 0.32204884 0.11274166 0.893961 0.045634855 -0.034028318 0.25828412 0.20026252
0.4577507 -0.08478183 0.067464285 0.34965414 -0.1917564 -0.28977513 0.2572936 -0.14479049
0.119803846 0.17484424 0.01944554 0.17819642 -0.072461195 0.029155245 -0.1909376 -0.32538265
0.1481866 0.22418088 0.07066236 0.21216282 0.025128039 0.019278048 -0.079259165 -0.10499595
-0.021664593 0.16756059 -0.21228004 -0.035590604 0.20290965 -0.27122894 0.16850847 0.16120063
-0.16512042 0.07290745 0.039781768 -0.2256037 -0.108405285 -0.07486339 0.1443581 -0.2702757
-0.28643832 0.042363305 -0.29189688 0.020382326 0.22405162 -0.2903799 -0.12931812 -0.19653614
0.018566417 -0.0336677 0.35966906 0.36922085 0.093657106 0.16928 0.45097402 0.53335977
0.06330116 0.34753165 0.20101479 0.34449154 -0.33600613 0.0137947695 -0.16334783 0.76738006
0.48985586 0.022490911 0.09452629 -0.09785844 0.056666017 0.27010542 0.07140162 0.3458052

actor.init_next_embed.2.add_bias._bias f4 [64, 1]
00000000: 2a8d fdbe fcda c7be abb3 afbe 128f dfbe
00000010: 8407 babd f49d 8d3f 22c3 a7be 70d4 2e3f
00000020: b520 853f cc10 26bf b535 30bf 3a0e 0a3e
00000030: a3ae 9e3f 254c 92bf 3eb2 63bf 9347 47bf
00000040: 0174 54bf da1d 493f c5ce 213f 8015 8bbe
00000050: ba20 20be 2e80 9dbe 4b43 afbf f624 163f
00000060: 397e 15c0 7103 5dbf 8995 7ebe 6a38 8bbf
00000070: 732f 1c3f 4dd5 b63e cd97 20bf 8a86 3fbf
00000080: 2351 16be 8f3d 343f d883 8fbe 89fb 8fbe
00000090: 3b46 ac3f 47e4 473f 573d c6be 8671 233f
000000a0: 6310 dcbf 7519 8e3f 22bc d1be 2226 b4bf
000000b0: 2fa2 e53e b705 ad3f 405a 803f d1e3 1e3f
000000c0: a5c6 d2be 5fe0 a03e c8fc 313f c361 ea3e
000000d0: 4a1b db3e a19a 0cbe b6e3 48be 0a68 3abf
000000e0: f06c 193d a1dc 193f e004 edbe 9ae8 973e
000000f0: b74d 853e 113f 5c3f a942 a83b 375c 253e
-0.49521762 -0.3903426 -0.34316763 -0.4366384 -0.09083465 1.1063828 -0.32766062 0.68292904
1.0400606 -0.6486938 -0.6883195 0.1348199 1.2397045 -1.1429487 -0.8894385 -0.7784359
-0.8298951 0.78561175 0.6320613 -0.2716484 -0.15637484 -0.30761856 -1.3692411 0.5865015
-2.335829 -0.86333376 -0.2486173 -1.0876591 0.610099 0.3570961 -0.6273163 -0.74814665
-0.14679389 0.7040643 -0.28030276 -0.28121594 1.3458933 0.780827 -0.38718674 0.638451
-1.7192501 1.1101519 -0.40963846 -1.4074137 0.448503 1.3517369 1.0027542 0.6206637
-0.4116718 0.31421182 0.6952634 0.4577771 0.42794257 -0.13730861 -0.19618115 -0.72815
0.037457407 0.6010228 -0.46292782 0.29669648 0.26035854 0.8603373 0.0051348996 0.16148458

actor.embedder.layers.0.0.module.W_query.weight f4 [64, 64]
00000000: 3a2d 053c ca46 5bbd 2d48 1d3e 133c 17be
00000010: 6d42 423d 625c e3bd 35d6 8cbd 2b08 563c
00000020: f6f6 333e 5127 1abe c0a0 0b3e 7c1e 8abb
00000030: 4e49 493d 2a27 bb3b 78b0 f53c ebed c5ba
00000040: 95e0 153d 5876 673d a9f0 b93a eed3 cc3d
00000050: 7c85 213d 5951 acbd 795c ed3d 837b 583e
00000060: 20b6 53be 49a9 1d3e cb7f 933d cc4d fdbc
00000070: 3bcb 123d af53 3b3e 3143 5dbb b7d2 0d3d
00000080: 57d7 be3d e0ee fd3b 270a 4ebe 103a 113e
00000090: e575 a0bb 81ca dc3d f6c3 ca3d 2b69 9cbc
000000a0: 28c4 e33d f5fe 303d 61b8 d5bc 48aa 183e
000000b0: c11f 9abd 5190 e8bd 9653 2e3e 2364 8abd
000000c0: b156 aabd 7f26 323c 6b9b 30bd 821b dfbd
000000d0: 07e4 03be ae84 073d 095d 683d 0f22 a0bd
000000e0: 82b0 df3d 0fcb fabd 31b4 0c3e 47a7 15bd
000000f0: fc45 8fbd a25e b5bd f71a 59bd 4b89 a2bc
00000100: 0f61 a0be 9421 1dbe 57f3 00be 4495 f1bd
00000110: 255a 22bd 1e34 2cbe 3652 263e ab6f 5d3e
00000120: 995c 7b3e 1494 ab3d 5457 28be 743b 33bd
00000130: 1b0b 393e 59e6 cb3c a629 0dbc 32c2 07bc
00000140: 050c d0bd d8cd 193e 1745 06ba 06a2 873e
00000150: 9bef 2e3d c2dc 02be 8643 85bd e515 5fbe
00000160: fcff 51be d265 e6bd 7275 3c3e 2d2f 3a3d
00000170: 8c89 fe3d 1c30 f6bd 0fe8 163e 4ec1 11bd
00000180: 376a 45be 7813 cabd f823 3f3d ef2e 7dbd
00000190: 2ae1 bcbd ec7e 13be 4a84 27be 5d40 e1bd
000001a0: 821f 2ebe bd60 923e 27cc 38be bb2a da3c
000001b0: d30f 3d3e bf2f bcbd 0e16 acbc 6eaa 093e
000001c0: 191f 473e 9507 a1bd 436c a8bd 1d61 59be
000001d0: bdc9 19be 2994 023e 90c5 d5bc b303 4abe
000001e0: ba4a 0ebe 7436 aa3e 89b3 44be 7317 aa3e
000001f0: 8667 c2bd f0c2 3f3e b185 31be b0bf fe3d
00000200: f34f 78be ba8b 50bc b180 643c 03d0 813d
00000210: 4378 083e 5b8e 4fbd 8d89 29bd e5f8 5a3d
00000220: 5da4 0a3c 9bac 9e3d 3308 8fbd 18e2 5bbd
00000230: ea11 e53d 729a 8b3d 5f52 2e3d 9a69 0f3e
00000240: 318d 2a3c d643 ed3d 5e2e e53d b4f7 7b3d
00000250: 117d d43d bd5c fa3c e458 d7bd 401d e6bd
00000260: 8a33 94bd 1d1e 7fbd 9726 743d 3607 60bd
00000270: d29a e03b 04b0 eabc 1d3c 16bc c142 2cbb
00000280: 0694 3cbd d931 97bd 5af4 8a3c 630b 913c
00000290: 53c8 923d 242b 513d 8db0 a83c bda3 1b3c
000002a0: 5a29 053d 244d bf3d ff3a c5bb 9805 d13c
000002b0: 3c00 913d a6e6 d6bd e11b 3f3e 3a48 2f3e
000002c0: 8b6a 23bd 686f 3bbd 89c6 063d 07ff 143c
000002d0: f8ab 64bd fa62 6a3d fdfb c93b a1fe c43c
000002e0: 356c 2dbd 701d ae3d 3614 82bd b28e f9bc
000002f0: 81d5 01be a9c1 923c bc51 c3bd 5b7f 84bd
00000300: 999e 85bd 905c 853d 08b2 79bd 3de4 cc3d
00000310: 6459 cd3d bb15 263e d6a9 433d 0c7f bbbd
00000320: ab78 35bc 8375 b43c 4bee a3bd 58d0 27bd
00000330: 5d1d 1fbe f86c 163d de31 a03b 5e0f 283d
00000340: 07dd 82bc 8588 d93c 3c5f 423b 2f51 903d
00000350: 0496 0dbe 7527 5c3d a6a0 69bc 40c6 0ebd
00000360: 15ec 79bc 9d1e fb3c 0f06 aabd e40e c93d
00000370: d377 aa3d 452d 54bd 0c89 bc3d cd98 27bd
00000380: 30a7 1ebd af8e 17bd df1b a9bc 409a 253e
00000390: f890 f2bc 8c2c 8c3d 3a55 a13c 5100 19bd
000003a0: c00e 1abe 1a4d d03d 1dd6 1c3e 8b9a 83bd
000003b0: 87bf be3d 0a24 d9bd 0d92 b63c 86fc 55bd
000003c0: 0992 d2bc 2bcd 083d 8d0b 893d bd08 48bc
000003d0: 3590 453e f7c2 bd3d 2521 bd3d cd57 4c3d
000003e0: e51b 1a3e 36a0 b3bd 4911 87bd ec6c 1ebd
000003f0: e588 f5bd 1d7d 5cbd 35e5 1abc 4add adbd
0.008128459 -0.053534307 0.15359564 -0.1476901 0.04742663 -0.11101605 -0.06876794 0.013063471
0.17574677 -0.1505406 0.1363554 -0.00421506 0.049142174 0.005711456 0.029991373 -0.0015100812
0.03659113 0.056509346 0.0014186102 0.1000136 0.03943394 -0.08413953 0.115899034 0.21140866
-0.20674944 0.15396608 0.07202109 -0.030920886 0.035838347 0.18293642 -0.0033761973 0.03462478
0.093184166 0.0077494234 -0.2012106 0.14182305 -0.0048968666 0.10780812 0.09900658 -0.019093117
0.11121398 0.043211896 -0.026088895 0.14908707 -0.07525588 -0.11355651 0.17024073 -0.06757381
-0.08317316 0.010873436 -0.043116968 -0.108939186 -0.12879954 0.033085518 0.05672935 -0.07818996
0.10922338 -0.122457616 0.13740613 -0.03653648 -0.0699577 -0.088559404 -0.05300423 -0.019840857
-0.3132405 -0.1534484 -0.12592827 -0.11796048 -0.03963675 -0.16816756 0.16242298 0.21624629
0.24547042 0.08377853 -0.16439563 -0.04375787 0.18070643 0.024890112 -0.008615887 -0.008286046
-0.101585425 0.1501993 -0.00051219895 0.26490802 0.042708974 -0.12779525 -0.0650702 -0.21785696
-0.20507807 -0.112498894 0.18404177 0.045455147 0.12428579 -0.12020895 0.14736961 -0.03558474
-0.19278799 -0.098669946 0.04666516 -0.061812337 -0.09222634 -0.14403886 -0.16359058 -0.109986044
-0.17004207 0.2858943 -0.18046628 0.026631704 0.18463068 -0.09188794 -0.02100661 0.1344392
0.19445457 -0.07862774 -0.08223774 -0.21228452 -0.15018363 0.12751831 -0.026095182 -0.19727974
-0.13895693 0.3324467 -0.19209112 0.33221015 -0.09492402 0.18726707 -0.17336155 0.12438905
-0.24249248 -0.012728626 0.013946698 0.06338503 0.13327126 -0.05067287 -0.041390944 0.05346002
0.008462039 0.07747766 -0.06983986 -0.053682417 0.111850575 0.068165675 0.042559024 0.14005128
0.010409639 0.11585204 0.111904845 0.061515525 0.10375417 0.0305618 -0.105150014 -0.11236048
-0.07236393 -0.062284578 0.059607115 -0.054694377 0.0068543935 -0.028648384 -0.009169606 -0.0026284906
-0.046039604 -0.073825546 0.016962219 0.017705625 0.07167115 0.051066533 0.020591998 0.0094994875
0.03251014 0.09340885 -0.006018996 0.025515363 0.07080123 -0.104932114 0.18662979 0.17117396
-0.03989653 -0.045760542 0.03290418 0.009094006 -0.055828065 0.057223298 0.0061640725 0.024047198
-0.042339522 0.085017085 -0.06351511 -0.03046355 -0.12679102 0.01791461 -0.09537074 -0.06469604
-0.06524391 0.065117955 -0.0609608 0.100044705 0.100268155 0.16219227 0.04776939 -0.09155092
-0.011076133 0.02202869 -0.08004435 -0.040970176 -0.15538545 0.036725014 0.004888757 0.04103028
-0.015974535 0.026554355 0.0029658815 0.070467345 -0.13826758 0.053748567 -0.014259493 -0.034857035
-0.01525404 0.030654246 -0.08301937 0.09817293 0.08323636 -0.051800985 0.09205827 -0.040917207
-0.03873366 -0.037001308 -0.020643173 0.16172123 -0.029610142 0.06844434 0.01969396 -0.037353817
-0.15044689 0.10170956 0.15316053 -0.06425961 0.09313875 -0.10602577 0.02228644 -0.05224278
-0.0257044 0.03339879 0.06691656 -0.012209115 0.19293292 0.09265702 0.092348374 0.04988842
0.15049703 -0.08770792 -0.06595094 -0.038678095 -0.11989001 -0.053830255 -0.009454061 -0.08489473
