logs/experiment/Discrete_A2C_1-5Box_10x10x10Bin-2022.08.09-15-00-00/PCT-Discrete_A2C_1-5Box_10x10x10Bin-2022.08.09-15-00-00_2022.08.09-23-10-36.pt (torch, 236314 bytes, 24 tensors)

actor.init_internal_node_embed.0.module.weight f4 [32, 6]
0	0xbf00dfe0	-0.50341606
1	0x3ce285a4	0.027651615
2	0xbf2fcc30	-0.6867094
3	0x3d12325a	0.03569255
4	0xbe501641	-0.20320989
5	0x3d6aa7b1	0.05728883
6	0xbd9d2ed9	-0.07674951
7	0x3e095535	0.1341141
8	0xbebb8a29	-0.36628845
9	0xbe96ac6e	-0.29428428
10	0xbed0a8b3	-0.40753707
11	0xbee93d7d	-0.45554724
12	0xbda5a205	-0.080875434
13	0x3d332a9e	0.043741815
14	0x3e4d8a53	0.20072298
15	0x3e63a899	0.22232284
16	0x3dfdd010	0.123932004
17	0xbf2dea8d	-0.6793602
18	0x3e9ed794	0.31023848
19	0xbe302e87	-0.17205249
20	0x3e9661cc	0.29371488
21	0xbefdf275	-0.49599043
22	0xbe0d5cdb	-0.13804953
23	0x3f1db535	0.61604625
24	0xbda1b4cd	-0.07895813
25	0xbec23cae	-0.3793692
26	0x3e27fce5	0.16405065
27	0x3d926a99	0.07149238
28	0x3e919658	0.28435016
29	0x3f535987	0.8255848
30	0xbd1b4342	-0.03790594
31	0x3dbf16b6	0.09330504
32	0x3e71f380	0.23628044
33	0x3cca84a6	0.024721455
34	0xbdb124a5	-0.086495675
35	0xbe8159d2	-0.2526384
36	0x3fa48034	1.2851624
37	0xbeeb72eb	-0.45986113
38	0xbf4bb8fd	-0.79579145
39	0xbfaff184	-1.374558
40	0x3f2b130e	0.6682595
41	0x3f2bc808	0.671021
42	0xbebd5888	-0.36981606
43	0xbeafe5b5	-0.3435494
44	0x3d96c8d5	0.073625244
45	0xbe56ea7a	-0.20987883
46	0x3e901256	0.2813899
47	0x3f140d08	0.57832384
48	0xbdbda970	-0.09260833
49	0x3ed69a61	0.41914657
50	0x3f1c3efb	0.610336
51	0xbe5b82bd	-0.21436591
52	0xbe7e0c21	-0.24809314
53	0x3eae16b6	0.34001702
54	0x3ecf93d8	0.40542483
55	0xbd6a156b	-0.057149332
56	0x3f058360	0.5215359
57	0xbd903acd	-0.07042465
58	0xbd8eb80a	-0.069686964
59	0xbd074481	-0.033024315
60	0xbee78d43	-0.45224962
61	0xbeabd7ed	-0.33563176
62	0xbe905629	-0.28190735
63	0x3efb07cf	0.49029395
64	0x3ea072cd	0.31337586
65	0xbea17744	-0.31536305
66	0xbde8a70c	-0.11359987
67	0x3f26dafa	0.6517788
68	0xbef8d726	-0.48601645
69	0x3e0f7359	0.14008845
70	0xbf25abbe	-0.6471518
71	0x3eefac33	0.46811065
72	0x3ea142ce	0.3149628
73	0xbf16f4c7	-0.5896725
74	0xbe6bd0c2	-0.23028854
75	0x3e7ed12a	0.24884477
76	0xbe90a464	-0.2825042
77	0x3e2d8be9	0.16947903
78	0x3e44b4dc	0.19209617
79	0x3e8c0ea9	0.27354935
80	0xbde90352	-0.113775864
81	0xbe939248	-0.2882254
82	0xbd710c38	-0.058849543
83	0xbdef6259	-0.1168868
84	0x3e8de3ad	0.27712765
85	0xbc1026d4	-0.00879832
86	0x39c4975e	0.0003749681
87	0xbe1e924c	-0.15485495
88	0x3914dd62	0.00014196851
89	0x3cf275f9	0.02959727
90	0x3ea871ad	0.32899228
91	0xbdf6544d	-0.12027798
92	0x3ea12a5d	0.31477633
93	0xbe73dabf	-0.23813914
94	0xbe4f4eb4	-0.20244867
95	0x3e8b19fd	0.27168265
96	0xbefc6e7a	-0.49303037
97	0xbf05c17e	-0.5224837
98	0xbebaa818	-0.3645637
99	0xbec3457a	-0.38138944
100	0xbddf6213	-0.10907378
101	0xbe950a8d	-0.29109612
102	0x3ca4095a	0.02002399
103	0x3e1c60be	0.15271279
104	0x3ea107a9	0.31451157
105	0xbda6783c	-0.08128402
106	0xbca21aa4	-0.019788094
107	0xbaf2b4bc	-0.0018516998
108	0xbdc0e9fd	-0.0941963
109	0xbf378c59	-0.7169853
110	0xbf2e1c74	-0.68012166
111	0xbd90e2a5	-0.07074479
112	0xbe19fe9c	-0.15038532
113	0xbe1e4c2a	-0.15458742
114	0x3e735fed	0.23767062
115	0xbdd3568b	-0.10319241
116	0xbf505f81	-0.8139573
117	0xbda3d6ef	-0.0799998
118	0xbd9dbd80	-0.0770216
119	0x3edb6681	0.42851642
120	0x3cdfd71c	0.027324252
121	0xbe711e96	-0.23546824
122	0xbcaf2742	-0.021381024
123	0xbedcc389	-0.4311793
124	0xbf2f5fe9	-0.6850572
125	0x3dbf05d9	0.09327287
126	0xbd8d0258	-0.06885213
127	0xbecfa40e	-0.4055485
128	0xbf273139	-0.6530948
129	0x3d885565	0.06656913
130	0x3e98402c	0.2973646
131	0x3f1ce34f	0.61284345
132	0xbeb0943c	-0.34488094
133	0x3bd6dce8	0.006557096
134	0xbf48a85d	-0.783819
135	0x3e97a8cd	0.29620972
136	0x3f00681c	0.5015886
137	0x3cca2b88	0.02467896
138	0x3de8409b	0.113404475
139	0xbd52bec0	-0.051451445
140	0xbeda76d0	-0.42668772
141	0xbe2cf66c	-0.16890877
142	0xbed95d97	-0.42454216
143	0xbf0eb494	-0.5574429
144	0x3e267b51	0.16257979
145	0xbe181182	-0.14850429
146	0x3f390b8b	0.7228324
147	0xbc857568	-0.016291335
148	0x3e086e55	0.13323338
149	0xbdbd4c9b	-0.09243127
150	0x3dc4fd3f	0.09618615
151	0xbe8e3060	-0.27771282
152	0xbf0ed152	-0.5578815
153	0x3e4dd0f6	0.20099244
154	0x3ecf3877	0.40472767
155	0xbe02bac8	-0.12766564
156	0x3f22b26d	0.63553506
157	0x3d23cbba	0.03998921
158	0x3e5a75f0	0.21334052
159	0x3e2643dd	0.16236825
160	0xbe2480db	-0.1606478
161	0xbe6c4baf	-0.23075746
162	0x3eb4a19d	0.3527955
163	0x3d278451	0.04089767
164	0xbe52e05e	-0.20593402
165	0x3ee3c786	0.44488162
166	0x3d91c9f2	0.07118596
167	0xbdf39517	-0.11893671
168	0xbdd6538b	-0.10465153
169	0xbe63adb9	-0.22234239
170	0x3e064ec7	0.13115989
171	0x3f083b40	0.5321541
172	0x3f0077b0	0.5018263
173	0xbf4f0076	-0.8086008
174	0x3e8ae19e	0.27125257
175	0xbe7c9590	-0.24666429
176	0xbeb7491d	-0.35797969
177	0xbdb4d1dc	-0.0882909
178	0x3dd725e3	0.10505273
179	0xbd4d3447	-0.050098684
180	0xbe9ebda6	-0.31004065
181	0xbecd0b36	-0.40047616
182	0x3fa78809	1.308839
183	0xbdf2e3a6	-0.11859827
184	0xbe59a48c	-0.21254176
185	0x3dd3a7f6	0.103347704
186	0x3e6ece48	0.23320878
187	0x3d975279	0.07388777
188	0xbdd83110	-0.10556233
189	0x3d6748ed	0.05646603
190	0xbe1d43a8	-0.1535784
191	0xbdd2200e	-0.1026002

actor.init_internal_node_embed.0.add_bias._bias f4 [32, 1]
0	0x3c5b04c4	0.013367835
1	0xbecdd927	-0.40204737
2	0xbba80418	-0.005127441
3	0xbcba88fb	-0.022770396
4	0x3e163bbe	0.14671227
5	0x3d1f103e	0.03883385
6	0x3bcb7558	0.006209057
7	0xbc08e87d	-0.008356211
8	0x3d36c0a7	0.04461732
9	0x3dd780fd	0.105226494
10	0x3c041084	0.008060578
11	0x3c815c0e	0.015790965
12	0xba5ffc00	-0.0008544326
13	0x3a038c86	0.0005018193
14	0xbc57649f	-0.0131465485
15	0x3cf6398f	0.030056743
16	0xbe92892b	-0.28620276
17	0xbd7523aa	-0.059848465
18	0x3d3bc22c	0.045839474
19	0x3b06a491	0.0020544867
20	0xbe7c5f78	-0.24645793
21	0x3d67aee6	0.05656328
22	0x3d48050e	0.048832946
23	0x3dee6fa3	0.11642387
24	0x3d0c1f79	0.034209702
25	0x3b69758c	0.0035623042
26	0x3bbfb31e	0.00585021
27	0x3d9013be	0.070350155
28	0x3cde9d71	0.027174683
29	0xbd41c1a1	-0.0473038
30	0x3d9282a8	0.07153827
31	0xbd903666	-0.07041626

actor.init_internal_node_embed.2.module.weight f4 [64, 32]
0	0x3e21faea	0.15818372
1	0x3e22c58f	0.15895675
2	0xbe26570c	-0.16244143
3	0x3e012366	0.1261116
4	0x3d0a32b6	0.033739768
5	0x3ddf1836	0.1089329
6	0x3e239a7e	0.15976903
7	0x3f011af9	0.5043178
8	0x3eacf2db	0.33779034
9	0xbde5c36a	-0.11218913
10	0x3f54ffca	0.83202803
11	0x3e5be934	0.21475679
12	0x3d2472fb	0.040148716
13	0xbe39ff52	-0.18163803
14	0xbf33d78f	-0.7025079
15	0x3e9498ff	0.29022977
16	0xbd1f2e3e	-0.03886246
17	0x3e851bd3	0.2599779
18	0x3cba8692	0.022769246
19	0x3e5da57d	0.2164516
20	0xbe6cf36f	-0.23139738
21	0x3e0cb67e	0.1374149
22	0x3f8bece1	1.0931665
23	0xbcc322b7	-0.023820264
24	0x3f1a2e4d	0.602269
25	0x3e41fd64	0.18944317
26	0x3e17b740	0.14815998
27	0x3e904201	0.28175357
28	0x3dc3a877	0.095536165
29	0xbab432a4	-0.0013748002
30	0xbe3e0d2c	-0.18559712
31	0x3d516c98	0.051128954
32	0x3ea29d88	0.31760812
33	0x3dcd738d	0.10031805
34	0xbf094536	-0.5362123
35	0xbee93ee3	-0.4555579
36	0xbd16d825	-0.036827225
37	0x3e54ffe0	0.20800734
38	0x3d90385d	0.070420004
39	0xbea234df	-0.31680962
40	0xbe5242bc	-0.2053327
41	0x3e3aa79b	0.18227999
42	0x3ecf943a	0.40542775
43	0x3df3fc6a	0.119133785
44	0x3ef7b330	0.48378897
45	0x3b1c6439	0.0023863448
46	0xbcfe8e3b	-0.03107368
47	0x3e7e74e7	0.24849282
48	0xbd503400	-0.05083084
49	0xbe1f8a8a	-0.15580192
50	0xbe051ad0	-0.1299851
51	0xbe15f6a8	-0.14644873
52	0x3d5e49b2	0.0542695
53	0x3ebe3781	0.3715172
54	0x3f72a4cc	0.9478271
55	0x3eb4d221	0.35316566
56	0xbe78483d	-0.24246307
57	0x3e335277	0.17511927
58	0x3bb206cc	0.005432939
59	0x3d888a89	0.066670485
60	0x3f26b92f	0.6512632
61	0x3e34883c	0.17630094
62	0x3e833a20	0.25630283
63	0xbd00c314	-0.03143604
64	0xbe93cbc5	-0.288664
65	0x3cf97388	0.030450597
66	0x3f0dab27	0.5533928
67	0x3f290d8e	0.6603631
68	0x3f03db22	0.51506245
69	0xbcb8dc0d	-0.022565866
70	0xbea332c3	-0.31874666
71	0x3f83f92f	1.031042
72	0xbe94ddd2	-0.29075485
73	0xbe99b148	-0.30018067
74	0xbee8c469	-0.4546235
75	0xbf591599	-0.8479858
76	0x3dd1d7d8	0.10246247
77	0x3e7218c1	0.23642255
78	0x3f15ecbf	0.5856437
79	0xbf1efe8b	-0.6210715
80	0xbd8690ca	-0.06570585
81	0x3d59055c	0.052983627
82	0x3cfe8abe	0.031072017
83	0xbed41e78	-0.41429496
84	0xbc8f76ab	-0.01751264
85	0x3ee77b92	0.45211464
86	0xbd8cac59	-0.0686881
87	0xbe557c83	-0.20848279
88	0xbdb9e74b	-0.09077319
89	0x3d4db18b	0.050218146
90	0xbcb4708a	-0.022026319
91	0x3cf42dda	0.02980702
92	0x3e9d8bab	0.3077062
93	0xbe37ee2b	-0.17961948
94	0x3e6015b7	0.21883284
95	0x3e0537ae	0.13009521
96	0x3bc708bc	0.0060740393
97	0xbe5de7af	-0.21670412
98	0xbd29e031	-0.04147357
99	0x3f046188	0.5171132
100	0x3e198c46	0.14994916
101	0xbc35fcfc	-0.011107679
102	0xbbcc0842	-0.0062265703
103	0x3e806d77	0.25083515
104	0x3d331639	0.043722365
105	0xbda0d116	-0.0785238
106	0x3cc29138	0.023750886
107	0xbdacb7ae	-0.084334716
108	0xbe976708	-0.29570794
109	0x3d90d914	0.07072654
110	0xbeab9369	-0.33510903
111	0xbd012075	-0.031525094
112	0x3de6f8dd	0.11277936
113	0xbe9c6504	-0.3054582
114	0x3dc1738d	0.09445868
115	0x3d2c8a3d	0.04212402
116	0xbe880535	-0.26566473
117	0x3f24f4b7	0.64435905
118	0xbe40c8a4	-0.18826538
119	0x3e783a52	0.24240997
120	0x3e42fd73	0.19041996
121	0x3c795953	0.01521905
122	0x3d77ab76	0.060466252
123	0x3e902418	0.28152537
124	0x3e51734f	0.20454143
125	0xbd33fae4	-0.04394044
126	0xbe6ba932	-0.23013762
127	0x3e74237c	0.23841661
128	0x3ea93f7d	0.3305625
129	0xbe0e1b71	-0.13877656
130	0xbe45d4e8	-0.19319499
131	0x3e0e37a7	0.13888417
132	0xbf0c6bca	-0.54851973
133	0xbdd84daa	-0.10561688
134	0x3f01ed54	0.5075276
135	0xbedf42f0	-0.43605757
136	0xbf2219b8	-0.63320494
137	0x3f0452fd	0.5168913
138	0x3ed5149a	0.4161728
139	0x3ebdd569	0.37076882
140	0xbc94f6aa	-0.018184025
141	0xbe29ffed	-0.16601534
142	0x3eb4f19c	0.35340583
143	0xbd13cc66	-0.0360836
144	0xbc763426	-0.015027082
145	0xbe173254	-0.14765292
146	0xbaabafb4	-0.0013098628
147	0x3dec22f8	0.11530107
148	0xbe2363be	-0.15956017
149	0x3eeb7b02	0.45992285
150	0x3e3c93e1	0.18415786
151	0xbd98bc92	-0.07457842
152	0xbe65162b	-0.22371738
153	0x3e5e253f	0.21693896
154	0x3e7f9eca	0.24962917
155	0x3dfab831	0.12242163
156	0x3f12fa8d	0.5741356
157	0x3db9ea92	0.09077944
158	0x3e219f4d	0.15783425
159	0xbdfa8513	-0.12232413
160	0xbe90b6ef	-0.28264567
161	0xbdbd49d5	-0.09242598
162	0xbd7776fb	-0.060416203
163	0xbd13a90d	-0.03604989
164	0x3f67e36c	0.90581393
165	0xbea27f6f	-0.3173785
166	0xbe871e58	-0.26390338
167	0x3e97051e	0.29496092
168	0x3e753d6a	0.23949209
169	0xbc659fe7	-0.0140151745
170	0x3f53323f	0.82498544
171	0xbe9be98b	-0.30451617
172	0xbd31ff74	-0.04345651
173	0xbe562424	-0.20912224
174	0xbbbcebc7	-0.0057654115
175	0x3e8ac41d	0.27102748
176	0x3e6a9ad5	0.22910626
177	0x3e7f8f9a	0.24957123
178	0xbdeb8b57	-0.11501186
179	0x3dcc3a28	0.0997203
180	0xbd30bd9f	-0.043149587
181	0x3cbe2c01	0.023214342
182	0x3eacda7f	0.3376045
183	0xbf2424c8	-0.64118624
184	0xbce1404c	-0.02749648
185	0x3e86080e	0.2617802
186	0x3e66267e	0.22475621
187	0x3ede4af1	0.4341655
188	0x3c968a15	0.01837639
189	0xbdb16bc3	-0.08663132
190	0x3ccc3d2b	0.02493151
191	0x3e209b62	0.15684274
192	0x3e8b6f54	0.27233374
193	0x3c88e3f7	0.016710265
194	0x3e161430	0.14656138
195	0x3bc171fc	0.0059034806
196	0x3efd6831	0.49493554
197	0x3d6372f3	0.055529546
198	0xbe2b44f0	-0.16725516
199	0x3e2169ea	0.1576306
200	0x3d8f6d2d	0.070032455
201	0xbe8d5aed	-0.27608433
202	0x3ebbcd14	0.366799
203	0xbe041e39	-0.12902154
204	0xbe898e32	-0.268663
205	0xbbed7849	-0.007247005
206	0x3e87d823	0.26532087
207	0xbee70105	-0.45117965
208	0x3c6ec0e5	0.014572357
209	0xbe9e54ac	-0.30923975
210	0x3da32ed9	0.0796792
211	0xbc33b075	-0.010967364
212	0x3c551718	0.013005994
213	0x3dd40f60	0.10354495
214	0xb9bf7c83	-0.00036523127
215	0x3e3f5996	0.18686518
216	0xbd8e89e8	-0.06959897
217	0x3daad1ab	0.08340772
218	0xbe78f5ce	-0.24312517
219	0x3ee448f4	0.4458691
220	0xbeadd29c	-0.33949745
221	0x3dbb51c1	0.09146453
222	0xbeeba61c	-0.4602517
223	0xbd32dd6a	-0.04366819
224	0xbe1a94aa	-0.15095773
225	0xbdf9a83b	-0.121902905
226	0xbeed825a	-0.46388513
227	0xbeab5fd0	-0.33471537
228	0xbeaf3a71	-0.34224275
229	0xbcec5f4f	-0.02885404
230	0x3dc85ad7	0.09782951
231	0xbcf7754b	-0.030207297
232	0x3e5b6dd9	0.21428622
233	0x3ec73829	0.38910034
234	0x3ee8f408	0.4549868
235	0x3edea438	0.43484664
236	0xbe4b112f	-0.19830774
237	0x3d5b8eb0	0.053602874
238	0xbe5d1158	-0.21588647
239	0xbcb47587	-0.022028698
240	0xbd7e9706	-0.062155746
241	0xbe399ea5	-0.18126924
242	0x3e4abedb	0.19799368
243	0x3e6479ba	0.2231206
244	0x3d241493	0.040058684
245	0xbee85ffc	-0.4538573
246	0x3f2ab0a5	0.6667579
247	0xbd00e00a	-0.03146366
248	0xbf2277b6	-0.63463914
249	0x3e07b17f	0.13251303
250	0xbecd1efc	-0.40062702
251	0xbef94810	-0.48687792
252	0x3f2a662e	0.66562164
253	0x3e4da913	0.20084028
254	0x3ebf2774	0.37334788
255	0xbdc4ecc2	-0.096154705

actor.init_internal_node_embed.2.add_bias._bias f4 [64, 1]
0	0x3e36f65e	0.17867419
1	0x3e99b5a9	0.30021408
2	0xbd54358c	-0.05180888
3	0x3d9dcc20	0.077049494
4	0x3e206998	0.15665281
5	0x3e94020c	0.28907812
6	0x3d329cbb	0.0436065
7	0x3de9f874	0.11424342
8	0xbdb02278	-0.086003244
9	0xbdcb5b71	-0.099295504
10	0x3bbe9905	0.005816581
11	0x3d13be26	0.03607001
12	0xbd7cd8d6	-0.06173023
13	0x3da756df	0.08170866
14	0x3e135e8f	0.1439154
15	0x3e1bcfbc	0.15215963
16	0x3c97bdb7	0.01852308
17	0xbe44eaed	-0.19230242
18	0x3cc2722d	0.023736084
19	0x3da344da	0.07972117
20	0xbc26b9e8	-0.010176159
21	0x3cb699ab	0.022290071
22	0xbd6943ed	-0.056949545
23	0xbd9371e9	-0.07199461
24	0x3df06dc6	0.117396876
25	0xbd1cb393	-0.038257193
26	0xbd30baf9	-0.04314706
27	0x3d19b0d7	0.037522163
28	0xbdbc758c	-0.09202108
29	0xbadd8b23	-0.0016902428
30	0x3c10e40a	0.008843431
31	0x3b9f09b2	0.0048534507
32	0x3daa4532	0.08313979
33	0x3ce2c31b	0.027680924
34	0x3e912735	0.28350225
35	0xbd832111	-0.06402791
36	0x3cb8c8a7	0.022556616
37	0xbe12a4c0	-0.1432066
38	0xbcf7e76a	-0.030261714
39	0x3e4d82a6	0.2006937
40	0xbd3eba55	-0.04656442
41	0xbe7f6fd4	-0.24945003
42	0x3e1c5170	0.15265441
43	0xbbef0013	-0.00729371
44	0xbe0bc5a3	-0.13649611
45	0xbd5092cb	-0.050921243
46	0xbe9239d2	-0.28559738
47	0xbe8672f6	-0.26259583
48	0x3e892784	0.2678796
49	0x3c0bf0f3	0.0085413335
50	0x3dce2dd9	0.100673385
51	0x3d6c4b5c	0.057689056
52	0xbcb5bc28	-0.022184446
53	0xbc7751f3	-0.015095222
54	0xbd27a61d	-0.040929902
55	0x3e5a3dff	0.21312712
56	0x3e6c932c	0.23103017
57	0xbda5d97e	-0.08098124
58	0x3c787409	0.015164384
59	0x3d3fa63c	0.046789393
60	0x3d5c9c93	0.05386026
61	0x3dda536a	0.10660441
62	0xbd0fcbe9	-0.035106573
63	0x3c82c46a	0.015962798

actor.init_leaf_node_embed.0.module.weight f4 [32, 8]
0	0xbd9ac17d	-0.07556436
1	0xbeafe9a6	-0.34357947
2	0xbec9f6b8	-0.39446044
3	0xbd9698a5	-0.073533334
4	0x3e2dc37b	0.16969101
5	0x3ebdc8af	0.37067172
6	0x3efdbaae	0.49556488
7	0x3e8a0761	0.26958755
8	0xbed053d7	-0.40688965
9	0xbf3018a1	-0.6878758
10	0xbd88f866	-0.06688003
11	0xbe9ec0e9	-0.31006554
12	0xbe7273d0	-0.23676991
13	0x3ea99bc7	0.3312666
14	0xbcb4d3e4	-0.022073694
15	0x3ebabde5	0.36473003
16	0x3e512059	0.20422496
17	0xbec26d91	-0.37974218
18	0xbe00b8b7	-0.12570463
19	0x3ed01f21	0.4064875
20	0x3bd04667	0.006356049
21	0xbea2cf88	-0.3179896
22	0xbd682d08	-0.05668357
23	0xbd8a1e79	-0.067440934
24	0xbeceb027	-0.4036877
25	0xbe46beef	-0.19408773
26	0xbe77fdc5	-0.24217899
27	0xbe815e6c	-0.2526735
28	0x3ea9b940	0.33149147
29	0x3d393c90	0.045223773
30	0x3ee70d99	0.45127562
31	0x3de9e4b1	0.114205725
32	0xbd0bab0e	-0.034098677
33	0xbe30071c	-0.17190212
34	0x3d93af39	0.072111554
35	0x3dde3a5e	0.108509764
36	0x3ebd75b6	0.3700387
37	0x3e079aac	0.13242596
38	0xbeff5005	-0.49865738
39	0x3ec852a0	0.39125538
40	0x3dc4a4cb	0.09601744
41	0x3e159578	0.14607799
42	0xbf08b173	-0.53395766
43	0x3e1fa054	0.15588504
44	0xbeed5969	-0.46357277
45	0x3f062579	0.5240093
46	0xbdfaade4	-0.12240198
47	0xbe838a89	-0.2569163
48	0xbecee6c6	-0.4041044
49	0xbe463e54	-0.19359714
50	0xbd68eb31	-0.05686492
51	0x3c9186f7	0.017764552
52	0x3d62fc75	0.055416543
53	0xbe3faabb	-0.18717472
54	0xbdcc6865	-0.09980849
55	0xbde01580	-0.10941601
56	0x3ec40f13	0.3829275
57	0xbee196b1	-0.4406028
58	0x3e85c385	0.26125732
59	0x3ee7ff1d	0.45311823
60	0xbd159ad3	-0.036524605
61	0x3ec69b73	0.38790473
62	0x3d381e3e	0.044950716
63	0x3e66c219	0.2253498
64	0x3dd1e111	0.10248006
65	0x3e0364d0	0.12831426
66	0xbe2b24cc	-0.16713256
67	0x3ead657c	0.3386649
68	0x3dc5ec9b	0.096642695
69	0x3dae30aa	0.08505376
70	0x3efb1266	0.49037474
71	0x3eb22f08	0.34801507
72	0xbdb7ef9f	-0.08981251
73	0x3eaaedfc	0.33384693
74	0xbe393f6e	-0.18090603
75	0x3e9b4993	0.3032957
76	0x3d01c530	0.031682193
77	0xbdf6691a	-0.12031765
78	0x3ee7a1b2	0.4524055
79	0xbe9905c9	-0.29887226
80	0x3d566ce7	0.05234995
81	0x3dc26bf9	0.094932504
82	0x3e8f0588	0.27933908
83	0xbd8c40de	-0.0684831
84	0x3eb3a848	0.35089326
85	0xbcf7f543	-0.030268317
86	0xbe45b2c8	-0.19306481
87	0x3cad61e2	0.021164838
88	0xbe94ada2	-0.2903872
89	0x3cfc443a	0.030794252
90	0x3e3db513	0.18526106
91	0x3dcb16ff	0.099164955
92	0x3eefd7f0	0.46844435
93	0x3dc08db6	0.09402029
94	0xbc888392	-0.0166643
95	0xbeb7411b	-0.3579186
96	0x3ec64a69	0.38728645
97	0x3d9fccfd	0.0780277
98	0x3f113fb3	0.5673782
99	0xbeae93a3	-0.34097013
100	0xbdb5e7bb	-0.0888209
101	0xbd839070	-0.06424034
102	0x3ebbf32c	0.36708963
103	0xbdeec120	-0.116579294
104	0xbe6187e2	-0.22024491
105	0x3cbb95dc	0.022898607
106	0x3e7f50f4	0.24933225
107	0xbe0a91a7	-0.13532124
108	0xbe8abb7f	-0.27096173
109	0xbe32d9ab	-0.17465846
110	0x3eb62cc3	0.35581025
111	0x3d9c2aa3	0.0762532
112	0x3e2ef58d	0.17085858
113	0xbc8c87ef	-0.017154662
114	0x3e24d740	0.16097736
115	0x3ee9d657	0.4567134
116	0x3de91ad3	0.113820694
117	0x3ed281c4	0.41114628
118	0x3de94312	0.11389746
119	0xbd94f0af	-0.07272469
120	0x3f0138ab	0.50477093
121	0x3e12fcce	0.1435425
122	0xbdec2df1	-0.115322
123	0xbf06ce3f	-0.52658457
124	0x3e3e65f4	0.1859358
125	0x3ef26614	0.47343504
126	0x3d124a72	0.035715528
127	0xbe9c02cf	-0.30470893
128	0xbd493c27	-0.04912963
129	0x3da482d7	0.08032768
130	0xbe92f663	-0.28703603
131	0x3eb5ea72	0.3553043
132	0x3e480100	0.19531631
133	0x3c7b7c11	0.015349404
134	0xbe77f7e4	-0.24215657
135	0x3da090b2	0.078400984
136	0xbda89b66	-0.08232765
137	0x3ec083c1	0.3760052
138	0x3de3539d	0.11099932
139	0x3d9b7982	0.07591535
140	0xbe8d5966	-0.27607268
141	0x3dbb9e74	0.09161082
142	0x3e3de466	0.18544158
143	0x3e936ec6	0.2879545
144	0xbe58242b	-0.21107547
145	0x3d43e299	0.047823522
146	0x3d88aa63	0.06673124
147	0xbeb3b4b6	-0.3509881
148	0xbe6f278c	-0.2335493
149	0x3eb6e612	0.35722405
150	0x3d48bb5c	0.049006805
151	0x3df4d329	0.11954338
152	0xbec8d3cd	-0.3922409
153	0x3e13e57e	0.14443013
154	0xbdc43f40	-0.095823765
155	0x3e906bbd	0.28207198
156	0x3d371670	0.044699132
157	0x3f054ee6	0.52073514
158	0xbdb772ae	-0.0895742
159	0x3dd91ab7	0.106007986
160	0xbe7a4105	-0.24438865
161	0xbe8b7996	-0.272412
162	0xbe9dec32	-0.30844265
163	0xbd3f3aae	-0.04668682
164	0x3ced8dbc	0.028998248
165	0x3ed56ad1	0.41683057
166	0xbe10a5a2	-0.14125684
167	0xbe862f68	-0.26208043
168	0x3e071dad	0.13194914
169	0xbe121bbb	-0.14268391
170	0x3ef8d088	0.48596597
171	0xbde5e064	-0.1122444
172	0x3c9e65ef	0.019335715
173	0xbde317ca	-0.11088522
174	0xbe47a64e	-0.19497034
175	0x3d6d99a4	0.05800785
176	0xbea90eeb	-0.33019194
177	0x3eb40cda	0.35166055
178	0x3c93032f	0.017945854
179	0x3ea3a776	0.319637
180	0x3e8040a0	0.25049305
181	0x3e36cab0	0.17850757
182	0x3df1c9c3	0.11806061
183	0x3e076341	0.13221456
184	0xbe988790	-0.29790926
185	0xbe14bccd	-0.14525147
186	0x3d8ce1cf	0.06879007
187	0xbd958bc5	-0.073020495
188	0x3ee792a4	0.45229065
189	0xbd2e7944	-0.042596117
190	0xbd17a27f	-0.037020203
191	0xbd7e7b2a	-0.062129177
192	0x3d60ac40	0.05485177
193	0x3d9ce61d	0.07661078
194	0x3e7e25c2	0.24819091
195	0xbc948e6a	-0.018134315
196	0x3e6c43e7	0.23072778
197	0x3d810f57	0.06301754
198	0xbc8cbb4c	-0.017179154
199	0x3efce8d4	0.49396384
200	0x3e99e71a	0.3005913
201	0x3e50c4ab	0.20387523
202	0xbefe020e	-0.49610943
203	0xbea4e497	-0.3220565
204	0x3d510041	0.051025633
205	0xbcafa758	-0.0214421
206	0x3d3fcb40	0.046824694
207	0xbe99970f	-0.2999806
208	0x3e796cb8	0.24357879
209	0xbe30ea38	-0.17276847
210	0x3df2bd0c	0.11852464
211	0x3ed47832	0.41497952
212	0x3e1eed9d	0.1552033
213	0x3df3db9c	0.119071215
214	0x3ee3f336	0.44521493
215	0xbe8e7b1c	-0.278283
216	0x3cf9d653	0.030497706
217	0xbe2f8822	-0.17141774
218	0xbec453cf	-0.3834519
219	0x3e14dca4	0.14537293
220	0x3f18a062	0.59619725
221	0xbd7912b0	-0.060808837
222	0x3e5e31ba	0.21698657
223	0x3eba74ee	0.36417335
224	0x3e9a3c73	0.30124244
225	0xbe3677fd	-0.1781921
226	0xbdf8ef14	-0.121549755
227	0xbde7dad2	-0.113210335
228	0xbd0577c3	-0.032584917
229	0xbec4e812	-0.38458306
230	0x3dd158bd	0.102220036
231	0x3e500625	0.20314844
232	0x3de58241	0.112064846
233	0x3e7be28c	0.2459814
234	0xbe3e93b7	-0.18611036
235	0xbe58cb19	-0.21171226
236	0x3e9466b6	0.28984612
237	0x3c314ee1	0.010822029
238	0xbe5e4b3e	-0.2170839
239	0x3e28dc8f	0.16490386
240	0x3e9250eb	0.2857736
241	0x3ef197a0	0.47185993
242	0xbf0394c9	-0.51398903
243	0xbe019743	-0.12655358
244	0xbe57df61	-0.21081306
245	0xbe2fc245	-0.17163952
246	0xbd100d71	-0.03516907
247	0x3ee99f59	0.45629385
248	0x3dd9de0f	0.106380574
249	0x3ed75da3	0.42063627
250	0xbd83e2c3	-0.06439736
251	0xbe5a4452	-0.21315125
252	0x3de887c6	0.11354022
253	0x3ec79b8e	0.38985866
254	0x3e303c45	0.17210491
255	0xbdc6d1b5	-0.09707967

actor.init_leaf_node_embed.0.add_bias._bias f4 [32, 1]
0	0x3c3da002	0.011573793
1	0x3cf07be5	0.029355953
2	0x3bbdfbad	0.0057978244
3	0x3c02c80c	0.007982265
4	0xbdf015ae	-0.11722885
5	0x3c76cf76	0.015064111
6	0xbd5972c4	-0.053087965
7	0xbcda464f	-0.026644854
8	0x3d9f6c77	0.0778436
9	0x3d0ec59a	0.034856416
10	0x3d2529b4	0.040322974
11	0xbcf5879c	-0.02997189
12	0x3adc7243	0.0016818721
13	0xbca620ea	-0.020279367
14	0x3e03ec31	0.12883069
15	0x3a477874	0.00076091965
16	0xbd2289b5	-0.03968211
17	0xbd4670cc	-0.048447415
18	0x3c3c0a9a	0.011477137
19	0xbb603c66	-0.0034215688
20	0x3d13af5c	0.036055908
21	0x3d212ff0	0.039352357
22	0x3df62293	0.12018313
23	0xbcae2f34	-0.021262743
24	0x3c483bf2	0.012221323
25	0x3c4c99a6	0.0124878045
26	0x3dbb32bb	0.091405354
27	0xbcabc95a	-0.020970035
28	0xbdbc8b11	-0.09206212
29	0x3b4422db	0.0029928002
30	0x3c100b13	0.008791703
31	0xbe1c0556	-0.1523641

actor.init_leaf_node_embed.2.module.weight f4 [64, 32]
0	0x3e16012f	0.14648889
1	0x3f0a9b6d	0.5414341
2	0x3e220da7	0.1582552
3	0x3ebf05aa	0.3730901
4	0xbe819677	-0.25310108
5	0x3ec72300	0.3889389
6	0x3e9bb677	0.30412647
7	0xbe808e79	-0.25108698
8	0xbbd64911	-0.006539472
9	0x3e3b495d	0.18289705
10	0x3c9a8650	0.018862873
11	0xbc1bf1ae	-0.00951807
12	0xbeae090e	-0.33991283
13	0xbe0aecc3	-0.1356688
14	0x3e0e95a4	0.13924271
15	0x3dbc1b35	0.09184877
16	0x3e3a2905	0.1817971
17	0xbdff0873	-0.124527834
18	0x3dc5dbb4	0.09661046
19	0x3ea4d96e	0.32197136
20	0x3f233086	0.63745916
21	0xbeffdfb5	-0.49975362
22	0x3f22bc98	0.6356902
23	0x3eb89fcb	0.36059412
24	0x3d334c3d	0.04377388
25	0xbca64564	-0.02029676
26	0xbc58a8af	-0.013223811
27	0x3eace588	0.33768868
28	0xbe079da4	-0.13243729
29	0x3e256833	0.1615303
30	0x3dcde71a	0.10053845
31	0xbe97855a	-0.29593927
32	0xbdf65724	-0.120283395
33	0xbe8c826e	-0.2744326
34	0xbe5a0c14	-0.2129367
35	0xbe25c82f	-0.16189645
36	0xbe8c4860	-0.27398968
37	0x3ea69dc7	0.3254225
38	0xbe6c49bc	-0.23075002
39	0x3e644a15	0.22293885
40	0x3e9de5eb	0.30839476
41	0xbeb1e0f9	-0.34741953
42	0x3d8a9af8	0.06767839
43	0xbe0790be	-0.13238809
44	0x3e8e6651	0.27812436
45	0x3d3ca5df	0.046056625
46	0x3d95184c	0.07280025
47	0x3db8cfc1	0.09024001
48	0x3ce70098	0.028198525
49	0x3e20700a	0.1566774
50	0x3d57a2e9	0.052645598
51	0xbeeb7c45	-0.45993248
52	0xbee6f6d0	-0.45110178
53	0x3f1856f9	0.5950771
54	0x3e4c2498	0.19935834
55	0x3e8204dd	0.25394335
56	0x3dbcc58b	0.09217366
57	0x3e3342e2	0.17505983
58	0x3e02b22a	0.12763277
59	0xbe570a0d	-0.20999928
60	0x3da2de5a	0.079525664
61	0x3db735f3	0.08945837
62	0x3e81bc6e	0.25339073
63	0xbe32a62e	-0.17446205
64	0x3c17c214	0.00926258
65	0x3bfecfbc	0.0077762287
66	0x3e6aa7a0	0.22915506
67	0xbec30f3f	-0.3809757
68	0x3e324697	0.1740974
69	0xbddf8af6	-0.109151766
70	0xbde42b0d	-0.11141024
71	0xbdafb266	-0.08578949
72	0xbeaeae56	-0.34117383
73	0x3eda1f57	0.42602035
74	0x3d8e8b3f	0.06960153
75	0x3e0b74ef	0.13618825
76	0xbe3ee88d	-0.18643399
77	0x3d29fa1b	0.041498285
78	0x3e0e82ae	0.13917038
79	0x3e1bcb64	0.15214306
80	0xbeabbf2d	-0.33544293
81	0xbe96e6c9	-0.2947295
82	0x3e391951	0.18076064
83	0x3d8afc37	0.067863874
84	0xbd8b6c96	-0.068078205
85	0x3e06cadf	0.13163327
86	0x3e0c7322	0.13715795
87	0x3d721543	0.059102308
88	0x3ea7a027	0.32739374
89	0xbdd62866	-0.10456924
90	0x3e403f18	0.18774068
91	0xbbb788b1	-0.0056010117
92	0xbe214d01	-0.15752031
93	0xbc4d75d6	-0.012540301
94	0xbefc4ed0	-0.4927888
95	0xbe61c648	-0.22048295
96	0xbe52c8eb	-0.20584457
97	0x3e12b6e3	0.14327578
98	0xbea963aa	-0.3308385
99	0x3f1d5cb9	0.6146961
100	0xbe565ce2	-0.2093387
101	0x3d8db364	0.06918982
102	0xbe246de4	-0.16057545
103	0x3e3b0b6b	0.18266074
104	0xbccd14de	-0.025034364
105	0x3de5bdd7	0.1121785
106	0x3e68ced7	0.22735153
107	0x3e345951	0.17612197
108	0x3f1f3f92	0.62206376
109	0xbe8879a5	-0.26655307
110	0xbd901a6f	-0.07036292
111	0xbe440972	-0.19144228
112	0xbe0c7b09	-0.13718809
113	0x3e71de37	0.23619924
114	0xbaf5ffb9	-0.0018768228
115	0x3d55e26f	0.052217897
116	0xbf02c257	-0.5107779
117	0x3b07ec0d	0.0020740062
118	0xbde080f3	-0.10962095
119	0xbe80f6aa	-0.2518819
120	0x3dcb6d08	0.099329054
121	0xbe27f220	-0.16400957
122	0x3e8ce66b	0.27519545
123	0x3e457acd	0.19285126
124	0x3e567684	0.20943648
125	0x3d090066	0.033447646
126	0xbd6b43dd	-0.057437766
127	0x3dabeec8	0.08395153
128	0xbeb342dd	-0.3501195
129	0xbed5792d	-0.41694012
130	0xbd9ec4d0	-0.07752383
131	0xbe1e7afd	-0.15476604
132	0xbb5ce120	-0.003370352
133	0xbe90e5c7	-0.28300306
134	0xbe6d04bb	-0.23146336
135	0xbe50f2ca	-0.20405117
136	0xbf19b1d6	-0.6003698
137	0x3ec65404	0.38735974
138	0xba247bdc	-0.000627456
139	0xbbb24ab3	-0.0054410337
140	0x3ef00996	0.46882313
141	0xbc9e4029	-0.019317703
142	0xbe8c1575	-0.2736012
143	0x3e3f8a66	0.18705139
144	0x3daef8e9	0.085435696
145	0xbe845f2f	-0.2585387
146	0xbe926fc6	-0.286009
147	0xbdd484ae	-0.10376869
148	0x3e247248	0.1605922
149	0x3e852e10	0.26011705
150	0x3dca14aa	0.098672226
151	0xbdad6d8b	-0.08468159
152	0xbe51650c	-0.20448703
153	0x3ddabfcb	0.10681113
154	0xbd8dde81	-0.06927205
155	0x3d67518c	0.056474254
156	0xbdada2b7	-0.08478301
157	0x3b8c9af8	0.0042909347
158	0x3e5b03c2	0.21388152
159	0xbe0bd4e7	-0.13655435
160	0xbe1d3005	-0.15350349
161	0x3e63ad46	0.22234067
162	0xbe326509	-0.17421354
163	0xbec3e515	-0.38260713
164	0x3dd73ff5	0.10510246
165	0x3e52243a	0.20521632
166	0x3d973bd6	0.0738446
167	0xbe2872d7	-0.16450058
168	0xbea4e084	-0.32202542
169	0xbd9e8288	-0.077397406
170	0x3c794f7f	0.015216707
171	0x3d77af29	0.06046978
172	0xbe493f6e	-0.19653103
173	0xbe74f800	-0.2392273
174	0x3eef826d	0.46779194
175	0xbe6138f1	-0.21994378
176	0x3e79456e	0.24342892
177	0x3cf409bc	0.029789798
178	0xba465dfc	-0.00075671053
179	0xbd470f49	-0.04859856
180	0x3ce15d9a	0.027510453
181	0xbda0f36c	-0.07858929
182	0xbe2ea2ec	-0.17054337
183	0xbeadf828	-0.3397839
184	0xbe54bd5e	-0.20775363
185	0xbc0a2da2	-0.008433731
186	0x3d06dba2	0.032924302
187	0x3e4dccdb	0.20097677
188	0xbcd6120b	-0.02613165
189	0x3db833c0	0.089942455
190	0xbe728c9d	-0.23686452
191	0xbd81f28b	-0.063450895
192	0xbe1db580	-0.15401268
193	0xbeec7c71	-0.4618869
194	0xbedb7111	-0.428597
195	0x3db38649	0.08765847
196	0xbe49bab6	-0.19700131
197	0xbe58cde6	-0.21172294
198	0x3cd53b3d	0.026029224
199	0x3d02444c	0.031803414
200	0xbcac5dbf	-0.021040795
201	0xbb22ada9	-0.0024822748
202	0xbc88b635	-0.016688446
203	0xbe8284df	-0.25491998
204	0x3ea37791	0.3192716
205	0x3df7990c	0.12089738
206	0xbe32f1b6	-0.17475018
207	0xbe57c559	-0.21071376
208	0xbe140bf0	-0.14457679
209	0x3f2c3ca0	0.67280006
210	0x3ddf0b7f	0.108908646
211	0xbd1c55ff	-0.03816795
212	0x3ddea49f	0.10871243
213	0x3e800afe	0.25008386
214	0xbe144bca	-0.14482036
215	0x3e27c8a6	0.16385135
216	0x3dad7b93	0.084708355
217	0x3e8cb1fe	0.27479547
218	0xbe7e29a3	-0.2482057
219	0x3c793f9c	0.01521292
220	0x3e0da1e3	0.13831286
221	0xbdb535ef	-0.08848178
222	0xbe886d50	-0.266459
223	0x3d4dc63b	0.050237875
224	0x3cc8ef51	0.024528177
225	0x3e448207	0.19190226
226	0xbeba6958	-0.36408496
227	0xbecc9667	-0.39958498
228	0xbf095652	-0.5364734
229	0xbe9da8be	-0.30792803
230	0x3e37a5e0	0.1793437
231	0xbe5cdfd3	-0.21569757
232	0xbdc4c86b	-0.09608539
233	0x3d90e336	0.07074587
234	0xbbbcd6f7	-0.0057629305
235	0xbec3a905	-0.3821489
236	0x3df646de	0.120252356
237	0xbea4fdb4	-0.3222481
238	0xbed47f02	-0.4150315
239	0x3df9b878	0.12193388
240	0xbed34194	-0.4126097
241	0x3e58765d	0.21138902
242	0xbdfdf7d1	-0.12400783
243	0xbe22bf55	-0.158933
244	0x3c7d3fe3	0.015457126
245	0x3f2f93e1	0.6858502
246	0xbd84f671	-0.064923175
247	0xbe505bb8	-0.20347488
248	0xbd909049	-0.0705877
249	0x3db9a024	0.090637475
250	0xbe4cfb8d	-0.20017834
251	0xbe871974	-0.26386607
252	0x3e396f49	0.18108858
253	0xbf071f40	-0.5278206
254	0x3e9e9696	0.30974263
255	0x3c946fd4	0.01811973

actor.init_leaf_node_embed.2.add_bias._bias f4 [64, 1]
0	0x3e8b5e03	0.27220163
1	0x3e0ba239	0.13636102
2	0x3d2559ba	0.040368773
3	0x3c0839ea	0.008314589
4	0xbe36ca9b	-0.17850725
5	0x3c29cf04	0.010364298
6	0xbe5ac401	-0.21363832
7	0xbe8e9f33	-0.27855834
8	0xbe27c5b0	-0.16384006
9	0xbe32a412	-0.174454
10	0x3e8e62ee	0.27809852
11	0xbe1ec7bf	-0.15505885
12	0x3dc45505	0.09586529
13	0xbdbbfa26	-0.091785714
14	0xbdc7662c	-0.097362846
15	0xbd947091	-0.07248033
16	0x3e12d07d	0.14337344
17	0xbe126013	-0.14294462
18	0xbea612e6	-0.32436293
19	0xbd142d30	-0.036175907
20	0x3d181d2a	0.037137188
21	0x3dafc6db	0.085828505
22	0x3c0dbb04	0.008650545
23	0x3d36057e	0.04443883
24	0x3e704608	0.23464215
25	0xbd332083	-0.043732177
26	0xbb0debd7	-0.0021655464
27	0xbdb0f845	-0.08641104
28	0xbe307d40	-0.17235279
29	0x3de9f9c7	0.11424594
30	0xbe1287d0	-0.14309621
31	0xbc898266	-0.016785812
32	0x3dde7c1c	0.10863516
33	0xbd78d472	-0.06074948
34	0xbe1eac9d	-0.15495534
35	0x3e17ee15	0.14836915
36	0x3e6736fd	0.2257957
37	0xbd462e28	-0.04838386
38	0xbce7f0f0	-0.02831313
39	0xbe07c28e	-0.1325781
40	0x3d65bab0	0.056086242
41	0xbf010e84	-0.50412774
42	0x3e430853	0.19046144
43	0x3d7115d8	0.058858722
44	0xbe0c315b	-0.13690703
45	0xbd3340ad	-0.04376285
46	0xbe147237	-0.14496695
47	0xbd20a4d3	-0.03921969
48	0xbe6db1ca	-0.23212352
49	0x3d29a125	0.041413445
50	0xbd5c070b	-0.053717654
51	0xbd731d72	-0.059354253
52	0x3dcb080c	0.09913644
53	0xbe29192d	-0.1651351
54	0xbe42cc1f	-0.19023179
55	0x3dccf805	0.100082435
56	0x3c4694c9	0.012120434
57	0xbe67c345	-0.22633083
58	0x3e44e871	0.19229294
59	0xbe8b1f3d	-0.2717227
60	0x3e0a25e3	0.13491015
61	0xbe0a18da	-0.13486043
62	0x3d8d9cac	0.069146484
63	0x3cd3c7dd	0.025852138

actor.init_next_embed.0.module.weight f4 [32, 6]
0	0x3e03744e	0.12837335
1	0xbe1761b2	-0.14783362
2	0xbe9909d2	-0.29890305
3	0xbeea0fb3	-0.45715103
4	0xbe91ad0f	-0.28452346
5	0x3ca6cfba	0.020362724
6	0xbe6763e3	-0.22596698
7	0xbdc7ff51	-0.097654946
8	0x3e3f5108	0.18683255
9	0xbe7d1a85	-0.24717148
10	0x3ce89e1d	0.028395707
11	0xbe6c65c2	-0.23085693
12	0x3f0a1afa	0.5394741
13	0xbe89160d	-0.26774636
14	0xbe83fc7b	-0.25778565
15	0xbd70252b	-0.058629196
16	0xbe2e9354	-0.17048389
17	0x3e7ba25d	0.24573655
18	0xbc0a35e4	-0.0084357
19	0x3d14fbff	0.036373135
20	0xbd079595	-0.033101637
21	0x3ed61933	0.418161
22	0xbeeff229	-0.4686444
23	0xbebaa88c	-0.36456716
24	0x3ddcc1cc	0.10779151
25	0xbed81352	-0.4220224
26	0xbdfe1b94	-0.12407604
27	0xbe81f02a	-0.25378543
28	0xbdc49835	-0.09599344
29	0xbe1e2846	-0.1544505
30	0xbcb4a5a8	-0.022051647
31	0xbf13c5cc	-0.5772369
32	0x3e9129bf	0.28352162
33	0xbf374cb3	-0.7160141
34	0xbdeb8c97	-0.11501425
35	0x3e2b4370	0.16724944
36	0x3f4caf50	0.79955006
37	0x3dd2c78c	0.10291967
38	0x3d915a90	0.070973516
39	0xbde9bb60	-0.11412692
40	0xbd61cdcd	-0.055127908
41	0xbeb22a1e	-0.34797758
42	0xbdb33519	-0.08750362
43	0x3dc959c3	0.09831574
44	0x3e1552b6	0.14582333
45	0x3db116c6	0.08646922
46	0xbe9bcf09	-0.30431393
47	0x3e361d92	0.17784718
48	0xbe3b8191	-0.18311144
49	0xbf172879	-0.5904613
50	0x3e7a5438	0.2444619
51	0xbc887b6a	-0.01666041
52	0x3fac6115	1.3467127
53	0xbf31dc2b	-0.69476575
54	0x3dd017cd	0.1016079
55	0xbe95a08d	-0.29224053
56	0xbe3aa602	-0.1822739
57	0x3d5055b0	0.050862968
58	0xbeb35d97	-0.3503234
59	0xbeecfa5b	-0.46284756
60	0xbea4456c	-0.32084215
61	0x3e3a7836	0.1820992
62	0x3c841244	0.016121991
63	0x3ec19325	0.37807575
64	0x3e8cca3f	0.27498052
65	0xbed7e035	-0.42163244
66	0xbdd9079a	-0.10597153
67	0xbcef7ca3	-0.029234236
68	0xbcb12c9c	-0.021627717
69	0x3d2447e9	0.04010764
70	0x3da3ef5e	0.0800464
71	0x3dc46dd0	0.095912576
72	0xbeb62692	-0.35576302
73	0xbd067e91	-0.032835547
74	0x3e155063	0.14581446
75	0x3cbb34c7	0.022852315
76	0xbe6ba57f	-0.2301235
77	0xbea82793	-0.32842693
78	0x3cff69c2	0.031178359
79	0x3c15a80a	0.009134302
80	0x3dfe4654	0.12415758
81	0x3e574991	0.21024157
82	0xbec7f7db	-0.39056286
83	0xbd677d14	-0.05651577
84	0x3fa56e54	1.2924294
85	0xbe69892d	-0.22806235
86	0xbe8314da	-0.25601846
87	0xbf25f460	-0.6482601
88	0xbd8963b2	-0.067084685
89	0x3c3857e6	0.011251425
90	0xbe5c4849	-0.2151195
91	0xbd823a10	-0.06358731
92	0xbe986d69	-0.29770973
93	0xbd82d4da	-0.063882545
94	0xbd3388fd	-0.043831814
95	0x3dc748f7	0.09730714
96	0xbe93ed7c	-0.28892124
97	0xbd0b78cc	-0.034050748
98	0xbde64977	-0.11244481
99	0xbe0009e3	-0.12503771
100	0xbe76875f	-0.24075077
101	0x3d5a9c4d	0.053371716
102	0x3f11c7fb	0.5694577
103	0xbd4ef030	-0.05052203
104	0x3e49bc52	0.19700745
105	0xbe829e17	-0.25511238
106	0xbd801876	-0.062546656
107	0xbb9c4445	-0.0047688805
108	0xbd80d0d6	-0.06289832
109	0x3e93853d	0.2881259
110	0x3e6a1819	0.22860755
111	0xbc3490e1	-0.01102087
112	0xbd947b5f	-0.07250094
113	0x3e7f72ce	0.24946138
114	0x3f76c77c	0.9639814
115	0x3e79fe65	0.2441345
116	0xbeb7a9eb	-0.35871825
117	0xbe5bc305	-0.21461113
118	0x3e1bb98f	0.15207504
119	0x3e0ae538	0.13564003
120	0x3e88bc27	0.2670605
121	0x3cd65550	0.026163727
122	0xbd14e459	-0.03635058
123	0xbe113af4	-0.14182645
124	0xbe857fc6	-0.26074046
125	0x3e2a6e40	0.1664362
126	0xbcf1bca4	-0.029508896
127	0xbe5810e2	-0.2110019
128	0xbf37e023	-0.7182638
129	0xbdd5263e	-0.10407685
130	0xbe069af3	-0.13145046
131	0xbd0ff4b1	-0.035145465
132	0x3dec09a1	0.11525274
133	0xbe1745a4	-0.1477266
134	0xbdc775a0	-0.09739232
135	0x3e059a32	0.13047102
136	0xbeb492a3	-0.35268125
137	0x3d7b52bb	0.061358195
138	0x3f1d7fef	0.61523336
139	0xbe88270e	-0.26592296
140	0x3ea96233	0.33082733
141	0xbeb5c882	-0.35504538
142	0x3edb8a1b	0.42878804
143	0x3ebc9dfa	0.36839277
144	0x3fa4ff81	1.2890474
145	0xbdcbdc5f	-0.09954142
146	0xbe3ad622	-0.18245748
147	0xbea22e72	-0.3167606
148	0xbe4a6350	-0.19764447
149	0x3e74595c	0.23862213
150	0x3e2db5ba	0.16963854
151	0x3e9267b7	0.28594753
152	0xbd83c0a8	-0.06433231
153	0xbe483bf1	-0.19554116
154	0xbe462b57	-0.1935247
155	0xbeca9ba4	-0.3957187
156	0x3a8cc178	0.001073881
157	0xbea3fe93	-0.32030162
158	0x3e39756c	0.18111199
159	0xbd85cc07	-0.06533056
160	0xbe6cad3f	-0.23112963
161	0xbcbb5196	-0.022866052
162	0xbf032ca2	-0.5123998
163	0xbec3c9a3	-0.38239774
164	0xbe414f82	-0.18877986
165	0xbe481714	-0.19540054
166	0x3e019929	0.12656082
167	0xbe2ce9f6	-0.16886124
168	0x3f13dc23	0.57757777
169	0x3e529765	0.20565565
170	0xbc9bec0a	-0.01903345
171	0xbf9e7a0e	-1.2380998
172	0xbd16e594	-0.036840037
173	0x3e169f9b	0.14709322
174	0x3ed4843b	0.41507134
175	0x3e6c43ab	0.23072688
176	0xbeaff5ce	-0.34367222
177	0xbf26e628	-0.6519494
178	0xbcd268ce	-0.02568474
179	0x3e0a3ca6	0.13499698
180	0xbe5eea91	-0.21769167
181	0xbe84b2a4	-0.25917542
182	0x3e9767ec	0.29571474
183	0x3d920fb7	0.071319036
184	0xbc61812d	-0.013763708
185	0xbdbe92bb	-0.0930533
186	0xbd358fca	-0.04432658
187	0xbe67e389	-0.22645392
188	0xbef0b39d	-0.47012034
189	0xbdf7adde	-0.120937094
190	0xbe03f823	-0.12887625
191	0xbd4b186f	-0.04958385

actor.init_next_embed.0.add_bias._bias f4 [32, 1]
0	0x3e2cb36f	0.16865323
1	0x3d668b4d	0.05628519
2	0xbd967010	-0.07345593
3	0xbd6191fe	-0.05507087
4	0x3b14f572	0.0022729305
5	0xbe81769f	-0.25285813
6	0x3df02bf6	0.11727135
7	0xbd757658	-0.059927315
8	0xbe6041ed	-0.21900149
9	0xbd73bb55	-0.059504826
10	0xbdbde99c	-0.09273073
11	0x3e83b3ce	0.25723118
12	0x3cc1c864	0.023655124
13	0x3e1ae7d8	0.15127504
14	0x3ebeac2c	0.37240732
15	0x3e857ad4	0.26070273
16	0x3d8feddf	0.07027792
17	0xbe68f0e1	-0.22748138
18	0xbe8d43b6	-0.27590722
19	0x3ebf8329	0.37404755
20	0xbda0e423	-0.078560136
21	0x3b3e4a94	0.0029036151
22	0xbe7860ba	-0.24255648
23	0xbd82e533	-0.063913725
24	0x3e850a3c	0.2598437
25	0xbdc574ea	-0.0964144
26	0xbe1dc8bb	-0.15408604
27	0x3c94bbae	0.018155899
28	0x3d1a1c99	0.03762493
29	0x3e147783	0.14498715
30	0x3e065415	0.13118012
31	0x3dd8af37	0.105802946

actor.init_next_embed.2.module.weight f4 [64, 32]
0	0x3ce1d30a	0.027566452
1	0xbddb46ef	-0.10706889
2	0xbbf56957	-0.007489364
3	0x3e36ecc7	0.17863761
4	0x3e1a23f4	0.15052778
5	0x3da48898	0.08033866
6	0xbe3628e0	-0.1778903
7	0xbe6bc807	-0.23025523
8	0xbde3730e	-0.11105929
9	0x3ea0c465	0.31399837
10	0x3db59122	0.088655725
11	0xbf13b34c	-0.5769546
12	0x3dc41909	0.095750876
13	0x3ecd01e6	0.4004051
14	0x3e534519	0.20631827
15	0xbeb2556e	-0.34830803
16	0xbdd4605c	-0.103699416
17	0x3d8954d1	0.067056306
18	0xbc98a5c2	-0.018633727
19	0xbe86d9be	-0.26338
20	0x3d825490	0.06363785
21	0xbd6e4590	-0.05817181
22	0xbef326a6	-0.47490424
23	0xbeea25e9	-0.45732048
24	0xbed9da17	-0.42549202
25	0x3eb4e572	0.35331303
26	0xbe30780a	-0.17233291
27	0xbdb98d62	-0.0906017
28	0x3d906bb5	0.070517935
29	0x3e53594b	0.20639531
30	0x3e92feb4	0.28709948
31	0xbdbb7c88	-0.09154612
32	0x3e5cab1e	0.21549651
33	0xbd765c85	-0.060146827
34	0xbe24f6b2	-0.16109732
35	0xbd883baa	-0.06652005
36	0xbdbe3bc5	-0.09288744
37	0xbe2dbb39	-0.16965951
38	0xbe320e7b	-0.17388336
39	0x3a9a85e6	0.0011789172
40	0x3e7dc434	0.24781877
41	0x3d34c616	0.044134222
42	0x3ef4a7ff	0.4778442
43	0x3ea22bf2	0.31674153
44	0xbca9bb42	-0.020719174
45	0xbe207676	-0.1567019
46	0xbe6ff3d0	-0.23432851
47	0xbca23634	-0.019801237
48	0x3e4cb63e	0.19991395
49	0x3ca7a08a	0.020462293
50	0xbd92f57b	-0.07175728
51	0x3efd76e4	0.4950477
52	0x3e2fce45	0.1716853
53	0x3cba3544	0.022730477
54	0x3d595fd0	0.05306989
55	0xbe5bb84e	-0.21457025
56	0xbe121bbf	-0.14268397
57	0x3e5e4d2b	0.21709125
58	0xbc36ddde	-0.011161296
59	0xbe9e4644	-0.30912983
60	0xbdd69da1	-0.10479284
61	0x3b5208e1	0.003204875
62	0xbd25a168	-0.040437132
63	0xbd5f123c	-0.05446075
64	0xbcf7df95	-0.03025798
65	0x3cee1e37	0.029067142
66	0x3e3e0565	0.18556745
67	0xbe02a8f0	-0.12759757
68	0xbbd957f1	-0.006632798
69	0x3e4208ae	0.18948624
70	0xbf039821	-0.51404005
71	0xbeb29965	-0.34882656
72	0xbed4ec82	-0.4158669
73	0xbe10ea12	-0.1415179
74	0x3cbfec8e	0.023428228
75	0x3ee07a51	0.4384332
76	0x3dc981ea	0.09839232
77	0xbea126b4	-0.3147484
78	0xbf5428da	-0.82874835
79	0x3de8f007	0.113739066
80	0xbe47c832	-0.19509962
81	0x3d836914	0.064165264
82	0x3e448ef9	0.19195165
83	0x3e4acec6	0.1980544
84	0xbd97ae07	-0.0740624
85	0xbda4a6f1	-0.08039654
86	0xbd7c6924	-0.061623707
87	0x3ed7188a	0.4201091
88	0xbee3800e	-0.44433635
89	0x3dc8ea94	0.09810367
90	0xbe5cdc60	-0.21568441
91	0xbe21a173	-0.15784244
92	0xbef87537	-0.48526928
93	0xbf49c55c	-0.7881677
94	0xbe93a112	-0.28833824
95	0xbe69e05b	-0.22839491
96	0xbe819d29	-0.25315216
97	0x3e28334e	0.16425821
98	0x3ec325c8	0.38114762
99	0xbdbde72f	-0.092726104
100	0xbe9eff8f	-0.3105435
101	0x3cc8bfcf	0.024505524
102	0xbed25b27	-0.4108517
103	0x3e016e82	0.12639812
104	0x3bb2fb55	0.00546209
105	0x3e70d59c	0.23518986
106	0xbeaf52b8	-0.34242797
107	0x3e739486	0.23787126
108	0x3de1d9b7	0.11027854
109	0x3e1d65fe	0.15370938
110	0xbe522ab9	-0.2052411
111	0xbe800d40	-0.2501011
112	0xbe173763	-0.14767222
113	0x3e4f3369	0.20234455
114	0x3d00e1eb	0.031465452
115	0xbe988324	-0.29787552
116	0xbc7f6a42	-0.015589299
117	0x3d947439	0.0724873
118	0x3e27ac9d	0.1637444
119	0x3f4a18fd	0.7894438
120	0xbea3ac23	-0.31967267
121	0xbedc6ce4	-0.43051827
122	0xbdbf7f3b	-0.09350439
123	0xbea74e45	-0.32676902
124	0xbe86a2e9	-0.26296166
125	0xbe5e38e3	-0.21701388
126	0x3dc06fdb	0.09396335
127	0xbe5e74c9	-0.21724238
128	0xbe626c94	-0.22111732
129	0xbec2c3de	-0.3804006
130	0xbadfa58c	-0.0017062887
131	0x3e74f012	0.23919705
132	0x3df6dba3	0.12053611
133	0xbe267ad4	-0.16257793
134	0xbe1501a9	-0.14551415
135	0xbda9680a	-0.08271797
136	0x3e88ddd4	0.2673174
137	0xbdfbf68f	-0.12302887
138	0xbe720f5c	-0.23638672
139	0x3c0bc174	0.00853001
140	0xbd211393	-0.039325308
141	0x3dfa0b81	0.122092254
142	0x3d8de0bf	0.069276325
143	0xbc1ed870	-0.009695157
144	0x3dcd7806	0.10032658
145	0x3e1b70ab	0.15179698
146	0xbe1cad24	-0.15300423
147	0xbedfd66b	-0.43718275
148	0xbe33a3b6	-0.1754292
149	0x3dc3722c	0.09543261
150	0x3e249c03	0.16075139
151	0xbbe99367	-0.0071281674
152	0x3e58c1e2	0.2116771
153	0xbdc4bfaa	-0.096068695
154	0x3ee5dac1	0.44893458
155	0x3e4a5063	0.19757228
156	0xbe7319a6	-0.23740253
157	0xbe01dce0	-0.12681913
158	0xbdb19291	-0.086705334
159	0x3d76eb47	0.06028297
160	0x3dbebaf0	0.09312999
161	0xbd160e8a	-0.03663496
162	0x3d0d7400	0.034534454
163	0xbdd22215	-0.10260407
164	0x3eab703d	0.3348407
165	0x3e4b4509	0.19850554
166	0xbc0edc02	-0.008719446
167	0x3e1251ba	0.14288989
168	0x3d51abff	0.05118942
169	0x3e5b57d0	0.21420217
170	0x3cc8873a	0.024478544
171	0x3f2b8796	0.6700376
172	0x3d48292c	0.04886739
173	0x3c00d0ec	0.007862311
174	0xbdff047e	-0.12452029
175	0x3f0acefc	0.54222083
176	0x3bb15edc	0.0054129194
177	0x3ea4c5e9	0.32182243
178	0x3deff2a4	0.11716202
179	0x3f640039	0.8906284
180	0x3d487f73	0.04894967
181	0xbd0ad53d	-0.033894766
182	0x3e827834	0.25482333
183	0x3e2fa1fa	0.17151633
184	0x3ee4b79c	0.44671333
185	0xbda9c059	-0.082886405
186	0x3d884fe1	0.06655861
187	0x3eb48434	0.35257113
188	0xbe59ee32	-0.2128227
189	0xbe635808	-0.2220155
190	0x3e6c9025	0.23101862
191	0xbe0e2b8d	-0.13883801
192	0x3e248e97	0.16070019
193	0x3e34a606	0.17641458
194	0x3c1f2ab7	0.009714774
195	0x3e32ae31	0.17449261
196	0xbd933f0a	-0.07189758
197	0x3cfc270e	0.030780341
198	0xbe3efc5f	-0.1865096
199	0xbea6c45e	-0.3257169
200	0x3dcd8e30	0.10036886
201	0x3e65649b	0.22401659
202	0x3d9c050b	0.07618149
203	0x3e424294	0.1897071
204	0x3cb6623f	0.022263644
205	0xbcf7270f	-0.030169992
206	0xbe085892	-0.13315037
207	0xbe051554	-0.12996417
208	0xbd561024	-0.052261487
209	0x3e2bd8d9	0.1678194
210	0xbe5a9d2d	-0.2134902
211	0xbd1d0848	-0.038337976
212	0x3e4e1ecc	0.20128936
213	0xbe8adedc	-0.27123153
214	0x3e2d2bb1	0.16911198
215	0x3e75308c	0.239443
216	0xbe4c23a8	-0.19935477
217	0x3d9280c2	0.07153465
218	0x3d22461c	0.039617643
219	0xbe67983f	-0.22616671
220	0xbd400c56	-0.046886764
221	0xbd702e88	-0.058638126
222	0x3deeca17	0.11659639
223	0xbe981e49	-0.29710606
224	0xbedf79be	-0.4364757
225	0x3d269e6b	0.040678423
226	0xbe957f80	-0.29198837
227	0x3cbd3f73	0.023101544
228	0x3e64fb8b	0.22361581
229	0xbe95c04f	-0.29248282
230	0xbe673bb4	-0.22581369
231	0xbe499eb6	-0.1968945
232	0xbd8e2484	-0.069405586
233	0xbd0d78e8	-0.034539133
234	0x3eb48f07	0.3526537
235	0x3ede0c12	0.43368584
236	0x3dc4d867	0.09611588
237	0x3e265ae8	0.16245615
238	0x3f0597b9	0.52184635
239	0x3f09b187	0.5378651
240	0x3cbcb239	0.023034202
241	0x3eb1a5db	0.3469685
242	0x3e4e4de4	0.201469
243	0x3edeaf74	0.43493235
244	0xbeab7629	-0.33488587
245	0x3c5f22b9	0.013619118
246	0xbe284dc8	-0.16435921
247	0x3f38b57d	0.7215193
248	0x3efa945b	0.4894131
249	0x3cc1f44a	0.023676056
250	0x3dc14c0f	0.09438335
251	0xbdc75657	-0.09733265
252	0x3ca3c3ff	0.01999092
253	0x3e7d653a	0.24745646
254	0x3d97782c	0.07395968
255	0x3ec1e5a4	0.37870514

actor.init_next_embed.2.add_bias._bias f4 [64, 1]
0	0xbf0cab49	-0.5494886
1	0xbed36632	-0.41288906
2	0xbeb00e41	-0.34385875
3	0xbeaefe31	-0.34178308
4	0xbdcaaf96	-0.098967716
5	0x3f87e903	1.0617985
6	0xbed47257	-0.41493484
7	0x3f49c144	0.78810525
8	0x3f772e5a	0.965551
9	0xbf1365de	-0.5757731
10	0xbf35b987	-0.7098622
11	0x3c3b63df	0.011437385
12	0x3f9a1f6b	1.2040838
13	0xbf82c340	-1.0215836
14	0xbf7d612c	-0.989764
15	0xbf28fbe9	-0.66009384
16	0xbf573951	-0.8407183
17	0x3f53e495	0.82770663
18	0x3f0d7d7f	0.55269617
19	0xbe73fe2c	-0.23827428
20	0xbda7687b	-0.08174225
21	0xbe25376d	-0.16134425
22	0xbfb164ec	-1.3858924
23	0x3f0bf2a8	0.5466714
24	0xc01315a2	-2.2981954
25	0xbf439ae8	-0.76408243
26	0xbe69100e	-0.2276003
27	0xbf8856be	-1.0651472
28	0x3f0365c2	0.51327145
29	0x3ecfba9b	0.40572056
30	0xbf0968d6	-0.5367559
31	0xbf16e4a3	-0.5894262
32	0xbdc5955c	-0.09647629
33	0x3f63d4b3	0.8899643
34	0xbeb00338	-0.34377456
35	0xbdfb1fee	-0.122619495
36	0x3fb2f116	1.3979824
37	0x3f3e1388	0.7424855
38	0xbeb39204	-0.3507234
39	0x3f1e670f	0.61876005
40	0xbfddf7e5	-1.7341276
41	0x3f97bc85	1.1854407
42	0xbee2e890	-0.44318056
43	0xbfacf25c	-1.3511462
44	0x3ed85fa9	0.42260483
45	0x3fa6c168	1.3027773
46	0x3f941de0	1.1571617
47	0x3f32aed2	0.69798005
48	0xbf233e83	-0.6376726
49	0x3eb45b8b	0.35226092
50	0x3f4488f3	0.7677147
51	0x3ec86359	0.39138296
52	0x3e93298f	0.28742644
53	0x3c3fbb6b	0.011702399
54	0xbe93bf08	-0.28856683
55	0xbf387814	-0.72058225
56	0x3da4247f	0.080147736
57	0x3f045482	0.5169145
58	0xbed638c0	-0.41840172
59	0x3e8187d2	0.25298935
60	0x3eb14953	0.34626254
61	0x3f56070a	0.8360449
62	0x3d22419c	0.03961335
63	0x3e712a71	0.23551346
