logs/experiment/Discrete_A2C_1-5Box_10x10x10Bin-2022.08.09-15-00-00/PCT-Discrete_A2C_1-5Box_10x10x10Bin-2022.08.09-15-00-00_2022.08.09-17-19-34.pt (torch, 236314 bytes, 24 tensors)

actor.init_internal_node_embed.0.module.weight f4 [32, 6]
00000000: a11a 03bf 5084 153d c592 12bf 9fec 933d
00000010: b127 6cbe 4651 8dbd 51d6 d2bd ed3f 143e
00000020: 0869 bbbe 5a2c 96be 2d81 babe 06de e1be
00000030: 2b19 26be 2d5f 923d 2fc1 303e e273 973e
00000040: 4b75 b73d 8d75 2fbf 2b4f aa3e dc67 abbe
00000050: 6a80 a73e 7692 0ebf 322c 223c 7ce8 193f
00000060: 855b aabd 399d c8be 6997 3e3e 8763 a53d
00000070: 5bdf 953e 796a 4a3f 4cea f2ba 3e0e 433d
00000080: 47b6 763e 204b c2bb 0719 34bd 19b5 75be
00000090: eb15 893f dfae 44be 1d74 4bbf 8a6e a0bf
000000a0: d8a5 f73e 7556 2f3f f4c5 b6be 52e3 b9be
000000b0: 70a8 a53d 2023 68be 5f0a 9e3e 9802 153f
000000c0: 789b 22be 221c d73e 72bf 2b3f 7f73 1dbe
000000d0: 878a 7fbe 01ae 8a3e 657f c53e 1e6d 98bd
000000e0: a344 0b3f f0cf 89bd 263a 6cbd 49a1 0bbd
000000f0: 7d27 d1be 408d 83be 39ee d1be 9387 f83e
00000100: 881a 623e 5d26 82be 262c febd 498c 1e3f
00000110: 6380 d0be 1e9d 173e f12c 20bf 42c5 e33e
00000120: 44c2 bc3e 9bca 0bbf bfd1 51be 1843 493e
00000130: 96f0 93be 42c8 1f3e 796b b53d 9620 3d3e
00000140: 01e8 263a 377c 52be 804d 99bd 69c8 19be
00000150: 6780 743e 9db2 0abc 1a2a 393c dd86 12be
00000160: c9de d4bb 348a 143d 4238 953e a223 c8bd
00000170: aecd aa3e 593c 48be b549 4abe ad08 3a3e
00000180: ccf9 00bf df90 10bf eab1 babe 1064 c6be
00000190: 646d 1abe fd45 88be 7844 c3bb caba 073e
000001a0: be04 ac3e 9dc2 99bd 56a7 0bbc 1872 44bc
000001b0: 6562 1abe 7201 32bf a195 1fbf 395b 0ebd
000001c0: ef3a 20be 4979 2ebe 05e0 483e 1966 c6bd
000001d0: 4d03 31bf 3173 15bd 974e 80bd 52db 983e
000001e0: 37d8 043d 25de 52be 1409 4fbc 6de3 d5be
000001f0: 8b33 20bf 399e c43d 0fdd 0cbe 7314 aabe
00000200: 31e8 18bf bf09 013e 0d8d 753e 4e12 143f
00000210: 2827 cbbe e23f e4bc cf4c 44bf 7b57 ae3e
00000220: c98b 0b3f acf9 373c d5f5 9b3d 667e 09bd
00000230: f028 e3be c898 0dbe 03a2 e3be b1c8 0fbf
00000240: 5ca8 123e 0e09 1bbe 7ba8 443f ce87 163c
00000250: ab49 053e dbc1 0fbe 515d 0b3d 77de 45be
00000260: d44b febe 4593 833e 5fce ab3e 9ce8 30be
00000270: 4c97 033f 690e d73d 153e 2e3e c056 8a3e
00000280: 86d8 76be 079a 80be 73bb a83e 9084 7b3d
00000290: 8219 84be b1ed f63e 44d3 533d 9e5a d0bd
000002a0: 6cbc cabd e12d 60be 31e2 fd3d b31f 113f
000002b0: 1ffd fc3e 8e72 5abf 0f7d 673e 98fc 2fbe
000002c0: b8ed d5be a6f2 f3bc 2191 4b3c 9be6 d339
000002d0: 1c68 bbbe 764b d0be 9422 af3f 6505 95bd
000002e0: 334f 6bbe 283c de3d 65b3 683e fedc 0d3e
000002f0: b492 4bbd e6e3 b93d 6cf3 51be 41ce 15be
-0.5121251 0.036503136 -0.572552 0.07222866 -0.23062016 -0.06900267 -0.10294784 0.14477511
-0.3660357 -0.29330713 -0.36426678 -0.44114703 -0.16220538 0.071470596 0.17261194 0.295806
0.08957919 -0.68538743 0.33263525 -0.33477676 0.3271516 -0.5569223 0.009898232 0.6012037
-0.08318237 -0.3918245 0.18612446 0.08075624 0.2927197 0.79068714 -0.0018532961 0.047621004
0.24092971 -0.0059293658 -0.04396918 -0.23994865 1.0709814 -0.19207333 -0.7947405 -1.2533734
0.48368716 0.684913 -0.356979 -0.36306244 0.080887675 -0.22669649 0.30867288 0.5820708
-0.15879619 0.4201365 0.67089 -0.1537609 -0.24955188 0.2708588 0.38573757 -0.074426875
0.54401606 -0.06729114 -0.057672642 -0.03408936 -0.4085044 -0.25693703 -0.41002062 0.48540935
0.22080433 -0.25419894 -0.124107644 0.6193281 -0.4072295 0.14806029 -0.62568575 0.44486433
0.36866963 -0.54606026 -0.20490168 0.196545 -0.2889449 0.15603736 0.088583894 0.18469462
0.0006366969 -0.20555197 -0.07485485 -0.15017857 0.23877107 -0.008465436 0.011301542 -0.14309259
-0.0064962846 0.036264613 0.29144484 -0.097724214 0.33360046 -0.19554271 -0.1975468 0.18167372
-0.5038116 -0.56471056 -0.36463863 -0.38748217 -0.15080792 -0.26615897 -0.00595909 0.13254848
0.33597368 -0.07507823 -0.008523783 -0.011990093 -0.15076597 -0.69533455 -0.6233769 -0.034754965
-0.15647481 -0.17038454 0.19616707 -0.09687442 -0.6914566 -0.03648681 -0.0626499 0.29854828
0.03243276 -0.20592554 -0.012636442 -0.41775075 -0.6257865 0.09600491 -0.13756202 -0.33218727
-0.59729296 0.12601374 0.23979588 0.5784043 -0.3967831 -0.027862493 -0.766797 0.34051117
0.5451017 0.01122896 0.07615248 -0.03356781 -0.4436717 -0.13827813 -0.44459543 -0.56165606
0.14322037 -0.15140173 0.7681958 0.009187652 0.13016383 -0.14038794 0.03402454 -0.19323145
-0.49667227 0.25698295 0.33555886 -0.17276233 0.51402736 0.105007954 0.1701587 0.2701931
-0.24106035 -0.25117514 0.32955512 0.06140572 -0.2580071 0.4822822 0.05171515 -0.10173534
-0.0989922 -0.21892501 0.12396658 0.56688994 0.49411866 -0.85331047 0.226063 -0.171862
-0.41782928 -0.02977879 0.012424738 0.0004041687 -0.36602867 -0.40682572 1.3682427 -0.072764196
-0.22979431 0.10851318 0.22724684 0.13853833 -0.049700454 0.09076671 -0.20503014 -0.14629461

actor.init_internal_node_embed.0.add_bias._bias f4 [32, 1]
00000000: 0641 963c e40b 74be 6561 cfbb 9601 acbc
00000010: ad80 143e 44bb fb3c bb2a b63b 0e3c e6bb
00000020: fb5f 363d 7d13 d83d 36f0 583b 9c5d 923c
00000030: 79ca 7ebb 3243 13bb 03c3 5abc f6dc f03c
00000040: 42ef 9fbe 0a63 77bd 8989 293d 7688 083a
00000050: b0d2 82be 8b5f 6d3d ef27 543d d1fc fa3d
00000060: d0f5 083d c4aa 3b3b ed9a bc3b aecd 943d
00000070: 64d4 da3c 5390 3fbd a2dc 913d a0fb 8bbd
0.018341552 -0.23832661 -0.006328749 -0.02099685 0.14502211 0.030728944 0.005559293 -0.007026202
0.044525128 0.10550592 0.0033102161 0.017866902 -0.0038878007 -0.0022470471 -0.0133521585 0.029402237
-0.31237227 -0.060397185 0.04139093 0.00052083225 -0.25551367 0.057952445 0.051795896 0.12255252
0.03343755 0.002863572 0.0057557733 0.07265793 0.026712604 -0.046768498 0.071221605 -0.06835103

actor.init_internal_node_embed.2.module.weight f4 [64, 32]
00000000: 8cdd c03d 8a87 363e 082f 273d ef5b 333e
00000010: 51cd 033d f7f4 a93d a87f 873d 5322 113f
00000020: 3f73 b93e 1d6d a0bd b013 4a3f 6138 933d
00000030: 4b07 c43d 2b80 64be 1fc2 31bf 7efe b23e
00000040: d81c a0bc 7546 493e e065 21bc b2c9 873e
00000050: 3ced 62be 5450 513e 48b1 923f 0969 25be
00000060: a1e7 0c3f c038 9e3e c153 013e c40d 6d3e
00000070: aee9 993e 00c6 99bd 8315 2bbd c310 d03b
00000080: b1e8 b63e 169c 9e3d 6b79 fabe c912 07bf
00000090: ee5a 4bbc 8a62 903e fe50 5d3d cdb0 cdbe
000000a0: c99c 9bbe 6db4 e03d 3bb6 103f 5ee5 8d3e
000000b0: 89b3 a03e 944c cb3d 6221 0bbc bcfb a33e
000000c0: 75f6 74bd 44f4 f53c d6ae 0abe 5c8d 0bbe
000000d0: aa63 133d 7aae ca3e 65dd 603f adf7 b63e
000000e0: 00ba f4bd b0af 873d c151 0d3d 1a47 893d
000000f0: 7467 1c3f 4d36 803e 80e6 d53b f791 89bd
00000100: b003 85be 55a5 bcbc d71b 0d3f b481 013f
00000110: d945 fb3e e31f c5bc e978 15be 9f17 753f
00000120: 3393 1abe f6af 17be faed ecbe 7080 0abf
00000130: 4d6f b2bd 8019 313e 9d78 913e 91ba cbbe
00000140: f21a f4bd d802 0b3e 2374 eb3b e970 d7be
00000150: cdc9 2abd 8f40 bd3e 6b61 c9bd c3ee 8abe
00000160: def3 b73b 6a52 8cbd 0d77 3b3e 0d85 003e
00000170: 8482 153e 45ba 20be 8dc2 4b3e c32f 913d
00000180: 752b 5abd 43b3 5bbe a637 493d 19bb c73e
00000190: 96ff 273e f0ac ccbc b0dc fa3c 175c cebc
000001a0: 8bc1 0c3e 321b 683d f6e5 113e 0966 79bb
000001b0: 74ed 6cbe 36d6 6d3d 845b a5be c1a4 1c3e
000001c0: 3c63 df3d 9444 88be 6867 cb3d ed25 363e
000001d0: 81bb 81be 3cd5 033f b6d8 37be fed6 203e
000001e0: fef9 933e 7adc 88bc b67b 013e 8d32 ca3e
000001f0: b42a 393e 49b0 c7bd a47b 89be 66a1 393e
00000200: d155 9f3e 7013 e0bd dea0 10be a7e6 d63d
00000210: 8654 16bf 3f4a 9ebd 3034 943e 7d2e 1dbf
00000220: 8b37 08bf 6d68 d23e dff5 953e 75b2 c73e
00000230: 8f46 f1bd 5231 46be c0a9 463e 3062 b7bd
00000240: 8e70 6b3c cac2 96bd 3d10 863c b14d f3bc
00000250: 23c4 0cbe 93bc df3e 3deb f93d b12a 463c
00000260: 9b0f 5cbe ab4b 993e 4c11 a33e d36b 233e
00000270: 7be6 043f e5ac 453d 6c5d 1f3e d2c9 d6bd
00000280: aac1 96be daa7 d5bd 806e a9bb 2866 60bc
00000290: 117a 5c3f 494a 74be 5e8f 27be 0386 a33e
000002a0: a58d 893d 1c3a 82be 26f4 5e3f 3951 bfbe
000002b0: 86ee 6d3d d46e ccbd 2660 ec3d 213a 903e
000002c0: c50d 5b3e ce99 4f3e 637f 8cbd 3be8 05bd
000002d0: 6d4c 00bd 794d 023e 1c59 f03e deed 01bf
000002e0: 457b 493e bb48 9f3e 26c6 723e c77d 053f
000002f0: 7285 01bc 4cce 89bd 382f 033c bd13 823e
00000300: 456a a73e 82d6 b43b 6c01 783d 75a6 3fbd
00000310: ea14 ec3e f806 ce3c c4d6 96be 65b9 473e
00000320: 2b1c b0bc f6fc debd 9837 7c3e 59bc 46be
00000330: 7383 8abe a039 8cbd 5f88 003e 324c 01bf
00000340: e40e 6d3b 43c0 c8be 666f 7c3d d4e4 a93b
00000350: 2fdc 04bb 4968 da3d de67 3abb 39a3 2d3e
00000360: c46a 84be 792c e23c 5c82 3ebe c69f c33e
00000370: 37ec bdbe bea8 2c3d 24ea a1be 53bf cbbd
00000380: 8948 d1bd 9a3b f2bd ce89 cebe 1db4 a2be
00000390: 9fae cebe bd89 09bb 7403 4c3e b948 4abd
000003a0: 5ea0 833c 6834 313e 3cf7 e63e 370b de3e
000003b0: dd0c 24be 163f 213e 57a9 99bd f4e4 1dbe
000003c0: 05b5 4fbd 3058 a7be eca6 6b3e 9f16 ff3d
000003d0: 3fb8 c93c 6b72 afbe e3e5 273f a6e5 623d
000003e0: 945a b8be 52e0 e63d 0644 8fbe 5448 8fbe
000003f0: f52b 3d3f 0619 613e 9847 c13e dff0 cabd
0.09417257 0.17825142 0.040816337 0.17515539 0.032178227 0.082986765 0.06616145 0.56693
0.36220738 -0.07833312 0.7893629 0.07188488 0.095717035 -0.22314517 -0.6943683 0.34959787
-0.019545004 0.19655783 -0.009850949 0.2652107 -0.2216081 0.20440799 1.1460352 -0.16153349
0.5504094 0.30902672 0.12629606 0.23149782 0.30061096 -0.07508469 -0.041768562 0.0063496544
0.35724404 0.07744615 -0.4892076 -0.5276304 -0.012411816 0.2820018 0.05403232 -0.4017395
-0.30393055 0.109719135 0.5652806 0.27714056 0.31386974 0.099267155 -0.008491846 0.32027996
-0.059805352 0.030023701 -0.13543257 -0.13628143 0.03598372 0.3958624 0.8783782 0.35735837
-0.11949539 0.066253066 0.034501795 0.06703015 0.61095357 0.25041428 0.006527722 -0.06717294
-0.25979376 -0.023028055 0.55120605 0.50588536 0.49076727 -0.024063056 -0.14596905 0.9573917
-0.15095215 -0.14813218 -0.46275312 -0.5410223 -0.08712635 0.17294884 0.28412333 -0.39790776
-0.11919202 0.13575304 0.0071854754 -0.4207833 -0.04169636 0.36963317 -0.09833034 -0.27135286
0.005613788 -0.06851657 0.18307133 0.12550755 0.14600569 -0.15696056 0.19898434 0.07089188
-0.0532641 -0.21455102 0.049125336 0.39009932 0.16406092 -0.024984807 0.03062281 -0.025190396
0.13745706 0.05666656 0.1424788 -0.0038055202 -0.23137456 0.058065616 -0.32296383 0.15297224
0.10907599 -0.2661482 0.099318326 0.17787905 -0.25338367 0.51497245 -0.17953762 0.15707013
0.28901666 -0.016706694 0.12644848 0.39491692 0.18082696 -0.097504206 -0.26852143 0.18127975
0.3112016 -0.109412074 -0.14123866 0.10493212 -0.5872272 -0.07729005 0.28946066 -0.6139906
-0.5320975 0.41095296 0.29289147 0.3900334 -0.11781036 -0.19354752 0.19400692 -0.08954275
0.014370097 -0.07361372 0.016365165 -0.029700132 -0.13746695 0.43698558 0.12203071 0.012095139
-0.21490328 0.29940543 0.31849134 0.159591 0.51914185 0.04826059 0.15562981 -0.10487713
-0.2944463 -0.10432406 -0.0051706433 -0.013696231 0.8612376 -0.23856463 -0.16363284 0.3193818
0.0671647 -0.2543496 0.8709129 -0.37366655 0.0580888 -0.09982076 0.11541776 0.2816935
0.21391971 0.20273516 -0.068602346 -0.032692175 -0.031322885 0.12724866 0.46942985 -0.5075358
0.1967593 0.31110176 0.237084 0.52145046 -0.007905351 -0.06728801 0.008006863 0.25405684
0.32698265 0.0055187354 0.06054823 -0.046789605 0.46109706 0.025149807 -0.29460728 0.19504316
-0.021497807 -0.10888092 0.24630582 -0.19407786 -0.27053413 -0.068469286 0.12552021 -0.5050689
0.0036172206 -0.39209184 0.061629675 0.005184749 -0.0020272841 0.10664422 -0.0028443257 0.16956796
-0.25862706 0.027609097 -0.18604416 0.38207835 -0.3709428 0.042153113 -0.31623948 -0.099486016
-0.10218913 -0.11827774 -0.40339512 -0.3177804 -0.403676 -0.002098664 0.19923192 -0.04938576
0.01606768 0.17305148 0.451105 0.4336793 -0.16020532 0.15746722 -0.07503002 -0.1541937
-0.050709743 -0.3268447 0.23012894 0.124554865 0.024623988 -0.3426698 0.65585154 0.05539479
-0.36006606 0.112732545 -0.27981585 -0.2798487 0.738952 0.21982202 0.37749934 -0.09909224

actor.init_internal_node_embed.2.add_bias._bias f4 [64, 1]
00000000: 9844 4c3e 94ef 8f3e a2f7 2cbd e77f d43d
00000010: 0df7 0b3e 2d41 a13e cbae ee3c 72ea 073e
00000020: 914a 81bd d38a cebd 3248 163c fdf1 273d
00000030: 5a9a 81bd 313d e53d f142 173e 9d4d 073e
00000040: 41d2 f4ba 3c8d 54be acec 9b3c 72e8 a93d
00000050: fa61 a6bc 6f67 5c3d f16b 51bd c5a2 c4bd
00000060: b3d9 373e 10bc 62bc fb87 46bc 383a 793d
00000070: 936e debd 5a64 0abd d7f3 5abb f384 afbc
00000080: ed2a 903d 0107 6c3d 8675 893e 2f58 d9bd
00000090: 594e 123d 3774 11be a714 cbbc d2c8 423e
000000a0: 5514 86bd 3711 74be 2c06 353e af62 1f3c
000000b0: 9f5f 0ebe 27d4 2bbd 9beb a7be 4321 96be
000000c0: 0369 7a3e c2bc ad3c 86da ae3d 1255 613d
000000d0: e67c 4a3c 711f a63b 9afa a9bc 8a2c 623e
000000e0: c818 633e f1e3 8bbd 7248 0c3c 05a2 9f3d
000000f0: 6f23 843d 3b91 e63d 9f22 08bd 6fe6 3e3d
0.19948041 0.2811247 -0.04222835 0.10375958 0.13668461 0.31495038 0.029136082 0.13273028
-0.063130505 -0.10085072 0.009172486 0.041002262 -0.06328268 0.11193312 0.1477163 0.13213201
-0.0018678383 -0.20757002 0.019033752 0.082962885 -0.02031039 0.05380958 -0.05112833 -0.09601358
0.1795414 -0.013838783 -0.012117381 0.060846537 -0.10860934 -0.03378711 -0.00334095 -0.0214257
0.070394374 0.057623867 0.26847476 -0.10612523 0.03571925 -0.14204489 -0.024790121 0.1902192
-0.06546847 -0.23834692 0.17678136 0.009728118 -0.13903664 -0.04195037 -0.3279694 -0.29322252
0.24454121 0.02120817 0.08537774 0.05501277 0.01235888 0.005069666 -0.020749379 0.22087303
0.22177422 -0.06830586 0.008562194 0.07794575 0.06452071 0.11258169 -0.033236142 0.046606477

actor.init_leaf_node_embed.0.module.weight f4 [32, 8]
00000000: 51a1 a4bd 878f b0be 393f c8be ac56 8abd
00000010: 95ac 2c3e 3bdd bc3e aeba fd3e 6107 8a3e
00000020: 0801 b8be 71d2 27bf 231e a4bd b700 b4be
00000030: 01f3 81be 68d2 ae3e e4d3 b4bc e5bd ba3e
00000040: 53e2 3f3e e53e bdbe db44 0fbe 5853 d73e
00000050: 66b8 aaba 0321 a0be 082d 68bd 791e 8abd
00000060: 41ab cfbe f7df 50be c013 7abe 9b4d 80be
00000070: 6f62 ae3e d3e4 313d 990d e73e b1e4 e93d
00000080: 996b 5cbd f482 42be 574c 8c3d ac71 013e
00000090: c7b9 c13e 7941 063e 0550 ffbe a052 c83e
000000a0: 89d9 b83d b586 1b3e 2c12 07bf a7b7 273e
000000b0: 74df f2be b7f8 053f e4ad fabd 898a 83be
000000c0: a558 adbe a954 23be 1e96 9bbd baef 793d
000000d0: a0d6 023e 121b 37be 6568 ccbd 8015 e0bd
000000e0: 7161 bc3e 9bd8 e0be f4cb 7e3e 13b2 ea3e
000000f0: ea29 0dbd b4c3 c83e 3e1e 383d 19c2 663e
00000100: fd10 cd3d 30ac 073e fa15 28be 9bd7 ac3e
00000110: 4300 bd3d 22c9 b23d 6612 fb3e 082f b23e
00000120: eafb b0bd 26c1 ac3e f19c 39be 5e21 993e
00000130: 213b eb3c 527a f2bd b2a1 e73e c905 99be
00000140: dad7 813d 8198 f13d 9770 8f3e b7cc a2bd
00000150: 7ade a63e 7d4d adbc c8b2 45be e261 ad3c
00000160: 31c5 86be 0b1c 343d ed93 3d3e 3c6f 983d
00000170: 554e eb3e 4a27 cf3d 9283 88bc 1b41 b7be
00000180: b8df c73e 1783 853d 2c64 113f 7658 afbe
00000190: a003 9cbd bda8 8abd 2cf3 bb3e 20c1 eebd
000001a0: 62da 8cbe b389 713c f257 8e3e c2f1 37be
000001b0: 3afd 7abe 01c4 78be c32c b63e a32a 9c3d
000001c0: 9aeb 343e 4e25 10bd 8413 243e 8b7e e63e
000001d0: eff4 023e f87c d23e 1243 e93d aff0 94bd
000001e0: d8f2 ff3e 59b2 ee3d c547 eebd 4be1 03bf
000001f0: 370e 553e a55a ee3e 724a 123d cf02 9cbe
00000200: db17 6ebd cd13 cb3d 268d 94be 201e b93e
00000210: ec79 333e 17d8 ae3c e4f7 77be b290 a03d
00000220: 3d81 bebd 0ace bb3e 66bf d63d 462e b13d
00000230: f982 89be 8b3d b73d 66e4 3d3e c66e 933e
00000240: d6ef 4abe d1c1 693d f1b0 8c3d 799f b8be
00000250: b0c6 7bbe 65ba b93e 5cbb 483d 29d3 f43d
00000260: d02f c0be ed8a e23d 7964 d0bd b5cd 883e
00000270: e3be 973d 6107 053f ae72 b7bd b71a d93d
00000280: 5a17 7bbe 8089 8cbe f7ac 9bbe 896c 34bd
00000290: c246 db3c baab d43e a2a5 10be 682f 86be
000002a0: 36a3 103e ec9a 13be cfde f53e 2a38 eebd
000002b0: 318a a93c dd3a debd 4ea6 47be a499 6d3d
000002c0: 7ff4 a0be 4531 b63e 69b9 463c ec43 9f3e
000002d0: 4715 7b3e b1d2 3b3e c3c9 f13d 4163 073e
000002e0: c2f2 92be 04a3 16be 587e 993d de99 9cbd
000002f0: 28e1 e93e 77e5 42bd 7fa2 17bd 2a7b 7ebd
00000300: 4c58 813d c88f a03d 7985 833e 0bf2 b8bc
00000310: 6c9b 693e c800 743d 4cbb 8cbc d4e8 fc3e
00000320: 6001 9a3e 723e 5a3e 0b02 fabe b46d a5be
00000330: 9e5b 243d c22d aebc 40cb 3f3d 0f97 99be
00000340: d62a 783e 05f7 2fbe b7f5 fa3d 0fa9 d43e
00000350: 51dd 1e3e 6ce5 ef3d 36f3 e33e 1c7b 8ebe
00000360: 14d8 383d b68d 33be 7f5d c2be 1f51 0a3e
00000370: 6593 1a3f 4843 84bd ba31 5e3e ee74 ba3e
00000380: 7a57 9b3e 6f62 07be 5c17 22be 3e0f edbd
00000390: de05 333c 8b03 c2be bd58 d13d 2506 503e
000003a0: b050 e23d 9330 773e f88a 3fbe b3ee 57be
000003b0: 1b05 973e e2cf 173c 3e4b 5ebe 8fdc 283e
000003c0: 57aa 8b3e a67b db3e 7951 e2be 55d6 34be
000003d0: 3b27 6abe f993 20be 710d 10bd 599f e93e
000003e0: a70d e83d 2a08 d53e 7a52 74bd c83a 60be
000003f0: 5d84 f63d 6f08 c63e 453c 303e b5d1 c6bd
-0.08038581 -0.34484503 -0.39110735 -0.067548126 0.1686271 0.36887535 0.49556488 0.26958755
-0.35938287 -0.65555483 -0.080135606 -0.35156795 -0.2538071 0.34144902 -0.022073694 0.36473003
0.1873868 -0.36962047 -0.1399111 0.42055774 -0.0013024926 -0.31275186 -0.05668357 -0.067440934
-0.40560344 -0.20397936 -0.24421597 -0.25059208 0.34059474 0.043431114 0.45127562 0.114205725
-0.05381355 -0.18995267 0.06850498 0.12641019 0.3783705 0.13110913 -0.49865738 0.39125538
0.090258665 0.15188105 -0.52762103 0.16378652 -0.47436106 0.52332634 -0.12240198 -0.2569163
-0.33856693 -0.15950264 -0.07596992 0.061019637 0.12777185 -0.1788142 -0.09980849 -0.10941601
0.36793092 -0.43915257 0.2488249 0.45838985 -0.0344638 0.3921181 0.044950716 0.2253498
0.10013006 0.13249278 -0.16414633 0.33758244 0.092285655 0.08729769 0.49037474 0.34801507
-0.08641799 0.3374111 -0.18126275 0.2990827 0.028714718 -0.11839737 0.4524055 -0.29887226
0.063399985 0.11796666 0.28015587 -0.079492025 0.3259161 -0.021155113 -0.19306481 0.021164838
-0.2632232 0.043972056 0.1851346 0.07443091 0.459582 0.10114916 -0.0166643 -0.3579186
0.3903787 0.06519144 0.56793475 -0.34247178 -0.07617879 -0.067704655 0.36708963 -0.116579294
-0.27510363 0.014742303 0.27801472 -0.17963317 -0.24510661 -0.2429352 0.35581025 0.0762532
0.17668 -0.035191827 0.1602307 0.4501842 0.12788747 0.4111097 0.11389746 -0.07272469
0.49989963 0.11655111 -0.11634783 -0.51515645 0.20806204 0.4655353 0.035715528 -0.30470893
-0.05812822 0.09915886 -0.29013938 0.36155796 0.17526978 0.021343274 -0.24215657 0.078400984
-0.09301994 0.36680633 0.10485725 0.08651404 -0.26857737 0.08947285 0.18544158 0.2879545
-0.19818053 0.057069603 0.068696864 -0.36059168 -0.24587512 0.3627502 0.049006805 0.11954338
-0.37536478 0.11061654 -0.10175414 0.26719442 0.074094556 0.51964384 -0.0895742 0.106007986
-0.24520627 -0.27448654 -0.304054 -0.04404882 0.026767138 0.41537267 -0.14125684 -0.26208043
0.1412476 -0.14414567 0.48021552 -0.11631806 0.020695778 -0.10851071 -0.19497034 0.05800785
-0.31436536 0.35584465 0.012129166 0.31106508 0.24519835 0.18342091 0.11806061 0.13221456
-0.28700835 -0.14710623 0.07494801 -0.07646535 0.45679593 -0.047582116 -0.037020203 -0.062129177
0.063156694 0.07839924 0.2568777 -0.022576353 0.22813195 0.059571058 -0.017179154 0.49396384
0.30079174 0.21312883 -0.48829684 -0.3231026 0.040126435 -0.021262053 0.046824694 -0.2999806
0.2423509 -0.17184074 0.12253898 0.4153523 0.15514113 0.117136806 0.44521493 -0.278283
0.045127943 -0.17534527 -0.37961957 0.13507508 0.60381156 -0.064581454 0.21698657 0.36417335
0.30340177 -0.13221143 -0.15829223 -0.11575173 0.010926692 -0.37893328 0.102220036 0.20314844
0.11050546 0.24139623 -0.18705356 -0.2108715 0.29496083 0.009265872 -0.2170839 0.16490386
0.27278396 0.42867774 -0.44202784 -0.17659886 -0.22866528 -0.15681447 -0.03516907 0.45629385
0.11330729 0.4160779 -0.05964897 -0.21897423 0.12036965 0.3867831 0.17210491 -0.09707967

actor.init_leaf_node_embed.0.add_bias._bias f4 [32, 1]
00000000: 9a3d 433c 55ba ce3c 8aa1 f23b 00b3 073c
00000010: cf8c edbd 692e 763c 5371 90bb 2996 d6bc
00000020: c9ea a03d 332a 0e3d 1344 213d f811 f9bc
00000030: 1d5e ea3a 15df a3bd fc2e 043e 4941 e93a
00000040: e841 22bd 92b7 45bd dd39 3b3c e516 6abb
00000050: aef8 113d 9f66 233d c1c0 f63d 2297 adbc
00000060: c0ba 333c 34e6 3f3c 438d ba3d 1fa3 b2bc
00000070: 5537 8ebd eb51 373b 7982 84b9 0c23 1cbe
0.011916542 0.025235334 0.007404511 0.008282423 -0.11599123 0.0150257135 -0.0044080405 -0.026194649
0.07857282 0.034708213 0.03937156 -0.030404076 0.0017880831 -0.08001534 0.12908548 0.0017795946
-0.039613634 -0.04827077 0.01142737 -0.0035719213 0.03563755 0.03989279 0.12048484 -0.02119023
0.010969818 0.0117126 0.09108975 -0.021806298 -0.069441475 0.002797241 -0.00025274212 -0.15247744

actor.init_leaf_node_embed.2.module.weight f4 [64, 32]
00000000: a262 253e 3fd3 c13e 3bc9 cd3d d7c4 0d3e
00000010: 7967 8ebe be38 963e c1f9 9a3e 75d6 67be
00000020: c639 e23c cb5e 223e 3f9d 0fbc 1ce7 81bd
00000030: 347c d3be 5e7d 0cbe 2584 283e 0b50 d63d
00000040: 5c42 623e a33d d5bd f326 673e 077a 993e
00000050: f587 263f e152 01bf 452c 1c3f cc97 d73e
00000060: 5641 9c3c bb61 273d 829e f63b e243 cd3e
00000070: 90d0 03be cdc0 fc3d a590 553e b4b7 98be
00000080: d075 58be 7fdb 2ebe 7cb4 98bd 6e3a 39be
00000090: 2359 89be 25f7 8f3e 8823 73be ee4b 773e
000000a0: d227 983e 2572 b3be 0809 e13d 93e3 b3bd
000000b0: 4a83 5d3e 38f7 1f3d 6e28 4e3d 725b 343d
000000c0: 0073 2e3e 5566 113e ddbd b33d c6ac f8be
000000d0: f461 b5be 479d 113f cddb 353e a66d 833e
000000e0: d484 073e 4b66 343e 510e 033e 26c2 a3bd
000000f0: bea0 af3d c0b8 0abd 9a94 783e 16ef 42be
00000100: 3c68 8bbd 25ea 963d 8d0a f33d 636f aebe
00000110: 6a73 aa3d f85b c7bd 14a0 eebd e1f2 2cbd
00000120: 9c17 a3be 2f91 cc3e 3059 943d a7ce 8f3d
00000130: 4fa6 5ebe 55c5 293d d174 193e 9318 213e
00000140: 004a c0be 36b0 3dbe ef01 be3d 7c92 253d
00000150: 14a6 443b 3795 cc3d 2c1a f93d c102 183e
00000160: 0cb1 b63e 4cad 0abd d02c 323e faa3 5d3c
00000170: 7523 1fbe 088b bb3c 7ffe f9be 1d44 16be
00000180: 289d 62be 0ef7 b03c ae88 ccbe bd1e e13e
00000190: 9595 a3be 2fad 2e3e 614d 23be 2ee1 133e
000001a0: bb5c 51ba 1f25 123e 3e2b 363e ae1e 903d
000001b0: 62fd 2e3f f8bf 86be 8fec 5cbd 6e77 5bbd
000001c0: 48f3 3abe 36ac a13e a967 863b 6d9e 753d
000001d0: ce92 e9be dc36 523c d196 e1bd 3d53 cbbd
000001e0: 5205 483d 0334 34bd 20d0 823e c556 4e3e
000001f0: a0eb 4f3e e885 c9bd 656b b1bd 1203 213e
00000200: ce24 66be 923f bcbe e63f 82be 43b4 00be
00000210: e875 323d ea55 95be d16c 67be 4734 5fbe
00000220: be6a 1ebf 34b6 8c3e 031b 8c3d 17a9 09bc
00000230: f668 de3e db0a 8ebc d0c7 6ebe cc8c 2a3e
00000240: 9196 823d c792 ebbd a6c8 a1be 63d3 48be
00000250: fa5a 9b3d 33ef 2a3e 24d4 e83d e2a1 1fbd
00000260: 033a 22be a386 a73c 5c16 debc a917 89bd
00000270: 64ba aebd b886 bcbb d9ff bb3b 0718 1fbe
00000280: 5e37 e9bd 442e 4d3e 78a5 2cbe 7f16 afbe
00000290: e24e 163e c951 1b3e a738 af3d edd3 2ebe
000002a0: fddc a2be 9a83 d4bd 7877 ce3b 37e9 763d
000002b0: 78a0 34be 730d 69be e160 e43e df59 6fbe
000002c0: 5e99 6d3e 1ae9 c03c 21c0 923c df79 10bd
000002d0: ffda 373d 9c46 c3bd 2669 1fbe 2ef0 8fbe
000002e0: 59bf 55be b161 433c be42 213d 07b2 933e
000002f0: 9c29 1cbd 5ff8 d2bc 6d0b f7bd fd6a 52bd
00000300: 0239 80be bbc6 ddbe 0ac6 c9be c0b4 46bd
00000310: ab03 4ebe 12e6 32be 28d7 953c 0117 133d
00000320: 8816 86bb 3e75 0fbe 776b 1c3d 1f1e 4ebe
00000330: 4694 8e3e 6a84 ee3d d1fa 45be b13b 47be
00000340: 49f7 2abe 33c7 f73e f35e 9e3d 883b 8dbd
00000350: 0b57 1d3e 388f 5d3e 5b06 08be 0db0 2a3e
00000360: 5a51 f23d 4ec2 873e 098b 68be 371b d4bc
00000370: 76d0 103e 10eb 60bc 72ae 90be e5c0 833d
00000380: 3b3b 7b3d 4953 b23e 8fd8 a9be 6035 8ebe
00000390: cedd f6be ed28 32be 90e6 363e 833a 85be
000003a0: 3178 8ebd 4eb0 01bd ceef 373c a9d2 a2be
000003b0: 1df0 643e 8afe a8be 9f98 eebe 9fd8 653c
000003c0: 06db 54be 1f4d e73d 25e8 27bd 4771 24be
000003d0: 8c58 b3bd 10ba 333f 890a 3bbd 7ab2 8ebe
000003e0: 1f96 8cbd 2311 493d bbc2 3fbe a6df a5be
000003f0: dfce 3f3e 4b91 adbe e0e2 233e 7145 febc
0.16150907 0.3785648 0.10048147 0.1384462 -0.27813318 0.29340166 0.30268672 -0.22640403
0.02761544 0.15856473 -0.008765518 -0.06342909 -0.41305697 -0.13719699 0.16456659 0.10464486
0.22095627 -0.10412147 0.22573452 0.29975912 0.65051204 -0.5051709 0.6100505 0.42108
0.019074123 0.040864687 0.00752622 0.40090853 -0.12872529 0.12341461 0.20855959 -0.29827654
-0.21138692 -0.17075919 -0.074563 -0.18088695 -0.26825818 0.28118244 -0.23744023 0.24150059
0.2971788 -0.35048023 0.10988051 -0.08783641 0.21632114 0.039054126 0.050331526 0.04403252
0.17036057 0.14199193 0.08776448 -0.48569316 -0.35426295 0.5688061 0.17759629 0.25669593
0.13234264 0.17617147 0.1279843 -0.07996015 0.08575581 -0.033867598 0.24275437 -0.19036517
-0.068069905 0.07368878 0.11867247 -0.34069356 0.08322795 -0.097343385 -0.11651626 -0.042223815
-0.3185395 0.39954516 0.07243574 0.07021838 -0.21743129 0.041447956 0.14985968 0.1573203
-0.37556458 -0.1852425 0.092777126 0.0404229 0.0030006217 0.09989398 0.12163195 0.148448
0.3568195 -0.033856675 0.17399907 0.013527865 -0.1554087 0.022893444 -0.48826978 -0.1467442
-0.22130263 0.02160218 -0.39948028 0.43968764 -0.3195006 0.17058252 -0.15947486 0.14441368
-0.0007986535 0.14271973 0.17789933 0.07037102 0.6835538 -0.26318336 -0.053936537 -0.053580694
-0.18256867 0.315767 0.0041017127 0.05996554 -0.45619816 0.012830462 -0.11015094 -0.09927986
0.0488332 -0.043994915 0.25549412 0.20150287 0.20304728 -0.09839994 -0.08663062 0.15723827
-0.22474977 -0.3676725 -0.25439376 -0.12568764 0.043569475 -0.2916711 -0.22600104 -0.21797286
-0.61881626 0.2748276 0.068410896 -0.008402131 0.43439454 -0.01733916 -0.2331841 0.16655272
0.063763745 -0.11502605 -0.31598395 -0.19611888 0.07585712 0.1669281 0.113685876 -0.038972743
-0.15842442 0.020449942 -0.027110271 -0.06693966 -0.08531645 -0.0057533644 0.0057372865 -0.1553651
-0.113875136 0.2003718 -0.16859996 -0.3419685 0.14678529 0.15167917 0.085557275 -0.17073031
-0.31809226 -0.103766635 0.006300863 0.060281005 -0.17639339 -0.22759037 0.44605163 -0.23374127
0.23203036 0.023548651 0.01791388 -0.035272475 0.044886585 -0.09534952 -0.15567455 -0.2811293
-0.20873775 0.011925147 0.03937029 0.28846762 -0.03812562 -0.025753198 -0.12062726 -0.051371563
-0.25043494 -0.43315682 -0.39408904 -0.04851222 -0.20118587 -0.17470577 0.018291071 0.03591061
-0.0040920414 -0.14009568 0.038188424 -0.20128678 0.278475 0.1164635 -0.1933396 -0.19456364
-0.16695894 0.48394164 0.07732954 -0.0689612 0.15365236 0.21636665 -0.13283674 0.1666872
0.11831923 0.2651543 -0.22709288 -0.025891883 0.14142022 -0.013727918 -0.2825809 0.06433276
0.061335783 0.34829167 -0.33173034 -0.27775097 -0.482161 -0.17398424 0.1786139 -0.26021203
-0.069565184 -0.031662278 0.0112266075 -0.31801346 0.22357221 -0.33006698 -0.46600816 0.014028697
-0.20786676 0.112940066 -0.040992875 -0.16058837 -0.08757123 0.70205784 -0.045664344 -0.27870542
-0.06864571 0.04908861 -0.18726628 -0.32397193 0.18731259 -0.33899912 0.16004515 -0.031038972

actor.init_leaf_node_embed.2.add_bias._bias f4 [64, 1]
00000000: 38d0 873e 5efe 0e3e 7e15 323d 6c86 373c
00000010: 9295 39be d004 5b3c b174 50be ebb2 8cbe
00000020: c77d 3dbe 69a4 22be 79f0 8c3e cda3 15be
00000030: 063c ca3d 0c74 c4bd c017 ccbd b5e2 97bd
00000040: b129 103e 40a1 0abe a20e a0be 9c8d 1fbd
00000050: 05fa 093d 3979 a93d daa4 6b3c e909 5a3d
00000060: f82e 733e 54f4 3abd f294 7bbc 3ecb 9cbd
00000070: d675 2fbe 70a2 d83d c175 17be 79c8 fabc
00000080: df96 ee3d c500 71bd 4b3c 20be 93e2 193e
00000090: 0f2c 693e 621e 0fbd 1772 2dbd d1de fdbd
000000a0: a9c1 803d 0452 fbbe 77dd 403e 6081 643d
000000b0: cd1c 1abe d478 2ebd 95d7 0dbe 8c4a 3fbd
000000c0: 6412 6cbe 7c40 4a3d 7b9c 63bd f574 8dbd
000000d0: 3959 dd3d 885a 28be 160e 44be ee27 e73d
000000e0: ec7f 593c 8657 6fbe b195 413e cd72 87be
000000f0: 202f 043e 3c6d fabd e6af 993d 57bc 863c
0.26526046 0.13964221 0.043477528 0.011201482 -0.18123463 0.013367847 -0.20357014 -0.27480254
-0.18505011 -0.1588303 0.27527216 -0.14613266 0.0987473 -0.09592447 -0.099654675 -0.07416288
0.14078404 -0.13538074 -0.31261164 -0.03895341 0.033685703 0.082750745 0.014382565 0.053232107
0.23748386 -0.045643166 -0.015355336 -0.07655953 -0.17134795 0.105778575 -0.14791013 -0.030613171
0.1164987 -0.058838625 -0.15648 0.15027837 0.22770713 -0.034941085 -0.042345133 -0.123960145
0.06286938 -0.4908601 0.18834482 0.055787444 -0.15050049 -0.0425957 -0.1385177 -0.046701953
-0.2305389 0.049377903 -0.055569153 -0.069070734 0.108080335 -0.16440785 -0.19145998 0.11286913
0.013275128 -0.23373231 0.18904759 -0.26454774 0.12908602 -0.12227866 0.07504253 0.01644723

actor.init_next_embed.0.module.weight f4 [32, 6]
00000000: 5f41 333e b261 17be d209 99be 06b5 cfbe
00000010: effe 86be 3744 78bd 0acc a73c 51ff c7bd
00000020: 0851 3f3e 2260 1ebe 324e 12be 210b 0cbe
00000030: d72a 2b3e 0d16 89be 7bfc 83be 1086 3d3d
00000040: 4141 9abe c92e c33e 0cf1 35bb fffb 143d
00000050: 9595 07bd 58b9 e03e f280 ddbe 7eb9 a7be
00000060: 1dba db3d 5213 d8be 941b febd e944 85be
00000070: 1749 dabd 3ce9 34be ef78 dbbc ccc5 13bf
00000080: bf29 913e 8710 3dbf 1fd1 27be c173 e23d
00000090: a378 5b3f 8cc7 d23d 905a 913d 6131 7ebe
000000a0: 4c73 c9bd 744d 85be 75dd babd c359 c93d
000000b0: b652 153e 0552 943d 1e29 a3be 861b 293e
000000c0: 8ada c5be 7928 17bf 3854 7a3e 8ec9 b23d
000000d0: 0503 b03f d589 3cbf c038 df3d 8da0 95be
000000e0: 02a6 3abe e6ef 8e3d 2e59 a5be 96f0 d7be
000000f0: e2cf a7be 3678 3a3e 4412 843c 3ed9 c33e
00000100: 4b06 833e 7401 eabe 40c0 ee3e a37c efbc
00000110: 0f2d b1bc e7f2 883d c4b8 b63b f355 283e
00000120: ae41 b6be 917e 06bd 6350 153e 270f 9e3c
00000130: 48a4 65be 200e a8be 107f a73d 0aa8 153c
00000140: 5446 fe3d 99cc b93d 71b3 c5be 4ecd 99bd
00000150: b2d6 993f 2d89 69be da14 83be fbff f5be
00000160: c5ad 5bbe 27f4 923d 7f8a aabd 103a 82bd
00000170: 696d 98be 249e acbe aaf7 9cbd d945 453e
00000180: 168f 8ebe cc78 0bbd 7749 e6bd 6425 0bbe
00000190: 545f d7be d84f c23d c11e 123f 30f0 4ebd
000001a0: 52bc 493e 88c1 83be fc08 80bd d870 08bc
000001b0: c4ee 69bd 3d85 933e 1918 6a3e 8d87 273c
000001c0: 8643 57bd 1d72 8f3e 4e43 5d3f 65fe 793e
000001d0: eba9 b7be 8145 78be b5e1 173e c1b5 ac3d
000001e0: 672e 873e 5055 d63c 59e4 14bd 7db7 0abe
000001f0: f4aa 85be 757b 1f3e 5595 d5bc e210 58be
00000200: 23e0 37bf e809 c7bd d4cc 00be 1de2 10bd
00000210: 21de ec3d a445 17be a075 c7bd 150e 063e
00000220: 74a3 b3be 6ba0 5c3d a6db 573f 0e27 88be
00000230: 3362 a93e b490 0bbf 4567 813e 2e5e 053f
00000240: 35f4 cc3f 5fdc cbbd 22d6 3abe 950e cebe
00000250: e09c 6bbe 142b 323e 07cb 313e b767 923e
00000260: a8c0 83bd 72b8 37be a21e 31be d7ed bebe
00000270: ae03 803b 93fe a3be 6c75 393e 875d 81bd
00000280: c1fc 6ebe 39ad eabc 75ff 02bf a3c9 c3be
00000290: 824f 41be 132e 3dbe f31c 0c3e 55f8 16be
000002a0: 2206 cc3e 6597 523e 0aec 9bbc d1f6 a3bf
000002b0: ae05 6abc 1183 413e d610 ef3e ab43 6c3e
000002c0: cef5 afbe 527d 58bf ca7c edbd 9eed b23e
000002d0: 07a3 1fbe a4b2 84be ec67 973e d4d5 9d3d
000002e0: 60c1 95bd 29c0 423d da27 9b3d 89e3 67be
000002f0: 9db3 f0be f4d8 86be a809 48bd 7045 833d
0.17505406 -0.14783362 -0.29890305 -0.40567797 -0.26366374 -0.06061193 0.020483036 -0.097654946
0.18683255 -0.1546636 -0.14287642 -0.1367612 0.16715561 -0.26774636 -0.25778565 0.04627043
-0.3012791 0.38121632 -0.0027762083 0.036373135 -0.033101637 0.43891406 -0.4326244 -0.32758707
0.10728858 -0.4220224 -0.12407604 -0.26029137 -0.10658472 -0.17667097 -0.026791064 -0.5772369
0.28352162 -0.73853344 -0.16388367 0.110572346 0.8573095 0.10291967 0.070973516 -0.24823524
-0.09836444 -0.26035655 -0.09124271 0.09831574 0.14582333 0.072422065 -0.31867307 0.16514406
-0.38643295 -0.5904613 0.2444619 0.0872985 1.3750921 -0.73647815 0.10899496 -0.29224053
-0.1822739 0.06979351 -0.322946 -0.4217574 -0.3277579 0.1820992 0.016121991 0.3825168
0.2559074 -0.45704234 0.4663105 -0.029234236 -0.02162793 0.06686955 0.005576225 0.16439037
-0.35596985 -0.032835547 0.14581446 0.019294335 -0.2242595 -0.32823277 0.08178532 0.009134302
0.12415758 0.09072227 -0.38613465 -0.07509862 1.2018645 -0.22806235 -0.25601846 -0.4804686
-0.21453007 0.071754746 -0.08327197 -0.06358731 -0.29770973 -0.33714402 -0.07664426 0.19264926
-0.2784354 -0.034050748 -0.11244481 -0.13588482 -0.42064917 0.09487885 0.57078177 -0.05052203
0.19700745 -0.2573359 -0.06251714 -0.008327685 -0.05711247 0.2881259 0.22860755 0.010225189
-0.05255463 0.2801675 0.86430824 0.2441345 -0.35871825 -0.24245264 0.14832194 0.08433104
0.2640259 0.026163727 -0.03635058 -0.13546558 -0.2610699 0.15574439 -0.026072184 -0.2110019
-0.7182638 -0.09718686 -0.12578136 -0.03537189 0.11565805 -0.1477266 -0.09739232 0.1309131
-0.35085642 0.053863924 0.8431953 -0.26592296 0.33082733 -0.54517674 0.252741 0.5209683
1.6012026 -0.09954142 -0.18245748 -0.402455 -0.23009062 0.17399246 0.17362605 0.28594753
-0.06433231 -0.17941454 -0.17296842 -0.37290832 0.0039066887 -0.32030162 0.18111199 -0.06316667
-0.23338605 -0.028647052 -0.51171046 -0.38239774 -0.18877986 -0.18474607 0.13682918 -0.14743169
0.3984843 0.20565565 -0.01903345 -1.2809697 -0.014283581 0.18897654 0.46692532 0.23072688
-0.34367222 -0.84566224 -0.11596067 0.34946913 -0.15589534 -0.25917542 0.29571474 0.077068
-0.07312274 0.04754654 0.075759605 -0.22645392 -0.47012034 -0.26337397 -0.048837334 0.064097285

actor.init_next_embed.0.add_bias._bias f4 [32, 1]
00000000: e910 1d3e 5b28 ba3d fbc8 b3bd bc56 0e3c
00000010: f305 dbbb 0b3a a6be 26a3 f03d 9f38 dfbd
00000020: b4d5 69be 6cac 023c a993 40be ac83 b43e
00000030: 45b7 193c 58c2 143e 527e b43e 19e0 873e
00000040: edce 36bd f44c 5fbe 0aae 60be 062d a33e
00000050: 2816 f2bd 717e c23c 6775 7ebe 9c4a 69bd
00000060: 96ed 883e 1244 febc c0a6 f9bd f498 fc3c
00000070: e30f f43c e075 4b3e 9c26 523e 4664 423e
0.15338482 0.090897284 -0.08778568 0.008687671 -0.006684059 -0.32466158 0.11749868 -0.108994715
-0.22835428 0.007975679 -0.18806328 0.35256708 0.009382074 0.14527261 0.35252625 0.2653816
-0.044630934 -0.21806699 -0.2194139 0.31870288 -0.11820632 0.023741933 -0.24849473 -0.05695592
0.26743764 -0.031038318 -0.12190008 0.030834652 0.029792732 0.19869184 0.20522541 0.18983564

actor.init_next_embed.2.module.weight f4 [64, 32]
00000000: 74e9 843d 8e49 e0bd 41d6 93bc 825c 353e
00000010: 8177 163e ac01 a33d 4519 79be 8119 6abe
00000020: 2c4f 41be cb02 9e3e b407 a93d 17ea e8be
00000030: 4e23 bc3d 73da 983e 51df 23bc 2fb8 aabe
00000040: a591 1abe 1a71 843d 8b24 8abc b615 61be
00000050: 2c25 813d 159e 6ebd 4404 f3be ab83 adbe
00000060: ed61 0ebf 4ebd b23e 1d54 30be 94f8 c0bd
00000070: 2c5d b23d d107 783d 5e42 213e 4417 54be
00000080: b3ce 953e 86aa 5ebd 4a2b ffbd 5b82 8cbd
00000090: 518f b6bd 27f9 27be 3627 d6bd 381b bab9
000000a0: bc56 bc3e 6dc9 263d 5789 f43e 4307 ae3e
000000b0: 231e c0bc 456a 08bd 58ee 29bd 9a3a 52bd
000000c0: 99e3 383e 64e2 aa3c 3716 9cbd f83f ff3e
000000d0: af01 2e3e bb4a bc3c ac34 6b3d 1d4d 71be
000000e0: 8eac adbd e969 603e eb38 cdbb a7fe a0be
000000f0: 46b0 82bd 47f2 ba3d 9165 26bd aaa7 ac3b
00000100: aa71 f1bd c3b4 e63c 7b60 d23d bb03 0cbe
00000110: 033e 8eb9 026a 4d3e 6fe5 cfbe f7b8 b3be
00000120: ff37 93be 689e 13be ef7a 223d 6114 c53e
00000130: 4d20 b43d 086a 89be 16db 2dbf 9c64 d23d
00000140: 33e4 6cbe 935e 833d 5aa8 3b3e aa53 eb3d
00000150: d102 a6bd 6c0e a2bd cd37 5dbd b91a ae3e
00000160: 0e4c cbbe 2620 ca3d 04a8 55be deb1 2bbe
00000170: abe7 e8be a7a3 20bf 4cb8 76be 8037 d8bd
00000180: 525b a5bd de04 283e 5f32 b73e 6d9c bfbd
00000190: 8d00 9fbe e924 d43c bab1 b0be 57ea 023e
000001a0: 27f1 12be 1f41 743e ac19 adbe cb65 013e
000001b0: 5060 df3d b302 343e 6b41 a8be e938 8abe
000001c0: 2bb4 26be 221b 503e 55de 033d 5c98 c7be
000001d0: 9ba3 83bc 3681 963d 73f9 283e 720d 2c3f
000001e0: 1185 c4be abce dcbe 6096 bfbd f11d a7be
000001f0: a653 d1be 406d 26be 4b21 5c3d caeb 87be
00000200: c039 2dbe 98e8 c0be 1118 c7bd 0aaa 7b3e
00000210: 3c8e ef3d b651 2dbe 905d c1bd af5a abbd
00000220: 52b7 eb3d 65c0 f8bd 8082 7fbe a257 153d
00000230: d103 f7bc 5b72 1a3a 2422 333e c2ed bb3c
00000240: c13e 2a3e 8c34 1c3e fd98 17be 7862 7cbe
00000250: 052c 2fbe 69c8 c13d 04d4 1c3e 700f 303e
00000260: 254e 883e a271 c0bd 7a62 e33e dde7 523e
00000270: 482f 7dbe d658 4bbd 7bf2 89bd ee69 bc3c
00000280: 7325 0bbd ff52 7abc b9cf 193d 34c8 dfbd
00000290: dbd1 ae3e 9b07 553e 0e76 313d 8cfc 103e
000002a0: b08c a23d 9084 5c3e 38dd 1e3d a74c 143f
000002b0: 992f 2d3d 131c 9e3e 7875 803c b60c fe3e
000002c0: 31bd f7bc ca60 a53e d10d e23d b42a 373f
000002d0: 5e54 353d 8ca8 05bd b717 863e 9f11 09bd
000002e0: 26cb 033f 0dcf a6bd 4329 933d b44e b13e
000002f0: ce95 0abe a207 9cbe d747 813e f27c fcbd
00000300: 978b f0bc b006 273e dcab 173c f4c8 373e
00000310: b339 95bd f040 dc3c fea3 78be 7dc3 a6be
00000320: fe99 433e 45a6 653e 5e7a 923d 65f8 5e3e
00000330: 7bbd d03c 76f8 423c 2621 47be 9f75 03be
00000340: 0703 b3bc b511 2b3e 2e92 59be 2f6e 2abd
00000350: 1081 4f3e 0111 8bbe 0b7c 2c3e 5d5e e13d
00000360: 5e81 84be 1e5e 943d d01f 213d c84b 67be
00000370: cfa9 6dbe 0b24 7dbe a110 353e a4c7 84be
00000380: 25c0 2abe 2524 1e3d 53e2 e0bd 19ad cb3c
00000390: 6e0e 653e 4f37 96be 446e 01be 71e2 47be
000003a0: d6ba db3d 9d40 edbc eaee b63e 7df4 843e
000003b0: 9e8c c83d 7d2d 853e e427 d33e 82d3 f53e
000003c0: c196 8d3d f574 b23e 49f0 503e 9c9e 6e3e
000003d0: bebb aabe bea2 653c b170 27be c0a6 103f
000003e0: 013f f23e 9cc9 bf3c d78d be3d c80c c2bd
000003f0: cfa4 a73d 389b 733e 773e 953d 4dd9 9a3e
0.0648984 -0.109515294 -0.0180465 0.1771107 0.14694025 0.07959303 -0.24326046 -0.22861291
-0.18877858 0.30861506 0.082534224 -0.45491096 0.09186421 0.29854164 -0.010001973 -0.33343646
-0.15094621 0.06466885 -0.016863128 -0.21980938 0.06305918 -0.058256228 -0.47464192 -0.33889517
-0.5561817 0.34910053 -0.17219587 -0.094224125 0.087091774 0.06055433 0.15747973 -0.20712
0.2925926 -0.054361843 -0.124594286 -0.06860801 -0.08914054 -0.16403638 -0.10456698 -0.00035496964
0.36784923 0.04071944 0.47761032 0.33989915 -0.02345187 -0.03330447 -0.041487068 -0.051325418
0.18055572 0.020859905 -0.07621425 0.49853492 0.1699283 0.022984853 0.05742328 -0.23564573
-0.08480178 0.21915402 -0.0062628887 -0.31444284 -0.06381278 0.09128242 -0.040624205 0.0052690106
-0.11789258 0.028162366 0.102723084 -0.13673298 -0.00027130553 0.2005997 -0.4060473 -0.35102054
-0.2875366 -0.14415896 0.03966802 0.3849211 0.087952234 -0.26838708 -0.67912424 0.10273096
-0.23133926 0.06414523 0.1832594 0.11490567 -0.08106006 -0.07912907 -0.054008294 0.34004763
-0.39706463 0.09869413 -0.20864874 -0.1676707 -0.4548925 -0.62749714 -0.24093741 -0.10557461
-0.080740586 0.16408107 0.35780618 -0.09356008 -0.31055108 0.025896506 -0.34510595 0.12784706
-0.14349805 0.23852967 -0.3380865 0.12636487 0.10907042 0.17579155 -0.3286241 -0.26996544
-0.16279666 0.2032285 0.032194454 -0.38983428 -0.016069224 0.07348864 0.16501407 0.67208016
-0.38382772 -0.43126425 -0.09354854 -0.3264003 -0.4088413 -0.16252613 0.05374269 -0.2654708
-0.16916561 -0.37677455 -0.09721387 0.24576584 0.11697051 -0.16925701 -0.09441674 -0.08366906
0.11509575 -0.12146071 -0.24952126 0.036460526 -0.030153187 0.0005891674 0.17493492 0.02294052
0.16625501 0.1525442 -0.14804454 -0.24646938 -0.17106636 0.09462053 0.15315253 0.17193389
0.2662212 -0.09396674 0.4441107 0.20596261 -0.24725068 -0.049645267 -0.067357026 0.02299973
-0.03397126 -0.015278577 0.037551615 -0.109268576 0.34144482 0.20803683 0.043325476 0.14158839
0.0793699 0.21534944 0.03878519 0.5792946 0.04228172 0.30880794 0.015681013 0.49619073
-0.03024158 0.32300407 0.110377915 0.71549535 0.044269912 -0.032631442 0.26189968 -0.03346407
0.51481855 -0.081449606 0.071856044 0.34630358 -0.13533708 -0.30474573 0.25250122 -0.12328519
-0.029363437 0.16311145 0.009257283 0.17947751 -0.07286396 0.026886433 -0.24281308 -0.3257102
0.19101712 0.22426708 0.07152246 0.21774442 0.025480976 0.011900058 -0.19446239 -0.12837838
-0.02185203 0.16705973 -0.2124717 -0.041608986 0.20264077 -0.2716141 0.16844194 0.110043265
-0.2587995 0.07244514 0.03933698 -0.22587502 -0.23209308 -0.2472078 0.17682125 -0.25933564
-0.1667486 0.03860869 -0.10980668 0.024862813 0.22368786 -0.29339072 -0.12639719 -0.19519974
0.107289955 -0.028961474 0.35729152 0.2596778 0.097924456 0.26011267 0.41241372 0.4801293
0.0691352 0.34854856 0.20404162 0.23302692 -0.3334636 0.014015852 -0.16351582 0.5650444
0.47313693 0.023411565 0.093043976 -0.09475094 0.081857316 0.2378968 0.07287305 0.30243912

actor.init_next_embed.2.add_bias._bias f4 [64, 1]
00000000: 4ca5 0cbf f8db 94be 5bb4 aebe b0ad f1be
00000010: c45f a03d d7e0 6e3f 4500 bcbe 2105 f33e
00000020: 14c1 913f bbaf 29bf 357a 3ebf 68b6 f33e
00000030: 494e 913f 7611 9dbf aaf9 7abf 4aab 4dbf
00000040: 3dfc 4fbf fff9 323f 765f f33e e1a4 373d
00000050: c6f9 85be 836c c9be 3ff7 99bf c1cf 963e
00000060: e67e 0bc0 6df1 3dbf f3f9 f3be 3fdb 39bf
00000070: 0d29 bf3e 5884 963e dd7f 46bf 3f13 08bf
00000080: 2706 80be b7e9 363f ffe0 41be 3d33 aabe
00000090: a666 c33f f12c 193f a845 8dbe aa2c f03e
000000a0: 3cb2 cbbf d333 8f3f 10b8 b6be 7e4c d8bf
000000b0: 3ce3 a73e ad40 a43f a494 503f b125 0f3f
000000c0: 212b 79be e686 703e c554 223f fc32 243f
000000d0: 773c dd3d 89ca cabd 9dae a8bc 85ce 10bf
000000e0: 6a27 8a3c c908 0b3f 5640 36bf 1a86 e13e
000000f0: 2d8d cf3e 90ca 153f de10 23be 7b4c 3e3e
-0.54939723 -0.29074073 -0.34121975 -0.47202826 0.07830766 0.9331183 -0.36718956 0.4746485
1.1387048 -0.6628377 -0.74405223 0.47600102 1.1352016 -1.2270954 -0.9803721 -0.8033949
-0.8124426 0.69912714 0.47533768 0.044834975 -0.26167125 -0.393406 -1.2028579 0.2945538
-2.1796203 -0.7419651 -0.47651634 -0.7260017 0.37336007 0.29397845 -0.77538854 -0.5315437
-0.25004694 0.7145037 -0.18933485 -0.33242217 1.5265701 0.598342 -0.27592206 0.46909076
-1.5913768 1.118769 -0.35687304 -1.6898344 0.32790554 1.2832237 0.8147681 0.5591689
-0.24332859 0.2348896 0.634106 0.64140296 0.108025484 -0.09901912 -0.020591075 -0.56565124
0.016864497 0.5431028 -0.7119192 0.44047624 0.40537396 0.5851221 -0.15924403 0.18583862

actor.embedder.layers.0.0.module.W_query.weight f4 [64, 64]
00000000: a04f 203d a9f2 9ebd 99c2 0c3e d831 1abe
00000010: 755f c53a 4e5b d7bd 0f3f e4bd ac55 8abd
00000020: bcfc 1d3e 56cd dbbd 1a9e f93d 3c97 3e3b
00000030: 9ae0 1c3d ea0e 043d bbdf f23b ee5f eabc
00000040: 2fca 753d 27ea 4d3d 8379 eabc 951c a83d
00000050: d2f8 f63c 514a afbd 5b80 033e b98b 5c3e
00000060: f8d1 2ebe 351d 253e 1aae 7b3d aa56 f8bc
00000070: 86f7 db3a 5104 3b3e 0e3c d9bc 81c0 3e3d
00000080: 4185 e13d 7e85 e0bc 843c 45be 5be4 d73d
00000090: 4767 99bb 0070 0b3e 1478 c53d 5237 b4bd
000000a0: e96c e23d 57d5 ec3c 4b69 13bd 491e 293e
000000b0: 9d27 b0bd 941d d9bd 4069 383e b082 7bbd
000000c0: 5060 d7bd 9126 e5bc 127f 00bd 5c5e b3bd
000000d0: 77dc aebd 13b5 123d c237 4c3c 17a8 31bd
000000e0: ead7 793d a0d5 00be 539e 423e 67b3 84bd
000000f0: f1aa 48bd ea06 c1bd 55cc 89bd cae7 9dbd
00000100: e1bd 93be cdb0 39be 1139 00be 9954 ddbd
00000110: 45f7 dbbc e7a7 06be b0cb 093e df11 4c3e
00000120: 0a99 6e3e 8be3 a63d 5388 24be c7e2 48bd
00000130: 6cf5 283e 9f2f 963c 1d3c fcba 8491 8ebc
00000140: c23c c4bd 1124 fc3d f3d1 2e3d b2ae 803e
00000150: 5fb4 543d 9d25 e3bd a18c 7cbd 7f82 45be
00000160: 6513 34be b0d4 dfbd 20b5 473e dc07 e53c
00000170: e61d fa3d 90d5 f8bd 68d4 053e 942b 5bbc
00000180: 896c f9bd 073c c2bd 7b41 0a3d 9d44 7ebd
00000190: a47b 90bd 53eb 2cbe b095 27be 1b7f b9bd
000001a0: 0de6 21be d83e 843e cc6a 4bbe 1b26 eb3a
000001b0: 7e44 4c3e dc93 acbd da14 80bb 1c4a 1d3e
000001c0: 8313 343e a91d b1bd 2438 4abd 7258 34be
000001d0: 2280 18be 58c7 f63d c279 6ebc c52e 52be
000001e0: f332 23be cb08 a93e c815 36be 8a94 9f3e
000001f0: 3c75 bdbd c80a 173e 0862 25be 83f5 083e
00000200: f79d 6cbe 436e 18bb dd61 d53c 2147 503d
00000210: 0568 013e f017 f6bc 37b0 98bd faa0 2e3d
00000220: 6d44 6cbb 175a 203d 50a7 4fbd 7d68 4abd
00000230: e75e c53d ed51 113d 02eb 253d dab7 043e
00000240: 77ed bc3c a40e ee3d 1add ee3d 5b61 923d
00000250: 51b0 bf3d b825 d03c 6ef1 efbd 5a2e d1bd
00000260: 275d bebd 7a27 a2bd 50fe 4a3d 9148 65bd
00000270: 6545 2e3c 3e19 0ebb 9533 ebbc 2f80 c9bb
00000280: 6812 12bd 3b8f 59bd e5ca 99bc 95d7 ab3c
00000290: 075d b63d 9582 303d 2dd3 983c fc0c 133d
000002a0: 4be8 083d ceeb 963d 2150 cdbb aff2 24ba
000002b0: 2ed0 8c3d 8c6e bbbd 2852 373e 6ee1 323e
000002c0: b4b3 94bd 6c14 16bd c140 423d ed22 8b3c
000002d0: a23f 46bd 4b74 073d 61ee e7bb 422b 9d3c
000002e0: 150b b5bc a297 9d3d 5df6 4bbd bcc8 e5bc
000002f0: a425 05be 8c86 86bc caea aabd 8014 86bd
00000300: b1bd 8fbd ba39 803d d598 d6bb faab e83d
00000310: 899d dc3d 76c2 243e 37d4 ed3c 6a56 f4bd
00000320: a30b 2abb 2895 a7bc 1b9c 50bd 815a 38bd
00000330: ce04 2cbe 83ed e83a 334e 373d 7c0c 123d
00000340: fdde d4bc a641 cc3c 76f8 ac3c 040b 7b3d
00000350: 2259 0abe ca6e 563d e0f6 fa3b 3dd2 1abd
00000360: 878a 19bd 06c0 883d 747c 81bd 63d8 ce3d
00000370: 34d1 933d 9f27 bdbc 0a61 913d dc80 67bd
00000380: 617e 86bc 923c 27bd daaa 86bc eb54 313e
00000390: c776 32bd bec4 193d f07e 2e3d e9fc af3c
000003a0: f386 bdbd 81c9 133d c5e4 3c3e 5b84 cabc
000003b0: 7512 863d cfaa ddbd b3ca a23d 6ec3 94bd
000003c0: dde8 9abd ad8f 7f3d 5589 d93d cd1a 5ebd
000003d0: c184 2b3e f0ec 7c3d 9efd a23d b3e7 513d
000003e0: 0767 513e 637e e0bd 53c1 e7bc cf00 8cbd
000003f0: 420f eebd 9add f5bd c52e b43c b212 ebbd
0.039138436 -0.077611275 0.13746108 -0.15058076 0.0015058356 -0.10515462 -0.1114484 -0.06754622
0.15428442 -0.10732524 0.121883586 0.0029081842 0.038300134 0.032240786 0.0074119247 -0.028610196
0.06000727 0.050272133 -0.028622394 0.082085766 0.030147944 -0.085590966 0.12841932 0.21537675
-0.17072284 0.16124423 0.061445333 -0.030314762 0.0016782142 0.18263365 -0.026517894 0.046570305
0.11011744 -0.027407404 -0.19261366 0.10541602 -0.004681501 0.13616943 0.09642044 -0.08799614
0.11055929 0.028910322 -0.035989087 0.16515459 -0.08601306 -0.10601345 0.180089 -0.06140393
-0.10516417 -0.027972491 -0.031371184 -0.08758232 -0.08538144 0.035817217 0.012464466 -0.043373194
0.060996927 -0.12581491 0.19005708 -0.06479531 -0.048991147 -0.09425147 -0.06728426 -0.07710226
-0.28855804 -0.1813385 -0.12521769 -0.10807151 -0.026851306 -0.13149987 0.13456607 0.19928692
0.23300567 0.08148869 -0.16067629 -0.049044397 0.16499871 0.018333254 -0.0019243989 -0.017403372
-0.09581901 0.123115666 0.042680692 0.25133282 0.051929828 -0.110911585 -0.06165755 -0.19288062
-0.17585523 -0.10929239 0.19502687 0.02795785 0.12212734 -0.12150109 0.13069308 -0.013377089
-0.121789046 -0.094841056 0.033753853 -0.062077153 -0.070548326 -0.16886644 -0.16365695 -0.090574466
-0.15810414 0.25829196 -0.19864959 0.0017940433 0.19948003 -0.084266394 -0.0039087357 0.15360302
0.17585568 -0.08648235 -0.049369946 -0.17611864 -0.14892629 0.120497406 -0.0145553965 -0.20525654
-0.15937404 0.3301452 -0.17781746 0.31168014 -0.09250876 0.14750206 -0.16150677 0.13374905
-0.23107134 -0.002325908 0.026047641 0.050849084 0.12637337 -0.030040711 -0.07455485 0.042633988
-0.0036051527 0.039148416 -0.05069667 -0.049416054 0.09637242 0.03547852 0.040507324 0.12960759
0.02306245 0.11623886 0.116632655 0.07147475 0.093598016 0.02540861 -0.11715971 -0.10213919
-0.09295111 -0.07917686 0.049558938 -0.055977408 0.010636662 -0.0021682526 -0.02871112 -0.006149314
-0.035662085 -0.05311511 -0.018773505 0.020976821 0.08904462 0.043093283 0.018655384 0.035901055
0.033424657 0.07369195 -0.0062656556 -0.0006292266 0.068756446 -0.091519445 0.17902434 0.17468807
-0.07260838 -0.03664057 0.047425035 0.016984427 -0.04840053 0.03306989 -0.0070779775 0.019185666
-0.02210001 0.07694937 -0.049795497 -0.02804982 -0.1300264 -0.016421579 -0.08345564 -0.06546879
-0.07018603 0.062610105 -0.0065489807 0.11360927 0.10772235 0.16089806 0.029031856 -0.11930545
-0.0025946877 -0.020456865 -0.050930124 -0.045008186 -0.16798708 0.0017770979 0.04475231 0.035656437
-0.025985235 0.024933647 0.02111457 0.061289802 -0.13510564 0.05235175 0.0076588243 -0.037798155
-0.037485626 0.066772506 -0.06322566 0.10099866 0.07217637 -0.023090182 0.07098587 -0.056519374
-0.016417684 -0.04082925 -0.01643889 0.1731755 -0.043570306 0.037541144 0.042601526 0.021482902
-0.09254255 0.03608084 0.18446644 -0.024721315 0.06546489 -0.10823595 0.07948818 -0.07263838
-0.075639464 0.06239288 0.10621897 -0.054224778 0.1674986 0.0617494 0.0795853 0.051246356
0.20449458 -0.10961606 -0.028290426 -0.06836092 -0.11624004 -0.12005158 0.021994958 -0.11478175
