logs/experiment/Discrete_A2C_1-5Box_10x10x10Bin-2022.08.09-15-00-00/PCT-Discrete_A2C_1-5Box_10x10x10Bin-2022.08.09-15-00-00_2022.08.09-16-57-59.pt (torch, 236314 bytes, 24 tensors)

actor.init_internal_node_embed.0.module.weight f4 [32, 6]
0	0xbef093a6	-0.46987647
1	0x3c80f2b8	0.015740737
2	0xbf0a1036	-0.53930986
3	0x3cf9f4b5	0.030512193
4	0xbe587d93	-0.21141653
5	0xbd0d05df	-0.034429427
6	0xbdc21371	-0.094763644
7	0x3e1fa5ef	0.15590642
8	0xbea43d43	-0.3207799
9	0xbe863906	-0.2621538
10	0xbeae919b	-0.34095463
11	0xbebd63b9	-0.36990145
12	0xbe1864bf	-0.14882182
13	0x3d6e7e7d	0.058226097
14	0x3e198f4d	0.14996071
15	0x3e8bfb89	0.27340344
16	0x3dbc2480	0.09186649
17	0xbf2486ec	-0.64268374
18	0x3e994855	0.29937997
19	0xbe999093	-0.29993114
20	0x3eb54b90	0.35409212
21	0xbf05bf54	-0.5224507
22	0xbc4d41bf	-0.012527882
23	0x3f08af6f	0.5339269
24	0xbdc21322	-0.094763055
25	0xbeccf4fe	-0.40030664
26	0x3e4bb52a	0.19893327
27	0x3da8f195	0.08249203
28	0x3e983fca	0.29736167
29	0x3f4ede77	0.80808204
30	0x3ad8fca2	0.0016554783
31	0x3d10b238	0.035326213
32	0x3e70ec5b	0.23527662
33	0x3b1b42ce	0.0023690942
34	0xbd218aa3	-0.039438855
35	0xbe7ad3cf	-0.24494861
36	0x3f82441b	1.0177034
37	0xbe117cf0	-0.14207816
38	0xbf3f0de0	-0.74630547
39	0xbf9bae26	-1.2162521
40	0x3ee0beae	0.43895477
41	0x3f2a9b10	0.66642857
42	0xbeb8c6d0	-0.36089182
43	0xbeb3fb8b	-0.3515285
44	0x3dc940d4	0.09826818
45	0xbe6170d8	-0.22015703
46	0x3e93c386	0.2886011
47	0x3f18daaf	0.59708685
48	0xbe2ee543	-0.17079644
49	0x3ed042ee	0.40676063
50	0x3f389455	0.72101337
51	0xbe1b50e5	-0.15167578
52	0xbe794461	-0.2434249
53	0x3e894699	0.26811674
54	0x3ec815fa	0.39079267
55	0xbd9e15da	-0.077190116
56	0x3f10d94e	0.5658158
57	0xbd80be50	-0.06286299
58	0xbd6809b1	-0.056649867
59	0xbd6aa85e	-0.057289474
60	0xbedbfe05	-0.4296724
61	0xbe89f2b5	-0.26942983
62	0xbee0b53f	-0.4388828
63	0x3efe9e11	0.4972997
64	0x3e688469	0.2270676
65	0xbe6c137b	-0.23054306
66	0xbe04d7db	-0.12972967
67	0x3f210519	0.62898403
68	0xbec5ca3b	-0.38630852
69	0x3e1e15a0	0.15437937
70	0xbf217e97	-0.63083786
71	0x3eda0daf	0.42588565
72	0x3ebd407c	0.3696326
73	0xbf0f974e	-0.5609025
74	0xbe3c8e71	-0.18413712
75	0x3e586260	0.21131277
76	0xbe91b1cd	-0.28455964
77	0x3e10177a	0.14071456
78	0x3dd88f73	0.10574236
79	0x3e5a33c9	0.21308817
80	0xbd700bf3	-0.058605146
81	0xbe85e753	-0.2615305
82	0xbd0416f5	-0.032248456
83	0xbe0bb6f5	-0.13644011
84	0x3e63b74e	0.22237894
85	0x3b827542	0.0039812634
86	0x3cf4421c	0.02981668
87	0xbe092a44	-0.1339503
88	0xbc65a347	-0.014015979
89	0x3ce27931	0.02764568
90	0x3e901185	0.28138366
91	0xbdb5d8ce	-0.08879243
92	0x3eb900df	0.36133477
93	0xbe36a615	-0.17836793
94	0xbe56b39c	-0.20966953
95	0x3e175aa7	0.14780675
96	0xbf058afa	-0.52165186
97	0xbf12de60	-0.5737057
98	0xbeb283e6	-0.34866256
99	0xbed4c579	-0.4155691
100	0xbe2b9eef	-0.16759847
101	0xbe821ece	-0.25414127
102	0xbcc42865	-0.023945043
103	0x3dfd4973	0.12367525
104	0x3eaf4a2d	0.3423628
105	0xbd88de8b	-0.06683072
106	0xbb65b098	-0.0035047885
107	0xbc957ab3	-0.018246984
108	0xbe29aee6	-0.16570625
109	0xbf2dd360	-0.6790066
110	0xbf191ab6	-0.5980638
111	0xbcd0353e	-0.025416013
112	0xbe357da5	-0.17723711
113	0xbe1f18f8	-0.15536869
114	0x3e42839b	0.18995516
115	0xbdea7e66	-0.1144989
116	0xbf34085e	-0.7032527
117	0xbd11bc63	-0.03558005
118	0xbd5e3b9c	-0.054256067
119	0x3ea39b32	0.31954342
120	0x3d1c7b24	0.038203374
121	0xbe7c44fe	-0.24635693
122	0xbdb9c4cd	-0.0907074
123	0xbedcbc21	-0.4311228
124	0xbf293b79	-0.66106373
125	0x3bcf4e82	0.0063264975
126	0xbe10685f	-0.14102314
127	0xbea3fa4b	-0.32026896
128	0xbf115880	-0.56775665
129	0x3e0093a9	0.12556328
130	0x3e70c36b	0.23512046
131	0x3f0bafbe	0.54565036
132	0xbebd5abe	-0.36983293
133	0xbd060990	-0.032723963
134	0xbf44c07e	-0.7685622
135	0x3ea13302	0.31484228
136	0x3f0b89d7	0.545072
137	0x3d8d51da	0.069003776
138	0x3d793c99	0.060848806
139	0xbd004832	-0.03131885
140	0xbee66e24	-0.45005906
141	0xbe077262	-0.13227227
142	0xbee4742f	-0.4461989
143	0xbf0ca012	-0.5493175
144	0x3e130b24	0.14359719
145	0xbe143070	-0.14471602
146	0x3f44e8aa	0.7691752
147	0x3ba79c94	0.005115101
148	0x3df55cf4	0.1198062
149	0xbdf8282f	-0.121170394
150	0x3ce30dd5	0.027716557
151	0xbe3b67c4	-0.18301302
152	0xbef78278	-0.48341727
153	0x3e85260f	0.260056
154	0x3ea880a6	0.3291065
155	0xbe41d890	-0.18930268
156	0x3efe1602	0.49626166
157	0x3de48bff	0.11159515
158	0x3e385ce7	0.1800419
159	0x3e9252c1	0.2857876
160	0xbe7cf5b5	-0.24703105
161	0xbe80bc6c	-0.25143754
162	0x3ea9f4bb	0.33194527
163	0x3d898e20	0.06716561
164	0xbe834edb	-0.256461
165	0x3efcb6cd	0.49358216
166	0x3d1984de	0.037480228
167	0xbdb59b6e	-0.088675365
168	0xbde7506b	-0.112946354
169	0xbe6087df	-0.2192683
170	0x3db1f7ec	0.086898655
171	0x3f1249da	0.5714394
172	0x3ef77ec0	0.4833889
173	0xbf4a1599	-0.78939205
174	0x3e893c0b	0.26803622
175	0xbe3b090c	-0.1826517
176	0xbed8aa95	-0.42317644
177	0xbd8c830b	-0.06860932
178	0x3ca9b787	0.020717395
179	0x3cd60cfd	0.02612924
180	0xbe76cfd2	-0.24102715
181	0xbeb7a98b	-0.3587154
182	0x3fa09ac2	1.2547228
183	0xbdf995bd	-0.121867634
184	0xbe65086f	-0.22366498
185	0xbb89788c	-0.0041952785
186	0x3e6de082	0.23230174
187	0x3e1bea6b	0.15226142
188	0xbd1b2a59	-0.037882183
189	0x3d88029c	0.06641123
190	0xbe546d89	-0.2074491
191	0xbe1af498	-0.15132368

actor.init_internal_node_embed.0.add_bias._bias f4 [32, 1]
0	0x3c97e29f	0.018540679
1	0xbe4595ad	-0.19295378
2	0xbbef150c	-0.00729621
3	0xbcb9c891	-0.022678645
4	0x3e15590a	0.14584747
5	0x3d0093b5	0.031390864
6	0x3b9cfe1a	0.0047910335
7	0xbbd02263	-0.0063517555
8	0x3d37eb40	0.044902086
9	0x3dd76b93	0.10518565
10	0x3b8420b5	0.0040322193
11	0x3c91fee7	0.017821742
12	0xbb53ce10	-0.0032318868
13	0xb9dcfbca	-0.00042149267
14	0xbc5a9a6d	-0.013342482
15	0x3ce8a1a7	0.028397394
16	0xbea839c4	-0.32856572
17	0xbd78ba9d	-0.060724843
18	0x3d2eb67d	0.042654503
19	0x3a5ed078	0.0008499692
20	0xbe9102a8	-0.2832234
21	0x3d64e877	0.05588576
22	0x3d5ce5a9	0.05392996
23	0x3dfb5fb3	0.122741126
24	0x3d07eff5	0.033187825
25	0x3abcafe1	0.0014395678
26	0x3bc5a218	0.006031286
27	0x3d980316	0.074224636
28	0x3ce9651d	0.028490597
29	0xbd439e5b	-0.04775844
30	0x3d801bf0	0.06255329
31	0xbd919a46	-0.071095034

actor.init_internal_node_embed.2.module.weight f4 [64, 32]
0	0x3dec022b	0.11523851
1	0x3e326b29	0.17423691
2	0x3dbd1da0	0.09234166
3	0x3e03e2fe	0.1287956
4	0xbde50594	-0.111827046
5	0x3de430ea	0.11142142
6	0x3dbbca1d	0.091694094
7	0x3effe2f5	0.49977842
8	0x3e870574	0.26371348
9	0xbd8fb2b2	-0.07016505
10	0x3f432e58	0.7624259
11	0x3db68c75	0.08913509
12	0x3debd09d	0.11514399
13	0xbe61ca2a	-0.22049776
14	0xbf296b6d	-0.66179544
15	0x3e9b09c7	0.30280897
16	0xbcaf4ca9	-0.02139886
17	0x3e0f7d42	0.14012626
18	0x3ccdf0e8	0.025139287
19	0x3e8b0dba	0.2715891
20	0xbe63b2f0	-0.22236228
21	0x3e1af6a6	0.15133151
22	0x3f8e5849	1.1120692
23	0xbd873452	-0.06601776
24	0x3f0066d5	0.5015691
25	0x3e8bb036	0.27282876
26	0x3e090fa0	0.13384867
27	0x3e8012ee	0.25014442
28	0x3ead6226	0.33863944
29	0xbdbd4f35	-0.09243623
30	0xbd064fa2	-0.032790788
31	0x3c86ad8a	0.016440172
32	0x3eb6899e	0.3565187
33	0x3d983637	0.07432216
34	0xbef0ea42	-0.47053725
35	0xbf023438	-0.5086093
36	0x3d86858a	0.06568439
37	0x3e91665a	0.283984
38	0x3dc4f58e	0.09617148
39	0xbec63802	-0.38714606
40	0xbe94de67	-0.2907593
41	0x3d9a2dfe	0.075283036
42	0x3f090b4b	0.53532857
43	0x3e8f543e	0.2799396
44	0x3e9feb4b	0.31234202
45	0x3dd7580d	0.10514841
46	0x3c00ba6f	0.007856949
47	0x3e9cc236	0.3061692
48	0xbd7f0bbf	-0.06226706
49	0x3c82e934	0.01598034
50	0xbe0f12e7	-0.13972054
51	0xbdf4945e	-0.11942361
52	0x3d15fef5	0.0366201
53	0x3ed4b7ce	0.41546482
54	0x3f5b7b62	0.8573514
55	0x3eb24ed6	0.34825772
56	0xbd96689f	-0.07344174
57	0x3c873be5	0.016508052
58	0x3d52495b	0.05133949
59	0x3dab81fd	0.08374403
60	0x3f09c8f2	0.53822243
61	0x3e74df04	0.23913199
62	0xbd217327	-0.03941646
63	0xbdaced7c	-0.08443734
64	0xbe825a16	-0.25459355
65	0xbd05866c	-0.032598898
66	0x3f083f2f	0.5322141
67	0x3ef4c4a7	0.47806284
68	0x3ecbefb4	0.39831316
69	0xbc808dd1	-0.015692623
70	0xbe1f2b8b	-0.15543954
71	0x3f5a1700	0.85191345
72	0xbdb30290	-0.08740723
73	0xbdb2bf7e	-0.087279305
74	0xbef439cd	-0.47700348
75	0xbf000d7f	-0.50020593
76	0xbd86c8a9	-0.06581242
77	0x3e2d5ef8	0.16930759
78	0x3e82189b	0.25409397
79	0xbeb08c37	-0.34481975
80	0xbe0577a0	-0.13033915
81	0x3e45941d	0.19294782
82	0x3cc9e84e	0.024646904
83	0xbed8634f	-0.42263266
84	0xbd158450	-0.036503136
85	0x3e9a0efd	0.3008956
86	0xbe77b395	-0.24189599
87	0xbe6348d7	-0.22195755
88	0xbb95b02c	-0.0045681205
89	0xbdb78481	-0.0896082
90	0x3e53ff95	0.20702966
91	0x3e266d67	0.16252671
92	0x3e177324	0.14790016
93	0xbe0e0522	-0.13869146
94	0x3e1cfb49	0.15330233
95	0x3d5ac2e7	0.05340853
96	0xbd79e63b	-0.06101058
97	0xbe51b555	-0.20479329
98	0x3d8ca448	0.06867272
99	0x3ee66d36	0.45005196
100	0x3e549d6d	0.20763178
101	0xbd1378ef	-0.036004003
102	0x3cfb6de6	0.030692052
103	0x3c9ea762	0.019366924
104	0x3e8237c8	0.25433183
105	0x3dea30cf	0.11435091
106	0x3d243aad	0.04009502
107	0x3bcc146c	0.0062280204
108	0xbe941944	-0.28925526
109	0x3d4d12c9	0.050066743
110	0xbea2dbb9	-0.3180826
111	0x3e0ffc98	0.140612
112	0x3de60999	0.11232299
113	0xbe8730bf	-0.26404378
114	0x3da1c88a	0.07899578
115	0x3e1fc22f	0.15601419
116	0xbe818815	-0.25299135
117	0x3edf56f6	0.43621033
118	0xbea06dfd	-0.31333914
119	0x3dd88141	0.10571528
120	0x3ebc8899	0.36822966
121	0xbdb09ab0	-0.08623254
122	0x3e227b2d	0.158673
123	0x3ead1eb7	0.33812496
124	0x3e10bcea	0.14134565
125	0xbdaaec99	-0.08345909
126	0xbe29cd08	-0.1658212
127	0x3e4b2a07	0.19840251
128	0x3ea6d575	0.3258473
129	0xbdcd4bd8	-0.10024232
130	0xbe3543ff	-0.1770172
131	0x3ba75f60	0.005107805
132	0xbf28bf6c	-0.65917087
133	0xbd73f3be	-0.059558623
134	0x3e91301c	0.28357017
135	0xbf38dd12	-0.72212327
136	0xbf117c87	-0.5683064
137	0x3ecdff8a	0.40234023
138	0x3e9849d6	0.29743832
139	0x3ecd9b68	0.40157628
140	0xbdfe2c69	-0.12410814
141	0xbe4cd8e2	-0.20004609
142	0x3e4d3b33	0.20042114
143	0xbd86dbff	-0.0658493
144	0x3c9a74cc	0.018854521
145	0xbdadf258	-0.08493489
146	0x3d0a855e	0.033818595
147	0xbc61e199	-0.013786697
148	0xbe0e524e	-0.13898584
149	0x3ec8f47c	0.39249027
150	0x3dea0b53	0.11427941
151	0x3d90ff5d	0.07079957
152	0xbe8145e0	-0.25248623
153	0x3e9e041d	0.30862513
154	0x3eafa6f4	0.34307063
155	0x3e1433f5	0.14472945
156	0x3f01d311	0.50712687
157	0x3d38722f	0.04503077
158	0x3da329ee	0.07966982
159	0xbde30c45	-0.110863246
160	0xbe925830	-0.28582907
161	0xbddcd911	-0.1078359
162	0x3ca3d445	0.019998679
163	0xbcbaf142	-0.022820119
164	0x3f482232	0.7817718
165	0xbe67aafe	-0.22623822
166	0xbe26f47d	-0.16304202
167	0x3ea8c23c	0.3296069
168	0x3d3c81b8	0.046022147
169	0xbe8d4ede	-0.27599233
170	0x3f5ab41a	0.85431063
171	0xbeb8c441	-0.3608723
172	0x3dd0f34a	0.10202654
173	0xbdbb9bfb	-0.0916061
174	0x3e1556ee	0.14583942
175	0x3e74a0d6	0.23889479
176	0x3e58dcd4	0.21177989
177	0x3e332fc6	0.17498693
178	0xbd76542f	-0.060138877
179	0xbda033a1	-0.078223474
180	0xbced2519	-0.028948354
181	0x3dc3ed6b	0.09566768
182	0x3ee3f5e3	0.44523534
183	0xbef676dc	-0.48137558
184	0x3e4e8b58	0.20170343
185	0x3e98bbba	0.29830724
186	0x3e5434fc	0.20723337
187	0x3ef8e84d	0.4861473
188	0x3d1704db	0.036869865
189	0xbd9fa1f2	-0.077945605
190	0x3d5357bf	0.051597353
191	0x3e993c9a	0.29929048
192	0x3e9c2232	0.3049484
193	0x3bc64653	0.006050864
194	0x3d8905e9	0.066905804
195	0x3d8c8a7e	0.06862353
196	0x3f084582	0.5323106
197	0xbc1acbe5	-0.009448026
198	0xbe600396	-0.21876368
199	0x3ea6c543	0.32572374
200	0x3dbddd53	0.0927073
201	0xbd72a765	-0.05924167
202	0x3e3c0d2b	0.18364398
203	0xbe2c151a	-0.16804925
204	0xbe944d1c	-0.2896508
205	0xbd8bae6f	-0.0682038
206	0x3de7f09d	0.1132519
207	0xbef84d66	-0.4849655
208	0x3c25b6a3	0.010114345
209	0xbec0f6c6	-0.37688273
210	0x3caa0350	0.020753533
211	0xbc99784d	-0.018734122
212	0xbbbfcd5e	-0.005853339
213	0x3da8b430	0.08237493
214	0xbd03384d	-0.032036114
215	0x3d528e51	0.051405255
216	0xbe717adb	-0.23582022
217	0xbd0cc4f6	-0.034367524
218	0xbe614b4b	-0.22001378
219	0x3e9d6008	0.3073733
220	0xbecc3958	-0.398875
221	0x3d891182	0.066927925
222	0xbe397814	-0.18112212
223	0xbdab8133	-0.08374252
224	0xbdf1798d	-0.11790762
225	0xbde2bed8	-0.11071557
226	0xbee8338b	-0.45351824
227	0xbeaf8ca5	-0.3428699
228	0xbe3f7006	-0.18695077
229	0xbcec155a	-0.028818775
230	0x3e40ba2a	0.18821016
231	0xbce62691	-0.028094562
232	0x3d341c20	0.043972135
233	0x3dfbf953	0.12303414
234	0x3f063db7	0.5243792
235	0x3ecf1fd5	0.40453973
236	0xbe2f7aae	-0.17136642
237	0x3e1e7b14	0.15476638
238	0xbda04c86	-0.07827096
239	0xbdfd36ee	-0.12363993
240	0xbd24a941	-0.040200476
241	0xbea13143	-0.31482896
242	0x3e4973b1	0.19673039
243	0x3e158896	0.14602885
244	0x3c92259a	0.017840195
245	0xbe355d5c	-0.17711395
246	0x3f4694ea	0.77570975
247	0xbd1cc2fb	-0.038271885
248	0xbe9566d7	-0.29180023
249	0x3e3840d8	0.17993486
250	0xbe744228	-0.23853362
251	0xbe403e1f	-0.18773697
252	0x3f33a4c3	0.7017328
253	0x3e5ed3e9	0.21760525
254	0x3e9e0dc5	0.3086988
255	0xbe034541	-0.12819387

actor.init_internal_node_embed.2.add_bias._bias f4 [64, 1]
0	0x3e2adaf6	0.1668509
1	0x3e915eb9	0.2839258
2	0xbd87602a	-0.06610139
3	0x3db0a718	0.086256206
4	0x3de0fb4e	0.109854326
5	0x3e96a6c7	0.29424116
6	0x3cf6f9fe	0.030148502
7	0x3e47e46a	0.19520727
8	0xbd921ccf	-0.07134401
9	0xbd8d8286	-0.06909661
10	0x3c9c9d84	0.019118078
11	0x3d1fbc06	0.038997672
12	0xbd779f14	-0.060454443
13	0x3e1661a0	0.14685678
14	0x3e24e21a	0.16101876
15	0x3dfed51a	0.1244299
16	0xbc9f1840	-0.019420743
17	0xbe3b41eb	-0.18286864
18	0xbc06d340	-0.008229077
19	0x3dba4050	0.09094298
20	0xbd2b21c7	-0.04178026
21	0x3d7ac6f2	0.061224885
22	0xbd8f67d5	-0.07002226
23	0xbdf612b6	-0.120152876
24	0x3e1a43eb	0.15064971
25	0x3cb67687	0.022273315
26	0x3d106a68	0.035257727
27	0x3d75f528	0.060048252
28	0xbe04ee7d	-0.12981601
29	0xbd23ddd6	-0.04000648
30	0xbabc8ac2	-0.0014384615
31	0xbd0e62f0	-0.034762323
32	0x3c827116	0.015923064
33	0x3d4d1469	0.050068293
34	0x3e96988c	0.2941326
35	0xbdcfa490	-0.1013881
36	0x3d2afec5	0.041746873
37	0xbe38d2cf	-0.18049167
38	0xbd13dca8	-0.036099106
39	0x3e298b69	0.16557087
40	0xbd354e92	-0.044264384
41	0xbe6030ba	-0.21893588
42	0x3e230630	0.15920329
43	0x3c5ef49d	0.013608125
44	0xbe2f711c	-0.17132992
45	0xbcf427cd	-0.029804135
46	0xbe9f5790	-0.31121492
47	0xbe84c25a	-0.25929528
48	0x3e609fea	0.21936002
49	0x3c9e4213	0.019318616
50	0x3d9d8529	0.07691414
51	0x3d76cc11	0.060253207
52	0x3d33e225	0.04391684
53	0x3b399889	0.0028319678
54	0xbc71d621	-0.014760525
55	0x3e89d2a9	0.26918533
56	0x3e66f0eb	0.2255284
57	0xbd9cc657	-0.07655018
58	0xbd165bfb	-0.036708813
59	0x3dd1f5c6	0.10251956
60	0x3daab024	0.083343774
61	0x3d86d935	0.06584398
62	0xbd07291c	-0.03299819
63	0x3d14d7a0	0.03633845

actor.init_leaf_node_embed.0.module.weight f4 [32, 8]
0	0xbda61562	-0.08109547
1	0xbeb1100b	-0.34582552
2	0xbec7fc89	-0.39059857
3	0xbd882ffa	-0.06649776
4	0x3e2cb920	0.16867495
5	0x3ebcd524	0.36881363
6	0x3efdbaae	0.49556488
7	0x3e8a0761	0.26958755
8	0xbeb85d47	-0.36008665
9	0xbf2761bd	-0.6538351
10	0xbdb47d0f	-0.088129155
11	0xbeb34511	-0.3501363
12	0xbe83a207	-0.25709555
13	0x3eb0a633	0.345018
14	0xbcb4d3e4	-0.022073694
15	0x3ebabde5	0.36473003
16	0x3e41ab27	0.18912946
17	0xbeb91e37	-0.36155865
18	0xbe142c4b	-0.14470021
19	0x3ed8ece0	0.4236822
20	0xbc453648	-0.012036867
21	0xbe9e0ac3	-0.30867586
22	0xbd682d08	-0.05668357
23	0xbd8a1e79	-0.067440934
24	0xbed01ab4	-0.40645373
25	0xbe52524c	-0.20539206
26	0xbe7b7928	-0.24557936
27	0xbe7fbf45	-0.24975307
28	0x3eaed67d	0.34148017
29	0x3d32fe38	0.043699473
30	0x3ee70d99	0.45127562
31	0x3de9e4b1	0.114205725
32	0xbd738fc2	-0.05946327
33	0xbe3f0f6d	-0.18658228
34	0x3d8ae1d2	0.06781353
35	0x3e0c4433	0.13697891
36	0x3ebeae6d	0.3724245
37	0x3e068b39	0.13139047
38	0xbeff5005	-0.49865738
39	0x3ec852a0	0.39125538
40	0x3db4c79e	0.088271365
41	0x3e18c59a	0.14919129
42	0xbf079688	-0.5296407
43	0x3e272ae8	0.16324961
44	0xbef0b894	-0.47015822
45	0x3f06068b	0.52353734
46	0xbdfaade4	-0.12240198
47	0xbe838a89	-0.2569163
48	0xbeb3ba83	-0.35103235
49	0xbe26785e	-0.16256854
50	0xbd50db27	-0.05099025
51	0x3d2de038	0.04245016
52	0x3e0baf9e	0.13641211
53	0xbe42d47e	-0.19026372
54	0xbdcc6865	-0.09980849
55	0xbde01580	-0.10941601
56	0x3ebb5aa1	0.36592582
57	0xbeddb4c9	-0.4330199
58	0x3e772c06	0.24137887
59	0x3eec9a66	0.46211547
60	0xbd30743e	-0.043079607
61	0x3ecb97de	0.39764303
62	0x3d381e3e	0.044950716
63	0x3e66c219	0.2253498
64	0x3dd99af5	0.10625259
65	0x3e0dff79	0.13866986
66	0xbe25c5ff	-0.16188811
67	0x3ea94b33	0.33065185
68	0x3dae885f	0.085221045
69	0x3dbb61e6	0.09149532
70	0x3efb1266	0.49037474
71	0x3eb22f08	0.34801507
72	0xbdb517a6	-0.08842401
73	0x3eab55f2	0.3346401
74	0xbe3b0eee	-0.18267414
75	0x3e9a710d	0.30164376
76	0x3cfcb765	0.030849168
77	0xbdf3ccfb	-0.11904331
78	0x3ee7a1b2	0.4524055
79	0xbe9905c9	-0.29887226
80	0x3d968387	0.073493056
81	0x3dedbd58	0.1160838
82	0x3e9392d8	0.2882297
83	0xbdc947e7	-0.098281674
84	0x3eaafd3f	0.33396336
85	0xbcc30aa4	-0.023808785
86	0xbe45b2c8	-0.19306481
87	0x3cad61e2	0.021164838
88	0xbe818b79	-0.25301722
89	0x3d5198cf	0.05117112
90	0x3e3baab7	0.18326841
91	0x3d8471bf	0.06467008
92	0x3ee61c37	0.449434
93	0x3dddeea1	0.108365305
94	0xbc888392	-0.0166643
95	0xbeb7411b	-0.3579186
96	0x3ec85683	0.39128503
97	0x3d7e827b	0.062136155
98	0x3f115268	0.56766367
99	0xbeaf5451	-0.34244016
100	0xbd960257	-0.07324665
101	0xbd8d3e5c	-0.0689666
102	0x3ebbf32c	0.36708963
103	0xbdeec120	-0.116579294
104	0xbe905fe4	-0.2819816
105	0x3d05f054	0.032699898
106	0x3e9bc703	0.3042527
107	0xbe408d78	-0.18803966
108	0xbe4a68ba	-0.19766513
109	0xbe638404	-0.22218329
110	0x3eb62cc3	0.35581025
111	0x3d9c2aa3	0.0762532
112	0x3e348180	0.17627525
113	0xbd056c27	-0.032573845
114	0x3e27fb76	0.16404518
115	0x3ee93f75	0.45556226
116	0x3dfc0ce8	0.12307149
117	0x3ed2599e	0.41083997
118	0x3de94312	0.11389746
119	0xbd94f0af	-0.07272469
120	0x3efc0df9	0.4922941
121	0x3de16246	0.11005072
122	0xbdf75bf4	-0.120780855
123	0xbf00cd17	-0.5031294
124	0x3e5a389b	0.21310656
125	0x3eed622a	0.46363956
126	0x3d124a72	0.035715528
127	0xbe9c02cf	-0.30470893
128	0xbd7aa069	-0.061188135
129	0x3dcbd4a8	0.0995267
130	0xbe96cdaa	-0.29453784
131	0x3eba949b	0.36441502
132	0x3e32068a	0.17385307
133	0x3cbd46f1	0.023105117
134	0xbe77f7e4	-0.24215657
135	0x3da090b2	0.078400984
136	0xbdcf93e6	-0.10135631
137	0x3ebbf18e	0.3670773
138	0x3dc8dba8	0.09807521
139	0x3dc44cea	0.09584983
140	0xbe8a8b73	-0.27059516
141	0x3db86a96	0.09004705
142	0x3e3de466	0.18544158
143	0x3e936ec6	0.2879545
144	0xbe43a09a	-0.19104233
145	0x3d7dee56	0.061994873
146	0x3d885254	0.06656328
147	0xbeba8f54	-0.36437476
148	0xbe810424	-0.25198472
149	0x3eba8ce2	0.3643561
150	0x3d48bb5c	0.049006805
151	0x3df4d329	0.11954338
152	0xbebe4732	-0.37163693
153	0x3dd4f693	0.10398593
154	0xbdd0b515	-0.10190789
155	0x3e86599a	0.26240236
156	0x3daa1f6d	0.08306775
157	0x3f04821e	0.51761043
158	0xbdb772ae	-0.0895742
159	0x3dd91ab7	0.106007986
160	0xbe7a564e	-0.24446985
161	0xbe8c60ec	-0.27417696
162	0xbe9ccff8	-0.30627418
163	0xbd37e90d	-0.04489999
164	0x3cd15e3a	0.025557626
165	0x3ed55295	0.41664568
166	0xbe10a5a2	-0.14125684
167	0xbe862f68	-0.26208043
168	0x3e134f50	0.14385724
169	0xbe135c6b	-0.14390723
170	0x3ef4d1b6	0.47816247
171	0xbdf29828	-0.11845428
172	0x3c9bab91	0.019002708
173	0xbddc9e46	-0.10772376
174	0xbe47a64e	-0.19497034
175	0x3d6d99a4	0.05800785
176	0xbea2bf85	-0.31786743
177	0x3eb6ced2	0.35704666
178	0x3c076a06	0.008265024
179	0x3ea0e5b5	0.31425253
180	0x3e7bbc64	0.24583584
181	0x3e3b39be	0.18283746
182	0x3df1c9c3	0.11806061
183	0x3e076341	0.13221456
184	0xbe941d0d	-0.28928414
185	0xbe170021	-0.14746143
186	0x3d9c903c	0.07644698
187	0xbd945918	-0.07243556
188	0x3eeabbf8	0.45846534
189	0xbd4da92a	-0.050210156
190	0xbd17a27f	-0.037020203
191	0xbd7e7b2a	-0.062129177
192	0x3d83b623	0.06431224
193	0x3da29d1a	0.07940121
194	0x3e85ac7d	0.2610816
195	0xbcb2edba	-0.021841872
196	0x3e67e98b	0.22647683
197	0x3d704bb0	0.05866593
198	0xbc8cbb4c	-0.017179154
199	0x3efce8d4	0.49396384
200	0x3e997680	0.2997322
201	0x3e5a8534	0.21339875
202	0xbef92823	-0.48663434
203	0xbea48006	-0.32128924
204	0x3d203c82	0.039120205
205	0xbcb633a9	-0.02224143
206	0x3d3fcb40	0.046824694
207	0xbe99970f	-0.2999806
208	0x3e7ea237	0.24866568
209	0xbe32d56e	-0.1746423
210	0x3e0b928d	0.13630123
211	0x3ed095a9	0.40739182
212	0x3e261f37	0.16222845
213	0x3de63828	0.1124118
214	0x3ee3f336	0.44521493
215	0xbe8e7b1c	-0.278283
216	0x3d404b54	0.04694684
217	0xbe33bbfb	-0.17552178
218	0xbec1cf10	-0.3785329
219	0x3e097564	0.13423687
220	0x3f1a8c21	0.6037007
221	0xbd8497ad	-0.06474242
222	0x3e5e31ba	0.21698657
223	0x3eba74ee	0.36417335
224	0x3e99bb66	0.30025786
225	0xbe143411	-0.14472987
226	0xbe3c5ec1	-0.18395521
227	0xbe12eafc	-0.14347452
228	0xbbf6344e	-0.0075135594
229	0xbed4d1fc	-0.41566455
230	0x3dd158bd	0.102220036
231	0x3e500625	0.20314844
232	0x3ddf952e	0.10917126
233	0x3e78003f	0.24218844
234	0xbe408dff	-0.18804167
235	0xbe56656c	-0.20937127
236	0x3e965643	0.29362687
237	0x3c21cbde	0.009875266
238	0xbe5e4b3e	-0.2170839
239	0x3e28dc8f	0.16490386
240	0x3e84aae6	0.25911635
241	0x3ed17a9f	0.40913865
242	0xbedb433b	-0.4282473
243	0xbe3d7a03	-0.18503575
244	0xbe6c28c7	-0.2306243
245	0xbe1b15c2	-0.15145019
246	0xbd100d71	-0.03516907
247	0x3ee99f59	0.45629385
248	0x3dec0c8e	0.11525832
249	0x3ed57435	0.4169022
250	0xbd89ff98	-0.06738204
251	0xbe603bae	-0.21897766
252	0x3dec5659	0.11539907
253	0x3ec8f9af	0.39252993
254	0x3e303c45	0.17210491
255	0xbdc6d1b5	-0.09707967

actor.init_leaf_node_embed.0.add_bias._bias f4 [32, 1]
0	0x3c4646cd	0.012101841
1	0x3ccdbd86	0.025114786
2	0x3c015127	0.007892883
3	0x3c08e9af	0.008356496
4	0xbdea9424	-0.11454037
5	0x3c7a710b	0.015285741
6	0xbc7143dd	-0.0147256525
7	0xbccf14f5	-0.025278548
8	0x3da1e18f	0.0790435
9	0x3d0e7e67	0.034788515
10	0x3d17076c	0.036872312
11	0xbcf820ed	-0.030289138
12	0x3ac59dbe	0.0015076918
13	0xbd4c6bda	-0.049907543
14	0x3e05c8e4	0.13064915
15	0x3b59f9e9	0.003326053
16	0xbd218785	-0.039435882
17	0xbd45dd69	-0.048306856
18	0x3c27e2c1	0.010246933
19	0xbb83d202	-0.0040228376
20	0x3d1094e5	0.035298247
21	0x3d1efec3	0.03881718
22	0x3df5fed4	0.12011495
23	0xbcab3a24	-0.020901747
24	0x3c3cc0b5	0.011520554
25	0x3c3dbb13	0.0115802465
26	0x3dbbbc47	0.091667704
27	0xbcb204d6	-0.021730822
28	0xbdeab129	-0.11459572
29	0x3b416570	0.0029509924
30	0xbb603f20	-0.0034217313
31	0xbe1b973d	-0.15194412

actor.init_leaf_node_embed.2.module.weight f4 [64, 32]
0	0x3e47c696	0.19509348
1	0x3ecabbac	0.39596307
2	0x3dd88378	0.10571951
3	0x3e1a27e4	0.1505428
4	0xbe862210	-0.26197863
5	0x3e9cad1f	0.3060083
6	0x3e99ebb3	0.30062637
7	0xbe82166c	-0.25407732
8	0x3d525581	0.051351074
9	0x3e0c39de	0.1369395
10	0xbc34f81b	-0.011045481
11	0xbd9cc34e	-0.07654439
12	0xbeb634d7	-0.3558719
13	0xbe1497f1	-0.14511086
14	0x3e277dd2	0.1635659
15	0x3df16ff9	0.11788935
16	0x3e80bb96	0.25143117
17	0xbdc7bacc	-0.097524256
18	0x3e86784b	0.2626365
19	0x3e8fb2e3	0.28066167
20	0x3f21fe69	0.63278824
21	0xbf052b15	-0.5201886
22	0x3f19c8f6	0.6007227
23	0x3ebff48c	0.37491262
24	0x3c124f99	0.00893011
25	0x3d5a43b4	0.053287223
26	0xba2c28cc	-0.00065673585
27	0x3eed9ccd	0.46408692
28	0xbe0079b6	-0.12546429
29	0x3ddd7496	0.10813253
30	0x3e706cdc	0.23479027
31	0xbe9c2953	-0.30500278
32	0xbe65e28c	-0.22449702
33	0xbe175c0f	-0.14781211
34	0xbd806656	-0.06269519
35	0xbe340e6f	-0.17583631
36	0xbe8e0a23	-0.2774211
37	0x3e8d3c28	0.27584958
38	0xbe73d58c	-0.2381193
39	0x3e7ccf0f	0.24688362
40	0x3e91e919	0.28498152
41	0xbea3dfb1	-0.320066
42	0x3dd59568	0.104288876
43	0xbe00a7e3	-0.12564044
44	0x3e324606	0.17409524
45	0x3d245f07	0.040129688
46	0x3d4fde52	0.05074913
47	0x3d9dc731	0.07704008
48	0x3e3af732	0.1825836
49	0x3df3fd56	0.11913554
50	0x3da531d2	0.08066143
51	0xbf007d54	-0.50191236
52	0xbeb135ab	-0.34611258
53	0x3f0e7504	0.556473
54	0x3e2a9227	0.16657315
55	0x3e745244	0.23859507
56	0x3e07acd3	0.13249521
57	0x3e2c0f61	0.16802742
58	0x3dff1586	0.12455277
59	0xbd287021	-0.04112256
60	0x3daa05eb	0.0830191
61	0x3c86ab97	0.016439242
62	0x3e731737	0.23739325
63	0xbe3b1e26	-0.1827322
64	0xbd8995bb	-0.06718012
65	0x3d2b3abe	0.041804068
66	0x3db98c19	0.09059925
67	0xbeac87b8	-0.33697295
68	0x3d881984	0.06645492
69	0xbe00958f	-0.12557052
70	0xbdf3fa91	-0.11913026
71	0xbc906394	-0.017625608
72	0xbea34bef	-0.3189387
73	0x3ee06529	0.4382718
74	0x3d8b871b	0.06812879
75	0x3d7f3983	0.062310707
76	0xbe824ae8	-0.25447774
77	0x3d379cb2	0.04482717
78	0x3e1f1037	0.15533529
79	0x3e034463	0.12819056
80	0xbebf21db	-0.37330517
81	0xbe45a06a	-0.19299474
82	0x3e04c21e	0.12964675
83	0x3d0b93b4	0.034076408
84	0x3b89f8b1	0.0042105545
85	0x3da4367b	0.08018204
86	0x3df7e149	0.121035166
87	0x3e1998c7	0.14999686
88	0x3eb67138	0.35633254
89	0xbc529dcb	-0.012855004
90	0x3e3aca06	0.18241128
91	0x3b72bdff	0.0037039516
92	0xbe20ab07	-0.15690242
93	0x3d5ddb8a	0.054164447
94	0xbf05d474	-0.522773
95	0xbe0f01ef	-0.13965581
96	0xbe52fec9	-0.20605005
97	0x3d4476b1	0.047964755
98	0xbec73150	-0.3890481
99	0x3ef7153c	0.48258388
100	0xbeaac35e	-0.33352178
101	0x3e6ecb96	0.2331985
102	0xbe1fb190	-0.15595078
103	0x3e04ba3b	0.12961666
104	0x3ca73df5	0.020415286
105	0x3e1ac483	0.15114026
106	0x3e26d070	0.1629045
107	0x3d8ab5be	0.06772946
108	0x3f1f06cd	0.6211975
109	0xbe849ceb	-0.2590097
110	0xbd9b7650	-0.07590926
111	0xbcd1869a	-0.025576878
112	0xbe24dd2b	-0.16099994
113	0x3eb37d78	0.35056663
114	0x3cc9c69d	0.024630839
115	0x3d31f4a1	0.043446187
116	0xbee14ac1	-0.44002345
117	0xbae16578	-0.0017196378
118	0xbdf708c7	-0.12062221
119	0xbdc28524	-0.09498051
120	0x3d01f802	0.03173066
121	0xbc913b46	-0.01772846
122	0x3e8536e9	0.26018456
123	0x3e4793b0	0.19489932
124	0x3e4c45a4	0.19948441
125	0xbdc21f02	-0.094785705
126	0xbd8b1b34	-0.06792298
127	0x3e2fd8c1	0.17172529
128	0xbe7463dc	-0.23866218
129	0xbeba7af8	-0.36421943
130	0xbe8f88fb	-0.28034195
131	0xbe0758a3	-0.13217406
132	0x3ce3db6e	0.027814593
133	0xbe903fe7	-0.28173754
134	0xbe62fe94	-0.22167426
135	0xbe5803dd	-0.21095224
136	0xbf1e85ef	-0.61923116
137	0x3e90ae99	0.28258207
138	0x3d63ab58	0.055583328
139	0xba254a1a	-0.00063052925
140	0x3edc6b3a	0.43050557
141	0xbc6db250	-0.014507845
142	0xbe77ce4b	-0.24199788
143	0x3e2a9bea	0.16661039
144	0x3d7dc52d	0.06195562
145	0xbdc26bfc	-0.09493253
146	0xbea65b54	-0.32491553
147	0xbe3f90e4	-0.18707615
148	0x3d9afe42	0.07568027
149	0x3e3187a0	0.17336893
150	0x3e013b16	0.12620196
151	0xbd14b2c2	-0.03630329
152	0xbe33c77e	-0.17556569
153	0x3cac3a60	0.02102393
154	0xbcb2c760	-0.021823585
155	0xbda5666e	-0.080761775
156	0xbdbdcdbf	-0.092677586
157	0x3aef939e	0.0018278246
158	0xbad36535	-0.0016128185
159	0xbe2701e2	-0.16309312
160	0xbde1c62e	-0.11024128
161	0x3e234106	0.15942773
162	0xbe3061fc	-0.17224878
163	0xbec49c7b	-0.38400635
164	0x3e168540	0.14699268
165	0x3dea96c9	0.11454541
166	0x3dbf2639	0.09333462
167	0xbe0d0747	-0.13772307
168	0xbea5084c	-0.32232893
169	0xbe03058f	-0.12795089
170	0x3d158c00	0.036510468
171	0x3d7379a8	0.059442192
172	0xbe4ce564	-0.2000938
173	0xbe6386f8	-0.22219455
174	0x3ed9d099	0.4254196
175	0xbe6259b7	-0.22104536
176	0x3e52f274	0.20600301
177	0x3cdfdbec	0.027326547
178	0x3d34be81	0.04412699
179	0xbd39122c	-0.045183346
180	0x3d829744	0.06376508
181	0xbdc0d447	-0.09415489
182	0xbe12a96a	-0.14322439
183	0xbe86185a	-0.26190454
184	0xbe551ca4	-0.20811707
185	0xbca65136	-0.020302396
186	0x3d54c5b0	0.051946342
187	0x3e9192d7	0.28432342
188	0xbd5482cd	-0.051882554
189	0xbd49d65a	-0.049276687
190	0xbdb9e6c5	-0.09077219
191	0xbd770764	-0.060309783
192	0xbe857400	-0.26065063
193	0xbece7ca7	-0.40329477
194	0xbecc6dd4	-0.39927542
195	0xbd921e8c	-0.071347326
196	0xbe3c2a2f	-0.18375467
197	0xbde62647	-0.112377696
198	0x3c5c9baf	0.013464852
199	0xba2d65a1	-0.000661457
200	0xbc2ba520	-0.010476381
201	0xbe018dcc	-0.12651747
202	0x3d44459c	0.047917947
203	0xbe2ed52a	-0.17073503
204	0x3e9f1360	0.3106947
205	0x3de9db4c	0.11418781
206	0xbe3d6c14	-0.1849826
207	0xbe52e7e8	-0.20596278
208	0xbe258f10	-0.16167855
209	0x3ee2f9ad	0.44331113
210	0x3dac3b37	0.08409732
211	0xbdb9c812	-0.090713635
212	0x3deef077	0.11666959
213	0x3e72e30b	0.23719423
214	0xbe155dd0	-0.14586568
215	0x3dee9f32	0.11651458
216	0x3e0a97e0	0.13534498
217	0x3e8b07c2	0.27154356
218	0xbe6a2d3a	-0.22868815
219	0xbcc89d1e	-0.024488982
220	0x3e1abdfa	0.15111533
221	0x3c3e3aca	0.011610696
222	0xbea4bfbe	-0.32177538
223	0x3d8bb309	0.068212576
224	0x3d96ccb9	0.073632665
225	0x3eb1e93b	0.34748253
226	0xbe9b6d88	-0.30357003
227	0xbe9b3fc7	-0.30322096
228	0xbeeeb4d1	-0.46622327
229	0xbe18bf38	-0.14916694
230	0x3e395d08	0.18101895
231	0xbe9429a5	-0.28938022
232	0xbd9d3298	-0.076756656
233	0xbd3ccf7f	-0.04609632
234	0x3b571f8b	0.0032825198
235	0xbe9a06f6	-0.30083436
236	0x3e5fa1b7	0.21839033
237	0xbea86905	-0.32892624
238	0xbef0d43b	-0.4703692
239	0x3cc591f7	0.024117453
240	0xbe5de89c	-0.21670765
241	0x3e050708	0.12990963
242	0xbd2f3465	-0.042774577
243	0xbe34b0b9	-0.1764554
244	0xbd9cd063	-0.07656934
245	0x3f2e910b	0.6819007
246	0xbd5d61b6	-0.054048263
247	0xbe9fec9f	-0.31235215
248	0xbd9aec1f	-0.07564568
249	0x3d35822f	0.044313606
250	0xbe3b0b2e	-0.18265983
251	0xbe9221bc	-0.28541362
252	0x3e3f3247	0.18671523
253	0xbebd9087	-0.37024328
254	0x3e092625	0.13393457
255	0xbd4fb7f2	-0.050712533

actor.init_leaf_node_embed.2.add_bias._bias f4 [64, 1]
0	0x3e829ecb	0.25511774
1	0x3e04e84b	0.12979238
2	0x3d36503e	0.04451012
3	0x3b969bd0	0.004596211
4	0xbe3a61ed	-0.18201418
5	0x3c94781e	0.018123683
6	0xbe58a258	-0.21155679
7	0xbe980715	-0.29692903
8	0xbe3f52ae	-0.18683884
9	0xbe25193c	-0.16122907
10	0x3e882682	0.2659188
11	0xbe186f80	-0.14886284
12	0x3dc2cf48	0.09512192
13	0xbde12856	-0.109940216
14	0xbdd1e711	-0.102491505
15	0xbd95f911	-0.07322896
16	0x3e1f5f73	0.15563755
17	0xbe02b085	-0.1276265
18	0xbe9feb50	-0.31234217
19	0xbd110fd3	-0.03541548
20	0x3d36a092	0.044586726
21	0x3daba7da	0.083816245
22	0x3c3105ab	0.010804574
23	0x3d8e1d83	0.06939223
24	0x3e71882e	0.23587105
25	0xbd63514b	-0.05549745
26	0xbca017f1	-0.019542666
27	0xbd98e063	-0.07464673
28	0xbe247d39	-0.16063394
29	0x3dcb0799	0.099135585
30	0xbe15901b	-0.14605753
31	0xbccb3a48	-0.024808064
32	0x3dcf4937	0.101213865
33	0xbd6bdacc	-0.057581708
34	0xbe374ef9	-0.1790122
35	0x3e17976d	0.14803858
36	0x3e652651	0.22377898
37	0xbcf73fd7	-0.030181808
38	0xbd22cf3a	-0.039748408
39	0xbe0b5527	-0.13606702
40	0x3d8cd802	0.06877138
41	0xbef986c9	-0.48735645
42	0x3e40e36a	0.18836752
43	0x3d767ded	0.060178686
44	0xbe1df632	-0.15425947
45	0xbd609926	-0.054833554
46	0xbe09e7a1	-0.13467266
47	0xbd3829f9	-0.044961903
48	0xbe720ac4	-0.2363692
49	0x3d3e2cab	0.046429317
50	0xbd59baa9	-0.05315653
51	0xbd480918	-0.048836797
52	0x3de2af40	0.110685825
53	0xbe14669f	-0.14492272
54	0xbe46674f	-0.19375347
55	0x3df87ea3	0.12133529
56	0xbbe80e35	-0.0070817717
57	0xbe7887c5	-0.24270542
58	0x3e51b407	0.20478831
59	0xbe8d7188	-0.2762568
60	0x3ddc5286	0.107579276
61	0xbdf2dcb6	-0.118585035
62	0x3d8fbf54	0.07018915
63	0x3b7cba7b	0.00385633

actor.init_next_embed.0.module.weight f4 [32, 6]
0	0x3e36e465	0.17860563
1	0xbe1761b2	-0.14783362
2	0xbe9909d2	-0.29890305
3	0xbec832ae	-0.39101166
4	0xbe1f60b5	-0.15564235
5	0xbe10f397	-0.14155422
6	0x3c5e8782	0.013582112
7	0xbdc7ff51	-0.097654946
8	0x3e3f5108	0.18683255
9	0xbe0fd8fa	-0.14047614
10	0xbe1cf08f	-0.15326141
11	0xbe4a7eee	-0.19774982
12	0x3e8f022e	0.2793135
13	0xbe89160d	-0.26774636
14	0xbe83fc7b	-0.25778565
15	0x3d551f5e	0.052031867
16	0xbec06efb	-0.3758467
17	0x3ee0619c	0.4382447
18	0x3bf75f7b	0.007549224
19	0x3d14fbff	0.036373135
20	0xbd079595	-0.033101637
21	0x3ee1ed34	0.44126284
22	0xbee1341c	-0.4398507
23	0xbeae31c9	-0.34022358
24	0x3ddf7fdf	0.10913061
25	0xbed81352	-0.4220224
26	0xbdfe1b94	-0.12407604
27	0xbe840e07	-0.25791952
28	0xbdd127b0	-0.10212648
29	0xbe2de8ab	-0.16983287
30	0xbc9e1349	-0.019296305
31	0xbf13c5cc	-0.5772369
32	0x3e9129bf	0.28352162
33	0xbf39cd4e	-0.72578895
34	0xbe1872e9	-0.14887585
35	0x3e099d90	0.13439012
36	0x3f4c2e1d	0.79757863
37	0x3dd2c78c	0.10291967
38	0x3d915a90	0.070973516
39	0xbe3025c3	-0.17201905
40	0xbdd05ed2	-0.101743355
41	0xbe8746ce	-0.26421207
42	0xbdb4996d	-0.08818326
43	0x3dc959c3	0.09831574
44	0x3e1552b6	0.14582333
45	0x3da025d4	0.07819715
46	0xbe9f9a98	-0.31172633
47	0x3e33e1dc	0.17566627
48	0xbed7801a	-0.4208992
49	0xbf172879	-0.5904613
50	0x3e7a5438	0.2444619
51	0x3e0417b9	0.12899674
52	0x3fb5c52f	1.4200801
53	0xbf4fa022	-0.8110372
54	0x3de3e5e7	0.11127835
55	0xbe95a08d	-0.29224053
56	0xbe3aa602	-0.1822739
57	0x3d9a53e5	0.07535533
58	0xbea1ce81	-0.31602862
59	0xbed2f3b6	-0.41201562
60	0xbea87623	-0.3290263
61	0x3e3a7836	0.1820992
62	0x3c841244	0.016121991
63	0x3ec28aae	0.3799643
64	0x3e819654	0.25310004
65	0xbeec8005	-0.4619142
66	0x3eeeaa59	0.4661434
67	0xbcef7ca3	-0.029234236
68	0xbcb12d12	-0.021627937
69	0x3dc15c47	0.09441429
70	0x3d1a8520	0.037724614
71	0x3d0cbc4c	0.03435926
72	0xbeb7ce41	-0.35899547
73	0xbd067e91	-0.032835547
74	0x3e155063	0.14581446
75	0x3c57e298	0.013176583
76	0xbe6a24b5	-0.22865565
77	0xbead6f53	-0.33873996
78	0x3d57c69c	0.052679643
79	0x3c15a80a	0.009134302
80	0x3dfe4654	0.12415758
81	0x3e22c86c	0.15896767
82	0xbe330cac	-0.17485303
83	0xbe9dd730	-0.30828238
84	0x3f975fdb	1.1826128
85	0xbe69892d	-0.22806235
86	0xbe8314da	-0.25601846
87	0xbee394eb	-0.44449553
88	0xbe8589cb	-0.2608169
89	0x3da2bb35	0.07945863
90	0xbca7ea0b	-0.020497343
91	0xbd823a10	-0.06358731
92	0xbe986d69	-0.29770973
93	0xbe8c45fb	-0.2739714
94	0xbd37d70c	-0.04488282
95	0x3e8d4e81	0.27598956
96	0xbe8d01fc	-0.27540576
97	0xbd0b78cc	-0.034050748
98	0xbde64977	-0.11244481
99	0xbe0272bf	-0.12739085
100	0xbed18186	-0.4091913
101	0x3ddffd92	0.109370366
102	0x3f11e715	0.5699323
103	0xbd4ef030	-0.05052203
104	0x3e49bc52	0.19700745
105	0xbe84b54b	-0.25919566
106	0xbd7ca822	-0.06168378
107	0xbc2538b1	-0.010084317
108	0xbd5b91d9	-0.053605888
109	0x3e93853d	0.2881259
110	0x3e6a1819	0.22860755
111	0x3c93245c	0.017961673
112	0xbd254756	-0.040351234
113	0x3e99cccb	0.30039057
114	0x3f59ae6a	0.8503176
115	0x3e79fe65	0.2441345
116	0xbeb7a9eb	-0.35871825
117	0xbe6c7bf9	-0.23094167
118	0x3dca6073	0.098816775
119	0x3e30bcf1	0.17259575
120	0x3e875733	0.26433715
121	0x3cd65550	0.026163727
122	0xbd14e459	-0.03635058
123	0xbe0b3462	-0.13594201
124	0xbe85f519	-0.26163557
125	0x3e1f8c5a	0.15580884
126	0xbcac52eb	-0.021035632
127	0xbe5810e2	-0.2110019
128	0xbf37e023	-0.7182638
129	0xbdce03a1	-0.10059286
130	0xbded09a6	-0.11574106
131	0xbc91b4ff	-0.017786501
132	0x3dea900f	0.11453258
133	0xbe1745a4	-0.1477266
134	0xbdc775a0	-0.09739232
135	0x3e02a1ad	0.12756987
136	0xbeb5d0a8	-0.35510755
137	0x3d3f4fc0	0.046706915
138	0x3f451431	0.76983935
139	0xbe88270e	-0.26592296
140	0x3ea96233	0.33082733
141	0xbf056cfc	-0.5211942
142	0x3e4f228f	0.20228027
143	0x3f1e4c94	0.618356
144	0x3fcc3d5b	1.5956224
145	0xbdcbdc5f	-0.09954142
146	0xbe3ad622	-0.18245748
147	0xbeb61954	-0.355662
148	0xbdbfe006	-0.09368901
149	0x3e50a013	0.20373563
150	0x3e30134d	0.17194863
151	0x3e9267b7	0.28594753
152	0xbd83c0a8	-0.06433231
153	0xbe3c17db	-0.18368475
154	0xbe3b44ba	-0.18287936
155	0xbec3e255	-0.38258615
156	0x3ba479c8	0.0050194003
157	0xbea3fe93	-0.32030162
158	0x3e39756c	0.18111199
159	0xbd6f7b93	-0.05846746
160	0xbe6c021f	-0.23047684
161	0xbcd53e27	-0.026030613
162	0xbf02a64f	-0.51035017
163	0xbec3c9a3	-0.38239774
164	0xbe414f82	-0.18877986
165	0xbe397e40	-0.18114567
166	0x3e179bf7	0.1480559
167	0xbe08450e	-0.13307592
168	0x3f11e9ea	0.5699755
169	0x3e529765	0.20565565
170	0xbc9bec0a	-0.01903345
171	0xbf909eb4	-1.1298432
172	0xbdbdda14	-0.09270111
173	0x3e0e1061	0.13873436
174	0x3e9c12ee	0.30483192
175	0x3e6c43ab	0.23072688
176	0xbeaff5ce	-0.34367222
177	0xbf4acc02	-0.7921754
178	0xbd8ce63d	-0.06879852
179	0x3e9e89aa	0.30964404
180	0xbdf85ef1	-0.12127484
181	0xbe84b2a4	-0.25917542
182	0x3e9767ec	0.29571474
183	0xbd3d8f7c	-0.046279415
184	0xbbdcd47b	-0.006739197
185	0x3db0c6e8	0.08631688
186	0x3de5784a	0.11204584
187	0xbe67e389	-0.22645392
188	0xbef0b39d	-0.47012034
189	0xbedc9bb9	-0.43087557
190	0xbe2a5b33	-0.16636352
191	0x3dade426	0.084907815

actor.init_next_embed.0.add_bias._bias f4 [32, 1]
0	0x3e16d5b4	0.14729959
1	0x3c596e6e	0.013270957
2	0xbd89a6e1	-0.06721283
3	0x3c9ca4cd	0.019121552
4	0x3c05670c	0.008142244
5	0xbe866f28	-0.2625668
6	0x3dfa4937	0.12220996
7	0xbda6973d	-0.08134315
8	0xbe76cf8c	-0.2410261
9	0x3d0c261e	0.03421604
10	0xbe4e3c38	-0.20140159
11	0x3e9f0d8e	0.3106503
12	0xbc6aab64	-0.014323089
13	0x3ded04d5	0.11573187
14	0x3eb438dd	0.35199633
15	0x3eaa649f	0.33279893
16	0xbc350611	-0.01104881
17	0xbe66bf2f	-0.22533868
18	0xbe37357c	-0.17891496
19	0x3eae8091	0.34082463
20	0xbde74047	-0.11291557
21	0x3d10c58e	0.035344653
22	0xbe863f00	-0.2621994
23	0xbd1fd862	-0.039024718
24	0x3ea6add9	0.3255451
25	0xbd494e7e	-0.04914712
26	0xbdefc107	-0.11706739
27	0x3d5a3064	0.053268805
28	0x3d225050	0.039627373
29	0x3e394a47	0.18094741
30	0x3e595028	0.21221983
31	0x3e079415	0.13240083

actor.init_next_embed.2.module.weight f4 [64, 32]
0	0x3da23d13	0.07921805
1	0xbdd20a6a	-0.102558926
2	0xbd68cbad	-0.056834865
3	0x3e36f3e5	0.17866476
4	0x3e161ba7	0.14658986
5	0x3da8525a	0.08218832
6	0xbe65c59d	-0.22438665
7	0xbe68d169	-0.22736134
8	0xbe4d5a62	-0.2005401
9	0x3e9f10cc	0.31067502
10	0x3daa0cb0	0.08303201
11	0xbf0f2e39	-0.55929905
12	0x3dbc08d8	0.09181374
13	0x3e890e8e	0.26768917
14	0xbdb53c95	-0.08849446
15	0xbedc51e8	-0.4303124
16	0xbe19762c	-0.14986485
17	0x3d8477cb	0.06468161
18	0xbc8375f4	-0.016047455
19	0xbea278fd	-0.31732932
20	0x3d8224d2	0.06354679
21	0xbd793beb	-0.060848158
22	0xbef24459	-0.4731777
23	0xbeefea26	-0.4685833
24	0xbf221dc5	-0.63326675
25	0x3eb305dd	0.3496541
26	0xbe2f0e9a	-0.17095414
27	0xbdc0c20d	-0.09412012
28	0x3db796d8	0.08964318
29	0x3c5acfc6	0.013355201
30	0x3db689c2	0.08912994
31	0xbe5a1426	-0.21296749
32	0x3e967fec	0.29394472
33	0xbd72a8b4	-0.05924292
34	0xbdc89535	-0.09794084
35	0xbd8da95b	-0.069170676
36	0xbdb8240e	-0.08991252
37	0xbe27b370	-0.16377044
38	0xbddd7b77	-0.10814565
39	0x38f77e88	0.00011801446
40	0x3ed44210	0.41456652
41	0x3d25d5c7	0.040487077
42	0x3ef4bb5a	0.47799188
43	0x3e85673b	0.2605532
44	0xbcc6e880	-0.024280787
45	0xbdb2922e	-0.08719288
46	0xbe15beb5	-0.1462353
47	0xbd32405b	-0.043518405
48	0x3e391e8a	0.18078056
49	0x3ca5d697	0.020243926
50	0xbd9d1860	-0.07670665
51	0x3f0a6e3a	0.5407444
52	0x3e2e6722	0.1703153
53	0x3c6b2d26	0.014354026
54	0x3d720b48	0.05909279
55	0xbe5034a1	-0.20332576
56	0xbe2a09ea	-0.16605344
57	0x3e605e12	0.21910885
58	0xbbb9a981	-0.0056659584
59	0xbea1b12c	-0.31580484
60	0xbdb514e1	-0.08841873
61	0x3d0003c7	0.031253602
62	0xbd297912	-0.041375227
63	0xbcbae82c	-0.022815786
64	0xbe029d9c	-0.12755436
65	0x3d030b18	0.031993
66	0x3e30e060	0.17273092
67	0xbe0c4fc0	-0.13702297
68	0xba534d3b	-0.00080605195
69	0x3e4f69de	0.20255229
70	0xbebe08a5	-0.3711597
71	0xbeb2fd00	-0.3495865
72	0xbe9e9bc3	-0.30978212
73	0xbe125771	-0.14291169
74	0x3d23d773	0.04000039
75	0x3e689a2c	0.22715062
76	0x3db47dfa	0.088130906
77	0xbe93a15f	-0.28834054
78	0xbf3ebd47	-0.74507564
79	0x3d4b414a	0.04962281
80	0xbe6b458e	-0.22975752
81	0x3d833271	0.06406105
82	0x3e3beaf8	0.18351352
83	0xbcee83de	-0.029115614
84	0xbda3fd8d	-0.08007345
85	0xbdaf2f36	-0.08553927
86	0xbd52985e	-0.05141484
87	0x3e6e038f	0.23243545
88	0xbefdaac8	-0.49544358
89	0x3dcbf5f6	0.09959023
90	0xbe541d06	-0.20714197
91	0xbe2cc453	-0.16871767
92	0xbef74210	-0.4829259
93	0xbf225058	-0.63403845
94	0xbea48f4d	-0.3214058
95	0xbdf177ee	-0.11790453
96	0xbd8306de	-0.06397794
97	0x3e1b1d28	0.15147841
98	0x3ea72af7	0.32649967
99	0xbdbdcd40	-0.09267664
100	0xbe9e8ff5	-0.30969205
101	0x3ccdec28	0.025137022
102	0xbea3d0a5	-0.3199512
103	0x3e024f34	0.12725526
104	0xbdb35072	-0.08755578
105	0x3e73faeb	0.23826186
106	0xbead0339	-0.3379152
107	0x3e196afa	0.14982215
108	0x3de02574	0.109446436
109	0x3e59d297	0.2127174
110	0xbea00a90	-0.3125806
111	0xbe8c10fc	-0.27356708
112	0xbe277220	-0.16352129
113	0x3e50ba35	0.20383532
114	0x3d024b8c	0.03181033
115	0xbeaa8c1f	-0.3331003
116	0xbc86c338	-0.01645051
117	0x3d856448	0.06513268
118	0x3e27d3e6	0.16389427
119	0x3f3177f5	0.69323665
120	0xbeb9b4ce	-0.36270756
121	0xbedcea8f	-0.43147704
122	0xbdc0689c	-0.09394953
123	0xbea6b44d	-0.32559434
124	0xbecad33e	-0.3961429
125	0xbe751b81	-0.23936273
126	0x3dbe7a25	0.09300641
127	0xbe8ab79d	-0.2709321
128	0xbe2e2296	-0.17005381
129	0xbec6de73	-0.3884159
130	0xbdec414d	-0.11535893
131	0x3e7bd88d	0.24594326
132	0x3df2256f	0.11823546
133	0xbe2d0da4	-0.16899735
134	0xbe008781	-0.1255169
135	0xbdad6965	-0.08467368
136	0x3e150e19	0.14556159
137	0xbdf88ca9	-0.12136204
138	0xbe7e3c74	-0.24827749
139	0xbdb35b01	-0.08757592
140	0xbcef5d9e	-0.029219445
141	0x3d30fe59	0.043211315
142	0x3dd01bdf	0.10161566
143	0xbd5bb845	-0.05364253
144	0x3e29a045	0.16565044
145	0x3e1d280a	0.15347305
146	0xbe180214	-0.14844543
147	0xbe76c3a4	-0.24098068
148	0xbe2f9c21	-0.17149402
149	0x3dc2f193	0.09518733
150	0x3e1bb66d	0.15206309
151	0x3e3650d8	0.17804277
152	0x3e3df321	0.18549778
153	0xbdbef474	-0.093239695
154	0x3ee33cdb	0.44382367
155	0x3e543110	0.20721841
156	0xbe77d26f	-0.24201368
157	0xbe18a866	-0.14907989
158	0xbda3649a	-0.079781726
159	0xbd4c5131	-0.049882118
160	0xbcddd1fe	-0.027077671
161	0xbbd74726	-0.006569761
162	0x3cd05a7f	0.025433777
163	0xbde12ab6	-0.109944746
164	0x3eaea1d4	0.3410784
165	0x3e55ae4a	0.20867267
166	0x3d9bec27	0.07613402
167	0x3e117809	0.14205946
168	0x3d499711	0.049216334
169	0x3e5d5c73	0.21617298
170	0x3d1df98d	0.03856807
171	0x3f0d5601	0.55209357
172	0x3d2d9799	0.042380903
173	0x3ea2bad2	0.31783158
174	0x3c9cf559	0.01915996
175	0x3ee7593e	0.45185274
176	0xbcf31100	-0.029671192
177	0x3ea5548a	0.3229106
178	0x3de2a619	0.11066837
179	0x3f25f13a	0.6482121
180	0x3d36adfe	0.044599526
181	0xbcdfcd2e	-0.027319517
182	0x3e86c278	0.26320243
183	0xbdc6e7b4	-0.097121626
184	0x3ef54cc2	0.47910124
185	0xbda6251f	-0.08112549
186	0x3d94c453	0.072640084
187	0x3eb118c4	0.34589207
188	0xbe0161d4	-0.12634975
189	0xbe8d2d60	-0.2757368
190	0x3e4d3830	0.20040965
191	0xbdbee37d	-0.09320734
192	0xbd2d83b4	-0.04236193
193	0x3e1733ea	0.14765897
194	0xba36414b	-0.00069524784
195	0x3e3a34ca	0.181842
196	0xbd923aae	-0.071400985
197	0x3cd59f69	0.02607699
198	0xbe58bae4	-0.21165043
199	0xbea7092c	-0.32624185
200	0x3e1d1193	0.15338735
201	0x3e665cb4	0.22496301
202	0x3d93d082	0.07217504
203	0x3e41437d	0.18873401
204	0x3ce1b06b	0.027549943
205	0x3d24eb36	0.040263377
206	0xbe518a52	-0.20462921
207	0xbe275a46	-0.1634303
208	0xbcb241eb	-0.021759948
209	0x3e2c19e7	0.16806756
210	0xbe5a116e	-0.21295711
211	0xbe14a2ad	-0.14515181
212	0x3e4f9903	0.20273213
213	0xbe8a362c	-0.26994455
214	0x3e2c054b	0.16798894
215	0x3ba8c311	0.005150207
216	0xbea4ca1f	-0.32185456
217	0x3d96fcbb	0.07372423
218	0x3d20c5c9	0.039251123
219	0xbe66751c	-0.22505611
220	0xbe748967	-0.2388054
221	0xbe8807c5	-0.26568428
222	0x3e58a538	0.21156776
223	0xbe8b9530	-0.2726226
224	0xbe27d27b	-0.16388886
225	0x3ce2a941	0.027668597
226	0xbd6dac76	-0.0580258
227	0x3cd27cbc	0.025694244
228	0x3e66b007	0.22528087
229	0xbe96ae36	-0.29429787
230	0xbe430bf4	-0.19047529
231	0xbe48f014	-0.19622833
232	0x3e09f7f1	0.13473488
233	0xbcf08503	-0.0293603
234	0x3eb713e6	0.3575737
235	0x3e76199a	0.24033204
236	0x3dcc6fca	0.099822596
237	0x3ea3d935	0.32001653
238	0x3ecc4132	0.3989349
239	0x3efc98eb	0.49335417
240	0x3d8cf866	0.06883316
241	0x3eb304fd	0.34964743
242	0x3e5096d9	0.20370044
243	0x3e3a649a	0.18202439
244	0xbeaac753	-0.33355197
245	0x3cc7e551	0.024401339
246	0xbe28947f	-0.16462897
247	0x3f125f52	0.571767
248	0x3eda50eb	0.4263986
249	0x3cc746ef	0.024325816
250	0x3dbce718	0.09223765
251	0xbdc0c0ba	-0.0941176
252	0x3dd0135a	0.10159941
253	0x3e894303	0.26808938
254	0x3dc723a7	0.09723597
255	0x3ea8acff	0.32944486

actor.init_next_embed.2.add_bias._bias f4 [64, 1]
0	0xbf4938ea	-0.7860247
1	0xbebffccd	-0.3749756
2	0xbf1fbea1	-0.6240025
3	0xbec8e8d9	-0.3924015
4	0xbd9d7226	-0.07687788
5	0x3f54cb07	0.83122295
6	0xbef01585	-0.46891418
7	0x3edc1561	0.4298506
8	0x3f9e8602	1.2384646
9	0xbedef813	-0.4354864
10	0xbf12593a	-0.571674
11	0x3e084c09	0.13310255
12	0x3f7bfd67	0.98433536
13	0xbfa143a9	-1.2598773
14	0xbf78fbb1	-0.9725905
15	0xbf7d1b25	-0.98869544
16	0xbf3a3b82	-0.7274705
17	0x3f417430	0.75567913
18	0x3eaa8bcf	0.3330979
19	0xbd8c3628	-0.06846267
20	0xbdd3598b	-0.10319813
21	0xbe8bfb38	-0.27340102
22	0xbf7d3153	-0.9890339
23	0x3e7a2fc6	0.24432287
24	0xc0023d66	-2.0349975
25	0xbf04525b	-0.51688164
26	0xbedf73a8	-0.43642926
27	0xbf810553	-1.007975
28	0x3e97805e	0.29590124
29	0x3e1d525c	0.15363449
30	0xbf3fdc5a	-0.74945605
31	0xbf6495b4	-0.8929093
32	0xbecf03e8	-0.40432668
33	0x3f35ef74	0.710685
34	0xbe30fe74	-0.17284566
35	0xbf304ad5	-0.68864185
36	0x3fbc6312	1.4717734
37	0x3f0d0ee2	0.55100834
38	0xbe485336	-0.19562992
39	0x3e1bdd26	0.1522108
40	0xbfc56e67	-1.5424317
41	0x3f9725ef	1.1808451
42	0xbefaa9b1	-0.4895759
43	0xbfc379b7	-1.527152
44	0x3eaa9c55	0.33322397
45	0x3f887d0c	1.0663161
46	0x3f7455ad	0.9544323
47	0x3f21bf17	0.63182205
48	0xbea81736	-0.3283021
49	0x3ed6e5df	0.41972253
50	0x3f0631a1	0.5241948
51	0x3f3acc08	0.72967577
52	0x3ec2f5e9	0.3807824
53	0xbeaa9437	-0.33316204
54	0x3e136ac3	0.14396195
55	0xbf24cf16	-0.6437849
56	0xbd56f4fb	-0.052479725
57	0x3efd6ffc	0.494995
58	0xbf2db675	-0.6785653
59	0x3ea12e48	0.31480622
60	0x3f5559cc	0.83340144
61	0x3f1de733	0.61680907
62	0x3d555b64	0.05208911
63	0x3ea45a62	0.32100207
