logs/experiment/Discrete_A2C_1-5Box_10x10x10Bin-2022.08.09-15-00-00/PCT-Discrete_A2C_1-5Box_10x10x10Bin-2022.08.09-15-00-00_2022.08.09-20-45-40.pt (torch, 236314 bytes, 24 tensors)

actor.init_internal_node_embed.0.module.weight f4 [32, 6]
-0.5154902 0.027633032 -0.67477196 0.04632629 -0.20586488 0.047944997 -0.062381547 0.1531639
-0.34501606 -0.24961898 -0.36188412 -0.41446742 -0.09384005 0.056582425 0.19520034 0.23434462
0.11018928 -0.67522633 0.32091442 -0.19975403 0.283465 -0.5120627 -0.113563515 0.6298317
-0.07948945 -0.37490436 0.1685514 0.0715946 0.28090686 0.8225805 -0.036986057 0.07567068
0.23532072 0.021474583 -0.0748627 -0.2469312 1.2492921 -0.4210765 -0.80989444 -1.3644592
0.6429188 0.6947562 -0.36600098 -0.34305376 0.059680108 -0.2118679 0.28038377 0.58573425
-0.10303711 0.42039257 0.6098217 -0.20564349 -0.24801582 0.33044425 0.40534157 -0.06647292
0.52413654 -0.071586676 -0.06258695 -0.0333568 -0.44917375 -0.3268018 -0.30523816 0.4901348
0.29915282 -0.29926473 -0.11679371 0.6586622 -0.4735521 0.14464131 -0.6534551 0.46407598
0.3378788 -0.59048426 -0.24515249 0.2281614 -0.27248338 0.1742319 0.18631805 0.2579903
-0.09552082 -0.2864933 -0.04810988 -0.12710012 0.26468703 -0.0061033494 0.0027423883 -0.14874661
-0.0036168706 0.029700229 0.33532986 -0.120930076 0.3142104 -0.24168386 -0.19913471 0.26438448
-0.49007758 -0.51858175 -0.3452381 -0.3586695 -0.10346376 -0.25219578 0.016232999 0.15468083
0.31919405 -0.07949043 -0.02133041 -0.0051405877 -0.09565645 -0.7068634 -0.6762766 -0.068367064
-0.15719783 -0.15433815 0.23634666 -0.09364381 -0.8077202 -0.07386114 -0.08234155 0.41396564
0.018208496 -0.24060844 -0.001536643 -0.4278989 -0.6983678 0.11655289 -0.07706919 -0.3968385
-0.65055066 0.07087093 0.2907231 0.6166286 -0.35181543 0.024659619 -0.79439193 0.30772823
0.4901025 0.025859402 0.11048547 -0.04700154 -0.4292703 -0.16623084 -0.42782992 -0.5578257
0.16093047 -0.14814383 0.7298288 -0.01410889 0.12985711 -0.09429216 0.08559907 -0.2682692
-0.5530838 0.20860548 0.39632025 -0.1286657 0.6109359 0.039478086 0.21701507 0.17880225
-0.1637643 -0.23556267 0.35450363 0.04224993 -0.21871775 0.44804457 0.07002776 -0.11927867
-0.1042629 -0.21149707 0.13162377 0.53685766 0.49119622 -0.8105297 0.2564122 -0.23612897
-0.37838027 -0.07845807 0.08967593 -0.030639375 -0.31606796 -0.40506235 1.3244576 -0.10986321
-0.21849911 0.10163786 0.23124743 0.0760711 -0.095175266 0.060700923 -0.15600851 -0.10697893
00000000: 2af7 03bf ab5e e23c dbbd 2cbf a3c0 3d3d
00000010: 3ece 52be f961 443d cb83 7fbd ffd6 1c3e
00000020: f2a5 b0be 1e9c 7fbe e048 b9be 1335 d4be
00000030: 362f c0bd f9c2 673d 99e2 473e 09f8 6f3e
00000040: ebaa e13d a2db 2cbf e54e a43e 528c 4cbe
00000050: 5322 913e 8b16 03bf fd93 e8bd a63c 213f
00000060: 5dcb a2bd 77f3 bfbe bd98 2c3e 31a0 923d
00000070: 06d3 8f3e a394 523f b17e 17bd 3bf9 9a3d
00000080: eaf7 703e 77eb af3c 9e51 99bd 88db 7cbe
00000090: cee8 9f3f 5797 d7be 3e55 4fbf 99a6 aebf
000000a0: 5496 243f 8bdb 313f 7b64 bbbe bea4 afbe
000000b0: 2173 743d e6f3 58be 768e 8f3e aef2 153f
000000c0: 1f05 d3bd b23d d73e 461d 1c3f 3594 52be
000000d0: dcf7 7dbe fd2f a93e ee88 cf3e f422 88bd
000000e0: d02d 063f 099c 92bd 962d 80bd 24a1 08bd
000000f0: 1afa e5be 9152 a7be 2d48 9cbe f3f2 fa3e
00000100: 8f2a 993e 3a39 99be 8a31 efbd 169e 283f
00000110: 6c75 f2be da1c 143e d548 27bf 5e9b ed3e
00000120: 73fe ac3e fa29 17bf 4109 7bbe 24a3 693e
00000130: f182 8bbe d969 323e 29ca 3e3e 4e17 843e
00000140: 6ba0 c3bd 40af 92be de0e 45bd 8926 02be
00000150: 0f85 873e 9bfe c7bb a4b9 333b 0851 18be
00000160: 0509 6dbb e54d f33c 5bb0 ab3e 30aa f7bd
00000170: 30e0 a03e f97b 77be f8e9 4bbe 675d 873e
00000180: 73eb fabe c6c1 04bf 0cc3 b0be 87a3 b7be
00000190: cfe4 d3bd ce1f 81be 11fb 843c a764 1e3e
000001a0: 676d a33e e1cb a2bd 1dbd aebc 6072 a8bb
000001b0: 87e7 c3bd 00f5 34bf 7720 2dbf 0804 8cbd
000001c0: 78f8 20be d20a 1ebe dc04 723e 53c8 bfbd
000001d0: c0c6 4ebf 8244 97bd b0a2 a8bd 4ef3 d33e
000001e0: fc29 953c 0f62 76be 2f69 c9ba 9115 dbbe
000001f0: 3bc8 32bf 48b3 ee3d 74d6 9dbd 6a2e cbbe
00000200: 7d8a 26bf c724 913d a8d9 943e 5fdb 1d3f
00000210: 2721 b4be f802 ca3c 455d 4bbf 8e8e 9d3e
00000220: b7ee fa3e 19d7 d33c 3546 e23d b084 40bd
00000230: 51c9 dbbe 6b38 2abe 860c dbbe aacd 0ebf
00000240: f5ca 243e 04b3 17be 0fd6 3a3f f928 67bc
00000250: 43f9 043e 3f1c c1bd 914e af3d 955a 89be
00000260: e696 0dbf ad9c 553e 7dea ca3e f1c0 03be
00000270: 4c66 1c3f c6b3 213d 3339 5e3e f017 373e
00000280: d4b1 27be 5737 71be 8081 b53e 430e 2d3d
00000290: 8cf7 5fbe 1966 e53e b76a 8f3d 6048 f4bd
000002a0: ca87 d5bd b092 58be 62c8 063e 816f 093f
000002b0: 127e fb3e e07e 4fbf 7648 833e cbcb 71be
000002c0: 0fbb c1be a0ae a0bd 04a8 b73d 6dff fabc
000002d0: a9d3 a1be 5564 cfbe d487 a93f f6ff e0bd
000002e0: 3bbe 5fbe 8327 d03d 20cc 6c3e 2acb 9b3d
000002f0: 40eb c2bd 88a1 783d b2c0 1fbe c517 dbbd

actor.init_internal_node_embed.0.add_bias._bias f4 [32, 1]
0.0126839485 -0.3332533 -0.005268847 -0.022169288 0.14654833 0.039290603 0.00631715 -0.00839489
0.044409 0.10531329 0.0071853306 0.016157642 -0.0013787181 0.0003412278 -0.013221773 0.029632254
-0.2796753 -0.059923343 0.04482359 0.0017971994 -0.2605392 0.056904104 0.049724445 0.11634612
0.03413084 0.0035299666 0.006244163 0.07034812 0.027167661 -0.04731991 0.07124694 -0.06999177
00000000: 56d0 4f3c 2da0 aabe 4ba6 acbb 5e9c b5bc
00000010: c410 163e 2fef 203d 1800 cf3b b98a 09bc
00000020: 36e6 353d 7fae d73d ec72 eb3b 085d 843c
00000030: 1ab6 b4ba d2e6 b239 23a0 58bc 57bf f23c
00000040: 9a31 8fbe 2e72 75bd f198 373d 0190 eb3a
00000050: 6565 85be 4714 693d dcab 4b3d e046 ee3d
00000060: c8cc 0b3d 0357 673b d69b cc3b ad12 903d
00000070: b78e de3c 86d2 41bd eae9 913d d857 8fbd

actor.init_internal_node_embed.2.module.weight f4 [64, 32]
0.13118026 0.16605115 -0.1506008 0.10555919 0.014139312 0.117039174 0.11836435 0.5070516
0.28825882 -0.112897195 0.8208474 0.19314949 0.04213367 -0.18164724 -0.6919593 0.29021683
-0.028712058 0.23278107 0.03399238 0.2013601 -0.22680494 0.15570831 1.1101066 -0.016080009
0.5701898 0.20419136 0.17445205 0.29058242 0.094445646 -0.010756315 -0.1939334 0.038302146
0.33124158 0.0913187 -0.5170173 -0.49269927 -0.031699907 0.23117945 0.08277854 -0.35779443
-0.21688676 0.17702208 0.43358597 0.11774913 0.42084998 0.013451204 -0.027362822 0.2438721
-0.05349135 -0.12624921 -0.12240352 -0.14444216 0.04531216 0.34966978 0.94362986 0.339209
-0.21210313 0.1484361 0.01254801 0.067629874 0.66861594 0.18429404 0.2081108 -0.014419035
-0.26207677 0.01257551 0.5189782 0.6267316 0.5441102 -0.0146053 -0.32748556 1.0598594
-0.2829002 -0.3041428 -0.4778124 -0.7991477 0.098660395 0.22906543 0.55258983 -0.60498464
-0.080935575 0.06001246 0.039599724 -0.40200374 -0.027958883 0.4862621 -0.079580836 -0.22852042
-0.09369936 0.002079428 0.036397338 0.01001244 0.26057193 -0.17891088 0.21770893 0.1322256
-0.0015516361 -0.21907732 -0.03235471 0.47872603 0.12157859 0.004116741 0.027457181 0.20838925
0.034515098 -0.05396291 0.056346484 -0.09734492 -0.30906996 0.078296214 -0.33988318 -0.025144793
0.110401616 -0.29120818 0.12010748 0.05551983 -0.26446038 0.61860824 -0.14843471 0.2696839
0.19742264 0.020311223 0.10505151 0.2985296 0.15172261 -0.048585314 -0.2989511 0.2146174
0.3094379 -0.12864597 -0.20453487 0.11863208 -0.58599705 -0.1019154 0.4851155 -0.47441393
-0.6338579 0.48936498 0.41673723 0.36808807 -0.029743176 -0.1787894 0.33022532 -0.046195343
-0.007643844 -0.14889453 -0.0007303082 0.10497504 -0.14967328 0.4435575 0.19606513 -0.041138254
-0.23738016 0.24476156 0.26839492 0.119730115 0.58010185 0.07482286 0.1789654 -0.12856904
-0.27662513 -0.09803638 -0.057553105 -0.019208664 0.87978446 -0.28459886 -0.25179446 0.29728314
0.20984748 -0.04431513 0.8433623 -0.33617178 -0.04163673 -0.19098553 0.009980197 0.30120388
0.22003824 0.23196061 -0.08567677 0.042820223 -0.043316953 0.04516512 0.3724415 -0.6052734
0.01042271 0.26062536 0.23644763 0.44524893 0.0068339193 -0.10791623 -0.0044497116 0.14997746
0.30653918 0.012479931 0.14925958 -0.023268718 0.45377764 0.05097029 -0.18627487 0.14189447
0.038515408 -0.23719984 0.34397423 -0.19405174 -0.29522702 -0.016572395 0.26265824 -0.4733866
0.012603982 -0.3240403 0.0812547 -0.028180307 0.006739195 0.083804436 0.010790167 0.22568908
-0.09668712 0.104980305 -0.21101077 0.44072485 -0.34134376 0.084056385 -0.45984048 -0.052254185
-0.1260279 -0.12284786 -0.45709023 -0.32087836 -0.36064044 -0.02390363 0.14574514 -0.043366574
0.19896626 0.35306683 0.4408578 0.44967538 -0.1922986 0.07162228 -0.20779286 -0.039182704
-0.06089144 -0.18488431 0.20749891 0.20813617 0.033420652 -0.44247967 0.6564665 -0.004513511
-0.5973793 0.13343492 -0.35666487 -0.4750443 0.6805004 0.18540388 0.37647364 -0.10129408
00000000: 1e54 063e 5009 2a3e 1937 1abe 6b2f d83d
00000010: 93a8 673c 3cb2 ef3d 0269 f23d 22ce 013f
00000020: a996 933e a536 e7bd 0e23 523f fbc8 453e
00000030: 5b94 2c3d bc01 3abe 3f24 31bf 4d97 943e
00000040: 8d35 ebbc 295e 6e3e 983b 0b3d 5831 4e3e
00000050: 8e3f 68be 0072 1f3e f917 8e3f 39ba 83bc
00000060: f5f7 113f 8a17 513e 8fa3 323e 38c7 943e
00000070: b86c c13d 413b 30bc 7a96 46be b6e2 1c3d
00000080: 7f98 a93e 4c05 bb3d 3f5b 04bf 1443 fcbe
00000090: c3d7 01bd 4eba 6c3e cc87 a93d d530 b7be
000000a0: 9017 5ebe 4745 353e fbfe dd3e 7526 f13d
000000b0: a679 d73e 7062 5c3c ff27 e0bc 9cb9 793e
000000c0: bf19 5bbd 7947 01be b2ae fabd a5e8 13be
000000d0: 3e99 393d eb07 b33e ba91 713f cdac ad3e
000000e0: 9031 59be a2ff 173e 2b96 4d3c 8881 8a3d
000000f0: 6a2a 2b3f 94b7 3c3e ff1a 553e d13d 6cbc
00000100: ed2e 86be 8309 4e3c c1db 043f 7b71 203f
00000110: ce4a 0b3f 114b 6fbc 30ac a7be 79a9 873f
00000120: 4cd8 90be 9bb8 9bbe d4a3 f4be f294 4cbf
00000130: 760e ca3d 2190 6a3e 8776 0d3f 46e0 1abf
00000140: 8dc1 a5bd a0cf 753d 5233 223d 6fd3 cdbe
00000150: 070a e5bc 59f7 f83e 47fb a2bd 4201 6abe
00000160: 73e5 bfbd 0347 083b 6015 153d 380b 243c
00000170: af69 853e 6a34 37be 17ef 5e3e 2666 073e
00000180: 4560 cbba ce55 60be 5f86 04bd 941b f53e
00000190: 32fe f83d bae5 863b e2ed e03c fe63 553e
000001a0: b45f 0d3d 3608 5dbd 92cb 663d c65c c7bd
000001b0: 6b3e 9ebe c459 a03d 2b05 aebe 74fc cdbc
000001c0: 3e1a e23d 3d19 95be e9fa f53d c368 633d
000001d0: 5a67 87be 1c5d 1e3f 45ff 17be 0214 8a3e
000001e0: 2929 4a3e b963 a63c 3f25 d73d dfd8 983e
000001f0: 2c5d 1b3e 6501 47bd 1e10 99be aac4 5b3e
00000200: a56e 9e3e c5bb 03be 9771 51be 60f5 f23d
00000210: e703 16bf 05b9 d0bd 0f61 f83e 62e6 f2be
00000220: 8344 22bf 0c8e fa3e 955e d53e 0a76 bc3e
00000230: f6a7 f3bc 9214 37be 4b13 a93e 5437 3dbd
00000240: 3679 fabb cf77 18be 2772 3fba 27fd d63d
00000250: f443 19be f819 e33e 4cc5 483e 9680 28bd
00000260: c913 73be c6a2 7a3e 0f6b 893e 1035 f53d
00000270: 8e81 143f ba3c 993d b542 373e 9aa7 03be
00000280: cfa1 8dbe 4cc7 c8bd cebc 6bbd 7d5b 9dbc
00000290: 8e39 613f f1b6 91be 34eb 80be 7f35 983e
000002a0: 42e2 563e c883 35bd 97e6 573f b51e acbe
000002b0: 478b 2abd b691 43be fb83 233c 6537 9a3e
000002c0: b451 613e 1587 6d3e 4d77 afbd 4264 2f3d
000002d0: 1e6d 31bd 10ff 383d a7b0 be3e 33f3 1abf
000002e0: 04c4 2a3c b070 853e 541f 723e abf7 e33e
000002f0: 12ef df3b 2f03 ddbd e3ce 91bb b193 193e
00000300: b4f2 9c3e a078 4c3c 81d7 183e 0a9e bebc
00000310: 8b55 e83e 39c6 503d d7be 3ebe c94c 113e
00000320: 55c2 1d3d 84e4 72be 641d b03e 80b5 46be
00000330: ff27 97be d5c2 87bc 247b 863e ba5f f2be
00000340: ef80 4e3c 9ce8 a5be dd68 a63d 63da e6bc
00000350: 77d4 dc3b a9a1 ab3d 3ec9 303c 0a1b 673e
00000360: e603 c6bd eaff d63d 3513 58be b0a6 e13e
00000370: 9cc4 aebe c125 ac3d 3670 ebbe 7c08 56bd
00000380: 750d 01be a997 fbbd bb07 eabe 2b4a a4be
00000390: dda5 b8be 8cd1 c3bc 373e 153e 26a1 31bd
000003a0: d0bd 4b3e 2dc5 b43e 1db8 e13e da3b e63e
000003b0: ede9 44be b4ae 923d a7c7 54be 0b7e 20bd
000003c0: 4d69 79bd 5052 3dbe 987a 543e a621 553e
000003d0: 18e4 083d b28c e2be 300e 283f 13e6 93bb
000003e0: daed 18bf 2aa3 083e c79c b6be 0239 f3be
000003f0: 4635 2e3f 84da 3d3e 27c1 c03e 4573 cfbd

actor.init_internal_node_embed.2.add_bias._bias f4 [64, 1]
0.17625676 0.29901934 -0.05215448 0.0753964 0.15202512 0.2920627 0.037910726 0.11286182
-0.08069678 -0.09710492 0.0032214127 0.042992715 -0.061472993 0.0808738 0.14207196 0.14701664
0.015820093 -0.1972264 0.020413782 0.0837947 -0.01231791 0.030717064 -0.05932779 -0.07052496
0.12519304 -0.041265555 -0.041844197 0.044016432 -0.09877478 -0.007385977 0.015804028 -0.0051922747
0.07701596 0.02812489 0.27595773 -0.06573434 0.023232788 -0.14761278 -0.032373384 0.19791457
-0.045313533 -0.2510114 0.15134802 -0.00961604 -0.13093558 -0.048096977 -0.29539594 -0.27214265
0.2693277 0.01277341 0.0963922 0.06843584 -0.021774862 -0.013609998 -0.043305613 0.20829125
0.22736658 -0.07869422 0.013510374 0.04775044 0.060295194 0.11089383 -0.04370428 0.015756974
00000000: a77c 343e 1019 993e f09f 55bd 6e69 9a3d
00000010: 79ac 1b3e 3e89 953e 4748 1b3d 1924 e73d
00000020: 5a44 a5bd f2de c6bd 561e 533b 2119 303d
00000030: 1bcb 7bbd 2aa1 a53d 507b 113e 888b 163e
00000040: 2499 813c b8f5 49be ce3a a73c 8e9c ab3d
00000050: 0fd1 49bc 5aa2 fb3c b201 73bd 646f 90bd
00000060: 9b32 003e 1206 29bd d264 2bbd 934a 343d
00000070: 6f4a cabd 1106 f2bb 7377 813c f523 aabb
00000080: 8bba 9d3d 2b66 e63c 554a 8d3e ba9f 86bd
00000090: b052 be3c ce27 17be f499 04bd 1eaa 4a3e
000000a0: af9a 39bd 9184 80be fafa 1a3e 988c 1dbc
000000b0: fa13 06be 5601 45bd 233e 97be 4856 8bbe
000000c0: 52e5 893e 9147 513c 4669 c53d 1728 8c3d
000000d0: 3261 b2bc 78fc 5ebc 3a61 31bd 4d4a 553e
000000e0: c9d2 683e 6f2a a1bd 9e5a 5d3c f795 433d
000000f0: 18f8 763d 4e1c e33d 4203 33bd c514 813c

actor.init_leaf_node_embed.0.module.weight f4 [32, 8]
-0.075973384 -0.34313932 -0.3941696 -0.07312819 0.16892715 0.37089497 0.49556488 0.26958755
-0.4045496 -0.68708855 -0.068379015 -0.31306976 -0.23593608 0.3319405 -0.022073694 0.36473003
0.20092008 -0.37773055 -0.12594545 0.40890378 0.004001607 -0.31760815 -0.05668357 -0.067440934
-0.40295127 -0.19567415 -0.2421202 -0.2534577 0.3327517 0.04514601 0.45127562 0.114205725
-0.0334146 -0.17433386 0.07185465 0.10730847 0.3733884 0.1319396 -0.49865738 0.39125538
0.09496519 0.147912 -0.5339856 0.15697217 -0.46588546 0.5246383 -0.12240198 -0.2569163
-0.38252217 -0.18015662 -0.06908277 0.0306464 0.06795941 -0.19851144 -0.09980849 -0.10941601
0.38256812 -0.4405459 0.2592818 0.4523246 -0.0350014 0.38877758 0.044950716 0.2253498
0.10414901 0.12612537 -0.16761373 0.337302 0.09775286 0.08582253 0.49037474 0.34801507
-0.088148266 0.33331206 -0.1806343 0.30153686 0.032501053 -0.11974987 0.4524055 -0.29887226
0.05098554 0.09511212 0.27843845 -0.06745001 0.35070977 -0.0303638 -0.19306481 0.021164838
-0.28502026 0.031648885 0.18400504 0.094119616 0.46756515 0.096490614 -0.0166643 -0.3579186
0.3889238 0.07662196 0.56737775 -0.34227186 -0.08712003 -0.06454515 0.36708963 -0.116579294
-0.2134621 0.029328577 0.25171837 -0.1395209 -0.27560776 -0.20903008 0.35581025 0.0762532
0.17488155 -0.019370215 0.16111255 0.45325214 0.11634227 0.41119322 0.11389746 -0.07272469
0.5057605 0.14113067 -0.11684134 -0.52733856 0.18825059 0.47341692 0.035715528 -0.30470893
-0.050348997 0.082383275 -0.2890009 0.356746 0.19450267 0.015233124 -0.24215657 0.078400984
-0.08494338 0.37568012 0.11012952 0.078336015 -0.27508247 0.09075929 0.18544158 0.2879545
-0.20646298 0.050123926 0.06685693 -0.354747 -0.23594756 0.35881332 0.049006805 0.11954338
-0.38994843 0.14222157 -0.09511576 0.27962708 0.04711619 0.52009 -0.0895742 0.106007986
-0.24324773 -0.2715787 -0.30779743 -0.046947584 0.028236954 0.41691017 -0.14125684 -0.26208043
0.13121729 -0.14377742 0.4857461 -0.11143666 0.020324377 -0.11111669 -0.19497034 0.05800785
-0.3292218 0.3529911 0.016358223 0.31870046 0.24849421 0.18040745 0.11806061 0.13221456
-0.29670665 -0.14482547 0.07024774 -0.07409515 0.45173758 -0.042575024 -0.037020203 -0.062129177
0.05807372 0.080399916 0.2511983 -0.020607805 0.22700071 0.06327582 -0.017179154 0.49396384
0.30073312 0.20511298 -0.49526095 -0.3221566 0.049785778 -0.021520155 0.046824694 -0.2999806
0.24119452 -0.17296529 0.117050976 0.41623968 0.15445766 0.120085016 0.44521493 -0.278283
0.03296333 -0.1732145 -0.38366872 0.14344937 0.5985924 -0.06139213 0.21698657 0.36417335
0.30870885 -0.16193593 -0.118514806 -0.11553902 -0.035679225 -0.41800064 0.102220036 0.20314844
0.11199321 0.2455949 -0.18635699 -0.21163307 0.29064405 0.010515948 -0.2170839 0.16490386
0.28817302 0.47400537 -0.5130194 -0.12890668 -0.21274266 -0.17099093 -0.03516907 0.45629385
0.10931568 0.42042077 -0.063986994 -0.21585983 0.11392492 0.3903642 0.17210491 -0.09707967
00000000: ef97 9bbd f5af afbe 99d0 c9be 3cc4 95bd
00000010: 3dfb 2c3e f2e5 bd3e aeba fd3e 6107 8a3e
00000020: 2021 cfbe 09e5 2fbf 4c0a 8cbd ae4a a0be
00000030: 3a99 71be 1bf4 a93e e4d3 b4bc e5bd ba3e
00000040: febd 4d3e e665 c1be d8f7 00be d65b d13e
00000050: ea1f 833b 899d a2be 082d 68bd 791e 8abd
00000060: a14f cebe ce5e 48be 5cee 77be 35c5 81be
00000070: 6e5e aa3e 06eb 383d 990d e73e b1e4 e93d
00000080: bfdd 08bd 9384 32be 8828 933d 8bc4 db3d
00000090: c42c bf3e 2d1b 073e 0550 ffbe a052 c83e
000000a0: 1c7d c23d 3e76 173e 48b3 08bf 50bd 203e
000000b0: 8a88 eebe b24e 063f e4ad fabd 898a 83be
000000c0: f2d9 c3be fa7a 38be 447b 8dbd 290e fb3c
000000d0: 4e2e 8b3d 9546 4bbe 6568 ccbd 8015 e0bd
000000e0: f8df c33e 3b8f e1be 96c0 843e 1797 e73e
000000f0: a15d 0fbd db0d c73e 3e1e 383d 19c2 663e
00000100: 134c d53d 0227 013e efa2 2bbe d9b2 ac3e
00000110: a732 c83d b9c3 af3d 6612 fb3e 082f b23e
00000120: 1487 b4bd e1a7 aa3e 33f8 38be 0a63 9a3e
00000130: d31f 053d 6b3f f5bd b2a1 e73e c905 99be
00000140: 37d6 503d 25ca c23d 7c8f 8e3e 3b23 8abd
00000150: 3b90 b33e 81bd f8bc c8b2 45be e261 ad3c
00000160: 2dee 91be 43a2 013d d16b 3c3e c9c1 c03d
00000170: b364 ef3e df9c c53d 9283 88bc 1b41 b7be
00000180: 0521 c73e f9eb 9c3d ab3f 113f 423e afbe
00000190: fc6b b2bd 3f30 84bd 2cf3 bb3e 20c1 eebd
000001a0: cf95 5abe 7c42 f03c 3be1 803e 91de 0ebe
000001b0: 761c 8dbe fb0b 56be c32c b63e a32a 9c3d
000001c0: 2614 333e 49ae 9ebc b0fa 243e aa10 e83e
000001d0: db44 ee3d eb87 d23e 1243 e93d aff0 94bd
000001e0: 8579 013f 8f84 103e 834a efbd a9ff 06bf
000001f0: c3c4 403e b463 f23e 724a 123d cf02 9cbe
00000200: c03a 4ebd 90b8 a83d edf7 93be 69a7 b63e
00000210: b52b 473e 5a94 793c e4f7 77be b290 a03d
00000220: cbf6 adbd 2559 c03e 968b e13d a26e a03d
00000230: 9cd7 8cbe 02e0 b93d 66e4 3d3e c66e 933e
00000240: 086b 53be bf4e 4d3d 49ec 883d 66a1 b5be
00000250: 3d9c 71be 61b6 b73e 5cbb 483d 29d3 f43d
00000260: 52a7 c7be 88a2 113e 0dcc c2bd 482b 8f3e
00000270: e8fc 403d 9e24 053f ae72 b7bd b71a d93d
00000280: ef15 79be 5d0c 8bbe a097 9dbe 1c4c 40bd
00000290: 2f51 e73c 4075 d53e a2a5 10be 682f 86be
000002a0: d35d 063e 633a 13be b6b3 f83e e738 e4bd
000002b0: 4f7f a63c 2691 e3bd 4ea6 47be a499 6d3d
000002c0: c38f a8be 40bb b43e ae01 863c b52c a33e
000002d0: 4475 7e3e bbbc 383e c3c9 f13d 4163 073e
000002e0: efe9 97be 214d 14be 0cde 8f3d 33bf 97bd
000002f0: 264a e73e 2663 2ebd 7fa2 17bd 2a7b 7ebd
00000300: b6de 6d3d b6a8 a43d 109d 803e b3d1 a8bc
00000310: e072 683e c196 813d 4cbb 8cbc d4e8 fc3e
00000320: b1f9 993e 2309 523e d892 fdbe b6f1 a4be
00000330: 2cec 4b3d 094b b0bc 40cb 3f3d 0f97 99be
00000340: b2fb 763e d01d 31be 6cb8 ef3d 5e1d d53e
00000350: 262a 1e3e 22ef f53d 36f3 e33e 1c7b 8ebe
00000360: 8f04 073d 245f 31be 3a70 c4be 64e4 123e
00000370: 5a3d 193f 5076 7bbd ba31 5e3e ee74 ba3e
00000380: 160f 9e3e 88d2 25be e4b7 f2bd b99f ecbd
00000390: 6124 12bd 2e04 d6be bd58 d13d 2506 503e
000003a0: b25c e53d 3b7d 7b3e 5ed4 3ebe 57b6 58be
000003b0: 4ccf 943e 154b 2c3c 3e4b 5ebe 8fdc 283e
000003c0: 6a8b 933e d5b0 f23e 3d55 03bf 1d00 04be
000003d0: 36d9 59be 3f18 2fbe 710d 10bd 599f e93e
000003e0: e6e0 df3d 6441 d73e 9d0b 83bd 5c0a 5dbe
000003f0: 7851 e93d d1dd c73e 453c 303e b5d1 c6bd

actor.init_leaf_node_embed.0.add_bias._bias f4 [32, 1]
0.011678356 0.029201698 0.0058014984 0.007947537 -0.117089175 0.015192349 -0.052382376 -0.026226074
0.07804552 0.035226878 0.040131897 -0.029671963 0.0016515551 -0.047636617 0.12884416 0.000671982
-0.039858688 -0.048486162 0.011524448 -0.0037067784 0.036272157 0.03949284 0.120440625 -0.021199558
0.012072166 0.012382349 0.09145469 -0.021151325 -0.11816189 0.0029676398 0.008685687 -0.15228643
00000000: 9356 3f3c 6638 ef3c 7f1a be3b 6336 023c
00000010: 73cc efbd 55e9 783c e78e 56bd 10d8 d6bc
00000020: 54d6 9f3d 0f4a 103d 5861 243d 9e12 f3bc
00000030: fe78 d83a 9d1e 43bd b9ef 033e f327 303a
00000040: dd42 23bd 6d99 46bd 0ad1 3c3c 6ced 72bb
00000050: 1d92 143d 3fc3 213d 93a9 f63d b2aa adbc
00000060: 56ca 453c 56df 4a3c 994c bb3d 8b45 adbc
00000070: dcfe f1bd bc7c 423b 694e 0e3c f9f0 1bbe

actor.init_leaf_node_embed.2.module.weight f4 [64, 32]
0.1426313 0.51893115 0.1811959 0.31873795 -0.24192086 0.4140501 0.3041454 -0.2560891
-0.0017145604 0.1861838 0.02039694 -0.0031988278 -0.33787084 -0.13623893 0.13044642 0.10574408
0.16757475 -0.1294076 0.11426599 0.31936175 0.6378759 -0.46392128 0.6287254 0.3555858
0.04032066 0.003205268 -0.01501823 0.33573863 -0.13155673 0.17240945 0.115789026 -0.29874557
-0.10245669 -0.270837 -0.17943431 -0.16345912 -0.27567837 0.32293856 -0.23069283 0.22701454
0.33070952 -0.32312977 0.07108576 -0.11383398 0.28250816 0.044220593 0.057289455 0.06669839
0.031389482 0.16185373 0.057858523 -0.469874 -0.4320581 0.5934167 0.19109383 0.25502655
0.09866841 0.14149886 0.12768753 -0.1925357 0.08418018 0.07971137 0.23689051 -0.17105226
-0.01673174 0.010539491 0.22524102 -0.38374174 0.16490658 -0.07928168 -0.111681014 -0.08801386
-0.34910315 0.40968347 0.08535366 0.13993911 -0.19086963 0.041346684 0.14405279 0.1417873
-0.36455253 -0.29573524 0.17077115 0.066663705 -0.0666523 0.13633762 0.140688 0.05911271
0.34843773 -0.10625695 0.17817083 0.031414684 -0.15586978 -0.042956293 -0.5176257 -0.21125336
-0.23801595 0.1232097 -0.35379463 0.60012716 -0.20713219 0.077247106 -0.16045472 0.17317778
-0.029654521 0.09940636 0.23010471 0.1744138 0.62705725 -0.2655979 -0.061939873 -0.18552676
-0.1532457 0.24423437 0.0017907867 0.0576449 -0.49716944 -0.023422793 -0.101044536 -0.24873647
0.092449725 -0.17063302 0.27822563 0.21208881 0.20797649 0.008527738 -0.07969097 0.072915755
-0.34859738 -0.39960343 -0.08427001 -0.14692378 0.017242324 -0.27230227 -0.23149365 -0.21208699
-0.61477256 0.3622678 0.020432608 0.010936153 0.44434956 -0.019292383 -0.27010763 0.17400925
0.087980695 -0.24131544 -0.3057649 -0.111638285 0.1639097 0.22824635 0.1011246 -0.08742748
-0.19227241 0.10301861 -0.060586356 0.03302517 -0.086189784 0.0008628956 0.2128559 -0.14571713
-0.13438867 0.22240712 -0.16339955 -0.37167087 0.11659369 0.21221991 0.07407014 -0.17347305
-0.33017254 -0.08226021 0.02087441 0.047840238 -0.16901025 -0.23668957 0.4591553 -0.24527761
0.24435835 0.040449116 -0.0015544269 -0.037062023 0.023179853 -0.08141159 -0.15507874 -0.34967282
-0.20193656 -0.001742855 0.037597507 0.21859357 -0.030890027 0.07656091 -0.2455748 -0.05910315
-0.14864264 -0.44091207 -0.4029364 0.10179322 -0.21629536 -0.21042071 0.025786385 0.033490505
-0.0063994625 -0.00923441 -0.024976524 -0.24766575 0.33811572 0.11931104 -0.17909741 -0.20701061
-0.15849218 0.66504663 0.10301025 -0.036854617 0.10806126 0.24766016 -0.15087928 0.1568817
0.08108353 0.26195088 -0.2472784 0.023750756 0.14146161 -0.07276795 -0.26100385 0.065427944
0.044166725 0.21903259 -0.34508651 -0.38136283 -0.5362585 -0.32247275 0.17962101 -0.21136896
-0.070233375 0.06443518 -0.013217903 -0.36004323 0.14707558 -0.32374674 -0.42904037 0.09761719
-0.37290046 0.24567044 -0.14391513 -0.16534379 0.030708645 0.69043815 -0.069721386 -0.19624622
-0.08000238 0.046444733 -0.19834724 -0.26555216 0.18350042 -0.5231572 0.30770668 0.015756575
00000000: f10d 123e acd8 043f 6b8b 393e 9f31 a33e
00000010: 1aba 77be 60fe d33e f2b8 9b3e 1c1e 83be
00000020: 1abb e0ba f7a6 3e3e 7c17 a73c 6da3 51bb
00000030: 68fd acbe 3882 0bbe bf93 053e 5a90 d83d
00000040: b798 2b3e 6d83 04be 4a04 ea3d 6283 a33e
00000050: d64b 233f 1787 edbe 26f4 203f 580f b63e
00000060: 4727 253d 790f 523b 060f 76bc efe5 ab3e
00000070: cfb6 06be 1a8c 303e cc22 ed3d 2ef5 98be
00000080: d0d4 d1bd 26ab 8abe a1bd 37be d461 27be
00000090: b725 8dbe 3458 a53e be3a 6cbe 8076 683e
000000a0: c252 a93e 4471 a5be 6995 913d ca21 e9bd
000000b0: e9a4 903e a720 353d 59a8 6a3d 2a99 883d
000000c0: 4292 003d fcbc 253e 0ffd 6c3d 5393 f0be
000000d0: b836 ddbe 28ea 173f 1aae 433e d792 823e
000000e0: aa12 ca3d 14e5 103e 85c0 023e 1428 45be
000000f0: a966 ac3d b73f a33d 6d93 723e 5328 2fbe
00000100: 0111 89bc d4ad 2c3c 95a5 663e cc79 c4be
00000110: 45dd 283e 6f5e a2bd 04b9 e4bd 9c40 b4bd
00000120: a6bd b2be 08c2 d13e e6cd ae3d 334c 0f3e
00000130: 5473 43be 245b 293d 9382 133e b130 113e
00000140: a1a6 babe 9c6a 97be a2de 2e3e fb86 883d
00000150: 0081 88bd 179c 0b3e 8410 103e 2b20 723d
00000160: 6e66 b23e 3e9d d9bd 6a72 363e afac 003d
00000170: 549c 1fbe f0f2 2fbd 1e83 04bf cd52 58be
00000180: 74ba 73be 5e55 fc3d 9224 b5be efa1 193f
00000190: 761a 54be bb33 9e3d 3e4e 24be 8455 313e
000001a0: 0aee f2bc 9095 cb3d 92a0 6b3e 8899 323e
000001b0: d386 203f 73fc 87be aab4 7dbd bafa 3dbe
000001c0: 71ec 1cbe 9318 7a3e d5b8 ea3a 0f1d 6c3d
000001d0: fe8c febe 28e1 bfbc 70f0 cebd c6b4 7ebe
000001e0: 4856 bd3d 6cba 2ebe 9773 8e3e cf2d 593e
000001f0: caf7 543e edb7 0b3c 0535 a3bd db54 953d
00000200: 5b7b b2be d298 ccbe c195 acbd 3073 16be
00000210: c63f 8d3c 346b 8bbe ac0c 6dbe 552d 59be
00000220: bc61 1dbf 2a7b b93e 4962 a73c 8d2d 333c
00000230: c981 e33e 0f0b 9ebc 8c4b 8abe 7b2f 323e
00000240: 392f b43d 651b 77be 388d 9cbe 9da2 e4bd
00000250: f2d7 273e 69b9 693e 6a1a cf3d 2e0d b3bd
00000260: 0fe3 44be 6cfb d23d 6629 78bd 6745 073d
00000270: 4584 b0bd f233 623a e6f6 593e df36 15be
00000280: 2f9d 09be b1be 633e 3652 27be a54b bebe
00000290: acc8 ee3d 2d50 593e 16b2 973d eba2 31be
000002a0: 600c a9be 0a78 a8bd d000 ab3c 20f4 433d
000002b0: 0611 2dbe c05e 72be 6716 eb3e 0e2a 7bbe
000002c0: 1339 7a3e f9ad 253d e9bd cbba 59ce 17bd
000002d0: ade3 bd3c 1fbb a6bd f6cc 1ebe 5108 b3be
000002e0: 75c8 4ebe 8270 e4ba d8ff 193d fed6 5f3e
000002f0: 150d fdbc f7cb 9c3d f677 7bbe 2516 72bd
00000300: c735 18be 3abf e1be ae4d cebe f778 d03d
00000310: 887c 5dbe 8778 57be f83d d33c 572d 093d
00000320: 95b2 d1bb ec4b 17bc 919b ccbc 179c 7dbe
00000330: 811d ad3e 5959 f43d 5065 37be 97fa 53be
00000340: c64b 22be 7f40 2a3f 0af7 d23d def4 16bd
00000350: 394f dd3d a09a 7d3e 1980 1abe 99a5 203e
00000360: 1f0f a63d 6d1e 863e 8d36 7dbe f290 c23c
00000370: 50db 103e 5d07 95bd 4ca2 85be 16ff 853d
00000380: 2be8 343d 144a 603e 2eaf b0be fd41 c3be
00000390: 3d48 09bf 261b a5be 92ee 373e 1b71 58be
000003a0: 84d6 8fbd 97f6 833d e78f 58bc 9657 b8be
000003b0: fb9a 163e 22c2 a5be 2eab dbbe 85eb c73d
000003c0: cfec bebe 0891 7b3e 7d5e 13be e24f 29be
000003d0: b290 fb3c 8ec0 303f 16ca 8ebd c5f4 48be
000003e0: 4ad8 a3bd d53c 3e3d 8a1b 4bbe 74f6 87be
000003f0: 89e7 3b3e a1ed 05bf bb8b 9d3e ef13 813c

actor.init_leaf_node_embed.2.add_bias._bias f4 [64, 1]
0.2717504 0.13643873 0.042116612 0.008807902 -0.17859678 0.011551851 -0.21150254 -0.27771965
-0.16734937 -0.17099135 0.2788077 -0.15288834 0.09690071 -0.09113751 -0.09922879 -0.07285195
0.14307655 -0.14154221 -0.32169753 -0.03603625 0.03769417 0.08429463 0.010335475 0.044171747
0.23569536 -0.04416452 -0.004601812 -0.08532476 -0.1711979 0.11298379 -0.14364558 -0.01816876
0.1099786 -0.060754772 -0.15616061 0.15020369 0.22587721 -0.045419008 -0.02986998 -0.1312769
0.057652842 -0.5026276 0.18823493 0.059022922 -0.13961145 -0.043323077 -0.14520796 -0.0392431
-0.23227288 0.04365012 -0.054444257 -0.060891338 0.10104212 -0.16478392 -0.18895009 0.10131481
0.012659052 -0.2285074 0.19258355 -0.27086434 0.13459346 -0.13426733 0.06984945 0.023931263
00000000: de22 8b3e 98b6 0b3e 7882 2c3d 054f 103c
00000010: 13e2 36be fa43 3d3c 1f94 58be 4531 8ebe
00000020: a25d 2bbe 5b18 2fbe e2bf 8e3e c38e 1cbe
00000030: e173 c63d 4ea6 babd 7738 cbbd 6733 95bd
00000040: a982 123e 71f0 10be 8ab5 a4be bf9a 13bd
00000050: 3465 1a3d aaa2 ac3d 2056 293c 6fed 343d
00000060: 205a 713e dbe5 34bd ccca 96bb bfbe aebd
00000070: 814e 2fbe 0c64 e73d d417 13be a7d6 94bc
00000080: 763c e13d ffd9 78bd 91e8 1fbe ffce 193e
00000090: 5b4c 673e 4809 3abd e3b1 f4bc 746d 06be
000000a0: 6325 6c3d 34ac 00bf a8c0 403e 05c2 713d
000000b0: 4ef6 0ebe 8a73 31bd 65b1 14be 5fbd 20bd
000000c0: f1d8 6dbe 78ca 323d f100 5fbd 3269 79bd
000000d0: 2cef ce3d 1ebd 28be 227c 41be 247e cf3d
000000e0: ea67 4f3c d8fd 69be 9f34 453e bbae 8abe
000000f0: ded2 093e 607d 09be 3a0d 8f3d 7f0b c43c

actor.init_next_embed.0.module.weight f4 [32, 6]
0.118412726 -0.14783362 -0.29890305 -0.45511487 -0.25730613 -0.004590758 -0.22016835 -0.097654946
0.18683255 -0.24412228 0.023808982 -0.23975721 0.5310106 -0.26774636 -0.25778565 -0.07348258
-0.15111595 0.2516645 -0.0062771775 0.036373135 -0.033101637 0.42314047 -0.45795524 -0.35164085
0.1089327 -0.4220224 -0.12407604 -0.25047797 -0.09282501 -0.15324374 -0.02589516 -0.5772369
0.28352162 -0.72122055 -0.12786582 0.14598231 0.8620662 0.10291967 0.070973516 -0.1575659
-0.04140947 -0.35144216 -0.089161046 0.09831574 0.14582333 0.08265943 -0.3097352 0.17208247
-0.19947694 -0.5904613 0.2444619 -0.012807884 1.3689322 -0.6932475 0.10121116 -0.29224053
-0.1822739 0.051313184 -0.35039747 -0.4629012 -0.32098305 0.1820992 0.016121991 0.38533276
0.27682817 -0.42362684 -0.098116875 -0.029234236 -0.021627635 0.12449095 0.030720865 0.13368148
-0.3536948 -0.032835547 0.14581446 0.02801711 -0.22067262 -0.31722483 0.01859563 0.009134302
0.12415758 0.24931972 -0.3770002 -0.08310527 1.2268342 -0.22806235 -0.25601846 -0.60187745
-0.077365324 0.01394911 -0.19628039 -0.06358731 -0.29770973 -0.12110442 -0.008882015 0.112567045
-0.2827544 -0.034050748 -0.11244481 -0.17294264 -0.36058626 0.15980233 0.57213616 -0.05052203
0.19700745 -0.2508407 -0.053315032 0.0064613596 -0.062799975 0.2881259 0.22860755 -0.0075339316
-0.06980643 0.25486833 0.920803 0.2441345 -0.35871825 -0.22238648 0.1538065 0.13018371
0.2676398 0.026163727 -0.03635058 -0.13890639 -0.25893685 0.1700918 -0.028527506 -0.2110019
-0.7182638 -0.10003737 -0.12675759 -0.029580887 0.116210006 -0.1477266 -0.09739232 0.1338673
-0.34825513 0.0630194 0.57507604 -0.26592296 0.33082733 -0.403297 0.42491177 0.40963846
1.2763759 -0.09954142 -0.18245748 -0.37218022 -0.14313428 0.19825733 0.16993926 0.28594753
-0.06433231 -0.1926811 -0.1890114 -0.3924673 0.0024693739 -0.32030162 0.18111199 -0.06237119
-0.2250773 -0.016258283 -0.5119139 -0.38239774 -0.18877986 -0.19366075 0.12661852 -0.16480885
0.5028692 0.20565565 -0.01903345 -1.2495865 -0.057805225 0.18844154 0.4333824 0.23072688
-0.34367222 -0.67121476 -0.03676353 0.16752332 -0.16668977 -0.25917542 0.29571474 0.032695707
-0.039194103 -0.05458214 -0.062278576 -0.22645392 -0.47012034 -0.0852721 -0.07390855 -0.050315253
00000000: 5f82 f23d b261 17be d209 99be d104 e9be
00000010: a1bd 83be 126e 96bb d073 61be 51ff c7bd
00000020: 0851 3f3e 31fb 79be 0e0b c33c ea82 75be
00000030: 50f0 073f 0d16 89be 7bfc 83be 097e 96bd
00000040: 24be 1abe 2bda 803e c8b0 cdbb fffb 143d
00000050: 9595 07bd dea5 d83e 1c79 eabe 450a b4be
00000060: 1b18 df3d 5213 d8be 941b febd a63e 80be
00000070: 0a1b bebd edeb 1cbe 1622 d4bc ccc5 13bf
00000080: bf29 913e e9a1 38bf 42ef 02be 637c 153e
00000090: 5fb0 5c3f 8cc7 d23d 905a 913d f558 21be
000000a0: fa9c 29bd 3af0 b3be 119a b6bd c359 c93d
000000b0: b652 153e 5949 a93d 9d95 9ebe 6336 303e
000000c0: af43 4cbe 7928 17bf 3854 7a3e 29d8 51bc
000000d0: 2c39 af3f ab78 31bf cc47 cf3d 8da0 95be
000000e0: 02a6 3abe c62d 523d 4c67 b3be 6301 edbe
000000f0: e457 a4be 3678 3a3e 4412 843c 564a c53e
00000100: 6cbc 8d3e 9ee5 d8be 80f1 c8bd a37c efbc
00000110: 702c b1bc 1cf5 fe3d 53aa fb3c cce3 083e
00000120: 7c17 b5be 917e 06bd 6350 153e 2384 e53c
00000130: 01f8 61be 4b6b a2be dd55 983c 0aa8 153c
00000140: 5446 fe3d ab4d 7f3e 2c06 c1be 1933 aabd
00000150: e708 9d3f 2d89 69be da14 83be a414 1abf
00000160: b671 9ebd cf8a 643c bafd 48be 103a 82bd
00000170: 696d 98be 9805 f8bd df85 11bc 8d89 e63d
00000180: 2fc5 90be cc78 0bbd 7749 e6bd e017 31be
00000190: c39e b8be 39a3 233e 8477 123f 30f0 4ebd
000001a0: 52bc 493e 316e 80be dd60 5abd d0b9 d33b
000001b0: 469d 80bd 3d85 933e 1918 6a3e 33df f6bb
000001c0: acf6 8ebd 1a7e 823e bfb9 6b3f 65fe 793e
000001d0: eba9 b7be 48b9 63be 737f 1d3e e14e 053e
000001e0: 1508 893e 5055 d63c 59e4 14bd 7a3d 0ebe
000001f0: 5f93 84be 8b2c 2e3e 84b2 e9bc e210 58be
00000200: 23e0 37bf 65e0 ccbd becc 01be 9e53 f2bc
00000210: 83ff ed3d a445 17be a075 c7bd 8214 093e
00000220: 7f4e b2be 5110 813d 2f38 133f 0e27 88be
00000230: 3362 a93e f27c cebe 098e d93e 22bc d13e
00000240: 4960 a33f 5fdc cbbd 22d6 3abe 688e bebe
00000250: cb91 12be f803 4b3e 8f04 2e3e b767 923e
00000260: a8c0 83bd 324e 45be 348c 41be 79f1 c8be
00000270: 38d5 213b 93fe a3be 6c75 393e ef78 7fbd
00000280: aa7a 66be 1730 85bc ca0c 03bf a3c9 c3be
00000290: 824f 41be 014f 46be 49a8 013e a7c3 28be
000002a0: 09bc 003f 6597 523e 0aec 9bbc 73f2 9fbf
000002b0: 2cc5 6cbd d2f6 403e 4ce4 dd3e ab43 6c3e
000002c0: cef5 afbe bbd4 2bbf 5b95 16bd 3c8b 2b3e
000002d0: b9b0 2abe a4b2 84be ec67 973e efeb 053d
000002e0: ff89 20bd 8691 5fbd d217 7fbd 89e3 67be
000002f0: 9db3 f0be 24a3 aebd 5e5d 97bd 5e17 4ebd

actor.init_next_embed.0.add_bias._bias f4 [32, 1]
0.16428173 0.049496986 -0.07000413 -0.033687312 0.0107204635 -0.29105774 0.11891245 -0.07583941
-0.21302344 -0.0610211 -0.09790748 0.27463013 0.04375744 0.15005681 0.36670983 0.26904395
0.055627048 -0.20353585 -0.27014607 0.3650711 -0.07549628 0.015034211 -0.23474637 -0.058791295
0.25074476 -0.09180085 -0.14230709 0.02486412 0.038071908 0.1565712 0.14343786 0.12988798
00000000: 7839 283e 5abd 4a3d 535e 8fbd b5fb 09bd
00000010: e2a4 2f3c 8505 95be 5f88 f33d b151 9bbd
00000020: d122 5abe 43f1 79bd b883 c8bd 529c 8c3e
00000030: 003b 333d 7ea8 193e 64c1 bb3e 21c0 893e
00000040: 30d9 633d b46b 50be 9650 8abe 99ea ba3e
00000050: cb9d 9abd 0d52 763c 5a61 70be 24cf 70bd
00000060: 9e61 803e 1602 bcbd f3b8 11be d7af cb3c
00000070: 4af1 1b3d 3354 203e 60e1 123e 5b01 053e

actor.init_next_embed.2.module.weight f4 [64, 32]
0.014389103 -0.10789858 -0.019091329 0.1796434 0.15004382 0.079249956 -0.17375085 -0.23010683
-0.10404696 0.3139125 0.08813403 -0.5768217 0.09630971 0.3783774 0.17115153 -0.36519855
-0.11572599 0.066795796 -0.018206576 -0.25501135 0.063840345 -0.058241893 -0.47545183 -0.48497596
-0.44735235 0.35337982 -0.17253312 -0.09031951 0.06584509 0.16539966 0.280183 -0.08899223
0.22180969 -0.06043481 -0.12562938 -0.06686564 -0.092800915 -0.16934489 -0.17391373 0.0011992692
0.26165086 0.043552563 0.47751835 0.33055538 -0.021082256 -0.12769441 -0.24698673 -0.021525303
0.19225848 0.020429578 -0.07178145 0.5041986 0.17182124 0.022584002 0.053682275 -0.19082484
-0.13346027 0.21684061 -0.010941809 -0.30966234 -0.1342053 0.02931169 -0.051767897 -0.05701181
-0.04415646 0.030544385 0.18589824 -0.13064755 -0.0055867387 0.19167225 -0.5223418 -0.34951702
-0.4070505 -0.14098173 0.025652938 0.44008493 0.09634543 -0.32213014 -0.7759688 0.14715943
-0.20058727 0.06461219 0.19015263 0.21806742 -0.07542268 -0.080271795 -0.060338303 0.45242733
-0.40441766 0.09740986 -0.21548897 -0.15875041 -0.5492452 -0.69938076 -0.27466565 -0.2249931
-0.23419546 0.16490287 0.38476816 -0.093983866 -0.3105268 0.025079655 -0.38861272 0.12647636
0.033576455 0.23582575 -0.3414568 0.22705384 0.109121546 0.16155656 -0.23683661 -0.26099366
-0.15288562 0.20255412 0.030966898 -0.31185943 -0.016354442 0.07267645 0.16415825 0.78164274
-0.3370666 -0.4311826 -0.09358054 -0.3270422 -0.29652217 -0.22289152 0.09543718 -0.21959633
-0.20408976 -0.38188866 -0.0022498248 0.24094315 0.11962216 -0.16394585 -0.15473619 -0.08225156
0.22375932 -0.12415712 -0.23870881 0.031297565 -0.038064916 0.11349323 0.09852026 0.0025810117
0.13327001 0.15157492 -0.15137663 -0.40032613 -0.17426431 0.095307186 0.15935308 0.048021406
0.23224849 -0.0958205 0.4487335 0.19827239 -0.20788205 -0.12937656 -0.1074543 0.050958678
0.066559836 -0.03508925 0.036862943 -0.105534606 0.33532715 0.1990372 0.00015365901 0.14207517
0.035059057 0.21404336 0.027100252 0.732764 0.0465053 0.06025122 -0.15065701 0.5757744
-0.016081138 0.3215282 0.11507334 0.92953 0.047193844 -0.03415369 0.2560371 0.18768702
0.45075408 -0.08443478 0.06629176 0.35118666 -0.22516389 -0.26153803 0.2554622 -0.16295363
0.12878805 0.175812 0.010516013 0.17581664 -0.071933016 0.030522747 -0.21606024 -0.3255148
0.074003674 0.22384755 0.07554041 0.18099368 0.023254389 -0.033990156 -0.12439765 -0.12658544
-0.03885624 0.16782707 -0.21278393 -0.059368264 0.20208997 -0.27124754 0.16903259 0.23021424
-0.19866899 0.07219888 0.039917693 -0.22596505 -0.060436256 -0.060676932 0.11052341 -0.28597522
-0.3930891 0.041719142 -0.28484914 0.021534538 0.22380526 -0.29127148 -0.2344287 -0.19682188
-0.03146393 -0.034163944 0.35394993 0.41327438 0.09483774 0.17858881 0.4748124 0.5391321
0.041884296 0.34736568 0.20113654 0.37844822 -0.33561698 0.013770874 -0.16352694 0.7429852
0.4779797 0.022900624 0.09451878 -0.09785468 0.0830933 0.29730895 0.07627588 0.34720775
00000000: 46c0 6b3c eef9 dcbd 6b65 9cbc 70f4 373e
00000010: 16a5 193e cd4d a23d beeb 31be 20a1 6bbe
00000020: 9316 d5bd 24b9 a03e 9d7f b43d 96aa 13bf
00000030: 063e c53d afba c13e 5942 2f3e 4efb babe
00000040: bf01 edbd 3ccc 883d f525 95bc d990 82be
00000050: babe 823d 0d8f 6ebd 6c6e f3be c54e f8be
00000060: 5e0b e5be 33ee b43e 86ac 30be 6ff9 b8bd
00000070: cad9 863d 875e 293e 2574 8f3e 8f41 b6bd
00000080: 1422 633e 7e8a 77bd fda4 00be daf0 88bd
00000090: 680e bebd bf68 2dbe 7116 32be cc30 9d3a
000000a0: 1af7 853e 2c64 323d 497d f43e 8e3e a93e
000000b0: b2b4 acbc 53c2 02be 17ea 7cbe d555 b0bc
000000c0: 68df 443e ee5b a73c 2702 93bd 2913 013f
000000d0: e8f1 2f3e 1602 b93c f2e1 5b3d 9667 43be
000000e0: cfa9 08be 770b 5e3e 4645 33bc 108c 9ebe
000000f0: 1d6d 09be 121f f03c 930a 54bd 3785 69bd
00000100: 67dd 34bd 3838 fa3c 1c5c 3e3e 79c8 05be
00000110: f610 b7bb bb45 443e 31b8 05bf e5f3 b2be
00000120: ec68 d0be 845d 10be 1c26 d23c d052 e13e
00000130: c150 c53d 3eee a4be e4a5 46bf f6b0 163e
00000140: c066 4dbe 6553 843d 5fb7 423e 114d 5f3e
00000150: 3577 9abd 8a65 a4bd 4c25 77bd 8ea4 e73e
00000160: d50f cfbe d27e c73d 24a9 5cbe 788f 22be
00000170: 559b 0cbf 9e0a 33bf faa0 8cbe 9764 66be
00000180: efd0 6fbe 4cdc 283e 5500 c53e 9d7a c0bd
00000190: 5efd 9ebe d973 cd3c 3ff8 c6be 0583 013e
000001a0: 7787 093d 4e7c 713e 6dd3 aebe cd80 683e
000001b0: 1e7b df3d 156f 253e 4c85 72be f6a0 85be
000001c0: 0c8e 1cbe 596a 4f3e 4bae fd3c 0aac 9fbe
000001d0: c0f9 85bc 64d7 943d 1a19 283e bd19 483f
000001e0: fe93 acbe f7c3 dcbe 27a7 bfbd 1372 a7be
000001f0: c1d1 97be ad3d 64be 9174 c33d dcdd 60be
00000200: e8fc 50be e986 c3be cc71 13bb cdb9 763e
00000210: 77fc f43d 6ce1 27be 2a73 1ebe 8273 a8bd
00000220: 2a21 653e 1746 febd 1570 74be e031 003d
00000230: f5e9 1bbd 236f e83d fdc4 c93d 3126 293b
00000240: ef77 083e 7536 1b3e 7a02 1bbe 8cf7 ccbe
00000250: 5872 32be 6a30 c33d 742d 233e 18b2 443d
00000260: 8cd2 6d3e 8a3d c4bd 66c0 e53e eb07 4b3e
00000270: 08df 54be 4a7b 04be 0011 dcbd 0cba 503d
00000280: 8650 883d bfb9 0fbd 99fd 163d 8722 d8bd
00000290: 00b0 ab3e 68d0 4b3e 871f 2139 277c 113e
000002a0: 169a 0f3d 2f2e 5b3e 5901 de3c 6c96 3b3f
000002b0: 577c 3e3d fcc9 763d d545 1abe f365 133f
000002c0: 97bc 83bc 589f a43e 92ab eb3d aef5 6d3f
000002d0: 554e 413d bde4 0bbd 4b17 833e 0731 403e
000002e0: 3dc9 e63e 24ec acbd f9c3 873d bdce b33e
000002f0: 5d91 66be 50e8 85be f1cb 823e 51dd 26be
00000300: 04e1 033e 1008 343e 5b4b 2c3c 4709 343e
00000310: 9e51 93bd d70a fa3c e53e 5dbe e0a9 a6be
00000320: 3d8f 973d 4b38 653e eeb4 9a3d 6856 393e
00000330: fd7f be3c 4339 0bbd 32c4 febd 9d9f 01be
00000340: b927 1fbd dcda 2b3e 08e4 59be 232c 73bd
00000350: acf0 4e3e f5e0 8abe e116 2d3e 48bd 6b3e
00000360: e26f 4bbe 02dd 933d bc80 233d 6263 67be
00000370: 028c 77bd 6088 78bd 195a e23d 586b 92be
00000380: f942 c9be b1e1 2a3d bfd7 91be 3369 b03c
00000390: 352d 653e 8921 95be 140e 70be ad8b 49be
000003a0: 52e0 00bd 7eef 0bbd ed38 b53e b398 d33e
000003b0: 4a3a c23d fcdf 363e 9c1a f33e 9004 0a3f
000003c0: de8e 2b3d ead9 b13e bdf6 4d3e f7c3 c13e
000003d0: fdd5 abbe 3b9f 613c 9b73 27be 4734 3e3f
000003e0: c1b9 f43e 179a bb3c 1093 c13d 0968 c8bd
000003f0: d22c aa3d e138 983e 8736 9c3d 37c5 b13e

actor.init_next_embed.2.add_bias._bias f4 [64, 1]
-0.57023543 -0.40505207 -0.27461848 -0.36191 -0.047622934 1.1195709 -0.41594905 0.7251638
0.9528146 -0.69687253 -0.6973708 0.048747964 1.2193049 -1.0434651 -0.93756443 -0.7006366
-0.82841086 0.8907302 0.64062536 -0.19403091 -0.08593786 -0.2556312 -1.3253374 0.6426465
-2.2907438 -0.82584107 -0.22391847 -1.0199809 0.55432403 0.3451391 -0.5307556 -0.7208364
-0.09933654 0.8594507 -0.28162852 -0.12500572 1.4215324 0.7939154 -0.29957965 0.5482366
-1.728146 1.1352326 -0.37215424 -1.3958218 0.3964033 1.2812933 1.0942816 0.71216494
-0.54473686 0.33709142 0.75821 0.41925833 0.33968198 -0.023409633 -0.30421326 -0.7291752
0.042520244 0.5514926 -0.5156184 0.2638573 0.33237365 0.8087849 0.01431106 0.2107215
00000000: f3fa 11bf fc62 cfbe cb9a 8cbe 444c b9be
00000010: 4410 43bd 194e 8f3f 46f7 d4be 56a4 393f
00000020: a8eb 733f 3d66 32bf e586 32bf f2ab 473d
00000030: 2f12 9c3f 4490 85bf 3904 70bf ec5c 33bf
00000040: bc12 54bf e506 643f 0600 243f 0ab0 46be
00000050: 3000 b0bd 18e2 82be a8a4 a9bf 7b84 243f
00000060: 8c9b 12c0 526a 53bf e24a 65be bc8e 82bf
00000070: 2ee8 0d3f 12b6 b03e 99df 07bf bc88 38bf
00000080: f570 cbbd f604 5c3f 9d31 90be 8001 00be
00000090: c6f4 b53f 0a3e 4b3f 8162 99be 3c59 0c3f
000000a0: e333 ddbf 4d4f 913f 008b bebe 4aaa b2bf
000000b0: 60f5 ca3e 6b01 a43f 6b11 8c3f 7150 363f
000000c0: e073 0bbf 3f97 ac3e 0d1a 423f 07a9 d63e
000000d0: ccea ad3e 8fc5 bfbc d7c1 9bbe 3aab 3abf
000000e0: b529 2e3d 9e2e 0d3f 91ff 03bf 4e18 873e
000000f0: e12c aa3e 870c 4f3f f078 6a3c 60c7 573e

actor.embedder.layers.0.0.module.W_query.weight f4 [64, 64]
0.014655918 -0.044621687 0.16023402 -0.14607362 0.04836182 -0.12671411 -0.05446652 0.014488567
0.18911634 -0.15102299 0.14050512 -0.017464997 0.04842988 -0.010025319 0.035611086 -0.009040065
0.029227726 0.048184443 0.015318075 0.095181346 0.060532417 -0.07953428 0.13682067 0.19635208
-0.21741155 0.16910096 0.070071794 -0.03529063 0.024196396 0.1863278 -0.011546115 0.04909939
0.09829758 0.022774491 -0.21339129 0.15774317 -0.008776602 0.11197792 0.09755515 -0.0041314266
0.1141635 0.041293878 -0.031046243 0.1559232 -0.06656693 -0.11185714 0.18114804 -0.07307082
-0.090517595 0.009389415 -0.045276165 -0.11385142 -0.13113782 0.045981262 0.054072086 -0.08898525
0.10965623 -0.113091975 0.13176318 -0.015306651 -0.071943425 -0.0899083 -0.061072335 -0.029245
-0.29976737 -0.14383835 -0.1266326 -0.12993051 -0.04312974 -0.19756393 0.16990086 0.19300729
0.25014153 0.093662366 -0.16336854 -0.049054988 0.17742512 0.002426155 -0.012522151 -0.015131803
-0.10054234 0.1439292 -0.0072582676 0.254369 0.06010514 -0.12867458 -0.04931228 -0.22836865
-0.1991776 -0.10345964 0.17650633 0.039203115 0.12264557 -0.12110589 0.1441344 -0.024898693
-0.21220261 -0.098748244 0.038906634 -0.05423717 -0.10711518 -0.12327976 -0.17214726 -0.120441526
-0.17207918 0.28459346 -0.19581328 0.038341273 0.18613227 -0.099566504 -0.008903262 0.13964415
0.19301166 -0.08142207 -0.08778672 -0.21786939 -0.1389662 0.13195495 -0.028677488 -0.1951678
-0.1468544 0.33847526 -0.19512372 0.3382931 -0.10001382 0.18658234 -0.17999922 0.1159623
-0.2343635 0.0022519946 0.021954704 0.06565541 0.1477955 -0.048235793 -0.034148365 0.05010945
0.004025561 0.07332509 -0.074160956 -0.047116388 0.100573964 0.06918705 0.04791318 0.1468632
0.01351637 0.10743606 0.11034847 0.05645015 0.10622119 0.036502663 -0.11118377 -0.11810258
-0.064307906 -0.06533857 0.049140003 -0.057897113 0.007948205 -0.031314004 -0.0046063354 -0.0110837445
-0.052938856 -0.08347331 0.03565873 0.022745578 0.079118356 0.060346246 0.024455821 0.0143848
0.034250684 0.07606317 0.009214814 0.021735696 0.0580453 -0.11855042 0.17533906 0.16950226
-0.02658104 -0.04083048 0.035452817 0.009983034 -0.054697577 0.06312884 0.012338205 0.04386665
-0.034076903 0.08201337 -0.053895462 -0.033531487 -0.12155738 0.026254205 -0.0943623 -0.06306092
-0.058798116 0.07340071 -0.059568174 0.09090642 0.09246028 0.16773623 0.04188982 -0.10745759
-0.02285667 0.031408627 -0.08906574 -0.037902795 -0.16433549 0.038986355 -0.012777243 0.038886283
-0.005135926 0.025800044 -0.0064858464 0.05992369 -0.13303152 0.061849527 -0.022614026 -0.03277227
-0.006804585 0.021289349 -0.107046686 0.09462929 0.08943679 -0.056325775 0.090718806 -0.037716094
-0.04785536 -0.0385451 -0.018480463 0.15893428 -0.01589731 0.08311312 0.013497756 -0.05113872
-0.16927293 0.10500994 0.15143768 -0.07960951 0.09368496 -0.10990926 0.011097258 -0.04363363
-0.021463864 0.02421628 0.05957478 0.008180509 0.21216981 0.100450076 0.077412546 0.06256366
0.13130876 -0.082878426 -0.060760476 -0.039273158 -0.11832195 -0.041207854 -0.01784714 -0.08680505
00000000: 601f 703c 3bc5 36bd 6314 243e 5394 15be
00000010: 0b17 463d 58c1 01be 4918 5fbd 7461 6d3c
00000020: b7a7 413e c5a5 1abe 93e0 0f3e c112 8fbc
00000030: 695e 463d 3c41 24bc eedc 113d c81c 14bc
00000040: fc6e ef3c 0d5d 453d aaf8 7a3c 70ee c23d
00000050: d7f0 773d dee2 a2bd b81a 0c3e 8510 493e
00000060: 22a1 5ebe cd28 2d3e cd81 8f3d e88c 10bd
00000070: 8537 c63c b7cc 3e3e eb2b 3dbc 711c 493d
00000080: 3e50 c93d 9291 ba3c 3f83 5abe 6d87 213e
00000090: bdcb 0fbc ae54 e53d ffca c73d eb60 87bb
000000a0: 8ece e93d c523 293d b154 febc 55aa 1f3e
000000b0: 3e54 88bd 5b15 e5bd df7e 393e 27a6 95bd
000000c0: 4a61 b9bd 10d6 193c 8073 39bd ef2a e9bd
000000d0: fe48 06be d956 3c3d b17a 5d3d e63d b6bd
000000e0: 7293 e03d c49c e7bd edec 063e bfc8 7abc
000000f0: 1357 93bd d821 b8bd fc26 7abd 3693 efbc
00000100: 1c7b 99be 5c4a 13be faab 01be 810c 05be
00000110: cfa8 30bd 334e 4abe 7efa 2d3e b4a3 453e
00000120: 8d12 803e 0ed2 bf3d 154a 27be e2ed 48bd
00000130: eeae 353e 2000 1f3b b529 4dbc 62eb 77bc
00000140: 24e9 cdbd 2d62 133e c3d6 edbb a73c 823e
00000150: cf30 763d 45c3 03be acfb 49bd 79d9 69be
00000160: 36f5 4bbe a6e2 d3bd 13be 343e 7293 203d
00000170: 9a2d fb3d 5d06 f8bd f897 133e 58f8 cbbc
00000180: a44b 59be 853c cabd 905c 1f3d cb27 5ebd
00000190: 345f dbbd 197a fcbd 5f47 30be 0caa f6bd
000001a0: 8635 30be 3cb6 913e 4783 48be bd0b 1d3d
000001b0: 7599 3e3e 86e9 cbbd fdde 11bc e0fe 0e3e
000001c0: d9a4 453e 9dc0 a6bd 86c9 b3bd 2719 5fbe
000001d0: 284d 0ebe 331f 073e 0ded eabc 11da 47be
000001e0: 0061 16be a14c ad3e 83ce 47be c134 ad3e
000001f0: 0cd4 ccbd 710f 3f3e b751 38be a47d ed3d
00000200: fcfc 6fbe 3396 133b 5ada b33c 5876 863d
00000210: b457 173e e592 45bd 28df 0bbd 913f 4d3d
00000220: dae8 833b 772b 963d b3e1 97bd 1dfd 40bd
00000230: b9f9 cd3d f1b1 8d3d 9c40 443d 4f63 163e
00000240: c473 5d3c 7007 dc3d 61fe e13d 4638 673d
00000250: 7f8a d93d d183 153d 51b4 e3bd c4df f1bd
00000260: ddb3 83bd 3ad0 85bd 0747 493d 8625 6dbd
00000270: 3039 023c 1d43 00bd bef0 96bb 9898 35bc
00000280: 6ad6 58bd 0ef4 aabd e30e 123d ef54 ba3c
00000290: ce08 a23d a02d 773d 9357 c83c 39ae 6b3c
000002a0: 724a 0c3d 02c7 9b3d bbf9 163c 0f0f b23c
000002b0: e9c0 6d3d 90ca f2bd 158c 333e 0092 2d3e
000002c0: 7bc0 d9bc dd3d 27bd f936 113d e18f 233c
000002d0: 910a 60bd b149 813d 2f26 4a3c 84ad 333d
000002e0: 3994 0bbd a0f6 a73d 7dc1 5cbd 5058 09bd
000002f0: 13f3 f8bd 0f13 d73c 0641 c1bd 1526 81bd
00000300: 4bd6 70bd 1d53 963d c2fd 73bd 252d ba3d
00000310: d15b bd3d 0cc3 2b3e a994 2b3d ba12 dcbd
00000320: e93d bbbc 55a6 003d 1968 b6bd f63f 1bbd
00000330: 9047 28be 28b0 1f3d a457 51bc 3947 1f3d
00000340: 454b a8bb 9d5a d33c 3987 d4bb 8b72 753d
00000350: 6a39 08be ee55 7d3d 0d41 b9bc 373c 06bd
00000360: fff8 debb 0067 ae3c 4b3b dbbd 00cd c13d
00000370: a32a b73d dbb5 66bd c8ca b93d 317c 1abd
00000380: fb03 44bd 77e1 1dbd 5764 97bc abbf 223e
00000390: 133b 82bc 3637 aa3d b125 5d3c d676 51bd
000003a0: e255 2dbe 740f d73d 7b12 1b3e 500a a3bd
000003b0: e6dd bf3d 1b18 e1bd 46d1 353c 2db9 32bd
000003c0: fcd4 afbc 3861 c63c af04 743d 8b07 063c
000003d0: 0b43 593e c5b8 cd3d 788a 9e3d 6021 803d
000003e0: ce75 063e 2abc a9bd fadf 78bd e4dc 20bd
000003f0: c752 f2bd 91c9 28bd 2a34 92bc d9c6 b1bd
