logs/experiment/Discrete_A2C_1-5Box_10x10x10Bin-2022.08.09-15-00-00/PCT-Discrete_A2C_1-5Box_10x10x10Bin-2022.08.09-15-00-00_2022.08.09-23-24-55.pt (torch, 236314 bytes, 24 tensors)

actor.init_internal_node_embed.0.module.weight f4 [32, 6]
-0.50818884 0.027700989 -0.6932773 0.03912117 -0.20439436 0.060286168 -0.07821005 0.13676365
-0.35978046 -0.28875732 -0.4023521 -0.44578156 -0.08036883 0.042934325 0.20140131 0.22163643
0.124566846 -0.6790557 0.31047463 -0.17088811 0.2945759 -0.49643043 -0.14013456 0.61961055
-0.07846539 -0.37927577 0.16046907 0.07114996 0.2839912 0.82694435 -0.03966561 0.0940465
0.2363631 0.025506673 -0.08776786 -0.25166818 1.295407 -0.4650798 -0.80048174 -1.3814389
0.6719343 0.6756979 -0.37098497 -0.3437078 0.074950166 -0.208683 0.28172383 0.5763479
-0.087323196 0.41931534 0.6051042 -0.21740076 -0.24775743 0.34099802 0.4047559 -0.054933447
0.52059263 -0.06987091 -0.071501516 -0.03261069 -0.45547152 -0.33802345 -0.27830067 0.49330518
0.31493822 -0.31882575 -0.10933521 0.6470336 -0.49138364 0.13599402 -0.64300436 0.47110385
0.30268925 -0.5856449 -0.23342523 0.25995275 -0.29091558 0.1715674 0.19121023 0.27442247
-0.114328235 -0.2874586 -0.059573982 -0.11726862 0.27689308 -0.009265517 -0.0012051223 -0.1548378
0.00047843214 0.02991514 0.3267105 -0.1178307 0.31425193 -0.23449132 -0.20482571 0.2660193
-0.49878576 -0.5177264 -0.36237738 -0.38718557 -0.11020335 -0.29237074 0.02047305 0.15321413
0.31387982 -0.08186829 -0.019791827 -0.00083180657 -0.09316935 -0.7161017 -0.6775971 -0.07380609
-0.149773 -0.1516187 0.23574068 -0.10247558 -0.814168 -0.07861482 -0.07840393 0.42934996
0.02684505 -0.2299023 -0.01371457 -0.42704636 -0.67806226 0.10309334 -0.06774422 -0.40769464
-0.65127695 0.06530023 0.29853573 0.6142676 -0.34608647 0.0054356162 -0.78364754 0.29498428
0.5027391 0.026995284 0.11365025 -0.051374912 -0.42641595 -0.1688589 -0.42468172 -0.55793303
0.16231024 -0.14693981 0.72432655 -0.015859207 0.13196838 -0.09252191 0.095451884 -0.27776334
-0.55662453 0.20067315 0.4045003 -0.1263679 0.6425131 0.042016704 0.21169564 0.15740219
-0.16199686 -0.22687188 0.35482305 0.04299465 -0.20519578 0.44415948 0.07003586 -0.12133456
-0.10539019 -0.21732078 0.13405986 0.53323597 0.49796802 -0.80995935 0.27293953 -0.24581791
-0.35332295 -0.08974825 0.105829336 -0.053195577 -0.3160289 -0.4014947 1.3008049 -0.118583
-0.21147494 0.11200199 0.23415008 0.0737632 -0.106917076 0.056003995 -0.1542133 -0.10066827
00000000: aa18 02bf 2fed e23c 9f7a 31bf 853d 203d
00000010: c14c 51be a1ee 763d 972c a0bd c50b 0c3e
00000020: 2535 b8be 00d8 93be 1801 cebe 7b3d e4be
00000030: 6a98 a4bd e7db 2f3d 253c 4e3e a9f4 623e
00000040: e71c ff3d 98d6 2dbf 88f6 9e3e 4bfd 2ebe
00000050: a7d2 963e 212c febe 6f7f 0fbe cc9e 1e3f
00000060: 76b2 a0bd 6f30 c2be 0152 243e 12b7 913d
00000070: 4b67 913e a0b2 533f 6878 22bd 749b c03d
00000080: 2b09 723e 5ff3 d03c a3bf b3bd a7da 80be
00000090: e6cf a53f f11e eebe 5fec 4cbf fdd2 b0bf
000000a0: e303 2c3f 8afa 2c3f bef1 bdbe 78fa afbe
000000b0: 797f 993d ffb0 55be 1b3e 903e 898b 133f
000000c0: 81d6 b2bd 80b0 d63e 1ce8 1a3f 4e9e 5ebe
000000d0: 20b4 7dbe 4b97 ae3e 2a3c cf3e e501 61bd
000000e0: 8f45 053f 7b18 8fbd 636f 92bd c992 05bd
000000f0: 9033 e9be 6911 adbe 6d7d 8ebe 7f92 fc3e
00000100: 953f a13e 213d a3be 23eb dfbd fea3 253f
00000110: a396 fbbe 0442 0b3e ef9b 24bf 8634 f13e
00000120: 16fa 9a3e d3ec 15bf 0607 6fbe 8718 853e
00000130: e3f2 94be 5daf 2f3e 9dcc 433e 1a81 8c3e
00000140: ec24 eabd c62d 93be d903 74bd 882a f0bd
00000150: eec4 8d3e 65ce 17bc 32f5 9dba cd8d 1ebe
00000160: 13d6 fa39 9810 f53c 9946 a73e 3951 f1bd
00000170: a1e5 a03e 7e1e 70be d5bd 51be af33 883e
00000180: d960 ffbe b889 04bf 8789 b9be 303d c6be
00000190: 4bb2 e1bd 9eb1 95be 19b7 a73c 2ae4 1c3e
000001a0: dbb4 a03e 90aa a7bd 7822 a2bc 980d 5aba
000001b0: 92cf bebd 7152 37bf 0177 2dbf a627 97bd
000001c0: 185e 19be ef41 1bbe 0166 713e b8de d1bd
000001d0: 506d 50bf cf00 a1bd 3d92 a0bd c2d3 db3e
000001e0: 26ea db3c 826b 6bbe 13b3 60bc d2a5 dabe
000001f0: 7d95 2dbf 9a22 d33d 7bbd 8abd 5abd d0be
00000200: 16ba 26bf 21bc 853d add9 983e a440 1d3f
00000210: 3f32 b1be 411d b23b 209d 48bf 2e08 973e
00000220: 82b3 003f 3725 dd3c 76c1 e83d 806e 52bd
00000230: 3153 dabe 59e9 2cbe e26f d9be b3d4 0ebf
00000240: a834 263e 6477 16be 776d 393f 2beb 81bc
00000250: b822 073e 217c bdbd 477c c33d ff36 8ebe
00000260: f27e 0ebf 437d 4d3e aa1a cf3e 9666 01be
00000270: bd7b 243f b519 2c3d bec6 583e 0a2e 213e
00000280: 81e2 25be 1a51 68be 5eab b53e 281b 303d
00000290: d81e 52be df68 e33e f66e 8f3d 417e f8bd
000002a0: d0d6 d7bd 5789 5ebe fd46 093e 2782 083f
000002b0: aaf5 fe3e 7f59 4fbf bbbe 8b3e b1b7 7bbe
000002c0: bfe6 b4be eecd b7bd 0dbd d83d 9be3 59bd
000002d0: 8ace a1be b790 cdbe c680 a63f a5db f2bd
000002e0: e38c 58be 4d61 e53d 0ac5 6f3e 2911 973d
000002f0: 57f7 dabd 7264 653d 17ea 1dbe 2a2b cebd

actor.init_internal_node_embed.0.add_bias._bias f4 [32, 1]
0.013359333 -0.39872518 -0.0050339517 -0.022765808 0.1466102 0.038876187 0.0063359034 -0.008329586
0.044489566 0.105197996 0.008182989 0.015746089 -0.00076984655 0.00035639576 -0.013181412 0.029862083
-0.28814584 -0.059819423 0.045116942 0.0020659987 -0.23685788 0.05659335 0.048843026 0.116516754
0.03423117 0.003557717 0.0057910355 0.07025942 0.027162787 -0.04730014 0.07178131 -0.07044765
00000000: 1be1 5a3c b525 ccbe d9f3 a4bb 5c7f babc
00000010: fc20 163e a33c 1f3d 699d cf3b d178 08bc
00000020: b13a 363d 0c72 d73d f211 063c f1fd 803c
00000030: 87cf 49ba a1da ba39 d9f6 57bc 54a1 f43c
00000040: da87 93be 3605 75bd 8bcc 383d b565 073b
00000050: df8a 72be 6ece 673d a00f 483d 56a0 ee3d
00000060: fc35 0c3d 9628 693b bac2 bd3b 2ce4 8f3d
00000070: 7e84 de3c cbbd 41bd 1402 933d dc46 90bd

actor.init_internal_node_embed.2.module.weight f4 [64, 32]
0.16167831 0.15756069 -0.15990597 0.13279307 0.03748146 0.10701316 0.16306423 0.4995933
0.35202304 -0.11283477 0.82035047 0.20779575 0.033307392 -0.18025695 -0.6965667 0.29286075
-0.040535875 0.26825035 0.020038517 0.23092507 -0.23182487 0.13289194 1.1002762 -0.028775046
0.6073715 0.1836832 0.1458556 0.29033646 0.07986512 -0.0048797787 -0.18739161 0.057970967
0.31596956 0.10265609 -0.5392502 -0.4570908 -0.031344794 0.202771 0.076434426 -0.2996748
-0.19254638 0.17942232 0.4069614 0.13469629 0.4883605 -0.0047996813 -0.032235153 0.24015915
-0.049985956 -0.1664007 -0.13713747 -0.1462019 0.056097724 0.3666099 0.94168997 0.3412167
-0.24696364 0.17429654 0.00091247977 0.06478835 0.6613239 0.15643625 0.28117684 -0.017691782
-0.29520497 0.034937084 0.56122285 0.69095117 0.5091275 -0.022252984 -0.31639075 1.0269065
-0.2875764 -0.3101992 -0.46674067 -0.84587795 0.1136325 0.24151152 0.59388924 -0.6197283
-0.06344462 0.05277952 0.02789344 -0.41733673 -0.016148116 0.45324484 -0.08142975 -0.20539705
-0.098214395 0.059481073 -0.024241641 0.02986415 0.3193519 -0.17673336 0.2250279 0.13374662
0.009084026 -0.21610928 -0.04769409 0.5371231 0.1438455 -0.014776198 -0.006396178 0.23336963
0.042147238 -0.07568556 0.019412018 -0.0931192 -0.3008253 0.071239986 -0.33646902 -0.023637759
0.11276092 -0.30520716 0.09030305 0.038257748 -0.26604086 0.64804673 -0.21267541 0.23952751
0.1840229 0.021824172 0.062388815 0.27987158 0.21233451 -0.04379332 -0.22548598 0.23596342
0.33302665 -0.14137885 -0.18579917 0.14499368 -0.5392335 -0.110709354 0.51582664 -0.42599255
-0.6201669 0.52353424 0.4218425 0.37814188 -0.012885499 -0.16213126 0.35786408 -0.028122367
-0.015954852 -0.13952945 -0.0024370681 0.1241724 -0.16059875 0.4635897 0.18546337 -0.088058196
-0.2240444 0.21589379 0.24951454 0.118716046 0.58236235 0.092619576 0.15812959 -0.1269914
-0.2803305 -0.091056846 -0.056312103 -0.04249154 0.9095925 -0.3251444 -0.26103166 0.28626317
0.24799785 -0.009057133 0.836089 -0.28618786 -0.04170069 -0.21182904 -0.0025122426 0.2655751
0.23082566 0.2513951 -0.119006924 0.09773194 -0.043123875 0.02396805 0.33765954 -0.6427834
-0.034479592 0.27728173 0.22458974 0.41823268 0.014548417 -0.07286713 0.033686616 0.14402445
0.26542556 0.018573139 0.1500171 0.0077644773 0.4941039 0.06500396 -0.15250042 0.15441038
0.0770664 -0.27954778 0.38235697 -0.12844713 -0.26131314 -0.009210091 0.26944184 -0.45384488
0.015515129 -0.3002006 0.08249485 -0.022434205 0.014268556 0.10134207 -0.0049652527 0.18919007
-0.04922327 0.090569146 -0.24846041 0.43977076 -0.3395876 0.095802814 -0.46341592 -0.035482585
-0.15802966 -0.12189917 -0.4686614 -0.36453408 -0.3419942 -0.023657357 0.110955045 -0.03876114
0.22187313 0.40796262 0.46647653 0.44994858 -0.20391832 0.04676488 -0.22292049 -0.034809146
-0.06320235 -0.17029095 0.1960848 0.22515552 0.04055602 -0.47413215 0.6695081 -0.035726238
-0.63733137 0.13518427 -0.4121179 -0.4984776 0.67414534 0.18413523 0.36657584 -0.08457572
00000000: 008f 253e 9757 213e 64be 23be e8fa 073e
00000010: 2986 193d b729 db3d 4ffa 263e b1ca ff3e
00000020: 5d3c b43e ea15 e7bd 7d02 523f 69c8 543e
00000030: 556d 083d 4795 38be 3252 32bf d8f1 953e
00000040: f208 26bd 1c58 893e d127 a43c 9f77 6c3e
00000050: 8063 6dbe d314 083e dad5 8c3f a5b9 ebbc
00000060: b37c 1b3f 7317 3c3e 2c5b 153e fba6 943e
00000070: 5390 a33d 8de6 9fbb 96e3 3fbe f772 6d3d
00000080: c3c6 a13e 5b3d d23d 4d0c 0abf ce07 eabe
00000090: 6663 00bd 33a3 4f3e a789 9c3d fa6e 99be
000000a0: e12a 45be 7cba 373e 3f5d d03e d3ed 093e
000000b0: 630a fa3e a546 9dbb 0209 04bd 48ec 753e
000000c0: 13be 4cbd f264 2abe c46d 0cbe f3b5 15be
000000d0: bac6 653d 4bb4 bb3e 9812 713f f5b3 ae3e
000000e0: 09e4 7cbe cb7a 323e 7b33 6f3a c1af 843d
000000f0: 864c 293f d330 203e 69f6 8f3e 5bee 90bc
00000100: 1b25 97be 301a 0f3d 4dac 0f3f 2de2 303f
00000110: 2e56 023f e44b b6bc f8fd a1be ac71 833f
00000120: 373d 93be 6ed2 9ebe a2f8 eebe 758b 58bf
00000130: 28b8 e83d cc4e 773e 2009 183f 84a6 1ebf
00000140: 41ef 81bd 572f 583d c980 e43c 29ad d5be
00000150: 0e49 84bc b50f e83e a4c4 a6bd 9b53 52be
00000160: a124 c9bd 6da2 733d 6896 c6bc a9a5 f43c
00000170: 1882 a33e 97f9 34be b76d 663e e0f4 083e
00000180: 2bd5 143c c04b 5dbe e15a 43bd e680 093f
00000190: 3c4c 133e de17 72bc 0897 d1bb 73f8 6e3e
000001a0: 95a2 2c3d 0801 9bbd f405 9f3c 47b5 bebd
000001b0: c605 9abe 45e6 913d ab45 acbe f9a3 c1bc
000001c0: 32ef e63d 1d44 9cbe cef0 b83d 28b4 1c3d
000001d0: 8236 88be 64e6 253f 95c7 59be b346 753e
000001e0: 8070 3c3e 9bc8 b23c 6a8b 7f3d 544b 8f3e
000001f0: 386e 593e a060 33bd cce5 66be 65a0 713e
00000200: 7882 aa3e 9ec5 10be 2342 3ebe 3979 143e
00000210: 350b 0abf 96bb e2bd 370d 043f b21b dabe
00000220: 42c3 1ebf 5706 063f bdfb d73e d09b c13e
00000230: b31d 53bc bd05 26be f639 b73e e160 e6bc
00000240: c0b3 82bc cfe0 0ebe 38b7 1fbb 194e fe3d
00000250: 0074 24be a15b ed3e 1cea 3d3e db57 b4bd
00000260: e56b 65be 4313 5d3e bd80 7f3e 6621 f33d
00000270: b315 153f 55af bd3d b9ec 213e 090a 02be
00000280: 7b87 8fbe 037c babd 85a7 66bd 9c0b 2ebd
00000290: 0edb 683f 5479 a6be f1a5 85be 1691 923e
000002a0: 26f3 7d3e 5f64 14bc ee09 563f 3787 92be
000002b0: 58ce 2abd b6e9 58be 70a4 24bb 76f9 873e
000002c0: 905d 6c3e dcb6 803e e7b9 f3bd af27 c83d
000002d0: a9a2 30bd a558 c43c b6e1 ac3e 748d 24bf
000002e0: 793a 0dbd dff7 8d3e dafa 653e 9822 d63e
000002f0: 7c5c 6e3c 5d3b 95bd fafa 093d 257b 133e
00000300: dce5 873e b226 983c 159e 193e 286d fe3b
00000310: 30fb fc3e cc20 853d 1229 1cbe c11d 1e3e
00000320: fdd4 9d3d e320 8fbe 4bc4 c33e a587 03be
00000330: d6ca 85be ece5 16bc 48f4 893e 5b5e e8be
00000340: 2b33 7e3c e5b3 99be 0ff3 a83d f0c7 b7bc
00000350: a9c6 693c 6e8c cf3d 8fb3 a2bb 0bbb 413e
00000360: 579e 49bd 517c b93d 686c 7ebe a229 e13e
00000370: 6dde adbe 4434 c43d da44 edbe 3056 11bd
00000380: 87d2 21be 46a6 f9bd 63f4 efbe 36a4 babe
00000390: dd19 afbe 13cd c1bc 663c e33d 00c4 1ebd
000003a0: b632 633e 7ae0 d03e 03d6 ee3e a95f e63e
000003b0: f7cf 50be 888c 3f3d 4545 64be 0994 0ebd
000003c0: 3c70 81bd c060 2ebe 74ca 483e 2b8f 663e
000003d0: 121e 263d 73c1 f2be e264 2b3f ad55 12bd
000003e0: 2628 23bf bf6d 0a3e 1e01 d3be 7538 ffbe
000003f0: ca94 2c3f f28d 3c3e d4af bb3e 0936 adbd

actor.init_internal_node_embed.2.add_bias._bias f4 [64, 1]
0.17870387 0.30022237 -0.053894468 0.07276336 0.1602513 0.28926492 0.043965742 0.11330828
-0.08602206 -0.09840492 0.0055978587 0.031721704 -0.061670654 0.081804216 0.14313368 0.1500808
0.023039058 -0.19315927 0.023593051 0.07969657 -0.010613439 0.021525688 -0.055560507 -0.07056213
0.116723076 -0.039177556 -0.04647615 0.036583688 -0.09041422 -0.00042088632 0.008598582 0.0041963235
0.08340547 0.02919381 0.2837545 -0.06470922 0.025244279 -0.14391072 -0.030879691 0.20232022
-0.045710288 -0.2489256 0.15336555 -0.011288071 -0.13517398 -0.054442953 -0.2851892 -0.262368
0.2668462 0.0087855095 0.10273896 0.05475227 -0.021328673 -0.014354386 -0.04312808 0.21298933
0.22889136 -0.08074982 0.015684802 0.047363546 0.054691955 0.106367245 -0.035187222 0.017836263
00000000: 26fe 363e bfb6 993e 72c0 5cbd f504 953d
00000010: eb18 243e 881a 943e 6c15 343d 2c0e e83d
00000020: 552c b0bd 8588 c9bd 3e6e b73b 9eee 013d
00000030: 5e9a 7cbd f888 a73d a391 123e c8ae 193e
00000040: 68bc bc3c 8bcb 45be 3746 c13c f537 a33d
00000050: fde3 2dbc a456 b03c 6a93 63bd e182 90bd
00000060: 820c ef3d a578 20bd c75d 3ebd c7d8 153d
00000070: 172b b9bd 68aa dcb9 11e1 0c3c 5081 893b
00000080: 7dd0 aa3d db27 ef3c 4548 913e 4486 84bd
00000090: 17cd ce3c 555d 13be 68f7 fcbc 082d 4f3e
000000a0: b63a 3bbd 5ae6 7ebe dc0b 1d3e 9af1 38bc
000000b0: 0c6b 0abe 93ff 5ebd 5204 92be 1955 86be
000000c0: 11a0 883e 19f1 0f3c ce68 d23d eb43 603d
000000d0: 78b9 aebc a92e 6bbc 12a7 30bd e019 5a3e
000000e0: 7f62 6a3e 2960 a5bd 6a7d 803c 4700 423d
000000f0: ac04 603d 12d7 d93d 7a20 10bd 5b1d 923c

actor.init_leaf_node_embed.0.module.weight f4 [32, 8]
-0.07544561 -0.3433544 -0.394488 -0.07356646 0.16961475 0.37064433 0.49556488 0.26958755
-0.4064263 -0.6879796 -0.06706894 -0.31035933 -0.23668005 0.33139223 -0.022073694 0.36473003
0.20445207 -0.38021123 -0.12482571 0.40671083 0.006775204 -0.3184937 -0.05668357 -0.067440934
-0.40368095 -0.19361795 -0.24214363 -0.25264946 0.3310189 0.045308296 0.45127562 0.114205725
-0.032628175 -0.1702473 0.07275927 0.10705642 0.36824718 0.1329481 -0.49865738 0.39125538
0.09635996 0.14658383 -0.5339991 0.15552688 -0.46374476 0.5240429 -0.12240198 -0.2569163
-0.41319573 -0.19041273 -0.062515765 0.011955781 0.059556697 -0.18611322 -0.09980849 -0.10941601
0.38460514 -0.43832916 0.2624907 0.4515096 -0.039174207 0.38874602 0.044950716 0.2253498
0.10105018 0.12722623 -0.16802363 0.3399338 0.097619414 0.08487169 0.49037474 0.34801507
-0.08957447 0.33359495 -0.18085158 0.3030923 0.031532895 -0.120118834 0.4524055 -0.29887226
0.053234708 0.09529876 0.2791017 -0.069104016 0.3507316 -0.03010019 -0.19306481 0.021164838
-0.2905229 0.031015025 0.18481766 0.09952695 0.46813777 0.09417607 -0.0166643 -0.3579186
0.38767037 0.07868642 0.56751347 -0.34133962 -0.089518525 -0.06404001 0.36708963 -0.116579294
-0.22457878 0.010940294 0.2431833 -0.13291235 -0.27832896 -0.1717776 0.35581025 0.0762532
0.17006494 -0.016613398 0.16159241 0.45696062 0.11325856 0.41115758 0.11389746 -0.07272469
0.5044808 0.14384712 -0.11486936 -0.5265887 0.18548125 0.47347203 0.035715528 -0.30470893
-0.049108543 0.0794506 -0.28682798 0.35556927 0.1960506 0.014933169 -0.24215657 0.078400984
-0.08088619 0.37748036 0.11123812 0.07447895 -0.27771276 0.09234825 0.18544158 0.2879545
-0.211858 0.04779282 0.066422045 -0.3505794 -0.23366296 0.35733765 0.049006805 0.11954338
-0.39271626 0.14579111 -0.09464111 0.28205457 0.043756224 0.520644 -0.0895742 0.106007986
-0.24362715 -0.27153385 -0.30883843 -0.047455654 0.028535768 0.41709366 -0.14125684 -0.26208043
0.13156614 -0.14286283 0.4857192 -0.111979224 0.019762993 -0.11109682 -0.19497034 0.05800785
-0.32966563 0.35208973 0.017569901 0.31938013 0.24969786 0.1789821 0.11806061 0.13221456
-0.29791817 -0.14522733 0.068622485 -0.0732152 0.45230493 -0.04248932 -0.037020203 -0.062129177
0.054873127 0.07691382 0.24880911 -0.017753208 0.230612 0.06257823 -0.017179154 0.49396384
0.30060598 0.20368326 -0.49622643 -0.32208472 0.051180728 -0.021431014 0.046824694 -0.2999806
0.24450721 -0.17209163 0.11905015 0.41430327 0.15467481 0.11910227 0.44521493 -0.278283
0.03024747 -0.17126071 -0.38380015 0.14547199 0.59589636 -0.060567994 0.21698657 0.36417335
0.300551 -0.180363 -0.12098524 -0.11525803 -0.031701256 -0.3827263 0.102220036 0.20314844
0.11222833 0.24612254 -0.18597996 -0.21180868 0.2897185 0.010803319 -0.2170839 0.16490386
0.284931 0.4720724 -0.51401675 -0.12605487 -0.21103387 -0.17162916 -0.03516907 0.45629385
0.10594481 0.42077208 -0.06451729 -0.21240601 0.11338707 0.3897064 0.17210491 -0.09707967
00000000: 3a83 9abd 26cc afbe 55fa c9be 03aa 96bd
00000010: 7daf 2d3e 18c5 bd3e aeba fd3e 6107 8a3e
00000020: 1c17 d0be 6e1f 30bf 715b 89bd 6be7 9ebe
00000030: 415c 72be 3eac a93e e4d3 b4bc e5bd ba3e
00000040: e25b 513e 0cab c2be 9fa4 ffbd 673c d03e
00000050: 8802 de3b 9b11 a3be 082d 68bd 791e 8abd
00000060: 45af cebe c943 46be 80f4 77be 455b 81be
00000070: 4f7b a93e 3195 393d 990d e73e b1e4 e93d
00000080: 1fa5 05bd 4f55 2ebe d002 953d 6540 db3d
00000090: e58a bc3e 8c23 083e 0550 ffbe a052 c83e
000000a0: 5f58 c53d 121a 163e 2ab4 08bf 7042 1f3e
000000b0: f46f edbe ad27 063f e4ad fabd 898a 83be
000000c0: 648e d3be 8efb 42be 4408 80bd 2ee2 433c
000000d0: b9f1 733d 7794 3ebe 6568 ccbd 8015 e0bd
000000e0: f7ea c43e ae6c e0be 2e65 863e 442c e73e
000000f0: 2275 20bd b809 c73e 3e1e 383d 19c2 663e
00000100: 66f3 ce3d 9847 023e 630e 2cbe ce0b ae3e
00000110: b0ec c73d 35d1 ad3d 6612 fb3e 082f b23e
00000120: d272 b7bd f5cc aa3e 2831 39be ea2e 9b3e
00000130: a328 013d dd00 f6bd b2a1 e73e c905 99be
00000140: a30c 5a3d ff2b c33d 6be6 8e3e 6886 8dbd
00000150: 1893 b33e ac94 f6bc c8b2 45be e261 ad3c
00000160: 6bbf 94be 3913 fe3c d740 3d3e c9d4 cb3d
00000170: c1af ef3e 62df c03d 9283 88bc 1b41 b7be
00000180: bb7c c63e 5926 a13d 9048 113f 11c4 aebe
00000190: 7d55 b7bd 6927 83bd 2cf3 bb3e 20c1 eebd
000001a0: fbf7 65be eb3e 333c 0b05 793e 2d1a 08be
000001b0: 2281 8ebe 78e6 2fbe c32c b63e a32a 9c3d
000001c0: 8125 2e3e d218 88bc 7b78 253e bef6 e93e
000001d0: 1bf4 e73d 3f83 d23e 1243 e93d aff0 94bd
000001e0: a725 013f a94c 133e a140 ebbd 84ce 06bf
000001f0: ccee 3d3e ed6a f23e 724a 123d cf02 9cbe
00000200: 0a26 49bd ffb6 a23d 1edb 92be 2d0d b63e
00000210: 7dc1 483e 40aa 743c e4f7 77be b290 a03d
00000220: a9a7 a5bd 1b45 c13e d0d0 e33d 6b88 983d
00000230: 5e30 8ebe 1421 bd3d 66e4 3d3e c66e 933e
00000240: 4ef1 58be 67c2 433d 4808 883d 257f b3be
00000250: 5845 6fbe f6f4 b63e 5cbb 483d 29d3 f43d
00000260: 1b12 c9be 444a 153e 33d3 c1bd 7569 903e
00000270: ba39 333d ed48 053f ae72 b7bd b71a d93d
00000280: 6579 79be 7c06 8bbe 1220 9ebe dc60 42bd
00000290: d8c3 e93c 4d8d d53e a2a5 10be 682f 86be
000002a0: 46b9 063e a24a 12be 30b0 f83e 5d55 e5bd
000002b0: 00e6 a13c bb86 e3bd 4ea6 47be a499 6d3d
000002c0: efc9 a8be 1b45 b43e c1ee 8f3c cb85 a33e
000002d0: ccb0 7f3e 1547 373e c3c9 f13d 4163 073e
000002e0: bb88 98be 79b6 14be f289 8c3d daf1 95bd
000002f0: 8394 e73e 4809 2ebd 7fa2 17bd 2a7b 7ebd
00000300: a5c2 603d fe84 9d3d d1c7 7e3e 2d6f 91bc
00000310: 8d25 6c3e 0429 803d 4cbb 8cbc d4e8 fc3e
00000320: 07e9 993e 5892 503e 6411 febe 4ae8 a4be
00000330: e2a2 513d 1890 afbc 40cb 3f3d 0f97 99be
00000340: 1960 7a3e ca38 30be 91d0 f33d 8f1f d43e
00000350: 1363 1e3e e4eb f33d 36f3 e33e 1c7b 8ebe
00000360: 8bc9 f73c f85e 2fbe 7481 c4be 9cf6 143e
00000370: aa8c 183f 2516 78bd ba31 5e3e ee74 ba3e
00000380: d2e1 993e 14b1 38be 1cc7 f7bd 670c ecbd
00000390: 2dd9 01bd b4f4 c3be bd58 d13d 2506 503e
000003a0: f7d7 e53d 8c07 7c3e 8871 3ebe 60e4 58be
000003b0: fc55 943e 6700 313c 3e4b 5ebe 8fdc 283e
000003c0: 7ae2 913e 79b3 f13e 9a96 03bf 8714 01be
000003d0: 4319 58be 8ebf 2fbe 710d 10bd 599f e93e
000003e0: 98f9 d83d 706f d73e a421 84bd f680 59be
000003f0: 7b37 e83d 9987 c73e 453c 303e b5d1 c6bd

actor.init_leaf_node_embed.0.add_bias._bias f4 [32, 1]
0.011572884 0.02938182 0.005877169 0.007968889 -0.117378764 0.015037868 -0.05487872 -0.026654819
0.07788017 0.03485395 0.04031153 -0.0299467 0.0016351608 -0.023443725 0.12883568 0.0007294129
-0.039698668 -0.048519205 0.011437157 -0.003364146 0.035968393 0.039304342 0.12018343 -0.021297857
0.012236997 0.012482107 0.09140554 -0.020990955 -0.09155037 0.0029838413 0.008787604 -0.1523305
00000000: 329c 3d3c 24b2 f03c 4495 c03b f18f 023c
00000010: 4764 f0bd 6461 763c 82c8 60bd 355b dabc
00000020: a37f 9f3d 04c3 0e3d b41d 253d c852 f5bc
00000030: e452 d63a 0e0d c0bc 80ed 033e 1236 3f3a
00000040: 129b 22bd 13bc 46bd ea62 3b3c 0179 5cbb
00000050: 9853 133d 97fd 203d bb22 f63d d878 aebc
00000060: af7d 483c c081 4c3c d432 bb3d 39f5 abbc
00000070: c37e bbbd 8d8c 433b e2f9 0f3c 87fc 1bbe

actor.init_leaf_node_embed.2.module.weight f4 [64, 32]
0.14052957 0.5484489 0.1578184 0.3816164 -0.25220993 0.38534483 0.30415884 -0.25451156
-0.0052636345 0.17905894 0.015944865 -0.010866701 -0.34412566 -0.13555615 0.14221579 0.09897761
0.1826903 -0.12846242 0.095589176 0.3269522 0.63256615 -0.5060066 0.63556224 0.36432478
0.040472195 -0.026592001 -0.0122472355 0.32984537 -0.13271922 0.15168916 0.10076168 -0.295156
-0.117035106 -0.27253687 -0.21719778 -0.161125 -0.2736249 0.33753422 -0.23087627 0.21932924
0.305142 -0.34428105 0.06627508 -0.12657563 0.28478077 0.046428937 0.07823343 0.08687869
0.022660267 0.15674154 0.04624421 -0.46322888 -0.45701388 0.6026086 0.19478938 0.2608015
0.09407811 0.16972654 0.12511227 -0.20705748 0.07903983 0.08721103 0.26033017 -0.17022501
0.008422128 -0.0030253222 0.22210811 -0.37956345 0.1717586 -0.11971204 -0.11153378 -0.08589765
-0.3412065 0.4266518 0.06597615 0.13086592 -0.18509497 0.04163894 0.14310285 0.15125124
-0.33012733 -0.2885991 0.19331773 0.07039449 -0.0686416 0.13235359 0.1339979 0.059402812
0.32484818 -0.108228035 0.19033797 -0.0020531083 -0.15780847 -0.014140476 -0.49690613 -0.22114763
-0.20051357 0.14363405 -0.3188429 0.61839265 -0.20548902 0.0707579 -0.1606079 0.18459232
-0.02446793 0.11020588 0.23038773 0.1848717 0.622913 -0.26659665 -0.074773975 -0.20000397
-0.139097 0.23818949 -0.006740727 0.05170926 -0.513016 0.0077952696 -0.108872116 -0.25580823
0.10256226 -0.15630272 0.27498674 0.19488287 0.20946729 0.033021133 -0.05343837 0.082226016
-0.35047525 -0.40945435 -0.07783526 -0.14908002 -0.002829482 -0.28165627 -0.23144692 -0.20244531
-0.59595805 0.39681146 -0.0012110345 -0.006090159 0.47963724 -0.019339962 -0.28113398 0.18619783
0.09303465 -0.25918025 -0.2856412 -0.104106665 0.16517305 0.2694797 0.09563496 -0.08497367
-0.20568901 0.10135586 -0.06694553 0.06408206 -0.08458186 0.003093043 0.21160144 -0.13608424
-0.15212221 0.22730596 -0.17439814 -0.38078249 0.10213654 0.21210426 0.07392746 -0.16176493
-0.31888393 -0.07388715 0.017977834 0.06041453 -0.18953127 -0.23962522 0.4618461 -0.21784955
0.24446084 0.03709829 -0.0033035432 -0.053894345 0.022666786 -0.075933956 -0.16737983 -0.33285734
-0.20517641 -0.013640225 0.031028317 0.19991478 -0.025466569 0.08747035 -0.2314189 -0.06275747
-0.1562501 -0.472887 -0.4297809 0.08104336 -0.1997639 -0.20337898 0.025818802 0.029077785
-0.030602511 0.005936007 -0.011056545 -0.25120738 0.32043615 0.121445924 -0.17296757 -0.21140493
-0.15165861 0.6732888 0.111027986 -0.041783005 0.10947967 0.24818614 -0.14326143 0.1636575
0.08502914 0.2653429 -0.2464944 0.025526859 0.1374833 -0.093472205 -0.27390763 0.046591807
0.033416945 0.18210092 -0.36580396 -0.40871778 -0.5344494 -0.3069509 0.17933694 -0.215713
-0.10226156 0.08828518 -0.004642748 -0.37163356 0.13502565 -0.3218133 -0.41565064 0.12003613
-0.41602397 0.21807608 -0.124493234 -0.16292095 0.020214492 0.68514174 -0.06616222 -0.20307717
-0.07201566 0.080408804 -0.19895618 -0.261967 0.18052752 -0.5283721 0.3167763 0.009708039
00000000: fce6 0f3e 2667 0c3f 269b 213e 3a63 c33e
00000010: a921 81be eb4b c53e b5ba 9b3e 574f 82be
00000020: 917a acbb 3a5b 373e ce9e 823c 3f0a 32bc
00000030: 3d31 b0be 3bcf 0abe 04a1 113e c6b4 ca3d
00000040: 2a13 3b3e a78b 03be 42c4 c33d 4766 a73e
00000050: dbef 213f a689 01bf 35b4 223f c788 ba3e
00000060: 2cc6 253d 78d7 d9bc a1a8 48bc 7ee1 a83e
00000070: 8ce7 07be 6754 1b3e 245c ce3d b01e 97be
00000080: 1ab0 efbd f489 8bbe 1869 5ebe f4fd 24be
00000090: 9018 8cbe 49d1 ac3e d46a 6cbe d897 603e
000000a0: 923b 9c3e 9b45 b0be 3bbb 873d 0b9d 01be
000000b0: c9ce 913e 452c 3e3d d938 a03d 74ed b13d
000000c0: 06a2 b93c db80 203e 926a 3d3d 562c edbe
000000d0: b9fd e9be 8f44 1a3f de76 473e c687 853e
000000e0: 06ac c03d cbcc 2d3e 6e1d 003e e006 54be
000000f0: a2df a13d b29b b23d ff49 853e 774f 2ebe
00000100: f7fc 093c 7c44 46bb 4f70 633e 2456 c2be
00000110: 7de1 2f3e 962b f5bd d36b e4bd 1beb afbd
00000120: 9eb2 aebe 1b72 da3e 811e 873d b701 063e
00000130: 8989 3dbe 988d 2a3d 8e89 123e 9be1 1a3e
00000140: 7306 a9be 43c3 93be 15f5 453e fd2a 903d
00000150: f893 8cbd b387 073e bf36 093e 5d50 733d
00000160: 8052 a63e a9a6 ddbd f5e7 423e 718d 06bb
00000170: 8b98 21be 74ad 67bc 7b6a febe 8674 62be
00000180: 6e53 4dbe ce14 133e 603f a3be fb4e 1e3f
00000190: b76b 52be 85e9 903d 6676 24be c505 3d3e
000001a0: f870 c8bc 9fb3 e13d c3ea 6b3e 024f 3d3e
000001b0: 3a77 1f3f 5b7f 88be 1923 99bd d7cd 4cbe
000001c0: 726f 0ebe f2e7 733e 51e1 dcbb 17cd 533d
000001d0: 0455 03bf 766f ff3b 58f8 debd 4cf9 82be
000001e0: 2a0c d23d d20d 20be 10cb 8c3e 608f 473e
000001f0: 987e 563e 2b41 073d 31e2 5abd 1d66 a83d
00000200: 7e71 b3be 00a4 d1be 1868 9fbd 6fa8 18be
00000210: d56e 39bb 4035 90be 6c00 6dbe d34d 4fbe
00000220: b590 18bf df2a cb3e 93bb 9eba f58f c7bb
00000230: 0393 f53e d76e 9ebc cbf0 8fbe a5aa 3e3e
00000240: f388 be3d 46b3 84be 903f 92be e035 d5bd
00000250: 2023 293e 3ef9 893e 43dc c33d ad06 aebd
00000260: 24a0 52be a993 cf3d bd1a 89bd 743d 833d
00000270: 4139 adbd a7b4 4a3b 0cae 583e ab59 0bbe
00000280: edc5 1bbe e5c2 683e 6d95 32be ecf5 c2be
00000290: f62c d13d dc31 593e 4867 973d b5a5 25be
000002a0: c144 a3be 2552 97bd 4046 933c 3a75 773d
000002b0: 7c14 42be 5060 75be 1877 ec3e f413 5fbe
000002c0: f153 7a3e 60f4 173d 4280 58bb 51c0 5cbd
000002d0: b2af b93c 4383 9bbd 9e65 2bbe 476c aabe
000002e0: c419 52be 407b 5fbc 192f fe3c 76b6 4c3e
000002f0: 449f d0bc a823 b33d 13f9 6cbe fd86 80bd
00000300: 0700 20be 3f1e f2be 3e0c dcbe 10fa a53d
00000310: e88e 4cbe 9442 50be f481 d33c 8934 ee3c
00000320: 1eb2 fabc d682 c23b 8326 35bc 419e 80be
00000330: 3510 a43e a4b8 f83d 691e 31be 897a 58be
00000340: 654c 1bbe a85c 2c3f a462 e33d a824 2bbd
00000350: e136 e03d 8224 7e3e 20b3 12be d595 273e
00000360: c223 ae3d 06db 873e 0769 7cbe b41d d13c
00000370: 6cc8 0c3e 5b6e bfbd 9f3d 8cbe 0dd7 3e3d
00000380: 35e0 083d aa78 3a3e a84a bbbe 7543 d1be
00000390: add1 08bf ab28 9dbe 1aa4 373e dee3 5cbe
000003a0: 826e d1bd dcce b43d 3122 98bb c146 bebe
000003b0: 2a44 0a3e b6c4 a4be 29d0 d4be 81d5 f53d
000003c0: 1801 d5be 564f 5f3e 4ff6 febd c0d4 26be
000003d0: dd98 a53c 7365 2f3f 0f80 87bd 76f3 4fbe
000003e0: f27c 93bd 5fad a43d 2bbb 4bbe 8a20 86be
000003f0: 35dc 383e 6543 07bf 8130 a23e 780e 1f3c

actor.init_leaf_node_embed.2.add_bias._bias f4 [64, 1]
0.2717806 0.136745 0.03988934 0.008550858 -0.17805718 0.01036157 -0.21419877 -0.27796245
-0.16327143 -0.1752232 0.27771536 -0.15497324 0.09581424 -0.091857456 -0.09711629 -0.07237003
0.14365682 -0.14259574 -0.32370752 -0.036482107 0.037071694 0.085817076 0.009349651 0.044347245
0.23478778 -0.04293403 -0.0023676716 -0.08672243 -0.1723881 0.11459805 -0.1433792 -0.01627342
0.10885994 -0.061189115 -0.15525863 0.14862174 0.22510405 -0.048652805 -0.02827301 -0.1328541
0.055537824 -0.5052039 0.19095692 0.058375064 -0.13648352 -0.043740667 -0.1449008 -0.038346473
-0.23233913 0.04160893 -0.053130303 -0.058699466 0.09968184 -0.16530041 -0.19069128 0.100262426
0.012154199 -0.22614998 0.19249138 -0.27143437 0.1350277 -0.1346309 0.06899468 0.025838919
00000000: d426 8b3e e206 0c3e 0163 233d e618 0c3c
00000010: 9f54 36be 93c3 293c ec56 5bbe 1851 8ebe
00000020: a030 27be b66d 33be b530 8e3e 4eb1 1ebe
00000030: 423a c43d c31f bcbd e8e4 c6bd bd36 94bd
00000040: c61a 133e 9e04 12be febc a5be 436e 15bd
00000050: 7dd8 173d ddc0 af3d 472f 193c 75a5 353d
00000060: 356c 703e 98db 2fbd f02a 1bbb 889b b1bd
00000070: 8286 30be 62b2 ea3d ffd1 12be d64f 85bc
00000080: f6f1 de3d 70a1 7abd 1efc 1ebe 4c30 183e
00000090: ad81 663e 2a48 47bd cd9c e7bc e80a 08be
000000a0: a17b 633d 0b55 01bf 368a 433e b11a 6f3d
000000b0: 56c2 0bbe 6a29 33bd e060 14be 3111 1dbd
000000c0: 4fea 6dbe 206e 2a3d 299f 59bd da6e 70bd
000000d0: fe25 cc3d 8344 29be 9344 43be 6356 cd3d
000000e0: 6822 473c dc93 67be 761c 453e 72f9 8abe
000000f0: b444 0a3e afdc 09be 154d 8d3d 24ac d33c

actor.init_next_embed.0.module.weight f4 [32, 6]
0.14894596 -0.14783362 -0.29890305 -0.44556537 -0.27633637 0.0061713466 -0.22624381 -0.097654946
0.18683255 -0.24663036 0.02894806 -0.2299812 0.55010617 -0.26774636 -0.25778565 -0.03160518
-0.1402388 0.21821938 -0.008756724 0.036373135 -0.033101637 0.41632637 -0.47104463 -0.36659515
0.10921615 -0.4220224 -0.12407604 -0.24932852 -0.08906825 -0.14732115 -0.021954546 -0.5772369
0.28352162 -0.7132217 -0.1118556 0.16965099 0.8270819 0.10291967 0.070973516 -0.09918023
-0.046151944 -0.37095088 -0.08797449 0.09831574 0.14582333 0.08611715 -0.30658093 0.17590742
-0.16658965 -0.5904613 0.2444619 -0.04135943 1.3807987 -0.7065678 0.10160005 -0.29224053
-0.1822739 0.050157644 -0.35125303 -0.46418387 -0.32090664 0.1820992 0.016121991 0.3786857
0.27524024 -0.4214749 -0.11580848 -0.029234236 -0.021627702 0.08608805 0.060680125 0.102316946
-0.35545057 -0.032835547 0.14581446 0.023488158 -0.22978225 -0.3271001 0.0016679371 0.009134302
0.12415758 0.23563053 -0.41179824 -0.05478802 1.2868848 -0.22806235 -0.25601846 -0.65402186
-0.0771321 0.02622436 -0.22585234 -0.06358731 -0.29770973 -0.09004425 -0.051559146 0.089540295
-0.29543853 -0.034050748 -0.11244481 -0.13516079 -0.27619162 0.08741563 0.5698315 -0.05052203
0.19700745 -0.25496346 -0.061186157 -0.0032389858 -0.062590554 0.2881259 0.22860755 -0.010706916
-0.07242817 0.25059527 0.9576234 0.2441345 -0.35871825 -0.23356758 0.14992014 0.15260461
0.26669797 0.026163727 -0.03635058 -0.14250812 -0.261887 0.16566421 -0.029732438 -0.2110019
-0.7182638 -0.10489074 -0.13305062 -0.03546749 0.114682645 -0.1477266 -0.09739232 0.13043359
-0.3526276 0.060729135 0.6224685 -0.26592296 0.33082733 -0.36827728 0.42988938 0.37099883
1.2496887 -0.09954142 -0.18245748 -0.30928022 -0.16510832 0.230869 0.17080477 0.28594753
-0.06433231 -0.19242375 -0.18776104 -0.39017123 0.0010964954 -0.32030162 0.18111199 -0.06516983
-0.22939199 -0.021922616 -0.5123667 -0.38239774 -0.18877986 -0.19610138 0.12485993 -0.16922154
0.5542077 0.20565565 -0.01903345 -1.2570856 0.0087455865 0.13606375 0.42339167 0.23072688
-0.34367222 -0.6330475 -0.019171508 0.12675911 -0.21040979 -0.25917542 0.29571474 0.0844301
-0.0023117438 -0.10115093 -0.056813236 -0.22645392 -0.47012034 -0.07579628 -0.13554092 -0.069186874
00000000: 4a85 183e b261 17be d209 99be 2521 e4be
00000010: f67b 8dbe 0239 ca3b 75ac 67be 51ff c7bd
00000020: 0851 3f3e ab8c 7cbe 7b24 ed3c 3180 6bbe
00000030: c2d3 0c3f 0d16 89be 7bfc 83be 6f74 01bd
00000040: c39a 0fbe e774 5f3e 5d78 0fbc fffb 143d
00000050: 9595 07bd bb28 d53e c32c f1be 5cb2 bbbe
00000060: b8ac df3d 5213 d8be 941b febd fa4f 7fbe
00000070: 6a69 b6bd 5bdb 16be 05da b3bc ccc5 13bf
00000080: bf29 913e b395 36bf 8c14 e5bd fdb8 2d3e
00000090: a4bb 533f 8cc7 d23d 905a 913d 011f cbbd
000000a0: d209 3dbd 46ed bdbe f82b b4bd c359 c93d
000000b0: b652 153e 305e b03d 2df8 9cbe 1321 343e
000000c0: 7a96 2abe 7928 17bf 3854 7a3e 8168 29bd
000000d0: 03be b03f a1e1 34bf b013 d03d 8da0 95be
000000e0: 02a6 3abe 1a72 4d3d 70d7 b3be 82a9 edbe
000000f0: e04d a4be 3678 3a3e 4412 843c 18e3 c13e
00000100: 4aec 8c3e 8fcb d7be ff2c edbd a37c efbc
00000110: 942c b1bc ee4e b03d b98b 783d 8c8b d13d
00000120: 9efd b5be 917e 06bd 6350 153e 3d6a c03c
00000130: 0a4c 6bbe aa79 a7be af9e da3a 0aa8 153c
00000140: 5446 fe3d 2149 713e 38d7 d2be 6769 60bd
00000150: a4b8 a43f 2d89 69be da14 83be fa6d 27bf
00000160: 6ff7 9dbd 78d4 d63c d645 67be 103a 82bd
00000170: 696d 98be 1f69 b8bd af2f 53bd e760 b73d
00000180: b843 97be cc78 0bbd 7749 e6bd 9767 0abe
00000190: fd68 8dbe f706 b33d 7ae0 113f 30f0 4ebd
000001a0: 52bc 493e 928a 82be 569e 7abd 2a45 54bb
000001b0: 7a2f 80bd 3d85 933e 1918 6a3e 106c 2fbc
000001c0: 3855 94bd 064e 803e cf26 753f 65fe 793e
000001d0: eba9 b7be 572c 6fbe aa84 193e 6244 1c3e
000001e0: a38c 883e 5055 d63c 59e4 14bd a6ed 11be
000001f0: 0e16 86be e1a3 293e 7191 f3bc e210 58be
00000200: 23e0 37bf f5d0 d6bd 6c3e 08be 5c46 11bd
00000210: bcde ea3d a445 17be a075 c7bd 6290 053e
00000220: 9b8b b4be 1dbf 783d 185a 1f3f 0e27 88be
00000230: 3362 a93e d78e bcbe 761a dc3e 8ff3 bd3e
00000240: cdf5 9f3f 5fdc cbbd 22d6 3abe fa59 9ebe
00000250: 2812 29be ec68 6c3e 72e7 2e3e b767 923e
00000260: a8c0 83bd bb0a 45be 6e44 40be 86c4 c7be
00000270: 48b8 8f3a 93fe a3be 6c75 393e c377 85bd
00000280: bce5 6abe 0f97 b3bc 772a 03bf a3c9 c3be
00000290: 824f 41be cdce 48be 90b6 ff3d 6948 2dbe
000002a0: 8ee0 0d3f 6597 523e 0aec 9bbc 2ee8 a0bf
000002b0: a649 0f3c 4c54 0b3e cbc6 d83e ab43 6c3e
000002c0: cef5 afbe 670f 22bf 910d 9dbc 24cd 013e
000002d0: aa75 57be a4b2 84be ec67 973e b0e9 ac3d
000002e0: a080 17bb 3828 cfbd ffb4 68bd 89e3 67be
000002f0: 9db3 f0be 143b 9bbd 3dcb 0abe d9b1 8dbd

actor.init_next_embed.0.add_bias._bias f4 [32, 1]
0.16981544 0.05465479 -0.0693712 -0.056852773 0.016715033 -0.25239196 0.116065495 -0.063942626
-0.21582468 -0.061847877 -0.0942206 0.26238596 0.02849057 0.1463564 0.37586635 0.2519031
0.07109394 -0.2229924 -0.27215606 0.37535498 -0.08049363 0.0021154294 -0.2482824 -0.06467204
0.26027727 -0.083992586 -0.15295838 0.018473452 0.03960855 0.14775269 0.13194461 0.103180274
00000000: 19e4 2d3e b3dd 5f3d 7d12 8ebd 74de 68bd
00000010: f7ed 883c 8539 81be bfb3 ed3d 5af4 82bd
00000020: 2501 5dbe 3354 7dbd bbf6 c0bd 7457 863e
00000030: 0e65 e93c 74de 153e 8e71 c03e 71f9 803e
00000040: b399 913d 1f58 64be 0a58 8bbe 872e c03e
00000050: d8d9 a4bd 04a3 0a3b be3d 7ebe c672 84bd
00000060: 1043 853e 4e04 acbd 1fa1 1cbe a355 973c
00000070: 933c 223d 7b4c 173e 7d1c 073e 2e50 d33d

actor.init_next_embed.2.module.weight f4 [64, 32]
0.042726655 -0.10669905 -0.008784963 0.1786607 0.15089428 0.080938496 -0.17813912 -0.23026584
-0.10039681 0.31442523 0.08863789 -0.5967803 0.09590428 0.41366535 0.23450544 -0.35171553
-0.102998026 0.06727153 -0.01878201 -0.27908772 0.06373655 -0.05797991 -0.474585 -0.47567594
-0.41538295 0.35370794 -0.17206076 -0.09054543 0.07597424 0.23143886 0.29046148 -0.086185925
0.19640712 -0.060267325 -0.16671866 -0.0664518 -0.09305249 -0.1698094 -0.16984838 0.0011829146
0.23250377 0.044043444 0.4777937 0.31235433 -0.020693477 -0.15506788 -0.24384405 -0.021732787
0.18393025 0.02048904 -0.07156618 0.49485913 0.1716823 0.022704424 0.052827857 -0.20153406
-0.15182887 0.21705176 -0.011242016 -0.309001 -0.102912895 -0.0032947809 -0.044545237 -0.05610168
-0.03263001 0.028680459 0.18988346 -0.12722407 -0.0068516633 0.18921891 -0.4799848 -0.3488586
-0.4177074 -0.14186397 0.022916349 0.44722608 0.09882566 -0.30699313 -0.81417954 0.12086938
-0.20534869 0.06425549 0.19240084 0.21538167 -0.07386588 -0.08057068 -0.062303122 0.4518299
-0.43869758 0.09826328 -0.2158961 -0.15747638 -0.4774782 -0.78338844 -0.28899357 -0.22418994
-0.24619438 0.16423915 0.3934719 -0.092536435 -0.3103327 0.025062198 -0.41827896 0.12649366
0.0007576495 0.23521908 -0.34283987 0.21856266 0.11059037 0.15177047 -0.19377254 -0.25496796
-0.15375182 0.20260532 0.031735964 -0.31735528 -0.015275385 0.072521426 0.16390601 0.7934849
-0.308426 -0.43017623 -0.09327833 -0.32665592 -0.26048982 -0.1941334 0.089613445 -0.21922421
-0.21023735 -0.3799005 -0.012647384 0.23879649 0.120832406 -0.16235207 -0.1389806 -0.08285228
0.27137485 -0.12265398 -0.23588993 0.004720709 -0.03963044 0.12452791 0.08841627 -0.0115275495
0.101697624 0.15171993 -0.15358959 -0.43138373 -0.17566462 0.095613025 0.1611492 -0.030659901
0.21957134 -0.09608599 0.449036 0.1973929 -0.23837167 -0.111382365 -0.08112484 0.07057541
0.06269421 -0.03721807 0.04271061 -0.102121904 0.33441085 0.19788899 -0.015072232 0.14303888
0.040189985 0.2138515 0.024145193 0.67958516 0.049109038 0.01361713 -0.15922873 0.54100066
-0.009583999 0.32177493 0.11771698 0.88904655 0.049101774 -0.034106985 0.25434875 0.18619686
0.43356603 -0.08301623 0.066334754 0.35271907 -0.21416618 -0.24582201 0.22761713 -0.14723068
0.16673236 0.17654805 0.0013814878 0.17451426 -0.07183338 0.030905874 -0.17225266 -0.32584497
0.086410016 0.2241708 0.07642996 0.17637755 0.022366416 -0.04732144 -0.14535849 -0.1464247
-0.047330454 0.16793701 -0.21347865 -0.05846763 0.20119077 -0.27122453 0.16905214 0.23642096
-0.22798787 0.071734525 0.03964267 -0.2259996 -0.03574685 -0.06028428 0.11032715 -0.29612884
-0.4417167 0.040787097 -0.30068147 0.023485534 0.22383341 -0.29248405 -0.21906428 -0.19701318
-0.07135728 -0.03421261 0.35263392 0.42795852 0.09664949 0.16294797 0.54370356 0.5309456
0.03281246 0.34706065 0.20137006 0.4311256 -0.3348398 0.013615823 -0.16456273 0.69986224
0.49197453 0.02418724 0.09431653 -0.09703219 0.0256275 0.23920737 0.08422452 0.37446094
00000000: 2502 2f3d 0885 dabd ceee 0fbc d5f2 363e
00000010: 0884 1a3e 15c3 a53d 1a6a 36be cfca 6bbe
00000020: d89c cdbd 58fc a03e c887 b53d 98c6 18bf
00000030: 7769 c43d f2cb d33e 3222 703e 0f14 b4be
00000040: a1f0 d2bd a8c5 893d bbdc 99bc 96e4 8ebe
00000050: 4f88 823d 587c 6dbd cefc f2be cc8b f3be
00000060: 13ad d4be 3519 b53e b230 30be e26f b9bd
00000070: 6298 9b3d 4ffe 6c3e 5eb7 943e 3f82 b0bd
00000080: f31e 493e dfda 76bd 4cb8 2abe e217 88bd
00000090: 4e92 bebd 84e2 2dbe bcec 2dbe 070c 9b3a
000000a0: 7815 6e3e e666 343d 60a1 f43e e8ec 9f3e
000000b0: 5e85 a9bc 1dca 1ebe 41b2 79be f508 b2bc
000000c0: 3658 3c3e a2d8 a73c 4a91 92bd 2d5e fd3e
000000d0: 7ccd 2f3e a1fe b93c 0662 583d f25e 4ebe
000000e0: 0779 1bbe d142 5e3e 6f30 38bc 6135 9ebe
000000f0: ffc3 d2bd 40ed 57bb 1175 36bd e0ca 65bd
00000100: 0ca7 05bd 48f3 ea3c cf70 423e 0747 02be
00000110: eb83 e0bb 9ac2 413e 91c0 f5be 989d b2be
00000120: bfdd d5be ca44 11be 11bb bb3c d1fa e43e
00000130: 1c65 ca3d 342e 9dbe 126e 50bf 5e8a f73d
00000140: ed46 52be 6298 833d ba04 453e 038d 5c3e
00000150: ff46 97bd 3e02 a5bd 8f31 7fbd 4056 e73e
00000160: f89c e0be 423e c93d de13 5dbe 7d41 21be
00000170: 0678 f4be 258c 48bf f7f6 93be 0c92 65be
00000180: 611a 7cbe 4f2e 283e 2675 c93e be83 bdbd
00000190: ede3 9ebe 3d4f cd3c a928 d6be 8e87 013e
000001a0: ff9c 463a 45dd 703e b588 afbe e4ce 5f3e
000001b0: 347d e23d b869 1b3e 4f6c 46be 298b 82be
000001c0: 1e71 1dbe c577 4f3e 92fd 013d 647c a2be
000001d0: 9c45 7abc 1d86 943d fad6 273e d421 4b3f
000001e0: 03ea 9dbe 0f40 dcbe b608 bfbd 723f a7be
000001f0: ec5e 85be e8ca 46be 4187 b73d 507c 60be
00000200: 7648 57be 5182 c2be f936 4fbc 1187 743e
00000210: fb76 f73d 9f3f 26be ee50 0ebe 75ae a9bd
00000220: a5f1 8a3e 0332 fbbd 218d 71be 2db0 9a3b
00000230: 8753 22bd 7d08 ff3d 9713 b53d 0cde 3cbc
00000240: d846 d03d 785c 1b3e 9746 1dbe 54de dcbe
00000250: 6de1 33be c3d0 c33d 4c04 253e 792a fbbc
00000260: 4fd7 603e bbc8 c4bd 0ce8 e53e 5d21 4a3e
00000270: b417 74be 701c e4bd c824 a6bd d789 903d
00000280: d265 803d fa71 18bd 52f1 2e3d 4a25 d1bd
00000290: e637 ab3e 69a3 4a3e 86f1 76bc c978 123e
000002a0: 419e 243d e3fb 5a3e 24cc c53c 4bf9 2d3f
000002b0: 8f26 493d 621a 5f3c db0c 23be 057f 0a3f
000002c0: 3506 1dbc afbf a43e 9a15 f13d 8e98 633f
000002d0: f11e 493d c4b3 0bbd 003a 823e 64aa 3e3e
000002e0: 5efc dd3e 6a04 aabd 84da 873d 9897 b43e
000002f0: 614e 5bbe c4b8 7bbe 7714 693e a4c3 16be
00000300: e3bb 2a3e 03c9 343e 0a13 b53a deb3 323e
00000310: 611d 93bd 512e fd3c 0063 30be 27d5 a6be
00000320: bcf7 b03d 088d 653e 5087 9c3d 519c 343e
00000330: c639 b73c 20d4 41bd dbd8 14be 5bf0 15be
00000340: 94dd 41bd aef7 2b3e 269a 5abe c17b 6fbd
00000350: f404 4e3e f1dd 8abe 011c 2d3e 5618 723e
00000360: a775 69be 8de9 923d 5a60 223d 706c 67be
00000370: 4a6b 12bd a6ec 76bd 33f3 e13d 339e 97be
00000380: b128 e2be 5f10 273d ecf2 99be bc64 c03c
00000390: 9634 653e 78c0 95be 6352 60be d3bd 49be
000003a0: c423 92bd 8622 0cbd 6f8c b43e 611d db3e
000003b0: 2bf0 c53d d5db 263e 2830 0b3f 0dec 073f
000003c0: 5c66 063d efb1 b13e f433 4e3e 7fbc dc3e
000003d0: 1f70 abbe e714 5f3c 2283 28be 2c2a 333f
000003e0: 16e4 fb3e 5224 c63c 0629 c13d d0b8 c6bd
000003f0: c3f0 d13c c7f2 743e e87d ac3d 58b9 bf3e

actor.init_next_embed.2.add_bias._bias f4 [64, 1]
-0.553805 -0.41885194 -0.30734974 -0.34794787 -0.0851534 1.046817 -0.46340957 0.7881178
0.9743509 -0.62138563 -0.69360304 0.0023690974 1.2346226 -0.97594476 -0.92999154 -0.6540772
-0.8437907 0.83669657 0.5958882 -0.22838233 -0.08321459 -0.20537056 -1.3577601 0.5523673
-2.2737534 -0.82201993 -0.20860517 -1.1002524 0.53891206 0.43091798 -0.5074052 -0.65699637
-0.07462022 0.8969092 -0.35065195 -0.081428185 1.4207112 0.74062705 -0.3564896 0.6383425
-1.7933408 1.2207289 -0.4524864 -1.4076217 0.41693395 1.2817136 1.1788255 0.7338672
-0.6521809 0.35977346 0.7921814 0.37146914 0.3255047 -0.017975427 -0.3089919 -0.7171127
0.11194234 0.5033152 -0.4370771 0.22780065 0.37110305 0.83558536 0.07796323 0.25781375
00000000: 2ac6 0dbf c373 d6be f25c 9dbe 3926 b2be
00000010: e864 aebd 19fe 853f 0544 edbe 17c2 493f
00000020: 106f 793f 2113 1fbf f88f 31bf dc42 1b3b
00000030: 1d08 9e3f 84d7 79bf ed13 6ebf 9a71 27bf
00000040: ab02 58bf bf31 563f 218c 183f 0fdd 69be
00000050: 696c aabd a94c 52be 15cb adbf f267 0d3f
00000060: 2d85 11c0 e66f 52bf 989c 55be 12d5 8cbf
00000070: 24f6 093f 48a1 dc3e 4fe5 01bf ea30 28bf
00000080: 7cd2 98bd d79b 653f a788 b3be d2c3 a6bd
00000090: ddd9 b53f bc99 3d3f ce85 b6be 6a6a 233f
000000a0: 318c e5bf d840 9c3f 4cac e7be f32c b4bf
000000b0: 5e78 d53e 310f a43f c1e3 963f b9de 3b3f
000000c0: 54f5 26bf 3a34 b83e 66cc 4a3f 3431 be3e
000000d0: 8da8 a63e 3441 93bc 3034 9ebe b394 37bf
000000e0: 0742 e53d 44d9 003f 92c8 dfbe 9344 693e
000000f0: 3801 be3e ece8 553f 30ab 9f3d 2a00 843e

actor.embedder.layers.0.0.module.W_query.weight f4 [64, 64]
0.009209222 -0.03664786 0.16376683 -0.1471714 0.04816476 -0.13720845 -0.048398588 0.009407108
0.18519633 -0.15079263 0.15676165 -0.015920961 0.03969686 -0.027997376 0.04395303 -0.017673085
0.0385409 0.048452042 0.013664309 0.097449526 0.0813866 -0.08723661 0.157033 0.18693277
-0.21060419 0.1692449 0.077579625 -0.03564823 0.009982084 0.1981036 -0.004617831 0.058086228
0.09307429 0.031683393 -0.2372529 0.15956874 -0.013527746 0.12260102 0.10911462 -0.020249743
0.12739997 0.025381943 -0.036201753 0.1753354 -0.0728234 -0.11469069 0.19964167 -0.06273249
-0.10553607 0.01362996 -0.03824438 -0.117800824 -0.12381012 0.045440163 0.06501804 -0.11340686
0.09166638 -0.11130972 0.12881501 -0.0218316 -0.07696058 -0.09670847 -0.062158026 -0.035964463
-0.29185814 -0.13040592 -0.12109862 -0.13454847 -0.04380299 -0.20981328 0.1698905 0.18376845
0.2430303 0.08477839 -0.16372268 -0.053292245 0.1651716 -0.021484425 -0.01550011 -0.02230624
-0.090665266 0.1378178 -0.013039312 0.23814137 0.07299713 -0.12638576 -0.037459433 -0.23057696
-0.1974866 -0.09970954 0.17417186 0.026715292 0.124446854 -0.116533384 0.14780788 -0.029838046
-0.22155848 -0.10331972 0.04318547 -0.056490447 -0.11279471 -0.10656694 -0.16639648 -0.13401861
-0.17399894 0.25754634 -0.19638933 0.043615844 0.17706017 -0.10312599 0.009481209 0.14607657
0.172428 -0.087416224 -0.07439228 -0.21591552 -0.12870711 0.120300494 -0.026225207 -0.19770804
-0.15598308 0.3397875 -0.19145049 0.33352184 -0.1002853 0.18238598 -0.17371652 0.10412879
-0.2269499 0.0053017177 0.032777965 0.06756347 0.14906143 -0.063106656 -0.03549586 0.04255627
-0.0020460167 0.0686451 -0.07243987 -0.049260847 0.095544934 0.056230944 0.052945275 0.14870071
0.020843007 0.10344399 0.10769291 0.04176295 0.11794044 0.03843801 -0.1125785 -0.121276535
-0.058181416 -0.060106706 0.045923483 -0.06759375 0.008203592 -0.026374584 -0.0028752177 -0.014004477
-0.053610373 -0.09065445 0.04365064 0.026023118 0.077614926 0.07388274 0.023923887 0.0126290405
0.043589137 0.058470123 0.021047294 0.03401558 0.045771353 -0.12868741 0.17309237 0.17141436
-0.041092303 -0.047058333 0.03741216 0.00935764 -0.05635065 0.060843565 0.0105387075 0.043673113
-0.0303947 0.07908606 -0.047303375 -0.045850296 -0.11464974 0.029823389 -0.08857317 -0.07434043
-0.076214656 0.06920557 -0.06678499 0.080702856 0.09539641 0.16203491 0.05092405 -0.090788744
-0.012694028 0.0475613 -0.10332858 -0.04470675 -0.15157007 0.040537283 -0.02396203 0.03705381
-0.011985995 0.036915928 -0.0053911353 0.057222106 -0.12446527 0.06030924 -0.026243186 -0.025835002
-0.010654985 0.018848985 -0.10932885 0.08835964 0.093837194 -0.068584695 0.1017434 -0.03747742
-0.063389316 -0.042011194 -0.016962048 0.15423758 -0.013593929 0.08759557 0.006281624 -0.059082124
-0.18119723 0.13105151 0.13686536 -0.08026727 0.10466297 -0.11221022 0.020039393 -0.033935137
-0.014218536 0.0152788665 0.056477796 0.018319136 0.21343975 0.108510464 0.08848641 0.05684282
0.11322753 -0.06662258 -0.07902876 -0.0264352 -0.12335568 -0.022581112 -0.01991854 -0.08354692
00000000: 47e2 163c 111c 16bd 7eb2 273e 19b4 16be
00000010: 6948 453d 5f80 0cbe 993d 46bd 4520 1a3c
00000020: 1ba4 3d3e 6269 1abe 2086 203e ad6c 82bc
00000030: 2d99 223d c15a e5bc 1808 343d 25c7 90bc
00000040: 10dd 1d3d a675 463d 44e0 5f3c 9e93 c73d
00000050: 05ae a63d 1ca9 b2bd 42cd 203e 4e6b 3f3e
00000060: a0a8 57be 894e 2d3e 11e2 9e3d e103 12bd
00000070: e58b 233c acdb 4a3e 2d51 97bb d3eb 6d3d
00000080: bc9d be3d 72c6 013d 6df2 72be fd65 233e
00000090: 7ba3 5dbc 3e16 fb3d 7c77 df3d cae2 a5bc
000000a0: 2375 023e cbed cf3c 4a48 14bd 208b 333e
000000b0: 6f24 95bd f4e2 eabd de6e 4c3e e479 80bd
000000c0: 4c23 d8bd 3250 5f3c 24a6 1cbd 8f41 f1bd
000000d0: 2990 fdbd 771f 3a3d 2e28 853d db41 e8bd
000000e0: 95bb bb3d 5af6 e3bd 15e8 033e 2fd8 b2bc
000000f0: 829d 9dbd 170f c6bd 6a99 7ebd 794f 13bd
00000100: 6e6e 95be 2189 05be 8e02 f8bd 13c7 09be
00000110: c46a 33bd 4bd9 56be c6f7 2d3e cc2d 3c3e
00000120: efdc 783e 4ba0 ad3d eba6 27be f848 5abd
00000130: be22 293e 1b00 b0bc 2cf4 7dbc 93bb b6bc
00000140: b6ae b9bd 1c20 0d3e d7a2 55bc 55db 733e
00000150: 857f 953d 456b 01be 106f 19bd 5e1c 6cbe
00000160: ed39 4abe 8434 ccbd 1c5a 323e 07da da3c
00000170: fedd fe3d 0ea9 eebd f35a 173e eb6e f4bc
00000180: 3ae0 62be 4a99 d3bd 3fe3 303d 8762 67bd
00000190: ea00 e7bd c53f dabd d763 2abe 2d3c 09be
000001a0: c72c 32be 1ddd 833e 491a 49be 87a6 323d
000001b0: 434f 353e b833 d3bd 1357 1b3c 1995 153e
000001c0: f790 303e 4707 b3bd fb5a 98bd f518 5dbe
000001d0: cccb 03be 1b60 f63d 3fd6 d6bc fa73 4abe
000001e0: 07ba 1fbe a1f8 ad3e 990b 44be 60c3 aa3e
000001f0: 6162 cdbd 64c3 3a3e bee2 31be 7a41 d53d
00000200: 8e65 68be 08ba ad3b 3042 063d b75e 8a3d
00000210: 8fa3 183e 103e 81bd 1b64 11bd 7c4f 2e3d
00000220: 7716 06bb cd95 8c3d 5b5b 94bd bec5 49bd
00000230: 10ad c33d 6b52 663d 25dd 583d 0045 183e
00000240: f4be aa3c 71da d33d 1a8e dc3d a10f 2b3d
00000250: c28a f13d 2d71 1d3d 8e8f e6bd d55f f8bd
00000260: a34f 6ebd 7332 76bd 431a 3c3d 986e 8abd
00000270: 5c68 063c 830f d8bc 266e 3cbb 0973 65bc
00000280: 8d96 5bbd 0aa9 b9bd 03cb 323d 6f2e d53c
00000290: 93f4 9e3d d64f 973d 07fc c33c 09ea 4e3c
000002a0: 868a 323d 5e7e 6f3d 606b ac3c ec53 0b3d
000002b0: be7a 3b3d a2c6 03be 203f 313e 3f87 2f3e
000002c0: 6750 28bd 3dc0 40bd 7e3d 193d c950 193c
000002d0: f0cf 66bd 1a37 793d 8baa 2c3c 94e2 323d
000002e0: 4efe f8bc dff7 a13d 2fc1 41bd 85cd 3bbd
000002f0: 7ccd eabd 2e50 f43c da65 b5bd cc3f 98bd
00000300: 6e16 9cbd a6bb 8d3d 92c6 88bd 8a47 a53d
00000310: 315f c33d 7bec 253e bd95 503d 73ef b9bd
00000320: 9dfa 4fbc a3cf 423d ef9d d3bd 6d1e 37bd
00000330: 2f35 1bbe 6c0a 263d 054c c4bc bcc5 173d
00000340: e860 44bc 2835 173d 1fa8 b0bb ba61 6a3d
00000350: a6e7 febd d206 773d f3fb d6bc eda3 d3bc
00000360: 3f92 2ebc 3069 9a3c cee7 dfbd e6f5 b43d
00000370: b72d c03d 2276 8cbd d85e d03d ec81 19bd
00000380: 42d2 81bd ee13 2cbd fef3 8abc 75f0 1d3e
00000390: 12b9 5ebc 4e65 b33d 15d6 cd3b 1900 72bd
000003a0: c48b 39be 5e32 063e 6f26 0c3e 2b63 a4bd
000003b0: 8a59 d63d 79ce e5bd a729 a43c 92ff 0abd
000003c0: ddf4 68bc 3654 7a3c 4355 673d 0312 963c
000003d0: f38f 5a3e bc3a de3d 5d38 b53d 04d4 683d
000003e0: d6e3 e73d 6b71 88bd d5d9 a1bd a28e d8bc
000003f0: e7a1 fcbd 06fc b8bc 352c a3bc a61a abbd
