logs/experiment/Discrete_A2C_1-5Box_10x10x10Bin-2022.08.09-15-00-00/PCT-Discrete_A2C_1-5Box_10x10x10Bin-2022.08.09-15-00-00_2022.08.09-20-16-18.pt (torch, 236314 bytes, 24 tensors)

actor.init_internal_node_embed.0.module.weight f4 [32, 6]
00000000: 9efc 03bf daca e93c ca0c 22bf c9f2 503d
00000010: e130 4ebe 7d6d 213c ab48 90bd d91c 1a3e
00000020: 72eb b2be df25 85be e0d8 b9be f4b0 d5be
00000030: 93ef c8bd e4a5 793d 5d0f 4c3e 10ff 733e
00000040: 6f6c da3d 2626 2ebf f597 a83e 1a27 5abe
00000050: 0cd7 903e 00c0 05bf 699a d0bd eacf 223f
00000060: cdc6 a9bd 6241 bebe 2b4f 313e 8f04 973d
00000070: fd28 8e3e fcbb 513f 9084 00bd 46a6 793d
00000080: ba59 6e3e 5cd6 793c b054 86bd 4b4c 76be
00000090: 1761 9b3f 4b32 c8be 4dfe 50bf 6435 acbf
000000a0: 1127 1f3f c70c 333f 7e38 b9be da82 b0be
000000b0: 0452 653d 7f1e 5bbe 0c35 903e 2c89 163f
000000c0: e9f8 debd 1110 d43e 9de6 1d3f 2a8d 50be
000000d0: c08b 79be a83a a93e 1132 ce3e dd27 88bd
000000e0: 1366 063f d578 8fbd 69a2 80bd 6e29 0abd
000000f0: c5cc e3be 36bb a0be b303 a2be d941 fa3e
00000100: b4d6 923e bda8 94be b1cb e9bd 10c3 273f
00000110: 3b40 efbe 4373 143e f7e0 26bf ae81 eb3e
00000120: 10ae b13e 2fe5 15bf bf25 7cbe 2f17 633e
00000130: cb14 8cbe ccb3 303e 9ecc 3b3e 3156 783e
00000140: efb6 a1bd 415d 92be b0a7 14bd afae 0dbe
00000150: f64d 863e 433c 78bb 3cfd 13bb 6f1b 18be
00000160: 1f27 cfbb 2cdf 0e3d cb08 ad3e 8b0d f1bd
00000170: 599a a93e c52f 76be 97b6 4cbe 2571 7e3e
00000180: e5f5 fdbe 77fe 07bf bc41 bbbe 42a9 c3be
00000190: 0660 03be 56f8 90be 1bde 733c 7dd9 1c3e
000001a0: d9b6 a43e af6d a4bd 914d 9bbc d80b d2bb
000001b0: 16f4 d0bd 616a 34bf 5790 2dbf 46b0 84bd
000001c0: c36e 21be 5ab8 1bbe 887b 713e 5f6f c1bd
000001d0: 6bc8 4cbf 32b4 93bd 07d2 a1bd eeea cd3e
000001e0: 6cc0 db3c e5a6 63be 8722 22bc 0d22 d1be
000001f0: 29b9 2dbf 21d5 e23d 6305 9dbd 2ddd cbbe
00000200: c583 25bf 2957 933d 9c5a 963e a255 1c3f
00000210: af90 b2be 6cb3 923c e0ea 4bbf 8211 9f3e
00000220: a9bf fd3e 64ea a03c 7320 dd3d 6cea 3abd
00000230: b8ef dcbe e1be 27be a0a1 dbbe 86ff 0ebf
00000240: 523d 233e 0ee4 1abe a6d0 3c3f c72e 44bc
00000250: 7ec9 073e 1d91 d0bd ff90 aa3d f2da 86be
00000260: b7e1 0cbf 654c 583e 1285 c93e 2694 09be
00000270: cad4 173f 86ca 203d 6a49 503e 92ac 423e
00000280: e583 2abe 02d2 68be c9fe b33e f378 163d
00000290: 6183 71be 23f9 e63e a030 943d f971 dfbd
000002a0: 8788 d9bd 5617 65be cda4 053e 3c12 0a3f
000002b0: 4df9 ff3e 7d50 50bf 084e 813e d029 6abe
000002c0: 3f6a c8be 334e 9ebd 9723 a43d b4ff 8cbc
000002d0: 196e a7be 4015 d0be 2c36 aa3f 7a15 d3bd
000002e0: 7824 63be 9a9c dc3d 60a6 6a3e c9cc 9d3d
000002f0: 0f38 b5bd cf94 7b3d ba5c 1fbe 83e8 e2bd
-0.5155734 0.02853911 -0.63300765 0.051012788 -0.20135833 0.009852764 -0.0704511 0.15050067
-0.34945256 -0.26005456 -0.36298275 -0.41736567 -0.0981132 0.06094922 0.19927736 0.23827767
0.10665213 -0.6802696 0.32928434 -0.21303979 0.28289068 -0.52246094 -0.101857014 0.635985
-0.08289871 -0.37159258 0.17315356 0.07373916 0.27765647 0.81927466 -0.03137642 0.060949586
0.23276415 0.015248861 -0.065591216 -0.24052541 1.2139004 -0.3910087 -0.8163803 -1.3453794
0.62168986 0.6994137 -0.36175913 -0.34474832 0.05598642 -0.21398352 0.28165472 0.5880306
-0.108873196 0.41418508 0.6168001 -0.2036635 -0.24369717 0.33052564 0.40272573 -0.06648228
0.524995 -0.07005469 -0.06280977 -0.033730917 -0.44492164 -0.3139283 -0.31643447 0.48878363
0.2867943 -0.29034987 -0.11415804 0.65532017 -0.4672869 0.14497094 -0.6518702 0.45997375
0.34703112 -0.5855283 -0.24623774 0.22176813 -0.27359614 0.17256087 0.18339774 0.2425163
-0.0789622 -0.28586772 -0.03629273 -0.13836168 0.26231354 -0.0037877716 -0.002258136 -0.14854215
-0.0063218023 0.034880802 0.3379577 -0.11770161 0.3312557 -0.2404166 -0.19991527 0.24847849
-0.49601665 -0.5312266 -0.3657359 -0.3821507 -0.12829599 -0.28314465 0.014884497 0.1531734
0.32170752 -0.08028733 -0.018957885 -0.0064101033 -0.10202806 -0.7047482 -0.6779837 -0.06478934
-0.15764908 -0.15207043 0.2358228 -0.094450705 -0.79993314 -0.07212104 -0.07901388 0.402183
0.026825152 -0.22231634 -0.009895927 -0.4084629 -0.67860657 0.11075807 -0.07667043 -0.3981718
-0.6465419 0.07194359 0.29366004 0.61068165 -0.3487601 0.01790782 -0.79655266 0.31068045
0.49560288 0.019643016 0.10797205 -0.04563372 -0.4315164 -0.16381408 -0.42896748 -0.5585865
0.1594136 -0.15126058 0.7375587 -0.011974043 0.13260457 -0.10183928 0.08328437 -0.26338917
-0.55031914 0.21122892 0.39359337 -0.1343542 0.59309065 0.03925564 0.20340505 0.19011143
-0.16651876 -0.22736362 0.35155323 0.03673644 -0.23585273 0.4511195 0.07235837 -0.109104104
-0.10621744 -0.22372183 0.13051148 0.53934073 0.4999489 -0.81372815 0.25254846 -0.22867513
-0.3914356 -0.07729759 0.08014601 -0.017211773 -0.32701185 -0.40641212 1.3297782 -0.10306831
-0.2218188 0.10772057 0.2291503 0.07705075 -0.08848583 0.06142121 -0.15562716 -0.11079504

actor.init_internal_node_embed.0.add_bias._bias f4 [32, 1]
00000000: 781e 533c c934 a4be cf3b b6bb 1dac b3bc
00000010: 94df 153e 2f4b 1f3d c12c c93b a33b 08bc
00000020: f38d 363d 13ac d73d 0abe e13b e04d 853c
00000030: 82a2 e2ba e793 7539 f6d7 58bc 2d62 f13c
00000040: a9b0 97be 6e4b 75bd 6951 1f3d 1093 de3a
00000050: 524e 82be eaaf 693d 6023 4c3d 702f f03d
00000060: deab 0b3d 70a4 583b e811 da3b 8089 903d
00000070: 1c2a de3c 80aa 42bd 861e 923d bf0c 8fbd
0.012885682 -0.32071522 -0.005561329 -0.021932656 0.1463607 0.03889006 0.0061393683 -0.008315
0.044568967 0.105308674 0.0068891095 0.016272485 -0.0017290863 0.00023420119 -0.013235083 0.02946576
-0.29626969 -0.05988639 0.038896 0.0016981084 -0.2545038 0.05705253 0.049838424 0.11727798
0.034099452 0.0033056997 0.0066549666 0.07057476 0.027119689 -0.047525883 0.07134728 -0.06984853

actor.init_internal_node_embed.2.module.weight f4 [64, 32]
00000000: 2348 ef3d 2558 2e3e 46f7 0ebe ad31 e33d
00000010: 9537 45bb fd1b f93d 121c 033e 0259 013f
00000020: 3df9 893e 876d e0bd c358 523f 17c9 333e
00000030: bdb1 403d 88b6 42be 12f9 31bf 9713 933e
00000040: 50e8 c4bc 2cb0 653e b451 093d b07f 553e
00000050: 2c7e 67be d0f4 243e 384e 8e3f e50d 9cbc
00000060: 079d 0f3f 1819 493e 88bb 323e a2b6 963e
00000070: 60bc b93d d6f6 2cbc af32 4bbe 3a6d f63c
00000080: 31e0 a93e 67ec b43d 772e 05bf 1f89 01bf
00000090: c636 4fbd d768 823e 6410 a63d b183 c5be
000000a0: 28f8 64be f8b7 3b3e 2494 e73e 3662 0f3e
000000b0: b773 cc3e 29af 283d 1ce7 3dbd 3b92 6f3e
000000c0: 0c87 66bd cf39 cebd e23e e5bd 596a 1cbe
000000d0: 5532 273d 69c5 ab3e 98b2 713f 7254 b33e
000000e0: 0f40 5cbe fedb fc3d 0ae9 523c a29a 9e3d
000000f0: 9971 303f 23c8 3a3e fef4 223e 1c0b 0abd
00000100: bdbf 89be 1f43 963b 2d93 013f d493 1d3f
00000110: 475d 0b3f 09cd 5cbb 3580 a1be 0f45 863f
00000120: 3b5d 80be 89b1 a1be 8096 febe e338 45bf
00000130: 5a2a a63d 5dc0 743e 239b 083f 2b22 14bf
00000140: 084e b5bd 55d4 693d 5f5e 3f3d a174 c9be
00000150: 8fc6 05bd 3242 fb3e a306 a6bd cc13 71be
00000160: f8e2 d5bd 5a96 5ebc 6065 593d c7ba 173c
00000170: 4aea 813e 6840 28be d8a9 603e fde4 003e
00000180: ef72 e1bb 2205 61be d04f b9bc 198c f43e
00000190: 21b2 043e 07e8 c73b 097c 473d cf3a 713e
000001a0: e74e 223d 0328 27bd 6d77 843d d2f8 f8bd
000001b0: 3e89 a0be c490 8c3d 9565 b1be 5256 f4bc
000001c0: dba8 e03d 4236 95be 3e3d fc3d a203 6a3d
000001d0: 11f5 86be 0e1b 1e3f 6300 1abe 000c 843e
000001e0: a60b 5f3e 312a 3e3c e6a2 eb3d d5cf 9f3e
000001f0: a1cd 143e 5d90 3abd a056 a6be 2278 5b3e
00000200: d77f 9d3e 9180 febd 9ff0 63be 4e61 9f3d
00000210: b44b 14bf 97f6 e1bd 6034 e83e 45fd 01bf
00000220: 4329 1dbf 75e5 f63e f962 d63e 97e8 bb3e
00000230: 8a61 30bd 5358 4ebe 0315 9e3e 0991 7cbd
00000240: ec9c 73bb b2c2 06be 94ab 0dbc 2e6e b43d
00000250: aed8 15be d6b1 db3e 686f 4f3e c542 0bbd
00000260: 823f 51be e574 833e 74f7 923e 546f f63d
00000270: 7d01 163f e85c 6e3d a918 353e c700 07be
00000280: 5b97 8dbe 955b d2bd 4e8d 48bd 69e2 1bbc
00000290: 838b 5f3f f7f4 86be 22e4 74be f07e a53e
000002a0: 9f5f 403e 74b9 4cbd 64c5 593f 5154 afbe
000002b0: e93f 14bd 528d 46be 748c 713c 27b3 9b3e
000002c0: 6160 5d3e 62f1 603e a3e9 9dbd a480 043d
000002d0: 4291 32bd d322 8b3d 325b c33e aede 1bbf
000002e0: 87f4 59bb 21e5 8c3e ed21 673e 9b85 e63e
000002f0: e690 683c ffe7 e8bd a2a5 b0bc 61a3 373e
00000300: c0d4 a03e 588a 473c bd6c 1b3e 08d9 e9bc
00000310: 2ef1 f43e 30c6 203d 0866 56be c683 3a3e
00000320: 9b45 ce3c 9e60 70be d4ac a93e 44d2 66be
00000330: eebd a0be ed5d e8ba d516 873e 4616 fdbe
00000340: 77ae 463c 2972 aabe 380a 963d b040 08bd
00000350: b44f ba3b e565 be3d 53e4 6f3b 423c 653e
00000360: f857 dabd 948c a63d 0b02 43be be0f e23e
00000370: 3bf9 aabe 9d4b ae3d 497d e6be 02b6 90bd
00000380: 9d2a ebbd 34f4 fbbd a395 efbe e42d a0be
00000390: 0f7e babe d176 acbc 1dc7 2b3e c031 82bd
000003a0: baf0 233e d958 a33e 9421 e93e 45e0 ec3e
000003b0: 21d9 3ebe 96db ba3d 6edc 5bbe 8479 60bd
000003c0: 7cad 7cbd e5bc 44be f603 5b3e 33b6 423e
000003d0: a544 033d 11fa dcbe 5c44 273f 65eb 263c
000003e0: 2fe2 16bf e523 093e 96f9 b2be 6fce ebbe
000003f0: a0f5 2e3f b537 3c3e 5dde c13e 641e f2bd
0.11683681 0.17025812 -0.13961515 0.11093459 -0.0030092944 0.121635415 0.12803677 0.5052644
0.26947966 -0.10958391 0.8216669 0.17557178 0.047044504 -0.19014943 -0.69520676 0.28725883
-0.024036556 0.22430485 0.033525184 0.2084949 -0.22606725 0.16109014 1.111762 -0.019049594
0.5609898 0.19638479 0.1745435 0.29436213 0.09069133 -0.010556897 -0.19843553 0.03008138
0.33178857 0.08834153 -0.52024025 -0.50599855 -0.050589345 0.2547061 0.08108595 -0.38577035
-0.22360289 0.18331897 0.4523021 0.14002308 0.39932033 0.04118267 -0.04636298 0.23395626
-0.056281134 -0.1006962 -0.111936346 -0.15274943 0.040819485 0.3354905 0.9441314 0.35025364
-0.21508811 0.12346648 0.012872944 0.077443376 0.68923336 0.18240409 0.1591377 -0.033702
-0.26904097 0.004585638 0.506152 0.6155369 0.54439205 -0.0033691546 -0.31543127 1.0489825
-0.2507113 -0.3158076 -0.49724197 -0.7703993 0.08113547 0.23901506 0.5336172 -0.57864636
-0.08852774 0.05708726 0.04672086 -0.39346793 -0.032660063 0.4907394 -0.081067346 -0.23542708
-0.104436815 -0.013585651 0.053075194 0.00926084 0.2537406 -0.16430819 0.2193979 0.12587352
-0.006880156 -0.21974614 -0.022621065 0.47763136 0.12958576 0.006100658 0.048702274 0.2355759
0.03962603 -0.040809643 0.06468091 -0.12156834 -0.31354707 0.06863549 -0.34647813 -0.029826317
0.109697066 -0.29142958 0.123163685 0.05713237 -0.26358846 0.6176003 -0.1503921 0.25790405
0.21781787 0.011606739 0.1150568 0.3121325 0.14531566 -0.04554783 -0.32487965 0.21432546
0.30761597 -0.12426866 -0.22259758 0.07782231 -0.57928014 -0.110333614 0.4535246 -0.50777084
-0.61391085 0.48221937 0.41872385 0.3670089 -0.04306177 -0.2015088 0.30875406 -0.061661754
-0.003717239 -0.13160208 -0.008646864 0.088100776 -0.14633438 0.42909116 0.20257342 -0.033999223
-0.20434383 0.2567512 0.28704417 0.12032953 0.5859602 0.05819407 0.17685188 -0.1318389
-0.27654538 -0.10271374 -0.048962884 -0.00951443 0.87322253 -0.26358768 -0.23915151 0.32323408
0.18786477 -0.04998155 0.8506682 -0.34244016 -0.036193762 -0.19389847 0.014742959 0.3041012
0.21618797 0.2196708 -0.07710578 0.032349244 -0.04359556 0.067937516 0.38155514 -0.6088666
-0.0033257322 0.2751856 0.22571535 0.45023808 0.014194703 -0.11372375 -0.021563355 0.17933418
0.31412315 0.01217898 0.15178199 -0.028545871 0.47840255 0.039251506 -0.2093736 0.1821433
0.025179675 -0.23474357 0.3313967 -0.22541147 -0.31394905 -0.0017728187 0.26384607 -0.49431056
0.012126557 -0.33290222 0.07326168 -0.033264816 0.005685771 0.092967786 0.0036604598 0.22386268
-0.1066131 0.08132282 -0.19043748 0.44152635 -0.33393273 0.08510516 -0.4501746 -0.07065965
-0.11482737 -0.123024374 -0.4679385 -0.31285012 -0.364243 -0.02105275 0.16775174 -0.06357145
0.16009799 0.31903723 0.4553343 0.46264854 -0.18637516 0.09123914 -0.21470806 -0.054803386
-0.061688885 -0.19212683 0.2138823 0.19014816 0.032047886 -0.43159536 0.65338683 0.010187958
-0.5893888 0.13392599 -0.34956044 -0.46055934 0.68343544 0.18380626 0.37864962 -0.11822203

actor.init_internal_node_embed.2.add_bias._bias f4 [64, 1]
00000000: a4bb 303e 9097 973e 31bf 5bbd 44e4 a03d
00000010: 0a95 1e3e 96a2 963e ffce 2a3d a714 e33d
00000020: c97d a1bd abe0 c8bd 67f2 d33b 2d49 363d
00000030: 394a 82bd 67c0 9c3d e890 113e 20f8 143e
00000040: a611 7d3c d9af 48be 73c2 983c 1bfb b03d
00000050: d85e 15bc f04f ca3c 7ed2 6bbd b7b0 8dbd
00000060: a1aa 013e deeb 26bd 7a7e 1fbd f5e8 223d
00000070: 820f c8bd 4e1f 0ebc ad60 8f3c 362b f3bb
00000080: cf0a 963d 064a f73c b1c3 8a3e df65 94bd
00000090: 6bf9 b43c e55b 13be 9d4c 08bd f088 4a3e
000000a0: 6ce4 3dbd 5181 7ebe 1517 193e af10 28bc
000000b0: a2e6 0bbe d5c5 56bd 5c4f 99be b328 8bbe
000000c0: 62cc 8a3e 2c41 733c 0ffa c63d 6811 8b3d
000000d0: a524 89bc 8587 43bc 7a24 3bbd 3a51 513e
000000e0: 3034 663e eb43 9ebd 447b 4d3c d60c 3b3d
000000f0: 9ef9 693d 9651 e53d 2cc7 36bd a31a 9c3c
0.17259079 0.2960782 -0.05364913 0.07856038 0.15486541 0.29420918 0.041701313 0.110879235
-0.0788532 -0.09808477 0.0064681056 0.04450338 -0.06361813 0.07653885 0.14215434 0.14547777
0.015446102 -0.1959833 0.018647408 0.086416446 -0.009116851 0.02469632 -0.057573788 -0.06918471
0.12662746 -0.040752284 -0.038938977 0.039772946 -0.09768583 -0.008674456 0.017502153 -0.0074209226
0.0732628 0.030186664 0.27102426 -0.07245993 0.022091588 -0.14390524 -0.03327619 0.197788
-0.04636042 -0.24854018 0.14950211 -0.010257884 -0.13662198 -0.05243476 -0.2994336 -0.2717949
0.27109057 0.014847081 0.09715664 0.06790429 -0.016741106 -0.011934166 -0.045689084 0.20441142
0.22480845 -0.07727798 0.012541596 0.04566654 0.05712282 0.11197202 -0.04462354 0.01905567

actor.init_leaf_node_embed.0.module.weight f4 [32, 8]
00000000: 2acb 9bbd 17a0 afbe 0eeb c9be 5c68 95bd
00000010: 4c92 2c3e 19fc bd3e aeba fd3e 6107 8a3e
00000020: 962e cebe 3b82 2fbf a28c 8cbd 2a39 a1be
00000030: c268 72be 582f aa3e e4d3 b4bc e5bd ba3e
00000040: 6447 4c3e d1a2 c0be c73a 00be 8ba1 d13e
00000050: 2f70 183b 7767 a2be 082d 68bd 791e 8abd
00000060: 114a cebe ec02 49be d9f7 77be 7dc9 81be
00000070: d693 aa3e 1fcb 383d 990d e73e b1e4 e93d
00000080: 77fa 0dbd 56b4 32be bffc 953d aeda dc3d
00000090: c5fe be3e 7ef4 063e 0550 ffbe a052 c83e
000000a0: b74a c13d c399 163e 1fcb 08bf a865 213e
000000b0: df7f eebe 734b 063f e4ad fabd 898a 83be
000000c0: ec78 bfbe 6c7d 33be ffe8 89bd 9007 1b3d
000000d0: 4bf3 913d e045 4ebe 6568 ccbd 8015 e0bd
000000e0: 560e c33e 10f0 e1be b6d9 843e 60fd e73e
000000f0: b98e 0cbd 5500 c73e 3e1e 383d 19c2 663e
00000100: 2a0d d53d ca2a 003e 5854 2cbe 73ff ac3e
00000110: 3397 ca3d 15e5 ae3d 6612 fb3e 082f b23e
00000120: a5c2 b5bd e8ec ab3e f892 37be 1d67 9a3e
00000130: 41db f73c 8dd0 f4bd b2a1 e73e c905 99be
00000140: 3c61 553d f331 c43d 8cc6 8e3e d949 8cbd
00000150: 6b02 b33e 95a0 f5bc c8b2 45be e261 ad3c
00000160: 3666 91be 4b22 003d 6aa4 3c3e 49c6 bd3d
00000170: 8f3d ef3e e9fa c63d 9283 88bc 1b41 b7be
00000180: aa40 c73e b59b 9b3d ad64 113f c23b afbe
00000190: 69a3 b0bd 9946 85bd 2cf3 bb3e 20c1 eebd
000001a0: 8bb9 57be 791e 173d 7efd 823e f15d 0bbe
000001b0: 5932 8abe d3b7 5ebe c32c b63e a32a 9c3d
000001c0: 9ffa 333e f0b1 aebc 594a 253e c2b8 e73e
000001d0: a7ac f23d 0b49 d23e 1243 e93d aff0 94bd
000001e0: 4245 013f ef0b 0f3e ff4c f0bd 76ac 06bf
000001f0: d96a 423e 8802 f23e 724a 123d cf02 9cbe
00000200: f13a 4ebd b483 ad3d 31b0 93be 9edf b53e
00000210: 4432 443e 168b 8a3c e4f7 77be b290 a03d
00000220: 59e6 b0bd 30a2 bf3e 790a e03d fe9e a33d
00000230: d8f3 8bbe bd64 b83d 66e4 3d3e c66e 933e
00000240: f01b 52be 53d3 4f3d 5031 8a3d e80c b6be
00000250: eed3 71be eeb5 b73e 5cbb 483d 29d3 f43d
00000260: eb42 c6be a520 0d3e f661 c5bd 8b0e 8e3e
00000270: a747 533d f211 053f ae72 b7bd b71a d93d
00000280: 7df8 78be 0b06 8bbe d98c 9dbe 2b57 3ebd
00000290: 8bdc e13c eb77 d53e a2a5 10be 682f 86be
000002a0: 1f07 063e d9a1 13be 71b5 f83e 49a9 e2bd
000002b0: 50e1 a93c f1a9 e4bd 4ea6 47be a499 6d3d
000002c0: 1b69 a8be 0179 b53e 5423 863c 2305 a33e
000002d0: 2d9e 7c3e c85f 393e c3c9 f13d 4163 073e
000002e0: 701a 98be e119 14be f8bb 903d 443e 97bd
000002f0: 1bfd e63e fae7 2dbd 7fa2 17bd 2a7b 7ebd
00000300: efdb 723d d260 a73d 085b 813e 703c bdbc
00000310: a25a 663e c22a 843d 4cbb 8cbc d4e8 fc3e
00000320: 240f 9a3e 1728 523e 096e fdbe 1d04 a5be
00000330: e431 4b3d 6128 b0bc 40cb 3f3d 0f97 99be
00000340: ecc2 753e a0fd 31be acf7 ee3d 0ef6 d53e
00000350: b1b2 1e3e a966 f43d 36f3 e33e 1c7b 8ebe
00000360: e3f3 093d 4fea 31be e303 c4be b785 123e
00000370: 647c 193f f837 7ebd ba31 5e3e ee74 ba3e
00000380: 2f37 9f3e 5bcf 1ebe b38e debd b86f d9bd
00000390: 1408 edbc df0f d2be bd58 d13d 2506 503e
000003a0: bd09 e53d f9cc 7a3e 2f22 3fbe 1b39 58be
000003b0: 264b 953e eab6 243c 3e4b 5ebe 8fdc 283e
000003c0: f7cd 933e c274 f23e 033d 03bf 7e13 04be
000003d0: 6a11 59be cc97 2fbe 710d 10bd 599f e93e
000003e0: 4257 e23d 0ea7 d73e ed47 82bd d438 5fbe
000003f0: ddb6 e63d a988 c83e 453c 303e b5d1 c6bd
-0.0760711 -0.34301826 -0.39437145 -0.072952956 0.16852683 0.37106398 0.49556488 0.26958755
-0.40269917 -0.6855809 -0.06862761 -0.31488925 -0.23672774 0.33239245 -0.022073694 0.36473003
0.19949108 -0.3762422 -0.12522422 0.4094356 0.0023260226 -0.31719562 -0.05668357 -0.067440934
-0.40290883 -0.19630021 -0.2421564 -0.25349036 0.33315915 0.045115586 0.45127562 0.114205725
-0.03466269 -0.17451605 0.07323598 0.10783897 0.3730375 0.13179204 -0.49865738 0.39125538
0.09438079 0.14707093 -0.5343494 0.15761435 -0.46581933 0.52458876 -0.12240198 -0.2569163
-0.37396944 -0.17528313 -0.067338936 0.03784901 0.071264826 -0.20143843 -0.09980849 -0.10941601
0.38096875 -0.44128466 0.2594735 0.45310497 -0.0343158 0.3886744 0.044950716 0.2253498
0.104029015 0.12516323 -0.1682905 0.33788642 0.0989212 0.08539788 0.49037474 0.34801507
-0.08875016 0.33579183 -0.17927158 0.30156794 0.030255916 -0.119538404 0.4524055 -0.29887226
0.052094683 0.095798396 0.27885854 -0.06850023 0.34962782 -0.029983798 -0.19306481 0.021164838
-0.28398293 0.031282704 0.18422094 0.092663355 0.46726653 0.09715826 -0.0166643 -0.3579186
0.38916522 0.07598058 0.56794244 -0.3422528 -0.08624918 -0.06507606 0.36708963 -0.116579294
-0.21066873 0.036894295 0.25584024 -0.13610055 -0.26991537 -0.21749811 0.35581025 0.0762532
0.17576073 -0.021325082 0.16141643 0.45258147 0.11849337 0.41071352 0.11389746 -0.07272469
0.50496304 0.13969396 -0.11733436 -0.52606905 0.18986072 0.47267556 0.035715528 -0.30470893
-0.05034918 0.08472386 -0.2884536 0.3552217 0.191598 0.016912024 -0.24215657 0.078400984
-0.08637685 0.37428427 0.109394975 0.0798931 -0.27334476 0.09003589 0.18544158 0.2879545
-0.2051847 0.050738644 0.06747687 -0.35556722 -0.23616001 0.3588099 0.049006805 0.11954338
-0.3872293 0.13781984 -0.09637825 0.2774547 0.051582005 0.5198051 -0.0895742 0.106007986
-0.24313541 -0.27153048 -0.3077152 -0.04646985 0.027570983 0.41693053 -0.14125684 -0.26208043
0.13088654 -0.14417209 0.4857593 -0.11067445 0.02073732 -0.11165226 -0.19497034 0.05800785
-0.3289269 0.3544388 0.016374268 0.31839857 0.24669714 0.18102944 0.11806061 0.13221456
-0.2970767 -0.14462997 0.07067102 -0.07384923 0.4511498 -0.04245756 -0.037020203 -0.062129177
0.059291776 0.08172764 0.25264764 -0.023100108 0.22495511 0.06453468 -0.017179154 0.49396384
0.30089676 0.20523106 -0.49498013 -0.322297 0.049608126 -0.02150363 0.046824694 -0.2999806
0.24000138 -0.17381907 0.116683334 0.41789287 0.15497853 0.11933643 0.44521493 -0.278283
0.033679854 -0.17374538 -0.38284215 0.1430882 0.5995543 -0.062065095 0.21698657 0.36417335
0.3109679 -0.15508787 -0.108670615 -0.10617012 -0.028934516 -0.41027734 0.102220036 0.20314844
0.11183498 0.24492253 -0.18665384 -0.21115534 0.29158896 0.010053376 -0.2170839 0.16490386
0.28868076 0.47354704 -0.5126497 -0.1289806 -0.21198049 -0.1714775 -0.03516907 0.45629385
0.11051799 0.4211964 -0.06361375 -0.21799022 0.11265347 0.39166763 0.17210491 -0.09707967

actor.init_leaf_node_embed.0.add_bias._bias f4 [32, 1]
00000000: 25fa 3e3c 6936 ee3c f72f c03b e428 023c
00000010: b1a8 efbd 7b82 763c 84d5 45bd c6b0 d5bc
00000020: d0d5 9f3d 8a72 103d e9db 233d 7663 f3bc
00000030: b458 de3a e31c 48bd df0a 043e 0b5f 3b3a
00000040: cb04 23bd 4861 46bd 90db 3e3c 884c 71bb
00000050: 997f 143d 6282 213d e394 f63d ac82 adbc
00000060: 6169 453c 6afd 4a3c 24e9 ba3d d02f adbc
00000070: c804 d4bd ccb6 413b edb2 0e3c 53dc 1bbe
0.011656319 0.02907868 0.005865093 0.007944319 -0.11702097 0.015045757 -0.048299327 -0.026085269
0.078044534 0.035265483 0.040004645 -0.029710513 0.0016963691 -0.048855674 0.12894772 0.00071476464
-0.039799493 -0.04843262 0.0116490275 -0.0036819298 0.0362545 0.039430983 0.12040117 -0.021180473
0.01204905 0.01238952 0.09126499 -0.021140963 -0.103524745 0.0029558418 0.008709651 -0.15220766

actor.init_leaf_node_embed.2.module.weight f4 [64, 32]
00000000: a2bf 113e 5e0c 003f 0ba3 2d3e ebf3 9a3e
00000010: 009b 74be 9379 d43e 08cd 9b3e 6b2a 85be
00000020: a0ca 903a 562a 303e de9e 713c 7b2d 89bb
00000030: a401 b1be 89de 0bbe 1b19 063e 8636 c93d
00000040: c3eb 2d3e 544e 0abe baa5 f83d fff2 a73e
00000050: 17b4 223f 5a20 e5be fc5e 223f 8661 b03e
00000060: 58bf 093d 2414 6b3b abc1 8ebc 6d2b b73e
00000070: 9e62 06be a9ca 303e 8599 f13d c339 9bbe
00000080: 0b9d e7bd 7443 87be 1c43 37be 2ce9 27be
00000090: be6c 89be afee ae3e 0d0d 6cbe f0af 673e
000000a0: b4c9 a23e 6da6 a6be 7ce6 ac3d 4419 debd
000000b0: 00b8 913e 70f5 313d d64a 683d 768d 673d
000000c0: f702 163d 8926 2a3e a819 803d cc0c f3be
000000d0: 43b8 dfbe eb69 173f d8d2 493e d843 7a3e
000000e0: fb1d df3d 8b50 0e3e b82b fd3d abc4 30be
000000f0: 4ec8 ae3d 2fcc a53d c9f4 643e 6948 3bbe
00000100: 0695 96bc e9d9 ea3c fee8 603e 58b6 c0be
00000110: 1e1a 1b3e 8b00 afbd 4c08 e5bd bc3e a3bd
00000120: 45aa b3be 061f d23e 119d b83d 9e3c 083e
00000130: 2b97 49be 546e 293d 18e4 153e cfa0 113e
00000140: 246c b6be c4e3 8fbe b457 0a3e 8f18 753d
00000150: 1e71 51bd 5ad2 fe3d f51a 0f3e 1810 873d
00000160: c7bf b83e 4286 d1bd 68a6 303e 24ef 133c
00000170: 3526 1fbe e444 39bd 86e8 02bf 0c7e 48be
00000180: 0bb6 75be fe3e 073e 1659 b9be 208a 133f
00000190: 3abf 5dbe bbbf b13d 9aa6 24be 6e3e 313e
000001a0: 474e eebc 4916 ca3d d2a4 793e 571f 293e
000001b0: 58aa 1e3f 94c8 87be ee51 7fbd a835 34be
000001c0: 1420 21be 8a01 813e 1fcf 123c 815d 233d
000001d0: a9ee fbbe 94d3 10bd 36b9 d8bd a306 6abe
000001e0: 7d41 d73d f007 31be 75c6 8f3e a7b6 583e
000001f0: 9f59 543e 45b2 7cbc cbfa b0bd 1a25 b93d
00000200: 044d b1be fb3e cbbe ee8b c6bd 7dc2 0abe
00000210: abc9 db3c 65d9 8cbe 8403 6dbe a17d 5cbe
00000220: d62d 1dbf d88e b23e 2271 e63c 5d09 6b3c
00000230: 61af e73e 3809 9cbc b6ce 89be 6df9 273e
00000240: f2a1 b33d e106 69be ed74 a3be 70d9 f6bd
00000250: 1118 313e 42b2 5c3e 49ce ce3d f3f1 bdbd
00000260: d3b8 3cbe 1a38 cf3d bb5e 6abd 9068 ee3c
00000270: e5c8 b0bd 2b83 13bc 23ff 583e 4269 0dbe
00000280: dde4 04be eded 6a3e 8c33 30be 66f2 babe
00000290: 730b f33d 873e 5e3e fc79 973d 51b8 36be
000002a0: b92e a7be 93fd c3bd 6b19 8d3c d77a 633d
000002b0: 8718 1dbe 6b09 71be cf78 e63e a78b 88be
000002c0: 5b42 703e a790 e33c b60b 3e3a 34e2 a8bc
000002d0: 7185 013c 9b83 96bd 6c9e 17be 063b afbe
000002e0: a1d7 52be 63c5 58bc 8f7c 4b3d 29fb 773e
000002f0: 3e40 07bd 070a 8b3d 1afe 85be 17e0 80bd
00000300: 93ef 18be fe56 e6be 0ca8 c5be abc5 023e
00000310: 9c14 57be 4b44 55be 85f0 d13c 0e53 063d
00000320: 1186 29bc 5317 633a db87 6dbc 6c15 7fbe
00000330: 4185 ae3e aa3b f43d 75ad 38be cb33 56be
00000340: ddcb 1fbe 0ba6 273f bebf cc3d dead 08bd
00000350: b77d fc3d e790 7c3e 7ee8 19be 2f4a 0e3e
00000360: 8211 b03d 6bd4 853e 57e3 82be 18e8 023c
00000370: 93ac 113e 04f3 95bd d4e7 80be 803a 8e3d
00000380: ceb5 ed3c ba50 673e c26d abbe 6f27 babe
00000390: 025e 07bf 85a6 9dbe bee9 373e 4f34 5abe
000003a0: 89f0 99bd e124 4e3d 49c0 e0bb 7cf0 b5be
000003b0: 5345 0e3e aff7 a5be 0db2 dabe f072 b83d
000003c0: 908e b2be 2ce7 6d3e 4c4b 08be 3dba 28be
000003d0: 6828 7b3c 03ce 313f cc89 8ebd 1142 4bbe
000003e0: 45db 9bbd 7855 8d3d 8c93 4abe 89c7 91be
000003f0: d4f1 3c3e bad0 00bf 1054 9c3e c612 0b3c
0.14233258 0.5001887 0.16956727 0.3026422 -0.23887253 0.41499004 0.30429864 -0.26008925
0.0011046715 0.1720365 0.01474735 -0.00418633 -0.34571564 -0.13659109 0.13095514 0.09824853
0.16984467 -0.13506442 0.12140985 0.3280258 0.63556045 -0.44751245 0.63426185 0.34449404
0.033629745 0.003587016 -0.017426332 0.3577532 -0.13123557 0.17264809 0.1179686 -0.30317506
-0.113092504 -0.2641865 -0.17896694 -0.16397542 -0.26840776 0.34166476 -0.23051853 0.22625709
0.31794512 -0.32548848 0.08442399 -0.10844663 0.28460693 0.043446958 0.056711994 0.056531392
0.03662392 0.16616262 0.062548935 -0.474707 -0.43695268 0.59145993 0.19709337 0.24439943
0.1089439 0.13897912 0.12361854 -0.17262523 0.08534299 0.080955856 0.22359003 -0.18289341
-0.018381607 0.02866836 0.2196388 -0.37639117 0.15146682 -0.085450254 -0.11183223 -0.0797095
-0.35090843 0.41039294 0.09014333 0.13304374 -0.19686572 0.041364983 0.14637792 0.142215
-0.3562938 -0.2810346 0.13510019 0.059837874 -0.051133268 0.12442465 0.13975127 0.065948665
0.36083815 -0.10230686 0.17250979 0.009029184 -0.15541919 -0.045231715 -0.5113605 -0.19579333
-0.23995225 0.13207623 -0.3620078 0.5763264 -0.21654978 0.08679148 -0.16079178 0.17308971
-0.02909006 0.09867532 0.2437928 0.16515861 0.61978674 -0.26520216 -0.062333994 -0.17598593
-0.15734893 0.25196487 0.008960514 0.039884094 -0.4920552 -0.035358027 -0.10582201 -0.22854094
0.10510538 -0.17288184 0.28081098 0.21163426 0.20737313 -0.015423362 -0.08641585 0.0904028
-0.3462907 -0.39696488 -0.09694658 -0.13550754 0.026829561 -0.2750961 -0.23145872 -0.21532299
-0.61398065 0.34874606 0.028130118 0.014345494 0.4525099 -0.019047365 -0.2691552 0.16403742
0.08771123 -0.2275653 -0.31925145 -0.12053192 0.17294337 0.21552375 0.100979395 -0.09274664
-0.1842988 0.101181224 -0.05721925 0.029102594 -0.086320676 -0.009003441 0.21191077 -0.13809684
-0.1297793 0.22942324 -0.17207164 -0.3651306 0.11867418 0.2170354 0.073963135 -0.17843749
-0.32652834 -0.0956985 0.017224034 0.05553707 -0.15341388 -0.23538749 0.45014045 -0.26669046
0.23462813 0.027778937 0.000724967 -0.020615675 0.00790535 -0.073493205 -0.14806527 -0.3422472
-0.20590068 -0.013230654 0.049679335 0.24216904 -0.03302025 0.06789022 -0.26170427 -0.06292742
-0.1493514 -0.44988245 -0.38604772 0.12770717 -0.21003956 -0.20826833 0.025627384 0.03279405
-0.010346905 0.00086628384 -0.0144977225 -0.24910516 0.3408604 0.119254425 -0.18034919 -0.20918195
-0.15605111 0.65487736 0.099975094 -0.033368938 0.12328666 0.24664651 -0.15030095 0.13895486
0.08597089 0.26138625 -0.25564072 0.007989906 0.14225988 -0.07321742 -0.2517687 0.06944752
0.029017355 0.22589388 -0.33482176 -0.3635821 -0.5287782 -0.30791107 0.1796026 -0.21309017
-0.075165816 0.05032814 -0.0068588597 -0.35535038 0.13893633 -0.3241553 -0.42713967 0.090062976
-0.34874392 0.23232716 -0.13309973 -0.16477294 0.015329458 0.69454974 -0.069598764 -0.19849421
-0.07610182 0.069010675 -0.19782847 -0.28472546 0.18451625 -0.5031849 0.30532885 0.008488363

actor.init_leaf_node_embed.2.add_bias._bias f4 [64, 1]
00000000: 92d7 8a3e 21fc 0c3e a117 2c3d 9012 0d3c
00000010: a671 37be d507 5b3c 75c8 57be bdb1 8dbe
00000020: 33cd 2bbe 0b8e 2dbe c0f1 8e3e 8d8b 1cbe
00000030: 1c01 c73d 2bb3 bbbd 4be1 ccbd 8925 97bd
00000040: 29f0 113e db1c 11be 613e a4be d5b0 0ebd
00000050: f68a 1a3d 5cf7 ad3d def5 323c a273 353d
00000060: c7f6 713e 5edc 37bd 17fe 93bb 9638 abbd
00000070: edc6 2fbe 6127 e63d c80f 14be 57b0 9dbc
00000080: 4219 e03d 4a64 7bbd 885d 1fbe 90b2 1a3e
00000090: 4866 673e 36df 31bd b911 ffbc 77d9 05be
000000a0: ca94 6a3d 534c 00bf b98b 403e 8a76 6c3d
000000b0: 14c7 0fbe 04b7 30bd fbf3 12be ffb3 21bd
000000c0: 2334 6dbe ccb6 333d 3e4d 60bd a5f1 7dbd
000000d0: cd7f ce3d c414 29be 8497 41be 7297 cf3d
000000e0: 0e55 653c 3255 6bbe eb21 453e 390f 8bbe
000000f0: ad15 093e 7d4d 0abe 56e1 903d e4ea b93c
0.27117592 0.13768055 0.04201472 0.008610383 -0.17914447 0.0133685665 -0.21072562 -0.27674666
-0.16777496 -0.16948716 0.27918816 -0.1528761 0.097170085 -0.09165033 -0.10003909 -0.07380206
0.1425177 -0.14171164 -0.3207884 -0.03483661 0.03773018 0.08494446 0.010922877 0.04429973
0.23629294 -0.044887893 -0.004516374 -0.08360402 -0.17165728 0.1123798 -0.14459145 -0.019249124
0.109423175 -0.06137494 -0.15563023 0.15107179 0.22597611 -0.04342576 -0.03113638 -0.13071238
0.057270803 -0.5011646 0.188033 0.057730235 -0.14040786 -0.043143287 -0.14350884 -0.0394783
-0.2316442 0.0438755 -0.054761164 -0.06199803 0.1008297 -0.16511828 -0.18905455 0.10136308
0.013997329 -0.22981718 0.1925122 -0.2716005 0.13387175 -0.13506122 0.070742294 0.022695012

actor.init_next_embed.0.module.weight f4 [32, 6]
00000000: c0b7 cb3d b261 17be d209 99be f9ca 02bf
00000010: c511 6bbe 665d ca3c cccd 60be 51ff c7bd
00000020: 0851 3f3e e0c6 78be 5c65 c33c 585c 73be
00000030: e69a 073f 0d16 89be 7bfc 83be 0970 eebd
00000040: 092c 38be 7fca 953e 9a83 fabb fffb 143d
00000050: 9595 07bd f621 d63e 8073 edbe 2e47 b8be
00000060: 8cce dc3d 5213 d8be 941b febd f022 81be
00000070: e65e c4bd 8b17 21be 8604 cbbc ccc5 13bf
00000080: bf29 913e ba3d 38bf c82e 04be c0b4 173e
00000090: 932f 5e3f 8cc7 d23d 905a 913d d624 01be
000000a0: 4689 43bd a292 bbbe dc3d b5bd c359 c93d
000000b0: b652 153e 1152 ac3d 745f 9dbe 71a9 333e
000000c0: f6f4 70be 7928 17bf 3854 7a3e eb3a efbc
000000d0: a9d5 af3f d038 32bf 7453 d33d 8da0 95be
000000e0: 02a6 3abe d2a5 5e3d e435 b0be eb69 e8be
000000f0: 1456 a4be 3678 3a3e 4412 843c 9f27 cd3e
00000100: dc7b 913e 48f0 d8be 1686 19bd a37c efbc
00000110: ad2c b1bc 77b9 f23d 79e8 2dbc ad72 0f3e
00000120: 6f2e b6be 917e 06bd 6350 153e 7504 b13c
00000130: 6f9a 69be 5894 a8be 391d 5e3c 0aa8 153c
00000140: 5446 fe3d 1a1d 403e 3883 a6be a7ef d4bd
00000150: 891e a33f 2d89 69be da14 83be a84d 1cbf
00000160: 3f88 01be 1106 643d 65c2 54be 103a 82bd
00000170: 696d 98be d322 e1bd 6a53 113a c2ae f43d
00000180: d17e 8cbe cc78 0bbd 7749 e6bd 83c0 04be
00000190: a179 d2be 5445 dc3d 1f3d 123f 30f0 4ebd
000001a0: 52bc 493e d222 81be e7d3 5dbd 59c9 773b
000001b0: 74f1 7dbd 3d85 933e 1918 6a3e 5ff8 ffbb
000001c0: 738c 8ebd f665 823e 43fb 753f 65fe 793e
000001d0: eba9 b7be fe75 85be fd96 363e a537 fc3d
000001e0: 598f 883e 5055 d63c 59e4 14bd fb74 0fbe
000001f0: f620 86be 59bc 2b3e 8276 e8bc e210 58be
00000200: 23e0 37bf 2fef cabd 3c81 00be 05d5 ebbc
00000210: 015e ee3d a445 17be a075 c7bd b786 0a3e
00000220: f7a0 b2be ae61 863d 04da 253f 0e27 88be
00000230: 3362 a93e b22f e8be bb05 e23e f4bf d13e
00000240: 9395 a33f 5fdc cbbd 22d6 3abe 624b b4be
00000250: f6b5 39be 5330 423e d890 2c3e b767 923e
00000260: a8c0 83bd b55a 49be 2f39 47be cc51 ccbe
00000270: 8fb2 2a3b 93fe a3be 6c75 393e ee2c 7ebd
00000280: 8702 67be ff98 8abc 41f6 02bf a3c9 c3be
00000290: 824f 41be d848 45be 0836 033e 7856 26be
000002a0: f500 0b3f 6597 523e 0aec 9bbc 3b31 a4bf
000002b0: 57b1 01bd 80d1 293e 9f7a d23e ab43 6c3e
000002c0: cef5 afbe 56d1 35bf aafe 8abc 8a70 2d3e
000002d0: b147 e6bd a4b2 84be ec67 973e a47e a43b
000002e0: dfc7 ffbc 844d 98bd bdda 4cbd 89e3 67be
000002f0: 9db3 f0be dfbc 68bd 0a72 e2bd e7f0 54bc
0.09947157 -0.14783362 -0.29890305 -0.5109096 -0.22955997 0.024702739 -0.21953505 -0.097654946
0.18683255 -0.24294615 0.023852043 -0.23765695 0.5297073 -0.26774636 -0.25778565 -0.11642463
-0.17985548 0.29256055 -0.0076450827 0.036373135 -0.033101637 0.41822785 -0.46377182 -0.35991806
0.10781583 -0.4220224 -0.12407604 -0.25221968 -0.09588413 -0.15731637 -0.02478243 -0.5772369
0.28352162 -0.7196919 -0.1290847 0.14815044 0.8679134 0.10291967 0.070973516 -0.12611708
-0.047738336 -0.3663531 -0.08849689 0.09831574 0.14582333 0.084140904 -0.30736887 0.17545106
-0.23530945 -0.5904613 0.2444619 -0.029202899 1.3737079 -0.6961794 0.10318652 -0.29224053
-0.1822739 0.054357357 -0.34416115 -0.4539331 -0.32096922 0.1820992 0.016121991 0.4006929
0.2841481 -0.4237082 -0.03748139 -0.029234236 -0.021627748 0.11851781 -0.010614508 0.14008589
-0.355823 -0.032835547 0.14581446 0.02160857 -0.22812818 -0.32925677 0.013556772 0.009134302
0.12415758 0.18761101 -0.32521987 -0.103972726 1.2743694 -0.22806235 -0.25601846 -0.61055994
-0.1264963 0.055669848 -0.2077728 -0.06358731 -0.29770973 -0.1099297 0.00055437407 0.11947395
-0.27440503 -0.034050748 -0.11244481 -0.12964062 -0.4110842 0.10755411 0.57124513 -0.05052203
0.19700745 -0.25221878 -0.054157164 0.0037809222 -0.061997846 0.2881259 0.22860755 -0.0078115906
-0.06960382 0.25468415 0.9608652 0.2441345 -0.35871825 -0.26066583 0.17831035 0.12315301
0.26671866 0.026163727 -0.03635058 -0.14009468 -0.26197022 0.16771068 -0.028376821 -0.2110019
-0.7182638 -0.09908902 -0.12549299 -0.028788099 0.116390236 -0.1477266 -0.09739232 0.13527952
-0.3488843 0.065616 0.6478579 -0.26592296 0.33082733 -0.4534889 0.44144997 0.4096676
1.2780021 -0.09954142 -0.18245748 -0.35213763 -0.18135819 0.18963747 0.16852129 0.28594753
-0.06433231 -0.19663508 -0.19455408 -0.39906156 0.002604637 -0.32030162 0.18111199 -0.062054567
-0.22559558 -0.016918657 -0.51157004 -0.38239774 -0.18877986 -0.19266069 0.1281358 -0.16243923
0.54298335 0.20565565 -0.01903345 -1.2827524 -0.031663265 0.16583824 0.41109177 0.23072688
-0.34367222 -0.71022546 -0.016967136 0.16937461 -0.11244143 -0.25917542 0.29571474 0.0050199796
-0.031223236 -0.0743666 -0.050013293 -0.22645392 -0.47012034 -0.056820747 -0.110569075 -0.012996889

actor.init_next_embed.0.add_bias._bias f4 [32, 1]
00000000: 8eb1 303e 3873 5c3d c6dd 89bd 7a46 4cbd
00000010: daa0 a13b e553 91be c961 f13d e579 90bd
00000020: b9b8 62be dbea 34bd 134c dbbd 85ff 8b3e
00000030: c0df 8c3c dd65 153e 0d09 c03e b393 8b3e
00000040: b2e0 7e3b ecf1 54be 8630 8bbe ef23 bc3e
00000050: 15b2 a6bd c290 6c3c 3ec4 6bbe 22f4 5bbd
00000060: d45c 743e 1a28 d7bd 280a 0dbe 510a d93c
00000070: e176 0e3d 4271 1f3e 5bec 103e b36c 113e
0.17255232 0.05382082 -0.06731753 -0.0498719 0.004932505 -0.2838432 0.11786229 -0.070544995
-0.22140779 -0.044169288 -0.107078694 0.27343383 0.017196536 0.14589639 0.37506905 0.27261123
0.0038891253 -0.20795411 -0.27185458 0.36746165 -0.08139435 0.01443881 -0.23024079 -0.05369962
0.23863536 -0.10505696 -0.13773406 0.026494177 0.03478134 0.15570548 0.14152662 0.14201622

actor.init_next_embed.2.module.weight f4 [64, 32]
00000000: f3ce b23c 9612 debd f216 0cbd 0534 383e
00000010: fe21 193e d8be a03d cba7 3abe e0b0 6bbe
00000020: c8a6 f8bd c07a a03e ea02 a83d 5a9a 10bf
00000030: 1765 c53d 972a c13e d3f9 ef3d 1c67 bcbe
00000040: a747 17be 9575 883d 1454 92bc 7c5f 81be
00000050: a0a8 823d 793e 6fbd 3a8e f3be cdb6 eebe
00000060: cb30 f8be 0abf b43e dcdf 30be 4a08 b9bd
00000070: 99c0 983d 302f 043e 8ca3 8a3e be44 cfbd
00000080: 5b44 633e abb4 76bd f53f eabd c06c 89bd
00000090: e540 bdbd c7ff 2cbe d0a9 2fbe 9cba 803a
000000a0: ade3 7a3e 35e5 313d d168 f33e c77c ad3e
000000b0: 12ee acbc a807 dbbd 0a70 55be 90f4 f4bc
000000c0: da63 3d3e 2a3d a83c 5687 93bd cf1e 053f
000000d0: 89f3 2f3e d8f0 b83c f2bb 5c3d 4a62 40be
000000e0: 733c 06be bb4f 5e3e 80f1 2fbc 089c 9ebe
000000f0: 334e dbbd 4c75 003d 26c7 83bd 695f 0cbd
00000100: 1e62 93bd 703f 023d 80cb 3f3e db41 07be
00000110: d396 8ebb fe52 463e 9154 0abf 28fc b2be
00000120: f203 e7be a1a2 0fbe f82b 073d e817 cc3e
00000130: 8770 c33d 7c99 a9be ece0 40bf 6230 003e
00000140: 706f 62be 9a15 853d 76e6 413e 6667 263e
00000150: da26 9bbd 9a28 a4bd ac21 74bd 672f df3e
00000160: 7483 d3be c799 c83d 2742 5cbe 15a8 22be
00000170: 86b3 fbbe 2c4e 2dbf e78e 95be 6818 54be
00000180: 5bbd 63be 9347 293e 9f4f ba3e c93e c2bd
00000190: bce6 9ebe 99d2 cf3c baa2 b9be bf83 013e
000001a0: 49aa d93c 43a0 713e 8230 adbe a87e 733e
000001b0: c8f4 dd3d 5dbc 2d3e c541 67be a50d 7abe
000001c0: bb17 28be 7e50 4f3e 156b fa3c 21fe 9bbe
000001d0: 5f8f 88bc 2dcd 943d f41c 283e 38a2 493f
000001e0: 2d93 a7be 61ea dcbe adfb bfbd b577 a7be
000001f0: 0938 a6be 0b98 53be 9de8 c43d 2564 67be
00000200: aa75 54be c8e9 c3be 2cc6 26bc 3022 783e
00000210: eb4a f33d e21a 29be 5ee6 1abe 6fb7 a8bd
00000220: 4750 763e 91f1 febd 4c5d 7bbe e6b8 ee3c
00000230: 3c30 17bd dcbb b53d 8e69 bc3d 2b33 c7ba
00000240: 6a9d 233e 982f 1b3e 1746 1abe f6d7 bdbe
00000250: 2a26 32be 712c c33d 0d7a 223e 7c4b 7a3d
00000260: b02a 5e3e d203 c4bd baad e53e 8564 4b3e
00000270: 9912 66be 78f0 1abe 0dd8 ccbd 1406 2e3d
00000280: c2d9 663d d9d8 0bbd d7d4 313d 54b4 dbbd
00000290: 9523 ac3e 5900 4d3e d188 38b9 7b5a 113e
000002a0: 9566 6b3d cd5d 5b3e ddff 0e3d 3cef 3d3f
000002b0: bcdf 383d 4049 9f3d d7b9 0bbe 02a7 103f
000002c0: 7653 d7bc 7597 a43e 0992 e93d d423 6b3f
000002d0: 95dc 3e3d 1322 0cbd f25c 833e 33a1 3b3e
000002e0: ddfa ec3e c74d adbd 07d8 873d 5a9e b33e
000002f0: c83c 36be 862f 8bbe a8ee 7d3e e6ed 16be
00000300: 3ed9 eb3d b6df 333e 85cf 573c 1a3b 353e
00000310: fb48 93bd 60fc f73c ab8a 58be c4b1 a6be
00000320: 7744 a53d 758c 653e 90d9 913d e21c 323e
00000330: 6bbf c73c de81 6bbc cde6 86bd d61b f2bd
00000340: 2f3f b7bc b107 2c3e ccb5 59be 4e2f 1cbd
00000350: 4f56 4f3e e8cc 8abe 4fd4 2c3e e4fc 503e
00000360: a0b7 30be b356 953d 402d 243d 5519 67be
00000370: eed8 8abd 2d9d 01bd 368a 013e 0d73 88be
00000380: e8b0 b6be c313 2d3d 6e59 93be fc0d ab3c
00000390: 347b 653e 29a6 94be db5f 44be 3352 49be
000003a0: 8ef4 873b c6e5 09bd ff14 b83e 1584 bd3e
000003b0: 9c11 c13d cde7 2a3e f286 f03e b9a8 093f
000003c0: f755 823d 2ef9 b13e 0de1 4d3e 1369 ac3e
000003d0: c5e4 abbe 6dcd 633c 0a25 27be b8f0 3e3f
000003e0: 95f3 f73e 7c2b bb3c b5cd c13d ac45 c8bd
000003f0: 7c1c 063d 4e85 9c3e 1db3 8b3d 9d88 a53e
0.021827197 -0.10843389 -0.03420157 0.17988594 0.14954373 0.078489006 -0.1822807 -0.23016691
-0.12141186 0.3134365 0.08203681 -0.5648552 0.09638422 0.37727806 0.11717572 -0.36797416
-0.14773427 0.06663052 -0.017862357 -0.2526816 0.06379819 -0.058409188 -0.47569448 -0.4662384
-0.48474726 0.35302 -0.17272896 -0.09034784 0.0745861 0.12908626 0.270779 -0.101205334
0.22194044 -0.060230892 -0.1143798 -0.067101955 -0.09240893 -0.16894446 -0.17154622 0.0009821239
0.24500914 0.04343148 0.47540906 0.3388426 -0.021109615 -0.1069482 -0.20843521 -0.029901773
0.18495122 0.020536978 -0.07203548 0.52000135 0.17182745 0.02257578 0.053890176 -0.18787494
-0.13108997 0.21710102 -0.01073873 -0.30978417 -0.10708275 0.031361863 -0.06434469 -0.034270678
-0.07196449 0.03179878 0.18729973 -0.13208716 -0.0043514757 0.19367597 -0.5403529 -0.34958005
-0.45120198 -0.14026882 0.033000916 0.3986199 0.09542947 -0.33124912 -0.75343204 0.12518457
-0.22112823 0.06498261 0.1893557 0.16250381 -0.0757577 -0.08015557 -0.059602425 0.43590853
-0.41311228 0.09794956 -0.2150961 -0.1588443 -0.49160403 -0.67697406 -0.29210588 -0.20712435
-0.22240202 0.1653121 0.3638887 -0.094846316 -0.3103541 0.025368975 -0.36256963 0.12647913
0.026570456 0.23596291 -0.3382607 0.23778784 0.10837704 0.16966386 -0.22583683 -0.24419267
-0.16415302 0.20245549 0.030568639 -0.30467322 -0.016669927 0.07265697 0.16417295 0.7876315
-0.32729474 -0.43147567 -0.09374175 -0.32708517 -0.32464626 -0.20663469 0.0961468 -0.22596796
-0.2074801 -0.38264298 -0.010179084 0.24231791 0.11879524 -0.16514161 -0.1512694 -0.08238112
0.24054061 -0.12448419 -0.24547309 0.0291409 -0.036911234 0.08873722 0.091998205 -0.0015197744
0.15978017 0.15154874 -0.150658 -0.37078828 -0.17397371 0.09529961 0.15866871 0.061107144
0.21695971 -0.09571041 0.44859105 0.19862564 -0.22468032 -0.15130794 -0.10002146 0.042486265
0.056360014 -0.03414235 0.04341587 -0.10727754 0.33620897 0.20019664 -0.00017598576 0.14194672
0.057470877 0.21422501 0.03491198 0.7419317 0.045135245 0.07777643 -0.13645111 0.56504834
-0.026284914 0.32146803 0.11404807 0.91851544 0.046597082 -0.034212183 0.2565685 0.18323211
0.46285143 -0.084621005 0.06633001 0.3508175 -0.17796624 -0.27184695 0.24798071 -0.14739189
0.11516045 0.17565808 0.013172035 0.17698327 -0.07191654 0.030271709 -0.21146648 -0.325575
0.08069699 0.22416861 0.07121575 0.1739383 0.024383267 -0.0143742245 -0.065869905 -0.118217155
-0.022368995 0.16799809 -0.21260756 -0.03813105 0.20247768 -0.27109456 0.16877864 0.2040897
-0.17257547 0.07291927 0.040082216 -0.22568257 -0.06779657 -0.031644035 0.1265038 -0.26650277
-0.35681844 0.042255174 -0.28779167 0.020880692 0.2241028 -0.2903302 -0.19177191 -0.19660263
0.0041490262 -0.033666395 0.3595352 0.37014833 0.09427187 0.16689987 0.46977955 0.53773075
0.06364053 0.34760422 0.20105381 0.33673915 -0.33572975 0.013903958 -0.16322723 0.7458606
0.48428026 0.022847883 0.09463064 -0.09778914 0.03274201 0.30570453 0.068212725 0.3233079

actor.init_next_embed.2.add_bias._bias f4 [64, 1]
00000000: 65a4 17bf bff5 c3be 7838 aebe 0eb8 aabe
00000010: c73b 27bd 2019 903f ffe0 b6be 02d6 2f3f
00000020: 025c 6c3f ac1a 2ebf 57b7 32bf e97e 9f3d
00000030: 1d54 983f dea1 91bf b376 6cbf 0074 4abf
00000040: d82e 51bf a130 503f e8ef 273f 4c4e 3dbe
00000050: d0b0 24be 68b1 84be 45fd afbf 52ff 143f
00000060: 5ec0 14c0 7399 46bf ee01 6fbe 3346 88bf
00000070: 1e49 0c3f da24 983e af3c 08bf 73c0 37bf
00000080: 6739 e7bd c9cf 4e3f 4f80 8ebe 6799 2cbe
00000090: da80 b33f a6c6 4b3f d182 b1be b270 0e3f
000000a0: 3ba0 e0bf 3c78 913f 792f c5be ac9c b5bf
000000b0: 5f99 e53e 52bd a73f 1c57 813f 629d 2b3f
000000c0: 3ee6 f0be 3e21 a13e d52f 363f 624f e93e
000000d0: 646c c03e e95c 56bd 360a a3be ef95 41bf
000000e0: 6826 15ba 0705 103f cbee 04bf d6e7 6d3e
000000f0: 6ddd 9c3e 76f0 503f cc67 f13b dbbc 443e
-0.5923522 -0.38273427 -0.34027457 -0.33343548 -0.040828492 1.1257668 -0.35718533 0.68685925
0.9232789 -0.6800945 -0.69811004 0.07787878 1.1900669 -1.1377523 -0.9236862 -0.7908325
-0.817121 0.813242 0.6560044 -0.18486899 -0.16083074 -0.259166 -1.3749167 0.5820209
-2.3242412 -0.77577895 -0.2334058 -1.0646423 0.5479907 0.29715616 -0.53217596 -0.7177803
-0.112902455 0.80785805 -0.27832267 -0.16855393 1.4023697 0.7959999 -0.34670117 0.5564071
-1.7548898 1.1364818 -0.3851278 -1.4188437 0.44843575 1.3104651 1.0104709 0.6703702
-0.4705066 0.31470674 0.71166736 0.45568377 0.37582695 -0.0523347 -0.31843728 -0.75619406
-0.0005689622 0.5625767 -0.5192687 0.2323297 0.30637684 0.81616914 0.00736711 0.19212668

actor.embedder.layers.0.0.module.W_query.weight f4 [64, 64]
00000000: 4eea 28bb 5f51 4cbd 886d 1b3e 7592 15be
00000010: b8d3 643d 036d 00be 27a9 4ebd 197b fc3c
00000020: 464a 453e 7f05 16be 3ac9 083e 6d6f 2ebc
00000030: 222e 683d d2f0 223c 14e9 003d 28f1 d7ba
00000040: bc12 b63c 1be2 673d f818 653c b57a cf3d
00000050: ad03 403d 4516 a8bd 18aa 033e 515a 513e
00000060: a93c 62be 5d96 283e d107 983d 256b ffbc
00000070: 9700 fb3c cfba 3a3e 8ef0 46bb 7154 273d
00000080: 21e9 bd3d 1ebd 693c 7ef4 4bbe 65ad 1c3e
00000090: c0e8 42bc 1d4d c73d 3054 c83d fe2f adbb
000000a0: 8795 df3d 3d7b 773d 74cf 10bd ea4d 183e
000000b0: c911 82bd f3e4 eabd 00f8 393e a78b 98bd
000000c0: 1e9c 94bd 0076 043c 77a4 3fbd efbc e5bd
000000d0: 9050 0cbe c90e 3d3d e979 823d 149f a9bd
000000e0: 2a79 e93d 3761 e9bd b8b2 ff3d f65a 7fbc
000000f0: bd9a 93bd f584 a9bd 5e38 82bd 4dca 93bc
00000100: e100 9dbe 535f 1cbe 7dba 00be 78f8 02be
00000110: 4ac7 24bd 42a7 41be 6e49 2e3e 8470 563e
00000120: 651b 7d3e 7574 bb3d 6da6 26be add8 3abd
00000130: 1898 3b3e 772d 8d3c 1836 efbb 875b 5dbc
00000140: 5127 d9bd b9ef 183e ff2e f1ba 9087 863e
00000150: 0d89 463d e696 06be 4e84 69bd 2b93 66be
00000160: f002 4abe 67f3 d9bd 630f 3a3e 56f2 223d
00000170: b0fd 013e dd06 00be 4793 153e 78a2 19bd
00000180: a149 4dbe 6bff c4bd d418 2a3d 2a18 77bd
00000190: 48c9 cfbd 9245 0dbe eabd 30be 143c e5bd
000001a0: 9ebc 32be 952e 943e 7703 44be 0505 013d
000001b0: 3f9d 443e 117b c0bd ec17 47bc a431 093e
000001c0: d0ce 543e 51c3 a3bd 2360 b6bd 1789 61be
000001d0: 164c 19be 852b 053e b94c bebc e168 48be
000001e0: c702 0dbe 47c4 ab3e 2f40 49be 664a ad3e
000001f0: 98fb c8bd a933 3e3e 5966 36be 5750 fa3d
00000200: 95fd 6ebe 6a0e 7abb 826c b23c 7229 843d
00000210: 1b8d 0a3e 2b53 52bd a87c 30bd 328a 2c3d
00000220: b9aa 92ba 07be 943d 9959 92bd d51e 4cbd
00000230: 6e72 d13d 55f5 853d b1ca 2e3d e174 133e
00000240: dc5b 923c 9891 e23d a7af e03d 62fd 5e3d
00000250: 9284 d93d 24d3 0d3d e81d e5bd bea2 e8bd
00000260: 6d84 77bd be43 89bd e5f2 4d3d 9609 73bd
00000270: 227f 133c 01d3 d3bc 206b 20bc ac3a 02bc
00000280: e791 46bd bae3 a3bd e788 bc3c aaa8 a63c
00000290: 7145 9e3d 35c7 7c3d 1280 ae3c d584 063c
000002a0: bf33 153d 89a8 9a3d 8692 a13b c4f2 c33c
000002b0: f4fd 773d d6e5 e9bd 4159 333e d7cd 303e
000002c0: 0608 1bbd e018 36bd e45a 063d 0e77 243c
000002d0: 3225 43bd 4a0f 6b3d 17f0 b33b 2b15 123d
000002e0: e279 18bd 9083 9f3d 96d1 4dbd 765e 27bd
000002f0: 492c fdbd f3ca 943c a1df b9bd 4920 8cbd
00000300: ea46 7abd 5989 843d b2a4 7ebd 9fac b53d
00000310: f1d2 ca3d 8850 2a3e 1b78 3a3d a873 bbbd
00000320: 5ca7 87bc f9c2 033d baf8 b3bd 039e 1fbd
00000330: 18aa 1fbe e959 263d bc9d 7ebb b692 173d
00000340: 935a 84bc 25c3 d83c db17 2dba 9d72 863d
00000350: f1e1 0cbe e861 6b3d 33f6 96bc d54c 01bd
00000360: 6a85 15bc b45d d13c 9579 c1bd 815b c03d
00000370: c221 b63d 27e1 75bd a86f c03d 08ff 26bd
00000380: c97d 41bd eaf7 14bd 65ea adbc f974 1e3e
00000390: 52a8 c7bc b376 993d 3c67 3a3c 34de 44bd
000003a0: 5530 2bbe 75db e43d 9dd2 143e 3009 95bd
000003b0: e58d ce3d dd8c d7bd fe1d 833c 79ff 4ebd
000003c0: a9a6 69bc 3ca2 db3c f59b 723d 4851 ed39
000003d0: 779a 503e cadf c73d b41c b43d ba67 673d
000003e0: 13e5 0d3e 49cf a2bd 84b1 8dbd 1fde 00bd
000003f0: 0d45 fabd b4fd 2ebd 0f7b 8bbc f076 a6bd
-0.0025774422 -0.04988229 0.15178502 -0.1460665 0.055865973 -0.12541585 -0.050454285 0.030820416
0.19266614 -0.14650534 0.13358012 -0.010646683 0.05668462 0.009945111 0.03147228 -0.0016475068
0.02222573 0.056612115 0.013983004 0.101308264 0.046878505 -0.082073726 0.12857854 0.20444609
-0.22093453 0.16463609 0.07423366 -0.03117902 0.03063993 0.18235324 -0.0030355784 0.040852014
0.092729814 0.01426628 -0.19917485 0.1530052 -0.011896312 0.09731505 0.097816825 -0.005285262
0.10917192 0.060420264 -0.035354093 0.14873472 -0.063510485 -0.1146945 0.1816101 -0.074485116
-0.072563395 0.008084774 -0.046787705 -0.11217677 -0.13702607 0.04615668 0.06370909 -0.08282295
0.11400063 -0.113954954 0.1248526 -0.015585652 -0.07207248 -0.08277313 -0.063584074 -0.0180408
-0.30664733 -0.15270738 -0.1257114 -0.12790096 -0.04022912 -0.1891146 0.17020199 0.20941359
0.24717481 0.09153072 -0.16274424 -0.045616794 0.18319738 0.017233593 -0.0073001496 -0.013510591
-0.10603202 0.14935197 -0.0018400847 0.262753 0.048470546 -0.131435 -0.05701094 -0.22517078
-0.19727683 -0.106421284 0.18169932 0.03978189 0.1269443 -0.12502618 0.14606963 -0.037508458
-0.20047618 -0.096190296 0.041527584 -0.06032578 -0.10145813 -0.1379607 -0.17259946 -0.111930996
-0.17454764 0.2894179 -0.19141947 0.031498928 0.1920061 -0.09398473 -0.0121516995 0.13397843
0.20782018 -0.07996238 -0.089050554 -0.22024952 -0.1497043 0.13004883 -0.023229944 -0.19571258
-0.1377059 0.33548185 -0.1965339 0.33845824 -0.09813613 0.18574394 -0.1781248 0.12222355
-0.23338921 -0.0038155564 0.021780256 0.064532176 0.1353039 -0.051348846 -0.04308763 0.04212398
-0.0011189795 0.07262807 -0.07145996 -0.04983409 0.10226904 0.06540934 0.04267377 0.14400055
0.017866068 0.11062926 0.10971003 0.054440863 0.10620989 0.034625188 -0.11187345 -0.113591656
-0.060429025 -0.06702374 0.05028047 -0.059335314 0.009002479 -0.02585745 -0.009791166 -0.007948559
-0.048478987 -0.0800242 0.023014499 0.020344097 0.07728089 0.061713416 0.021301303 0.008210381
0.036426302 0.07551677 0.004930797 0.02391947 0.060544923 -0.11420791 0.17514516 0.17266022
-0.03784945 -0.044457316 0.032801524 0.0100381505 -0.047642894 0.057387628 0.0054912674 0.03566472
-0.03722561 0.077887654 -0.050248705 -0.04086157 -0.12361962 0.01816318 -0.09075857 -0.068420954
-0.061102785 0.064715095 -0.062168784 0.088708155 0.09903515 0.16632283 0.045524698 -0.09152919
-0.016559295 0.032168362 -0.08787675 -0.03896905 -0.1559223 0.04061309 -0.0038851341 0.03700515
-0.01615647 0.02646024 -0.0006602981 0.065648295 -0.13758065 0.057466418 -0.018427944 -0.031567413
-0.009126047 0.025557376 -0.09447018 0.09392453 0.088931575 -0.060029175 0.09396297 -0.04077056
-0.0472391 -0.03636924 -0.021229932 0.15474309 -0.024372254 0.07493343 0.011377152 -0.048063472
-0.16717656 0.111746706 0.14533468 -0.07277143 0.10085658 -0.105249144 0.016005512 -0.050536606
-0.014260926 0.026810758 0.059230763 0.00045264722 0.20371424 0.09759481 0.08794537 0.056495406
0.13856916 -0.07949693 -0.06918624 -0.03146183 -0.12220202 -0.04272242 -0.017026452 -0.08128154
