logs/experiment/Discrete_A2C_1-5Box_10x10x10Bin-2022.08.09-15-00-00/PCT-Discrete_A2C_1-5Box_10x10x10Bin-2022.08.09-15-00-00_2022.08.09-16-48-13.pt (torch, 236314 bytes, 24 tensors)

actor.init_internal_node_embed.0.module.weight f4 [32, 6]
0	0xbef1588b	-0.47137865
1	0x3cb044ea	0.021517236
2	0xbf09c5eb	-0.53817624
3	0x3d392334	0.045199588
4	0xbe635423	-0.22200064
5	0xbd3f71eb	-0.0467395
6	0xbdc06745	-0.09394697
7	0x3e256330	0.16151118
8	0xbea38595	-0.31937853
9	0xbe836dff	-0.25669858
10	0xbeaaae8c	-0.33336294
11	0xbebcf964	-0.3690902
12	0xbe165d50	-0.14684033
13	0x3d61cd41	0.055127386
14	0x3e0db619	0.13838996
15	0x3e88184f	0.26581046
16	0x3dc457bb	0.09587046
17	0xbf204f37	-0.6262087
18	0x3e8be1ef	0.2732081
19	0xbe977054	-0.29577887
20	0x3ec99836	0.3937394
21	0xbf001779	-0.50035816
22	0xbcadd6a5	-0.021220515
23	0x3f03e558	0.51521826
24	0xbdbd7452	-0.09250702
25	0xbeccc5ef	-0.3999476
26	0x3e4c3592	0.1994231
27	0x3daa07f8	0.08302301
28	0x3e9728b4	0.29523242
29	0x3f4ddfe5	0.8041976
30	0x3a963d06	0.0011462278
31	0x3d0d04f9	0.03442857
32	0x3e721407	0.23640452
33	0x38494d33	4.799403e-05
34	0xbd178a20	-0.03699696
35	0xbe7a2394	-0.24427634
36	0x3f7c9943	0.9867136
37	0xbe033a63	-0.12815242
38	0xbf3a110b	-0.72682256
39	0xbf9882c3	-1.1914905
40	0x3ed79f86	0.42113894
41	0x3f269b20	0.6508045
42	0xbebad8bd	-0.36493483
43	0xbeb30e79	-0.3497198
44	0x3dd50de9	0.10403044
45	0xbe5fe20e	-0.21863577
46	0x3e93363a	0.2875231
47	0x3f185c90	0.5951624
48	0xbe2f7c8d	-0.17137356
49	0x3ed420f6	0.41431397
50	0x3f3933bd	0.7234457
51	0xbe185a90	-0.14878297
52	0xbe7be6ef	-0.24599813
53	0x3e8615f1	0.26188615
54	0x3ec3d42e	0.38247818
55	0xbd966550	-0.073435426
56	0x3f11fcb7	0.5702624
57	0xbd78cc06	-0.060741447
58	0xbd6d3150	-0.057908356
59	0xbd5b026d	-0.05346911
60	0xbee0ee9b	-0.43932042
61	0xbe8323f2	-0.25613362
62	0xbee0aa78	-0.43880057
63	0x3f022edb	0.50852746
64	0x3e573833	0.21017532
65	0xbe6d32c4	-0.23163897
66	0xbe050df0	-0.12993598
67	0x3f1e66ef	0.61875814
68	0xbebd401e	-0.3696298
69	0x3e201550	0.1563313
70	0xbf1fb5e1	-0.623869
71	0x3ed54a05	0.41658035
72	0x3ebd38f1	0.36957505
73	0xbf11ad8d	-0.5690544
74	0xbe4459b8	-0.1917485
75	0x3e4c0f6a	0.19927755
76	0xbe87925e	-0.26478857
77	0x3e1215d3	0.14266138
78	0x3df98070	0.12182701
79	0x3e35861c	0.1772694
80	0xbd8b345a	-0.06797095
81	0xbe8f1346	-0.27944392
82	0xbc9af5a2	-0.018915955
83	0xbdd83d34	-0.105585486
84	0x3e5ecf32	0.21758726
85	0x3b992587	0.004673663
86	0x3ce1b038	0.027549848
87	0xbe05ccd2	-0.13066414
88	0xbc7da5c2	-0.015481414
89	0x3ce4e0df	0.027939258
90	0x3e8c37c0	0.27386284
91	0xbda0d60b	-0.078533255
92	0x3eb9eb68	0.36312413
93	0xbe28c26f	-0.1648042
94	0xbe5e7c45	-0.21727093
95	0x3df4af88	0.119475424
96	0xbf03f07c	-0.51538825
97	0xbf10ae4f	-0.56515974
98	0xbeaf7560	-0.34269238
99	0xbecd5a2d	-0.4010786
100	0xbe1d133c	-0.15339369
101	0xbe79128c	-0.24323481
102	0xbd062052	-0.032745667
103	0x3e06352f	0.13106225
104	0x3eaca20a	0.33717376
105	0xbd84f19b	-0.06491395
106	0xbbc6d820	-0.0060682446
107	0xbc8bdfef	-0.017074553
108	0xbe32e7dc	-0.1747126
109	0xbf2ed4f6	-0.682937
110	0xbf181874	-0.5941231
111	0xbcc615de	-0.024180349
112	0xbe341fc1	-0.17590238
113	0xbe12143f	-0.14265536
114	0x3e47005a	0.19433728
115	0xbdea6525	-0.11445073
116	0xbf31788a	-0.69324553
117	0xbd209cd5	-0.039212067
118	0xbd51976a	-0.05116979
119	0x3e9ebab5	0.3100182
120	0x3d4ec308	0.050478965
121	0xbe723361	-0.23652412
122	0xbdb309ed	-0.087421276
123	0xbed69856	-0.41913098
124	0xbf257a27	-0.64639515
125	0x3c550b2e	0.013003154
126	0xbe19bee6	-0.15014228
127	0xbea0ae3e	-0.31382936
128	0xbf10a190	-0.56496525
129	0x3e05901c	0.13043255
130	0x3e6ae1bb	0.22937672
131	0x3f0cd933	0.5501892
132	0xbebabfd7	-0.36474487
133	0xbd018e76	-0.031630002
134	0xbf46c391	-0.7764216
135	0x3e9d7e97	0.30760643
136	0x3f0ce119	0.5503097
137	0x3d9a5491	0.07535661
138	0x3d74141c	0.05958949
139	0xbce198a3	-0.027538603
140	0xbee8020c	-0.45314062
141	0xbe06a7c8	-0.13149941
142	0xbee63611	-0.44963124
143	0xbf0bd464	-0.5462096
144	0x3e138d99	0.14409484
145	0xbe14a246	-0.14515027
146	0x3f41f357	0.7576193
147	0x3912ba35	0.00013993013
148	0x3df4993a	0.11943288
149	0xbddb8029	-0.10717804
150	0x3c866e44	0.01641
151	0xbe242a7d	-0.16031833
152	0xbef1ef97	-0.47253105
153	0x3e89cf48	0.26915956
154	0x3e9d3465	0.30704036
155	0xbe3f24f3	-0.18666439
156	0x3efc229b	0.49245152
157	0x3df69c57	0.12041538
158	0x3e345be2	0.17613176
159	0x3e97d2bc	0.29652965
160	0xbe8659a6	-0.2624027
161	0xbe820521	-0.25394538
162	0x3ea88cd6	0.3291995
163	0x3d95265c	0.07282707
164	0xbe87c5ed	-0.26518193
165	0x3efc5cfd	0.49289694
166	0x3d0a2281	0.03372431
167	0xbd93fa06	-0.072254226
168	0xbdd76ab9	-0.105184026
169	0xbe5566ea	-0.2084004
170	0x3d7ae962	0.061257727
171	0x3f10be0e	0.5654
172	0x3ef19599	0.47184446
173	0xbf43e335	-0.76518565
174	0x3e895f21	0.2683039
175	0xbe29af6a	-0.16570821
176	0xbed648cd	-0.41852418
177	0xbd8972de	-0.06711362
178	0x3bf2bf5d	0.007408066
179	0x3cb6c1b1	0.022309156
180	0xbe5896eb	-0.2115132
181	0xbecf1d29	-0.40451935
182	0x3f9965e9	1.1984226
183	0xbe1922f5	-0.14954741
184	0xbe3b803c	-0.18310636
185	0x3d162fa4	0.036666527
186	0x3e750973	0.23929386
187	0x3e1792d1	0.148021
188	0xbd18e14d	-0.03732424
189	0x3d84a6e0	0.064771414
190	0xbe52ccac	-0.20585889
191	0xbe18458c	-0.1487028

actor.init_internal_node_embed.0.add_bias._bias f4 [32, 1]
0	0x3cbafcaa	0.022825558
1	0xbe448538	-0.19191444
2	0xbbf05777	-0.0073346454
3	0xbcb550cd	-0.022133255
4	0x3e14fd5f	0.14549778
5	0x3cfcc8eb	0.030857524
6	0x3b9abc62	0.004722164
7	0xbbccb6c8	-0.006247375
8	0x3d3873d3	0.045032334
9	0x3dd7e308	0.1054135
10	0x3b6fe2c2	0.0036603664
11	0x3c936378	0.017991766
12	0xbb7201b4	-0.0036927285
13	0xba1b1016	-0.0005915178
14	0xbc58fc86	-0.0132438
15	0x3ce7c684	0.028292902
16	0xbe9daafd	-0.30794516
17	0xbd797114	-0.060898855
18	0x3d2ab3ad	0.04167526
19	0x3a198fd3	0.00058579183
20	0xbe92a727	-0.28643152
21	0x3d66662f	0.056249794
22	0x3d5f2749	0.054480825
23	0x3dfae74a	0.12251146
24	0x3d0778ee	0.033074312
25	0x3ac105d0	0.0014726464
26	0x3bc5b3ea	0.0060334103
27	0x3d9a3818	0.0753023
28	0x3ceb141c	0.028696112
29	0xbd44e6f1	-0.048071805
30	0x3d827cd4	0.06371465
31	0xbd9116ee	-0.070844516

actor.init_internal_node_embed.2.module.weight f4 [64, 32]
0	0x3de5de89	0.11224086
1	0x3e333cfe	0.17503735
2	0x3dd0fc8d	0.1020442
3	0x3df62066	0.12017898
4	0xbe116d98	-0.14201963
5	0x3de734fc	0.11289403
6	0x3dd78be5	0.1052473
7	0x3f00977a	0.50231135
8	0x3e8535f5	0.26017728
9	0xbd9f1f12	-0.07769598
10	0x3f459ec9	0.7719541
11	0x3dd3f7b6	0.103499815
12	0x3dd638c8	0.10460049
13	0xbe5a18b2	-0.21298483
14	0xbf23f4ac	-0.64045215
15	0x3e9067be	0.2820415
16	0xbca5f048	-0.020256177
17	0x3e019ed7	0.12658249
18	0x3cf73198	0.030175015
19	0x3e8ad6f8	0.27117133
20	0xbe644fe4	-0.22296101
21	0x3e1a8f7d	0.15093799
22	0x3f8f2a38	1.1184759
23	0xbd84b3be	-0.064795956
24	0x3efb47c8	0.49078202
25	0x3e930249	0.2871268
26	0x3e080c7d	0.13286014
27	0x3e7d1b7c	0.24717516
28	0x3ebe096f	0.37116572
29	0xbdc30fea	-0.0952452
30	0xbd36ddb6	-0.044645034
31	0x3c579adc	0.01315948
32	0x3eb3e075	0.35132185
33	0x3d988891	0.07447923
34	0xbeea18f6	-0.4572217
35	0xbefbf4cf	-0.49210212
36	0x3d89d3bc	0.06729838
37	0x3e9311a7	0.28724405
38	0x3dfa1e21	0.12212778
39	0xbec81193	-0.39075908
40	0xbe94a779	-0.29034021
41	0x3da84dcb	0.08217963
42	0x3f0aeb83	0.5426561
43	0x3e8fb351	0.28066495
44	0x3ea083c4	0.3135053
45	0x3ddeeaf9	0.10884661
46	0x3c9acdf5	0.018897036
47	0x3e99bdc9	0.30027607
48	0xbd80783e	-0.062729344
49	0x3c21235d	0.009835091
50	0xbe026ead	-0.12737532
51	0xbe0db5e5	-0.13838919
52	0x3d17209f	0.036896344
53	0x3ecfa4e0	0.40555477
54	0x3f56c79b	0.83898324
55	0x3eb5236b	0.35378584
56	0xbd683f30	-0.056700885
57	0xbc674560	-0.014115661
58	0x3d9b68df	0.07588362
59	0x3dec3716	0.11533944
60	0x3f0a94bd	0.54133207
61	0x3e6ef0d4	0.23334056
62	0xbd8e45dc	-0.06946918
63	0xbd93a677	-0.07209485
64	0xbe85089c	-0.2598313
65	0xbd010b79	-0.03150508
66	0x3eff8c8f	0.49911925
67	0x3ef0fafb	0.47066483
68	0x3ec9360b	0.39299044
69	0xbc92bf5e	-0.017913517
70	0xbe1ebe0c	-0.15502185
71	0x3f54ef49	0.8317762
72	0xbd99ae63	-0.07503965
73	0xbd97f3c4	-0.074195415
74	0xbef5ee0f	-0.48033187
75	0xbefb0a4a	-0.49031287
76	0xbd996faa	-0.07492001
77	0x3e27577a	0.16341963
78	0x3e7412dd	0.23835321
79	0xbea5c27f	-0.3237495
80	0xbe0970e3	-0.13421969
81	0x3e55f5b2	0.20894507
82	0x3d118c37	0.03553411
83	0xbed77e86	-0.42088717
84	0xbd11abeb	-0.035564344
85	0x3e93b5e6	0.28849715
86	0xbe7c61d7	-0.24646698
87	0xbe5dc747	-0.2165805
88	0xbbf142fc	-0.0073627215
89	0xbda4b3a5	-0.08042077
90	0x3e4f3c99	0.2023796
91	0x3e19ab80	0.15006828
92	0x3e255700	0.16146469
93	0xbe0ece8f	-0.13945983
94	0x3e3e2a97	0.18570934
95	0x3d661ee0	0.05618179
96	0xbd718cf5	-0.058972318
97	0xbe51caed	-0.20487566
98	0x3d9e926c	0.077427715
99	0x3ee15ed7	0.4401767
100	0x3e64ec5c	0.22355789
101	0xbd09db1c	-0.033656225
102	0x3cf0966c	0.029368602
103	0x3c91f283	0.017815834
104	0x3e8aa0fc	0.27075946
105	0x3e011475	0.1260546
106	0x3d11a96a	0.035561956
107	0x39d66c98	0.0004089817
108	0xbe90d174	-0.282848
109	0x3d4e691d	0.050393213
110	0xbea280fb	-0.3173903
111	0x3e1c34ef	0.15254568
112	0x3de9fcaf	0.11425149
113	0xbe846611	-0.2585912
114	0x3d9b161c	0.075725764
115	0x3e28bef9	0.164791
116	0xbe81f6cf	-0.25383613
117	0x3edce476	0.43143052
118	0xbeaa2f19	-0.33239058
119	0x3de16edc	0.11007473
120	0x3ec3f96b	0.38276228
121	0xbdbc4a8b	-0.091939054
122	0x3e268971	0.16263367
123	0x3ea1fd57	0.31638595
124	0x3de2feee	0.1108378
125	0xbd8f8ccd	-0.070092775
126	0xbe1153b8	-0.14192092
127	0x3e45d675	0.1932009
128	0x3ea8d588	0.3297541
129	0xbdcea4da	-0.10090037
130	0xbe362659	-0.17788066
131	0xbc00e877	-0.007867924
132	0xbf2b8389	-0.6699758
133	0xbd6ace18	-0.057325453
134	0x3e8e1292	0.27748543
135	0xbf3dbfca	-0.7412077
136	0xbf14563a	-0.5794407
137	0x3ebe1f71	0.37133363
138	0x3e9cbe12	0.30613762
139	0x3ec26c07	0.37973043
140	0xbe07cb77	-0.1326121
141	0xbe45dc0b	-0.19322221
142	0x3e4f8c47	0.20268355
143	0xbd83f6d4	-0.06443563
144	0x3ca29aa4	0.019849129
145	0xbd8c923d	-0.0686383
146	0x3ce3ef81	0.027824165
147	0xb94f19df	-0.00019750696
148	0xbe0ec505	-0.13942344
149	0x3ecf5583	0.40494928
150	0x3e1389e9	0.14408077
151	0x3d91f23e	0.07126282
152	0xbe87a753	-0.26494846
153	0x3ea95042	0.33069044
154	0x3eb8b9a4	0.36079133
155	0x3e2a5e9b	0.16637652
156	0x3ef64a35	0.4810349
157	0x3d495d68	0.049161345
158	0x3d45725b	0.04820476
159	0xbde03d20	-0.10949159
160	0xbe90c545	-0.28275505
161	0xbdd99490	-0.10624039
162	0x3bb3e0c8	0.0054894425
163	0xbb790459	-0.0037996976
164	0x3f4c7129	0.7986017
165	0xbe648cd8	-0.22319353
166	0xbe2b9d03	-0.16759114
167	0x3eb62c14	0.35580504
168	0x3d2ffb53	0.04296429
169	0xbea05fbb	-0.31323037
170	0x3f540588	0.8282094
171	0xbeb91358	-0.3614757
172	0x3dc5c1ee	0.0965613
173	0xbdc4eb51	-0.096151955
174	0x3e1691b2	0.14704016
175	0x3e6c3d69	0.23070301
176	0x3e58308e	0.21112272
177	0x3e0e1361	0.1387458
178	0xbd5c2168	-0.053742796
179	0xbd9e64a0	-0.077340364
180	0xbcedd910	-0.029034168
181	0x3dd43bd0	0.10362971
182	0x3edf834e	0.43654865
183	0xbeef388f	-0.46722838
184	0x3e5536e7	0.20821725
185	0x3e9af15a	0.30262262
186	0x3e42bbd1	0.19016959
187	0x3ef6ab32	0.48177487
188	0x3d4a39a9	0.049371395
189	0xbd61e46b	-0.055149477
190	0x3ddae77e	0.10688685
191	0x3e956c52	0.29184204
192	0x3e9c3590	0.30509615
193	0x3b959472	0.004564815
194	0x3d6e6831	0.058204833
195	0x3d62e0c9	0.055390153
196	0x3f066a3d	0.52505857
197	0xbc415435	-0.011799862
198	0xbe5f34d7	-0.217975
199	0x3ea5dca3	0.32394895
200	0x3da3ef8f	0.080046766
201	0xbd1f2b2f	-0.038859542
202	0x3e39e651	0.18154265
203	0xbe1e41c2	-0.15454772
204	0xbe914d4a	-0.2837928
205	0xbd9f9e92	-0.07793917
206	0x3dd59f53	0.10430779
207	0xbefcff2c	-0.4941343
208	0x3c2ff765	0.010740136
209	0xbec1c74b	-0.3784736
210	0x3c72c93e	0.014818488
211	0xbcc7c69c	-0.024386697
212	0xbba16f43	-0.0049265935
213	0x3db56b4d	0.088583566
214	0xbd18039b	-0.037112813
215	0x3d36e7bb	0.04465459
216	0xbe869d10	-0.26291704
217	0xbd135c2c	-0.035976574
218	0xbe5dfb06	-0.21677789
219	0x3e9ac58b	0.30228838
220	0xbebeda54	-0.37275946
221	0x3d364002	0.044494636
222	0xbe59efa6	-0.21282825
223	0xbda6f02b	-0.08151277
224	0xbdeaec31	-0.11470831
225	0xbde3c39d	-0.11121295
226	0xbedc3952	-0.43012482
227	0xbeaee890	-0.34161806
228	0xbe3223b4	-0.17396432
229	0xbcdec9be	-0.027195808
230	0x3e2bec88	0.16789448
231	0x3b7ccf48	0.0038575698
232	0xbb4536e0	-0.0030092523
233	0x3dd8ad63	0.10579946
234	0x3f0ab9dd	0.54189855
235	0x3eb93ef6	0.36180848
236	0xbe38047a	-0.17970458
237	0x3e1762a5	0.14783724
238	0xbda78656	-0.081799194
239	0xbe064797	-0.13113247
240	0xbd1af161	-0.037827853
241	0xbea59da9	-0.32346848
242	0x3e45d1a3	0.19318251
243	0x3e191c02	0.1495209
244	0x3c9e7a3f	0.0193454
245	0xbe0b592f	-0.1360824
246	0x3f4c072e	0.79698455
247	0xbd07cc41	-0.033153776
248	0xbe9508d8	-0.2910831
249	0x3e2cee66	0.16887817
250	0xbe7a443b	-0.2444009
251	0xbe3832c7	-0.1798812
252	0x3f3212f5	0.69560176
253	0x3e5b6e10	0.21428704
254	0x3e9cf7d6	0.30657834
255	0xbdf8aeb4	-0.12142697

actor.init_internal_node_embed.2.add_bias._bias f4 [64, 1]
0	0x3e250ef2	0.16118982
1	0x3e917ea6	0.28416938
2	0xbd80fbb4	-0.062980086
3	0x3db45b2e	0.08806454
4	0x3dd88987	0.10573106
5	0x3e9930d5	0.29920068
6	0x3ce21359	0.027597116
7	0x3e4955a4	0.19661576
8	0xbd9705f6	-0.07374184
9	0xbd91587d	-0.07096956
10	0x3c54fd30	0.012999818
11	0x3d2a610d	0.04159646
12	0xbd8316e1	-0.06400848
13	0x3e1a61fb	0.15076439
14	0x3e282e6a	0.16423956
15	0x3dfea4b3	0.12433758
16	0xbca75a6c	-0.020428859
17	0xbe3b66a4	-0.18300873
18	0xbbeeac18	-0.007283699
19	0x3db95c65	0.09050826
20	0xbd2c5200	-0.04207039
21	0x3d8a4c3d	0.067528225
22	0xbd8a0cbd	-0.06740711
23	0xbdfcce7d	-0.12344072
24	0x3e208688	0.1567632
25	0x3cb5bac0	0.022183776
26	0x3d141d69	0.03616086
27	0x3d870982	0.0659361
28	0xbe080142	-0.1328173
29	0xbd51627d	-0.051119316
30	0xbb107bb8	-0.0022046398
31	0xbd166954	-0.036721542
32	0x3c6a6bc7	0.014307923
33	0x3d50d9be	0.050988905
34	0x3e920ef4	0.28527033
35	0xbdd2b7b0	-0.10288942
36	0x3d341dfd	0.04397391
37	0xbe3ae0bf	-0.18249796
38	0xbd1e0ca9	-0.038586292
39	0x3e25e0e5	0.16199072
40	0xbd184aca	-0.0371807
41	0xbe641542	-0.22273734
42	0x3e2637b3	0.16232185
43	0x3c4e6833	0.012598085
44	0xbe25db47	-0.16196929
45	0xbcc64c62	-0.024206344
46	0xbea18c44	-0.31552327
47	0xbe8498a6	-0.25897712
48	0x3e5eb2d6	0.21747908
49	0x3cbce28c	0.023057245
50	0x3d9577f8	0.07298273
51	0x3d81da7d	0.063405015
52	0x3d31396b	0.04326765
53	0x3be9cbb2	0.007134878
54	0xbc6cd0d1	-0.014454083
55	0x3e8ace57	0.2711055
56	0x3e638f4b	0.2222263
57	0xbd8e3ae7	-0.069448285
58	0xbd1135a7	-0.035451557
59	0x3ddf82e9	0.10913641
60	0x3dae278c	0.08503637
61	0x3d8e3a0b	0.069446646
62	0xbd07e92f	-0.033181366
63	0x3d0f61af	0.035005268

actor.init_leaf_node_embed.0.module.weight f4 [32, 8]
0	0xbda7631c	-0.081732005
1	0xbeb12759	-0.34600332
2	0xbec7c9a4	-0.39021027
3	0xbd86c187	-0.06579881
4	0x3e2ce648	0.1688472
5	0x3ebc9f4e	0.3684029
6	0x3efdbaae	0.49556488
7	0x3e8a0761	0.26958755
8	0xbeb6581f	-0.35614106
9	0xbf26ddf5	-0.6518243
10	0xbdae996a	-0.08525355
11	0xbeb4b9fc	-0.35298145
12	0xbe842535	-0.25809637
13	0x3eb02f59	0.34411123
14	0xbcb4d3e4	-0.022073694
15	0x3ebabde5	0.36473003
16	0x3e43e2ad	0.19129439
17	0xbeb9a651	-0.36259702
18	0xbe14cb57	-0.14530693
19	0x3ed87c7f	0.42282483
20	0xbc29e50d	-0.010369551
21	0xbe9e4d2e	-0.30918258
22	0xbd682d08	-0.05668357
23	0xbd8a1e79	-0.067440934
24	0xbecfd39a	-0.40591127
25	0xbe528b21	-0.20560886
26	0xbe7b6cf0	-0.24553275
27	0xbe8006f6	-0.2500531
28	0x3eaf0492	0.34183174
29	0x3d325a76	0.0435433
30	0x3ee70d99	0.45127562
31	0x3de9e4b1	0.114205725
32	0xbd6bc6d7	-0.057562675
33	0xbe40171d	-0.18758817
34	0x3d8ee228	0.0697673
35	0x3e0cc1f5	0.13745864
36	0x3ec05111	0.3756185
37	0x3e02a273	0.12757282
38	0xbeff5005	-0.49865738
39	0x3ec852a0	0.39125538
40	0x3db768c3	0.089555286
41	0x3e191e65	0.14953001
42	0xbf0758e9	-0.5287004
43	0x3e2504e9	0.16115154
44	0xbef0d3ee	-0.4703669
45	0x3f061e15	0.5238965
46	0xbdfaade4	-0.12240198
47	0xbe838a89	-0.2569163
48	0xbeb654ec	-0.35611665
49	0xbe27df63	-0.16393809
50	0xbd841863	-0.06449964
51	0x3ceee77f	0.02916312
52	0x3e01a952	0.12662247
53	0xbe5b45bb	-0.21413319
54	0xbdcc6865	-0.09980849
55	0xbde01580	-0.10941601
56	0x3ebd0d71	0.36924317
57	0xbedc430f	-0.43019912
58	0x3e75a2bc	0.2398786
59	0x3ee9ff1f	0.45702454
60	0xbd39abe7	-0.045329954
61	0x3eccd5c7	0.4000685
62	0x3d381e3e	0.044950716
63	0x3e66c219	0.2253498
64	0x3dce20e7	0.100648694
65	0x3e0e5f4b	0.13903539
66	0xbe280bb7	-0.16410719
67	0x3eab18e2	0.33417422
68	0x3dacfeaa	0.08447011
69	0x3dbdd350	0.0926882
70	0x3efb1266	0.49037474
71	0x3eb22f08	0.34801507
72	0xbdb14ba0	-0.086570024
73	0x3eabed99	0.3357971
74	0xbe3753b0	-0.17903018
75	0x3e9a534f	0.30141684
76	0x3cfd60ed	0.030930007
77	0xbdf924b5	-0.121652044
78	0x3ee7a1b2	0.4524055
79	0xbe9905c9	-0.29887226
80	0x3d925636	0.0714535
81	0x3dea6099	0.11444206
82	0x3e931bd3	0.28732166
83	0xbdc658c2	-0.09684898
84	0x3eab661a	0.33476335
85	0xbcc1daa5	-0.023663828
86	0xbe45b2c8	-0.19306481
87	0x3cad61e2	0.021164838
88	0xbe80c8c5	-0.25153175
89	0x3d58e44a	0.05295209
90	0x3e3aef21	0.18255283
91	0x3d75312d	0.05986135
92	0x3ee472ad	0.4461874
93	0x3de6c7a2	0.11268546
94	0xbc888392	-0.0166643
95	0xbeb7411b	-0.3579186
96	0x3ec8c1a8	0.39210248
97	0x3d75764e	0.059927277
98	0x3f117ed9	0.5683418
99	0xbeaf6fd7	-0.34265015
100	0xbd91f788	-0.07127291
101	0xbd8f4626	-0.06995802
102	0x3ebbf32c	0.36708963
103	0xbdeec120	-0.116579294
104	0xbe90cb16	-0.28279942
105	0x3d10aa7a	0.03531883
106	0x3e931ee4	0.28734505
107	0xbe415b7c	-0.18882555
108	0xbe4f8cd6	-0.20268568
109	0xbe6f6707	-0.23379146
110	0x3eb62cc3	0.35581025
111	0x3d9c2aa3	0.0762532
112	0x3e3216ec	0.17391557
113	0xbd1ed56b	-0.03877775
114	0x3e259b4a	0.1617252
115	0x3ee9cd22	0.45664316
116	0x3e037a76	0.12839684
117	0x3ed2113f	0.41028783
118	0x3de94312	0.11389746
119	0xbd94f0af	-0.07272469
120	0x3efb01f4	0.49024928
121	0x3ddb4be1	0.10707832
122	0xbdf51991	-0.11967767
123	0xbeff6c24	-0.49887192
124	0x3e5e63c0	0.21717739
125	0x3eeb57ff	0.45965573
126	0x3d124a72	0.035715528
127	0xbe9c02cf	-0.30470893
128	0xbd760ad9	-0.06006894
129	0x3dca6d49	0.09884126
130	0xbe97af6d	-0.29626027
131	0x3eba2d02	0.36362463
132	0x3e335488	0.17512715
133	0x3cbe61fa	0.023240078
134	0xbe77f7e4	-0.24215657
135	0x3da090b2	0.078400984
136	0xbdcfd165	-0.10147361
137	0x3ebbded1	0.36693433
138	0x3dc9fe55	0.09862963
139	0x3dc7684d	0.09736691
140	0xbe8a1f69	-0.2697709
141	0x3db4d237	0.08829158
142	0x3e3de466	0.18544158
143	0x3e936ec6	0.2879545
144	0xbe423687	-0.18966113
145	0x3d855102	0.06509592
146	0x3d84ff33	0.06493988
147	0xbebad02a	-0.36486942
148	0xbe82d272	-0.25551182
149	0x3ebb7130	0.36609793
150	0x3d48bb5c	0.049006805
151	0x3df4d329	0.11954338
152	0xbebf6dc3	-0.3738843
153	0x3dc2f321	0.095190294
154	0xbdd8ae2c	-0.10580096
155	0x3e872013	0.26391658
156	0x3db7643d	0.08954666
157	0x3f047b85	0.51750976
158	0xbdb772ae	-0.0895742
159	0x3dd91ab7	0.106007986
160	0xbe7abe98	-0.24486768
161	0xbe8c3a51	-0.27388242
162	0xbe9b8a9f	-0.30379197
163	0xbd331699	-0.043722723
164	0x3cd211e8	0.025643304
165	0x3ed49633	0.41520843
166	0xbe10a5a2	-0.14125684
167	0xbe862f68	-0.26208043
168	0x3e150c29	0.1455542
169	0xbe13109d	-0.14361806
170	0x3ef46514	0.47733366
171	0xbdf6155e	-0.12015794
172	0x3c9adac5	0.018903146
173	0xbddac328	-0.10681754
174	0xbe47a64e	-0.19497034
175	0x3d6d99a4	0.05800785
176	0xbea3b7af	-0.31976077
177	0x3eba5896	0.3639571
178	0x3bf0e294	0.007351229
179	0x3ea2bb6d	0.3178362
180	0x3e75bf22	0.23998693
181	0x3e3b6ac7	0.18302451
182	0x3df1c9c3	0.11806061
183	0x3e076341	0.13221456
184	0xbe937910	-0.288033
185	0xbe15643f	-0.14589022
186	0x3d9dbd61	0.07702137
187	0xbd94a012	-0.072570935
188	0x3ee9b8c8	0.4564879
189	0xbd4d22f9	-0.05008218
190	0xbd17a27f	-0.037020203
191	0xbd7e7b2a	-0.062129177
192	0x3d86815e	0.065676436
193	0x3da7816d	0.08178983
194	0x3e86d186	0.2633173
195	0xbcb4b805	-0.022060404
196	0x3e657429	0.22407593
197	0x3d6f91a1	0.058488492
198	0xbc8cbb4c	-0.017179154
199	0x3efce8d4	0.49396384
200	0x3e991657	0.29899856
201	0x3e59c3c3	0.21266083
202	0xbef8e34b	-0.4861091
203	0xbea435ab	-0.32072195
204	0x3d219b34	0.039454654
205	0xbcb9b8c1	-0.022671105
206	0x3d3fcb40	0.046824694
207	0xbe99970f	-0.2999806
208	0x3e7933f2	0.24336222
209	0xbe386f7e	-0.18011281
210	0x3e0e2157	0.13879906
211	0x3ed3552c	0.41275918
212	0x3e2bb8be	0.16769692
213	0x3dddee82	0.108365074
214	0x3ee3f336	0.44521493
215	0xbe8e7b1c	-0.278283
216	0x3d4256fc	0.047446236
217	0xbe33db92	-0.17564228
218	0xbec20a20	-0.3789835
219	0x3e09182f	0.13388132
220	0x3f1a87b7	0.60363334
221	0xbd840d94	-0.06447902
222	0x3e5e31ba	0.21698657
223	0x3eba74ee	0.36417335
224	0x3e998ead	0.29991665
225	0xbe0de48c	-0.13856715
226	0xbe35cb4c	-0.17753333
227	0xbe12b3ff	-0.14326476
228	0x3a8c0e17	0.0010685351
229	0xbed121e1	-0.4084616
230	0x3dd158bd	0.102220036
231	0x3e500625	0.20314844
232	0x3dde5d8c	0.108576864
233	0x3e767069	0.24066319
234	0xbe40e4a8	-0.18837225
235	0xbe55ec8b	-0.20891015
236	0x3e970017	0.29492256
237	0x3c1e304b	0.009655069
238	0xbe5e4b3e	-0.2170839
239	0x3e28dc8f	0.16490386
240	0x3e87b67d	0.26506415
241	0x3ed58080	0.416996
242	0xbedc7ed6	-0.43065518
243	0xbe40dba1	-0.18833782
244	0xbe70f45d	-0.23530717
245	0xbe191cbb	-0.14952366
246	0xbd100d71	-0.03516907
247	0x3ee99f59	0.45629385
248	0x3deb6a2a	0.114948586
249	0x3ed339f4	0.41255152
250	0xbd8c5dd9	-0.068538375
251	0xbe612e36	-0.21990284
252	0x3df3b693	0.11900058
253	0x3ec93984	0.39301693
254	0x3e303c45	0.17210491
255	0xbdc6d1b5	-0.09707967

actor.init_leaf_node_embed.0.add_bias._bias f4 [32, 1]
0	0x3c4632ee	0.0120971035
1	0x3ccb41d0	0.024811655
2	0x3c0186a1	0.007905633
3	0x3c08930c	0.00833584
4	0xbdebe005	-0.11517338
5	0x3c78bbd5	0.015181501
6	0xbd29fd2a	-0.0415012
7	0xbcd25b09	-0.025678175
8	0x3da2ce34	0.079494864
9	0x3d0cbe3a	0.0343611
10	0x3d173161	0.036912326
11	0xbcf52f7d	-0.02992987
12	0x3ab2cf58	0.0013642116
13	0xbd80c7df	-0.062881224
14	0x3e0597e5	0.13046224
15	0x3b4911ab	0.0030680697
16	0xbd21d874	-0.039513066
17	0xbd46dafe	-0.04854869
18	0x3c299e6c	0.010352712
19	0xbb890ff7	-0.0041828114
20	0x3d1106ee	0.035407
21	0x3d1f69e7	0.038919356
22	0x3df61ff5	0.12017814
23	0xbcabd969	-0.020977693
24	0x3c3ef604	0.011655334
25	0x3c3be3ae	0.011467857
26	0x3dbbbbac	0.09166655
27	0xbcb246e2	-0.021762315
28	0xbdd92f11	-0.1060468
29	0x3b43ddee	0.002988692
30	0xbb474ab6	-0.0030409521
31	0xbe1b60b1	-0.15173604

actor.init_leaf_node_embed.2.module.weight f4 [64, 32]
0	0x3e5f4b5b	0.2180609
1	0x3ec6a286	0.3879587
2	0x3dd910b8	0.10598892
3	0x3e0284a0	0.12745905
4	0xbe7cef21	-0.24700595
5	0x3e9f913c	0.31165493
6	0x3e9a92fa	0.3019026
7	0xbe81674d	-0.25274125
8	0x3d705210	0.05867201
9	0x3e06507b	0.13116638
10	0xbcabbf72	-0.020965312
11	0xbd8d4dc5	-0.06899599
12	0xbea8760f	-0.32902572
13	0xbe15701e	-0.1459355
14	0x3e1dd282	0.15412334
15	0x3dbd37d0	0.09239161
16	0x3e8c3d28	0.2739041
17	0xbe124d58	-0.14287317
18	0x3e8a7418	0.27041698
19	0x3e9257c6	0.2858259
20	0x3f277e69	0.6542726
21	0xbf02ba47	-0.51065487
22	0x3f199f82	0.60009015
23	0x3ec6e406	0.38845843
24	0x3b270feb	0.0025491666
25	0x3d0d163a	0.034445025
26	0xba6b97c9	-0.00089871563
27	0x3ef6a2cb	0.48171076
28	0xbdfec829	-0.12440521
29	0x3e036e5c	0.12835068
30	0x3e69c017	0.22827183
31	0xbea360bf	-0.3190975
32	0xbe6f4db5	-0.23369487
33	0xbe1d55ca	-0.15364757
34	0xbd099930	-0.033593357
35	0xbe2ebf5f	-0.1706519
36	0xbe96136c	-0.29311693
37	0x3e8aeb7b	0.27132782
38	0xbe74f5d0	-0.23921895
39	0x3e7b9012	0.24566677
40	0x3e8a4e12	0.27012688
41	0xbea1e5f2	-0.31620747
42	0x3dd49669	0.10380251
43	0xbe1738c4	-0.14767748
44	0x3e2e059e	0.1699433
45	0x3d266023	0.040619027
46	0x3d5e37c3	0.054252397
47	0x3dbf866f	0.09351813
48	0x3e44d596	0.19222102
49	0x3e015377	0.12629496
50	0x3d81df4a	0.06341417
51	0xbefef8b7	-0.4979913
52	0xbea01987	-0.31269476
53	0x3f068646	0.52548635
54	0x3e2bf705	0.16793449
55	0x3e7a50d8	0.24444902
56	0x3e08dd5a	0.13365689
57	0x3e265fa4	0.16247422
58	0x3dfb7849	0.12278802
59	0xbcc12a50	-0.023579746
60	0x3da84b4a	0.08217485
61	0x3bab9b86	0.0052370457
62	0x3e8002fb	0.25002274
63	0xbe3924bd	-0.18080421
64	0xbd9fef5b	-0.07809325
65	0x3c003737	0.007825664
66	0x3d87d7b8	0.06632942
67	0xbead714a	-0.33875495
68	0x3d8f76f8	0.07005113
69	0xbdf974d3	-0.121804856
70	0xbdf731ad	-0.12070022
71	0xbcca6782	-0.02470756
72	0xbe9e4360	-0.30910778
73	0x3ee172a7	0.44032785
74	0x3d899625	0.06718091
75	0x3d7befda	0.061508037
76	0xbe88bac0	-0.2670498
77	0x3d38fda8	0.04516378
78	0x3e1d09c1	0.15335752
79	0x3e062249	0.13099016
80	0xbeb9cf22	-0.36290842
81	0xbe513b1b	-0.20432703
82	0x3e04077f	0.12893485
83	0x3d085f13	0.033293795
84	0xbc80da5d	-0.015729124
85	0x3da791bc	0.081820935
86	0x3dfba2e4	0.12286928
87	0x3e1c0092	0.15234593
88	0x3eb5ea74	0.35530436
89	0x3ca60ee4	0.020270772
90	0x3e40f38d	0.18842907
91	0x3ac4f5f7	0.0015026917
92	0xbe209b13	-0.15684156
93	0x3d2d118a	0.042253055
94	0xbf0515f4	-0.5198662
95	0xbe0a4b7d	-0.13505359
96	0xbe5001a8	-0.20313132
97	0x3d8b7197	0.06808775
98	0xbebf035b	-0.37307248
99	0x3ef43dde	0.4770345
100	0xbeaade0c	-0.33372533
101	0x3e87fd42	0.26560408
102	0xbe1f5508	-0.1555978
103	0x3dfd99e1	0.12382866
104	0x3cb22276	0.021744948
105	0x3e13a819	0.14419593
106	0x3e204a8c	0.15653437
107	0x3d91b974	0.071154505
108	0x3f1f06c6	0.6211971
109	0xbe843b3e	-0.25826448
110	0xbda8e03a	-0.08245893
111	0xbc8592f3	-0.016305422
112	0xbe2d9ed4	-0.1695512
113	0x3ead9319	0.3390129
114	0x3cf23b0d	0.029569173
115	0x3d72c2b8	0.05926773
116	0xbee0da47	-0.43916532
117	0x3cc667bb	0.024219384
118	0xbdf32784	-0.118727714
119	0xbdb3fb8a	-0.08788212
120	0x3cb59424	0.022165366
121	0xbb3446f4	-0.0027508112
122	0x3e7db580	0.24776268
123	0x3e3241e8	0.17407954
124	0x3e4b2e0f	0.19841789
125	0xbdd085bc	-0.10181758
126	0xbd88417a	-0.06653114
127	0x3e387a4b	0.18015401
128	0xbe81aab5	-0.25325552
129	0xbeb778f0	-0.35834455
130	0xbe9d8b9b	-0.30770573
131	0xbe129513	-0.1431468
132	0x3bfc6b81	0.007703245
133	0xbe8afd36	-0.2714631
134	0xbe6118c8	-0.2198211
135	0xbe50b808	-0.20382702
136	0xbf1d8dbf	-0.6154441
137	0x3e95ecbb	0.29282174
138	0x3d72269b	0.05911885
139	0xbbb2e41f	-0.005459323
140	0x3ed3e5e8	0.41386342
141	0xbc7b8a54	-0.015352804
142	0xbe761a34	-0.24033433
143	0x3e368e27	0.17827664
144	0x3d37a28e	0.04483276
145	0xbdb87d1a	-0.09008236
146	0xbe9f20d3	-0.3107973
147	0xbe496051	-0.19665648
148	0x3d840f24	0.064482
149	0x3e51d123	0.20489936
150	0x3e008e87	0.1255437
151	0xbd0b12f8	-0.033953637
152	0xbe2d6c99	-0.16935958
153	0x3c8f4bc4	0.017492183
154	0xbd0ae5a8	-0.033910424
155	0xbdbcc3c9	-0.092170306
156	0xbdbc589e	-0.0919659
157	0x3bd132b9	0.0063842204
158	0xbbb132e1	-0.0054076766
159	0xbe0e2efa	-0.13885108
160	0xbdb8f7cc	-0.090316385
161	0x3e17cd00	0.14824295
162	0xbe2e2a9e	-0.17008445
163	0xbec57934	-0.38569033
164	0x3e0fadce	0.14031145
165	0x3ded1c1a	0.115776256
166	0x3dc1ebcc	0.09468803
167	0xbe08e944	-0.13370234
168	0xbe9f8651	-0.31157163
169	0xbe116f24	-0.14202553
170	0x3d214f67	0.039382365
171	0x3d69dafe	0.057093613
172	0xbe348aa6	-0.17631015
173	0xbe62e5ff	-0.22158049
174	0x3ed6230b	0.4182361
175	0xbe5ef0db	-0.21771567
176	0x3e535c58	0.20640695
177	0x3cbd04d2	0.023073588
178	0x3d233cac	0.039852783
179	0xbd5b1636	-0.05348798
180	0x3da5a30f	0.080877416
181	0xbdad1217	-0.08450716
182	0xbe0f63c7	-0.14002906
183	0xbe8cdfa4	-0.27514374
184	0xbe5a2dc2	-0.21306518
185	0xbccf4547	-0.025301589
186	0x3d4397c4	0.047752157
187	0x3e8e8cd9	0.27841833
188	0xbd590237	-0.052980628
189	0xbd566b5a	-0.052348472
190	0xbdb012ad	-0.08597312
191	0xbd366dc3	-0.04453827
192	0xbe88c2fe	-0.26711267
193	0xbebf824d	-0.374041
194	0xbecf7fb1	-0.40527108
195	0xbd986994	-0.074420124
196	0xbe2a1cd7	-0.16612564
197	0xbde668a8	-0.1125043
198	0x3c3fc5f8	0.011704914
199	0xbc3bb2ba	-0.011456186
200	0xbc36e49b	-0.011162902
201	0xbe17f191	-0.14838244
202	0x3d516674	0.051123098
203	0xbe1fc49d	-0.15602346
204	0x3ea5b56f	0.32364985
205	0x3dea1266	0.114292905
206	0xbe3f11c4	-0.18659121
207	0xbe4ed507	-0.20198451
208	0xbe18815c	-0.14893097
209	0x3ede2aef	0.4339213
210	0x3d93c79e	0.07215808
211	0xbdb92c65	-0.09041671
212	0x3df1f6f6	0.11814682
213	0x3e74589f	0.23861931
214	0xbe170486	-0.1474782
215	0x3deb3ddb	0.11486407
216	0x3e0bc331	0.13648678
217	0x3e90e341	0.2829838
218	0xbe627b01	-0.22117235
219	0xbd08becf	-0.033385094
220	0x3e1b23b4	0.15150338
221	0x3c97b0cc	0.01851692
222	0xbea5cb0e	-0.3238148
223	0x3d78294b	0.060586255
224	0x3d9c9372	0.076453105
225	0x3ea19a61	0.31563094
226	0xbe954302	-0.29152685
227	0xbe8b217c	-0.27173984
228	0xbef46ac1	-0.47737697
229	0xbe1d61d4	-0.1536935
230	0x3e39f3b0	0.18159366
231	0xbe93e354	-0.28884375
232	0xbdac3fb4	-0.08410588
233	0xbcf8ed25	-0.030386517
234	0x3bf6e85f	0.007535025
235	0xbe9d473b	-0.30718407
236	0x3e5dff28	0.21679366
237	0xbea8b190	-0.3294797
238	0xbeef6fda	-0.46765023
239	0x3cefdea3	0.029280966
240	0xbe5df406	-0.21675119
241	0x3e030fd3	0.12799005
242	0xbd5ac6b4	-0.053412154
243	0xbe402415	-0.18763764
244	0xbd730eb1	-0.059340183
245	0x3f2ae4aa	0.66755164
246	0xbd7b91be	-0.061418287
247	0xbe9f1704	-0.31072247
248	0xbd902cbe	-0.07039784
249	0x3d18583c	0.03719352
250	0xbe3d9534	-0.18513948
251	0xbe84c1d0	-0.25929117
252	0x3e3faee7	0.18719064
253	0xbeba9be1	-0.3644705
254	0x3e06739d	0.1313004
255	0xbd45b654	-0.048269585

actor.init_leaf_node_embed.2.add_bias._bias f4 [64, 1]
0	0x3e83f1b8	0.25770354
1	0x3e0451d7	0.12921844
2	0x3d2d5de1	0.042325858
3	0x3bbff189	0.0058576507
4	0xbe3a875f	-0.18215702
5	0x3ca2af4d	0.01985898
6	0xbe55d69e	-0.20882651
7	0xbe99b44a	-0.30020362
8	0xbe3b4e0f	-0.18291496
9	0xbe268d2d	-0.16264792
10	0x3e885ed9	0.26634863
11	0xbe1bd748	-0.15218842
12	0x3dc16222	0.094425455
13	0xbdde5fca	-0.10858114
14	0xbdcf8cc5	-0.101342715
15	0xbd95bdaa	-0.07311566
16	0x3e1d262a	0.1534659
17	0xbe068de2	-0.13140061
18	0xbe9fce4d	-0.31212083
19	0xbd0fce34	-0.03510876
20	0x3d39eedd	0.045393813
21	0x3dac98b7	0.084275655
22	0x3c34fd71	0.011046753
23	0x3d904346	0.070440814
24	0x3e7247db	0.23660223
25	0xbd5f1e9e	-0.05447256
26	0xbcbb6d1b	-0.022879174
27	0xbd8f56f4	-0.06999007
28	0xbe262141	-0.16223623
29	0x3dc29e0a	0.095028
30	0xbe19824d	-0.14991112
31	0xbcb4c497	-0.022066398
32	0x3dc7fdec	0.09765229
33	0xbd6779fd	-0.05651282
34	0xbe341b54	-0.1758855
35	0x3e179d83	0.1480618
36	0x3e658e35	0.22417529
37	0xbce050c9	-0.027382271
38	0xbd1ee2ff	-0.0387907
39	0xbe09cbca	-0.13456646
40	0x3d8b6df7	0.068080835
41	0xbef9267e	-0.4866218
42	0x3e416ca5	0.18889101
43	0x3d65a7a2	0.05606807
44	0xbe1db777	-0.15402018
45	0xbd55d2f7	-0.052203145
46	0xbe034055	-0.1281751
47	0xbd2bddbe	-0.041959517
48	0xbe7394c7	-0.23787223
49	0x3d49ccd7	0.049267616
50	0xbd54542c	-0.051838085
51	0xbd4f7014	-0.050643995
52	0x3de73e69	0.11291201
53	0xbe14865d	-0.1450438
54	0xbe44852f	-0.1919143
55	0x3df70f57	0.12063473
56	0xbbc8145c	-0.0061059427
57	0xbe7e9397	-0.24860989
58	0x3e528894	0.20559913
59	0xbe8d8d0b	-0.2764667
60	0x3dde0f0a	0.10842712
61	0xbdf203c3	-0.11817124
62	0x3d8b3a7e	0.06798266
63	0x3bd7da18	0.006587278

actor.init_next_embed.0.module.weight f4 [32, 6]
0	0x3e06a725	0.13149698
1	0xbe1761b2	-0.14783362
2	0xbe9909d2	-0.29890305
3	0xbe9ba269	-0.30397347
4	0xbdcd6fd3	-0.100310944
5	0xbe57b816	-0.21066317
6	0x3c48c054	0.012252886
7	0xbdc7ff51	-0.097654946
8	0x3e3f5108	0.18683255
9	0xbe141c64	-0.14463955
10	0xbe226589	-0.15859045
11	0xbe4efb1d	-0.2021298
12	0x3ebbf9c6	0.36714
13	0xbe89160d	-0.26774636
14	0xbe83fc7b	-0.25778565
15	0xbd57c3e5	-0.052677054
16	0xbec0edf3	-0.3768154
17	0x3ee1f71f	0.4413385
18	0x3c05764b	0.008145879
19	0x3d14fbff	0.036373135
20	0xbd079595	-0.033101637
21	0x3ee25be7	0.4421074
22	0xbee18c4b	-0.44052348
23	0xbeb093cc	-0.3448776
24	0x3ddedc78	0.10881895
25	0xbed81352	-0.4220224
26	0xbdfe1b94	-0.12407604
27	0xbe842b5a	-0.25814325
28	0xbdd1ed68	-0.1025036
29	0xbe2e5cee	-0.17027637
30	0xbc92ea78	-0.017934069
31	0xbf13c5cc	-0.5772369
32	0x3e9129bf	0.28352162
33	0xbf3978f2	-0.7245017
34	0xbe14cee4	-0.14532048
35	0x3e12f590	0.14351487
36	0x3f41b3f3	0.75665206
37	0x3dd2c78c	0.10291967
38	0x3d915a90	0.070973516
39	0xbe6e6307	-0.23279963
40	0xbe29996d	-0.16562434
41	0xbe37854e	-0.17921945
42	0xbdb2d88f	-0.087327115
43	0x3dc959c3	0.09831574
44	0x3e1552b6	0.14582333
45	0x3da326ac	0.079663604
46	0xbe9e77ad	-0.3095068
47	0x3e3845d9	0.17995395
48	0xbecec574	-0.4038502
49	0xbf172879	-0.5904613
50	0x3e7a5438	0.2444619
51	0x3dc8d951	0.09807075
52	0x3fb62382	1.4229586
53	0xbf4f27ba	-0.8091999
54	0x3de6e1a6	0.11273508
55	0xbe95a08d	-0.29224053
56	0xbe3aa602	-0.1822739
57	0x3d9df6c8	0.077130854
58	0xbea04917	-0.31305763
59	0xbed1dc04	-0.4098817
60	0xbea8efd0	-0.32995462
61	0x3e3a7836	0.1820992
62	0x3c841244	0.016121991
63	0x3ec1a5f1	0.37821916
64	0x3e807ceb	0.25095305
65	0xbeedf545	-0.46476188
66	0x3ef9d775	0.48797193
67	0xbcef7ca3	-0.029234236
68	0xbcb12d41	-0.021628024
69	0x3dc911fc	0.09817883
70	0x3cae6265	0.021287153
71	0x3d2627c3	0.040565263
72	0xbeb81b23	-0.35958204
73	0xbd067e91	-0.032835547
74	0x3e155063	0.14581446
75	0x3c5e212f	0.013557716
76	0xbe6b0b92	-0.22953632
77	0xbeafac08	-0.34310937
78	0x3df85f96	0.121276066
79	0x3c15a80a	0.009134302
80	0x3dfe4654	0.12415758
81	0x3dadbff6	0.08483879
82	0xbdca27d7	-0.0987088
83	0xbeb24fc5	-0.34826484
84	0x3f9c70e0	1.2221947
85	0xbe69892d	-0.22806235
86	0xbe8314da	-0.25601846
87	0xbf028f8f	-0.51000303
88	0xbe8947f6	-0.26812714
89	0x3dd16cb7	0.10225814
90	0xbc8b128b	-0.016976615
91	0xbd823a10	-0.06358731
92	0xbe986d69	-0.29770973
93	0xbe9e7d55	-0.30954996
94	0xbc0edb7d	-0.008719322
95	0x3e930c1b	0.28720173
96	0xbe8cfea7	-0.27538034
97	0xbd0b78cc	-0.034050748
98	0xbde64977	-0.11244481
99	0xbe00ac39	-0.12565698
100	0xbed0c6f4	-0.4077679
101	0x3de07bcb	0.10961112
102	0x3f11c98b	0.56948155
103	0xbd4ef030	-0.05052203
104	0x3e49bc52	0.19700745
105	0xbe85a6a4	-0.261037
106	0xbd8113cf	-0.06302606
107	0xbc3d271f	-0.011544972
108	0xbd58780a	-0.052848853
109	0x3e93853d	0.2881259
110	0x3e6a1819	0.22860755
111	0x3caa2c25	0.020773003
112	0xbd170ef5	-0.0368795
113	0x3e9884de	0.2978887
114	0x3f5833df	0.8445415
115	0x3e79fe65	0.2441345
116	0xbeb7a9eb	-0.35871825
117	0xbe673edc	-0.22582573
118	0x3df081a5	0.11743478
119	0x3e1d101b	0.15338175
120	0x3e86d707	0.26335928
121	0x3cd65550	0.026163727
122	0xbd14e459	-0.03635058
123	0xbe0c08df	-0.13675259
124	0xbe86cb00	-0.26326752
125	0x3e1b895f	0.15189122
126	0x3cad9631	0.02118978
127	0xbe5810e2	-0.2110019
128	0xbf37e023	-0.7182638
129	0xbdd9d4a2	-0.106362596
130	0xbdd5ee61	-0.10445858
131	0xbd055918	-0.03255567
132	0x3de70300	0.11279869
133	0xbe1745a4	-0.1477266
134	0xbdc775a0	-0.09739232
135	0x3dfccddf	0.12343954
136	0xbeb87bab	-0.3603185
137	0x3d2e399b	0.042535406
138	0x3f4db96d	0.8036106
139	0xbe88270e	-0.26592296
140	0x3ea96233	0.33082733
141	0xbf0a694a	-0.5406691
142	0x3e45fc24	0.19334465
143	0x3f1f04a3	0.6211645
144	0x3fc9350e	1.5719316
145	0xbdcbdc5f	-0.09954142
146	0xbe3ad622	-0.18245748
147	0xbee28751	-0.44243863
148	0xbc6b2e0e	-0.014354242
149	0x3e5a2099	0.21301498
150	0x3e2fe5cb	0.17177503
151	0x3e9267b7	0.28594753
152	0xbd83c0a8	-0.06433231
153	0xbe3a2ced	-0.181812
154	0xbe3a1f28	-0.18175948
155	0xbec2f736	-0.38079232
156	0x3b8dbbd1	0.004325368
157	0xbea3fe93	-0.32030162
158	0x3e39756c	0.18111199
159	0xbd742e28	-0.05961433
160	0xbe6e1a39	-0.2325219
161	0xbcd755ad	-0.02628597
162	0xbeffbee3	-0.49950323
163	0xbec3c9a3	-0.38239774
164	0xbe414f82	-0.18877986
165	0xbe582272	-0.2110689
166	0x3e56f71a	0.209927
167	0xbe1a1802	-0.15048221
168	0x3f0f444c	0.5596359
169	0x3e529765	0.20565565
170	0xbc9bec0a	-0.01903345
171	0xbf9471db	-1.1597246
172	0xbd76a433	-0.060215186
173	0x3e0338b2	0.12814596
174	0x3e9f2e2b	0.3108991
175	0x3e6c43ab	0.23072688
176	0xbeaff5ce	-0.34367222
177	0xbf560925	-0.83607703
178	0xbd61b4eb	-0.055104177
179	0x3e9dded6	0.30834073
180	0xbe419888	-0.18905842
181	0xbe84b2a4	-0.25917542
182	0x3e9767ec	0.29571474
183	0xbdc911eb	-0.09817871
184	0xbd73bf18	-0.059508413
185	0x3df34118	0.1187765
186	0x3dd35720	0.10319352
187	0xbe67e389	-0.22645392
188	0xbef0b39d	-0.47012034
189	0xbecdaf17	-0.40172645
190	0xbe245468	-0.16047823
191	0x3d27b512	0.040944166

actor.init_next_embed.0.add_bias._bias f4 [32, 1]
0	0x3e0b3a2b	0.13596408
1	0x3b4d00fd	0.0031281107
2	0xbd9680ee	-0.0734881
3	0x3cbd51e9	0.023110347
4	0x3b8c4e37	0.004281785
5	0xbe800a08	-0.25007653
6	0x3df86bdf	0.1212995
7	0xbd93f8c7	-0.07225185
8	0xbe7626c1	-0.24038221
9	0x3d2b88c4	0.041878477
10	0xbe534c33	-0.20634536
11	0x3e9fbb22	0.31197459
12	0xbcb311c5	-0.02185906
13	0x3df3cfca	0.11904867
14	0x3eb4f8d9	0.35346106
15	0x3eb591f0	0.35462904
16	0xbc37a25a	-0.011208141
17	0xbe677639	-0.22603692
18	0xbe390028	-0.18066466
19	0x3eab1852	0.33416992
20	0xbdfd1230	-0.123569846
21	0x3d0c4b75	0.03425165
22	0xbe8c01b7	-0.27345058
23	0xbd3490e8	-0.044083506
24	0x3eab6e96	0.33482808
25	0xbd6126ff	-0.05496883
26	0xbdf70b05	-0.12062649
27	0x3cf6e943	0.030140525
28	0x3d19b66d	0.03752749
29	0x3e34b620	0.176476
30	0x3e3ec6e8	0.18630564
31	0x3dfc902b	0.12332185

actor.init_next_embed.2.module.weight f4 [64, 32]
0	0x3d93f486	0.072243735
1	0xbdd21efe	-0.102598175
2	0xbced0652	-0.028933678
3	0x3e371755	0.17879994
4	0x3e162616	0.14662966
5	0x3daa45e9	0.083141156
6	0xbe58ee3b	-0.21184628
7	0xbe686f17	-0.22698627
8	0xbe3721d1	-0.17883994
9	0x3e9f3f55	0.31103006
10	0x3da912b1	0.08255518
11	0xbf188ada	-0.5958687
12	0x3dbc4875	0.091935076
13	0x3e8b8f37	0.27257702
14	0xbd6ab57f	-0.057301994
15	0xbedb9ef8	-0.4289472
16	0xbe19147d	-0.14949222
17	0x3d84b453	0.064797066
18	0xbc8257da	-0.015911032
19	0xbea1f81b	-0.31634602
20	0x3d825846	0.06364493
21	0xbd63d6af	-0.05562466
22	0xbef21bcd	-0.47286835
23	0xbeea9969	-0.45820168
24	0xbf165596	-0.58724344
25	0x3eb320e0	0.3498602
26	0xbe2ea055	-0.1705335
27	0xbdc26099	-0.09491081
28	0x3dbfa946	0.09358458
29	0x3d748b8c	0.059703395
30	0x3d618d81	0.05506659
31	0xbe46389a	-0.1935753
32	0x3e76c767	0.24099503
33	0xbd72333d	-0.059130896
34	0xbd5b4c34	-0.05353947
35	0xbd8d6d26	-0.06905584
36	0xbdb84822	-0.08998133
37	0xbe27a3a3	-0.16371016
38	0xbe1ca139	-0.15295877
39	0x3a117139	0.00055481825
40	0x3ed24a17	0.4107215
41	0x3d239ff1	0.039947454
42	0x3ef4a03a	0.47778493
43	0x3e805fc7	0.25073072
44	0xbcc7a20d	-0.024369264
45	0xbdc993ca	-0.09842642
46	0xbe338ac5	-0.17533405
47	0xbd8254a3	-0.063637994
48	0x3e394698	0.18093336
49	0x3ca345d1	0.019930752
50	0xbd9dd8b7	-0.07707351
51	0x3f05b67e	0.52231586
52	0x3e2ea47f	0.17054938
53	0x3c94171a	0.018077422
54	0x3d7650ad	0.060135532
55	0xbe5207d9	-0.20510806
56	0xbe3376af	-0.17525743
57	0x3e60e3e8	0.2196194
58	0xbba55f41	-0.0050467555
59	0xbea47b13	-0.32125148
60	0xbdda3324	-0.106542856
61	0x3cbec4b4	0.023287155
62	0xbd8682ff	-0.06567954
63	0xbcf4f4c4	-0.02990187
64	0xbe186cd7	-0.14885269
65	0x3d03a99f	0.032144185
66	0x3e286c74	0.16447622
67	0xbe0c4684	-0.13698775
68	0xba2a96ef	-0.0006507476
69	0x3e4f8c39	0.20268334
70	0xbebc6108	-0.3679278
71	0xbeb2f8bc	-0.34955394
72	0xbe9489ad	-0.29011288
73	0xbe1257da	-0.14291325
74	0x3d234560	0.039861083
75	0x3e67af0f	0.22625373
76	0x3db4b047	0.08822685
77	0xbe9158fa	-0.28388196
78	0xbf36062f	-0.71103185
79	0x3d810241	0.06299258
80	0xbe6b5de9	-0.22985043
81	0x3d82969d	0.063763835
82	0x3e3b42ea	0.18287244
83	0xbb75530c	-0.0037433533
84	0xbda44ace	-0.0802208
85	0xbdb1c421	-0.08679987
86	0xbd5188d1	-0.05115587
87	0x3e6815cc	0.22664565
88	0xbef0678e	-0.46954006
89	0x3dcd4cd0	0.100244164
90	0xbe53bb61	-0.20676948
91	0xbe320a5d	-0.17386766
92	0xbeff75ca	-0.49894553
93	0xbf1d6d0c	-0.6149452
94	0xbea61c36	-0.32443398
95	0xbdef2975	-0.11677829
96	0xbd0b627e	-0.034029476
97	0x3e1b53ba	0.15168658
98	0x3ea3feb0	0.3203025
99	0xbdbd6ce0	-0.09249282
100	0xbe9e752f	-0.3094878
101	0x3cd102a3	0.025513953
102	0xbea62118	-0.32447124
103	0x3e02801a	0.1274418
104	0xbdb5f3fb	-0.08884426
105	0x3e7452ec	0.23859757
106	0xbead237c	-0.33816135
107	0x3e0e4a57	0.13895546
108	0x3de0890f	0.10963642
109	0x3e4e2be1	0.20133926
110	0xbe8f8297	-0.2802932
111	0xbe8c98a1	-0.27460197
112	0xbe270351	-0.16309859
113	0x3e51181a	0.2041935
114	0x3d036eb9	0.032088015
115	0xbea36340	-0.3191166
116	0xbc83a68d	-0.016070629
117	0x3da6420b	0.081180654
118	0x3e27e7a1	0.16396953
119	0x3f351ccf	0.70747083
120	0xbeb8ba4a	-0.36079627
121	0xbedcee15	-0.43150392
122	0xbdc06ca3	-0.09395721
123	0xbea1f7b4	-0.31634295
124	0xbecf78fa	-0.40521985
125	0xbe81650f	-0.25272414
126	0x3de1fa9e	0.110341296
127	0xbe852828	-0.260072
128	0xbe2d8b6a	-0.16947713
129	0xbec6f042	-0.38855177
130	0xbe013579	-0.12618054
131	0x3e7bdb81	0.24595453
132	0x3df1e0a9	0.11810429
133	0xbe2d5a8b	-0.1692907
134	0xbe072d35	-0.13200839
135	0xbdadcb44	-0.084860355
136	0x3e0775d2	0.13228539
137	0xbdf86f8b	-0.1213065
138	0xbe7e0864	-0.24807888
139	0xbd958eb4	-0.07302609
140	0xbceffa84	-0.02929426
141	0x3d56a607	0.05240443
142	0x3daef8a9	0.08543522
143	0xbd8038bf	-0.062608235
144	0x3e2971e4	0.16547352
145	0x3e1d27be	0.15347192
146	0xbe17e07a	-0.14831725
147	0xbe728d4c	-0.23686713
148	0xbe2fcdb9	-0.1716832
149	0x3dbbc7a9	0.091689415
150	0x3e1b59c1	0.15170957
151	0x3e31391f	0.17306946
152	0x3e31cb6f	0.1736276
153	0xbdbfa365	-0.09357337
154	0x3ee3192c	0.44355142
155	0x3e558b68	0.2085396
156	0xbe7872e2	-0.24262574
157	0xbe354b3e	-0.17704484
158	0xbd94c794	-0.07264629
159	0xbd7b5507	-0.061360385
160	0xbd2689ec	-0.040658876
161	0xbbd3d3ee	-0.006464473
162	0x3c716699	0.014733934
163	0xbde15530	-0.11002576
164	0x3eaeb090	0.34119081
165	0x3e55e51a	0.20888177
166	0x3d903744	0.07041791
167	0x3e116428	0.14198363
168	0x3cc63291	0.024194034
169	0x3e5d4912	0.21609905
170	0x3d1e41c0	0.038636923
171	0x3f0b5413	0.5442516
172	0x3d2dc383	0.042422783
173	0x3ea4a78e	0.32159084
174	0x3cb4a95a	0.02205341
175	0x3ede7f4a	0.4345649
176	0xbcf4142c	-0.029794775
177	0x3ea54eca	0.32286674
178	0x3de20656	0.11036365
179	0x3f2544d2	0.64558136
180	0x3d36474f	0.0445016
181	0xbd1792cb	-0.037005227
182	0x3e86d1b2	0.2633186
183	0xbdcd54e2	-0.10025956
184	0x3ef554f8	0.4791639
185	0xbda56929	-0.08076698
186	0x3d9527c6	0.07282977
187	0x3eaf48d1	0.34235242
188	0xbdfbb7ae	-0.122908935
189	0xbe8a3641	-0.26994517
190	0x3e47689a	0.19473496
191	0xbdc6e94a	-0.09712465
192	0xbd12ab54	-0.035807922
193	0x3e174bfc	0.1477508
194	0xbc9e9a08	-0.019360557
195	0x3e3a2573	0.18178348
196	0xbd9206b7	-0.07130187
197	0x3cd43ed2	0.025908861
198	0xbe5ad124	-0.21368843
199	0xbea724d1	-0.32645276
200	0x3e296934	0.16544038
201	0x3e666e05	0.22502907
202	0x3d94d0ba	0.07266374
203	0x3e32d623	0.17464499
204	0x3ce2ce6b	0.027686318
205	0x3ccdf438	0.025140867
206	0xbe7d3ccd	-0.24730225
207	0xbe357423	-0.17720084
208	0xbcb2b762	-0.02181596
209	0x3e2c6115	0.16833909
210	0xbe59d5db	-0.21272986
211	0xbe37f339	-0.17963876
212	0x3e4fb122	0.20282415
213	0xbe8c0683	-0.27348718
214	0x3e2bd34d	0.16779824
215	0xbc88adcb	-0.016684433
216	0xbebe72df	-0.37197015
217	0x3d96ca15	0.07362763
218	0x3d1fafc4	0.038985983
219	0xbe61e116	-0.2205852
220	0xbe6afa16	-0.22946963
221	0xbe97afd7	-0.29626343
222	0x3e4fc096	0.2028831
223	0xbe9315f1	-0.28727677
224	0xbe1d634e	-0.15369913
225	0x3ce327fd	0.027729029
226	0xbd7cc020	-0.061706662
227	0x3cd52b13	0.026021516
228	0x3e66ac13	0.22526579
229	0xbe972ab8	-0.2952478
230	0xbe3a905f	-0.18219136
231	0xbe4937be	-0.1965017
232	0x3de0eed2	0.10983051
233	0xbcef546e	-0.029215064
234	0x3eb75e13	0.3581396
235	0x3e8a679e	0.2703218
236	0x3dcccb35	0.09999696
237	0x3ea2f833	0.31829986
238	0x3eba761a	0.3641823
239	0x3ef7298e	0.4827389
240	0x3d8cc469	0.068734
241	0x3eb30ace	0.3496918
242	0x3e50be6b	0.20385139
243	0x3e1d99a1	0.15390636
244	0xbeaac62a	-0.33354312
245	0x3c9bf789	0.019038932
246	0xbe28e3a9	-0.16493095
247	0x3f03f579	0.51546437
248	0x3ebb98c7	0.36639997
249	0x3cc4fffe	0.024047848
250	0x3dbbfb38	0.091787755
251	0xbdbf38a2	-0.09336974
252	0x3deb712a	0.11496194
253	0x3e6640b9	0.22485627
254	0x3deb4fad	0.11489806
255	0x3ea561d9	0.32301214

actor.init_next_embed.2.add_bias._bias f4 [64, 1]
0	0xbf40a0c0	-0.75245285
1	0xbed6356d	-0.41837636
2	0xbf172e40	-0.59054947
3	0xbeb34587	-0.35013983
4	0xbdbf7fbf	-0.093505375
5	0x3f505702	0.81382763
6	0xbf0b24a9	-0.54352814
7	0x3ec2ed96	0.3807189
8	0x3fa09551	1.2545568
9	0xbefce13e	-0.49390596
10	0xbf20e434	-0.6284821
11	0x3e46e08b	0.19421594
12	0x3f787d99	0.97066647
13	0xbfa23fac	-1.2675681
14	0xbf793b03	-0.9735567
15	0xbf878916	-1.058871
16	0xbf29b311	-0.6628886
17	0x3f4cd7c5	0.8001674
18	0x3e944015	0.2895514
19	0xbe012dc0	-0.12615108
20	0xbde97141	-0.113985546
21	0xbebc695f	-0.36799142
22	0xbf83d94e	-1.0300691
23	0x3e866ffd	0.26257315
24	0xc000d4f2	-2.0129972
25	0xbeef9b01	-0.46797946
26	0xbecb22f5	-0.39675108
27	0xbf803360	-1.0015678
28	0x3ebad428	0.36489987
29	0x3db0dc1e	0.08635734
30	0xbf423aa7	-0.75870746
31	0xbf58723a	-0.84549296
32	0xbecd7787	-0.40130255
33	0x3f2af02b	0.6677272
34	0xbe4bb153	-0.19891863
35	0xbf3a9b8f	-0.72893614
36	0x3fbdc53a	1.4825814
37	0x3f14a282	0.5806047
38	0xbe4fda6c	-0.20298165
39	0x3e3b338b	0.18281381
40	0xbfbe9ca6	-1.4891555
41	0x3f9b460b	1.213075
42	0xbee15faf	-0.44018313
43	0xbfbf7d88	-1.4960184
44	0x3e980824	0.2969371
45	0x3f8b42b4	1.0879731
46	0x3f669ad5	0.90080005
47	0x3f0f499a	0.5597168
48	0xbea4bc43	-0.32174882
49	0x3efe727e	0.49696726
50	0x3f00127a	0.50028193
51	0x3f3118bf	0.69178385
52	0x3ea9aabb	0.3313807
53	0xbe91ffc6	-0.28515452
54	0x3e53890e	0.20657751
55	0xbf2d9893	-0.67810935
56	0xbd45825d	-0.048220027
57	0x3ee9e548	0.4568274
58	0xbf1cdf11	-0.6127787
59	0x3eb53f2d	0.35399762
60	0x3f531861	0.82459074
61	0x3f18ff27	0.5976433
62	0x3d0c5237	0.034258094
63	0x3e826b1c	0.25472343
