logs/experiment/Discrete_A2C_1-5Box_10x10x10Bin-2022.08.09-15-00-00/PCT-Discrete_A2C_1-5Box_10x10x10Bin-2022.08.09-15-00-00_2022.08.09-16-45-47.pt (torch, 236314 bytes, 24 tensors)

actor.init_internal_node_embed.0.module.weight f4 [32, 6]
00000000: 2d96 eebe 7206 b93c e899 09bf 9c58 233d
00000010: 475e 64be aae3 22bd f937 c5bd 7e61 203e
00000020: 90ce a3be 4459 86be a087 aebe 9e0e bebe
00000030: 2fa7 13be 88c2 5e3d b426 0b3e 59a4 863e
00000040: 4ebd c83d b3dd 1fbf cb8a 8a3e 1b13 94be
00000050: a0e6 cb3e 1040 fdbe 1c2c e3bc aad1 013f
00000060: 682f b9bd 159b cdbe 6c49 4e3e 9377 a53d
00000070: cb21 983e fcdb 4d3f 9544 243b 0fb7 0a3d
00000080: 424b 713e f4a5 ceba 40ad 10bd 2733 7abe
00000090: b70d 7c3f df69 fdbd b9ef 38bf c548 98bf
000000a0: 1814 d53e 416c 263f ac66 bcbe 599f b2be
000000b0: d1cc d13d 6e1b 5fbe d4fc 923e 991f 193f
000000c0: 8bfc 2fbe 9544 d53e 698c 393f 95b5 16be
000000d0: 6f8e 7dbe ba1d 843e 256f c33e 1251 93bd
000000e0: 39e5 113f 0bdc 75bd 0162 71bd 8ead 5cbd
000000f0: a89b e2be a561 83be f3c8 e1be 33fb 023f
00000100: e300 573e 9caf 6cbe 4e8e 05be e3bb 1e3f
00000110: 1aa7 bcbe 848e 203e 51f2 1fbf 22bd d43e
00000120: a9fe bd3e 61b4 13bf 7ea8 46be 3f9d 4b3e
00000130: bfd8 84be 7219 123e 9f79 f83d a543 1e3e
00000140: 1868 83bd 8c62 89be 425d dbbc 7894 cfbd
00000150: f3a9 583e ffa6 a83b 0037 c43c de29 01be
00000160: c935 92bc f793 f13c 355d 8b3e 0768 98bd
00000170: 5fb8 b73e 5b50 27be 4527 61be 34dd f23d
00000180: 2581 03bf 311a 10bf 6eaf aebe b526 cbbe
00000190: c09c 18be fdf4 75be 9676 01bd 4880 003e
000001a0: ad62 aa3e 384e 8dbd 44d1 4539 22b0 56bc
000001b0: 81a3 3bbe 8185 2ebf c740 18bf 9208 99bc
000001c0: 9e4c 35be 279a 11be ee7e 463e 8524 e4bd
000001d0: fbff 30bf 9151 22bd c83e 5bbd 4587 9e3e
000001e0: cbbb 463d 2923 6fbe e8d9 aebd 813f d7be
000001f0: 5471 24bf bdc2 7d3c 9b81 1bbe faf1 9dbe
00000200: e46c 11bf 7fbd 073e 8c90 663e 2c06 0d3f
00000210: 3a0c bbbe 5fba e0bc 494e 46bf e82b 9c3e
00000220: b686 0c3f 712d 9d3d 268f 6c3d 5dfd d2bc
00000230: 2dc7 e7be 0f02 05be db79 e7be c8c2 0bbf
00000240: 2b74 133e 90eb 14be 6c90 413f 0022 1cba
00000250: ee24 f63d ab26 d7bd f7ab 523c 227d 1ebe
00000260: ab6b f2be 8aac 8b3e 3924 9b3e 615f 40be
00000270: 2214 fc3e 176d 023e d96f 2f3e e4ca 993e
00000280: ce38 8bbe 1f38 7fbe 2daf a63e 72eb a43d
00000290: 0447 88be 4d0b fe3e d8dd d83c c88a 8fbd
000002a0: c342 d5bd 2216 55be 3bcc 7a3d 9a5f 103f
000002b0: 18a1 f13e c33a 43bf f40b 8b3e c279 2ebe
000002c0: 2ef9 d6be ca09 91bd e507 4a3c ceeb c63c
000002d0: e045 57be 56e1 cdbe fb5f 9a3f 2825 18be
000002e0: 0aef 41be 153a 3f3d 3514 7d3e 2c48 163e
000002f0: 19e1 2cbd c62d 6f3d b957 50be 3888 13be
-0.4659895 0.022586081 -0.5375047 0.039879426 -0.22301589 -0.0397679 -0.096298166 0.1566219
-0.31993532 -0.2623998 -0.3408785 -0.37120527 -0.14419244 0.05438474 0.13588983 0.26297262
0.09801732 -0.6244766 0.27059016 -0.28920826 0.3982439 -0.49462938 -0.027730994 0.50710547
-0.09042245 -0.4015738 0.20145196 0.080794476 0.29713282 0.80413795 0.0025065292 0.033865985
0.23563865 -0.0015766011 -0.035321474 -0.24433576 0.9845843 -0.12373709 -0.7224079 -1.1897207
0.41616893 0.6500893 -0.36797082 -0.34887198 0.10244144 -0.21787807 0.28708518 0.5981384
-0.17186181 0.41653886 0.72479874 -0.14717706 -0.24761365 0.2580393 0.38170734 -0.07193197
0.5699039 -0.060024302 -0.058931354 -0.053876452 -0.4425938 -0.25660434 -0.44098625 0.5116455
0.20996432 -0.23113865 -0.13042566 0.6200544 -0.36846238 0.15679365 -0.6247912 0.41550547
0.37108353 -0.5769711 -0.19400212 0.19884203 -0.25946614 0.14267519 0.121325724 0.15455492
-0.06416339 -0.26832998 -0.026777867 -0.1013574 0.2115858 0.0051468606 0.023952007 -0.12613627
-0.017847912 0.0294895 0.2721955 -0.07441717 0.3588285 -0.16339247 -0.21987636 0.118585974
-0.51368934 -0.56289965 -0.34118217 -0.3967797 -0.14903545 -0.24019237 -0.031607233 0.12548935
0.3327841 -0.06899685 0.00018865342 -0.013103517 -0.1832409 -0.6817246 -0.5947384 -0.018680844
-0.17705008 -0.1421896 0.19384357 -0.11139778 -0.69140595 -0.03962857 -0.05352667 0.30962577
0.048518937 -0.23353256 -0.08537656 -0.42040637 -0.64235425 0.015488324 -0.1518616 -0.30848676
-0.5680678 0.13255881 0.22516078 0.5508754 -0.36532766 -0.027432619 -0.77463204 0.30502248
0.5489305 0.07674683 0.057753704 -0.025755579 -0.45269147 -0.12989067 -0.45210156 -0.5459409
0.14399783 -0.14542985 0.75610995 -0.0005955994 0.120187625 -0.10505422 0.012858382 -0.15477422
-0.4734777 0.27280074 0.30301073 -0.18786384 0.4923411 0.12736927 0.1713251 0.30037606
-0.27191776 -0.24923752 0.32555524 0.0805272 -0.2661668 0.49617997 0.02647297 -0.07008892
-0.104131244 -0.20809224 0.061229926 0.56395876 0.47193217 -0.7626154 0.27157557 -0.17038634
-0.41986984 -0.07081945 0.012330984 0.024282362 -0.21022749 -0.4021098 1.2060541 -0.14857924
-0.18938842 0.04668625 0.2471474 0.14675969 -0.042206857 0.058393262 -0.20345964 -0.14407432

actor.init_internal_node_embed.0.add_bias._bias f4 [32, 1]
00000000: 9f22 b53c e926 3cbe 0e4c f1bb a1e9 b7bc
00000010: b0f1 143e 5b92 fd3c 7c7d 903b 0492 c9bb
00000020: 3241 383d edba d73d db48 693b d7f8 923c
00000030: 23ea 6fbb f468 daba b4ad 59bc 6e39 e73c
00000040: 672b 9cbe f057 79bd 490e 2f3d a35d fb39
00000050: aea3 91be cdee 653d dda5 5f3d 8ae9 fa3d
00000060: e29c 073d 0bad 9d3a 20a3 bd3b 0941 9a3d
00000070: 1a02 ec3c 1ef3 44bd 8176 813d 5922 91bd
0.022111235 -0.18374218 -0.0073638028 -0.02245027 0.14545321 0.030953577 0.00440949 -0.0061514396
0.04498405 0.105337 0.0035596404 0.017940922 -0.0036608062 -0.0016663359 -0.013286043 0.028225627
-0.30501863 -0.06087488 0.042738233 0.00047944215 -0.2844519 0.05613594 0.05460154 0.12251575
0.0331086 0.001202972 0.0057872683 0.07531936 0.028809596 -0.048083417 0.06321431 -0.070866294

actor.init_internal_node_embed.2.module.weight f4 [64, 32]
00000000: 841c e83d 4766 333e 66b1 cd3d d248 f13d
00000010: 1e29 1cbe 89b7 ec3d a123 d13d 61ba 013f
00000020: 9c96 853e c891 a3bd bb6e 463f c932 d63d
00000030: b34d db3d c48b 57be 2f01 21bf c71d 8e3e
00000040: 710c a6bc b873 ff3d ad1a 0b3d 6cd0 8b3e
00000050: 5b40 64be 52ce 173e be9b 8f3f 8a7e 70bd
00000060: ed8e f53e 2f92 933e 406c 043e fbc9 723e
00000070: b3cf c23e 02dd bfbd c0d3 45bd 02d8 813c
00000080: 7098 b33e 265b 983d 677d eabe 4a29 fbbe
00000090: 9e39 953d 6c6f 943e b12c fc3d 7986 c8be
000000a0: f376 96be b3a5 a03d f4a9 093f a1b7 903e
000000b0: df90 a03e c9c3 e33d 73d7 ca3c 013d 983e
000000c0: 62cb 80bd d5fb 9b3b f059 fbbd 7142 15be
000000d0: 014a 163d 8edc cf3e e83c 563f bc9c b63e
000000e0: ed44 6dbd 39df b8bc f4cc a03d 7f5a ff3d
000000f0: 1d40 0a3f dcf5 6a3e 5b62 a7bd ad81 89bd
00000100: 59c8 85be 6e8d ffbc 0e26 fd3e 38f6 ea3e
00000110: c3b5 c93e c2fb 8dbc fc1e 13be ab4d 503f
00000120: ffab 9fbd b4c3 88bd f08d f6be 68d5 f6be
00000130: 7017 a8bd ce5e 273e e234 683e 2fa2 a8be
00000140: 3ea4 09be 53ad 5a3e 2eae 233d 43c3 d8be
00000150: 8103 13bd 8b2b 913e 587e 77be 51aa 5dbe
00000160: d40e 08bb 2709 b1bd 19c2 4d3e 8bf3 163e
00000170: ee96 1e3e be74 12be 8506 3b3e c439 613d
00000180: 5416 74bd 5234 52be f165 a13d c937 de3e
00000190: 7855 643e f1c3 0cbd f3f8 d63c 9507 c43c
000001a0: 1f09 8c3e a752 043e 9e76 003d 2641 cd3b
000001b0: 772c 8ebe 526e 573d 538f 9fbe 42da 203e
000001c0: 2b13 e93d 53b7 84be cda7 923d 4b10 2d3e
000001d0: 6454 82be a257 d93e 839c a8be ffb8 dc3d
000001e0: a55f c23e ac5d bcbd 1a01 2b3e 061d a03e
000001f0: bb83 e03d aee7 81bd 2c88 0dbe cd84 483e
00000200: cc0a aa3e cddd cebd 493b 36be 22eb 84bc
00000210: d873 2dbf bbe7 63bd 073c 903e 8d76 40bf
00000220: 56e1 17bf caeb bf3e 3b38 9a3e 9eef c33e
00000230: 9c04 03be 89b5 45be a1b9 523e 3e37 74bd
00000240: d867 a03c cd8d 83bd d11b e83c 72e3 f03b
00000250: 68d2 0ebe 22bf cc3e d4fd 0d3e 11a2 a03d
00000260: 9afa 87be fcf9 a73e 4ffa ba3e fc48 2b3e
00000270: 261e f23e c4b0 443d 5f4b 2d3d f441 dcbd
00000280: ccd9 92be 7361 d9bd 9f52 fd3b 1578 093b
00000290: 9189 4c3f a95b 69be 7021 2abe ca0d b43e
000002a0: da4e 693d d91c a5be de60 533f f679 bbbe
000002b0: 2928 c33d 6f68 c6bd 6b03 1b3e 0156 6c3e
000002c0: 995e 583e 5908 0b3e 9229 70bd 753b 95bd
000002d0: 784e efbc db58 d23d 7f45 df3e f46d f7be
000002e0: 5532 5f3e e617 9d3e 8b78 4c3e 614b fa3e
000002f0: b1f4 4e3d 6e60 47bd 73b9 d73d b28f 903e
00000300: a14f 9c3e 32e5 953b 2114 643d 875b 6e3d
00000310: 5833 053f 54bd 48bc e312 65be 5403 a53e
00000320: 1a93 9c3d 9ff4 fabc a0d8 3a3e d1d8 1abe
00000330: 6005 8ebe 81ca a3bd 9eba c53d 9e50 ffbe
00000340: e46b 333c 2b18 c3be f629 673c fcf6 dfbc
00000350: f7db 94bb 79c3 b83d 890f 26bd c02d 353d
00000360: bd9f 89be a39c eebc 83dc 59be f787 9e3e
00000370: db9c bebe 4731 223d 6e80 5abe ffcc 99bd
00000380: 4497 eabd 10f8 e3bd cc51 dabe 836d b0be
00000390: 14e4 22be 5607 e6bc 7f24 2a3e c197 8d3a
000003a0: bf30 84b9 7db2 d43d b054 093f 9ba4 b73e
000003b0: ba2e 48be 7ff4 143e eff4 a4bd 4024 01be
000003c0: 972c 1bbd 3236 a6be 98bb 423e ff44 0f3e
000003d0: 00bd a23c c48c 06be 84c8 4c3f c598 10bd
000003e0: ef24 8fbe ae1c 173e 78fd 73be d69f 2dbe
000003f0: 8a95 313f ac17 563e a776 923e 96ba f8bd
0.11333564 0.17519484 0.10043602 0.117814675 -0.1525006 0.11558444 0.10211874 0.50675017
0.26091468 -0.0798679 0.7751271 0.10458905 0.10708179 -0.2104941 -0.6289243 0.27757093
-0.020269604 0.124732435 0.033960987 0.2730745 -0.22290175 0.14824799 1.1219404 -0.058714427
0.47960606 0.28822467 0.12931919 0.23709862 0.38049087 -0.09368326 -0.048297644 0.01585007
0.35077238 0.0743926 -0.457988 -0.4905494 0.0728638 0.28991258 0.12313212 -0.39165094
-0.29387626 0.078441046 0.5377495 0.28265098 0.31360528 0.111213274 0.024760937 0.29734042
-0.06288792 0.0047602453 -0.122730136 -0.14576127 0.03669167 0.40597957 0.83686686 0.35666454
-0.05792706 -0.022567378 0.07851592 0.12468433 0.5400408 0.2294535 -0.08173057 -0.06714187
-0.26129416 -0.031195369 0.49443096 0.45890975 0.39396486 -0.017331962 -0.14367288 0.8136851
-0.077964775 -0.066779524 -0.48155165 -0.4820969 -0.08207595 0.16344759 0.22676423 -0.32936236
-0.1344156 0.2135518 0.039961033 -0.42336473 -0.035892013 0.28353533 -0.2416929 -0.21647002
-0.0020760791 -0.08644324 0.20093574 0.14741342 0.15487263 -0.14302346 0.18264206 0.05498673
-0.059591606 -0.20527771 0.07880772 0.43401936 0.22298229 -0.03436655 0.026241755 0.023929397
0.2735071 0.12922154 0.031363122 0.00626387 -0.277683 0.052595444 -0.31164035 0.15708259
0.11380609 -0.25921115 0.07160912 0.16900747 -0.2545501 0.4244967 -0.3293191 0.10777473
0.37963596 -0.09197554 0.16699639 0.31272143 0.109626256 -0.063430175 -0.13821477 0.1958191
0.33211362 -0.10100899 -0.17796053 -0.016225401 -0.6775489 -0.055640917 0.28170797 -0.75180894
-0.5932821 0.3748458 0.30121025 0.3826875 -0.12794727 -0.19307531 0.20578624 -0.059622996
0.019580767 -0.06423531 0.028333576 0.0073513323 -0.13947451 0.39989573 0.13866359 0.07843412
-0.2655838 0.3280791 0.36519095 0.1672706 0.47288626 0.04802014 0.042308208 -0.10754767
-0.2868179 -0.1061429 0.0077307965 0.0020976115 0.7989741 -0.22788872 -0.16614318 0.3516677
0.056959964 -0.32248572 0.8256968 -0.36616486 0.09529144 -0.09687888 0.15138023 0.23079683
0.21129836 0.13577403 -0.058633395 -0.07286731 -0.029212222 0.10270854 0.4360771 -0.48326075
0.21796544 0.30682296 0.19967858 0.48885635 0.050526325 -0.048675947 0.105334185 0.2823463
0.30529502 0.0045744414 0.05568326 0.058192756 0.5203147 -0.012252171 -0.22370486 0.32229102
0.07645245 -0.030634223 0.18246698 -0.15121771 -0.27738476 -0.07997609 0.09654735 -0.49866194
0.010951016 -0.38104376 0.014109125 -0.027339451 -0.0045428234 0.090216585 -0.04054216 0.044233084
-0.26879683 -0.029127425 -0.21275525 0.30963108 -0.37229046 0.039597776 -0.21338055 -0.07509803
-0.11454633 -0.111312985 -0.4264053 -0.3445855 -0.15907317 -0.02807967 0.16615485 0.0010802672
-0.0002521332 0.103856064 0.5364485 0.35867772 -0.19549075 0.14546393 -0.0805453 -0.12611485
-0.03788432 -0.32463223 0.19016874 0.13991164 0.019865513 -0.13139635 0.7999346 -0.035301942
-0.27957866 0.14757034 -0.2382716 -0.16955504 0.69368804 0.20907468 0.2860615 -0.121449634

actor.init_internal_node_embed.2.add_bias._bias f4 [64, 1]
00000000: b9e0 233e cc90 913e 4149 81bd 4cf2 b23d
00000010: 251a d73d 0da0 983e 2eb1 e63c 030d 4b3e
00000020: 999d 8fbd 3666 8cbd 8cb0 5a3c b3ed 273d
00000030: 71ee 85bd 0a2e 1d3e afec 223e 8cdb f33d
00000040: 9ee9 8bbc 5c41 3cbe e69f 03bc fbc4 b23d
00000050: 2343 29bd b797 923d 564e 8bbd 7599 fcbd
00000060: e801 1c3e f734 a43c 8ef2 2b3d 7a19 8c3d
00000070: aa58 06be 3a15 42bd 56c0 e1bb 6f2a 25bd
00000080: 6ad4 6c3c a305 533d ead9 933e 5bfc d3bd
00000090: 7d6a 2a3d 0f21 3ebe fe41 28bd a714 243e
000000a0: 7ce5 20bd 8724 62be 0d59 263e 9dc1 4f3c
000000b0: 3faa 24be f887 aebc be63 a2be c403 84be
000000c0: 9036 573e a3b9 c53c e92d 943d 65c4 7d3d
000000d0: d0f5 3f3d ea78 003c 0143 8ebc a0de 8b3e
000000e0: c77b 633e 101c 8cbd b1c4 18bd 0600 e83d
000000f0: 195d b43d 2637 853d 5bda 06bd 8df9 113d
0.16003694 0.28430784 -0.063128 0.08737621 0.105030335 0.2980961 0.028160658 0.19829182
-0.07012481 -0.06855433 0.013347756 0.040998172 -0.0653962 0.15349594 0.159106 0.119071096
-0.01707917 -0.18384308 -0.008033728 0.08728977 -0.041323792 0.071578436 -0.06802051 -0.12333957
0.15235102 0.020044787 0.041979365 0.06840797 -0.1311976 -0.047383524 -0.0068893833 -0.04032367
0.01445494 0.051519047 0.28877193 -0.10350867 0.04160546 -0.18567298 -0.04107856 0.16023503
-0.039281353 -0.22084247 0.16244908 0.012680438 -0.16080569 -0.02130507 -0.31716722 -0.25784123
0.21016908 0.02413637 0.07235319 0.061954875 0.046865284 0.007841328 -0.017365934 0.27318287
0.22215186 -0.0684129 -0.037296955 0.113281295 0.088068195 0.06504659 -0.032923084 0.03563838

actor.init_leaf_node_embed.0.module.weight f4 [32, 8]
00000000: c02c a7bd 0937 b1be 05b9 c7be e2f1 86bd
00000010: f123 2d3e 8b90 bc3e aeba fd3e 6107 8a3e
00000020: 716c b5be ba1b 27bf a30f adbd b79f b5be
00000030: 542a 83be c2b7 af3e e4d3 b4bc e5bd ba3e
00000040: 41bd 433e 0d06 babe 831f 15be 4e69 d83e
00000050: d735 1bbc 564f 9ebe 082d 68bd 791e 8abd
00000060: dbe5 cfbe 3ea9 52be 5473 7bbe dbdd 7fbe
00000070: d616 af3e 1aec 313d 990d e73e b1e4 e93d
00000080: 66c7 6abd 6054 3ebe 6c74 8b3d 1bcb 0c3e
00000090: af6b bf3e 56dd 033e 0550 ffbe a052 c83e
000000a0: 5076 b63d 638d 193e 4432 07bf 8cc5 253e
000000b0: 7bd3 f0be 00fc 053f e4ad fabd 898a 83be
000000c0: 2182 b4be 4ab5 25be a274 88bd 258a 053d
000000d0: 8ec7 033e 3dd7 54be 6568 ccbd 8015 e0bd
000000e0: 0d23 be3e 2135 dbbe 8aae 783e bc14 e83e
000000f0: 6cf4 3abd 949a cc3e 3e1e 383d 19c2 663e
00000100: 0d67 cc3d 6ab0 0e3e 5d33 27be 17fd ab3e
00000110: da55 ac3d 2082 bc3d 6612 fb3e 082f b23e
00000120: 92b8 b0bd 04ef ab3e 86d8 36be 5515 9a3e
00000130: df9b 003d 59e1 f9bd b2a1 e73e c905 99be
00000140: d122 923d fbf1 e73d cfab 933e a706 c8bd
00000150: 4e59 ac3e 8d57 c8bc c8b2 45be e261 ad3c
00000160: 4a9c 80be d772 603d 5a2d 3e3e 5630 6a3d
00000170: 9b2b e43e 3947 e63d 9283 88bc 1b41 b7be
00000180: 0ecf c83e 4f0c 743d 1770 113f df58 afbe
00000190: d36d 91bd ef69 8fbd 2cf3 bb3e 20c1 eebd
000001a0: 849b 91be a921 1a3d 5c97 923e eff2 44be
000001b0: 8996 4abe 3c22 71be c32c b63e a32a 9c3d
000001c0: 9ee2 303e 215b 1ebd 98fb 253e 1a78 ea3e
000001d0: 0162 023e 2a07 d23e 1243 e93d aff0 94bd
000001e0: f684 fa3e e2b9 d93d 6336 fabd 3312 ffbe
000001f0: cae3 5e3e d4d2 eb3e 724a 123d cf02 9cbe
00000200: bff2 73bd 23c1 c93d 3ef2 97be f614 ba3e
00000210: 57ef 333e 24f5 bc3c e4f7 77be b290 a03d
00000220: 497f ccbd a0dc bd3e bc40 cd3d fa63 c03d
00000230: a3d6 8bbe 2cc0 b73d 66e4 3d3e c66e 933e
00000240: b5f6 42be e365 863d ad9e 7f3d 5352 babe
00000250: 11aa 83be 6041 bc3e 5cbb 483d 29d3 f43d
00000260: 731a c0be c3df c33d 4f4e d7bd 174e 873e
00000270: f2e0 b43d c68f 043f ae72 b7bd b71a d93d
00000280: b8ae 79be 3e5a 8bbe e545 9bbe 9019 37bd
00000290: 32cb c63c cdd1 d43e a2a5 10be 682f 86be
000002a0: 43b6 163e 5882 13be 10a6 f43e 92ab f8bd
000002b0: dccb 9b3c b5a7 dabd 4ea6 47be a499 6d3d
000002c0: 5e8a a3be de53 ba3e c149 983b 2a43 a33e
000002d0: b4d7 753e d309 3c3e c3c9 f13d 4163 073e
000002e0: 6a5c 93be 47a5 15be 67f2 9d3d 9c6d 92bd
000002f0: b2a6 e93e d2f7 4ebd 7fa2 17bd 2a7b 7ebd
00000300: 2bb7 823d 8abe a23d 026f 853e 5fce a4bc
00000310: b668 673e ec8f 6f3d 4cbb 8cbc d4e8 fc3e
00000320: 3afe 983e 1eb8 593e 06e4 f8be 0931 a4be
00000330: 1046 213d f21b b9bc 40cb 3f3d 0f97 99be
00000340: cf1f 753e 9bc2 3bbe 0abe 0a3e b517 d53e
00000350: 8a45 2e3e aab3 de3d 36f3 e33e 1c7b 8ebe
00000360: 085a 433d 2dbb 33be 54ea c1be d6c5 083e
00000370: cf7d 1a3f 69e3 83bd ba31 5e3e ee74 ba3e
00000380: 9921 943e fe48 13be e680 35be ba3b 1cbe
00000390: 89fa babb e2d9 d3be bd58 d13d 2506 503e
000003a0: acf8 de3d d225 763e a8d2 40be 6d48 56be
000003b0: 782a 973e b265 1d3c 3e4b 5ebe 8fdc 283e
000003c0: d9ea 883e 697d d63e b9d9 dcbe 4704 42be
000003d0: 8bee 71be bcc6 18be 710d 10bd 599f e93e
000003e0: 4f27 e83d 12de d33e fcc5 8abd 31e0 5ebe
000003f0: 7806 f13d 0f04 c93e 453c 303e b5d1 c6bd
-0.08162832 -0.346123 -0.39008346 -0.06589104 0.16908242 0.36829028 0.49556488 0.26958755
-0.35434297 -0.6527668 -0.08450248 -0.35473415 -0.2561823 0.34319884 -0.022073694 0.36473003
0.19115163 -0.3633274 -0.14562802 0.4226784 -0.009473286 -0.30919904 -0.05668357 -0.067440934
-0.40605053 -0.20572373 -0.24555713 -0.24986975 0.3419711 0.043438055 0.45127562 0.114205725
-0.057319067 -0.18586874 0.06809315 0.13749354 0.37386844 0.12877402 -0.49865738 0.39125538
0.08909285 0.14995341 -0.52811074 0.1618864 -0.47036347 0.52337646 -0.12240198 -0.2569163
-0.3525553 -0.16182438 -0.06662871 0.032602448 0.12869093 -0.20785232 -0.09980849 -0.10941601
0.37136117 -0.42813972 0.24285331 0.4532832 -0.045643255 0.39961684 0.044950716 0.2253498
0.09980593 0.13934484 -0.16328187 0.3359153 0.084148124 0.09204507 0.49037474 0.34801507
-0.08628954 0.33580792 -0.17856035 0.300944 0.03139865 -0.12201185 0.4524055 -0.29887226
0.07135547 0.11325451 0.28842017 -0.09766894 0.33661884 -0.02445581 -0.19306481 0.021164838
-0.2511924 0.05479702 0.18571988 0.057175003 0.44564518 0.112440534 -0.0166643 -0.3579186
0.3922047 0.05958205 0.5681166 -0.3424749 -0.071010254 -0.07002627 0.36708963 -0.116579294
-0.28438962 0.037629757 0.28631103 -0.19233297 -0.19783987 -0.23548216 0.35581025 0.0762532
0.17273948 -0.038661126 0.16209257 0.45794755 0.12732698 0.4102109 0.11389746 -0.07272469
0.48929566 0.106311575 -0.12217405 -0.49818572 0.21766582 0.46059287 0.035715528 -0.30470893
-0.059557673 0.09851291 -0.29677004 0.36344117 0.1757177 0.02306611 -0.24215657 0.078400984
-0.09985215 0.37082386 0.10022113 0.09394069 -0.27312192 0.08972201 0.18544158 0.2879545
-0.19039424 0.06562402 0.062407184 -0.36390933 -0.25715688 0.36768627 0.049006805 0.11954338
-0.3752018 0.095641635 -0.10512983 0.26426765 0.088319674 0.5178188 -0.0895742 0.106007986
-0.24383056 -0.27217287 -0.30326763 -0.044702113 0.024266813 0.41566315 -0.14125684 -0.26208043
0.14717965 -0.14405191 0.47782946 -0.121420994 0.019018106 -0.10676519 -0.19497034 0.05800785
-0.31941503 0.3639211 0.004647464 0.3188718 0.24008065 0.18363123 0.11806061 0.13221456
-0.28781444 -0.1461383 0.0771225 -0.071498126 0.4563499 -0.05052931 -0.037020203 -0.062129177
0.06382593 0.07946499 0.26061255 -0.020117937 0.22598538 0.058486864 -0.017179154 0.49396384
0.2988146 0.21261641 -0.48611468 -0.3206866 0.039373457 -0.022596333 0.046824694 -0.2999806
0.23937915 -0.18335955 0.13549057 0.4161965 0.17018715 0.10874112 0.44521493 -0.278283
0.047693282 -0.1755187 -0.3787409 0.13356718 0.6034822 -0.064398594 0.21698657 0.36417335
0.28931883 -0.14383313 -0.17724952 -0.15257159 -0.0057061356 -0.4137717 0.102220036 0.20314844
0.10887274 0.24037865 -0.18830359 -0.20926066 0.2952459 0.009606766 -0.2170839 0.16490386
0.26741675 0.41892555 -0.4313486 -0.18946944 -0.23626153 -0.14919561 -0.03516907 0.45629385
0.113356225 0.41380364 -0.06776044 -0.2176521 0.11768812 0.3926091 0.17210491 -0.09707967

actor.init_leaf_node_embed.0.add_bias._bias f4 [32, 1]
00000000: dd51 463c 4b46 c93c 6330 023c fc89 083c
00000010: f697 ebbd a11f 7a3c 63dc 0fbd 1fea d4bc
00000020: 3f47 a33d 7c71 0c3d f5ce 163d e34e f6bc
00000030: 8e2e b43a 3ea8 84bd 9885 053e a5d4 533b
00000040: 7321 22bd ba70 47bd 9227 2c3c da02 8dbb
00000050: c855 113d 7812 1f3d 1d99 f63d 4a65 abbc
00000060: c322 3f3c 7ab2 3b3c a577 bc3d f437 b2bc
00000070: 5273 e9bd 74f6 413b b0ae 42bb 0024 1bbe
0.012104479 0.024569651 0.007946107 0.008333679 -0.115035936 0.01526633 -0.035122287 -0.025990544
0.079725735 0.034287915 0.036818463 -0.030066913 0.0013746785 -0.06477402 0.13039243 0.003232279
-0.03958268 -0.04869149 0.010507481 -0.0043033184 0.035482198 0.038835973 0.12040923 -0.020922322
0.011666003 0.011456126 0.09202508 -0.021755196 -0.11398949 0.002959636 -0.0029706173 -0.15150452

actor.init_leaf_node_embed.2.module.weight f4 [64, 32]
00000000: 6052 603e 30f5 bb3e 892c 1a3e fa6b 0e3e
00000010: 84d3 84be 3a8c b03e 8aa0 9a3e e1a6 7cbe
00000020: 6ef4 473d 73f8 283e 7789 05bd 3d17 99bd
00000030: ee2c a2be ce51 15be fa77 233e c954 a03d
00000040: 956c 873e 81c2 1cbe ab39 853e 0337 953e
00000050: 9bb0 293f 2bbb 03bf 03e1 193f dfa4 cd3e
00000060: 7ff8 a93b 0c66 003d f9bb d3bb e1ff fa3e
00000070: cbe8 febd 3fe1 023e e1cf 653e a7fa a4be
00000080: 8ee8 72be 1cf6 15be ddd5 cabc 43dd 3cbe
00000090: 511e 96be f8ff 853e 053b 75be 00fd 7a3e
000000a0: bfec 8a3e 78f4 a2be d7c8 dc3d ac6a 18be
000000b0: daca 333e 31a3 263d 4768 523d 4cf2 ce3d
000000c0: c1b2 4d3e 0551 0a3e ec24 853d c1ad fdbe
000000d0: 1786 9bbe be16 073f b649 2b3e 077e 7b3e
000000e0: 306b 083e 398b 2e3e 6b20 f93d 8b9e 03bd
000000f0: afd8 a83d dcad 21bc ff1f 843e 27a0 33be
00000100: d317 91bd e1ff a73c 33c2 873d 1cab b0be
00000110: 4202 9e3d 4bc5 f3bd ac86 f7bd 88dd 13bd
00000120: 53aa 98be 92d0 d73e 3a46 5c3d 7a5d 8e3d
00000130: 6bad 7cbe f240 393d 2136 193e 9986 fd3d
00000140: a965 b2be 2df9 4ebe c9a4 fb3d 3a53 243d
00000150: 7b6f 91bc becb 963d 0cc5 063e e1ca 153e
00000160: fad0 b13e bbb7 bbba ba04 443e beb4 7abb
00000170: 8c4d 20be 1cd7 243d 5d85 04bf 4c9a 0ebe
00000180: 7629 56be 14d1 323d 351d c3be 0f9b eb3e
00000190: 2a2b a9be 242d 843e cc2f 1fbe 76f8 013e
000001a0: 8441 223c e78a 173e ed02 253e 9636 a53d
000001b0: ae36 1d3f aa24 84be bb1c a1bd 47cc 03bd
000001c0: 9cdf 40be 97b4 aa3e af44 c33c 34c7 883d
000001d0: 3421 ddbe 3206 b13c def6 e6bd d00a a3bd
000001e0: 2ee6 d03c 8a4e c7bc f5c4 7c3e 30e5 3a3e
000001f0: 4884 4a3e 7300 debd b3c9 8bbd ef21 2b3e
00000200: fa06 85be a864 c1be efb1 9ebe 6559 17be
00000210: 9d07 de3b 174d 90be 6ebe 60be 2a1a 51be
00000220: c643 1ebf fe97 993e 1d95 793d 7963 92bb
00000230: 3277 cf3e d1be 7ebc a563 74be f576 2e3e
00000240: 6401 473d 79a9 bbbd b575 a0be 0400 4cbe
00000250: 613a 8d3d d682 4f3e 4bc9 053e f4f4 17bd
00000260: 95ac 28be 172c 363c 4e66 10bd d3af b2bd
00000270: 36dc bcbd eb67 6cbb 5fcc 00bc 06fb 0ebe
00000280: 5d35 9fbd 0a32 193e 7cbf 2fbe f7ce bbbe
00000290: a170 123e bc35 003e 3aba c23d f0fb 07be
000002a0: ae76 9dbe 4466 09be 5293 1f3d 7ca6 593d
000002b0: e25d 31be c5fa 62be b6f2 d23e c8d2 6bbe
000002c0: 5e01 553e b414 903c 8ac5 043d be3e 3dbd
000002d0: a6a0 ac3d 2d3c 98bd 3d14 0dbe ccda 8dbe
000002e0: 7fa7 5cbe 665e 8fbc 2c73 363d 54da 933e
000002f0: e314 5bbd 3cdc 47bd f08e b7bd 51bf 2fbd
00000300: dab4 88be 2856 c3be 5fed cdbe f38b 9abd
00000310: d148 2dbe 70c3 e2bd 007a 393c d15d 7fbc
00000320: f71f 72bc c226 17be 1ed2 423d d1ca 12be
00000330: a2c5 a73e b893 ea3d 246b 3dbe 0f6e 4cbe
00000340: 72cd 17be f602 e03e 84aa 8d3d 626a bfbd
00000350: 041b eb3d 6a5a 723e b0ab 14be e6ce d83d
00000360: 3955 0b3e f491 8e3e c80d 62be 9c6f debc
00000370: ed6e 1b3e fa56 803c 8ebb a3be 6034 5d3d
00000380: e077 943d 47ae ae3e 1b74 90be af2b 91be
00000390: c482 f7be 7f82 15be f8fb 393e 543f 93be
000003a0: 2a1e a0bd 1c62 0dbd 27a2 953b e6de 9bbe
000003b0: e90d 623e fac8 a8be 96a5 f0be f5b0 f63c
000003c0: 517d 59be e0db 043e 3753 58bd be22 41be
000003d0: c472 80bd 9400 2a3f 1c65 73bd d449 a1be
000003e0: b001 8bbd 37b4 593d 95e2 3fbe 9c5e 8ebe
000003f0: 91cc 3f3e a8c7 c0be 1c76 093e 092b 1ebd
0.21906424 0.367105 0.15056051 0.13908377 -0.25942624 0.34481984 0.30200607 -0.24673034
0.04881709 0.16501026 -0.0326018 -0.074751355 -0.31674904 -0.14581987 0.15963736 0.078286715
0.2645003 -0.15308572 0.2602056 0.29143533 0.66285104 -0.5145747 0.60108966 0.4016485
0.0051870937 0.03134732 -0.006461617 0.49023345 -0.124467455 0.12781237 0.22442581 -0.32222483
-0.23721525 -0.14644665 -0.024760181 -0.1844378 -0.29320005 0.2617185 -0.23948295 0.24510574
0.27133748 -0.3182714 0.10780495 -0.14884442 0.1755785 0.040682975 0.051368978 0.10104808
0.2008772 0.13507469 0.06501183 -0.49546626 -0.3037574 0.52769077 0.16727337 0.24559794
0.13322139 0.17045297 0.12164386 -0.03213362 0.08244454 -0.009868111 0.2580566 -0.17541562
-0.07084622 0.020507755 0.066288374 -0.34505546 0.077152744 -0.11902865 -0.120862335 -0.03609994
-0.29817447 0.42151314 0.05377791 0.06951423 -0.24675529 0.045227952 0.14962055 0.12379188
-0.34843186 -0.2021224 0.1228729 0.040118434 -0.017753353 0.073630795 0.13161105 0.14628173
0.3472975 -0.0014321724 0.19142428 -0.0038254703 -0.15654582 0.040244207 -0.51765996 -0.13926047
-0.20914254 0.043656424 -0.3810822 0.46016738 -0.33040744 0.2581569 -0.15545577 0.12692437
0.009903315 0.14799081 0.16114397 0.08067052 0.6141156 -0.25809222 -0.07866808 -0.032177236
-0.188353 0.33340904 0.023836462 0.0667862 -0.43189394 0.0216094 -0.11277555 -0.07961047
0.025500383 -0.024329443 0.24684508 0.1825149 0.19777024 -0.108399294 -0.068255804 0.16712163
-0.25981885 -0.37772107 -0.30995128 -0.14780195 0.00677581 -0.28183815 -0.21947643 -0.20420137
-0.61822164 0.29998773 0.06093322 -0.0044674245 0.40520626 -0.015548424 -0.23866136 0.17037566
0.04858531 -0.09163184 -0.31339803 -0.19921881 0.068959005 0.20264754 0.13065068 -0.03709884
-0.16472085 0.01111891 -0.035253815 -0.08724942 -0.092216894 -0.0036072682 -0.007861226 -0.13962945
-0.0777385 0.14960495 -0.17162889 -0.3668134 0.14300777 0.12520498 0.09508176 -0.132797
-0.30754608 -0.13417917 0.038958855 0.053137287 -0.1732097 -0.22165973 0.412008 -0.23029625
0.20801303 0.017587997 0.03241495 -0.046202414 0.08429079 -0.074333526 -0.13777252 -0.2770599
-0.2154827 -0.017501067 0.04454343 0.2887751 -0.053486716 -0.048794016 -0.0896281 -0.042907063
-0.2670048 -0.3815167 -0.40220162 -0.075462244 -0.16922309 -0.11072433 0.011320591 -0.015586332
-0.014778129 -0.14760879 0.047563665 -0.14335181 0.3276797 0.11453956 -0.18497902 -0.19963859
-0.14824465 0.4375226 0.06917289 -0.09346463 0.11479762 0.23667303 -0.14518619 0.10586338
0.13606729 0.27845728 -0.2207557 -0.027152829 0.15179034 0.015666474 -0.3197903 0.054005027
0.07249427 0.34117338 -0.2821358 -0.2835364 -0.48341954 -0.14600562 0.18162525 -0.28759253
-0.07818253 -0.034517393 0.004566449 -0.30443496 0.22075619 -0.32965833 -0.47001332 0.030113677
-0.2123921 0.129745 -0.052813735 -0.1886091 -0.0627189 0.6640713 -0.059422597 -0.3150164
-0.06787431 0.053150382 -0.18738778 -0.27806556 0.1873038 -0.37652326 0.13423961 -0.03861526

actor.init_leaf_node_embed.2.add_bias._bias f4 [64, 1]
00000000: 3dd1 853e faa6 053e 254b 2c3d e2f4 a23b
00000010: 9da7 3dbe 7742 b23c 2dc2 56be 39d9 99be
00000020: e384 3bbe c0c1 25be 7ac1 863e 2c5e 1abe
00000030: cbd8 c33d a39d e3bd ac32 ccbd 490c 95bd
00000040: 3fef 1c3e f25e 03be 16c1 9ebe 524d 13bd
00000050: 298a 353d ae5c b03d 10af 203c cd58 983d
00000060: 6300 713e 1f6d 5cbd 8c6d abbc 8b7d 87bd
00000070: 0e28 24be 3c08 bd3d 9d87 1bbe a381 bdbc
00000080: b60d c53d a31a 6abd 9c04 36be d992 183e
00000090: 7ec6 643e dfc6 cbbc 96f0 25bd 9bde 0cbe
000000a0: 1cac 8b3d e261 f9be 0ac5 413e a75e 5d3d
000000b0: 5696 1ebe ecf7 48bd 719b febd 3acf 2dbd
000000c0: f5d2 71be 62d9 323d bbd0 54bd c6ea 44bd
000000d0: 9f49 e53d 2ddb 12be ceca 47be 3f25 fc3d
000000e0: 485a c5bb a8c5 7cbe 3313 543e afac 8cbe
000000f0: a92f e13d 060b f0bd d936 943d 706e 303c
0.261362 0.13051978 0.04206385 0.00497304 -0.1852097 0.021760209 -0.2097251 -0.3004854
-0.18312411 -0.16187191 0.26319486 -0.15074986 0.09562834 -0.11114051 -0.099706024 -0.07277734
0.1532564 -0.12829188 -0.31006688 -0.03596241 0.044321213 0.08611427 0.009807363 0.074388124
0.23535304 -0.053815003 -0.02092626 -0.06615742 -0.16030905 0.09230086 -0.15188451 -0.023133105
0.09621756 -0.05715431 -0.17775196 0.14899768 0.22341344 -0.024875103 -0.040512644 -0.13756792
0.06819937 -0.4870749 0.1892282 0.054045346 -0.15487036 -0.04906456 -0.12431992 -0.042433955
-0.2361563 0.043664344 -0.051956873 -0.04807546 0.11195683 -0.14341421 -0.19510958 0.12311792
-0.0060227253 -0.24684775 0.20710449 -0.27475497 0.109954186 -0.117208526 0.07237024 0.010768518

actor.init_next_embed.0.module.weight f4 [32, 6]
00000000: ec4f 113e b261 17be d209 99be 811c 8bbe
00000010: e591 babd 7e46 51be e71e 463c 51ff c7bd
00000020: 0851 3f3e 8a6e 12be 4060 22be 93f0 4ebe
00000030: f5c0 b93e 0d16 89be 7bfc 83be 2df1 9fbd
00000040: 3bf6 c0be e292 e63e 25e2 f63b fffb 143d
00000050: 9595 07bd edc9 e13e 46c6 e2be 4db7 b1be
00000060: 7f0e e03d 5213 d8be 941b febd bf41 84be
00000070: 2089 cfbd 080d 2dbe b278 8bbc ccc5 13bf
00000080: bf29 913e f035 39bf 9e27 13be c9c6 143e
00000090: 2ead 343f 8cc7 d23d 905a 913d f8cc 5fbe
000000a0: 4d66 51be e536 28be 9d01 b3bd c359 c93d
000000b0: b652 153e 355f a33d b2b6 9ebe 7962 373e
000000c0: a803 cfbe 7928 17bf 3854 7a3e 205f d93d
000000d0: dd09 b73f 382d 51bf 6385 e53d 8da0 95be
000000e0: 02a6 3abe ce0e 993d da6c a1be 5659 d3be
000000f0: b0c9 a8be 3678 3a3e 4412 843c 5ee7 c13e
00000100: 92bb 803e b3b2 edbe d04f 083f a37c efbc
00000110: 382d b1bc b0fb ef3d ce71 223d 70d9 033c
00000120: a6e7 b7be 917e 06bd 6350 153e 28b7 513c
00000130: d676 6abe ab88 afbe 47c0 d33d 0aa8 153c
00000140: 5446 fe3d c7dc c33d e20b e7bd b543 a9be
00000150: 7edb 943f 2d89 69be da14 83be d0a5 06bf
00000160: 6776 8dbe 1b4f 0a3e 664d 9e3b 103a 82bd
00000170: 696d 98be 5221 b6be b347 ebbc a673 9b3e
00000180: 9bff 8cbe cc78 0bbd 7749 e6bd 5c25 01be
00000190: 4f48 d1be 244f dc3d 62bf 113f 30f0 4ebd
000001a0: 52bc 493e fa24 86be 139d 85bd ea1c 6dbc
000001b0: 94e8 58bd 3d85 933e 1918 6a3e 28ea 983c
000001c0: 453d 1abd 1da3 973e ffbc 523f 65fe 793e
000001d0: eba9 b7be 1ffe 71be 01a6 c33d 999f 383e
000001e0: 65ef 863e 5055 d63c 59e4 14bd b91d 0cbe
000001f0: c1ce 86be 183b 1b3e 763e 1c3d e210 58be
00000200: 23e0 37bf 3a15 e7bd f836 f9bd f307 863b
00000210: acef e73d a445 17be a075 c7bd 5f33 003e
00000220: 1f19 b8be 734b 343d b6f2 503f 0e27 88be
00000230: 3362 a93e 3ab1 0bbf 1c5f 303e 0ca0 223f
00000240: 20ef c63f 5fdc cbbd 22d6 3abe d988 debe
00000250: 3a02 4fbd 901f 833e cb1b 313e b767 923e
00000260: a8c0 83bd ec3c 38be 8ee1 34be 1f04 c0be
00000270: 75d3 a33b 93fe a3be 6c75 393e c587 70bd
00000280: 08fb 6cbe f15e c3bc fd3b 00bf a3c9 c3be
00000290: 824f 41be 7ad5 5abe 8796 523e 8c3b 1fbe
000002a0: 0320 1c3f 6597 523e 0aec 9bbc a0b8 94bf
000002b0: cbd3 b4bd 8899 0b3e cac2 563e ab43 6c3e
000002c0: cef5 afbe 641b 4cbf 7a09 bfbd f4e1 a83e
000002d0: 4199 25be a4b2 84be ec67 973e 5ce8 32bd
000002e0: b521 91bd 0dcc da3d e181 e23d 89e3 67be
000002f0: 9db3 f0be 852a d6be 1a99 20be fbe4 3d3d
0.14190644 -0.14783362 -0.29890305 -0.27170184 -0.091098584 -0.20437047 0.012092329 -0.097654946
0.18683255 -0.1429998 -0.15857029 -0.2020896 0.36280027 -0.26774636 -0.25778565 -0.078096725
-0.3768786 0.45033938 0.0075342827 0.036373135 -0.033101637 0.4409937 -0.44291896 -0.3471016
0.10940265 -0.4220224 -0.12407604 -0.2583141 -0.101335764 -0.16899502 -0.017025325 -0.5772369
0.28352162 -0.7234793 -0.14370582 0.14528956 0.7057675 0.10291967 0.070973516 -0.21855533
-0.20449181 -0.1642719 -0.08740542 0.09831574 0.14582333 0.07977144 -0.3099876 0.17908658
-0.40432477 -0.5904613 0.2444619 0.10613847 1.4299885 -0.81709623 0.11207082 -0.29224053
-0.1822739 0.07473527 -0.3152836 -0.41279095 -0.32966375 0.1820992 0.016121991 0.37871832
0.25143105 -0.464254 0.53246784 -0.029234236 -0.021628007 0.117179275 0.039659314 0.008047447
-0.3591892 -0.032835547 0.14581446 0.0128000155 -0.22896895 -0.34283957 0.10339408 0.009134302
0.12415758 0.09563594 -0.11281563 -0.3305947 1.1629484 -0.22806235 -0.25601846 -0.5259676
-0.27629396 0.13506739 0.004831004 -0.06358731 -0.29770973 -0.35572296 -0.028720712 0.3036167
-0.27538761 -0.034050748 -0.11244481 -0.12611908 -0.4087548 0.107572824 0.5693265 -0.05052203
0.19700745 -0.26200086 -0.065241 -0.014472226 -0.05295618 0.2881259 0.22860755 0.018666342
-0.037656087 0.29616633 0.82319635 0.2441345 -0.35871825 -0.23632096 0.09553147 0.18029632
0.2635452 0.026163727 -0.03635058 -0.13683213 -0.26329616 0.15159261 0.038145505 -0.2110019
-0.7182638 -0.112833455 -0.121686876 0.004090303 0.11325011 -0.1477266 -0.09739232 0.12519597
-0.35956666 0.044017266 0.8162035 -0.26592296 0.33082733 -0.545673 0.17223781 0.6352546
1.5541725 -0.09954142 -0.18245748 -0.4346378 -0.050539233 0.25610018 0.17295758 0.28594753
-0.06433231 -0.1799199 -0.17664167 -0.37503144 0.004999573 -0.32030162 0.18111199 -0.05872323
-0.23142636 -0.023848983 -0.50091535 -0.38239774 -0.18877986 -0.21370497 0.20565234 -0.15550059
0.60986346 0.20565565 -0.01903345 -1.1618843 -0.08829459 0.13632786 0.20972744 0.23072688
-0.34367222 -0.79729295 -0.093279794 0.3298489 -0.16171743 -0.25917542 0.29571474 -0.043678626
-0.07086507 0.10683451 0.11059929 -0.22645392 -0.47012034 -0.41829315 -0.15683404 0.04636095

actor.init_next_embed.0.add_bias._bias f4 [32, 1]
00000000: 634b 1c3e 7cc8 263b 465d 99bd 1aa7 af3c
00000010: 3d4c 0d3c 6204 80be e835 c83d 7c71 99bd
00000020: b2fd 75be ab13 173d 74fc 51be 139f 9f3e
00000030: 2f74 93bc 8606 fa3d 681c b63e 3c5e b53e
00000040: 28ef 56bc 4a47 69be 40a4 37be 80dd a93e
00000050: 20e2 fabd 44e4 3d3d 6dd4 89be b761 36bd
00000060: 8c4e ae3e 5012 3abd a252 edbd ad8d c43c
00000070: ebbf 1f3d 9e15 2c3e e5eb 453e e0ce fe3d
0.15263133 0.0025449088 -0.074884936 0.021441985 0.008624134 -0.25003344 0.09775907 -0.074923486
-0.24022558 0.03688399 -0.2050646 0.31176051 -0.017999737 0.122082755 0.35568547 0.35423458
-0.013118543 -0.22781101 -0.1793375 0.33176804 -0.12250161 0.04636027 -0.2691988 -0.044526782
0.34044302 -0.04542762 -0.115880266 0.023993338 0.039001387 0.16805121 0.19328268 0.12441802

actor.init_next_embed.2.module.weight f4 [64, 32]
00000000: 989a 873d 01fd d2bd 12e8 45bb 45e0 363e
00000010: c1ac 153e 9ad2 a93d 7526 77be 482d 68be
00000020: 76e5 30be b0fd 9e3e 27d7 a83d 9aa1 19bf
00000030: 1d5f bb3d f3b1 863e 583e dcbd 7363 e2be
00000040: a623 19be ce60 843d 74aa 7dbc a564 a8be
00000050: b164 823d 63f6 4abd b104 f2be e7db d6be
00000060: 563e 1bbf 66cc b23e 14ad 2ebe b7f8 c2bd
00000070: 714a c83d e4ce de3c f387 573d ec51 59be
00000080: 7cf6 793e c711 73bd bfa2 3bbd 1848 8ebd
00000090: 22af b8bd b5e6 27be fecd 38be 6104 cf39
000000a0: 8a51 cf3e 8f9f 213d 8e92 f43e a3d2 8a3e
000000b0: 6cb2 cabc 9e72 c6bd 5105 2ebe f6c0 2ebd
000000c0: a5f5 383e 8945 a13c 6024 9ebd 5f12 0e3f
000000d0: 696c 2e3e 2c74 cc3c d074 753d c231 27be
000000e0: 64ca 12be baa0 603e 5ddb a9bb 3b9b a4be
000000f0: 0379 e1bd 9071 e63c a7e6 76bd b12b 1dbd
00000100: 3a73 02be ff23 053d 54eb 1d3e e036 0cbe
00000110: 744b 7ab9 633f 503e 4bd1 b2be 1007 b3be
00000120: 85dc 9abe 50f6 11be cd94 233d 0051 4a3e
00000130: 7981 b53d eb83 86be 738c 2cbf 48c3 4e3d
00000140: 7b35 6bbe 042d 833d 7ff0 3a3e 6098 84bc
00000150: e123 a4bd 814d a1bd 6103 51bd b39a 5a3e
00000160: 0746 ecbe cb9b ce3d 7274 53be beed 31be
00000170: b20c 01bf 8557 15bf f542 aabe 7f62 d3bd
00000180: f7f5 1abd 7b3d 1b3e 3480 a53e 0c6b bdbd
00000190: 8583 9ebe e15c cf3c 2e6c aebe 718c 023e
000001a0: cbff a7bd bc2c 743e 671e adbe 1b2e 123e
000001b0: 7160 e03d 603f 533e 51a4 9dbe fdd0 92be
000001c0: 5c08 27be a00f 513e 882c 043d 5343 a6be
000001d0: 9c60 83bc 4e34 a53d 70f6 273e 4ce7 353f
000001e0: 8538 c3be 3102 ddbe cc93 c0bd 75fd a1be
000001f0: ea57 d0be 8e91 8fbe 3011 f13d 3547 88be
00000200: 7b8f 3abe 13f1 c6be 98c0 fabd a8ec 7b3e
00000210: 64d9 f13d 104a 2dbe 3802 0abe c1aa adbd
00000220: 942b 073e bd54 f8bd b2ff 7dbe 3186 a9bd
00000230: 48ab efbc dfe6 3e3d 8104 9a3d 0586 86bd
00000240: 2a80 293e af34 1d3e eeca 17be 36fc 80be
00000250: 5dc2 2fbe 3465 bc3d 446f 1b3e 1a1f 2c3e
00000260: 550d 213e 69ac bfbd 911d e33e 7695 553e
00000270: 1ea6 75be 2cc8 38be 3ef0 99bd acc9 7fbd
00000280: 75c4 05bd 8727 c9bb 8139 70bc b57f e1bd
00000290: 1fe5 ae3e 675a 563e a592 c23d f31e 113e
000002a0: 7721 4b3c c291 5d3e 7cbd 1e3d 5ca6 083f
000002b0: e307 2f3d fde9 a73e a874 6e3d b5fa df3e
000002c0: df22 f4bc d66c a53e e55b e13d de4f 263f
000002d0: eb2e 363d 1e02 0abd a2be 863e 3462 e4bd
000002e0: ff35 fc3e 6648 a4bd ad46 953d 006d af3e
000002f0: d05e 02be 07bb 6bbe ed7a 443e e2ab a0bd
00000300: 049a e7bc eda4 173e 1d58 8dbc a452 3a3e
00000310: c145 91bd 0715 d93c 5538 47be 6c1c a7be
00000320: cfe3 263e 01d5 663e d189 943d 5a61 1d3e
00000330: 21c2 e53c d237 e33c 27a7 56be fd2b 2ebe
00000340: 2bff afbc 9eaf 2c3e 75e8 59be fb79 3fbe
00000350: 71ef 4f3e bb7b 8fbe 97fc 2b3e fd9f ddbc
00000360: e98e b9be a0be 973d 8a97 203d 7eb3 61be
00000370: 81a1 65be b1ba 84be f559 4a3e c38c 8bbe
00000380: d726 1ebe c3ef e53c 3378 80bd 3d5a d83c
00000390: 7000 673e ae05 97be 363e 2bbe 5631 49be
000003a0: c144 da3d e521 ebbc 9b68 b73e bbb2 833e
000003b0: e9aa cd3d ed93 9f3e e08e c63e 228b f93e
000003c0: 8e40 8d3d 2d23 b33e e98e 503e 1d6c 0d3e
000003d0: a8b5 aabe 114f 2c3c 8bc1 28be cdd3 f13e
000003e0: 6bd8 b83e 95ed c83c ef58 bc3d 75e0 bebd
000003f0: feb8 f53d 77c3 6e3e e780 d53d 4b96 a63e
0.06621283 -0.10302163 -0.003019814 0.1785899 0.14616682 0.08292122 -0.24135764 -0.22673523
-0.17275032 0.31052923 0.08244162 -0.6001221 0.09149001 0.2630764 -0.107540786 -0.442165
-0.14955005 0.064637765 -0.015482534 -0.32889286 0.063668616 -0.04955138 -0.47269204 -0.41964647
-0.6064199 0.3492157 -0.17058212 -0.09520095 0.097798236 0.027198263 0.052619886 -0.21222657
0.24410433 -0.059343126 -0.045809504 -0.069473445 -0.09017779 -0.16396601 -0.1804733 0.0003948538
0.40491897 0.039458808 0.47768062 0.27113828 -0.024743281 -0.0968983 -0.16994216 -0.04266449
0.18062456 0.019686477 -0.07721782 0.5549678 0.17033543 0.024957739 0.059925854 -0.16327575
-0.14335018 0.21936312 -0.005183621 -0.3214968 -0.11009409 0.028130323 -0.06027856 -0.038371745
-0.12739268 0.03250503 0.15421802 -0.13692808 -0.00023869966 0.2033668 -0.34925303 -0.34966326
-0.30246368 -0.14254117 0.03993683 0.19757462 0.088625856 -0.2627252 -0.6740181 0.050479203
-0.2296962 0.064050704 0.18255804 -0.01618594 -0.08014656 -0.07876111 -0.051028613 0.21348076
-0.46147177 0.10088309 -0.20649889 -0.17375848 -0.50409997 -0.5833667 -0.3325421 -0.10321521
-0.037832227 0.15160172 0.32324374 -0.09248933 -0.30959716 0.025312843 -0.3406691 0.12748887
-0.082030855 0.2384519 -0.33812258 0.142754 0.10955895 0.20629644 -0.30789426 -0.2867507
-0.16311783 0.20416117 0.03226903 -0.3247324 -0.016037278 0.08066617 0.16402602 0.71056056
-0.38129058 -0.43165734 -0.0940319 -0.31638685 -0.40692073 -0.28040737 0.117708564 -0.26616827
-0.18218796 -0.388558 -0.122437656 0.24601996 0.11809042 -0.16922784 -0.13477409 -0.08479834
0.13200217 -0.121255375 -0.24804571 -0.08277548 -0.029256478 0.046606895 0.0752039 -0.06568531
0.16552797 0.15352128 -0.14823505 -0.25192422 -0.17163987 0.091989905 0.15179163 0.1680874
0.15727742 -0.093590565 0.44358495 0.20857796 -0.2398915 -0.1804511 -0.07516526 -0.06244819
-0.03265806 -0.006138745 -0.0146621475 -0.11010686 0.3415918 0.20932923 0.095006265 0.14171962
0.012398115 0.21637633 0.038754925 0.53378844 0.04273213 0.32795706 0.05821672 0.43745962
-0.029801784 0.32309598 0.110038556 0.6496562 0.04447834 -0.033693425 0.26317316 -0.11151543
0.49259946 -0.080216214 0.07288871 0.34262848 -0.1273148 -0.23020564 0.19187517 -0.07845284
-0.028271683 0.14809008 -0.01725393 0.18195587 -0.070933826 0.026499284 -0.19455083 -0.32638872
0.1629784 0.22542192 0.07252849 0.15369168 0.02804667 0.027736578 -0.20962201 -0.17008968
-0.021483978 0.16863868 -0.21280082 -0.18698876 0.20306183 -0.28024086 0.16795574 -0.027053827
-0.36241844 0.07409406 0.03920702 -0.22041127 -0.2242489 -0.25923684 0.19760878 -0.2725583
-0.15444504 0.028068429 -0.06272926 0.026410216 0.2255876 -0.2949652 -0.1672295 -0.19647726
0.10657645 -0.028702686 0.35821995 0.25722298 0.10042364 0.31167546 0.3878088 0.48738962
0.068970785 0.34987774 0.20367016 0.13810773 -0.33341718 0.010516898 -0.16480081 0.47231904
0.36102614 0.02452735 0.0919665 -0.093201555 0.11998175 0.23316751 0.10424977 0.3253654

actor.init_next_embed.2.add_bias._bias f4 [64, 1]
00000000: 92f0 49bf 5615 b9be 6d2b 18bf c899 bfbe
00000010: 7e46 f5bd af32 533f 050a 0bbf a53a b73e
00000020: 1d42 a23f dd54 08bf 8352 10bf eb05 353e
00000030: 736c 773f e515 a7bf 6d75 75bf cee2 89bf
00000040: 165d 2bbf 7e6b 4d3f 528c a03e b103 93bd
00000050: b9e8 edbd 6cae afbe ae91 7fbf ea28 8a3e
00000060: 43dd ffbf 5c67 04bf ba0d c3be 3fa9 6ebf
00000070: 44ce b13e 5bff f53d eca6 4cbf cb57 62bf
00000080: 00f1 d9be 797a 343f f5a9 22be ec42 3abf
00000090: 5b47 be3f 48db 123f f692 67be 0d18 363e
000000a0: 46f5 c3bf ec63 953f 993b f7be 4a91 c0bf
000000b0: a073 9e3e 6c4e 8c3f 56dc 603f 395b 133f
000000c0: 128d adbe f4ed eb3e b1bf 023f a628 323f
000000d0: 2088 a63e 559b a7be 07e8 4d3e c6bf 28bf
000000e0: 087d 10bd acae d83e 2bdc 1bbf 0f41 9f3e
000000f0: 39d7 543f 92ec 0e3f 3d67 693d 8a32 7b3e
-0.78882706 -0.3614909 -0.5944126 -0.37422013 -0.11976336 0.8249921 -0.54312164 0.3578693
1.2676426 -0.5325449 -0.563759 0.17678039 0.96649855 -1.3053557 -0.958823 -1.077234
-0.6693891 0.80242145 0.31357056 -0.071784385 -0.11616654 -0.3431276 -0.99831665 0.2698434
-1.9989399 -0.51720214 -0.3809641 -0.93227 0.3472768 0.12011596 -0.799422 -0.8841521
-0.4256668 0.7049938 -0.15885146 -0.72758365 1.4865526 0.57365847 -0.22614655 0.17782612
-1.5309227 1.1671119 -0.48287657 -1.5044339 0.3094759 1.0961432 0.87836206 0.5756107
-0.3389669 0.4607998 0.5107375 0.69593275 0.3252573 -0.32735696 0.20108043 -0.65917623
-0.03527549 0.42320764 -0.60882825 0.31104323 0.83140904 0.5582973 0.05698322 0.24530998

actor.embedder.layers.0.0.module.W_query.weight f4 [64, 64]
00000000: 9f80 803d 6ae8 a3bd fd74 143e 465f 21be
00000010: e13d c5bc 15b4 d9bd 5b18 02be 925c c2bd
00000020: 9393 0d3e 6b16 e6bd 6eba 093e 8ec7 e13a
00000030: f164 0d3d 1bbf 903c 1839 ce38 3b20 abbc
00000040: 1565 ae3d 07ce 1a3d 8347 d0bc 10a9 a33d
00000050: 4d75 0c3d f0dc adbd c995 f33d 2c54 593e
00000060: 828d 18be 1a20 1c3e 0647 523d af14 1cbd
00000070: 749b bd3b 71bd 333e d579 fcbc 16ba 633d
00000080: 8519 033e f43a 2dbd 0c14 4abe 3a0f cc3d
00000090: 526c 2abc c77b 223e 8e3c c03d dafb dbbd
000000a0: 5668 db3d d053 2b3c 47d3 30bd ed92 283e
000000b0: 28ab b9bd 693c eabd dcd7 2b3e 5b03 67bd
000000c0: 62fb f1bd c299 abbc 39f3 f4bc c1f4 95bd
000000d0: a32f 95bd e342 1c3d 7fda 89bb 95de 4bbd
000000e0: 34ec 513d 4361 0abe 9fee 4d3e e79e a6bd
000000f0: b621 32bd 9aad b5bd e456 77bd 39e3 9bbd
00000100: 411a 88be d652 2abe 5f42 f0bd 2e17 c6bd
00000110: 8be3 fcbc 6cf8 05be 6961 ff3d 6023 2a3e
00000120: d14a 5f3e e6da 223d 8bda 15be 8914 29bd
00000130: 553a 1e3e cf9f 48bc d303 31bc e1c6 aabc
00000140: 26c1 73bd 9eb8 f83d 7810 5f3d 4f79 783e
00000150: 0803 3e3d ba95 b6bd 6ceb 84bd 9de3 36be
00000160: b6a6 29be 511a cbbd 93f8 3a3e 71ce 673c
00000170: dc1d 063e 8bc0 c6bd d581 003e 2af2 3ebc
00000180: 3908 bdbd 7187 bfbd d7af 9e3c 34d1 47bd
00000190: 1579 91bd 2935 28be 944a 1dbe 3a68 cdbd
000001a0: a390 0dbe 6fb1 5d3e 58fa 32be 90f7 ea3b
000001b0: 109a 3c3e 4019 9fbd c231 16bc 7196 233e
000001c0: 03ae fa3d 8948 a0bd 1ae3 13bd 2eb8 2bbe
000001d0: f905 febd e687 f83d 89ac 27bd 3d68 5cbe
000001e0: 583f 35be 2f51 983e 107e 1cbe 6f6e 8d3e
000001f0: e69e 95bd ad16 013e 9337 0fbe ffb0 073e
00000200: 0631 51be 1cb6 423c 5524 b43c 79c6 613d
00000210: 7078 013e 7dfc c6bc 9908 c7bd 591e 003d
00000220: b17d ccbc 20d8 df3c c1fc 5abd 83c9 10bd
00000230: e2bb b83d 7190 213d c5b5 213d d7b9 013e
00000240: ce56 2e3d 5514 dd3d 4af8 de3d e33d 943d
00000250: 4a68 973d c7c6 0e3d 4d45 f7bd 4b5e c0bd
00000260: becc 8dbd c78e a1bd 26dd 463d 0772 4dbd
00000270: 5f5c 0bbb 93df c63b a22c c5bc 3fde 063b
00000280: 5daf 1fbd 0443 5dbd 4d8a f7bc 9faf 533c
00000290: 0e11 bc3d dd83 293d cf0a a43c 9227 e13c
000002a0: be09 5d3d 769e 5e3d e8a1 d53b 6ef2 913c
000002b0: f38f 6b3d ae2b bebd 5907 1a3e 70fe 253e
000002c0: 6581 afbd 3ff4 47bd bac8 4d3d 7e48 c23c
000002d0: 86ed 11bd e8fa f13c 4c52 8ebc 0bf0 e73c
000002e0: 89ed 46bc 754a 8d3d e45e f2bc 24b4 cbbc
000002f0: e82c 0ebe 996f d6bc 618c b2bd 7bb2 9cbd
00000300: c882 babd 0103 293d e8de ffbb 6918 c83d
00000310: 172e 123e 3197 153e e5cc 293d 9612 a6bd
00000320: eb3b 9c3c 2447 17bc bbbf 80bd 15dd 56bd
00000330: 6283 16be cca2 9a3c f6ca 803d 9122 1a3d
00000340: ee37 43bd 1e8c ce3c 9a3e 0c3d caa3 8e3d
00000350: 3232 0ebe 1d0f 3d3d bcbe c43c 6b89 04bd
00000360: 9773 26bd c790 9d3d 0433 05bd ec77 eb3d
00000370: d8a0 7a3d 3b9c 21bd 2edf bc3d b0c2 5fbd
00000380: e0eb e1bc 6c71 52bd 00a4 1fbc 212c 303e
00000390: e777 9fbd c1cc 903c 0630 703d dfba 083d
000003a0: baf0 aabd f3bb 913d 6785 2d3e be1d 64bb
000003b0: 1fdf b43d 6521 e4bd d741 dd3d 6bbf abbd
000003c0: e6f2 8dbd 0288 843d bd08 cd3d 509e 86bd
000003d0: 667f 0f3e 93dd 953d 3c69 c53d dd12 1c3d
000003e0: 0fac 493e b111 b3bd 7866 30bd dbe2 cbbc
000003f0: 9d44 0dbe 6c62 f2bd a584 9a3c 729e eebd
0.062745325 -0.08003314 0.14497752 -0.15759 -0.024077358 -0.10630051 -0.12704603 -0.09490313
0.13825826 -0.11234745 0.13450024 0.001722561 0.034520093 0.017669251 9.83348e-05 -0.020889392
0.085153736 0.03779414 -0.025424724 0.079912305 0.034291554 -0.08489406 0.118938036 0.21223515
-0.14897731 0.15246621 0.051337264 -0.038105663 0.0057863537 0.17552735 -0.030819813 0.055597387
0.12802704 -0.04229255 -0.1973421 0.09963842 -0.010401802 0.1586753 0.0938655 -0.10741396
0.1071326 0.010456994 -0.04317024 0.16462298 -0.090658486 -0.114373036 0.16781563 -0.056399684
-0.118155256 -0.02094734 -0.029901134 -0.07322074 -0.072844766 0.038149726 -0.004206955 -0.049772818
0.05125065 -0.13513665 0.20110558 -0.08135777 -0.04348918 -0.088710025 -0.0603856 -0.07611699
-0.2658253 -0.16633162 -0.11731409 -0.0967239 -0.03087022 -0.13083047 0.124697514 0.16615057
0.21805884 0.03975954 -0.14634149 -0.04127935 0.1545194 -0.012245133 -0.010804134 -0.020846786
-0.059510373 0.12144588 0.054459065 0.24265026 0.04638961 -0.08915277 -0.06490216 -0.17860265
-0.16567501 -0.09917129 0.18258886 0.014148341 0.13097328 -0.097046934 0.12549527 -0.011654416
-0.09230084 -0.09352005 0.019370956 -0.048783496 -0.07103173 -0.16426529 -0.1536048 -0.10029645
-0.13824706 0.21649717 -0.17478311 0.007170625 0.18418145 -0.07768488 -0.009167137 0.15975358
0.12240221 -0.07826335 -0.036105253 -0.16769478 -0.12403483 0.121352956 -0.040936027 -0.21524139
-0.17699945 0.29749438 -0.15282464 0.27623317 -0.07305698 0.12606306 -0.13986044 0.13251112
-0.20428857 0.011884239 0.02198998 0.05512092 0.126436 -0.024290318 -0.09718437 0.03127894
-0.024962278 0.027324736 -0.0534637 -0.035348427 0.09020211 0.03944439 0.03947999 0.12668549
0.042563252 0.10794894 0.10887201 0.072383665 0.073929384 0.034857538 -0.12073765 -0.09392985
-0.06923817 -0.07888561 0.048550747 -0.050157573 -0.0021264774 0.0060691326 -0.024069134 0.0020579246
-0.0389856 -0.05401899 -0.030217314 0.012920289 0.091829404 0.04138552 0.020024685 0.027484689
0.05396437 0.05435034 0.006519545 0.017815795 0.057510328 -0.09285675 0.15041865 0.16210341
-0.08569602 -0.048816916 0.050240256 0.023716208 -0.03562691 0.029538587 -0.017373227 0.028312704
-0.012141594 0.06898967 -0.029586263 -0.024866171 -0.13884318 -0.02617626 -0.087181814 -0.0765123
-0.09106976 0.04126263 -0.007808555 0.09770281 0.14275394 0.14608456 0.04145517 -0.08109014
0.01907154 -0.00923327 -0.0628657 -0.052456934 -0.14698556 0.018876456 0.06288712 0.03763062
-0.04766076 0.025213297 0.03423939 0.06964834 -0.13886335 0.04615699 0.02401673 -0.032357614
-0.04063758 0.0769363 -0.032519355 0.11497483 0.06118855 -0.039455634 0.09222256 -0.054629028
-0.027578294 -0.0513777 -0.0097436905 0.17204334 -0.077865414 0.01767576 0.05863955 0.03338134
-0.08346696 0.071159266 0.1694542 -0.0034807767 0.088316195 -0.11139182 0.108035736 -0.083861195
-0.06931095 0.06471254 0.10011432 -0.065731645 0.14013442 0.073176526 0.096392125 0.038103927
0.19694541 -0.08743609 -0.04306647 -0.024888447 -0.13795705 -0.11835179 0.018862078 -0.11651315
