logs/experiment/Discrete_A2C_1-5Box_10x10x10Bin-2022.08.09-15-00-00/PCT-Discrete_A2C_1-5Box_10x10x10Bin-2022.08.09-15-00-00_2022.08.09-20-27-52.pt (torch, 236314 bytes, 24 tensors)

actor.init_internal_node_embed.0.module.weight f4 [32, 6]
00000000: de94 04bf 082e e73c 70a7 26bf 9e15 523d
00000010: 4eb6 50be 23ac ce3c 8669 8fbd f5e1 193e
00000020: 4e3b b3be 727e 84be 2b8d bbbe 8fd6 d6be
00000030: fe14 c7bd 0026 7b3d 236b 473e 9c09 733e
00000040: 37ce d83d 040b 2dbf f90b a73e c0ab 52be
00000050: 7e8d 943e 842b 04bf 870b debd 26b5 203f
00000060: 3f7d a6bd 654c bfbe 8ce5 2d3e 3c86 943d
00000070: 8f06 8f3e f96c 523f 653b 0bbd 36b3 853d
00000080: 1826 703e 66ed 893c 88d2 89bd a830 79be
00000090: d61e 9d3f fa93 cdbe 763c 50bf e5fa acbf
000000a0: 8ed4 203f da12 323f bc3b babe d46a aebe
000000b0: b35e 5f3d 8559 59be f46a 8e3e 6d83 163f
000000c0: 35fb d7bd 7c27 d53e c5ef 1c3f 1f5c 51be
000000d0: b94d 7bbe 228f a83e 4658 cf3e c1d5 87bd
000000e0: b66d 063f 1878 91bd ad56 80bd fa5c 0fbd
000000f0: 91e9 e5be 8af4 a2be 24b7 a0be 5a8d fb3e
00000100: 6dba 943e 18ea 95be 6dbc eabd 2bbf 273f
00000110: 3945 f0be 6679 143e d6d8 26bf 2f98 eb3e
00000120: 6bea af3e 07a4 17bf 40dc 80be b26d 633e
00000130: af88 8abe 5523 393e a81e 3d3e 9f81 7d3e
00000140: 593b abbd 3a31 92be 6bb8 23bd ac9f 0bbe
00000150: 7930 883e 6d55 bebb c71b b63a 860d 1abe
00000160: f5ee 90bb 4eec 063d addd ac3e a5bc f4bd
00000170: 894e a43e ce34 77be 1382 4cbe fcd5 833e
00000180: 8017 febe 4dec 07bf a484 b8be 50cc c1be
00000190: 2f54 ffbd d72e 8ebe 4024 673c 18d9 1d3e
000001a0: d315 a33e 599a a1bd c614 acbc d35c 88bb
000001b0: 6bc6 cabd 4b3d 34bf 92c7 2cbf 2172 86bd
000001c0: 2cc3 22be dc77 1ebe c00d 723e 8fa0 c1bd
000001d0: 0b52 4ebf bf1d 98bd 5421 a4bd 3683 d23e
000001e0: 4f7c c83c 9a8b 6dbe f611 4bbc b718 d3be
000001f0: bee7 2fbf ce78 d43d c280 9fbd eb31 cbbe
00000200: 4bc8 25bf 194f 953d 4871 953e 5281 1c3f
00000210: 0f5e b3be 7e0c bf3c 19d3 4bbf b582 9e3e
00000220: cfa1 fb3e 8a74 c43c 7745 e03d 97ed 3dbd
00000230: 9c48 dcbe 17d7 28be 905f dbbe ebf2 0ebf
00000240: ea01 243e 4b20 19be 5b58 3c3f 4c43 4dbc
00000250: 296e 063e dcbe ccbd 0d81 ad3d 300b 88be
00000260: 6c38 0dbf 7cbf 563e 2c63 ca3e a901 07be
00000270: 5e8a 1a3f 3eba 1b3d b8d9 5d3e 1618 3c3e
00000280: a6a8 26be 2944 73be c6f7 b53e 9350 1b3d
00000290: 12c6 65be 9a3f e53e 1776 953d 27f2 ecbd
000002a0: d880 d5bd 2fc9 61be 184e 0a3e 3571 093f
000002b0: 311f ff3e 1e2d 50bf 5c17 843e 08ba 6dbe
000002c0: 03c7 c5be 4955 a1bd b3a8 ae3d 88c6 c9bc
000002d0: 0c7b a6be 47ec cebe 0e7e aa3f 0d6f d7bd
000002e0: 0284 64be 03ef e43d f8ab 6c3e a46d 993d
000002f0: 11a1 b8bd 82fd 7a3d b305 1ebe a490 e4bd
-0.51789653 0.028220192 -0.6509924 0.051290147 -0.20382044 0.025228566 -0.07002549 0.15027602
-0.35006183 -0.2587772 -0.3663114 -0.4196057 -0.09720801 0.061315536 0.19474463 0.23734134
0.10586207 -0.67594934 0.32626322 -0.2057333 0.290142 -0.516289 -0.108420424 0.6277641
-0.081293575 -0.37362972 0.16982096 0.07252166 0.2793469 0.8219753 -0.03399219 0.065283224
0.23452032 0.016836833 -0.06729609 -0.24334967 1.2275035 -0.4015196 -0.81342256 -1.3514067
0.6282433 0.69560015 -0.363737 -0.34065878 0.05453367 -0.21225555 0.27815974 0.5879429
-0.10545961 0.41631687 0.6130336 -0.20445298 -0.24541368 0.32921702 0.40497035 -0.06632567
0.52511156 -0.07102984 -0.06266532 -0.03500078 -0.4490476 -0.31827193 -0.31389725 0.4913128
0.29048482 -0.29280162 -0.114617206 0.65526074 -0.46927813 0.14499435 -0.65174615 0.46014544
0.34358534 -0.5923466 -0.25168037 0.22209814 -0.27057406 0.18079884 0.18468726 0.24756478
-0.08360929 -0.28553182 -0.039970797 -0.13635129 0.26599482 -0.0058085234 0.0013893776 -0.15044221
-0.004423017 0.0329402 0.33762875 -0.119500436 0.32091168 -0.24141237 -0.19971494 0.25749195
-0.49627304 -0.5309494 -0.36038697 -0.3785119 -0.124672286 -0.2777011 0.014107764 0.15414846
0.31852588 -0.078907676 -0.021006 -0.004161456 -0.099011265 -0.70406026 -0.6749202 -0.06564737
-0.15894765 -0.1547541 0.23638058 -0.09454452 -0.8059394 -0.074275486 -0.08014169 0.4111573
0.024473337 -0.23197785 -0.012394419 -0.41229793 -0.68712986 0.10374604 -0.077882305 -0.39686522
-0.6475875 0.07290477 0.2918799 0.6113483 -0.350327 0.023321386 -0.79618984 0.30959097
0.49146888 0.023981351 0.10950749 -0.04636916 -0.43024147 -0.164883 -0.42846346 -0.55839413
0.16016355 -0.14953725 0.7357232 -0.012528252 0.1312796 -0.09997341 0.0847188 -0.26571035
-0.5516422 0.20971483 0.39528787 -0.13184227 0.6036738 0.03801941 0.21665084 0.18368563
-0.16275272 -0.2375647 0.355406 0.03791864 -0.22438839 0.44775087 0.072979145 -0.115696244
-0.104249656 -0.22049402 0.13506353 0.53688365 0.49828485 -0.81318843 0.25799072 -0.23215497
-0.38628396 -0.07877595 0.085282706 -0.0246308 -0.32515752 -0.4041464 1.3319719 -0.10519228
-0.22315982 0.111784 0.23112476 0.074916154 -0.09015096 0.06127692 -0.15431862 -0.111604005

actor.init_internal_node_embed.0.add_bias._bias f4 [32, 1]
00000000: 93ea 543c 8f12 a8be ab2e b3bb 444b b4bc
00000010: 1cf6 153e 0544 1f3d 85c5 c93b ddd8 09bc
00000020: 4edc 353d b290 d73d 0209 e73b 85b1 843c
00000030: 8fe8 c8ba 7194 9c39 2669 58bc 82c2 f13c
00000040: 8332 96be 1e5d 75bd 4bfb 2b3d c993 ec3a
00000050: 98eb 83be 9065 693d 3b41 4c3d c262 ef3d
00000060: 4eaf 0b3d dd9a 613b 244a d23b 2843 903d
00000070: f890 de3c 05e7 41bd 39b5 923d a126 8fbd
0.01299538 -0.3282666 -0.0054682097 -0.022008546 0.14644665 0.038883228 0.0061575794 -0.008413521
0.044399552 0.10525645 0.0070506344 0.01619793 -0.0015328097 0.00029865236 -0.013208663 0.029511694
-0.29335412 -0.059903257 0.0419877 0.0018049415 -0.2576568 0.056981623 0.049866896 0.116887584
0.03410273 0.003442458 0.0064175297 0.07044059 0.027168736 -0.047339458 0.07163472 -0.0698979

actor.init_internal_node_embed.2.module.weight f4 [64, 32]
00000000: d850 f73d b9fe 2c3e 158f 15be 087f f33d
00000010: d7e6 763c 5e17 ea3d 422e fd3d 5c75 053f
00000020: 812a 923e 9a14 eabd 3dad 503f 70ad 333e
00000030: 72de 363d 069f 3dbe 80e9 31bf 0a2e 953e
00000040: bc3d cabc f811 713e 58ba f23c b79a 583e
00000050: 9eca 66be a6d1 2a3e 0fdd 8f3f a86e 02bd
00000060: 8b73 123f 7cec 513e be94 333e e08b 923e
00000070: e7ce bd3d 1fb0 30bc 13fa 40be cf1a f83c
00000080: ce11 ac3e 0e49 b73d 1986 07bf 067a fcbe
00000090: 0d23 dabc 909b 783e e050 ae3d ce8a b7be
000000a0: a028 5dbe 2c74 413e 14f2 e53e a35e 013e
000000b0: a6c0 cc3e af71 cf3c 5e14 1abd 6ea1 743e
000000c0: cf94 64bd ebde cbbd baaa f8bd d2c8 16be
000000d0: 0fe1 2c3d fe17 ac3e 37b8 6e3f 6475 a93e
000000e0: 65a3 56be ed8c 113e 48f6 a63c a39a a83d
000000f0: cb82 2e3f 0405 3b3e 2d83 493e e801 bbbc
00000100: 9781 87be 4a7a 003c 0fd2 063f 9e41 203f
00000110: 96f8 0b3f 585b e1bb 0923 a9be 0e7c 873f
00000120: 1631 84be 47c9 a0be 987c fabe 3197 47bf
00000130: 62f9 a93d 6340 733e d783 093f af2d 16bf
00000140: 6171 b1bd ac9d 803d 442c 333d 6937 cfbe
00000150: 08fb 00bd d78e f93e f600 abbd 7ed1 6ebe
00000160: c722 d5bd f9d2 5fba 4a66 1b3d ee35 b73b
00000170: d85f 873e fabd 29be 9f5a 623e 6926 073e
00000180: b572 78bb c1ba 60be 962c b7bc 610a f53e
00000190: 8d4f f43d ae75 133b ca80 233d bee6 503e
000001a0: d25f 233d 57cd 2fbd e93c 613d 2b1a edbd
000001b0: b0a1 98be 1a7b 9b3d c060 b0be c943 9bbc
000001c0: b10a e13d 7b64 99be 8240 fe3d d8ce 813d
000001d0: d504 87be fa9a 1f3f 9558 19be 7c0b 893e
000001e0: d0ab 573e a433 643c 7b3e f73d 685c 9f3e
000001f0: 2955 203e d7c1 34bd 15d2 a3be 00e3 553e
00000200: 3db4 9c3e 16f8 00be dccf 61be b8b8 c33d
00000210: a2af 13bf 5968 e5bd 42b1 f23e 3513 02bf
00000220: bffa 1bbf ff54 fc3e 15e5 d83e 588d c13e
00000230: 4510 2ebd 4dfa 44be a331 9f3e 8c0f 46bd
00000240: 4577 95bb 20eb 0cbe 54bd 2abc f861 d53d
00000250: 308c 16be 0933 de3e 5e92 4e3e 0df4 47bd
00000260: 4f86 50be addf 783e bf75 8e3e 2f11 e23d
00000270: 64bd 153f 8d86 813d decc 3c3e 893c 08be
00000280: d38e 8dbe 42ad cebd 98ff 4dbd b573 9ebc
00000290: 4670 613f 1013 8dbe ba11 78be 9051 9e3e
000002a0: 1832 4e3e 16aa 54bd 60c3 543f 0c0e b0be
000002b0: d37b 1dbd ed19 41be 0714 193c 8745 9a3e
000002c0: bfe2 5d3e d280 693e 3d45 a0bd d877 1f3d
000002d0: 421e 35bd 06e2 863d 54fc c13e d31f 19bf
000002e0: 969a 5bbb 6b0d 8b3e f57c 6f3e 6d58 e43e
000002f0: 2062 083c 0c2a ecbd 93a9 e4bc dc28 2c3e
00000300: 2cd6 9f3e 6279 463c 371d 153e 4066 e1bc
00000310: af07 f23e 90db 433d fea0 51be 3320 273e
00000320: 8096 093d 3d99 72be 9ed4 a93e 53aa 5dbe
00000330: ffdd 9bbe 7d40 44bc 241d 893e bb78 f9be
00000340: ec46 403c f552 a9be 5478 9c3d f13c 16bd
00000350: 1c6b ad3b 37cc b23d 85da bf3a 795e 693e
00000360: 1fb5 d8bd 7e6e b63d 5bd6 48be f6ea ea3e
00000370: fb1c b1be a1b0 b13d ea0a eabe 6134 76bd
00000380: 1bb5 f3bd e097 fbbd acb3 f2be c887 a6be
00000390: 338d b6be 21f3 9ebc 694f 2a3e 2252 2fbd
000003a0: 3ed2 363e ff54 a73e 28ae e83e ea86 e83e
000003b0: 3f4d 47be dbd3 a43d 9c10 5cbe 3ab6 59bd
000003c0: d8a8 7cbd 521c 3cbe a59f 563e 5598 463e
000003d0: 5b8d 073d 448f ddbe 3a1a 263f 8e58 6ebb
000003e0: 781a 18bf 34f9 053e 0803 babe f9b5 ebbe
000003f0: 5ae9 2e3f 0bfe 433e 5472 c23e a6d0 ddbd
0.120759666 0.16894044 -0.14605363 0.11889464 0.015069685 0.11430238 0.123623386 0.521322
0.28548053 -0.11429711 0.8151434 0.1754663 0.044645734 -0.18517694 -0.6949692 0.29136688
-0.02468764 0.23542011 0.029629871 0.21152769 -0.2253823 0.16681537 1.1239337 -0.03184381
0.57207555 0.20500368 0.1753721 0.2862234 0.09267979 -0.010784178 -0.18845396 0.03028622
0.33607334 0.08949481 -0.5293899 -0.49311846 -0.026628042 0.24278092 0.085115194 -0.35848087
-0.21597528 0.18891972 0.44911253 0.12633757 0.3999073 0.025322763 -0.03761708 0.23889706
-0.055805977 -0.099546276 -0.121419385 -0.14725044 0.04220682 0.33612055 0.9324984 0.33097374
-0.20960768 0.14213915 0.020381108 0.082326196 0.68168324 0.18263632 0.19678946 -0.022828057
-0.26466057 0.007841656 0.52664274 0.62600124 0.5467619 -0.006877344 -0.33034542 1.0584733
-0.258187 -0.31403562 -0.48923182 -0.77965075 0.08299519 0.2375503 0.53716797 -0.5866346
-0.086642034 0.062800735 0.043743387 -0.40471962 -0.031489402 0.4874179 -0.08349793 -0.23322102
-0.10407024 -0.0008538212 0.037939347 0.0055911457 0.2644031 -0.16576377 0.22104882 0.13198246
-0.0037910168 -0.21946241 -0.022360127 0.4785948 0.119292356 0.0022500562 0.039917745 0.20400521
0.039886303 -0.042920437 0.05498973 -0.11577257 -0.29810858 0.07591839 -0.34448814 -0.01895322
0.10988367 -0.29959473 0.12414648 0.063382804 -0.26370874 0.6234585 -0.14975198 0.26766574
0.21061635 0.013928328 0.12072464 0.31125188 0.15657486 -0.044130173 -0.31996217 0.20887375
0.3060626 -0.12594637 -0.22051948 0.09556717 -0.5768987 -0.11201543 0.47400862 -0.5081056
-0.60929483 0.49283597 0.42362276 0.3780315 -0.042495985 -0.19236107 0.31092557 -0.04835467
-0.004561337 -0.13761568 -0.010421116 0.10419077 -0.14701915 0.43398312 0.20173022 -0.04881673
-0.20363735 0.24304076 0.27824208 0.11038434 0.5849211 0.06324492 0.18437526 -0.13304342
-0.2764803 -0.1009164 -0.05029258 -0.019342283 0.8806194 -0.27553606 -0.24225512 0.30921602
0.20136297 -0.05192002 0.8311062 -0.34385717 -0.038448166 -0.18857546 0.009343154 0.3013117
0.21668528 0.22803047 -0.07825706 0.03893265 -0.04421831 0.06586079 0.37887824 -0.59814185
-0.0033508888 0.27158675 0.23387511 0.44598714 0.008324176 -0.11531457 -0.02791289 0.16812462
0.31218088 0.012113901 0.14561926 -0.027514577 0.47271487 0.047816813 -0.2047157 0.16320877
0.033590794 -0.23691268 0.33170027 -0.21647005 -0.30442807 -0.011978266 0.26780045 -0.48724923
0.011735659 -0.33071104 0.07640138 -0.036679212 0.0052923094 0.08730357 0.0014637267 0.22789945
-0.10581421 0.089077935 -0.1961302 0.45882386 -0.34592423 0.086762674 -0.45711452 -0.060108546
-0.118997775 -0.12284827 -0.47402704 -0.32525468 -0.356546 -0.019403042 0.16631855 -0.042802937
0.17853639 0.32682034 0.4544537 0.4541543 -0.19463061 0.08048221 -0.21490711 -0.0531523
-0.06168446 -0.18370178 0.20959337 0.19394048 0.03309379 -0.43273365 0.6488377 -0.00363687
-0.5941539 0.13083345 -0.36330438 -0.46037272 0.68324816 0.19139878 0.3797785 -0.10830812

actor.init_internal_node_embed.2.add_bias._bias f4 [64, 1]
00000000: fb21 353e 668f 9a3e 8df5 58bd 86de a13d
00000010: 8e22 1e3e a31c 963e 35cf 2a3d d013 e53d
00000020: 9925 a3bd 44f6 c6bd b83c c63b f082 3c3d
00000030: 62ea 78bd 0205 a33d f8ef 0f3e f668 173e
00000040: 745a 683c b81c 48be de27 b13c f7a0 ac3d
00000050: d8ad 1abc 5dcc cb3c 33c1 68bd 10a2 92bd
00000060: 171a 013e 5915 2fbd 8f2c 28bd ac55 2a3d
00000070: 29ed c8bd f678 b1bb c796 8c3c fd9c c7bb
00000080: 1ffc 9f3d 2d77 e73c f3f3 8c3e e740 88bd
00000090: 04d4 af3c f4ab 14be 7602 0cbd e110 4b3e
000000a0: 759f 3ebd a349 7fbe 7568 1a3e 5843 28bc
000000b0: 33d4 07be 5793 4abd 99cc 97be f65e 89be
000000c0: 75f8 8a3e fdb6 683c 91b4 c43d ca95 8a3d
000000d0: b4b2 9fbc 3d3f 6dbc c4fa 2dbd cba3 563e
000000e0: 42b6 683e ddee 9ebd 4053 463c 7710 413d
000000f0: a363 643d 35f9 e13d 24b9 2cbd 82cc 953c
0.17688744 0.3018753 -0.05296855 0.07903771 0.15442869 0.29318723 0.041701514 0.111854196
-0.079661556 -0.0971494 0.0060497187 0.04602331 -0.0607704 0.079599395 0.14056385 0.14786133
0.014181722 -0.19542205 0.021625455 0.08429139 -0.009440862 0.024877721 -0.056824874 -0.07159817
0.12607609 -0.042744968 -0.04105812 0.04158561 -0.0981086 -0.005416031 0.01716174 -0.0060917125
0.0781176 0.02825507 0.27529868 -0.06653004 0.021463402 -0.1451872 -0.034182034 0.19830658
-0.04653879 -0.24930434 0.1507891 -0.010269962 -0.13264541 -0.04945692 -0.29648283 -0.26830262
0.27142683 0.014203784 0.09604753 0.06766851 -0.019494392 -0.014480409 -0.042475477 0.2096092
0.22725776 -0.07760403 0.012104809 0.047134843 0.055759083 0.110338606 -0.04216875 0.018285993

actor.init_leaf_node_embed.0.module.weight f4 [32, 8]
00000000: be8b 9bbd 5790 afbe f3e6 c9be 82eb 95bd
00000010: 3dc0 2c3e 39f8 bd3e aeba fd3e 6107 8a3e
00000020: e6cf cdbe 6d54 2fbf b95e 8dbd 0759 a1be
00000030: de62 73be cb67 aa3e e4d3 b4bc e5bd ba3e
00000040: 7914 4d3e 63e5 c0be 2989 00be a963 d13e
00000050: 7007 393b 436e a2be 082d 68bd 791e 8abd
00000060: 1359 cebe 3a9c 48be 49f9 77be fcc1 81be
00000070: b070 aa3e 64fb 383d 990d e73e b1e4 e93d
00000080: 36bf 11bd a4e7 32be 2eeb 953d 0c62 df3d
00000090: c812 bf3e 8e82 063e 0550 ffbe a052 c83e
000000a0: 37a6 c13d 4edf 163e 92d2 08bf 010a 213e
000000b0: 8c57 eebe 6e4d 063f e4ad fabd 898a 83be
000000c0: e210 c3be 9d1e 37be 9d14 82bd 41fa 043d
000000d0: 60dd 8f3d b621 4cbe 6568 ccbd 8015 e0bd
000000e0: 2444 c33e 90d6 e1be 5dfc 843e abf6 e73e
000000f0: 4f53 0dbd a8e7 c63e 3e1e 383d 19c2 663e
00000100: 013e d63d 8e0a 003e cd5b 2cbe 9489 ac3e
00000110: ec7a cb3d c108 af3d 6612 fb3e 082f b23e
00000120: 6e4d b6bd 1863 ab3e 87f9 37be 09d6 9a3e
00000130: 63d7 ff3c b9e5 f5bd b2a1 e73e c905 99be
00000140: efd3 533d 744f c33d 5aa2 8e3e 700a 8bbd
00000150: dc64 b33e b891 f8bc c8b2 45be e261 ad3c
00000160: 2862 91be 13c8 023d e182 3c3e 9ac8 bd3d
00000170: 6142 ef3e 0ab7 c63d 9283 88bc 1b41 b7be
00000180: f124 c73e a3e6 9b3d fa50 113f b22b afbe
00000190: 6557 b1bd 17c7 84bd 2cf3 bb3e 20c1 eebd
000001a0: a796 57be 88cd fb3c 93aa 843e fe28 0dbe
000001b0: 2b50 8ebe 4c78 5cbe c32c b63e a32a 9c3d
000001c0: 3c68 333e 2537 a8bc ee93 253e 5ff1 e73e
000001d0: 33ed f03d 904e d23e 1243 e93d aff0 94bd
000001e0: 4a5f 013f 3d0f 103e ff1c efbd 71cc 06bf
000001f0: 332b 413e 9432 f23e 724a 123d cf02 9cbe
00000200: 95ef 4fbd a662 ac3d 4771 93be 1d6f b63e
00000210: 5aac 443e 1792 843c e4f7 77be b290 a03d
00000220: c579 afbd 18e4 bf3e 9645 e13d 4cee a13d
00000230: 2a3f 8cbe 53d2 b83d 66e4 3d3e c66e 933e
00000240: aad4 52be 12ff 4e3d c06a 8a3d 7bd9 b5be
00000250: 0be2 71be c5b5 b73e 5cbb 483d 29d3 f43d
00000260: ca51 c6be a9db 0f3e 3cfa c2bd 4f12 8e3e
00000270: e396 473d 1433 053f ae72 b7bd b71a d93d
00000280: 3cc5 78be a7e7 8abe b77f 9dbe 708b 40bd
00000290: baec e33c 2683 d53e a2a5 10be 682f 86be
000002a0: b4ca 053e 1083 13be 97ba f83e b34f e2bd
000002b0: 483e a93c 0eab e4bd 4ea6 47be a499 6d3d
000002c0: 4244 a8be 9334 b53e 4eaa 843c 9312 a33e
000002d0: a990 7d3e e6ec 383e c3c9 f13d 4163 073e
000002e0: a656 98be dd20 14be 57e4 8f3d 61da 95bd
000002f0: 0929 e73e 801b 2fbd 7fa2 17bd 2a7b 7ebd
00000300: 281b 6f3d 4615 ab3d 3c37 813e b135 b2bc
00000310: 768a 643e 67bd 843d 4cbb 8cbc d4e8 fc3e
00000320: 2b0f 9a3e dc37 523e 6365 fdbe a606 a5be
00000330: 9209 4b3d f576 b0bc 40cb 3f3d 0f97 99be
00000340: 93e7 763e 00f2 30be 9db8 ee3d bb52 d53e
00000350: d7cf 1d3e a5d3 f53d 36f3 e33e 1c7b 8ebe
00000360: a1e0 083d 2860 31be cd33 c4be 18ac 123e
00000370: fc4d 193f bbab 7cbd ba31 5e3e ee74 ba3e
00000380: 3216 9e3e 13ef 20be d001 f0bd 7736 e3bd
00000390: d57f edbc 72bf d0be bd58 d13d 2506 503e
000003a0: cd2d e53d b911 7b3e 260d 3fbe d26a 58be
000003b0: cf0c 953e 7c53 293c 3e4b 5ebe 8fdc 283e
000003c0: 2f93 933e 3ea1 f23e a13f 03bf 148d 03be
000003d0: b7be 59be c57e 2fbe 710d 10bd 599f e93e
000003e0: 02ea e13d bc1d d83e 3c4e 82bd 7c9d 5ebe
000003f0: c564 e53d 0e79 c83e 453c 303e b5d1 c6bd
-0.07595013 -0.3428981 -0.39434013 -0.0732031 0.16870208 0.3710344 0.49556488 0.26958755
-0.40197676 -0.684882 -0.069028325 -0.31513235 -0.23768184 0.33282313 -0.022073694 0.36473003
0.20027341 -0.37675008 -0.12552322 0.40896347 0.0028233193 -0.31724748 -0.05668357 -0.067440934
-0.40302333 -0.19590846 -0.24216188 -0.2534331 0.332891 0.04516162 0.45127562 0.114205725
-0.035582744 -0.17471176 0.073202476 0.10907373 0.37319016 0.1313574 -0.49865738 0.39125538
0.09455531 0.14733621 -0.53446305 0.15726472 -0.46551168 0.524619 -0.12240198 -0.2569163
-0.38098818 -0.17882772 -0.06351588 0.032465223 0.07024646 -0.19934735 -0.09980849 -0.10941601
0.38137925 -0.4410901 0.25973788 0.4530538 -0.034503277 0.38848615 0.044950716 0.2253498
0.10461045 0.12504026 -0.16831894 0.33698714 0.09935555 0.085465916 0.49037474 0.34801507
-0.08901487 0.3347404 -0.17966281 0.3024142 0.031230634 -0.12006707 0.4524055 -0.29887226
0.051715788 0.09536639 0.2785824 -0.067891 0.35037887 -0.030342922 -0.19306481 0.021164838
-0.283952 0.031929087 0.18409301 0.09266777 0.4673033 0.09702881 -0.0166643 -0.3579186
0.38895372 0.0761235 0.56764185 -0.34213024 -0.08659247 -0.06483286 0.36708963 -0.116579294
-0.21053563 0.030737653 0.25911388 -0.13785169 -0.27795538 -0.21530265 0.35581025 0.0762532
0.17520231 -0.020534107 0.16169712 0.4530134 0.11763992 0.41075563 0.11389746 -0.07272469
0.50536025 0.14068313 -0.116754524 -0.526557 0.18864135 0.47304213 0.035715528 -0.30470893
-0.050765593 0.08417253 -0.2879736 0.35631648 0.19206372 0.016182942 -0.24215657 0.078400984
-0.085681476 0.3747871 0.109996006 0.0790678 -0.2739194 0.09024491 0.18544158 0.2879545
-0.20588937 0.050536223 0.06758642 -0.35517487 -0.23621385 0.35880867 0.049006805 0.11954338
-0.38734275 0.14048637 -0.09520385 0.27748343 0.04872788 0.52031064 -0.0895742 0.106007986
-0.24293989 -0.27129862 -0.307615 -0.047007978 0.027822841 0.4170162 -0.14125684 -0.26208043
0.13065606 -0.14405465 0.48579857 -0.11050358 0.02065958 -0.111654386 -0.19497034 0.05800785
-0.32864577 0.35391673 0.016194489 0.31850109 0.24762215 0.1805912 0.11806061 0.13221456
-0.29753608 -0.14465661 0.07025974 -0.07317043 0.45148495 -0.042750835 -0.037020203 -0.062129177
0.058375508 0.08353667 0.25237453 -0.021754118 0.22318444 0.06481438 -0.017179154 0.49396384
0.30089697 0.20529121 -0.49491414 -0.32231635 0.049569674 -0.021541098 0.046824694 -0.2999806
0.24111776 -0.17279816 0.11656306 0.4166468 0.15411316 0.120032586 0.44521493 -0.278283
0.033417348 -0.17321837 -0.3832077 0.14323461 0.5988462 -0.061687212 0.21698657 0.36417335
0.3087631 -0.157162 -0.11719096 -0.11094373 -0.02899162 -0.4077106 0.102220036 0.20314844
0.111903764 0.2451848 -0.1865736 -0.21134499 0.29111335 0.010334846 -0.2170839 0.16490386
0.2882323 0.47388643 -0.51268965 -0.12846786 -0.21264158 -0.17138202 -0.03516907 0.45629385
0.110309616 0.42210186 -0.06362578 -0.21739763 0.11200861 0.39154857 0.17210491 -0.09707967

actor.init_leaf_node_embed.0.add_bias._bias f4 [32, 1]
00000000: 2227 3f3c 9d29 ee3c e316 be3b a148 023c
00000010: 42a4 efbd 5dc0 773c bac2 4bbd cf2c d6bc
00000020: edba 9f3d c248 103d 5f16 243d 3b1d f3bc
00000030: b66b dd3a 60f8 4fbd e708 043e 718f 3d3a
00000040: 15e4 22bd 9672 46bd 5aa3 3e3c 18c5 6dbb
00000050: 27c8 143d 4d9e 213d be90 f63d c889 adbc
00000060: cdea 473c 4cb3 4a3c a404 bb3d 9728 adbc
00000070: d3eb d6bd d562 433b cf4e 0e3c 78d4 1bbe
0.011667045 0.029072577 0.005801068 0.007951886 -0.117012516 0.015121547 -0.049746253 -0.026144413
0.07799325 0.035225637 0.040060397 -0.029677024 0.0016893062 -0.05077398 0.12894021 0.0007231152
-0.039768297 -0.04844912 0.011635626 -0.0036280807 0.036323693 0.039457608 0.12039326 -0.021183863
0.012201977 0.012371849 0.091317445 -0.021137519 -0.10494199 0.0029813547 0.008685782 -0.15217769

actor.init_leaf_node_embed.2.module.weight f4 [64, 32]
00000000: e149 173e bea4 023f 4ea9 333e 1a1c a23e
00000010: d6b6 73be c46d d63e 85ca 9b3e 94ac 84be
00000020: 0f9b 413a df6c 393e fbde 823c 19d5 68bb
00000030: 2504 adbe 62be 0bbe 7a88 033e 34c0 cd3d
00000040: 6e6d 343e 6f6a 0bbe d503 ec3d f93f a63e
00000050: 10e7 223f 83ca e6be c4aa 213f 51cb b13e
00000060: 4585 0c3d 877e ca3b 0775 8dbc 0960 b13e
00000070: d07e 06be 3251 363e e931 f03d 0530 9bbe
00000080: d9d9 d7bd b2df 87be 12b1 37be 1dca 2abe
00000090: 735e 88be 6f45 a73e 54f0 6bbe 28a1 6b3e
000000a0: e362 a53e ba63 a7be 46ee a83d a48b eabd
000000b0: a4e3 913e 9ae2 313d 3325 683d ef9e 703d
000000c0: 9347 2b3d 1cfb 283e 132a 693d 475d f2be
000000d0: 08c3 dbbe 9ff3 173f e65c 4a3e f5d4 823e
000000e0: 9896 d23d 95d0 0f3e 7d9e f73d 1d8f 3bbe
000000f0: 8823 ae3d bb48 a73d f419 653e b434 3bbe
00000100: 0180 b6bc 2ec8 a43c e10a 603e 4f5b c1be
00000110: ad21 1e3e 5011 c7bd 84b6 e4bd f51c a2bd
00000120: 89ae b2be 504e d23e 19b7 ab3d 517c 023e
00000130: 70b0 4bbe b633 283d 6724 193e b78d 163e
00000140: eb0e babe b93e 8fbe 798d 213e 5d6f 8b3d
00000150: 3f89 6ebd b9ee 013e 5c35 103e e9f7 703d
00000160: ff92 b33e cb64 c1bd fcb1 2e3e f8b6 de3c
00000170: c157 1fbe 2906 42bd ba64 01bf 0368 4ebe
00000180: d049 7cbe 331a 093e d304 b7be 5df1 163f
00000190: 5d42 5fbe 27c0 b53d 0c8e 24be 0b55 313e
000001a0: 5919 06bd 836a c53d 89c2 743e 5f14 2f3e
000001b0: 2ddd 1d3f 27cb 87be 6226 78bd 923e 34be
000001c0: 0ad5 1fbe 62e6 803e b7c3 833b 9ee2 393d
000001d0: 66f8 febe ccc3 d2bc 5ab1 d6bd e2e9 69be
000001e0: dcdb d23d f8b4 2bbe dce5 8e3e 18d4 503e
000001f0: cb8e 543e 5d7f 12bc 04f7 a9bd 4b28 b53d
00000200: 0373 b2be 8421 d3be 8e8c bfbd f936 0dbe
00000210: f9f8 6a3c 21bb 91be 403b 6dbe 7c4f 5abe
00000220: 9906 1dbf 3c25 b43e 40de b03c a42c 243c
00000230: a852 e13e 0c86 9abc add7 87be 6753 2a3e
00000240: c065 a43d 3a57 6cbe 5eda 9dbe 588f eabd
00000250: 8fbb 2c3e 8de2 623e 8b39 cb3d 0538 c8bd
00000260: cfa0 3cbe 52c1 d23d ceaf 64bd e462 063d
00000270: 67f1 b0bd 4b51 6bbb fdb1 5b3e 1fa7 09be
00000280: 56ac 08be c8a0 673e 90fc 2abe b761 bdbe
00000290: d7ff d53d ef07 593e eddc 963d 56ce 39be
000002a0: 71f1 a7be 7b65 bdbd 3cc0 043c f4c8 773d
000002b0: 7232 26be e111 71be 1439 e83e 3055 81be
000002c0: b30f 763e 2909 003d 2376 9dba 0be5 edbc
000002d0: a9aa 6c3c f3a8 99bd e4e6 1fbe 6380 acbe
000002e0: 99e0 50be 752a 1bbc 6e17 723d dccb 683e
000002f0: a786 04bd 63e9 933d ac6e 82be 32b8 5cbd
00000300: 2adb 0fbe 9329 e4be 122a cbbe d133 ec3d
00000310: d05d 50be 92cc 53be 1ab5 d43c 425f 013d
00000320: 02a0 99bb 852f 71bb 3786 9abc f378 83be
00000330: db88 b13e a1a3 f33d ee76 37be eed9 58be
00000340: 6a40 23be dce3 283f 5a57 cf3d be9c 07bd
00000350: f9a6 e33d 63f2 7e3e e11b 1bbe 6d73 153e
00000360: 006e ac3d 83de 8a3e 63ae 82be 8477 9a3c
00000370: 136f 113e 8abc 85bd 3baa 83be 40dd 883d
00000380: dd5e 203d 5a93 683e f4c0 acbe 3175 c1be
00000390: 38b3 06bf 1bbf a1be 0108 383e 4799 5cbe
000003a0: 8d86 99bd 19d4 553d 876d b8ba ba10 b9be
000003b0: 4bc4 183e 97ec a5be 3a1f dabe 0779 c33d
000003c0: 6238 b6be aef5 6f3e f838 12be 14f0 2abe
000003d0: 2d66 ae3c a255 303f e079 8ebd 845d 4abe
000003e0: 4ee8 95bd 4685 633d 00ff 4abe 5454 96be
000003f0: d97e 3c3e 07c6 01bf 6c51 973e 3699 413c
0.14774276 0.51032627 0.17545053 0.31662065 -0.23800215 0.4188062 0.30427948 -0.25912917
0.0007385471 0.18107937 0.015975466 -0.0035527407 -0.33792225 -0.13646844 0.1284503 0.100464255
0.17619869 -0.1361482 0.115241684 0.32470682 0.63633823 -0.4507638 0.6315119 0.3472543
0.034306783 0.006179634 -0.017267717 0.34643582 -0.13134313 0.17804411 0.117282696 -0.30310073
-0.10539598 -0.26537853 -0.1793864 -0.16678663 -0.2663456 0.3267016 -0.23040897 0.23010695
0.32302007 -0.32693273 0.08248572 -0.114524156 0.2849399 0.043428995 0.0566761 0.05874532
0.041816305 0.1650204 0.05692489 -0.4733679 -0.42922235 0.5935611 0.19762 0.25553098
0.1028263 0.14044411 0.12090776 -0.18316312 0.08502871 0.08168169 0.22373182 -0.18281823
-0.022277834 0.020114984 0.2187915 -0.37764975 0.15442534 -0.09720099 -0.111676246 -0.07915679
-0.34898785 0.41075373 0.083845325 0.12742735 -0.19891524 0.04106494 0.14955293 0.14702497
-0.36339507 -0.2797754 0.15776624 0.0680835 -0.058236357 0.12688722 0.14082855 0.058830176
0.35073087 -0.09443053 0.17060083 0.027186856 -0.15560819 -0.047369156 -0.5054432 -0.20156865
-0.24637532 0.133889 -0.35745868 0.5896204 -0.2180266 0.08874541 -0.16069812 0.17317598
-0.032739017 0.09639456 0.23902334 0.17097615 0.6166561 -0.2652218 -0.06058348 -0.17601994
-0.15608612 0.25175768 0.0040211338 0.045382135 -0.49798888 -0.025728129 -0.10483046 -0.22843125
0.10295841 -0.16768253 0.27909744 0.20393407 0.20757596 -0.008941499 -0.082990676 0.08845576
-0.34853372 -0.41236508 -0.093529806 -0.13790502 0.014341586 -0.2846308 -0.23167133 -0.21319383
-0.6133819 0.35184658 0.021590352 0.010020409 0.44008374 -0.018862747 -0.26531735 0.16633378
0.0802722 -0.2308015 -0.30830663 -0.11453122 0.16868423 0.22156735 0.09923085 -0.0977631
-0.18420719 0.10290779 -0.055831723 0.032809153 -0.08639794 -0.0035906609 0.21454616 -0.13442658
-0.13346991 0.22619927 -0.16697907 -0.36988613 0.10449188 0.21194433 0.07366357 -0.18145117
-0.32801393 -0.092478715 0.008102473 0.06049438 -0.16230181 -0.23541977 0.45356047 -0.25260305
0.24029426 0.031258736 -0.0012013357 -0.02903988 0.014444985 -0.07502928 -0.15615422 -0.336917
-0.20398177 -0.009470572 0.059104376 0.22734016 -0.032354977 0.07222249 -0.2547506 -0.0538866
-0.14048448 -0.4456297 -0.39680535 0.11533321 -0.20348287 -0.20683506 0.025965262 0.031584986
-0.004688264 -0.0036802005 -0.018862827 -0.25678214 0.34674725 0.11896444 -0.17916462 -0.21176884
-0.15942541 0.65972686 0.10124083 -0.033108465 0.11115832 0.2489715 -0.15147354 0.14594813
0.08419418 0.27122888 -0.25523672 0.018855818 0.14202528 -0.065301016 -0.25715813 0.06682825
0.03915297 0.2271246 -0.33740962 -0.37784722 -0.52617216 -0.31591114 0.17971803 -0.21542846
-0.07496367 0.052204225 -0.0014070728 -0.36145574 0.1491863 -0.32407066 -0.4260195 0.095445685
-0.35589892 0.23433563 -0.14279544 -0.16693145 0.021288956 0.68880665 -0.069568396 -0.19762236
-0.07319699 0.05554702 -0.19823837 -0.29361212 0.18407764 -0.5069279 0.29554307 0.0118163135

actor.init_leaf_node_embed.2.add_bias._bias f4 [64, 1]
00000000: a9e9 8a3e 11ad 0c3e 2323 2c3d fc25 123c
00000010: 2274 37be 4b03 533c 5410 58be 49d0 8dbe
00000020: c769 2cbe d61a 2ebe dbe6 8e3e e277 1cbe
00000030: 8bbc c63d 9af6 babd 4aef cbbd b360 97bd
00000040: d16f 123e 6fde 10be 724e a4be 5061 0fbd
00000050: 7c67 1b3d 8be6 ad3d c773 273c b149 343d
00000060: 2817 723e 6bad 36bd 8417 92bb 13cc acbd
00000070: 48a7 2fbe 3c37 e63d f6d0 13be cad0 9bbc
00000080: 49bc df3d 142f 79bd 5abb 1fbe 7d91 1a3e
00000090: 9487 673e ba07 34bd d942 fcbc d7e2 05be
000000a0: d7a8 6c3d c455 00bf a57b 403e 6f45 6f3d
000000b0: cedd 0fbe 1c60 32bd 80e3 13be acee 21bd
000000c0: 46ae 6dbe a88b 343d ad0a 60bd 78fe 7abd
000000d0: 7eb7 cf3d 7b98 28be 459e 41be a78e cf3d
000000e0: 7364 5b3c 50b4 6abe 0364 453e 8dfc 8abe
000000f0: e771 093e 4240 0abe 4b65 903d 68e7 be3c
0.27131394 0.13737895 0.042025696 0.008920189 -0.17915395 0.012879203 -0.21099979 -0.2769797
-0.16837226 -0.17002425 0.27910504 -0.15280107 0.097039305 -0.09129067 -0.0995775 -0.07391491
0.14300467 -0.14147352 -0.320911 -0.035004914 0.037940487 0.08491238 0.010220475 0.04401559
0.23641646 -0.044598978 -0.0044583697 -0.084373616 -0.17153656 0.11241004 -0.14435181 -0.019020457
0.109245844 -0.060835913 -0.15598813 0.15094562 0.22610313 -0.04395268 -0.030793594 -0.13074814
0.057778206 -0.5013087 0.18797167 0.058415826 -0.14049456 -0.04354869 -0.14442253 -0.039534256
-0.23211011 0.0440785 -0.05469768 -0.061277837 0.1014242 -0.16464417 -0.18908031 0.10134631
0.013390648 -0.22920346 0.19276433 -0.27145806 0.13422357 -0.13501075 0.0705057 0.023303702

actor.init_next_embed.0.module.weight f4 [32, 6]
00000000: 8762 0d3e b261 17be d209 99be 8994 f7be
00000010: 849d 7ebe 5139 103c bff6 60be 51ff c7bd
00000020: 0851 3f3e 044b 7abe c355 ba3c 9af0 74be
00000030: e14a 053f 0d16 89be 7bfc 83be 9334 00be
00000040: cd83 25be d971 933e a7a4 d8bb fffb 143d
00000050: 9595 07bd 7e25 d83e 66c6 eabe fcf2 b3be
00000060: c1bd dc3d 5213 d8be 941b febd ae48 81be
00000070: b69c c4bd 4bda 22be 34b8 c7bc ccc5 13bf
00000080: bf29 913e 8098 38bf 8167 03be e1a1 153e
00000090: fca4 5c3f 8cc7 d23d 905a 913d 1513 edbd
000000a0: 6f4c 70bd 6041 b6be cb4d b5bd c359 c93d
000000b0: b652 153e 6625 ab3d 1640 9dbe 4069 333e
000000c0: 45cb 62be 7928 17bf 3854 7a3e 6987 2f3d
000000d0: 1513 ab3f 8c1b 35bf a6df d03d 8da0 95be
000000e0: 02a6 3abe 0087 563d 721f b2be f78b eabe
000000f0: 3219 a4be 3678 3a3e 4412 843c 364c cd3e
00000100: aad1 913e bfe3 d8be de86 45bd a37c efbc
00000110: 942c b1bc 4e3b d63d 060a adbc e663 133e
00000120: deae b5be 917e 06bd 6350 153e 8ee9 d03c
00000130: 1551 64be 27d9 a4be b714 43bd 0aa8 153c
00000140: 5446 fe3d da4d 6e3e dcd7 bdbe 5866 a6bd
00000150: 3db8 a03f 2d89 69be da14 83be 7568 20bf
00000160: 5048 0bbe b761 683d 718f 4ebe 103a 82bd
00000170: 696d 98be 0d87 a9bd efbf 35bc 5a09 bd3d
00000180: a9e5 85be cc78 0bbd 7749 e6bd a9a9 fbbd
00000190: 754f d4be edb9 103e 1030 123f 30f0 4ebd
000001a0: 52bc 493e cfa7 80be 8444 62bd 6ed0 433b
000001b0: cd20 7ebd 3d85 933e 1918 6a3e 86bc f6bb
000001c0: d3fa 8dbd 674a 833e 962a 713f 65fe 793e
000001d0: eba9 b7be 2908 7dbe 5b1b 2f3e 1c3b 0c3e
000001e0: 6fda 883e 5055 d63c 59e4 14bd b9ab 0ebe
000001f0: 6da9 84be dc73 2e3e ac14 e9bc e210 58be
00000200: 23e0 37bf 2341 ccbd 1302 01be 97e9 e9bc
00000210: 51ba ee3d a445 17be a075 c7bd 68fb 093e
00000220: 695f b2be 2dfc 843d 77d0 253f 0e27 88be
00000230: 3362 a93e 12fb dabe 0849 d83e e530 d43e
00000240: 0e3e a43f 5fdc cbbd 22d6 3abe 45ac c2be
00000250: 7e02 20be e286 5a3e 5945 2d3e b767 923e
00000260: a8c0 83bd 96c9 47be 647a 43be 57a4 cabe
00000270: 6d22 4a3b 93fe a3be 6c75 393e 8eae 78bd
00000280: c719 66be e0ca 7fbc 8624 03bf a3c9 c3be
00000290: 824f 41be 5b39 46be ea03 023e b639 28be
000002a0: 2dbf 0f3f 6597 523e 0aec 9bbc 19ae a9bf
000002b0: aeaf c3bc f680 493e c317 ce3e ab43 6c3e
000002c0: cef5 afbe 2663 2ebf 9e0d e2bc d91b 293e
000002d0: b796 f3bd a4b2 84be ec67 973e cf63 933b
000002e0: 6774 19bd 60db 53bd b76a 1abd 89e3 67be
000002f0: 9db3 f0be debb f9bd d708 90bd f7b6 00bd
0.13807116 -0.14783362 -0.29890305 -0.4835551 -0.24864775 0.008802728 -0.21969126 -0.097654946
0.18683255 -0.24442679 0.022745972 -0.23919907 0.5206738 -0.26774636 -0.25778565 -0.12520055
-0.1616356 0.28797796 -0.006611425 0.036373135 -0.033101637 0.42216104 -0.4585449 -0.3514632
0.1077838 -0.4220224 -0.12407604 -0.25250763 -0.09600203 -0.15903585 -0.024379827 -0.5772369
0.28352162 -0.72107697 -0.12832452 0.14612533 0.86189246 0.10291967 0.070973516 -0.11575905
-0.058666643 -0.35596752 -0.088527285 0.09831574 0.14582333 0.083567426 -0.30712956 0.17520618
-0.22147854 -0.5904613 0.2444619 0.042853747 1.3365198 -0.7074516 0.101989076 -0.29224053
-0.1822739 0.05237484 -0.34789616 -0.4580991 -0.32050472 0.1820992 0.016121991 0.40097207
0.28480273 -0.42361256 -0.048224322 -0.029234236 -0.021627702 0.1046053 -0.021122944 0.14393577
-0.35484976 -0.032835547 0.14581446 0.025501993 -0.22296555 -0.32196924 -0.047627177 0.009134302
0.12415758 0.23271886 -0.3707875 -0.08124989 1.2556225 -0.22806235 -0.25601846 -0.6265939
-0.13601804 0.056733813 -0.20171906 -0.06358731 -0.29770973 -0.08277712 -0.011093124 0.09230299
-0.2615178 -0.034050748 -0.11244481 -0.122882195 -0.4146687 0.14133425 0.5710459 -0.05052203
0.19700745 -0.25128028 -0.055241123 0.0029878872 -0.062043 0.2881259 0.22860755 -0.007529798
-0.069326065 0.25642702 0.94205606 0.2441345 -0.35871825 -0.24710144 0.17100279 0.13694423
0.26729152 0.026163727 -0.03635058 -0.13932694 -0.25910512 0.17036384 -0.02845224 -0.2110019
-0.7182638 -0.09973361 -0.12598448 -0.028553767 0.11656631 -0.1477266 -0.09739232 0.1347481
-0.34838417 0.06493411 0.6477122 -0.26592296 0.33082733 -0.42769676 0.42243218 0.41443554
1.2831438 -0.09954142 -0.18245748 -0.38022056 -0.1562595 0.21340516 0.16920985 0.28594753
-0.06433231 -0.19510493 -0.19089657 -0.39578506 0.0030843273 -0.32030162 0.18111199 -0.060713343
-0.22470771 -0.015612334 -0.51227605 -0.38239774 -0.18877986 -0.19357817 0.12696806 -0.16428265
0.56151086 0.20565565 -0.01903345 -1.3256255 -0.023887482 0.19678101 0.40252504 0.23072688
-0.34367222 -0.6812004 -0.027594384 0.1651453 -0.11893981 -0.25917542 0.29571474 0.004497982
-0.037464526 -0.051722884 -0.037699427 -0.22645392 -0.47012034 -0.12194036 -0.07032936 -0.03142449

actor.init_next_embed.0.add_bias._bias f4 [32, 1]
00000000: ae05 2d3e a4df 523d 185c 88bd dffc 1dbd
00000010: 1c60 1b3b dbc8 91be ea0a f53d 3cde 90bd
00000020: 6ecd 63be 83fc 5fbd 810a d7bd 281e 893e
00000030: 60ae f23c 43a7 103e 4bde bb3e 4b72 873e
00000040: 6b0f 233d 916c 56be 544b 8abe 57c7 bd3e
00000050: 7b3f 9cbd e2fe 7e3c d049 6bbe 25ad 59bd
00000060: dbab 803e fd9e ccbd 412e 0bbe 0e60 b93c
00000070: 3dbe 393d 7891 1e3e 7b91 173e b2e6 0d3e
0.16896698 0.05148281 -0.066581905 -0.038571235 0.0023708409 -0.28473553 0.11964972 -0.07073638
-0.22246334 -0.054684173 -0.1050005 0.2678082 0.029624164 0.14126305 0.36693034 0.26454386
0.039809626 -0.20939852 -0.27010596 0.37066147 -0.076292954 0.0155636985 -0.22977376 -0.05314364
0.25131115 -0.09991262 -0.13591863 0.02262881 0.04534744 0.1548518 0.1480159 0.13857535

actor.init_next_embed.2.module.weight f4 [64, 32]
00000000: 7226 fc3c 4183 ddbd fceb ffbc 2f21 383e
00000010: d568 193e 6935 a13d 0f66 2bbe 51ce 6bbe
00000020: 9f13 f8bd 1a96 a03e 7434 a83d e1cf 11bf
00000030: bf7b c53d 605b c03e eb57 163e 5a99 babe
00000040: 6205 17be 398e 883d 915c 94bc 93ac 78be
00000050: 378c 823d 10f8 6ebd 5c8d f3be 9e14 f3be
00000060: a67e efbe 40e0 b43e add4 30be 32ee b8bd
00000070: 7ba7 bf3d 7f3a 193e 12d5 8e3e 26c6 b6bd
00000080: 64f9 4e3e 30b5 76bd 82b7 01be fd69 89bd
00000090: 8b61 bdbd 9500 2dbe 4256 40be 5c4a 713a
000000a0: f693 833e aff9 313d d56f f33e d215 a73e
000000b0: 9bf6 abbc bfa3 02be c3d2 5dbe 42b7 e9bc
000000c0: 958d 3b3e 988a a83c f468 93bd 656d 043f
000000d0: d4eb 2f3e 2db3 b83c 86c7 5b3d 9e5b 31be
000000e0: 46c0 09be 2b5f 5e3e e35e 31bc 5c83 9ebe
000000f0: a1d1 f2bd 618a 3d3d 51fe 68bd bc20 18bd
00000100: ca97 a3bd de3d 003d 9ca6 3b3e c47d 06be
00000110: 6e60 a1bb dd78 453e 4f25 0bbf b4e6 b2be
00000120: 17b3 dabe 57c7 0fbe c7b1 053d cefc d13e
00000130: 6669 c43d 6f82 a6be 2c12 44bf e1ca 053e
00000140: 47a0 60be 04b3 843d a23f 423e fcd7 363e
00000150: aaa4 9abd 993e a4bd bff8 74bd 72b3 db3e
00000160: 4093 d5be 1919 c83d 5666 5cbe 2c94 22be
00000170: 1f33 04bf 5601 30bf 3c8d 91be 8d1a 56be
00000180: 55bc 61be 3012 293e 6819 c23e 83c9 c1bd
00000190: 3ff8 9ebe db0e ce3c 8516 bcbe 3f99 013e
000001a0: 0130 9b3c 9f79 713e 4c53 adbe 8916 7b3e
000001b0: e04a de3d a60c 233e 7a74 5ebe 6e00 77be
000001c0: 728a 25be 123e 4f3e 5256 fb3c 472f 95be
000001d0: 5d28 87bc cbd1 943d b023 283e b95c 4a3f
000001e0: b036 a4be baf6 dcbe e6fc bfbd c57d a7be
000001f0: 69b2 9dbe 23ef 53be ca5c c93d e9af 60be
00000200: 0fed 52be c7ba c3be 7688 05bc 1a7e 773e
00000210: be4a f43d 675e 28be ba57 1abe 82d0 a8bd
00000220: 7b20 733e 26a9 febd af15 7bbe cc02 b63c
00000230: 231c 19bd 32bd c63d e467 bc3d b105 98bb
00000240: b342 1f3e d354 1b3e 078b 1abe a50a cabe
00000250: 2853 32be aa36 c33d 65c2 223e 1b12 753d
00000260: 0c9d 673e c4b9 c3bd ffbf e53e c641 4b3e
00000270: 8d4e 6abe 556f 0dbe d79d dabd f34d 3c3d
00000280: d4de 0c3d b2b9 0dbd 4532 183d e61e dabd
00000290: ded9 ab3e 5838 4c3e ee87 91bc 5784 113e
000002a0: 0cb7 813d d143 5b3e ef94 0d3d fe81 3f3f
000002b0: 4c23 3b3d f47d 963d c71c 16be 929e 123f
000002c0: 80bc cdbc 9b83 a43e 925c ea3d f2a0 6e3f
000002d0: 4dfa 3f3d 2b44 0cbd 3239 833e de12 393e
000002e0: f8f9 e73e b99e adbd 268f 873d 37b1 b33e
000002f0: 919e 57be 5e3c 92be 18fd 823e 487c 1dbe
00000300: 9db1 fb3d ced5 333e c8cc 533c bfd8 343e
00000310: 7d57 93bd 7cf1 f73c d191 66be d1b1 a6be
00000320: 29ae b63d 2b57 653e 9c30 923d e8e8 3b3e
00000330: 2e56 c43c d5c0 63bc 84fe b6bd 053c f4bd
00000340: 72af c2bc 3df5 2b3e f2bd 59be 4251 31bd
00000350: d62b 4f3e 95d6 8abe bce4 2c3e c82f 5b3e
00000360: a360 36be 34c6 943d d1f9 233d 1346 67be
00000370: 6eb2 87bd 8e95 21bd c45c f53d 5764 8cbe
00000380: 7b0d c1be 1f54 2b3d 9832 8fbe e72b ab3c
00000390: 1105 653e c110 95be 1393 52be 0146 49be
000003a0: 509b 49bc 510d 0cbd 1c06 b83e 64f6 d43e
000003b0: 3abb c03d 397b 2c3e 97dd ea3e e65e 0c3f
000003c0: 0d73 833d 59cc b13e 28f1 4d3e 648b bc3e
000003d0: 5be7 abbe e6e3 613c c247 27be a441 423f
000003e0: 0445 f93e b06b b63c 7e44 c13d eeb6 c8bd
000003f0: 8f92 253d 6f8f 893e 98a3 913d 3678 a43e
0.03078005 -0.1081605 -0.031240456 0.17981409 0.14981396 0.07871515 -0.16738151 -0.23027922
-0.121131174 0.31364518 0.0821313 -0.56957823 0.09642743 0.37569714 0.14681976 -0.36445123
-0.14748147 0.06667752 -0.018110545 -0.24284582 0.063744 -0.05834204 -0.47568786 -0.47476667
-0.46776313 0.3532734 -0.1726863 -0.09029807 0.09358116 0.1496372 0.27896935 -0.089245126
0.20212322 -0.060231388 -0.12667659 -0.06709669 -0.092471205 -0.16894753 -0.18782905 0.0009204501
0.25698823 0.043451007 0.4754626 0.32633835 -0.020991614 -0.12757777 -0.2166243 -0.028529767
0.18315728 0.0205739 -0.071977526 0.5172942 0.17179805 0.022546375 0.053657077 -0.17320105
-0.13452253 0.21715991 -0.010825845 -0.30959594 -0.1185639 0.046274547 -0.05688316 -0.037140593
-0.07987936 0.031309 0.18325275 -0.13133913 -0.0049248254 0.19284387 -0.54353803 -0.34941638
-0.4271476 -0.14040886 0.032640245 0.41013187 0.09590416 -0.32521388 -0.7659023 0.13065673
-0.21936141 0.06479457 0.18969586 0.17855829 -0.075509384 -0.08019752 -0.059807535 0.42910343
-0.41713905 0.09770412 -0.21523413 -0.15876836 -0.51640505 -0.6875204 -0.28428066 -0.20908566
-0.22044499 0.16510844 0.37910008 -0.094622634 -0.31048772 0.025153568 -0.3673593 0.12656115
0.018943788 0.23581551 -0.33852613 0.24520315 0.10854125 0.15922794 -0.2172412 -0.24121258
-0.16166094 0.20238522 0.03068081 -0.29137632 -0.016498739 0.07266577 0.16419864 0.79047734
-0.32072973 -0.43156987 -0.093744084 -0.32713142 -0.3080018 -0.20696692 0.09832151 -0.21942104
-0.20598243 -0.38228437 -0.008150211 0.24169198 0.119283184 -0.16442262 -0.15072528 -0.08242895
0.23742859 -0.12434606 -0.2451999 0.02221813 -0.03738035 0.09704055 0.09199503 -0.0046393503
0.15552787 0.15169077 -0.15092097 -0.39461246 -0.17414534 0.09531911 0.15894468 0.05983172
0.22618502 -0.09556916 0.44873044 0.1984931 -0.22881527 -0.13812001 -0.10674637 0.045972776
0.034392193 -0.03460092 0.037157316 -0.10650425 0.33564657 0.19943368 -0.017765012 0.1421064
0.063337415 0.21412589 0.034565862 0.7480773 0.04568796 0.073482424 -0.14659415 0.5727321
-0.025114298 0.32131657 0.11443438 0.93214333 0.046869565 -0.034244698 0.25629574 0.18073604
0.453079 -0.084775396 0.066191 0.35096142 -0.21056582 -0.28561682 0.2558372 -0.15379441
0.122897364 0.17562029 0.012927242 0.17660807 -0.071944214 0.030266516 -0.22516562 -0.32557538
0.08919937 0.22396533 0.07138178 0.18350565 0.023966875 -0.013900955 -0.08935264 -0.1192551
-0.0237653 0.1679277 -0.21263865 -0.043290384 0.20231566 -0.27116838 0.1688413 0.21404946
-0.17810301 0.07264367 0.040033165 -0.22585325 -0.0662583 -0.039449267 0.11980584 -0.27420303
-0.37705597 0.04182827 -0.27968287 0.020894958 0.22365214 -0.29114345 -0.20563917 -0.1965561
-0.012305096 -0.034192387 0.3594216 0.4159423 0.09410711 0.1684388 0.45872185 0.54832304
0.064184286 0.34726217 0.20111525 0.36825097 -0.33574948 0.013787245 -0.16335967 0.7588141
0.48685467 0.022268146 0.09436892 -0.09800516 0.040422972 0.26867244 0.07111281 0.32122964

actor.init_next_embed.2.add_bias._bias f4 [64, 1]
00000000: ab00 13bf 1fce c7be 24a4 a6be 8a51 9fbe
00000010: a56e 69bd 0e48 903f 6d65 bebe df86 383f
00000020: a80b 6e3f fcc0 31bf a4d1 39bf 12d6 d83d
00000030: 5f87 983f 39a4 8dbf ff40 70bf 54b2 39bf
00000040: 2c82 5bbf 1d7f 5f3f 8883 2d3f 4082 43be
00000050: 030b fcbd 89b2 83be b2e0 acbf 46ee 263f
00000060: da4d 12c0 a6bc 45bf 4664 78be 38eb 82bf
00000070: a928 0c3f 8cd5 ad3e 5739 02bf fe8b 37bf
00000080: 5f45 e5bd d34e 593f 0616 8fbe c4d4 0fbe
00000090: c08e b33f 3bc7 4a3f a335 a0be 2d7f 0f3f
000000a0: 3bd8 e0bf dff4 903f 04b5 c1be 64fa b7bf
000000b0: dd31 d53e efb3 a43f edd3 863f cf06 3a3f
000000c0: a75f ffbe f4cb 9a3e 0208 363f 480c f73e
000000d0: a0ee b73e 6cd6 36bd 6cc7 a3be 1f94 3fbf
000000e0: 9537 ca3c 57ef 0d3f b26f 01bf 452d 7e3e
000000f0: c0d5 953e 44fc 583f c5de e7bc 5867 493e
-0.57422894 -0.39024445 -0.32547104 -0.31116897 -0.056990284 1.1271989 -0.37186757 0.72080797
0.92986536 -0.69435096 -0.7258551 0.10587706 1.1916312 -1.1065742 -0.93849176 -0.7253773
-0.857455 0.87303334 0.67778826 -0.19092655 -0.12306788 -0.2572215 -1.3506072 0.65207326
-2.2860017 -0.7724098 -0.24257001 -1.0228033 0.5474954 0.33951986 -0.50868744 -0.71697986
-0.11194872 0.848859 -0.2794649 -0.14046007 1.4027939 0.7921025 -0.31290922 0.5605343
-1.7565988 1.1324729 -0.37833416 -1.4373288 0.41639605 1.2867411 1.0533425 0.7266664
-0.49877664 0.3023373 0.7110597 0.48251557 0.35924244 -0.044638082 -0.31988084 -0.7483539
0.024684707 0.5544333 -0.5056106 0.24821956 0.2926464 0.84759927 -0.028304467 0.19668329

actor.embedder.layers.0.0.module.W_query.weight f4 [64, 64]
00000000: ec5d fb3a 99d7 57bd 45ab 1e3e c3f7 18be
00000010: 89b3 5e3d b8f9 00be 4a28 4abd 0a7b c53c
00000020: 2a0d 463e f13b 13be 123b 0e3e ad3e 5bbc
00000030: 4c68 5b3d 7019 b13b 3f97 183d 1f23 b9bb
00000040: 8c42 b23c df60 5e3d 524e 843c fdd2 ce3d
00000050: ce64 493d 9520 9ebd 9ffd 073e 5984 4c3e
00000060: a764 61be 5302 2b3e c98a 9b3d 6b1b 03bd
00000070: 5b34 c63c d1f4 393e f1da 9dbb 33e2 3d3d
00000080: df05 c43d dfc5 753c 6120 4fbe 2bfd 1f3e
00000090: 24f5 3abc a8f6 ca3d c8c3 cb3d 92bc 0cbb
000000a0: 3d30 e33d b8fe 553d de03 13bd c25b 1c3e
000000b0: 3935 7fbd 6e3b e9bd c6fc 3d3e c5ce 9bbd
000000c0: 6deb 9cbd bc7e 1b3c 5df7 3abd 6e53 ecbd
000000d0: 81c6 0cbe 91fe 3a3d 073c 873d af95 abbd
000000e0: bf53 e23d aa0a e4bd 8254 003e 57c4 40bc
000000f0: a3d7 9bbd 4fab b4bd 1a53 86bd 5306 bbbc
00000100: 4b2c 9abe aabb 1bbe 11f0 01be e65d 06be
00000110: 4a99 36bd 439b 40be b693 2e3e daf8 4e3e
00000120: 4296 7b3e 34a0 bd3d 6b50 25be 5bb7 3ebd
00000130: 06ce 363e 67cd 333c 6fd4 4fbc ce42 83bc
00000140: d863 d1bd 29d0 163e 953d 53bb c4d3 843e
00000150: eaad 493d e744 ffbd b7e2 72bd c957 6abe
00000160: ff8c 49be 2bd4 debd e1c9 343e acb3 153d
00000170: 628f ff3d 06bc fbbd e1e9 103e 3b74 04bd
00000180: 38e3 4fbe e97d c6bd 7f67 2b3d a184 70bd
00000190: 76ca c9bd 9ad3 04be a7fb 30be c71a ebbd
000001a0: f66b 35be e350 8f3e 8037 47be 3742 0d3d
000001b0: e2ed 3f3e 9b21 c4bd 3950 52bc 12d0 0c3e
000001c0: c1b1 533e b45d a6bd d124 b3bd d3d9 5dbe
000001d0: 64a5 13be d375 063e 4c41 d0bc e6dc 48be
000001e0: ab64 10be 35fe ab3e 6c15 49be 6599 ab3e
000001f0: eae7 cbbd 0e4f 3e3e 110b 38be 58fd f73d
00000200: 85b5 6cbe 6e3a e0ba 96b6 b43c ee26 833d
00000210: 2beb 0e3e eb0c 45bd 92a7 22bd ca4d 393d
00000220: 10e9 f9b9 f0d3 953d f82a 94bd 2fb1 45bd
00000230: 6fc2 ce3d 600c 883d b567 3b3d e1f3 143e
00000240: 32ef 8a3c aa8b dd3d 1a9e df3d 8a00 653d
00000250: 8c25 db3d 253a 133d ef9b e6bd 1e39 f0bd
00000260: bea4 77bd 18c5 85bd 14cc 433d cef3 72bd
00000270: b0a8 0a3c 90e8 e9bc 9cc2 17bc 68ba 0ebc
00000280: ab74 4bbd 5e3d a7bd 89fd e93c b858 a73c
00000290: f977 a33d 0e69 7f3d 13ea b83c 5e00 3a3c
000002a0: f8c5 143d 30cc 943d d1c9 e83b 30fd bf3c
000002b0: 100f 733d 2198 edbd 8af9 313e a24c 2d3e
000002c0: fc15 03bd 3492 2ebd a1f6 093d 5f6b 343c
000002d0: 7b61 52bd e0c7 753d a5fe e73b 90e8 213d
000002e0: 747d 11bd c350 a03d ed7a 4cbd cea9 1cbd
000002f0: a149 fabd 0891 ae3c ffad bdbd 52a5 85bd
00000300: 5776 72bd cd88 8e3d 539f 79bd 3cd0 b73d
00000310: e203 c93d 957b 2e3e cd93 3f3d c395 c3bd
00000320: 3c0d 9cbc 03fa fa3c 56e8 b7bd 9590 23bd
00000330: 7e9b 23be a72e 223d 487b 02bc 8b3c 1c3d
00000340: d2a8 51bc 8099 cb3c bc0e 8cba a41b 813d
00000350: 1989 0abe 543b 773d 5695 aebc f56b 06bd
00000360: e59f 20bc c9b7 c23c 1889 cfbd 4960 be3d
00000370: 9ac5 ba3d 1147 75bd 92b6 bb3d e80e 25bd
00000380: ecc7 3dbd d604 1cbd 1e56 7cbc dd9b 1f3e
00000390: e7dc 9fbc 1457 a03d fe27 313c 13b6 3cbd
000003a0: 4624 2fbe 635e dd3d 71da 183e b8f3 9dbd
000003b0: f8ea c93d 913d dabd 4ff5 593c 522a 48bd
000003c0: e19e 55bc d0f3 c43c 1c9b 773d f47b 8a3b
000003d0: 3f6d 533e 52c0 cd3d e559 aa3d 7cd7 713d
000003e0: c78e 0b3e db91 a5bd 1b4d 8abd f682 0bbd
000003f0: 99e0 f6bd a59d 23bd 95c0 8cbc c167 a5bd
0.0019177771 -0.052695844 0.15495022 -0.14938264 0.054370437 -0.1259526 -0.04935483 0.024106521
0.19340959 -0.14378335 0.13889721 -0.013381642 0.053566262 0.0054046437 0.037253615 -0.0056499387
0.021760248 0.054291602 0.016150627 0.100988366 0.0491684 -0.07721058 0.13280343 0.19972362
-0.22011052 0.16700105 0.075948305 -0.03200857 0.024194887 0.18159796 -0.0048173596 0.0463583
0.09571432 0.015000789 -0.20227195 0.1562392 -0.011410985 0.09910327 0.09949452 -0.0021474701
0.11093185 0.05224487 -0.03589236 0.15269378 -0.062306616 -0.113882884 0.18553457 -0.076077975
-0.076620914 0.009490665 -0.04564606 -0.115393505 -0.13747598 0.04565293 0.06603246 -0.08378159
0.110511295 -0.111348465 0.12532237 -0.011765561 -0.07609489 -0.08821737 -0.06558819 -0.022830164
-0.30111918 -0.15208307 -0.12689234 -0.13121757 -0.04457978 -0.18809228 0.17048535 0.20212117
0.24569038 0.09259072 -0.16143958 -0.04656158 0.17852029 0.010974265 -0.012684925 -0.016023066
-0.10224122 0.14727844 -0.003223275 0.25942814 0.049238123 -0.12464314 -0.059298243 -0.2288505
-0.19682692 -0.108803116 0.17655136 0.0365483 0.1247852 -0.12291722 0.14151718 -0.03233741
-0.20301521 -0.09691984 0.04184675 -0.058720235 -0.098530695 -0.12971345 -0.17283498 -0.11479717
-0.17716965 0.279914 -0.19454765 0.034486976 0.18743089 -0.09576722 -0.012836509 0.13751248
0.20673276 -0.08123341 -0.087472565 -0.21665125 -0.1441856 0.13130884 -0.025421761 -0.19615516
-0.14100902 0.33592382 -0.19637078 0.33515468 -0.099563435 0.18584844 -0.17972971 0.12108868
-0.23116119 -0.0017107257 0.02205972 0.064039096 0.13956897 -0.048108023 -0.03971059 0.0452402
-0.00047666626 0.073158145 -0.07234758 -0.04826468 0.10095679 0.06642985 0.0457532 0.14546157
0.01695976 0.108176544 0.10918827 0.055908717 0.10700521 0.035944123 -0.11260211 -0.11729644
-0.060459845 -0.06531733 0.047802046 -0.05931454 0.00846307 -0.028553277 -0.009262707 -0.008711435
-0.04967181 -0.08166002 0.028563278 0.020428047 0.07981867 0.062356047 0.022572553 0.011352627
0.03632161 0.07265508 0.0071041365 0.023436159 0.059340537 -0.11601282 0.17380348 0.16923764
-0.032003388 -0.0426199 0.03368247 0.011011927 -0.051362496 0.06000507 0.0070799165 0.03952843
-0.035520032 0.07827904 -0.04992192 -0.038247876 -0.12221075 0.02130939 -0.09261703 -0.06525673
-0.05919489 0.069596864 -0.06094296 0.089752644 0.09815194 0.1703933 0.046771813 -0.09550049
-0.01904928 0.030636793 -0.089798614 -0.039932806 -0.15977284 0.039595272 -0.007963963 0.038143676
-0.012796598 0.024853468 -0.0010685544 0.063041 -0.13528861 0.060359314 -0.021311443 -0.0328178
-0.009803747 0.023769276 -0.101335704 0.09295709 0.09119721 -0.059882227 0.09165682 -0.04029742
-0.04633324 -0.03809055 -0.015401391 0.15586801 -0.019514514 0.07829109 0.010812758 -0.046072077
-0.17103681 0.108090185 0.14927079 -0.07712501 0.0985927 -0.10656274 0.013303115 -0.048868485
-0.013038368 0.02404204 0.06045066 0.004226202 0.20647143 0.10046448 0.08317927 0.059043393
0.13628684 -0.0808446 -0.06752988 -0.03406044 -0.12054557 -0.039945263 -0.017181674 -0.0807643
