logs/experiment/Discrete_A2C_1-5Box_10x10x10Bin-2022.08.09-15-00-00/PCT-Discrete_A2C_1-5Box_10x10x10Bin-2022.08.09-15-00-00_2022.08.09-19-16-00.pt (torch, 236314 bytes, 24 tensors)

actor.init_internal_node_embed.0.module.weight f4 [32, 6]
0	0xbf019d1b	-0.5063035
1	0x3cb09766	0.021556567
2	0xbf1e5b99	-0.61858517
3	0x3d3c2804	0.0459366
4	0xbe45e62d	-0.19326086
5	0xbc4414f6	-0.011967888
6	0xbda6cce6	-0.0814455
7	0x3e10ff5d	0.14159913
8	0xbeb253e9	-0.34829643
9	0xbe8e3e46	-0.27781886
10	0xbec0c831	-0.37652734
11	0xbed84a94	-0.422444
12	0xbdd84d90	-0.10561669
13	0x3d8a82b1	0.06763209
14	0x3e461a36	0.19345936
15	0x3e7a972d	0.24471731
16	0x3dcce46c	0.100045055
17	0xbf2d8cac	-0.67792773
18	0x3eac6482	0.3367043
19	0xbe7818be	-0.24228188
20	0x3e9b7220	0.30360508
21	0xbf08f0e2	-0.5349256
22	0xbd9a9ec5	-0.07549814
23	0x3f20489e	0.62610805
24	0xbda67d73	-0.08129396
25	0xbec14979	-0.37751368
26	0x3e3229c1	0.1739874
27	0x3d94f0fc	0.072725266
28	0x3e912443	0.28347978
29	0x3f51015f	0.8164272
30	0xbc9736f2	-0.018458817
31	0x3d4fdd00	0.05074787
32	0x3e6b238d	0.2296278
33	0x3c06e101	0.008232356
34	0xbd781ac6	-0.06057241
35	0xbe72e629	-0.23720612
36	0x3f97a8d9	1.1848403
37	0xbeacb6d8	-0.3373325
38	0xbf562546	-0.83650625
39	0xbfaac9b9	-1.3342811
40	0x3f168dd7	0.5881018
41	0x3f38ef32	0.72239983
42	0xbeb1576b	-0.34637007
43	0xbeb40d8f	-0.35166594
44	0x3d5f3df2	0.054502435
45	0xbe65de2d	-0.22448035
46	0x3e943725	0.28948322
47	0x3f166d05	0.587601
48	0xbe0441a1	-0.1291566
49	0x3edc6256	0.43043774
50	0x3f1e06d0	0.61729145
51	0xbe38ca45	-0.1804591
52	0xbe85124e	-0.25990528
53	0x3ea24b44	0.31698048
54	0x3ece8d51	0.4034219
55	0xbd925b41	-0.071463116
56	0x3f072fa8	0.5280709
57	0xbd94dfe9	-0.0726927
58	0xbd702868	-0.058632284
59	0xbd08f165	-0.033433337
60	0xbede61b2	-0.4343391
61	0xbe9b6f9c	-0.3035859
62	0xbeb40acb	-0.35164484
63	0x3ef62977	0.4807851
64	0x3e8c84b2	0.27444988
65	0xbe88fa35	-0.26753393
66	0xbddedb86	-0.108817145
67	0x3f2515da	0.6448647
68	0xbee2b744	-0.44280446
69	0x3e107ac1	0.14109327
70	0xbf24264d	-0.6412094
71	0x3ee5b213	0.44862422
72	0x3eb99d5d	0.3625287
73	0xbf11853f	-0.5684394
74	0xbe7ab039	-0.24481286
75	0x3e501813	0.20321684
76	0xbe8d8dbb	-0.27647194
77	0x3e33ec59	0.17570628
78	0x3e2a2a5f	0.16617726
79	0x3e7de22e	0.24793312
80	0xbd9101b2	-0.070804015
81	0xbe8cf95f	-0.27534005
82	0xbd317349	-0.043322835
83	0xbe1143e5	-0.14186056
84	0x3e85f30d	0.26161996
85	0xbb96486d	-0.0045862705
86	0x3bff0235	0.0077822455
87	0xbe1b80e7	-0.15185891
88	0xbb9f97d6	-0.004870395
89	0x3d07b56d	0.033132005
90	0x3eb19caa	0.34689838
91	0xbdf01df2	-0.117244616
92	0x3ea2b9da	0.31782418
93	0xbe787bfe	-0.2426605
94	0xbe4d5572	-0.20052126
95	0x3e8282f3	0.2549053
96	0xbf03294d	-0.51234895
97	0xbf0c9d84	-0.5492785
98	0xbec1046c	-0.37698686
99	0xbed2d573	-0.41178474
100	0xbe1ae80d	-0.15127583
101	0xbe97d071	-0.29651216
102	0x3c2cebc3	0.010554257
103	0x3e1fc359	0.15601863
104	0x3ea51db4	0.32249224
105	0xbd9f1964	-0.07768515
106	0xbcb211af	-0.021736948
107	0xbc18fe5c	-0.009337988
108	0xbdc8ce14	-0.09804931
109	0xbf2d98b3	-0.67811126
110	0xbf25b48d	-0.64728624
111	0xbd859105	-0.06521801
112	0xbe317a5f	-0.17331837
113	0xbe2c6b02	-0.16837695
114	0x3e691dc3	0.2276526
115	0xbdba2d92	-0.09090723
116	0xbf46227a	-0.7739636
117	0xbd806dcf	-0.06270944
118	0xbd9fdf1a	-0.07806225
119	0x3ec0d312	0.37661034
120	0x3b807c65	0.003921079
121	0xbe59ddd0	-0.21276021
122	0xbc985bb1	-0.01859841
123	0xbedd12bf	-0.43178365
124	0xbf2c06d8	-0.6719794
125	0x3dd08c9d	0.1018307
126	0xbdb06755	-0.08613459
127	0xbec036fc	-0.3754195
128	0xbf23ea7b	-0.64029664
129	0x3da5d100	0.08096504
130	0x3e8c8f52	0.27453095
131	0x3f1c3ec0	0.6103325
132	0xbeb5c7c1	-0.35503963
133	0x3cad6017	0.021163983
134	0xbf46e6c4	-0.7769587
135	0x3ea64ab6	0.32478875
136	0x3efd4144	0.49463856
137	0x3ab66aed	0.0013917364
138	0x3dbe4fa3	0.09292533
139	0xbd2a4e84	-0.041578785
140	0xbedebd6b	-0.4350389
141	0xbe1d3aa2	-0.15354398
142	0xbedd2db4	-0.4319893
143	0xbf0f2594	-0.55916715
144	0x3e245a96	0.16050181
145	0xbe1aa939	-0.15103616
146	0x3f3eb596	0.7449583
147	0xbc3076c4	-0.010770503
148	0x3e0607f3	0.1308897
149	0xbdde97c6	-0.10868792
150	0x3d9c81c4	0.07641938
151	0xbe7ba13b	-0.24573223
152	0xbf0a47e2	-0.54015934
153	0x3e60809c	0.2192406
154	0x3ec1a05f	0.37817666
155	0xbe0ddce8	-0.138538
156	0x3f0fc355	0.5615743
157	0x3d5f0b8b	0.054454368
158	0x3e4794b5	0.19490321
159	0x3e597d5a	0.21239224
160	0xbe3a1205	-0.18170936
161	0xbe691e2b	-0.22765414
162	0x3eb21e30	0.34788656
163	0x3cafd688	0.021464601
164	0xbe75c17e	-0.23999593
165	0x3ee8cb6b	0.45467696
166	0x3db3cb93	0.08779063
167	0xbde1d239	-0.11026425
168	0xbdd8c775	-0.105849184
169	0xbe6d993f	-0.2320299
170	0x3e09a238	0.13440788
171	0x3f0b52d8	0.54423285
172	0x3f019d20	0.5063038
173	0xbf52b3ff	-0.823059
174	0x3e6a2dec	0.2286908
175	0xbe57501d	-0.21026655
176	0xbed2179e	-0.41033643
177	0xbd68e1a5	-0.056855816
178	0x3d5d4cac	0.054028198
179	0x3ad15c36	0.0015972916
180	0xbeabf911	-0.3358846
181	0xbec4860f	-0.3838353
182	0x3faea964	1.3645444
183	0xbdad0783	-0.08448698
184	0xbe7b4ee1	-0.24541809
185	0x3daa2e97	0.083096676
186	0x3e5a1913	0.21298628
187	0x3dcb10f7	0.09915345
188	0xbd9e9b34	-0.077444464
189	0x3d9fbda3	0.07799842
190	0xbe347f19	-0.17626609
191	0xbdf660b5	-0.12030164

actor.init_internal_node_embed.0.add_bias._bias f4 [32, 1]
0	0x3c1f1b02	0.009711029
1	0xbe8e863a	-0.27836782
2	0xbbbc1085	-0.005739274
3	0xbcb00915	-0.021488706
4	0x3e15c2f6	0.14625153
5	0x3d1b781c	0.037956342
6	0x3bc9e6b4	0.006161535
7	0xbc079b54	-0.008276779
8	0x3d35fdd7	0.044431534
9	0x3dd7babd	0.105336644
10	0x3bc3f18b	0.005979722
11	0x3c8875ed	0.016657794
12	0xbb18bc04	-0.0023305425
13	0x38fb85c6	0.0001199353
14	0xbc598f45	-0.013278787
15	0x3cf3f4e7	0.029779864
16	0xbe9f854e	-0.3115639
17	0xbd761531	-0.060078803
18	0x3d07609a	0.03305111
19	0x3aedd6aa	0.001814564
20	0xbe7c735f	-0.24653386
21	0x3d6a7d19	0.05724821
22	0x3d4ec728	0.0504829
23	0x3df25faa	0.11834653
24	0x3d0a6c29	0.033794556
25	0x3b5521e4	0.003252142
26	0x3be1b211	0.0068876822
27	0x3d91969e	0.07108806
28	0x3cdcb015	0.026939431
29	0xbd431a4e	-0.047632508
30	0x3d8f5cb4	0.070001036
31	0xbd8ed83d	-0.06974838

actor.init_internal_node_embed.2.module.weight f4 [64, 32]
0	0x3dd2d767	0.10294991
1	0x3e365d3a	0.17809
2	0xbdec3550	-0.11533606
3	0x3e1be17a	0.15222731
4	0x3c97af5e	0.018516239
5	0x3dea9fb5	0.11456243
6	0x3e0858af	0.1331508
7	0x3f101bd1	0.56292444
8	0x3e8cfb69	0.2753556
9	0xbe063f38	-0.13110054
10	0x3f4ec312	0.80766404
11	0x3dfb0a2a	0.12257798
12	0x3d37c55a	0.044865943
13	0xbe59ff17	-0.21288715
14	0xbf305c4d	-0.6889084
15	0x3e999a36	0.30000466
16	0xbc83c274	-0.016083933
17	0x3e4b27d1	0.19839408
18	0x3ce472f8	0.027886853
19	0x3e629671	0.22127701
20	0xbe63195e	-0.22177646
21	0x3e405d8a	0.18785682
22	0x3f8d5212	1.1040671
23	0xbd50c4af	-0.050968822
24	0x3f10bce5	0.5653823
25	0x3e678072	0.22607592
26	0x3e07c8ef	0.13260244
27	0x3e8ce47b	0.27518067
28	0x3e19ca7c	0.15018648
29	0xbc128757	-0.0089434
30	0xbe1e21c6	-0.15442571
31	0x3bffb63b	0.007803706
32	0x3ea98d60	0.33115673
33	0x3db07db3	0.08617725
34	0xbf0ae730	-0.54259014
35	0xbf0df8b4	-0.55457616
36	0xbd283e0f	-0.04107481
37	0x3e8d500d	0.27600136
38	0x3d906eee	0.07052408
39	0xbec30115	-0.38086763
40	0xbe72000a	-0.23632827
41	0x3e49fef4	0.19726163
42	0x3eed8665	0.46391597
43	0x3e1c5ca5	0.15269716
44	0x3ead0315	0.33791414
45	0x3d33f6fa	0.043936707
46	0xbd4b115a	-0.049577095
47	0x3e826d38	0.25473952
48	0xbd69edaf	-0.05711144
49	0xbd25578f	-0.040366706
50	0xbdef150a	-0.11673935
51	0xbe0581e4	-0.1303783
52	0x3d1ebc4b	0.03875379
53	0x3e9f86db	0.31157574
54	0x3f735761	0.95055205
55	0x3eb4259f	0.35184953
56	0xbe1ce640	-0.15322208
57	0x3dbed473	0.09317865
58	0x3c0b6f82	0.008510472
59	0x3d9bbc8e	0.07604323
60	0x3f2aead7	0.6676459
61	0x3e50e456	0.20399603
62	0x3dd98b21	0.1062224
63	0xbca71ed8	-0.02040045
64	0xbe8fbcfa	-0.28073865
65	0xbc00cb07	-0.0078609055
66	0x3f07b02c	0.5300319
67	0x3f173056	0.5905813
68	0x3f0d7442	0.5525552
69	0xbbd62518	-0.0065351836
70	0xbe99caa3	-0.30037412
71	0x3f88ea45	1.0696493
72	0xbe4c4576	-0.19948372
73	0xbe9168c3	-0.2840024
74	0xbef8accd	-0.48569337
75	0xbf381dd3	-0.7192051
76	0x3ceafa51	0.028683813
77	0x3e685926	0.22690257
78	0x3eeede7a	0.4665411
79	0xbf09480e	-0.5362557
80	0xbdcda7c6	-0.10041766
81	0x3db28095	0.08715931
82	0x3d0e3202	0.03471566
83	0xbecda9b2	-0.4016853
84	0xbd1619f8	-0.03664586
85	0x3eeecf85	0.466427
86	0xbdbcb991	-0.092150815
87	0xbe828819	-0.2549446
88	0xbd22124f	-0.03956824
89	0xbd9150ac	-0.07095465
90	0x3dee23a0	0.11627889
91	0x3caa2fdd	0.020774776
92	0x3e5074da	0.20357075
93	0xbe29fc45	-0.1660014
94	0x3e5a1d91	0.21300341
95	0x3dd1db2f	0.10246884
96	0xbcccc827	-0.024997784
97	0xbe60e432	-0.2196205
98	0xbce51680	-0.02796483
99	0x3edcae61	0.4310179
100	0x3ddea4c4	0.1087127
101	0x3c242646	0.010018891
102	0x3d0d2c91	0.03446633
103	0x3e1d6856	0.15371832
104	0x3d0c3a40	0.03423524
105	0xbc93e767	-0.018054677
106	0x3da727b6	0.08161871
107	0xbd5d3936	-0.05400964
108	0xbe97bbfc	-0.29635608
109	0x3d77c6ca	0.060492314
110	0xbea872f5	-0.32900205
111	0x3c21537a	0.0098465625
112	0x3de19814	0.11015335
113	0xbe9f00c7	-0.3105528
114	0x3e0585d9	0.1303934
115	0x3dca8988	0.09889513
116	0xbe850ab0	-0.25984716
117	0x3f1bc49e	0.6084689
118	0xbe15ab07	-0.14616023
119	0x3e8e4286	0.27785128
120	0x3e518114	0.20459396
121	0xbc455cea	-0.012046078
122	0x3e1d538d	0.15363903
123	0x3eb556bc	0.35417736
124	0x3dda4f19	0.10659618
125	0xbd528c47	-0.05140331
126	0xbeca7ef2	-0.39549977
127	0x3e46502c	0.1936652
128	0x3ea58dfb	0.32334885
129	0xbdedc19c	-0.11609194
130	0xbe422106	-0.1895791
131	0x3dc82949	0.097734995
132	0xbf16743f	-0.5877113
133	0xbdc6d8be	-0.09709309
134	0x3ece1944	0.4025365
135	0xbf09b8a5	-0.5379737
136	0xbf0c16b7	-0.5472216
137	0x3ef595e7	0.4796593
138	0x3ed011b8	0.40638518
139	0x3ebe900e	0.3721928
140	0xbdb5efc5	-0.08883623
141	0xbe550aaf	-0.20804857
142	0x3e84398d	0.25825158
143	0xbdc965f9	-0.09833903
144	0x3b973c3b	0.0046153343
145	0xbdc63717	-0.09678476
146	0x3b308252	0.0026933146
147	0x3d4fc023	0.050720345
148	0xbe10aa47	-0.14127456
149	0x3ec6c27a	0.3882025
150	0x3e3d860d	0.18508168
151	0xbc103279	-0.008801096
152	0xbe504f4d	-0.20342751
153	0x3e926b5b	0.2859753
154	0x3eab7419	0.33487013
155	0x3e09100c	0.13385028
156	0x3f0f5799	0.5599304
157	0x3d240364	0.040042296
158	0x3e23561a	0.15950814
159	0xbe0d247a	-0.13783446
160	0xbe9a4e34	-0.3013779
161	0xbddd80f5	-0.10815612
162	0xbc976e6a	-0.018485267
163	0x3d187088	0.037216693
164	0x3f60f267	0.87869877
165	0xbe87191f	-0.26386353
166	0xbe70e0a1	-0.23523189
167	0x3ec0fc3c	0.3769244
168	0x3e44baa6	0.19211826
169	0xbdc41343	-0.095739864
170	0x3f5a2ecf	0.85227674
171	0xbec02849	-0.37530735
172	0xbc413438	-0.011792235
173	0xbe41ab64	-0.18913037
174	0x3cf0083e	0.029300805
175	0x3e92f346	0.28701228
176	0x3e5954cb	0.21223752
177	0x3e5a2745	0.21304043
178	0xbda535bb	-0.08066889
179	0xbc45b357	-0.012066684
180	0xbd1d183b	-0.038353186
181	0x3dbc5b6d	0.091971256
182	0x3ed00bec	0.40634096
183	0xbf1d173f	-0.61363596
184	0x3d92137c	0.071326226
185	0x3e8e3900	0.27777863
186	0x3e792b0a	0.24332824
187	0x3ede92e7	0.43471453
188	0x3be5d111	0.007013448
189	0xbdfab60f	-0.12241756
190	0x3d3a38f8	0.045464486
191	0x3e48ad8c	0.19597453
192	0x3ead2505	0.33817306
193	0x3c27f850	0.010252073
194	0x3df614df	0.120156996
195	0xbda4988d	-0.08036909
196	0x3ee5a5f7	0.44853184
197	0x3d3942c6	0.045229696
198	0xbe74d120	-0.239079
199	0x3e377620	0.17916155
200	0xbb42b595	-0.0029710282
201	0xbe43121a	-0.19049874
202	0x3ea3d424	0.31997788
203	0xbe4ff36a	-0.20307699
204	0xbeb24bd4	-0.34823477
205	0xbbc58e2b	-0.0060289106
206	0x3e87aa20	0.26496983
207	0xbef80c09	-0.48446682
208	0x3c20667f	0.009790062
209	0xbeb3cdd5	-0.35117975
210	0x3da31107	0.07962232
211	0xbcbe7c7e	-0.023252722
212	0x39ad360c	0.000330374
213	0x3d8daac2	0.06917335
214	0x3a95f96b	0.001144213
215	0x3e8215b1	0.25407174
216	0xbe13988f	-0.14413665
217	0x3d803c96	0.06261556
218	0xbe3072b2	-0.17231253
219	0x3edcd2b9	0.4312952
220	0xbea739ea	-0.32661372
221	0x3db22f71	0.08700455
222	0xbedd484f	-0.4321923
223	0xbda2ce2c	-0.079494804
224	0xbdda1198	-0.10647887
225	0xbdf90740	-0.12159586
226	0xbeef0710	-0.46685076
227	0xbe9bc089	-0.3042033
228	0xbec8c799	-0.3921478
229	0xbca89167	-0.020577146
230	0x3e3b6d90	0.18303514
231	0xbd885693	-0.06657138
232	0x3de49ace	0.11162339
233	0x3e92c01d	0.28662196
234	0x3ef264ae	0.47342438
235	0x3ee43b86	0.44576663
236	0xbe3b2eb3	-0.18279533
237	0x3dd900c5	0.1059585
238	0xbe4bcc5a	-0.19902173
239	0xbda48c5e	-0.080345854
240	0xbd78f876	-0.060783826
241	0xbe68f2c0	-0.22748852
242	0x3e5ad6fa	0.2137107
243	0x3e379375	0.17927344
244	0x3cd82e04	0.02638913
245	0xbeca1660	-0.39470196
246	0x3f2bed34	0.6715882
247	0x3cba322b	0.022729
248	0xbf07579c	-0.52868056
249	0x3e1cf6a8	0.15328467
250	0xbeae682b	-0.3406385
251	0xbedce8ac	-0.43146265
252	0x3f276df6	0.6540216
253	0x3e34ed92	0.17668751
254	0x3ece4494	0.40286696
255	0xbdbd6d84	-0.09249404

actor.init_internal_node_embed.2.add_bias._bias f4 [64, 1]
0	0x3e342aa6	0.17594394
1	0x3e9724ee	0.29520363
2	0xbd4ef1c0	-0.05052352
3	0x3d9fc550	0.07801306
4	0x3e1e6f79	0.15472211
5	0x3e998205	0.2998201
6	0x3d1e5b0f	0.03866106
7	0x3de5f028	0.11227447
8	0xbd99c6f4	-0.075086504
9	0xbdd27970	-0.102770686
10	0x3bc92682	0.0061386237
11	0x3cf0c740	0.029391885
12	0xbd90c6b2	-0.07069148
13	0x3da3a1cf	0.07989847
14	0x3e0d3b24	0.13792092
15	0x3e19c873	0.15017872
16	0x3c2c895b	0.010530795
17	0xbe4ca48f	-0.19984649
18	0x3cb2001a	0.021728564
19	0x3dbe38d2	0.09288181
20	0xba307cf1	-0.0006732485
21	0x3d047fa7	0.0323483
22	0xbd691cd7	-0.05691227
23	0xbd958794	-0.0730125
24	0x3e0e61da	0.13904515
25	0xbd2b6bc7	-0.04185083
26	0xbd212ede	-0.039351337
27	0x3d357183	0.044297706
28	0xbdc93371	-0.09824265
29	0xbc63fc98	-0.0139152035
30	0x3c1a9d55	0.009436925
31	0xbbad0993	-0.0052806824
32	0x3d984d40	0.07436609
33	0x3d0669c6	0.032815717
34	0x3e886f79	0.26647547
35	0xbdae23c8	-0.085029185
36	0x3cc00c63	0.023443406
37	0xbe10b332	-0.14130858
38	0xbce6ca06	-0.028172504
39	0x3e567299	0.20942153
40	0xbd35ce1a	-0.044386007
41	0xbe7b9026	-0.24566707
42	0x3e166299	0.1468605
43	0xbc1b5614	-0.009480972
44	0xbe02f579	-0.12788953
45	0xbd8043b4	-0.06262913
46	0xbe9ae9fc	-0.3025664
47	0xbe8f1c28	-0.2795117
48	0x3e8eb833	0.27874908
49	0x3c8081dc	0.015686922
50	0x3dc3073d	0.09522865
51	0x3d6a9b2b	0.057276886
52	0xbc3bbd79	-0.011458748
53	0xbc8254f4	-0.01590965
54	0xbd2a956b	-0.041646402
55	0x3e52cbe5	0.20585592
56	0x3e6264ae	0.22108719
57	0xbda00852	-0.07814087
58	0x3cc38651	0.023867758
59	0x3d54e76b	0.05197851
60	0x3d680e6c	0.05665438
61	0x3df41918	0.11918849
62	0xbd1b0607	-0.037847545
63	0x3cf907f0	0.030399293

actor.init_leaf_node_embed.0.module.weight f4 [32, 8]
0	0xbd9eb400	-0.07749176
1	0xbeafb5bb	-0.34318337
2	0xbec98661	-0.39360335
3	0xbd925dbd	-0.071467854
4	0x3e2bef79	0.1679057
5	0x3ebddc65	0.3708221
6	0x3efdbaae	0.49556488
7	0x3e8a0761	0.26958755
8	0xbec7d21a	-0.39027482
9	0xbf2c074d	-0.6719864
10	0xbd936f36	-0.07198946
11	0xbea74ed0	-0.32677317
12	0xbe7d9e6c	-0.24767464
13	0x3ead3622	0.33830363
14	0xbcb4d3e4	-0.022073694
15	0x3ebabde5	0.36473003
16	0x3e484393	0.19557028
17	0xbec018f7	-0.37519047
18	0xbe0587e5	-0.13040121
19	0x3ed40929	0.4141324
20	0x3b8a8668	0.0042274483
21	0xbea2a55a	-0.31766778
22	0xbd682d08	-0.05668357
23	0xbd8a1e79	-0.067440934
24	0xbece6ad2	-0.40315872
25	0xbe4b61c3	-0.19861512
26	0xbe78a632	-0.24282148
27	0xbe81a882	-0.25323874
28	0x3eaba17f	0.3352165
29	0x3d37e047	0.044891622
30	0x3ee70d99	0.45127562
31	0x3de9e4b1	0.114205725
32	0xbd25dd1e	-0.040494077
33	0xbe39130e	-0.18073675
34	0x3d96f222	0.07370402
35	0x3de37f1e	0.1110823
36	0x3ec15e34	0.37767184
37	0x3e063d7b	0.1310939
38	0xbeff5005	-0.49865738
39	0x3ec852a0	0.39125538
40	0x3dbcc510	0.09217274
41	0x3e16d878	0.14731014
42	0xbf085a7e	-0.5326308
43	0x3e238929	0.15970291
44	0xbeeedf8f	-0.46654937
45	0x3f05fe2e	0.5234097
46	0xbdfaade4	-0.12240198
47	0xbe838a89	-0.2569163
48	0xbeb342a6	-0.35011786
49	0xbe272ad1	-0.16324927
50	0xbd933c29	-0.07189209
51	0x3d72fcd0	0.059323132
52	0x3dbb9b7d	0.091605164
53	0xbe44b241	-0.19208623
54	0xbdcc6865	-0.09980849
55	0xbde01580	-0.10941601
56	0x3ec15d62	0.37766558
57	0xbee2faa3	-0.44331846
58	0x3e834e6f	0.25645778
59	0x3ee9009c	0.45508277
60	0xbd000ca1	-0.031262044
61	0x3ec71af5	0.38887754
62	0x3d381e3e	0.044950716
63	0x3e66c219	0.2253498
64	0x3dd93d4f	0.10607397
65	0x3dfe30ef	0.12411677
66	0xbe2cd28d	-0.16877194
67	0x3eac81d3	0.33692798
68	0x3dcd4b78	0.1002416
69	0x3dae7e93	0.08520236
70	0x3efb1266	0.49037474
71	0x3eb22f08	0.34801507
72	0xbdb457b3	-0.0880579
73	0x3eac5306	0.33657092
74	0xbe3577f7	-0.17721544
75	0x3e99238c	0.29909933
76	0x3ce5d98d	0.028057838
77	0xbdf0fcf5	-0.11766998
78	0x3ee7a1b2	0.4524055
79	0xbe9905c9	-0.29887226
80	0x3d5ee732	0.054419704
81	0x3dcca7bc	0.0999293
82	0x3e902360	0.2815199
83	0xbd911218	-0.07083529
84	0x3eb013d0	0.34390116
85	0xbcea5326	-0.028604101
86	0xbe45b2c8	-0.19306481
87	0x3cad61e2	0.021164838
88	0xbe8daeef	-0.27672526
89	0x3d038550	0.03210956
90	0x3e3e67d2	0.18594292
91	0x3db33360	0.087500334
92	0x3eeee8e4	0.46662056
93	0x3dc69aa8	0.09697467
94	0xbc888392	-0.0166643
95	0xbeb7411b	-0.3579186
96	0x3ec7062b	0.38871893
97	0x3d96ad19	0.073572345
98	0x3f117143	0.5681345
99	0xbeaefa7f	-0.34175488
100	0xbdac450c	-0.08411607
101	0xbd8691b6	-0.06570761
102	0x3ebbf32c	0.36708963
103	0xbdeec120	-0.116579294
104	0xbe4f00e8	-0.2021519
105	0x3d190c51	0.03736526
106	0x3e7a19fc	0.24423975
107	0xbe0a1c56	-0.13487372
108	0xbe84b601	-0.25920108
109	0xbe684d6e	-0.22685787
110	0x3eb62cc3	0.35581025
111	0x3d9c2aa3	0.0762532
112	0x3e352cab	0.1769282
113	0xbcc1231f	-0.023576317
114	0x3e238095	0.15967019
115	0x3ee800d9	0.45313147
116	0x3df8a01c	0.121399134
117	0x3ed1e623	0.40995893
118	0x3de94312	0.11389746
119	0xbd94f0af	-0.07272469
120	0x3f00dab4	0.50333714
121	0x3e0ad4f4	0.13557798
122	0xbdf0b7b0	-0.117537856
123	0xbf062b21	-0.5240956
124	0x3e46187d	0.19345279
125	0x3ef171e5	0.47157207
126	0x3d124a72	0.035715528
127	0xbe9c02cf	-0.30470893
128	0xbd4b2d0d	-0.04960351
129	0x3db46e00	0.08810043
130	0xbe94b1fb	-0.29042038
131	0x3eb5881e	0.35455412
132	0x3e41b4b6	0.18916592
133	0x3c9463e0	0.01811403
134	0xbe77f7e4	-0.24215657
135	0x3da090b2	0.078400984
136	0xbdb2d813	-0.08732619
137	0x3ebeff00	0.37303925
138	0x3ddebc49	0.10875756
139	0x3da3f1d7	0.08005112
140	0xbe8b39e1	-0.27192596
141	0x3db818e2	0.08989121
142	0x3e3de466	0.18544158
143	0x3e936ec6	0.2879545
144	0xbe4e9bee	-0.2017667
145	0x3d54a722	0.051917203
146	0x3d8ba2bb	0.06818148
147	0xbeb7890a	-0.3584674
148	0xbe744bd4	-0.23857051
149	0x3eb87ae9	0.36031273
150	0x3d48bb5c	0.049006805
151	0x3df4d329	0.11954338
152	0xbec639a6	-0.38715857
153	0x3e0958f0	0.13412833
154	0xbdc6dfa5	-0.097106256
155	0x3e8f2577	0.2795827
156	0x3d5f8804	0.054573074
157	0x3f04a65f	0.5181636
158	0xbdb772ae	-0.0895742
159	0x3dd91ab7	0.106007986
160	0xbe7be701	-0.2459984
161	0xbe8b4651	-0.27202085
162	0xbe9bd0d2	-0.30432755
163	0xbd389588	-0.04506448
164	0x3cceb0cc	0.025230788
165	0x3ed57291	0.4168897
166	0xbe10a5a2	-0.14125684
167	0xbe862f68	-0.26208043
168	0x3e062348	0.13099396
169	0xbe14b2f2	-0.14521387
170	0x3ef7c94a	0.4839576
171	0xbde10568	-0.10987359
172	0x3cbbc38d	0.022920394
173	0xbde4feaf	-0.111813895
174	0xbe47a64e	-0.19497034
175	0x3d6d99a4	0.05800785
176	0xbea5bd5b	-0.3237103
177	0x3eb64d75	0.3560597
178	0x3ca132c6	0.019677531
179	0x3e9fb19f	0.31190202
180	0x3e78f5da	0.24312535
181	0x3e3b4308	0.18287289
182	0x3df1c9c3	0.11806061
183	0x3e076341	0.13221456
184	0xbe975935	-0.29560247
185	0xbe144fea	-0.1448361
186	0x3d95c6e0	0.07313323
187	0xbd99cb89	-0.075095244
188	0x3ee76713	0.45195827
189	0xbd31e0e1	-0.04342735
190	0xbd17a27f	-0.037020203
191	0xbd7e7b2a	-0.062129177
192	0x3d6e1d5d	0.05813347
193	0x3daaad00	0.083337784
194	0x3e82e3f3	0.25564536
195	0xbcb81807	-0.022472395
196	0x3e636cae	0.22209427
197	0x3d83911c	0.06424162
198	0xbc8cbb4c	-0.017179154
199	0x3efce8d4	0.49396384
200	0x3e9a6c3f	0.3016071
201	0x3e53d6ce	0.2068741
202	0xbefc6999	-0.49299315
203	0xbea5876a	-0.32329875
204	0x3d427d25	0.04748263
205	0xbcaec4b3	-0.021334028
206	0x3d3fcb40	0.046824694
207	0xbe99970f	-0.2999806
208	0x3e72a221	0.2369466
209	0xbe30b42f	-0.17256235
210	0x3df379ce	0.11888467
211	0x3ed75f86	0.42065066
212	0x3e1ca5c9	0.15297617
213	0x3df2b7a3	0.11851432
214	0x3ee3f336	0.44521493
215	0xbe8e7b1c	-0.278283
216	0x3d194953	0.037423443
217	0xbe327f1e	-0.17431304
218	0xbec3bb3b	-0.38228783
219	0x3e0f9cfa	0.14024726
220	0x3f19bc91	0.60053355
221	0xbd7ed2da	-0.062212802
222	0x3e5e31ba	0.21698657
223	0x3eba74ee	0.36417335
224	0x3eab7c37	0.33493206
225	0xbde30df2	-0.11086644
226	0xbe142a87	-0.14469348
227	0xbdbeabcc	-0.093101114
228	0x3c2e7bc4	0.010649625
229	0xbeda55c2	-0.42643553
230	0x3dd158bd	0.102220036
231	0x3e500625	0.20314844
232	0x3de3a587	0.11115556
233	0x3e79bca3	0.24388365
234	0xbe3efc1a	-0.18650857
235	0xbe577e51	-0.2104428
236	0x3e95d304	0.29262555
237	0x3c19e9a0	0.009394079
238	0xbe5e4b3e	-0.2170839
239	0x3e28dc8f	0.16490386
240	0x3e94b3b9	0.29043368
241	0x3ef20ae1	0.47273925
242	0xbf0220a4	-0.50831056
243	0xbe069c7c	-0.13145632
244	0xbe5ad246	-0.21369275
245	0xbe2f8764	-0.17141491
246	0xbd100d71	-0.03516907
247	0x3ee99f59	0.45629385
248	0x3de54a65	0.1119583
249	0x3ed71aa6	0.4201252
250	0xbd801867	-0.062546544
251	0xbe60b273	-0.21943073
252	0x3de7f19c	0.1132538
253	0x3ec86fce	0.391478
254	0x3e303c45	0.17210491
255	0xbdc6d1b5	-0.09707967

actor.init_leaf_node_embed.0.add_bias._bias f4 [32, 1]
0	0x3c3ffade	0.011717526
1	0x3ce8be90	0.02841118
2	0x3bcee2a0	0.006313637
3	0x3c035257	0.008015237
4	0xbdeeab69	-0.11653788
5	0x3c72a0cf	0.014808848
6	0xbcc722a4	-0.02430851
7	0xbcd267ce	-0.025684264
8	0x3d9feade	0.07808469
9	0x3d11f2f1	0.035632078
10	0x3d22b6fa	0.03972528
11	0xbcf79d8e	-0.030226495
12	0x3ae86c80	0.0017732531
13	0xbd5013fc	-0.05080031
14	0x3e04248c	0.12904567
15	0x3a7c0fee	0.0009615411
16	0xbd234e83	-0.039869796
17	0xbd46a0a9	-0.04849306
18	0x3c3f0432	0.011658715
19	0xbb75e905	-0.0037522924
20	0x3d13b9f8	0.036066025
21	0x3d234fc0	0.039870977
22	0x3df582af	0.119878165
23	0xbcad9186	-0.021187555
24	0x3c411e99	0.01178708
25	0x3c485f5c	0.012229767
26	0x3dbacf6c	0.09121594
27	0xbcae1c73	-0.0212538
28	0xbdc9e44f	-0.098579995
29	0x3b3c40ac	0.002872507
30	0x3c08c73b	0.0083482815
31	0xbe1c0218	-0.15235174

actor.init_leaf_node_embed.2.module.weight f4 [64, 32]
0	0x3e23dc8e	0.16002104
1	0x3eec2a43	0.46125993
2	0x3e21da4c	0.1580593
3	0x3e6713ef	0.22566198
4	0xbe6e30e9	-0.23260845
5	0x3ed1d73e	0.4098453
6	0x3e9bc27a	0.3042181
7	0xbe857ae0	-0.2607031
8	0x3c4e9801	0.012609483
9	0x3e205995	0.15659173
10	0x38c1face	9.249673e-05
11	0xbbd16957	-0.0063907313
12	0xbeb9934d	-0.36245194
13	0xbe0c1353	-0.13679247
14	0x3e05aa02	0.13053134
15	0x3db7943b	0.089638196
16	0x3e2cfdee	0.16893741
17	0xbe1b4157	-0.15161644
18	0x3e1df98d	0.15427227
19	0x3ea9dfb9	0.331785
20	0x3f1f5b82	0.62249005
21	0xbedbc999	-0.42927244
22	0x3f235c90	0.63813114
23	0x3ebabb1f	0.36470887
24	0x3cae754a	0.021296162
25	0x3c83be94	0.016082086
26	0xbc334d1b	-0.010943676
27	0x3eba05d8	0.36332583
28	0xbe05d033	-0.13067703
29	0x3e443481	0.19160654
30	0x3da813fd	0.082069375
31	0xbea0462d	-0.3130354
32	0xbe09c0db	-0.13452475
33	0xbe6c766e	-0.23092052
34	0xbe1240ca	-0.14282528
35	0xbe2ae9c3	-0.16690736
36	0xbe7e9812	-0.24862698
37	0x3eb943e6	0.36184615
38	0xbe6cd2e8	-0.2312733
39	0x3e64326d	0.22284861
40	0x3ea16a52	0.31526428
41	0xbe9ab2ce	-0.30214542
42	0x3dcc7894	0.09983936
43	0xbdb8a3a6	-0.090155885
44	0x3e929695	0.2863051
45	0x3d27d605	0.04097559
46	0x3d2c71d3	0.04210074
47	0x3d4d9769	0.050193224
48	0x3da712c0	0.08157873
49	0x3e25d7dd	0.16195627
50	0x3da4c0b8	0.08044571
51	0xbefa90d2	-0.48938614
52	0xbed59660	-0.4171629
53	0x3f1780e4	0.59181046
54	0x3e3c9bfb	0.18418877
55	0x3e64679b	0.22305147
56	0x3de6fa40	0.112782
57	0x3e1f7cf1	0.15575005
58	0x3e024576	0.1272181
59	0xbdeecd4c	-0.11660251
60	0x3db672b6	0.08908598
61	0x3d4e7bcf	0.05041104
62	0x3e73b3ee	0.23799106
63	0xbe42b962	-0.1901603
64	0xbd14bd94	-0.03631361
65	0x3d5bc16a	0.05365125
66	0x3e5d288f	0.21597503
67	0xbeb63d5c	-0.35593688
68	0x3dd21f91	0.10259927
69	0xbdc60d65	-0.096705236
70	0xbde6ff84	-0.112792045
71	0xbd5b7288	-0.053576022
72	0xbeb510e3	-0.35364446
73	0x3ed16719	0.4089897
74	0x3dd20a21	0.10255838
75	0x3dfb4dde	0.12270711
76	0xbe5341b2	-0.2063053
77	0x3d28704d	0.041122723
78	0x3e1b314c	0.15155524
79	0x3e066a36	0.13126454
80	0xbec2f853	-0.3808008
81	0xbe6bb68f	-0.2301886
82	0x3dbb502d	0.09146152
83	0x3d45f2d7	0.048327293
84	0xbb7ba4fd	-0.0038397901
85	0x3de941d8	0.11389512
86	0x3e06581f	0.13119553
87	0x3db93f1f	0.090452425
88	0x3ec34b81	0.38143542
89	0xbde9c7e5	-0.1141508
90	0x3e24f3d1	0.16108634
91	0xbbc1c213	-0.005913028
92	0xbe1dea7a	-0.15421477
93	0xbd231ddc	-0.039823398
94	0xbf047400	-0.517395
95	0xbe2379cb	-0.15964429
96	0xbe899605	-0.26872268
97	0x3e03e02c	0.12878484
98	0xbec80b49	-0.3907111
99	0x3f0bf7d1	0.5467501
100	0xbe8141e0	-0.2524557
101	0x3da5d81f	0.080978625
102	0xbe24c60a	-0.16091171
103	0x3e379867	0.1792923
104	0xbc8daf79	-0.017295586
105	0x3dbdcfd2	0.09268154
106	0x3e634ee3	0.22198062
107	0x3e0021a4	0.12512833
108	0x3f1b8766	0.60753477
109	0xbe87b083	-0.26501855
110	0xbd53369d	-0.051565755
111	0xbe07bace	-0.13254854
112	0xbe1d774f	-0.15377544
113	0x3e8aa3ea	0.27078182
114	0xbb0304f0	-0.0019991957
115	0x3d201039	0.03907797
116	0xbef40a5e	-0.4766416
117	0xbd2e4e61	-0.042555217
118	0xbde33265	-0.11093596
119	0xbe3bbd13	-0.18333845
120	0x3db9318d	0.09042654
121	0xbdf5b391	-0.1199714
122	0x3e91b72d	0.28460065
123	0x3e5ca161	0.21545936
124	0x3e52941c	0.20564312
125	0xbce00cea	-0.027349908
126	0xbda42f40	-0.08016825
127	0x3de0a609	0.10969169
128	0xbeaeab47	-0.3411505
129	0xbec1db0b	-0.3786243
130	0xbe06d651	-0.13167693
131	0xbe03529a	-0.12824479
132	0x3c81a97d	0.015827889
133	0xbe8ea283	-0.27858362
134	0xbe6c5a70	-0.23081374
135	0xbe4df5f4	-0.20113355
136	0xbf20511a	-0.6262375
137	0x3ea92619	0.3303688
138	0x3d344404	0.044010177
139	0xbbad983d	-0.0052976892
140	0x3ee7c0f4	0.452644
141	0xbc8d6d82	-0.017264131
142	0xbe859a52	-0.260943
143	0x3e236cc1	0.15959455
144	0x3d91a752	0.07111992
145	0xbe4c873b	-0.19973461
146	0xbeae49fc	-0.3404082
147	0xbe1624be	-0.14662454
148	0x3e319513	0.17342024
149	0x3e5462f1	0.20740868
150	0x3dcfffb6	0.10156195
151	0xbd8f7737	-0.0700516
152	0xbe299a5b	-0.16562788
153	0x3d6c6c1b	0.057720285
154	0xbd5305a4	-0.05151905
155	0x3c615193	0.013752359
156	0xbdb46577	-0.088084154
157	0x3c9c966a	0.019114692
158	0x3e1c84d1	0.1528504
159	0xbe06827a	-0.1313571
160	0xbe0d0950	-0.13773084
161	0x3e6618dd	0.22470422
162	0xbe38e8d9	-0.18057574
163	0xbec5cf0f	-0.38634536
164	0x3e07dbeb	0.13267486
165	0x3e637ec3	0.22216325
166	0x3d9a1f0f	0.07525455
167	0xbe399ff8	-0.1812743
168	0xbeaaa36f	-0.33327815
169	0xbdc26134	-0.09491196
170	0x3b8cb692	0.004294225
171	0x3d5875db	0.05284677
172	0xbe1bc9e6	-0.15213737
173	0xbe6dc287	-0.23218738
174	0x3ee5db33	0.44893798
175	0xbe86e410	-0.26345873
176	0x3e6dba15	0.23215516
177	0x3cc61bf4	0.024183251
178	0x3cd50376	0.026002627
179	0xbc783df8	-0.015151493
180	0xbc44a3dd	-0.012001959
181	0xbd7fb947	-0.062432554
182	0xbe0c7881	-0.13717844
183	0xbeaa451c	-0.3325585
184	0xbe522fe7	-0.20526086
185	0x3d21d7b1	0.03951234
186	0x3d251f9d	0.040313352
187	0x3e896bb8	0.26839995
188	0xbd1f0523	-0.038823258
189	0x3d976f26	0.07394247
190	0xbe5d96bf	-0.21639536
191	0xbd8c0997	-0.068377666
192	0xbe30be54	-0.17260104
193	0xbed76dac	-0.4207586
194	0xbeb92929	-0.36164215
195	0x3e11ae89	0.14226736
196	0xbe5b0c30	-0.21391368
197	0xbe3b9c4b	-0.1832134
198	0x3ccd74fd	0.025080198
199	0x3cdae3dc	0.02671998
200	0x3bc34082	0.0059586177
201	0xbc5930e5	-0.013256286
202	0xbba1a795	-0.0049333074
203	0xbe6361df	-0.22205304
204	0x3eb14b06	0.3462755
205	0x3df0f247	0.11764961
206	0xbe4eff11	-0.20214488
207	0xbe562b15	-0.20914872
208	0xbe158fd2	-0.14605644
209	0x3f1e50e8	0.61842203
210	0x3d9423de	0.072334036
211	0xbcf088b4	-0.02936206
212	0x3e072c27	0.13200437
213	0x3e863201	0.26210025
214	0xbe15ee9b	-0.14641802
215	0x3de177ea	0.110092
216	0x3dbde84a	0.09272821
217	0x3e6f18e9	0.23349346
218	0xbe811d99	-0.25217894
219	0xbc091110	-0.008365884
220	0x3e133538	0.1437577
221	0xbd83f976	-0.06444065
222	0xbe8a87ae	-0.2705664
223	0x3da4f2e3	0.080541395
224	0x3cd53a4c	0.026028775
225	0x3e8f81d7	0.28028747
226	0xbe9e52fe	-0.30922693
227	0xbea416b2	-0.32048565
228	0xbf0586c0	-0.5215874
229	0xbe8815ca	-0.26579124
230	0x3e374a0d	0.17899342
231	0xbe6f34df	-0.23360012
232	0xbd92c748	-0.07166916
233	0x3cd5d35e	0.026101764
234	0xbb741929	-0.0037246442
235	0xbeb27840	-0.34857368
236	0x3e2c9710	0.16854501
237	0xbea71248	-0.32631135
238	0xbee01464	-0.43765557
239	0x3d992ee2	0.07479645
240	0xbe93ade0	-0.28843594
241	0x3e5b7f98	0.21435392
242	0xbdc50d9d	-0.09621737
243	0xbe1e51b3	-0.15460853
244	0xbd0378b9	-0.032097552
245	0x3f36bdb0	0.7138319
246	0xbd86dfaf	-0.06585633
247	0xbe814358	-0.25246692
248	0xbda5c5a7	-0.0809434
249	0x3d86e8a6	0.06587343
250	0xbe46c5fc	-0.19411463
251	0xbe89735a	-0.2684582
252	0x3e3fa1e6	0.18714103
253	0xbeeb36c6	-0.45940226
254	0x3e809e53	0.25120792
255	0xbaf02eb4	-0.0018324465

actor.init_leaf_node_embed.2.add_bias._bias f4 [64, 1]
0	0x3e8a9abb	0.27071175
1	0x3e102360	0.14075994
2	0x3d2e61d0	0.04257375
3	0x3c3420f1	0.010994182
4	0xbe392048	-0.1807872
5	0x3c6d7837	0.0144939935
6	0xbe5420a4	-0.20715576
7	0xbe8c40c9	-0.27393177
8	0xbe30fe14	-0.17284423
9	0xbe2a34f8	-0.16621768
10	0x3e8ee1e1	0.27906707
11	0xbe1826c0	-0.14858532
12	0x3dc61880	0.09672642
13	0xbdb5c5fe	-0.08875655
14	0xbdd25fc1	-0.1027217
15	0xbd97da45	-0.074146785
16	0x3e0e333a	0.13886729
17	0xbe118838	-0.1421212
18	0xbea2e0c8	-0.3181212
19	0xbd0aff77	-0.033935037
20	0x3d178f5c	0.037001953
21	0x3da7c4a3	0.08191802
22	0x3c492e8e	0.012279166
23	0x3d305d72	0.043057866
24	0x3e720015	0.23632844
25	0xbd3c53a6	-0.04597821
26	0xbbf9c3c8	-0.007622216
27	0xbda7504a	-0.08169611
28	0xbe30366f	-0.17208265
29	0x3de50af7	0.11183732
30	0xbe1469b7	-0.14493452
31	0xbcc5df6b	-0.024154386
32	0x3de78e33	0.11306419
33	0xbd771e48	-0.060331613
34	0xbe1d535c	-0.1536383
35	0x3e1b835f	0.15186833
36	0x3e672212	0.2257159
37	0xbd1f3eb3	-0.038878154
38	0xbd0e60fc	-0.03476046
39	0xbe030242	-0.1279383
40	0x3d74c0d0	0.059754193
41	0xbefead20	-0.4974146
42	0x3e3ed591	0.18636157
43	0x3d7208ce	0.059090428
44	0xbe11ee16	-0.14250979
45	0xbd2028a9	-0.039101277
46	0xbe10a9ab	-0.14127223
47	0xbd2f36fe	-0.042777054
48	0xbe6b09b5	-0.22952922
49	0x3d3d7819	0.046257112
50	0xbd658d1c	-0.056042776
51	0xbd892aec	-0.0669764
52	0x3dd99255	0.10623614
53	0xbe279c38	-0.16368186
54	0xbe3f2aa2	-0.18668607
55	0x3dd53378	0.104102075
56	0x3c9ef86a	0.019405562
57	0xbe6c6992	-0.23087147
58	0x3e44150a	0.19148651
59	0xbe8a1a07	-0.26972982
60	0x3e07ac0b	0.13249223
61	0xbe06835f	-0.13136052
62	0x3d941931	0.072313674
63	0x3cbab10d	0.022789503

actor.init_next_embed.0.module.weight f4 [32, 6]
0	0x3e0a2fde	0.13494822
1	0xbe1761b2	-0.14783362
2	0xbe9909d2	-0.29890305
3	0xbeebe54a	-0.4607337
4	0xbe734267	-0.23755799
5	0xbcbdf857	-0.023189707
6	0xbe60c18c	-0.21948832
7	0xbdc7ff51	-0.097654946
8	0x3e3f5108	0.18683255
9	0xbe78a6c4	-0.24282366
10	0x3caa7a4e	0.020810273
11	0xbe73080b	-0.23733537
12	0x3edb31fe	0.4281158
13	0xbe89160d	-0.26774636
14	0xbe83fc7b	-0.25778565
15	0xbd8e4cce	-0.06948243
16	0xbe7910c7	-0.24322806
17	0x3eb3de76	0.35130662
18	0xbc1d598a	-0.009603867
19	0x3d14fbff	0.036373135
20	0xbd079595	-0.033101637
21	0x3ed6170d	0.4181446
22	0xbeeed9f4	-0.4665066
23	0xbebb3daa	-0.36570483
24	0x3dde8f4c	0.108671755
25	0xbed81352	-0.4220224
26	0xbdfe1b94	-0.12407604
27	0xbe810a83	-0.25203332
28	0xbdc28ef8	-0.094999254
29	0xbe22af29	-0.15887131
30	0xbcb8218d	-0.022476936
31	0xbf13c5cc	-0.5772369
32	0x3e9129bf	0.28352162
33	0xbf373a4f	-0.71573347
34	0xbe010e10	-0.1260302
35	0x3e200b50	0.15629315
36	0x3f77428a	0.96585906
37	0x3dd2c78c	0.10291967
38	0x3d915a90	0.070973516
39	0xbe2ea56a	-0.17055288
40	0xbc50cf71	-0.01274477
41	0xbec74525	-0.3891994
42	0xbdb2af7c	-0.08724877
43	0x3dc959c3	0.09831574
44	0x3e1552b6	0.14582333
45	0x3daf08b9	0.085465856
46	0xbe9ba002	-0.30395514
47	0x3e39b594	0.18135673
48	0xbe80fcab	-0.2519277
49	0xbf172879	-0.5904613
50	0x3e7a5438	0.2444619
51	0x3cdb8d79	0.026800858
52	0x3fadbe23	1.357365
53	0xbf343011	-0.70385844
54	0x3dd8b93b	0.10582205
55	0xbe95a08d	-0.29224053
56	0xbe3aa602	-0.1822739
57	0x3d747e8e	0.059691004
58	0xbeacd22a	-0.33754092
59	0xbee23098	-0.441777
60	0xbea5703e	-0.32312196
61	0x3e3a7836	0.1820992
62	0x3c841244	0.016121991
63	0x3ecafc57	0.39645645
64	0x3e8cf4a0	0.27530384
65	0xbede3603	-0.43400583
66	0x3d96bf53	0.07360711
67	0xbcef7ca3	-0.029234236
68	0xbcb12cf2	-0.021627877
69	0x3e16a609	0.14711775
70	0x3cbd4cf9	0.023107992
71	0x3dec0e36	0.11526148
72	0xbeb7cc79	-0.35898188
73	0xbd067e91	-0.032835547
74	0x3e155063	0.14581446
75	0x3c8a6ff8	0.016899094
76	0xbe6e48db	-0.2326998
77	0xbeaff166	-0.3436386
78	0x3d843dc0	0.064570904
79	0x3c15a80a	0.009134302
80	0x3dfe4654	0.12415758
81	0x3e112a29	0.14176239
82	0xbea5e795	-0.32403246
83	0xbdca9810	-0.09892285
84	0x3fa6ab94	1.3021111
85	0xbe69892d	-0.22806235
86	0xbe8314da	-0.25601846
87	0xbf1939a8	-0.598536
88	0xbdf96c98	-0.12178916
89	0x3d57a1a1	0.052644376
90	0xbe348ce3	-0.17631869
91	0xbd823a10	-0.06358731
92	0xbe986d69	-0.29770973
93	0xbe663fae	-0.2248523
94	0xbb61b05d	-0.0034437396
95	0x3e30be63	0.17260127
96	0xbe8e1feb	-0.27758726
97	0xbd0b78cc	-0.034050748
98	0xbde64977	-0.11244481
99	0xbe0b1df3	-0.13585643
100	0xbed671de	-0.4188375
101	0x3dbb34ff	0.091409676
102	0x3f11eb33	0.5699951
103	0xbd4ef030	-0.05052203
104	0x3e49bc52	0.19700745
105	0xbe845f18	-0.258538
106	0xbd6cfc7c	-0.057857975
107	0xbbad7593	-0.005293557
108	0xbd7a2c82	-0.061077602
109	0x3e93853d	0.2881259
110	0x3e6a1819	0.22860755
111	0xbb4bd42c	-0.0031101806
112	0xbd833b75	-0.06407825
113	0x3e85a4c1	0.2610226
114	0x3f6a9634	0.9163544
115	0x3e79fe65	0.2441345
116	0xbeb7a9eb	-0.35871825
117	0xbe877bf6	-0.26461762
118	0x3e2eeffa	0.17083731
119	0x3ded4abd	0.11586521
120	0x3e882fa1	0.26598838
121	0x3cd65550	0.026163727
122	0xbd14e459	-0.03635058
123	0xbe0d95ff	-0.1382675
124	0xbe86590d	-0.26239815
125	0x3e27a28c	0.163706
126	0xbcf91145	-0.030403743
127	0xbe5810e2	-0.2110019
128	0xbf37e023	-0.7182638
129	0xbdd2ea3e	-0.102985844
130	0xbe0588c9	-0.1304046
131	0xbd22da10	-0.03975874
132	0x3deae2ba	0.11469026
133	0xbe1745a4	-0.1477266
134	0xbdc775a0	-0.09739232
135	0x3e051d26	0.129994
136	0xbeb56677	-0.35429737
137	0x3d68be1f	0.05682194
138	0x3f29e5e3	0.66366404
139	0xbe88270e	-0.26592296
140	0x3ea96233	0.33082733
141	0xbf04736a	-0.5173861
142	0x3ef491c0	0.47767448
143	0x3ecdcb71	0.40194276
144	0x3fb15ac3	1.3855823
145	0xbdcbdc5f	-0.09954142
146	0xbe3ad622	-0.18245748
147	0xbeb637ab	-0.35589346
148	0xbe18115c	-0.14850372
149	0x3e19bacb	0.15012662
150	0x3e2e2061	0.17004539
151	0x3e9267b7	0.28594753
152	0xbd83c0a8	-0.06433231
153	0xbe41fdc7	-0.18944465
154	0xbe410c42	-0.18852332
155	0xbec76371	-0.38943055
156	0x3b022909	0.0019860885
157	0xbea3fe93	-0.32030162
158	0x3e39756c	0.18111199
159	0xbd86edc6	-0.065883204
160	0xbe6a72b8	-0.22895324
161	0xbcb96ea0	-0.022635758
162	0xbf02abb7	-0.51043266
163	0xbec3c9a3	-0.38239774
164	0xbe414f82	-0.18877986
165	0xbe40ba6b	-0.18821113
166	0x3e07a7f7	0.13247667
167	0xbe1fea95	-0.1561683
168	0x3ef59b10	0.47969866
169	0x3e529765	0.20565565
170	0xbc9bec0a	-0.01903345
171	0xbfa077a2	-1.2536509
172	0xbce3e27c	-0.027817957
173	0x3e382956	0.17984518
174	0x3edf9354	0.4366709
175	0x3e6c43ab	0.23072688
176	0xbeaff5ce	-0.34367222
177	0xbf390d84	-0.7228625
178	0x3bf6a954	0.0075275097
179	0x3e1aa0db	0.15100424
180	0xbe09ff6b	-0.1347634
181	0xbe84b2a4	-0.25917542
182	0x3e9767ec	0.29571474
183	0x3c955a7a	0.01823162
184	0x3d0e61d1	0.034761254
185	0xbddb36dd	-0.10703824
186	0x3ce46275	0.02787898
187	0xbe67e389	-0.22645392
188	0xbef0b39d	-0.47012034
189	0xbe20c9c1	-0.15701963
190	0xbde4034c	-0.11133441
191	0x3c593bd2	0.013258891

actor.init_next_embed.0.add_bias._bias f4 [32, 1]
0	0x3e246625	0.1605459
1	0x3d407ec1	0.046995882
2	0xbd852beb	-0.06502517
3	0xbd79a9d0	-0.06095296
4	0x3c2b9a67	0.010473824
5	0xbe8b5318	-0.27211833
6	0x3df7babf	0.12096166
7	0xbd855825	-0.06510953
8	0xbe6135dd	-0.21993203
9	0xbc94346b	-0.018091401
10	0xbe0a69ff	-0.13516997
11	0x3e992e70	0.29918242
12	0xbc3a2a1b	-0.011362578
13	0x3e169307	0.14704524
14	0x3ec22364	0.37917626
15	0x3e90276e	0.28155082
16	0xbce29b40	-0.02766192
17	0xbe60a7ef	-0.21939062
18	0xbe8458bc	-0.2584895
19	0x3eb39015	0.35070863
20	0xbdba698f	-0.09102165
21	0xbbfd33c1	-0.007727117
22	0xbe8035b8	-0.25040984
23	0xbd687cb7	-0.056759562
24	0x3e742f0e	0.23846075
25	0xbdac3bb4	-0.08409825
26	0xbe13d0fa	-0.14435187
27	0x3d2cc5a6	0.04218068
28	0x3d0bb609	0.03410915
29	0x3e26281a	0.16226235
30	0x3e1a5aee	0.1507375
31	0x3e1de732	0.15420225

actor.init_next_embed.2.module.weight f4 [64, 32]
0	0x3dccda18	0.100025356
1	0xbde089b7	-0.10963767
2	0x3c9a5af1	0.018842192
3	0x3e387154	0.18011981
4	0x3e181136	0.14850315
5	0x3d9e661e	0.07734321
6	0xbe76b4d6	-0.24092421
7	0xbe6adc0d	-0.22935505
8	0xbdc7dc1c	-0.097587794
9	0x3ea00547	0.31254026
10	0x3da559f4	0.08073798
11	0xbeef683e	-0.46759218
12	0x3dc4b900	0.096055984
13	0x3ecf8d29	0.40537384
14	0x3e06255a	0.13100186
15	0xbe9a69e6	-0.3015892
16	0xbe16b4c3	-0.14717393
17	0x3d875963	0.06608846
18	0xbc8cdb49	-0.017194407
19	0xbe5ef15b	-0.21771757
20	0x3d83b258	0.06430501
21	0xbd6fd3a5	-0.05855145
22	0xbef3a96a	-0.4759019
23	0xbeede9d5	-0.46467462
24	0xbee24de5	-0.44200054
25	0x3eb41a04	0.35176098
26	0xbe315797	-0.17318569
27	0xbdba033e	-0.0908265
28	0x3df36ea4	0.118863374
29	0x3dde146a	0.108437374
30	0x3e7548ce	0.23953554
31	0xbddcd260	-0.10782313
32	0x3e5fde80	0.21862221
33	0xbd733c74	-0.059383824
34	0xbdb9aed9	-0.09066553
35	0xbd8b8769	-0.06812937
36	0xbdbae689	-0.09126002
37	0xbe2bafeb	-0.16766326
38	0xbe22121f	-0.15827225
39	0x398030c6	0.00024450402
40	0x3e93c377	0.28860065
41	0x3d2f64ef	0.042820867
42	0x3ef3d811	0.47625783
43	0x3ea7c36d	0.32766286
44	0xbcb25601	-0.021769525
45	0xbdcdcba8	-0.1004861
46	0xbe429e10	-0.19005609
47	0xbd5863c8	-0.052829534
48	0x3e3c7a8e	0.18406126
49	0x3caa7ff1	0.02081296
50	0xbd9518a6	-0.07280092
51	0x3f05625c	0.5210321
52	0x3e2f87e0	0.17141676
53	0x3cb8ba5b	0.022549799
54	0x3d60046c	0.054691717
55	0xbe1ed38c	-0.15510386
56	0xbe1e3f60	-0.15453863
57	0x3e5ebdfa	0.21752158
58	0xbc23ee6d	-0.010005576
59	0xbe9ef2c6	-0.31044596
60	0xbdd4d2ca	-0.10391767
61	0x3c4ce65d	0.012506095
62	0xbd86104b	-0.065460764
63	0xbd876abc	-0.06612155
64	0xbd15dd6d	-0.03658812
65	0x3d0bf064	0.0341648
66	0x3e7510c7	0.23932181
67	0xbe0a1f95	-0.1348861
68	0xbae92a43	-0.0017789084
69	0x3e491240	0.19635868
70	0xbf06e9eb	-0.5270068
71	0xbeb325d6	-0.34989804
72	0xbec8ab8f	-0.3919339
73	0xbe0f6adc	-0.14005607
74	0x3d0ebb9f	0.0348469
75	0x3ec03496	0.3754012
76	0x3dbdc81f	0.09266686
77	0xbe997197	-0.29969475
78	0xbf30f1c2	-0.69118893
79	0x3e0f58e7	0.13998757
80	0xbe64bb2d	-0.22337027
81	0x3d8664d3	0.065621994
82	0x3e4030d5	0.18768628
83	0x3e20e297	0.15711437
84	0xbd9db887	-0.077012114
85	0xbda37d49	-0.079828806
86	0xbd6b330f	-0.05742174
87	0x3edd20ea	0.43189174
88	0xbec7c8cf	-0.39020392
89	0x3dc92418	0.098213375
90	0xbe5a84a5	-0.21339662
91	0xbe2489cd	-0.16068192
92	0xbf01ccf3	-0.5070335
93	0xbf27b2fa	-0.6550747
94	0xbe91bdd8	-0.28465152
95	0xbe3c084f	-0.18362544
96	0xbe235cd7	-0.15953384
97	0x3e29c1fc	0.16577905
98	0x3eb3a531	0.3508697
99	0xbdc28aac	-0.09499106
100	0xbe9ed6d3	-0.31023273
101	0x3cd4f751	0.025996836
102	0xbec26223	-0.37965497
103	0x3e01cc27	0.12675534
104	0x3ca2e358	0.019883797
105	0x3e724da0	0.23662424
106	0xbeacfc48	-0.33786225
107	0x3e373d7f	0.17894553
108	0x3ddd8df9	0.10818095
109	0x3e1032ab	0.14081828
110	0xbe8aceae	-0.2711081
111	0xbe81efeb	-0.25378355
112	0xbe28470f	-0.16433357
113	0x3e4fb918	0.20285451
114	0x3cfc4729	0.03079565
115	0xbeb8b087	-0.3607218
116	0xbc89b37f	-0.016809223
117	0x3d9533c5	0.07285265
118	0x3e286ba9	0.16447319
119	0x3f432b58	0.7623801
120	0xbeb86522	-0.36014658
121	0xbedccedd	-0.43126574
122	0xbdbf730d	-0.09348116
123	0xbea7684e	-0.32696766
124	0xbe9cdfb1	-0.30639413
125	0xbe34ec39	-0.17668237
126	0x3d8259eb	0.06364807
127	0xbe64cd7c	-0.22344011
128	0xbe50766c	-0.20357674
129	0xbec47b33	-0.38375244
130	0xbda7134e	-0.08157979
131	0x3e7aecf0	0.24504447
132	0x3df0c3d1	0.11756099
133	0xbe2a06d7	-0.16604172
134	0xbd992cc5	-0.07479242
135	0xbda93a59	-0.08263082
136	0x3e1af139	0.15131082
137	0xbdfd9708	-0.123823225
138	0xbe7d2403	-0.24720769
139	0xbbc48309	-0.005997066
140	0xbd097eb7	-0.03356811
141	0x3d33f42d	0.043934036
142	0x3e1dbfed	0.15405245
143	0xbc38aeee	-0.011272175
144	0x3e261193	0.16217642
145	0x3e1b3361	0.15156318
146	0xbe194bcb	-0.14970319
147	0xbeb6760d	-0.3563694
148	0xbe30d9ae	-0.17270538
149	0x3dc329e1	0.09529472
150	0x3e2081e2	0.15674546
151	0x3d73b283	0.059496414
152	0x3e756af2	0.23966578
153	0xbdc15862	-0.09440686
154	0x3ee52c38	0.447603
155	0x3e4d9eb3	0.2008007
156	0xbe67f50b	-0.2265207
157	0xbdc786ea	-0.0974253
158	0xbdb08b1d	-0.08620284
159	0x3cd9a7a6	0.026569199
160	0x3d148a3e	0.03626465
161	0xbd029ca4	-0.031887665
162	0x3d676c96	0.05650004
163	0xbde27082	-0.110566154
164	0x3ead50de	0.3385076
165	0x3e4f452a	0.20241228
166	0x3d2bafd1	0.04191572
167	0x3e109efd	0.14123149
168	0x3daaed27	0.083460145
169	0x3e5b259a	0.21401063
170	0x3d17e1b7	0.037080493
171	0x3f3fe490	0.74958134
172	0x3d2cd785	0.042197723
173	0x3de70328	0.11279899
174	0xbda46a4c	-0.08028087
175	0x3f0f627c	0.5600965
176	0xbcedd717	-0.029033227
177	0x3ea4d4e4	0.32193673
178	0x3de5c5b1	0.11219347
179	0x3f7043fa	0.93853724
180	0x3d382903	0.044960987
181	0xbd0ba04e	-0.034088425
182	0x3e842c00	0.2581482
183	0x3e6be72d	0.23037405
184	0x3ef0d0d8	0.47034335
185	0xbdad955d	-0.084757544
186	0x3d8a637a	0.06757255
187	0x3eb2d007	0.34924337
188	0xbe393fb9	-0.18090715
189	0xbe91ab80	-0.28451157
190	0x3e8c0078	0.27344108
191	0xbe0f37e7	-0.13986169
192	0x3df1a12d	0.1179832
193	0x3e32de30	0.1746757
194	0x3cdc1175	0.026863793
195	0x3e36a4ad	0.17836256
196	0xbd948797	-0.07252424
197	0x3cedb1cc	0.029015444
198	0xbe4dea48	-0.20108902
199	0xbea68d1c	-0.32529533
200	0x3e17f00d	0.14837666
201	0x3e65972d	0.2242095
202	0x3d901f6c	0.07037243
203	0x3e5f8348	0.21827424
204	0x3ccf0afa	0.025273789
205	0x3cca4a35	0.024693588
206	0xbd82376f	-0.06358229
207	0xbdc5250b	-0.09626206
208	0xbcaf9a45	-0.021435866
209	0x3e2b86e8	0.16750681
210	0xbe59612b	-0.21228473
211	0xbcd1176b	-0.025523862
212	0x3e4ff7d3	0.20309381
213	0xbe8ae05a	-0.27124292
214	0x3e2c886f	0.1684892
215	0x3e1f9f4e	0.15588114
216	0xbe1bdd4f	-0.15221141
217	0x3d9548f2	0.07289304
218	0x3d22a319	0.039706323
219	0xbe66f770	-0.22555327
220	0xbde1d24c	-0.11026439
221	0xbd99a1bb	-0.07501551
222	0x3e138f4d	0.14410134
223	0xbe87cde1	-0.2652426
224	0xbe92a1b1	-0.28638986
225	0x3d2ec804	0.04267122
226	0xbeab3af5	-0.33443418
227	0x3ca9f08d	0.020744586
228	0x3e659c40	0.22422886
229	0xbe94b287	-0.29042456
230	0xbdea64e2	-0.11445023
231	0xbe497a9b	-0.19675677
232	0x3cab0193	0.020874774
233	0xbd07c538	-0.033147067
234	0x3eb837bd	0.35980025
235	0x3eb84faf	0.35998294
236	0x3dc0d74a	0.09416063
237	0x3e3a9c2f	0.18223642
238	0x3efc7f76	0.49315995
239	0x3f059a85	0.52188903
240	0x3d81c09f	0.06335568
241	0x3eb1f3bb	0.34756264
242	0x3e4d89a2	0.20072034
243	0x3eb957a8	0.3619969
244	0xbeac127b	-0.3360785
245	0x3c638959	0.013887727
246	0xbe27897c	-0.1636104
247	0x3f3f1762	0.74645054
248	0x3f0053c1	0.501278
249	0x3cbcb337	0.023034675
250	0x3dc16e29	0.094448395
251	0xbdc7a593	-0.09748378
252	0x3d782998	0.060586542
253	0x3e9ffde9	0.31248406
254	0x3db5148b	0.08841809
255	0x3ebbeed5	0.36705652

actor.init_next_embed.2.add_bias._bias f4 [64, 1]
0	0xbee81262	-0.45326525
1	0xbec88b7a	-0.39168912
2	0xbea5b5d4	-0.32365286
3	0xbeda15d1	-0.4259477
4	0xbcd6c08b	-0.026214859
5	0x3f974174	1.181685
6	0xbe9a7d43	-0.30173692
7	0x3f35c6e4	0.7100661
8	0x3f855943	1.0417866
9	0xbf1b28a7	-0.60608906
10	0xbf305a65	-0.6888793
11	0x3e295625	0.16536768
12	0x3fa1507e	1.2602689
13	0xbf93c2f1	-1.1543866
14	0xbf5d6240	-0.8647804
15	0xbf5d24f8	-0.86384535
16	0xbf5fac20	-0.87372017
17	0x3f3a8fb2	0.7287551
18	0x3f1bd8d5	0.60877734
19	0xbe3d5f07	-0.18493281
20	0xbded1f4c	-0.11578235
21	0xbea5eab8	-0.3240564
22	0xbfab302c	-1.3374076
23	0x3f0e629d	0.5561922
24	0xc013ad41	-2.3074496
25	0xbf6f29a1	-0.93422896
26	0xbe7cc399	-0.2468399
27	0xbf8cd414	-1.1002221
28	0x3f13359c	0.57503676
29	0x3eab79cb	0.33491358
30	0xbf13188b	-0.57459325
31	0xbf440c4b	-0.7658126
32	0xbe075b0e	-0.13218328
33	0x3f3840d3	0.71973914
34	0xbe802bb5	-0.25033346
35	0xbe9bd231	-0.304338
36	0x3fad4f12	1.3539755
37	0x3f37db6d	0.7181919
38	0xbebde577	-0.3708913
39	0x3f1b1eeb	0.6059405
40	0xbfd7c0ce	-1.6855714
41	0x3f92e0cf	1.1474856
42	0xbec48cf9	-0.38388804
43	0xbfb70bfc	-1.4300532
44	0x3eebe553	0.46073398
45	0x3fa93178	1.3218222
46	0x3f6891fa	0.9084774
47	0x3f26b7b3	0.6512405
48	0xbec5a290	-0.38600588
49	0x3ea54543	0.32279405
50	0x3f2ed886	0.6829914
51	0x3ee80bfa	0.45321637
52	0x3ee8c0e2	0.45459658
53	0xbe075dba	-0.13219348
54	0xbe816e56	-0.25279492
55	0xbf3472c4	-0.7048762
56	0xbc2b54a8	-0.010457195
57	0x3f240d83	0.6408312
58	0xbef64bdf	-0.4810476
59	0x3e92d3ad	0.2867712
60	0x3e7d83dd	0.24757333
61	0x3f511454	0.81671643
62	0x3cdf1050	0.027229458
63	0x3e47a6e7	0.19497262
