logs/experiment/Discrete_A2C_1-5Box_10x10x10Bin-2022.08.09-15-00-00/PCT-Discrete_A2C_1-5Box_10x10x10Bin-2022.08.09-15-00-00_2022.08.09-17-31-03.pt (torch, 236314 bytes, 24 tensors)

actor.init_internal_node_embed.0.module.weight f4 [32, 6]
-0.49244368 0.02455148 -0.60043174 0.033390984 -0.19458394 -0.03669596 -0.09836457 0.1537094
-0.35149378 -0.2802742 -0.35193908 -0.4206116 -0.15392785 0.06555062 0.15919597 0.28097376
0.095959514 -0.66642785 0.33242986 -0.31123462 0.32965633 -0.5486255 -0.009943691 0.5956702
-0.082015224 -0.39415824 0.18262884 0.074725136 0.29602215 0.80257845 0.013702856 0.042637903
0.24277218 -0.016813863 -0.045481168 -0.24049506 1.0981622 -0.22714117 -0.81739765 -1.2767305
0.5135273 0.70382875 -0.36251473 -0.35680357 0.07421867 -0.2166286 0.298103 0.5790485
-0.16967028 0.43159696 0.6616546 -0.14550374 -0.25912803 0.27197027 0.3949883 -0.07770214
0.5456993 -0.06912135 -0.055657268 -0.040665213 -0.40336046 -0.2723614 -0.4270452 0.47485065
0.23728685 -0.23601054 -0.12533668 0.6233593 -0.40755743 0.15169948 -0.6270287 0.4351909
0.39319658 -0.53805095 -0.2248048 0.18127248 -0.28828454 0.15771522 0.0735223 0.23867215
-0.016214052 -0.21208706 -0.07251737 -0.1591988 0.24145803 -0.0039334265 0.01713602 -0.14358479
-0.008079554 0.03115434 0.3026438 -0.11744924 0.34136704 -0.20834757 -0.18178384 0.18754397
-0.5125674 -0.5667215 -0.37236944 -0.40419152 -0.15785481 -0.27942118 -0.004823274 0.1337288
0.32972848 -0.07569415 -0.008249893 -0.005734601 -0.13728769 -0.68555516 -0.6350831 -0.0396658
-0.16761136 -0.16684546 0.19515817 -0.09187131 -0.7209503 -0.04075306 -0.0680373 0.3243281
0.016171256 -0.2154394 -0.0091991415 -0.44226187 -0.648541 0.09604453 -0.12704226 -0.34092522
-0.6212233 0.11470666 0.24893868 0.5928927 -0.3948371 -0.009963473 -0.7717984 0.3351415
0.5275274 0.026297208 0.06902731 -0.031939145 -0.44735923 -0.13293894 -0.44426668 -0.55870193
0.14682585 -0.15190227 0.760089 0.004800722 0.12876503 -0.13013434 0.057182454 -0.20690171
-0.5242343 0.23844607 0.34790084 -0.15231243 0.5262251 0.085574664 0.1916783 0.25474542
-0.22115704 -0.2459993 0.3417548 0.04785071 -0.247658 0.48111832 0.060880847 -0.1213909
-0.09729036 -0.21817377 0.117662534 0.5635199 0.4916007 -0.8430871 0.23690262 -0.18024985
-0.40711907 -0.04417128 0.024116449 -0.007534533 -0.38066515 -0.3981639 1.4056367 -0.06305711
-0.24022605 0.09960454 0.20925571 0.12412667 -0.042299002 0.09570878 -0.19593254 -0.15093757
00000000: 9421 fcbe 2f20 c93c e5b5 19bf fcc4 083d
00000010: 0341 47be 814e 16bd 5d73 c9bd ff65 1d3e
00000020: fef6 b3be 1a80 8fbe 5c31 b4be 675a d7be
00000030: 439f 1dbe 673f 863d 4504 233e cbdb 8f3e
00000040: 6c86 c43d 049b 2abf 3f34 aa3e 255a 9fbe
00000050: b7c8 a83e b972 0cbf ddea 22bc d87d 183f
00000060: 99f7 a7bd 1ccf c9be 0e03 3b3e 7e09 993d
00000070: 3790 973e c875 4d3f f281 603c 15a5 2e3d
00000080: 4599 783e 3abd 89bc 764a 3abd 5644 76be
00000090: 9490 8c3f b297 68be f940 51bf e86b a3bf
000000a0: 8676 033f 1f2e 343f 889b b9be f5ae b6be
000000b0: f5ff 973d e3d3 5dbe f5a0 983e 863c 143f
000000c0: 0cbe 2dbe 47fa dc3e 3262 293f effe 14be
000000d0: 6eac 84be b03f 8b3e e83b ca3e 4d22 9fbd
000000e0: f3b2 0b3f 7f8f 8dbd e0f8 63bd 9190 26bd
000000f0: 4385 cebe f472 8bbe aba5 dabe a01f f33e
00000100: 53fb 723e bfac 71be 4258 00be 7a94 1f3f
00000110: 5eab d0be 1c57 1b3e f484 20bf 57d1 de3e
00000120: 1051 c93e b5bd 09bf 3b33 66be 7e9f 393e
00000130: 089a 93be 1980 213e dc92 963d 7966 743e
00000140: 55d3 84bc 5a2d 59be fd83 94bd 0305 23be
00000150: c640 773e f9e3 80bb d760 8c3c e407 13be
00000160: 1b60 04bc 6337 ff3c 21f4 9a3e 3a89 f0bd
00000170: a9c7 ae3e 1159 55be 8b25 3abe 870b 403e
00000180: 9e37 03bf a914 11bf 35a7 bebe 31f2 cebe
00000190: b1a4 21be 4b10 8fbe 8e0c 9ebb 34f0 083e
000001a0: 2cd2 a83e 8905 9bbd 8f2a 07bc 52e9 bbbb
000001b0: 2595 0cbe 8b80 2fbf ce94 22bf 9b78 22bd
000001c0: 50a2 2bbe 89d9 2abe 8bd7 473e 0627 bcbd
000001d0: 3390 38bf aeec 26bd 2457 8bbd 550e a63e
000001e0: 9579 843c 259c 5cbe ffb7 16bc 2670 e2be
000001f0: c806 26bf ffb2 c43d 5e17 02be c08d aebe
00000200: 7d08 1fbf 53eb ea3d c8e9 7e3e d1c7 173f
00000210: 1728 cabe d63d 23bc 9494 45bf ab97 ab3e
00000220: 090c 073f 3e6d d73c 315e 8d3d 9fd2 02bd
00000230: 450c e5be 2521 08be ec76 e3be 1707 0fbf
00000240: 8459 163e 458c 1bbe 3195 423f 604f 9d3b
00000250: fbda 033e f041 05be 2638 6a3d 0bde 53be
00000260: 3834 06bf 352b 743e 0f20 b23e caf7 1bbe
00000270: b0b6 063f c541 af3d 5147 443e fe6d 823e
00000280: fe76 62be 3ee7 7bbe 7cfa ae3e 1bff 433d
00000290: 0f9a 7dbe 2455 f63e 325e 793d cb9b f8bd
000002a0: 2b40 c7bd f268 5fbe 0ef9 f03d d742 103f
000002b0: 16b3 fb3e 8ed4 57bf 9a96 723e 6b93 38be
000002c0: e971 d0be f2ec 34bd dc8f c53c 3ee4 f6bb
000002d0: 8be6 c2be 24dc cbbe e7eb b33f 1624 81bd
000002e0: d1fd 75be 77fd cb3d 2147 563e 2036 fe3d
000002f0: b841 2dbd f702 c43d 8aa2 48be 618f 1abe

actor.init_internal_node_embed.0.add_bias._bias f4 [32, 1]
0.019474655 -0.23825595 -0.006316433 -0.021100294 0.14555421 0.031348716 0.00606572 -0.0073551224
0.04422129 0.10537084 0.0041114693 0.017613424 -0.004094555 -0.00071102305 -0.01334097 0.029772885
-0.32336423 -0.060036354 0.03588784 0.0007760918 -0.26015148 0.05768223 0.05179053 0.122272134
0.033331476 0.00284668 0.006390424 0.072255366 0.026731353 -0.047531478 0.072069086 -0.0691303
00000000: 5089 9f3c 5ef9 73be 15fa cebb 86da acbc
00000010: 2a0c 153e 8367 003d f3c2 c63b 3d03 f1bb
00000020: 6221 353d abcc d73d 81b9 863b 074a 903c
00000030: 9e2b 86bb f363 3aba 1594 5abc 44e6 f33c
00000040: ff8f a5be aee8 75bd 21ff 123d a472 4b3a
00000050: 9332 85be 3444 6c3d 4f22 543d d069 fa3d
00000060: 9686 083d 5e8f 3a3b c366 d13b 9ffa 933d
00000070: b6fb da3c 5eb0 42bd f598 933d 3094 8dbd

actor.init_internal_node_embed.2.module.weight f4 [64, 32]
0.09724543 0.17967822 0.0061312616 0.18082392 0.0142514855 0.09635018 0.09123407 0.5803679
0.36654875 -0.12684642 0.7852904 0.095973514 0.09175765 -0.25009254 -0.7097992 0.3358289
-0.018340992 0.16666181 0.0056063463 0.23852324 -0.21963792 0.19033773 1.1368718 -0.110132776
0.559494 0.31990784 0.14372851 0.2627265 0.28806525 -0.059037093 -0.04817663 0.012292184
0.3542922 0.07870448 -0.49662107 -0.534273 -0.012108332 0.2856273 0.05505774 -0.3902237
-0.28460947 0.12317753 0.5452562 0.2772067 0.3254653 0.120677166 -0.03118249 0.31639734
-0.06116596 0.02674325 -0.13524307 -0.15448171 0.03552662 0.35980284 0.8877887 0.36676145
-0.14224504 0.051813617 0.049712215 0.05494619 0.61539966 0.22288203 0.0036709593 -0.051878456
-0.26252845 -0.019061148 0.5346276 0.5168385 0.48925453 -0.017953407 -0.18394859 0.964473
-0.16463792 -0.15944813 -0.47302905 -0.5606572 -0.1019544 0.20381439 0.32173538 -0.4246078
-0.118296035 0.104811534 0.008497878 -0.43158603 -0.038933553 0.392071 -0.10763815 -0.25457048
-0.03635942 -0.055848084 0.17167434 0.10515381 0.16863368 -0.16153018 0.1944657 0.06800561
-0.049968164 -0.21565723 0.020899322 0.35522842 0.14829105 -0.018741585 0.07675088 0.009793513
0.104116 0.03550685 0.15756516 0.0021043243 -0.22194023 0.023073755 -0.3459413 0.12320536
0.11064228 -0.28968984 0.10770835 0.1255705 -0.25333408 0.5294391 -0.1353185 0.18239708
0.28704336 -0.014252067 0.14903575 0.37927404 0.15280539 -0.09966755 -0.3022614 0.16459718
0.31578556 -0.11093632 -0.15667598 0.1414843 -0.5848395 -0.07944289 0.34381267 -0.5716983
-0.5132128 0.42517075 0.2964657 0.36885354 -0.115673855 -0.20857981 0.20288217 -0.09169416
0.013946983 -0.08744753 0.019403318 -0.034040004 -0.13820972 0.4189401 0.11722655 0.008584445
-0.18948935 0.28011227 0.32547763 0.16936067 0.5235972 0.050915513 0.19705966 -0.09997176
-0.29544145 -0.104381815 -0.025735877 -0.008771837 0.85284615 -0.23432109 -0.16852127 0.35595357
0.051941715 -0.23569755 0.8432479 -0.36929825 0.046438444 -0.15229598 0.102207154 0.2749346
0.2146321 0.18847002 -0.0646724 -0.037744008 -0.030700672 0.14110668 0.47919902 -0.4969843
0.17926155 0.2895558 0.23809066 0.51601654 -0.018650448 -0.06200311 -0.0030214924 0.23962197
0.33234245 0.005151582 0.084102735 -0.07591606 0.47048613 0.02711433 -0.31804076 0.19410832
-0.0074891886 -0.11978969 0.27022335 -0.19080836 -0.2900926 -0.03615635 0.16317196 -0.51518595
0.002824767 -0.38494584 0.06701989 -0.010699002 -0.0029235866 0.111348264 -0.010896622 0.18315488
-0.25655937 0.040037137 -0.19192939 0.36858112 -0.36443475 0.04650793 -0.36462247 -0.10321133
-0.10077384 -0.121294275 -0.41940853 -0.353825 -0.39520267 -0.0083239395 0.19812727 -0.090412825
-0.008324165 0.21690752 0.45454085 0.4261937 -0.16130942 0.18787442 -0.10840001 -0.14148167
-0.053138725 -0.3033728 0.22865306 0.14957681 0.021112047 -0.3401997 0.6955245 0.041090712
-0.41613883 0.08900552 -0.27523562 -0.29997087 0.7061893 0.19935293 0.351107 -0.098870896
00000000: 9d28 c73d 91fd 373e c0e8 c83b e829 393e
00000010: 107f 693c 3e53 c53d eed8 ba3d fe92 143f
00000020: 47ac bb3e 07e4 01be cb08 493f c38d c43d
00000030: 6feb bb3d 210c 80be 66b5 35bf c4f1 ab3e
00000040: d93f 96bc 65a9 2a3e 71b5 b73b 703f 743e
00000050: c3e8 60be e5e7 423e 0485 913f 4b8d e1bd
00000060: 003b 0f3f f6ca a33e 912d 133e 1684 863e
00000070: 4a7d 933e e1d0 71bd dc54 45bd 2865 493c
00000080: ca65 b53e d02f a13d 1e45 febe 1ec6 08bf
00000090: 0662 46bc be3d 923e 3a84 613d 67cb c7be
000000a0: 55b8 91be 8044 fc3d e995 0b3f 09ee 8d3e
000000b0: 63a3 a63e 9725 f73d 6c72 ffbc d5fe a13e
000000c0: 2889 7abd a914 db3c 297d 0abe 7430 1ebe
000000d0: 5c84 113d 1438 b83e 1f46 633f 28c8 bb3e
000000e0: afa8 11be 843a 543d 099f 4b3d 420f 613d
000000f0: d58a 1d3f 303b 643e 7a94 703b 817e 54bd
00000100: 216a 86be 2026 9cbc 5bdd 083f 874f 043f
00000110: 927f fa3e 0613 93bc 055d 3cbe b4e7 763f
00000120: d896 28be 5f46 23be dd30 f2be 3b87 0fbf
00000130: 78cd d0bd b8b4 503e 80ba a43e 3266 d9be
00000140: 3145 f2bd 6ea7 d63d af3a 0b3c d8f8 dcbe
00000150: ca78 1fbd 88bd c83e 6471 dcbd 1057 82be
00000160: 9ded 14bd f6c0 64bd 66cb 2f3e e15a d73d
00000170: 4fae 2c3e 2b68 25be 0422 473e 8646 8b3d
00000180: 6bab 4cbd 40d5 5cbe 0e35 ab3c 80e0 b53e
00000190: 9cd9 173e f487 99bc 912f 9d3d f974 203c
000001a0: c53a d53d a16f 113d c358 213e b4e8 093b
000001b0: 4d44 63be 2c05 bd3c 381f b1be 1753 fc3d
000001c0: 6b98 e23d 3a52 94be 3296 dc3d 8e95 003e
000001d0: 01b5 81be 5289 073f ef90 0abe 4dc6 3a3e
000001e0: 59f7 923e 8081 69bc d49c 183e 3530 c23e
000001f0: 0479 1c3e 801e ccbd 02c2 9abe 2a8c 283e
00000200: a5ae a13e 9532 e3bd ab6f 20be 43e1 103e
00000210: 0bb8 15bf f4b2 a2bd 3708 b03e d25a 12bf
00000220: ea61 03bf fbaf d93e 5aca 973e 5fda bc3e
00000230: 6ae6 ecbd f295 55be 58c0 4f3e 26ca bbbd
00000240: e381 643c b117 b3bd b5f3 9e3c 886d 0bbd
00000250: d986 0dbe 517f d63e 7914 f03d c6a5 0c3c
00000260: 7f09 42be e06a 8f3e 01a5 a63e e26c 2d3e
00000270: 770a 063f c98c 503d 02ca 493e febd ccbd
00000280: 1a44 97be 22c6 d5bd 0cd4 d2bc c0b7 0fbc
00000290: 2054 5a3f def1 6fbe d790 2cbe 8c3f b63e
000002a0: d6c0 543d b35a 71be 18df 573f a914 bdbe
000002b0: 3d36 3e3d 7af3 1bbe fc51 d13d 3ac4 8c3e
000002c0: 84c8 5b3e 49fe 403e f772 84bd 7699 1abd
000002d0: fa7f fbbc 457e 103e 9359 f53e ba74 febe
000002e0: 5790 373e a840 943e 0ace 733e a919 043f
000002f0: d3c8 98bc f9f6 7dbd 3b04 46bb 765f 753e
00000300: ca28 aa3e 9ace a83b 0e3e ac3d e179 9bbd
00000310: 8fe3 f03e df1e de3c 3dd6 a2be 55c4 463e
00000320: de67 f5bb 4c54 f5bd b75a 8a3e 4463 43be
00000330: 0487 94be ae18 14bd 8d16 273e 3ae3 03bf
00000340: ba1f 393b 9f17 c5be b941 893d de4a 2fbc
00000350: a599 3fbb 8f0a e43d bf87 32bc f48c 3b3e
00000360: c05b 83be fbfd 233d 2389 44be aab6 bc3e
00000370: 3197 babe 197f 3e3d ccaf babe 7660 d3bd
00000380: 8462 cebd 2269 f8bd b7bc d6be 8d28 b5be
00000390: 0158 cabe 2261 08bc e0e1 4a3e 5c2a b9bd
000003a0: 1462 08bc 011d 5e3e 94b9 e83e 1036 da3e
000003b0: 4c2e 25be 2762 403e d300 debd 92e0 10be
000003c0: fea7 59bd ae53 9bbe 0724 6a3e aa2a 193e
000003d0: 2cf3 ac3c a82e aebe e50d 323f bc4e 283d
000003e0: 2610 d5be 8748 b63d afeb 8cbe c895 99be
000003f0: d2c8 343f 2d23 4c3e 4cc4 b33e d37c cabd

actor.init_internal_node_embed.2.add_bias._bias f4 [64, 1]
0.20081091 0.27921826 -0.043173756 0.09948661 0.14306602 0.31483644 0.028346017 0.12981603
-0.06802543 -0.10400449 0.006093358 0.029847577 -0.06370834 0.104128204 0.14136647 0.1334642
-0.00078831654 -0.21314676 0.014928732 0.08407987 -0.02137249 0.06387566 -0.048300892 -0.093219064
0.1748901 -0.01475419 -0.019207498 0.05985499 -0.10661801 -0.032553982 -0.0039537167 -0.020560721
0.07600557 0.049883604 0.26819733 -0.103223875 0.02916125 -0.1486422 -0.020559726 0.19943105
-0.06616879 -0.23107068 0.16488165 0.0053941566 -0.12882127 -0.047049202 -0.3234226 -0.2993956
0.25208968 0.022763958 0.085763864 0.051700853 0.010535024 0.005719761 -0.024171168 0.22333544
0.22207096 -0.07125912 0.014919168 0.07605509 0.0629582 0.11795127 -0.0299971 0.042625982
00000000: 60a1 4d3e b2f5 8e3e f7d6 30bd a3bf cb3d
00000010: e67f 123e 3e32 a13e e835 e83c 7eee 043e
00000020: eb50 8bbd 4e00 d5bd cbaa c73b e882 f43c
00000030: 8579 82bd 2b41 d53d 5fc2 103e d7aa 083e
00000040: 07a7 4eba 2543 5abe a497 743c 1132 ac3d
00000050: 5c15 afbc 3ed1 823d 28d7 45bd a3e9 bebd
00000060: 6416 333e 8fbb 71bc 0b59 9dbc 822a 753d
00000070: 8b5a dabd 5357 05bd 2e8e 81bb f56e a8bc
00000080: cfa8 9b3d c052 4c3d 2951 893e 0a67 d3bd
00000090: 93e3 ee3c a935 18be df6c a8bc a737 4c3e
000000a0: 8183 87bd cb9d 6cbe bcd6 283e 77c1 b03b
000000b0: b9e9 03be aab6 40bd a697 a5be 614a 99be
000000c0: e611 813e 7b7b ba3c f7a4 af3d 46c4 533d
000000d0: 189b 2c3c d56c bb3b 9d02 c6bc 0cb2 643e
000000e0: 9266 633e 4df0 91bd 876f 743c c5c2 9b3d
000000f0: 3bf0 803d 6f90 f13d 7abc f5bc 9598 2e3d

actor.init_leaf_node_embed.0.module.weight f4 [32, 8]
-0.079959765 -0.34435236 -0.39152664 -0.068052895 0.16832343 0.36919677 0.49556488 0.26958755
-0.3651454 -0.6561133 -0.07878661 -0.3465699 -0.2562271 0.34240198 -0.022073694 0.36473003
0.19042194 -0.3679535 -0.13867119 0.41707218 -0.0019457123 -0.31272554 -0.05668357 -0.067440934
-0.40543213 -0.20328924 -0.24407677 -0.2506628 0.33991635 0.04350118 0.45127562 0.114205725
-0.04945625 -0.18403059 0.072029926 0.122050144 0.37427282 0.13135405 -0.49865738 0.39125538
0.08931036 0.15096235 -0.5297647 0.16489916 -0.47234482 0.5231123 -0.12240198 -0.2569163
-0.34067464 -0.16920906 -0.066147804 0.055400245 0.1124736 -0.19530219 -0.09980849 -0.10941601
0.36987272 -0.43772042 0.251055 0.4572534 -0.035219043 0.39176726 0.044950716 0.2253498
0.0987214 0.12785174 -0.16518882 0.33895472 0.09683011 0.08586257 0.49037474 0.34801507
-0.086646646 0.33880717 -0.18038397 0.29937282 0.026019758 -0.11722115 0.4524055 -0.29887226
0.060729913 0.111656345 0.28013796 -0.07804734 0.33136982 -0.022816177 -0.19306481 0.021164838
-0.2701712 0.040302694 0.18505846 0.08059026 0.4629353 0.099194326 -0.0166643 -0.3579186
0.39007977 0.066853285 0.5681848 -0.3422951 -0.07783384 -0.06734685 0.36708963 -0.116579294
-0.27234608 0.0036035986 0.28158888 -0.18518975 -0.26480588 -0.256424 0.35581025 0.0762532
0.17803174 -0.029809806 0.16258836 0.44853112 0.12329846 0.4118435 0.11389746 -0.07272469
0.5022944 0.122366555 -0.11679587 -0.517899 0.20260002 0.46800005 0.035715528 -0.30470893
-0.056193147 0.098546386 -0.29145932 0.3599902 0.17647873 0.021604346 -0.24215657 0.078400984
-0.089093536 0.3698051 0.106743746 0.08299088 -0.27010617 0.08955872 0.18544158 0.2879545
-0.19890751 0.05603725 0.06876595 -0.3597359 -0.24429211 0.3619456 0.049006805 0.11954338
-0.3766055 0.1150978 -0.09783666 0.2676595 0.07051642 0.51915264 -0.0895742 0.106007986
-0.24622284 -0.27447152 -0.30397668 -0.043468032 0.027514478 0.41498688 -0.14125684 -0.26208043
0.14151107 -0.14444959 0.48069808 -0.11772937 0.021569783 -0.10865744 -0.19497034 0.05800785
-0.31659862 0.35314056 0.012518245 0.31110704 0.24654104 0.18311258 0.11806061 0.13221456
-0.2867667 -0.146298 0.0743494 -0.077950634 0.4553221 -0.046096098 -0.037020203 -0.062129177
0.064289585 0.0826467 0.25688553 -0.024241252 0.22321734 0.062292423 -0.017179154 0.49396384
0.30054983 0.21310148 -0.48927757 -0.3227202 0.040750626 -0.021217883 0.046824694 -0.2999806
0.24046846 -0.17177105 0.11952486 0.4169102 0.15342826 0.1186098 0.44521493 -0.278283
0.04452659 -0.17516491 -0.38022602 0.13549957 0.6033184 -0.06406762 0.21698657 0.36417335
0.3023972 -0.13050047 -0.15669061 -0.114852615 0.014725975 -0.37292117 0.102220036 0.20314844
0.11073656 0.24191815 -0.18640245 -0.21082272 0.2943953 0.0091228355 -0.2170839 0.16490386
0.26939082 0.4261498 -0.4389004 -0.17437613 -0.22871019 -0.15808982 -0.03516907 0.45629385
0.11115626 0.41696122 -0.060874138 -0.21648745 0.119564585 0.38706356 0.17210491 -0.09707967
00000000: f2c1 a3bd f44e b0be 2e76 c8be 515f 8bbd
00000010: fa5c 2c3e 5c07 bd3e aeba fd3e 6107 8a3e
00000020: 56f4 babe 0bf7 27bf e05a a1bd 9c71 b1be
00000030: 3330 83be 504f af3e e4d3 b4bc e5bd ba3e
00000040: f8fd 423e 6764 bcbe d2ff 0dbe 7c8a d53e
00000050: 4507 ffba 901d a0be 082d 68bd 791e 8abd
00000060: cd94 cfbe 0e2b 50be 43ef 79be e056 80be
00000070: 8409 ae3e 4b2e 323d 990d e73e b1e4 e93d
00000080: a392 4abd 8472 3cbe 6d84 933d 6df5 f93d
00000090: b0a0 bf3e ad81 063e 0550 ffbe a052 c83e
000000a0: 5ae8 b63d e095 1a3e a99e 07bf 53db 283e
000000b0: 2ed7 f1be b0ea 053f e4ad fabd 898a 83be
000000c0: e86c aebe 2445 2dbe 8078 87bd 5eeb 623d
000000d0: 8f58 e63d 4cfd 47be 6568 ccbd 8015 e0bd
000000e0: f55f bd3e e41c e0be 488a 803e 1e1d ea3e
000000f0: d841 10bd b895 c83e 3e1e 383d 19c2 663e
00000100: 722e ca3d 91eb 023e 4227 29be 798b ad3e
00000110: dd4e c63d b7d8 af3d 6612 fb3e 082f b23e
00000120: cc73 b1bd 2278 ad3e 93b6 38be 6547 993e
00000130: 6327 d53c a411 f0bd b2a1 e73e c905 99be
00000140: eebf 783d 15ac e43d 3e6e 8f3e 49d7 9fbd
00000150: 4ea9 a93e fee8 babc c8b2 45be e261 ad3c
00000160: e153 8abe 7014 253d f77f 3d3e 820c a53d
00000170: db05 ed3e 6526 cb3d 9283 88bc 1b41 b7be
00000180: 89b8 c73e 60ea 883d 8f74 113f 4e41 afbe
00000190: 5967 9fbd 25ed 89bd 2cf3 bb3e 20c1 eebd
000001a0: f270 8bbe 5a2a 6c3b 6b2c 903e 62a2 3dbe
000001b0: a394 87be 024a 83be c32c b63e a32a 9c3d
000001c0: f44d 363e b233 f4bc 907d 263e dfa5 e53e
000001d0: e783 fc3d 27dd d23e 1243 e93d aff0 94bd
000001e0: 5e96 003f 519b fa3d ac32 efbd 0795 04bf
000001f0: 6176 4f3e b49d ef3e 724a 123d cf02 9cbe
00000200: c92a 66bd b0d2 c93d 283a 95be a350 b83e
00000210: d7b6 343e 99fb b03c e4f7 77be b290 a03d
00000220: ac76 b6bd 1857 bd3e 779c da3d 1ff7 a93d
00000230: 5b4b 8abe 906a b73d 66e4 3d3e c66e 933e
00000240: 69ae 4bbe 5187 653d 2ad5 8c3d 4e2f b8be
00000250: b627 7abe ef50 b93e 5cbb 483d 29d3 f43d
00000260: 70d2 c0be 65b8 eb3d 965e c8bd aa0a 893e
00000270: ea6a 903d 30e7 043f ae72 b7bd b71a d93d
00000280: d721 7cbe 8887 8cbe d5a2 9bbe 890b 32bd
00000290: 0b66 e13c 2979 d43e a2a5 10be 682f 86be
000002a0: 47e8 103e 98ea 13be 0f1e f63e 191c f1bd
000002b0: 1db3 b03c cb87 debd 4ea6 47be a499 6d3d
000002c0: 3719 a2be d7ce b43e 5319 4d3c 6c49 9f3e
000002d0: 4175 7c3e dd81 3b3e c3c9 f13d 4163 073e
000002e0: 16d3 92be 25cf 15be 8044 983d 95a4 9fbd
000002f0: fa1f e93e 43cf 3cbd 7fa2 17bd 2a7b 7ebd
00000300: 42aa 833d ac42 a93d 8086 833e 9795 c6bc
00000310: 1693 643e 5726 7f3d 4cbb 8cbc d4e8 fc3e
00000320: abe1 993e 4637 5a3e 9782 fabe 953b a5be
00000330: 21ea 263d 20d1 adbc 40cb 3f3d 0f97 99be
00000340: 5d3d 763e c0e4 2fbe 73c9 f43d 4175 d53e
00000350: 4c1c 1d3e b2e9 f23d 36f3 e33e 1c7b 8ebe
00000360: 8361 363d 6e5e 33be fcac c2be 66c0 0a3e
00000370: 1373 1a3f e235 83bd ba31 5e3e ee74 ba3e
00000380: ced3 9a3e eaa1 05be 8173 20be d937 ebbd
00000390: 3745 713c 86ef bebe bd58 d13d 2506 503e
000003a0: d9c9 e23d 64b9 773e 49e0 3ebe e9e1 57be
000003b0: fbba 963e f277 153c 3e4b 5ebe 8fdc 283e
000003c0: 98ed 893e 4e30 da3e 8eb7 e0be a88f 32be
000003d0: 0133 6abe 4ce2 21be 710d 10bd 599f e93e
000003e0: e5a5 e33d f17b d53e 2957 79bd e3ae 5dbe
000003f0: 47de f43d 322d c63e 453c 303e b5d1 c6bd

actor.init_leaf_node_embed.0.add_bias._bias f4 [32, 1]
0.01189988 0.02612905 0.007010354 0.008236439 -0.11624149 0.015217401 -0.023437576 -0.025941752
0.07842343 0.035066694 0.039143275 -0.03004742 0.0017972443 -0.09851059 0.12908849 0.001783107
-0.039668266 -0.048374437 0.0115121165 -0.0034628036 0.035749193 0.039700773 0.11995469 -0.021248199
0.011387487 0.011858103 0.0909444 -0.021695523 -0.06441949 0.0028047645 -0.0006992357 -0.15213303
00000000: b7f7 423c 970c d63c 1db7 e53b 21f2 063c
00000010: 0510 eebd 6852 793c 2900 c0bc cc83 d4bc
00000020: 779c a03d 18a2 0f3d b354 203d 0226 f6bc
00000030: 8391 eb3a ecbf c9bd c62f 043e 25b7 e93a
00000040: 317b 22bd 4624 46bd 519d 3c3c 34f0 62bb
00000050: bf6d 123d 479d 223d ceaa f53d b410 aebc
00000060: 9592 3a3c 7d48 423c 0f41 ba3d cfba b1bc
00000070: 5eee 83bd 24d0 373b ea4c 37ba c3c8 1bbe

actor.init_leaf_node_embed.2.module.weight f4 [64, 32]
0.15776393 0.40531978 0.10805652 0.14605714 -0.27899414 0.31470725 0.3031318 -0.23531677
0.032012273 0.14998914 -0.0060251863 -0.060520533 -0.41505212 -0.13701393 0.1612649 0.11954684
0.21358533 -0.09869907 0.22217533 0.29981717 0.62766576 -0.4953508 0.61052454 0.41475242
0.022283252 0.06961411 0.003421047 0.38996103 -0.12905574 0.12335873 0.21374224 -0.28315344
-0.21800992 -0.18230364 -0.07493723 -0.18222643 -0.27279282 0.31195658 -0.23566279 0.23112874
0.30109292 -0.33573398 0.1118934 -0.0881641 0.23447257 0.038939063 0.04932834 0.040892247
0.15762024 0.13292865 0.10694052 -0.4795714 -0.36823785 0.5709729 0.18036702 0.25518695
0.13039614 0.18052208 0.12253642 -0.088191696 0.08671421 -0.0070826723 0.2296357 -0.18647844
-0.0757749 0.061116904 0.14107884 -0.36004573 0.06790665 -0.1212288 -0.11559125 -0.032330275
-0.32987458 0.40659603 0.07059999 0.062022243 -0.21899347 0.04138795 0.15789887 0.15663981
-0.39504224 -0.19388816 0.09129862 0.0553398 0.0043677688 0.10955554 0.12037736 0.13351566
0.36093843 -0.019385688 0.168009 0.004244327 -0.15552144 0.032472204 -0.500211 -0.14423093
-0.23186992 0.051368974 -0.40191895 0.46690965 -0.30462474 0.17202437 -0.16055185 0.15063219
-0.012039952 0.13985553 0.18227826 0.08087644 0.67487586 -0.26304653 -0.054482587 -0.07789167
-0.17195497 0.30980435 -0.0061408076 0.05944368 -0.4396549 0.0010213765 -0.10604748 -0.11994347
0.053250443 -0.04958124 0.25606528 0.23626265 0.20298226 -0.08626263 -0.07631337 0.13796999
-0.24482858 -0.37434044 -0.23958243 -0.13131382 0.040253066 -0.30930004 -0.22733176 -0.21315639
-0.62583315 0.29390344 0.06532214 -0.0029448362 0.43866485 -0.017138945 -0.23054528 0.1577353
0.06101178 -0.12572102 -0.3355266 -0.19216919 0.097728185 0.15070286 0.11824055 -0.03886181
-0.15997821 0.028384862 -0.031401113 -0.05335546 -0.08559753 -0.007366018 0.011343958 -0.1580891
-0.12236459 0.20977543 -0.1731593 -0.3376674 0.15068379 0.1833434 0.08254416 -0.16924798
-0.32262504 -0.102694266 0.012695777 0.06853047 -0.16617519 -0.22743216 0.44226936 -0.24582735
0.23749231 0.02894551 0.024299728 -0.046565052 0.021397693 -0.070513956 -0.15163037 -0.28259018
-0.20069581 0.039318293 0.031370685 0.2853634 -0.037771184 -0.010982958 -0.09874461 -0.04778388
-0.2553844 -0.4424927 -0.38763887 -0.047140952 -0.21478957 -0.18145013 0.019596968 0.0395744
0.00040995763 -0.12371219 0.02690583 -0.21967906 0.29456314 0.116503835 -0.19249326 -0.18762158
-0.17946324 0.5087888 0.08714145 -0.059996046 0.15048437 0.23189557 -0.13679188 0.1692688
0.11558596 0.25102407 -0.22853164 -0.025589852 0.14098558 -0.00895969 -0.29888624 0.06985917
0.04251042 0.30967948 -0.31952143 -0.27862313 -0.49369755 -0.20504116 0.178202 -0.2554186
-0.074279875 -0.024805497 0.0067426832 -0.32522303 0.21269651 -0.3298939 -0.4577795 0.023122724
-0.2173329 0.107811466 -0.040373676 -0.15655851 -0.068474054 0.6895488 -0.04226658 -0.26776323
-0.072826244 0.029926337 -0.18975951 -0.32174826 0.18726963 -0.35433403 0.16338648 -0.03316024
00000000: de8c 213e 1386 cf3e bd4c dd3d 0190 153e
00000010: 52d8 8ebe 4f21 a13e 1734 9b3e e1f6 70be
00000020: 4d1f 033d c196 193e ed6e c5bb 61e4 77bd
00000030: b681 d4be 614d 0cbe a022 253e f9d4 f43d
00000040: 1db6 5a3e bd22 cabd ee81 633e a381 993e
00000050: b4ae 203f 9f9e fdbe 564b 1c3f 6e5a d43e
00000060: 5e8b b63c d891 8e3d a533 603b f9a8 c73e
00000070: 3027 04be 80a3 fc3d 3fdf 5a3e 7df9 90be
00000080: fe3d 5fbe cead 3abe b178 99bd 9199 3abe
00000090: 80ab 8bbe c6b8 9f3e 9651 71be 03ad 6c3e
000000a0: da28 9a3e 53e5 abbe 5e28 e53d 618f b4bd
000000b0: 9419 703e 917e 1f3d 830c 4a3d a17e 273d
000000c0: 3367 213e 731e 083e a203 db3d 628a f5be
000000d0: ac89 bcbe 482b 123f 22b2 383e dda7 823e
000000e0: 9186 053e c8da 383e 60f4 fa3d d99d b4bd
000000f0: 3897 b13d c315 e8bb 9f25 6b3e 34f4 3ebe
00000100: df2f 9bbd b855 7a3d f976 103e ea57 b8be
00000110: a412 8b3d ce46 f8bd 1bbb ecbd c06c 04bd
00000120: 52e5 a8be 5b2d d03e ba96 903d 090b 7e3d
00000130: d33f 60be 6986 293d 3eb0 213e 3066 203e
00000140: fa42 cabe 9e8a 46be c5fa ba3d fcab 623d
00000150: 801f 8f3b a85e e03d 6888 f63d 54b8 083e
00000160: eccc b83e bcce 9ebc 8d0a 2c3e ff13 8b3b
00000170: 0341 1fbe 9301 053d d40d 00bf 46b1 13be
00000180: 4f6f 6dbe 4668 523d 52c8 cdbe c80e ef3e
00000190: c6f7 9bbe 2827 303e b467 24be 533f 1a3e
000001a0: 3843 45bc 4a36 0f3e 27a7 3a3e 8ca2 a53d
000001b0: aac4 2c3f 09ae 86be 2229 5fbd ab85 9fbd
000001c0: f714 30be ad9e 9e3e d438 c9bb 377b 733d
000001d0: 721a e1be b5df 853a 6c2f d9bd eca4 f5bd
000001e0: 231d 5a3d b315 4bbd fd1a 833e d6ee 713e
000001f0: 95da 4f3e 76aa b0bd 2f4a 9cbd 0148 0d3e
00000200: 58b4 7abe 8da9 bfbe 1955 75be 2177 06be
00000210: 66e0 243d 935c 9ebe a8c9 68be ab45 5abe
00000220: 9a36 20bf 837a 963e 9dc7 853d 27fe 40bb
00000230: ae98 e03e f966 8cbc 1014 6cbe 5d85 213e
00000240: 7de7 793d 03bd 00be 24ca abbe 00c8 44be
00000250: b725 c83d da51 1a3e 1a28 f23d 902d 1fbd
00000260: 54d1 23be 5f87 e83c 749e 00bd 418b 5abd
00000270: c24d afbd a35e f1bb 02dc 393c 1ce2 21be
00000280: 499a fabd 5fcf 563e ac50 31be bee2 acbe
00000290: da4c 1a3e 5fbe 3b3e ea0c a93d 584f 2dbe
000002a0: 1c2f a5be 5f51 d2bd f301 503c b459 8c3d
000002b0: d429 2abe fae3 68be 2171 e23e 2aba 7bbe
000002c0: 2f31 733e 221f ed3c 3910 c73c ffba 3ebd
000002d0: 374a af3c 9f69 90bd fe44 1bbe a9af 90be
000002e0: 3483 4dbe 380c 213d 8c7e 003d 271b 923e
000002f0: f5b5 1abd ddf1 33bc 9d3a cabd 08b9 43bd
00000300: bec1 82be 678e e2be 9a78 c6be df16 41bd
00000310: ccf1 5bbe 10ce 39be d289 a03c c418 223d
00000320: 95ef d639 d15c fdbd 9d69 dc3c 8cf3 60be
00000330: fbd0 963e 9099 ee3d f41c 45be df1f 40be
00000340: 36c5 37be fc3f 023f 3777 b23d 6abe 75bd
00000350: 9318 1a3e 0876 6d3e 2c13 0cbe cd54 2d3e
00000360: 55b8 ec3d 3a86 803e 3304 6abe cfa1 d1bc
00000370: 865e 103e aacb 12bc 9e07 99be 5312 8f3d
00000380: 681f 2e3d 4f8e 9e3e 5098 a3be b1a7 8ebe
00000390: edc5 fcbe 4ff6 51be 967a 363e 3ac6 82be
000003a0: 0c20 98bd e634 cbbc baf1 dc3b a283 a6be
000003b0: 1dcd 593e dae7 a8be 1362 eabe de6b bd3c
000003c0: 848c 5ebe 42cc dc3d de5e 25bd e050 20be
000003d0: 203c 8cbd 4586 303f b91f 2dbd 4318 89be
000003e0: ed25 95bd 1428 f53c 5150 42be 30bc a4be
000003f0: 9cc3 3f3e 456b b5be c94e 273e 08d3 07bd

actor.init_leaf_node_embed.2.add_bias._bias f4 [64, 1]
0.26658627 0.14114864 0.040822856 0.013580099 -0.18287511 0.0125625 -0.20456614 -0.2782613
-0.17953509 -0.1616175 0.27371684 -0.14650884 0.09960194 -0.09474135 -0.10197605 -0.07569299
0.14113751 -0.13708767 -0.31499684 -0.0410893 0.03514486 0.08445432 0.011740916 0.049851257
0.23528594 -0.0485789 -0.008932941 -0.077481255 -0.17024288 0.10809387 -0.14521974 -0.027320677
0.11270545 -0.057066128 -0.15555783 0.15087163 0.22632696 -0.038741075 -0.0389613 -0.12711546
0.061676808 -0.49256262 0.18650399 0.055221785 -0.14674284 -0.04466144 -0.13953523 -0.045194387
-0.23291847 0.04545497 -0.05826352 -0.062696815 0.105891444 -0.1641086 -0.19031687 0.11267072
0.010401893 -0.2348965 0.19170024 -0.269065 0.13008729 -0.12381785 0.07367031 0.016661318
00000000: ff7d 883e 4589 103e de35 273d 107f 5e3c
00000010: 9d43 3bbe f2d2 4d3c c979 51be 4478 8ebe
00000020: 0cd8 37be 0f7f 25be 9d24 8c3e 6a06 16be
00000030: 1afc cb3d c107 c2bd d2d8 d0bd ed04 9bbd
00000040: 5a86 103e b660 0cbe 4447 a1be 414d 28bd
00000050: 0ff4 0f3d 63f6 ac3d f95c 403c d530 4c3d
00000060: ccee 703e abfa 46bd 785b 12bc 7eae 9ebd
00000070: 2654 2ebe 5260 dd3d 7cb4 14be 9dcf dfbc
00000080: 1dd2 e63d 2cbe 69bd 8d4a 1fbe 187e 1a3e
00000090: 41c2 673e f6ae 1ebd e295 1fbd 8e2a 02be
000000a0: d2a0 7c3d 2b31 fcbe e7fa 3e3e 3d30 623d
000000b0: c143 16be eaee 36bd 53e2 0ebe c01d 39bd
000000c0: 2e82 6ebe fe2e 3a3d bba5 6ebd 3067 80bd
000000d0: 9ddd d83d 160c 28be 6de2 42be e8bf e63d
000000e0: b46c 2a3c b588 70be 114d 443e e3c2 89be
000000f0: 9a35 053e 3794 fdbd 76e0 963d 517d 883c

actor.init_next_embed.0.module.weight f4 [32, 6]
0.18300068 -0.14783362 -0.29890305 -0.44141042 -0.2672034 -0.02484928 -0.026108522 -0.097654946
0.18683255 -0.17825268 -0.14643954 -0.12257277 0.15517044 -0.26774636 -0.25778565 -0.0060875933
-0.22799481 0.3899306 -0.0040718466 0.036373135 -0.033101637 0.43557972 -0.4411361 -0.33281088
0.10797711 -0.4220224 -0.12407604 -0.2583959 -0.10200159 -0.17247286 -0.025486184 -0.5772369
0.28352162 -0.733001 -0.15256536 0.12131579 0.8939077 0.10291967 0.070973516 -0.22375709
-0.02931402 -0.3430731 -0.09070795 0.09831574 0.14582333 0.07483135 -0.31490088 0.1664589
-0.39753845 -0.5904613 0.2444619 0.106304586 1.3424927 -0.7294714 0.1094445 -0.29224053
-0.1822739 0.07090833 -0.32444668 -0.42103478 -0.3263508 0.1820992 0.016121991 0.38668993
0.26097837 -0.4492645 0.44195512 -0.029234236 -0.021627976 0.12983896 0.0513842 0.07318545
-0.35571837 -0.032835547 0.14581446 0.020807322 -0.22558175 -0.32559586 0.08405789 0.009134302
0.12415758 0.072789684 -0.2090145 -0.15041983 1.1963294 -0.22806235 -0.25601846 -0.48553497
-0.19262062 0.08492823 -0.10228348 -0.06358731 -0.29770973 -0.24023332 -0.05969622 0.13532297
-0.27648926 -0.034050748 -0.11244481 -0.12871526 -0.41440952 0.10352649 0.5696702 -0.05052203
0.19700745 -0.25886196 -0.063951544 -0.011961061 -0.05610823 0.2881259 0.22860755 0.011978384
-0.053216647 0.28496662 0.89531755 0.2441345 -0.35871825 -0.3171629 0.15395674 0.15229884
0.26559925 0.026163727 -0.03635058 -0.13144697 -0.25533444 0.16459888 -0.025813496 -0.2110019
-0.7182638 -0.095808476 -0.12435744 -0.032013558 0.1149764 -0.1477266 -0.09739232 0.12987167
-0.3512544 0.05300938 0.85810435 -0.26592296 0.33082733 -0.5369544 0.2814358 0.53015983
1.5469948 -0.09954142 -0.18245748 -0.35495675 -0.18172751 0.10818599 0.17304118 0.28594753
-0.06433231 -0.18083838 -0.17398247 -0.37393478 0.0032119306 -0.32030162 0.18111199 -0.06541008
-0.23397398 -0.031082138 -0.5102777 -0.38239774 -0.18877986 -0.18257987 0.13707824 -0.14475659
0.41504905 0.20565565 -0.01903345 -1.2935737 0.02301668 0.200642 0.48893657 0.23072688
-0.34367222 -0.8405656 -0.049604155 0.2591068 -0.15337506 -0.25917542 0.29571474 0.09192725
-0.11457564 0.0602352 0.028008359 -0.22645392 -0.47012034 -0.20068541 0.0061581885 0.021636402
00000000: 8864 3b3e b261 17be d209 99be 8c00 e2be
00000010: e2ce 88be b890 cbbc 8ae1 d5bc 51ff c7bd
00000020: 0851 3f3e df87 36be 3ff4 15be 6f07 fbbd
00000030: 00e5 1e3e 0d16 89be 7bfc 83be 6f7a c7bb
00000040: 7977 69be fca4 c73e 206d 85bb fffb 143d
00000050: 9595 07bd 4e04 df3e 97dc e1be 3066 aabe
00000060: 1a23 dd3d 5213 d8be 941b febd 784c 84be
00000070: 36e6 d0bd ba9c 30be 67c8 d0bc ccc5 13bf
00000080: bf29 913e f4a5 3bbf 183a 1cbe 6a74 f83d
00000090: 23d7 643f 8cc7 d23d 905a 913d 9420 65be
000000a0: f523 f0bc 47a7 afbe 17c5 b9bd c359 c93d
000000b0: b652 153e 2e41 993d b03a a1be 3474 2a3e
000000c0: 298a cbbe 7928 17bf 3854 7a3e 38b6 d93d
000000d0: cdd6 ab3f a3be 3abf 7024 e03d 8da0 95be
000000e0: 02a6 3abe 6338 913d e01d a6be df91 d7be
000000f0: 7417 a7be 3678 3a3e 4412 843c 39fc c53e
00000100: f59e 853e ff05 e6be f147 e23e a37c efbc
00000110: 272d b1bc 81f4 043e 3d78 523d 41e2 953d
00000120: b820 b6be 917e 06bd 6350 153e 1e74 aa3c
00000130: e7fe 66be 80b4 a6be 8b26 ac3d 0aa8 153c
00000140: 5446 fe3d c212 953d e607 56be a807 1abe
00000150: 5221 993f 2d89 69be da14 83be 0a98 f8be
00000160: 573e 45be daee ad3d 007a d1bd 103a 82bd
00000170: 696d 98be b9ff 75be 0684 74bd 1b92 0a3e
00000180: 0090 8dbe cc78 0bbd 7749 e6bd efcd 03be
00000190: 7c2d d4be b205 d43d e8d5 113f 30f0 4ebd
000001a0: 52bc 493e 8e89 84be 07f9 82bd 53f8 43bc
000001b0: bed1 65bd 3d85 933e 1918 6a3e fc40 443c
000001c0: b3f9 59bd 25e7 913e 8833 653f 65fe 793e
000001d0: eba9 b7be 2d63 a2be d6a6 1d3e 3af4 1b3e
000001e0: a0fc 873e 5055 d63c 59e4 14bd 099a 06be
000001f0: 32bb 82be 9c8c 283e d376 d3bc e210 58be
00000200: 23e0 37bf 3c37 c4bd 1daf febd a620 03bd
00000210: bf78 eb3d a445 17be a075 c7bd 14fd 043e
00000220: 9ed7 b3be 5d20 593d baac 5b3f 0e27 88be
00000230: 3362 a93e d875 09bf 5a18 903e 8eb8 073f
00000240: ed03 c63f 5fdc cbbd 22d6 3abe e4bc b5be
00000250: c716 3abe 9e90 dd3d b531 313e b767 923e
00000260: a8c0 83bd b22d 39be 7628 32be 6174 bfbe
00000270: 417f 523b 93fe a3be 6c75 393e b8f5 85bd
00000280: e096 6fbe f89f febc 8fa1 02bf a3c9 c3be
00000290: 824f 41be 38f6 3abe 3d5e 0c3e 123b 14be
000002a0: 4f81 d43e 6597 523e 0aec 9bbc d393 a5bf
000002b0: 7a8d bc3c 1975 4d3e e555 fa3e ab43 6c3e
000002c0: cef5 afbe 4f2f 57bf ba2d 4bbd a6a9 843e
000002d0: 5a0e 1dbe a4b2 84be ec67 973e 5b44 bc3d
000002e0: a2a6 eabd 2fb9 763d c971 e53c 89e3 67be
000002f0: 9db3 f0be 7a80 4dbe a1ca c93b d33e b13c

actor.init_next_embed.0.add_bias._bias f4 [32, 1]
0.16175091 0.08464267 -0.07384375 -0.003686683 0.00262543 -0.30959004 0.115453094 -0.102551356
-0.23740537 0.010940686 -0.17295246 0.3337054 0.012143109 0.15898095 0.36303568 0.2542035
-0.026004571 -0.22452159 -0.21404791 0.344955 -0.100920506 0.025068592 -0.25191656 -0.034559604
0.25250384 -0.04062669 -0.12596717 0.043915715 0.04607488 0.18620825 0.21000865 0.18951009
00000000: 08a2 253e 2359 ad3d 643b 97bd 479c 71bb
00000010: 680f 2c3b 9682 9ebe ac72 ec3d 7206 d2bd
00000020: 651a 73be 9040 333c 731a 31be 6fdb aa3e
00000030: e4f3 463c e7cb 223e d0df b93e f626 823e
00000040: 8a07 d5bc fde8 65be 602f 5bbe f19d b03e
00000050: 69af cebd a65c cd3c 35fb 80be 5f8e 0dbd
00000060: 2f48 813e 2c68 26bd 8afd 00be f7e0 333d
00000070: 03b9 3c3d 60ad 3e3e 820c 573e ef0e 423e

actor.init_next_embed.2.module.weight f4 [64, 32]
0.03442005 -0.114961065 -0.031864136 0.17684509 0.14726003 0.07962972 -0.23275447 -0.22934681
-0.17558344 0.30874357 0.08262035 -0.45847335 0.09222263 0.28595066 -0.0089891525 -0.30932224
-0.15101367 0.06511556 -0.016835898 -0.20718898 0.06286816 -0.058280516 -0.47543427 -0.31542403
-0.5582005 0.34936202 -0.17252034 -0.093464136 0.11908205 0.08390469 0.1264514 -0.19859394
0.24766529 -0.067947164 -0.14531398 -0.06874442 -0.089325964 -0.16426677 -0.13474289 -0.0007178586
0.3602694 0.04113056 0.47781858 0.3203308 -0.023179816 -0.044391297 -0.07538388 -0.058968987
0.18076113 0.020919198 -0.07565535 0.530396 0.16991118 0.023145206 0.05675476 -0.19992232
-0.12196796 0.21905161 -0.0069276886 -0.31378734 -0.05697387 0.06941627 -0.04551112 -0.009043115
-0.09375735 0.024894677 0.16525987 -0.13598879 -2.8731101e-05 0.20132872 -0.4732611 -0.35061255
-0.31176585 -0.14288254 0.038764015 0.33125937 0.08905012 -0.247897 -0.6736452 0.13053076
-0.22955929 0.0649052 0.1845684 0.114144355 -0.08005092 -0.078541 -0.05392563 0.37597167
-0.39315456 0.09900908 -0.20883082 -0.16694869 -0.46257746 -0.62490475 -0.24119997 -0.12070351
-0.11601658 0.16841643 0.326406 -0.09415905 -0.31068707 0.025393875 -0.32508948 0.12733881
-0.14222434 0.2379709 -0.33779457 0.18718491 0.108523704 0.17434105 -0.29217312 -0.2457835
-0.16374706 0.2027204 0.031505745 -0.3522027 -0.016675016 0.07329462 0.16448526 0.66730934
-0.35703135 -0.4314099 -0.09376113 -0.32653216 -0.40776652 -0.14502667 0.055133715 -0.24803147
-0.1943944 -0.37758037 -0.13365397 0.2458823 0.117077604 -0.16887741 -0.07146384 -0.083314255
0.104070604 -0.12166559 -0.24906911 0.006294348 -0.030450683 0.008910179 0.16988234 -0.018813284
0.16582902 0.15235434 -0.14867118 -0.29529133 -0.1712194 0.09447597 0.15388826 0.110517465
0.26430753 -0.09371978 0.44475484 0.20539342 -0.24622256 -0.05221169 -0.07637004 0.025504725
-0.011757028 -0.017403115 0.023463277 -0.10948148 0.34102413 0.20680901 0.037048914 0.14106044
0.11536101 0.2152277 0.038742915 0.6386408 0.04218134 0.2957842 0.017257815 0.51119804
-0.030488703 0.32265818 0.11056729 0.796738 0.04398115 -0.032699008 0.26097965 0.01572394
0.5182937 -0.08201476 0.07101131 0.34662557 -0.14926487 -0.29871616 0.28788012 -0.12487221
0.021130284 0.1742413 0.053013545 0.17924006 -0.073010445 0.02716307 -0.24822217 -0.32518643
0.19812968 0.22380285 0.07067488 0.26644918 0.024962718 0.03133501 -0.11564851 -0.08646394
-0.021674152 0.16681665 -0.21252614 -0.015196573 0.2029166 -0.2715633 0.16889946 0.14258978
-0.18239576 0.07216028 0.03963323 -0.22648929 -0.22322817 -0.19419122 0.20495486 -0.23767602
-0.19172132 0.050067656 -0.1358511 0.023965226 0.22336389 -0.29320428 -0.12337146 -0.19482124
0.08510608 -0.030373596 0.3573699 0.27892664 0.09667194 0.21710598 0.40472215 0.45589307
0.0681825 0.34806618 0.2034803 0.22868083 -0.33375916 0.01362546 -0.16295591 0.5957087
0.4820122 0.02283437 0.09348785 -0.09570691 0.077394225 0.22981644 0.08040861 0.31596214
00000000: 0afc 0c3d b570 ebbd f883 02bd e116 353e
00000010: 55cb 163e e814 a33d 3057 6ebe e4d9 6abe
00000020: 25cc 33be a313 9e3e dc34 a93d 05bd eabe
00000030: 38df bc3d 2068 923e 3d47 13bc 7c5f 9ebe
00000040: 54a3 1abe 4f5b 853d 70eb 89bc 5929 54be
00000050: 06c1 803d 8db7 6ebd 1f6c f3be 427f a1be
00000060: 3ae6 0ebf 94df b23e 2ca9 30be 206a bfbd
00000070: 4ae1 f33d 39d6 ab3d 7a7c 013e 365c 4bbe
00000080: f89b 7d3e e227 8bbd 30cd 14be e0c9 8cbd
00000090: 88f0 b6bd 8c35 28be 0afa 09be ad2e 3cba
000000a0: 3b75 b83e 8578 283d a3a4 f43e 6602 a43e
000000b0: 99e3 bdbc a6d3 35bd dd62 9abd 7789 71bd
000000c0: 7219 393e bd5e ab3c 31f1 9abd 08c8 073f
000000d0: 32fd 2d3e 049b bd3c ae77 683d 70b8 4cbe
000000e0: 56ca f9bd 114f 603e aa01 e3bb bca8 a0be
000000f0: 6f5d 69bd 1e2a 8e3d de69 3abd 9329 14bc
00000100: db03 c0bd ecef cb3c e239 293e a540 0bbe
00000110: 9203 f1b7 1e29 4e3e 474f f2be 7d83 b3be
00000120: c69f 9fbe cd4f 12be 04c7 1e3d d49a a93e
00000130: e95f b63d b6d8 7dbe 0374 2cbf dba9 053e
00000140: 9711 6bbe 04ed 843d 80ff 3c3e 84c4 e93d
00000150: bdf1 a3bd 1bda a0bd 1fe1 5cbd 5c7f c03e
00000160: 8e4b c9be 46c5 ca3d bfd7 55be 99f4 2abe
00000170: f4d6 ecbe c2f9 1fbf 20fd 76be 6733 f7bd
00000180: 1a9a edbd 5b75 2c3e b01e a73e 76d6 c0bd
00000190: 6012 9fbe d106 d03c 2172 a6be 1b65 023e
000001a0: 42a3 11be a5ae 733e 69f3 acbe 67ad 3f3e
000001b0: ad41 de3d 7686 323e b797 95be abae 7bbe
000001c0: 4fad 27be f095 4f3e 2b0c 013d ea53 b4be
000001d0: 0b9a 88bc 7d1b 963d d36e 283e c9d4 2a3f
000001e0: d0cc b6be c2e1 dcbe d605 c0bd 392f a7be
000001f0: c6c6 d0be df81 14be e4d3 613d f6fb 7dbe
00000200: 530f 47be 3752 c1be 96dc 08be 92c8 7b3e
00000210: 62c6 ef3d 33ee 2cbe a25b 92bd aaa0 aabd
00000220: f822 d53d cf2b f9bd f90b 7fbe d140 ce3b
00000230: b673 f9bc 00fc 113c a3f5 2d3e 511e 9abc
00000240: 15cf 293e c702 1c3e 423d 18be 6d30 97be
00000250: 2354 2fbe 9e7c c13d e294 1d3e fb56 e23d
00000260: 5153 873e 28f0 bfbd e8b6 e33e a752 523e
00000270: c421 7cbe eddb 55bd e567 9cbd 49ef d03c
00000280: 8da0 40bc fa90 8ebc 0f36 c03c d437 e0bd
00000290: b79a ae3e bec5 533e 9ac0 173d 2672 103e
000002a0: 6542 ec3d a664 5c3e e4b0 1e3d f77d 233f
000002b0: 57c6 2c3d 0771 973e 4360 8d3c e0dd 023f
000002c0: 72c3 f9bc 7433 a53e 1a71 e23d 06f7 4b3f
000002d0: 9425 343d 65ef 05bd 209f 853e 7ecf 803c
000002e0: e5ae 043f 5bf7 a7bd 616e 913d e878 b13e
000002f0: e4d8 18be 53f1 98be 0665 933e 00bd ffbd
00000300: 6b19 ad3c 506c 323e bb24 593d b58a 373e
00000310: 8086 95bd 1685 de3c f42d 7ebe d67e a6be
00000320: 82e2 4a3e 932c 653e febd 903d 076c 883e
00000330: 9d7e cc3c 2459 003d 20d9 ecbd 0214 b1bd
00000340: fe8d b1bc fcd1 2a3e 74a0 59be 0cfb 78bc
00000350: 5fc9 4f3e 580a 8bbe fbf3 2c3e 0e03 123e
00000360: f4c5 3abe c5c8 933d 7456 223d cfec 67be
00000370: ed95 64be 10da 46be b0df 513e 5861 73be
00000380: 9852 44be be13 4d3d 8d1c 0bbe b952 c43c
00000390: 81b9 643e df1e 96be 2daa fcbd 387f 47be
000003a0: 194c ae3d 0cd2 f8bc 30f9 b63e 79cf 8e3e
000003b0: f0fb c53d 0851 5e3e be37 cf3e d16a e93e
000003c0: 44a3 8b3d bb35 b23e 245d 503e 4f2b 6a3e
000003d0: 7be2 aabe 523d 5f3c eadd 26be 5e80 183f
000003e0: 4eca f63e 250f bb3c 8f76 bf3d fc01 c4bd
000003f0: dd80 9e3d 0055 6b3e 45ad a43d cac5 a13e

actor.init_next_embed.2.add_bias._bias f4 [64, 1]
-0.5321201 -0.31392366 -0.35044062 -0.39613515 0.010528247 1.0266371 -0.2524778 0.48815802
1.0852907 -0.7475814 -0.7437374 0.40396458 1.1248144 -1.2026159 -1.0210577 -0.7845
-0.81036097 0.7085338 0.57747304 -0.048342023 -0.2511994 -0.34996825 -1.1082168 0.38904443
-2.262661 -0.7408933 -0.4208406 -0.7670738 0.44497147 0.20422675 -0.737293 -0.64822096
-0.17354006 0.7381856 -0.091588065 -0.33917642 1.5224886 0.57115924 -0.20027111 0.5537911
-1.6703086 1.0248649 -0.3923781 -1.6725553 0.4167825 1.2436123 0.776888 0.5888364
-0.30337775 0.20828591 0.6324026 0.59358513 0.17367491 -0.12687145 -0.02835459 -0.5549995
-0.0032687047 0.5950746 -0.62141514 0.38571498 0.45257404 0.7142423 -0.10732436 0.2832215
00000000: 0639 08bf 9aba a0be f46c b3be 3ad2 cabe
00000010: ab7e 2c3c d868 833f c544 81be d9ef f93e
00000020: ceea 8a3f 7f61 3fbf 9365 3ebf 72d4 ce3e
00000030: ebf9 8f3f 51ef 99bf 05b2 82bf fed4 48bf
00000040: d173 4fbf 7962 353f 46d5 133f 4902 46bd
00000050: 359d 80be 0a2f b3be 0cda 8dbf d530 c73e
00000060: 70cf 10c0 2fab 3dbf 6b78 d7be f35e 44bf
00000070: 4dd3 e33e d120 513e 3cbf 3cbf cff1 25bf
00000080: 7cb4 31be bbf9 3c3f 8692 bbbd 88a8 adbe
00000090: e8e0 c23f 7e37 123f df13 4dbe 41c5 0d3f
000000a0: accc d5bf c62e 833f c8e5 c8be 4b16 d6bf
000000b0: 8464 d53e b02e 9f3f 22e2 463f fbbd 163f
000000c0: 5454 9bbe e748 553e 23e5 213f 32f5 173f
000000d0: d6d7 313e 97ea 01be e347 e8bc 7214 0ebf
000000e0: c437 56bb cf56 183f 1015 1fbf 6f7c c53e
000000f0: c9b7 e73e 95d8 363f e0cc dbbd 6902 913e

actor.embedder.layers.0.0.module.W_query.weight f4 [64, 64]
0.04915946 -0.065142706 0.1479813 -0.14889291 0.011193484 -0.10079386 -0.10615768 -0.06206853
0.14616792 -0.118010394 0.12675588 0.0040361434 0.031406224 0.022347394 0.01040329 -0.022214344
0.0604154 0.03944188 -0.025050363 0.08412649 0.029050797 -0.08303347 0.12732415 0.21669526
-0.17001282 0.16546051 0.05842456 -0.030813023 0.009948341 0.18507133 -0.02496831 0.045412976
0.11303993 -0.028414324 -0.18839931 0.11108048 -0.0032197535 0.12847085 0.10046143 -0.075023904
0.105836056 0.015537199 -0.026917137 0.16187109 -0.095147476 -0.11011253 0.17070752 -0.06507188
-0.10072406 -0.024723118 -0.028631775 -0.08899155 -0.08747348 0.030317387 0.019360222 -0.038181055
0.071113996 -0.12660706 0.19302733 -0.06811949 -0.05098276 -0.096926644 -0.06401568 -0.06891359
-0.28965017 -0.17888346 -0.13499361 -0.109723754 -0.032117456 -0.13940975 0.13612224 0.20076802
0.23236975 0.088006586 -0.1620925 -0.046005227 0.17070459 0.017432123 -0.0063416897 -0.012273297
-0.09056112 0.123071894 0.033908807 0.2644499 0.046681453 -0.11208069 -0.06531991 -0.19666228
-0.17771214 -0.10917211 0.19511768 0.033419307 0.11832115 -0.12709427 0.1326746 -0.005894282
-0.13246232 -0.10050512 0.032482922 -0.0608997 -0.07080174 -0.15782385 -0.16545525 -0.09544639
-0.15763693 0.26656723 -0.19780053 0.0115765 0.19075908 -0.08260717 -0.010953712 0.15663503
0.18142019 -0.08163864 -0.052882686 -0.17851387 -0.1473479 0.12530206 -0.010602465 -0.20927645
-0.16469532 0.3296541 -0.1786856 0.31737497 -0.09434106 0.15730162 -0.16556005 0.13550884
-0.24183916 -0.010134674 0.021511398 0.053234436 0.13146684 -0.028678486 -0.064621516 0.05297126
0.005348333 0.048351835 -0.0558918 -0.049444165 0.10323901 0.04932407 0.044267368 0.13068019
0.0080906665 0.12233547 0.11651396 0.0726682 0.09675812 0.024132667 -0.11281467 -0.1055175
-0.10134768 -0.07602022 0.055741943 -0.05231628 0.0074829794 -0.011260342 -0.02632818 -0.005656931
-0.037748035 -0.051458944 -0.013554136 0.018089442 0.08669488 0.04045817 0.020019794 0.03857126
0.032239787 0.08796635 -0.008788072 0.004568284 0.07712778 -0.08620969 0.1890861 0.17168179
-0.060988884 -0.035067875 0.042765044 0.011502083 -0.056504734 0.040290017 -0.003503339 0.014288453
-0.0253549 0.08416493 -0.059364162 -0.016880676 -0.12908803 -0.0062028468 -0.086724974 -0.061645824
-0.07013519 0.06604569 -0.012531878 0.11534775 0.105473265 0.16419786 0.027779529 -0.11779812
-0.0067483084 -0.014727579 -0.050882727 -0.039893888 -0.17080377 0.0073130173 0.039898556 0.03289716
-0.025961371 0.029463824 0.016545162 0.062203348 -0.13864227 0.054206684 0.0065315333 -0.033942364
-0.036340833 0.058406815 -0.064094774 0.099879205 0.069152854 -0.020172244 0.07371178 -0.0521648
-0.022620576 -0.039815072 -0.022838362 0.17000791 -0.037933193 0.04305658 0.04130027 0.012524645
-0.097737074 0.04086487 0.18478839 -0.025134886 0.06614583 -0.10446673 0.072396524 -0.068346106
-0.06982737 0.060468316 0.10375943 -0.047820475 0.17430972 0.063254975 0.08045529 0.054175515
0.20407236 -0.1076255 -0.030885147 -0.06693285 -0.115464576 -0.1147165 0.01581016 -0.1133796
00000000: 6e5b 493d 8a69 85bd 6988 173e 6277 18be
00000010: e064 373c 036d cebd 3369 d9bd 923b 7ebd
00000020: 0bad 153e 6faf f1bd 4bcc 013e a041 843b
00000030: d0a3 003d e211 b73c 9072 2a3c dbfa b5bc
00000040: 2376 773d cf8d 213d 6b36 cdbc 824a ac3d
00000050: f0fb ed3c 740d aabd 4361 023e 5de5 5d3e
00000060: d717 2ebe 7b6e 293e 974e 6f3d 986b fcbc
00000070: 5efe 223c 5783 3d3e 578a ccbc f502 3a3d
00000080: 7b81 e73d 28c5 e8bc c0eb 40be 2a7e e33d
00000090: 8002 53bb dd8d 033e b9be cd3d 22a6 99bd
000000a0: 93c0 d83d bc8f 7e3c 5481 dcbc 89c1 253e
000000b0: aedc c2bd ae82 e1bd f4cd 2e3e 6844 85bd
000000c0: 6a48 cebd 2388 cabc 2f8d eabc 3441 b6bd
000000d0: 4c25 b3bd 2b5c f83c 5499 9e3c bd63 1cbd
000000e0: 37a4 913d 48a5 01be f5a8 453e 3b82 8bbd
000000f0: 4cd3 50bd 7a81 c6bd a71a 83bd 9122 8dbd
00000100: 074d 94be 3a2d 37be c43b 0abe d9b6 e0bd
00000110: 988d 03bd 6ec1 0ebe a163 0b3e 2296 4d3e
00000120: 56f2 6d3e cc3c b43d 94fb 25be fa6f 3cbd
00000130: 2fcd 2e3e d0cd 8e3c f3cd cfbb f015 49bc
00000140: 1c78 b9bd 1e0d fc3d f6e3 0a3d fa65 873e
00000150: 0d35 3f3d 908a e5bd 72c6 85bd d661 49be
00000160: 2cfa 35be a195 dfbd eecc 473e afe2 083d
00000170: 5c52 f23d 0025 02be dadb 073e d224 c1bb
00000180: 34a4 07be a1d5 cdbd d00c 053d f771 79bd
00000190: 8100 91bd 939c 21be 1a6d 29be 6679 c3bd
000001a0: 936b 21be 807b 883e 398c 4abe 5cab 3d3c
000001b0: 5956 433e f32d a9bd 3377 33bc ef64 203e
000001c0: 37c6 393e 2932 a7bd 849b 58bd 57cc 36be
000001d0: 5ee2 16be 2f4f 003e f6b5 2dbc 914c 56be
000001e0: e4a5 28be 6cc8 a83e 5cf9 36be f97e a23e
000001f0: e335 c1bd ad13 213e 9388 29be d4c2 0a3e
00000200: afa4 77be e70b 26bc ac38 b03c 5a0c 5a3d
00000210: 3e9f 063e 25ef eabc 4958 84bd 64f8 583d
00000220: 1241 af3b 930c 463d cdee 64bd f785 4abd
00000230: f96e d33d 0908 4a3d b351 353d 07d1 053e
00000240: b78e 043c 058b fa3d df9e ee3d 11d3 943d
00000250: 1f29 c63d dfb1 c53c 610b e7bd 8f19 d8bd
00000260: 5f8f cfbd 7db0 9bbd aa51 643d 9849 56bd
00000270: c833 f53b 4c7d 38bc 32ae d7bc c75d b9bb
00000280: af9d 1abd 9dc6 52bd 2b12 5ebc 4f30 943c
00000290: 168d b13d 77b7 253d 8d00 a43c e6fc 1d3d
000002a0: de0d 043d b427 b43d d8fb 0fbc 8bb1 953b
000002b0: 2bf5 9d3d b58e b0bd c99f 413e 5acd 2f3e
000002c0: 7bcf 79bd 55a3 0fbd 662a 2f3d 3c73 3c3c
000002d0: 8271 67bd 2507 253d 4698 65bb 1e1a 6a3c
000002e0: 14b5 cfbc aa5e ac3d d627 73bd 5849 8abc
000002f0: a72f 04be 4041 cbbb dd9c b1bd 5580 7cbd
00000300: 0aa3 8fbd f642 873d 8252 4dbc 713b ec3d
00000310: 5e02 d83d 7c23 283e e591 e33c 2440 f1bd
00000320: ea20 ddbb f24b 71bc 686a 50bd c667 23bd
00000330: 2fe7 2ebe 09a2 ef3b ab6c 233d 2cbf 063d
00000340: f1ac d4bc 1e5e f13c b889 873c f0c8 7e3d
00000350: 3df8 0dbe d407 5e3d 7906 d63b 2607 0bbd
00000360: 20da 14bd fc3b 6f3d 1f44 83bd 788d cc3d
00000370: 03a0 8d3d 4340 a5bc 34f6 963d c2aa 55bd
00000380: c94e b9bc 2115 23bd 8417 bbbc 8e16 2e3e
00000390: d65f 1bbd 195c 303d 792a 293d 2b34 4d3c
000003a0: 602a c8bd ec61 273d 2b39 3d3e ade7 cdbc
000003b0: 7777 873d a7f2 d5bd a144 943d 0bf9 8bbd
000003c0: a701 8fbd a0ad 773d d37f d43d 67df 43bd
000003d0: 3f7e 323e d38b 813d bec5 a43d 25e7 5d3d
000003e0: 58f8 503e c26a dcbd d902 fdbc 1714 89bd
000003f0: b178 ecbd 7cf0 eabd 4f84 813c 9033 e8bd
