logs/experiment/Discrete_A2C_1-5Box_10x10x10Bin-2022.08.09-15-00-00/PCT-Discrete_A2C_1-5Box_10x10x10Bin-2022.08.09-15-00-00_2022.08.09-17-29-03.pt (torch, 236314 bytes, 24 tensors)

actor.init_internal_node_embed.0.module.weight f4 [32, 6]
-0.48805508 0.031580415 -0.5923003 0.03319324 -0.20015818 -0.046102602 -0.101189435 0.15145893
-0.35308343 -0.2857676 -0.3566776 -0.42452654 -0.15318309 0.06511652 0.16015667 0.28253478
0.09534257 -0.6693894 0.33207873 -0.31191352 0.32579824 -0.5493081 -0.009679256 0.5991312
-0.08153711 -0.39401188 0.18428192 0.07519936 0.29561284 0.80010194 0.011586711 0.04543607
0.24180727 -0.01603426 -0.045429412 -0.24162814 1.0969424 -0.22300076 -0.81506795 -1.2759122
0.51126677 0.70138854 -0.35928005 -0.355183 0.078729354 -0.21912524 0.29746166 0.5777518
-0.16863133 0.43207225 0.6599058 -0.14771457 -0.25865635 0.27576476 0.3945805 -0.076505415
0.5433322 -0.0687448 -0.05633753 -0.040823985 -0.40194744 -0.2669874 -0.42452714 0.4762875
0.22992845 -0.23529783 -0.12490392 0.6246083 -0.4079206 0.1515466 -0.6282697 0.43622962
0.3931253 -0.54170215 -0.22190431 0.18586333 -0.290004 0.15670025 0.075198926 0.23629206
-0.019497117 -0.21634682 -0.06726498 -0.15707768 0.23961385 -0.0037891585 0.0157154 -0.14251585
-0.008754544 0.031821735 0.30061927 -0.11345115 0.34918368 -0.20405813 -0.18518351 0.17873913
-0.51024365 -0.56463116 -0.37077364 -0.40040326 -0.15496577 -0.27747625 -0.0014762918 0.12984754
0.33112565 -0.07880395 -0.005501479 -0.0037037148 -0.13842893 -0.6870433 -0.6372647 -0.03878883
-0.16595683 -0.1680475 0.19272831 -0.09158908 -0.7146663 -0.038106646 -0.06838109 0.319028
0.01677305 -0.21459581 -0.009417258 -0.44153696 -0.64916486 0.09269721 -0.12762176 -0.33709165
-0.6200294 0.11695615 0.24549595 0.5902505 -0.39650786 -0.008437803 -0.7667987 0.3382546
0.52741235 0.015704308 0.06930663 -0.032561712 -0.44674698 -0.13224585 -0.4454665 -0.5586403
0.14809167 -0.15286581 0.76211953 0.00446789 0.1301013 -0.13366495 0.054732826 -0.2016516
-0.52553636 0.24156496 0.3438839 -0.15442269 0.52490175 0.09468889 0.18570158 0.2548726
-0.22793043 -0.24471118 0.3414078 0.05253811 -0.25256056 0.48138538 0.057392176 -0.118319295
-0.09593679 -0.21922225 0.11538626 0.5628765 0.49279395 -0.84208477 0.23949999 -0.18117957
-0.4054115 -0.04364623 0.024291595 -0.010058772 -0.38300356 -0.39650473 1.3984919 -0.06422559
-0.24126281 0.106246 0.21409869 0.12616998 -0.042035695 0.093431346 -0.19632731 -0.15186362
00000000: 5be2 f9be 775a 013d fea0 17bf a3f5 073d
00000010: 44f6 4cbe 15d6 3cbd 683c cfbd 0d18 1b3e
00000020: 5ac7 b4be 2250 92be 729e b6be 8b5b d9be
00000030: 07dc 1cbe cf5b 853d 1c00 243e 66a8 903e
00000040: f742 c33d 1b5d 2bbf 3906 aa3e 21b3 9fbe
00000050: 07cf a63e 759f 0cbf be95 1ebc aa60 193f
00000060: eefc a6bd edbb c9be 66b4 3c3e 1f02 9a3d
00000070: 915a 973e 7bd3 4c3f 30d6 3d3c 2c1b 3a3d
00000080: 539c 773e 485a 83bc 3114 3abd 5e6d 77be
00000090: 9c68 8c3f 505a 64be 4ba8 50bf 1751 a3bf
000000a0: 61e2 023f 338e 333f 8ef3 b7be 8cda b5be
000000b0: db3c a13d 5e62 60be e54c 983e 8be7 133f
000000c0: b1ad 2cbe 9338 dd3e 96ef 283f 7d42 17be
000000d0: 9b6e 84be 0a31 8d3e 7506 ca3e dfae 9cbd
000000e0: d217 0b3f 13ca 8cbd 2fc2 66bd 0d37 27bd
000000f0: 0ecc cdbe 93b2 88be 9f5b d9be f5db f33e
00000100: 5d72 6b3e eaf1 70be a0cd ffbd 54e6 1f3f
00000110: f8da d0be 082f 1b3e 48d6 20bf 7d59 df3e
00000120: b847 c93e feac 0abf e23a 63be f552 3e3e
00000130: 677b 94be 0876 203e e501 9a3d 8cf6 713e
00000140: 6bb8 9fbc 058a 5dbe 39c2 89bd f9d8 20be
00000150: 555d 753e 8853 78bb 95bd 803c adef 11be
00000160: 386f 0fbc 8257 023d c5ea 993e 1459 e8bd
00000170: 34c8 b23e 9df4 50be bfa0 3dbe 6407 373e
00000180: 549f 02bf ab8b 10bf 0bd6 bdbe a801 cdbe
00000190: 59af 1ebe 5e11 8ebe 2280 c1ba c1f6 043e
000001a0: 4d89 a93e f763 a1bd c045 b4bb 06ba 72bb
000001b0: 50c0 0dbe 12e2 2fbf c823 23bf 09e1 1ebd
000001c0: 96f0 29be a514 2cbe 925a 453e 0e93 bbbd
000001d0: 5ff4 36bf b715 1cbd 630b 8cbd a357 a33e
000001e0: a367 893c 01bf 5bbe d84a 1abc 2211 e2be
000001f0: ab2f 26bf 09d8 bd3d 47af 02be 4797 acbe
00000200: 3fba 1ebf b586 ef3d 4a63 7b3e a81a 173f
00000210: 1403 cbbe b63e 0abc eb4c 44bf b52f ad3e
00000220: 7f04 073f 52a6 803c a2f0 8d3d 6e5f 05bd
00000230: 05bc e4be 756b 07be 2f14 e4be 0d03 0fbf
00000240: 58a5 173e db88 1cbe 441a 433f 6167 923b
00000250: 4639 053e 77df 08be 872f 603d c27d 4ebe
00000260: 8d89 06bf ce5c 773e 8d11 b03e fb20 1ebe
00000270: f65f 063f 40ec c13d 8e28 3e3e a97e 823e
00000280: 9866 69be 9195 7abe 01cd ae3e 3432 573d
00000290: 9e4f 81be 2578 f63e 0f14 6b3d 6351 f2bd
000002a0: 827a c4bd cc7b 60be a24f ec3d ad18 103f
000002b0: 7d4f fc3e de92 57bf 7c3f 753e 2387 39be
000002c0: 1992 cfbe 64c6 32bd 2bff c63c 8ccd 24bc
000002d0: 0b19 c4be ab02 cbbe c801 b33f b588 83bd
000002e0: 990d 77be 8197 d93d b03c 5b3e b432 013e
000002f0: 9f2d 2cbd ef58 bf3d 070a 49be 2382 1bbe

actor.init_internal_node_embed.0.add_bias._bias f4 [32, 1]
0.019178417 -0.24372445 -0.0063908193 -0.021079017 0.14548843 0.03171171 0.00606941 -0.0073190266
0.04432098 0.10532195 0.0040125595 0.017650075 -0.0039561233 -0.00063628604 -0.013366091 0.029782081
-0.32064027 -0.06001222 0.03802753 0.00073020934 -0.26019686 0.05763263 0.051613048 0.12210086
0.033265285 0.0028119734 0.0060532815 0.07233272 0.026821727 -0.047450915 0.072066374 -0.06909528
00000000: 0e1c 9d3c e792 79be 146a d1bb e7ad acbc
00000010: ebfa 143e 23e4 013d e7e1 c63b 72d4 efbb
00000020: ea89 353d 09b3 d73d ca7b 833b e496 903c
00000030: 5ea2 81bb 6fcc 26ba 73fd 5abc 8df9 f33c
00000040: f62a a4be 60cf 75bd c1c2 1b3d 856b 3f3a
00000050: 8638 85be 3110 6c3d 3468 533d 0410 fa3d
00000060: 2e41 083d 1649 383b 9b5a c63b 2d23 943d
00000070: 3db9 db3c e45b 42bd 8997 933d d381 8dbd

actor.init_internal_node_embed.2.module.weight f4 [64, 32]
0.097302504 0.17965367 0.013758817 0.17177959 0.0044082715 0.097145036 0.09327599 0.57053494
0.3634875 -0.11953708 0.7792048 0.09277874 0.085096374 -0.25170133 -0.70883226 0.33181
-0.018439652 0.16785765 0.0055340105 0.2404635 -0.21975236 0.18465646 1.1379678 -0.107286334
0.55638105 0.31673816 0.15222304 0.26182917 0.29294157 -0.063097924 -0.05229014 0.012852242
0.35443735 0.078722805 -0.4955055 -0.543069 -0.018212121 0.286908 0.05512554 -0.39573783
-0.2968191 0.12059362 0.5536024 0.28268036 0.3268293 0.11789358 -0.031932037 0.31300655
-0.06070863 0.022437638 -0.13433617 -0.15570317 0.036241915 0.36199778 0.8850162 0.37219086
-0.14204697 0.052397773 0.044784024 0.054508895 0.6159528 0.21834749 -0.003103748 -0.053403743
-0.26365453 -0.018988615 0.5312817 0.5177967 0.49047688 -0.018701257 -0.17944388 0.9592145
-0.16398923 -0.15620016 -0.47529086 -0.550278 -0.10376498 0.20236564 0.3124424 -0.41463166
-0.11820523 0.105271034 0.0068761944 -0.42863998 -0.037917648 0.3910157 -0.114626 -0.25688985
-0.03607439 -0.052477773 0.17023882 0.10597748 0.1728064 -0.16122796 0.19109577 0.06849773
-0.051747106 -0.21559209 0.025122618 0.36808816 0.15223868 -0.021521917 0.067105286 0.0027937149
0.1057006 0.039693993 0.15564416 0.0047712135 -0.2278757 0.026006673 -0.34203303 0.13056614
0.11063737 -0.28951058 0.10532927 0.13060477 -0.25339663 0.52903867 -0.14717682 0.1731272
0.2849601 -0.014094607 0.15764214 0.3779085 0.15256052 -0.09774046 -0.28496012 0.16307683
0.316321 -0.11091684 -0.15118042 0.13812938 -0.5787251 -0.079451874 0.32793576 -0.5699812
-0.51866794 0.4187254 0.2979787 0.36541578 -0.12310886 -0.20657755 0.20294209 -0.09371411
0.014074839 -0.08683336 0.019793035 -0.030162843 -0.13853814 0.42852607 0.11239944 0.00762785
-0.19469133 0.28231844 0.3289103 0.16395678 0.5161024 0.052159265 0.20080848 -0.09914456
-0.2961197 -0.10442545 -0.031458847 -0.0049314955 0.84948003 -0.23428582 -0.17336254 0.34331775
0.0516087 -0.23265566 0.85882294 -0.3656582 0.048711255 -0.14150248 0.109328836 0.28402364
0.21454048 0.19014072 -0.06473596 -0.034313947 -0.030932153 0.13656923 0.479213 -0.4950732
0.17902675 0.29822367 0.22972408 0.5175663 -0.01450494 -0.056525968 -0.0058371373 0.24212937
0.33219 0.005306257 0.08068638 -0.0631783 0.47425598 0.025989728 -0.31646764 0.20619535
-0.004684074 -0.12343422 0.26533538 -0.19116557 -0.29220954 -0.04056729 0.15424553 -0.514303
0.0027816186 -0.38319418 0.06618292 -0.008468104 -0.0025100266 0.116846696 -0.009324468 0.17803474
-0.26233768 0.038058985 -0.19192708 0.36414295 -0.3623149 0.04578023 -0.3569028 -0.10310413
-0.099112384 -0.121148415 -0.41514146 -0.34665638 -0.4004568 -0.006520081 0.20266074 -0.08696703
-0.007727588 0.21223384 0.4554912 0.42618233 -0.1568682 0.18760888 -0.106933795 -0.14636418
-0.05284198 -0.30373496 0.23186542 0.15375125 0.021050032 -0.34455436 0.69132346 0.047218762
-0.40679416 0.087024935 -0.27362382 -0.29764143 0.7123833 0.19906957 0.35752794 -0.09906239
00000000: 8946 c73d 22f7 373e a96c 613c fde6 2f3e
00000010: 4373 903b faf3 c63d 7b07 bf3d 940e 123f
00000020: 091b ba3e dbcf f4bd f779 473f c802 be3d
00000030: 0247 ae3d ffde 80be 0876 35bf 00e3 a93e
00000040: c10e 97bc e0e2 2b3e a556 b53b 103c 763e
00000050: c306 61be 9516 3d3e eea8 913f f0b8 dbbd
00000060: fd6e 0e3f 812b a23e 5be0 1b3e 790e 863e
00000070: 70fc 953e 7c39 81bd 302e 56bd 3692 523c
00000080: d078 b53e 6c39 a13d e6b2 fdbe 9206 0bbf
00000090: 9631 95bc 9be5 923e 51cb 613d 269e cabe
000000a0: acf8 97be caf9 f63d e3b8 0d3f 7bbb 903e
000000b0: 2c56 a73e 3072 f13d 2bcb 02bd 6542 a03e
000000c0: 9da9 78bd 23cf b73c 6c8f 09be a770 1fbe
000000d0: 6772 143d c657 b93e 6c90 623f cd8f be3e
000000e0: c374 11be 0c9f 563d 746f 373d b844 5f3d
000000f0: 15af 1d3f 7c96 5f3e 4068 4bbb e2bd 5abd
00000100: bafd 86be 038e 9bbc 1402 083f 538e 043f
00000110: c91f fb3e 6133 99bc 23c0 37be 158f 753f
00000120: cbec 27be eff2 1fbe 5359 f3be 05df 0cbf
00000130: bc82 d4bd f038 4f3e 73f8 9f3e 9a4a d4be
00000140: 9515 f2bd 5798 d73d b351 e13b b376 dbbe
00000150: 894f 1bbd 3633 c83e 09c1 eabd 1187 83be
00000160: bdc2 13bd eff2 56bd 1653 2e3e b90a d93d
00000170: 29f4 303e f118 25be 9cae 433e 8a48 8c3d
00000180: c6f4 53bd 2cc4 5cbe f3cd cd3c 0d76 bc3e
00000190: 75e4 1b3e bb4e b0bc 7f6e 893d c216 373b
000001a0: 8e79 d83d 2b96 223d 2f61 1f3e d757 9c3b
000001b0: 3f58 69be f20b d53c f41e afbe 21b3 053e
000001c0: d895 e23d bb3a 94be dfb6 d73d 42bd 053e
000001d0: 34bd 81be 146f 073f 85b5 16be 4248 313e
000001e0: 4ae6 913e 11ed 66bc f16c 213e 397d c13e
000001f0: d338 1c3e 262c c8bd 4be6 91be 9dfd 263e
00000200: d3f4 a13e 5e28 e3bd 0acf 1abe ca71 0d3e
00000210: 5427 14bf aab7 a2bd 32e7 a73e 4aea 11bf
00000220: 6cc7 04bf 2d63 d63e aa90 983e c717 bb3e
00000230: 7f20 fcbd 1189 53be 0dd0 4f3e 2fed bfbd
00000240: 279a 663c b0d5 b1bd 0125 a23c 1118 f7bc
00000250: f1dc 0dbe c567 db3e ad31 e63d 0bf3 f93b
00000260: 2a5d 47be 0b8c 903e ee66 a83e 49e4 273e
00000270: 491f 043f f4a4 553d bda0 4d3e 4e0c cbbd
00000280: 009d 97be 03dd d5bd feda 00bd 6298 a1bb
00000290: 8677 593f 9fe8 6fbe f385 31be 58c7 af3e
000002a0: a563 533d 493d 6ebe d2db 5b3f 8d37 bbbe
000002b0: 7485 473d 07e6 10be cce7 df3d 8c6b 913e
000002c0: 80b0 5b3e 40b4 423e 4994 84bd c88c 0cbd
000002d0: 6d65 fdbc ced8 0b3e 685b f53e 3c7a fdbe
000002e0: ca52 373e c6b0 983e ca3c 6b3e 3a7f 043f
000002f0: 21a6 6dbc c687 67bd 7545 bfbb c3f0 773e
00000300: cf14 aa3e 1ce0 ad3b e73e a53d a063 81bd
00000310: aed1 f23e 69e8 d43c 0c08 a2be e024 533e
00000320: dc7c 99bb 15cb fcbd 0ada 873e e8c0 43be
00000330: 7d9c 95be e329 26bd 8af2 1d3e 5da9 03bf
00000340: d14b 363b 0732 c4be e98a 873d cdbd 0abc
00000350: 427f 24bb 524d ef3d a7c5 18bc bd4e 363e
00000360: 2051 86be bde3 1b3d 8888 44be f270 ba3e
00000370: 5781 b9be 0d84 3b3d f7bb b6be 4228 d3bd
00000380: 6ffb cabd a91c f8bd 6c8d d4be f27c b1be
00000390: ac08 cdbe 67a6 d5bb 4c86 4f3e c51b b2bd
000003a0: b537 fdbb d453 593e 2436 e93e 9234 da3e
000003b0: 0fa2 20be 8b1c 403e 1b00 dbbd 7ee0 15be
000003c0: d570 58bd 2683 9bbe 216e 6d3e f870 1d3e
000003d0: 1e71 ac3c 6e69 b0be 93fa 303f 7668 413d
000003e0: 5347 d0be 213a b23d 6c18 8cbe 7564 98be
000003f0: c05e 363f e5d8 4b3e e70d b73e 39e1 cabd

actor.init_internal_node_embed.2.add_bias._bias f4 [64, 1]
0.19904469 0.27721006 -0.043350242 0.09925692 0.14150156 0.31476414 0.028303102 0.13050273
-0.06859434 -0.10455941 0.0047266698 0.029108373 -0.06533469 0.10524623 0.1425471 0.13467222
-0.0014490609 -0.21310133 0.014377962 0.085068926 -0.025180122 0.06279083 -0.04856234 -0.09014708
0.1762576 -0.013450556 -0.021689776 0.06069922 -0.10579519 -0.034170795 -0.005178249 -0.020173091
0.072362706 0.049680073 0.267046 -0.10346193 0.029627603 -0.1485074 -0.019938763 0.19635457
-0.06431706 -0.22956431 0.16485031 0.00730427 -0.12840073 -0.04564622 -0.32321927 -0.2992373
0.2518714 0.02143244 0.08657402 0.054237045 0.014385766 0.0072522284 -0.026058046 0.22163427
0.22094887 -0.07132069 0.013790664 0.076232485 0.0646158 0.11879268 -0.032214664 0.041996185
00000000: 5fd2 4b3e 7aee 8d3e 0690 31bd 3647 cb3d
00000010: c9e5 103e c428 a13e e8db e73c 82a2 053e
00000020: 307b 8cbd 3e23 d6bd 2ee2 9a3b af74 ee3c
00000030: 32ce 85bd 568b d73d def7 113e 84e7 093e
00000040: 6aee bdba 3c37 5abe 8b91 6b3c 9e38 ae3d
00000050: 8b46 cebc 7b98 803d 4ee9 46bd 089f b8bd
00000060: df7c 343e b95f 5cbc c2ae b1bc bf9f 783d
00000070: 26ab d8bd adf6 0bbd 4dae a9bb 0a42 a5bc
00000080: e632 943d 557d 4b3d 41ba 883e d9e3 d3bd
00000090: 96b5 f23c 5312 18be 9e56 a3bc 2c11 493e
000000a0: aab8 83bd e812 6bbe 85ce 283e a858 ef3b
000000b0: 7b7b 03be 88f7 3abd ff7c a5be a235 99be
000000c0: 4af5 803e 1693 af3c b84d b13d aa27 5e3d
000000d0: 47b2 6b3c 1aa4 ed3b af77 d5bc 18f4 623e
000000e0: 6c40 623e 9510 92bd 3df2 613c c71f 9c3d
000000f0: 4a55 843d 9449 f33d 86f3 03bd 3104 2c3d

actor.init_leaf_node_embed.0.module.weight f4 [32, 8]
-0.07989813 -0.3444981 -0.39150965 -0.06811277 0.16843109 0.36918432 0.49556488 0.26958755
-0.36345467 -0.6557218 -0.0796715 -0.34761822 -0.25598335 0.34236598 -0.022073694 0.36473003
0.18950486 -0.3683543 -0.13839191 0.41779926 -0.0014531364 -0.31316155 -0.05668357 -0.067440934
-0.4055963 -0.20353685 -0.24405755 -0.25048447 0.3401459 0.04337933 0.45127562 0.114205725
-0.05109695 -0.18613294 0.07226548 0.124255605 0.37627333 0.12996759 -0.49865738 0.39125538
0.08912755 0.1509948 -0.5290106 0.16501102 -0.47280073 0.5230723 -0.12240198 -0.2569163
-0.340358 -0.1688133 -0.06864834 0.056652024 0.114382066 -0.19228056 -0.09980849 -0.10941601
0.37059197 -0.43704063 0.25171188 0.45575926 -0.03615335 0.39236683 0.044950716 0.2253498
0.09913632 0.12994325 -0.16454446 0.338048 0.09513046 0.086436115 0.49037474 0.34801507
-0.08656898 0.33913028 -0.18039717 0.29922712 0.02591532 -0.117182635 0.4524055 -0.29887226
0.06156047 0.11292379 0.28039137 -0.078705475 0.33032498 -0.022421762 -0.19306481 0.021164838
-0.26870793 0.0421677 0.18585894 0.07854382 0.46066946 0.10039341 -0.0166643 -0.3579186
0.3901236 0.066591665 0.5681211 -0.34230623 -0.07753611 -0.06739662 0.36708963 -0.116579294
-0.27181438 0.005644324 0.28243843 -0.18497337 -0.2623631 -0.2553213 0.35581025 0.0762532
0.17762445 -0.030700538 0.16226731 0.44921675 0.12423675 0.41146258 0.11389746 -0.07272469
0.5009987 0.12074016 -0.11674173 -0.51599616 0.20397553 0.46704677 0.035715528 -0.30470893
-0.05682458 0.09842621 -0.29155636 0.36087692 0.17655793 0.021268718 -0.24215657 0.078400984
-0.089227244 0.36868623 0.10640039 0.08327331 -0.26926547 0.089326605 0.18544158 0.2879545
-0.19894914 0.056602877 0.06893467 -0.3597168 -0.2450156 0.36220306 0.049006805 0.11954338
-0.3763196 0.11407631 -0.098040074 0.26755223 0.07106561 0.5192405 -0.0895742 0.106007986
-0.24580032 -0.27438146 -0.30376315 -0.043581095 0.027239988 0.41499537 -0.14125684 -0.26208043
0.14107758 -0.14414804 0.48053253 -0.11674238 0.021562453 -0.10909622 -0.19497034 0.05800785
-0.31625992 0.35301584 0.012443972 0.31161118 0.24678195 0.18285711 0.11806061 0.13221456
-0.2871453 -0.14706045 0.07456293 -0.07700225 0.45609897 -0.046819307 -0.037020203 -0.062129177
0.064044245 0.08098781 0.25636494 -0.02309195 0.22484249 0.06136603 -0.017179154 0.49396384
0.3004531 0.2130719 -0.48888347 -0.3227076 0.040547553 -0.021270387 0.046824694 -0.2999806
0.2397323 -0.17197374 0.12021715 0.4179051 0.15370734 0.118078284 0.44521493 -0.278283
0.044791996 -0.17515938 -0.3800234 0.13536216 0.60334206 -0.06416483 0.21698657 0.36417335
0.3045585 -0.12821871 -0.15999784 -0.11401289 0.01575187 -0.37247926 0.102220036 0.20314844
0.11090431 0.24190955 -0.18660915 -0.21098366 0.29445425 0.009192585 -0.2170839 0.16490386
0.2729883 0.4289496 -0.44202808 -0.17498578 -0.22919318 -0.15759744 -0.03516907 0.45629385
0.111379065 0.41702333 -0.060079485 -0.21672316 0.11930627 0.3868996 0.17210491 -0.09707967
00000000: a1a1 a3bd 0e62 b0be f473 c8be b57e 8bbd
00000010: 3379 2c3e ba05 bd3e aeba fd3e 6107 8a3e
00000020: bb16 babe 62dd 27bf d02a a3bd 04fb b1be
00000030: 4010 83be 984a af3e e4d3 b4bc e5bd ba3e
00000040: 900d 423e ef98 bcbe 9cb6 0dbe c9e9 d53e
00000050: 2b77 beba b656 a0be 082d 68bd 791e 8abd
00000060: 51aa cfbe f76b 50be 39ea 79be 803f 80be
00000070: 9a27 ae3e 86ae 313d 990d e73e b1e4 e93d
00000080: 094b 51bd a299 3ebe edff 933d b979 fe3d
00000090: e6a6 c03e 3916 053e 0550 ffbe a052 c83e
000000a0: 8188 b63d 619e 1a3e 3d6d 07bf a6f8 283e
000000b0: f012 f2be 11e8 053f e4ad fabd 898a 83be
000000c0: 6743 aebe 65dd 2cbe 8097 8cbd f40b 683d
000000d0: 2541 ea3d 32e5 44be 6568 ccbd 8015 e0bd
000000e0: 3bbe bd3e cac3 dfbe 61e0 803e 4759 e93e
000000f0: 8915 14bd 4ee4 c83e 3e1e 383d 19c2 663e
00000100: fc07 cb3d d80f 053e 587e 28be a114 ad3e
00000110: c2d3 c23d 6b05 b13d 6612 fb3e 082f b23e
00000120: 144b b1bd 7ca2 ad3e 09ba 38be 4c34 993e
00000130: 5d4c d43c 73fd efbd b2a1 e73e c905 99be
00000140: d526 7c3d 9744 e73d 758f 8f3e 5630 a1bd
00000150: 5b20 a93e d8ad b7bc c8b2 45be e261 ad3c
00000160: 1694 89be 0ab8 2c3d ce51 3e3e 95db a03d
00000170: dedc eb3e 0f9b cd3d 9283 88bc 1b41 b7be
00000180: 48be c73e 3661 883d 6270 113f c342 afbe
00000190: 41cb 9ebd 3d07 8abd 2cf3 bb3e 20c1 eebd
000001a0: 412b 8bbe 05f4 b83b c59b 903e a969 3dbe
000001b0: 7554 86be 79b9 82be c32c b63e a32a 9c3d
000001c0: 2fe3 353e b27f fbbc 6729 263e bdff e53e
000001d0: d66f fe3d 39ab d23e 1243 e93d aff0 94bd
000001e0: 7341 003f 9e46 f73d 4a16 efbd 5318 04bf
000001f0: f6de 503e c120 ef3e 724a 123d cf02 9cbe
00000200: e4c0 68bd ae93 c93d e046 95be dcc4 b83e
00000210: 9acb 343e bc3b ae3c e4f7 77be b290 a03d
00000220: c6bc b6bd 71c4 bc3e 73e8 d93d 328b aa3d
00000230: 2add 89be def0 b63d 66e4 3d3e c66e 933e
00000240: 53b9 4bbe 6bd8 673d 9f2d 8d3d cd2c b8be
00000250: 5fe5 7abe ae72 b93e 5cbb 483d 29d3 f43d
00000260: f6ac c0be d7a0 e93d 3cc9 c8bd 9bfc 883e
00000270: d98a 913d f2ec 043f ae72 b7bd b71a d93d
00000280: 14b3 7bbe ba7b 8cbe d886 9bbe 1782 32bd
00000290: 6526 df3c 467a d43e a2a5 10be 682f 86be
000002a0: a476 103e 8b9b 13be 5c08 f63e a116 efbd
000002b0: bea3 b03c d76d dfbd 4ea6 47be a499 6d3d
000002c0: d2ec a1be 7ebe b43e cde1 4b3c 808b 9f3e
000002d0: 68b4 7c3e e53e 3b3e c3c9 f13d 4163 073e
000002e0: b504 93be 0497 16be 73b4 983d 5bb3 9dbd
000002f0: ce85 e93e 9ac5 3fbd 7fa2 17bd 2a7b 7ebd
00000300: a129 833d f0dc a53d 4442 833e 542b bdbc
00000310: 1c3d 663e f25a 7b3d 4cbb 8cbc d4e8 fc3e
00000320: fdd4 993e 852f 5a3e ef4e fabe ee39 a5be
00000330: 3115 263d 3c3f aebc 40cb 3f3d 0f97 99be
00000340: 627c 753e e219 30be 6934 f63d a8f7 d53e
00000350: 7565 1d3e 07d3 f13d 36f3 e33e 1c7b 8ebe
00000360: d077 373d fb5c 33be 6d92 c2be 619c 0a3e
00000370: a074 1a3f da68 83bd ba31 5e3e ee74 ba3e
00000380: 17ef 9b3e c44b 03be 79d6 23be 977f e9bd
00000390: 110a 813c 9ab5 bebe bd58 d13d 2506 503e
000003a0: cd21 e33d 23b7 773e 7816 3fbe 1a0c 58be
000003b0: b5c2 963e 7f9c 163c 3e4b 5ebe 8fdc 283e
000003c0: 1fc5 8b3e 489f db3e 8151 e2be 792f 33be
000003d0: 9eb1 6abe 3961 21be 710d 10bd 599f e93e
000003e0: b51a e43d 1584 d53e e815 76bd adec 5dbe
000003f0: d856 f43d b417 c63e 453c 303e b5d1 c6bd

actor.init_leaf_node_embed.0.add_bias._bias f4 [32, 1]
0.011895832 0.025936492 0.0070057553 0.008235375 -0.11624029 0.015217981 -0.0202692 -0.02603661
0.07848085 0.03507601 0.03923416 -0.030045426 0.0018171336 -0.09650977 0.12912154 0.0018378581
-0.039700616 -0.048446905 0.011565648 -0.003433311 0.035746954 0.039707366 0.120083004 -0.021256318
0.011293779 0.0118170595 0.09107773 -0.021708319 -0.0635131 0.0027890499 -0.00033361922 -0.15219107
00000000: bce6 423c c478 d43c 8990 e53b abed 063c
00000010: 640f eebd d754 793c 980b a6bc bb4a d5bc
00000020: 91ba a03d ddab 0f3d 00b4 203d d321 f6bc
00000030: e32c ee3a eaa6 c5bd 7038 043e 49e4 f03a
00000040: 1d9d 22bd 4370 46bd d87d 3d3c 6601 61bb
00000050: 666b 123d 31a4 223d 14ee f53d bb21 aebc
00000060: 8b09 393c 579c 413c f686 ba3d a5d5 b1bc
00000070: 2813 82bd 7ec8 363b 9de9 aeb9 fad7 1bbe

actor.init_leaf_node_embed.2.module.weight f4 [64, 32]
0.15928288 0.39948386 0.11258675 0.1373937 -0.27814677 0.3145966 0.30309382 -0.23565878
0.031768993 0.15564959 -0.004943428 -0.0589613 -0.4109719 -0.13699721 0.1605863 0.11596759
0.21495475 -0.102692805 0.22548236 0.2992931 0.62741446 -0.497677 0.6110597 0.40899095
0.022484904 0.06843711 0.003656808 0.39903018 -0.12901007 0.1187235 0.21237391 -0.28445527
-0.21562591 -0.17662102 -0.073701434 -0.1795052 -0.27053928 0.30825177 -0.2359131 0.22954841
0.30342707 -0.33935586 0.108565465 -0.08994058 0.23715898 0.038813137 0.04899474 0.042143397
0.16466263 0.13323005 0.103039436 -0.47810087 -0.36416298 0.56882966 0.18032546 0.25544202
0.12651247 0.17447127 0.12299622 -0.0830515 0.086654894 -0.011139504 0.23166609 -0.18742576
-0.07163406 0.063028134 0.13568911 -0.35908937 0.071408555 -0.121735156 -0.11575054 -0.03363527
-0.33114427 0.40327388 0.07204077 0.06528206 -0.21361314 0.04136209 0.1595795 0.15495078
-0.39604333 -0.19492148 0.08586823 0.05531031 0.0025733104 0.105454296 0.12191954 0.13730605
0.36027768 -0.019655498 0.16909637 -0.00048760144 -0.15550867 0.032345336 -0.4973409 -0.14790314
-0.23096281 0.04706396 -0.39861667 0.46362942 -0.30890322 0.16636266 -0.16045201 0.15151802
-0.0116109345 0.14244342 0.17852393 0.07586078 0.6708054 -0.26300016 -0.054505248 -0.073287
-0.17304794 0.30939135 -0.0056349435 0.06376735 -0.435237 0.0026242647 -0.10576676 -0.1160736
0.05198879 -0.04002187 0.25475255 0.22812046 0.20289658 -0.08752132 -0.077656046 0.14157693
-0.24778847 -0.37722722 -0.24535762 -0.13310978 0.03816698 -0.3136504 -0.22701788 -0.21192877
-0.6277989 0.2865359 0.065054856 -0.00436262 0.43687817 -0.017095529 -0.22692278 0.15814885
0.056301747 -0.123260394 -0.33258292 -0.18891148 0.091148995 0.1518859 0.11954431 -0.038063478
-0.15944375 0.022667581 -0.030557873 -0.055508148 -0.085645646 -0.009562804 0.008490487 -0.16067442
-0.1154789 0.20966335 -0.17100689 -0.33906713 0.15054315 0.17394383 0.083125435 -0.1672809
-0.31947955 -0.09949646 0.008386901 0.06788179 -0.16157523 -0.22736679 0.43986434 -0.24986704
0.23600039 0.031245733 0.024302473 -0.04254965 0.026928313 -0.068872705 -0.15173139 -0.28385884
-0.20249237 0.03779033 0.03296745 0.291548 -0.037852097 -0.010492068 -0.10328727 -0.04928195
-0.25717482 -0.43758056 -0.38919148 -0.049720094 -0.2159455 -0.18555358 0.019170573 0.039240167
-0.0012406989 -0.1258834 0.026485333 -0.22113238 0.2880631 0.116466455 -0.18974385 -0.18228157
-0.17512184 0.50277966 0.08714289 -0.060613986 0.14805952 0.22526152 -0.13576855 0.17099772
0.115312636 0.254863 -0.22845411 -0.033011187 0.14107247 -0.008985293 -0.2964062 0.07113701
0.050142802 0.31453648 -0.31564012 -0.2810643 -0.48804423 -0.19944192 0.1782806 -0.25792518
-0.07582423 -0.022972604 0.010423318 -0.3200288 0.22332808 -0.3299065 -0.45978716 0.015028229
-0.21638314 0.11149344 -0.0440254 -0.1587078 -0.06569978 0.6848415 -0.041770626 -0.26661256
-0.0702006 0.01317097 -0.18854402 -0.32157695 0.18730997 -0.3535457 0.15910001 -0.037531033
00000000: 0d1b 233e 2689 cc3e e293 e63d efb0 0c3e
00000010: 4169 8ebe ce12 a13e 1d2f 9b3e 8950 71be
00000020: 3420 023d 9b62 1f3e 7bfc a1bb 6781 71bd
00000030: e96a d2be ff48 0cbe bc70 243e 6a80 ed3d
00000040: 191d 5c3e 9b50 d2bd d9e4 663e f23c 993e
00000050: 3c9e 203f 85cf febe 696e 1c3f 4367 d13e
00000060: 4332 b83c c128 8c3d 0fa7 6f3b af4d cc3e
00000070: 371b 04be 4e25 f33d 8c78 593e 1fa4 91be
00000080: 0acd 5cbe 24dc 34be c7f0 96bd 36d0 37be
00000090: 2084 8abe 2dd3 9d3e 3493 71be bd0e 6b3e
000000a0: cb5a 9b3e 0dc0 adbe 9257 de3d c432 b8bd
000000b0: ced9 723e 86fa 1e3d b5ae 483d 8e9e 2c3d
000000c0: 529d 283e 756d 083e 5706 d33d a3c9 f4be
000000d0: 9273 babe d29e 113f 3da7 383e 4cc9 823e
000000e0: 7c8c 013e 99a8 323e 71e5 fb3d e816 aabd
000000f0: 1f78 b13d 7782 36bc e039 6d3e 8aec 3fbe
00000100: e1b4 92bd e514 813d 16f2 0a3e 90da b7be
00000110: a63e 923d 4850 f9bd 9e0e edbd 23c5 09bd
00000120: be8b a9be ea79 ce3e 1c8a 933d 9ab2 853d
00000130: 67bd 5abe 4b6b 293d cf68 233e 6bab 1e3e
00000140: 31c6 cabe 7f99 47be afdb af3d 108d 623d
00000150: fca4 283b 6cf8 d73d f4b0 f93d f599 0c3e
00000160: 5176 b83e 9104 a1bc 9927 2d3e c2a4 ffb9
00000170: aa3d 1fbe 8b7c 043d 77a3 febe ec73 17be
00000180: 8481 6cbe 24c6 403d 7c17 ccbe d660 ed3e
00000190: 9028 9ebe f95a 2a3e 884d 24be 8a27 1b3e
000001a0: ca3b 3ebc b0dc 113e face 363e e65c 9b3d
000001b0: e7b9 2b3f f5a7 86be e540 5fbd 7f17 96bd
000001c0: 7b33 31be 8b68 9e3e 55a5 b8bb 7598 823d
000001d0: 62d7 debe dbfb 2b3b 3e9c d8bd ffb7 edbd
000001e0: 33f2 543d f9ed 23bd ed6e 823e 6998 693e
000001f0: 1fc4 4f3e 613e b3bd 220a 9fbd 8bf9 103e
00000200: 43bc 7dbe ed23 c1be 073f 7bbe ee4d 08be
00000210: fb54 1c3d c996 a0be 6077 68be db03 59be
00000220: 6eb7 20bf d5b4 923e 7b3b 853d 4ff4 8ebb
00000230: 7fae df3e ec0b 8cbc 725e 68be c6f1 213e
00000240: a99c 663d f26f fcbd 4f48 aabe 0372 41be
00000250: 53ac ba3d fa87 1b3e a6d3 f43d 73e8 1bbd
00000260: 3945 23be 5db1 b93c 8154 fabc 835c 63bd
00000270: fc66 afbd 4fad 1cbc af1b 0b3c d687 24be
00000280: 3480 ecbd fdb1 563e 6e1c 2fbe 359a adbe
00000290: fc27 1a3e 551e 323e ab3d aa3d af4b 2bbe
000002a0: d392 a3be cdc4 cbbd 3669 093c 9c05 8b3d
000002b0: fa73 25be d7d2 68be e635 e13e 25dd 7fbe
000002c0: 16aa 713e 0df7 ff3c fb15 c73c 8b48 2ebd
000002d0: c498 dc3c 220d 8dbd 795f 1bbe f255 91be
000002e0: 295a 4fbe 08ca 1a3d e008 073d c845 953e
000002f0: cd0a 1bbd ece6 2bbc 4788 d3bd dfdb 49bd
00000300: 6bac 83be 8f0a e0be 1b44 c7be 4ca7 4bbd
00000310: d120 5dbe c201 3ebe 9b0b 9d3c 4cba 203d
00000320: f29e a2ba 94e7 00be c5f7 d83c 8770 62be
00000330: 027d 933e f785 ee3d 364c 42be 05a8 3abe
00000340: 2453 33be 2bb6 003f f977 b23d 5f46 78bd
00000350: ea9c 173e f5aa 663e e906 0bbe 071a 2f3e
00000360: 0829 ec3d 677d 823e e0ef 69be bd36 07bd
00000370: 4d75 103e 0d37 13bc 8ec2 97be 48b0 913d
00000380: 8a62 4d3d ed0a a13e 959b a1be a9e7 8fbe
00000390: efe0 f9be 813a 4cbe 318f 363e c50e 84be
000003a0: bc49 9bbd 0b31 bcbc 90c6 2a3c d1da a3be
000003b0: 1eb0 643e 81e9 a8be 3969 ebbe f638 763c
000003c0: 8b93 5dbe ac56 e43d fa53 34bd 4c84 22be
000003d0: 9b8d 86bd c651 2f3f ad17 2bbd 7181 88be
000003e0: 55c5 8fbd 0dcb 573c af11 41be bca5 a4be
000003f0: 2fce 3f3e f103 b5be 1deb 223e 24ba 19bd

actor.init_leaf_node_embed.2.add_bias._bias f4 [64, 1]
0.26652995 0.14119552 0.041664165 0.013304465 -0.1828536 0.013277826 -0.20449166 -0.27784896
-0.18068175 -0.16098209 0.27401525 -0.14654858 0.09953631 -0.09537788 -0.1014537 -0.075949475
0.14095613 -0.13692646 -0.31481335 -0.04029896 0.03534571 0.08410006 0.011804205 0.050542228
0.23609224 -0.048051514 -0.0098736435 -0.07675213 -0.17036796 0.10754503 -0.14617577 -0.02797664
0.112692535 -0.05773263 -0.15584594 0.15104814 0.22603485 -0.038105737 -0.03936791 -0.12651148
0.062230267 -0.49189237 0.18678457 0.055071685 -0.1472814 -0.04439458 -0.13919799 -0.045556262
-0.23290947 0.045623846 -0.058236614 -0.06381411 0.10600796 -0.16401814 -0.19038123 0.11247025
0.010839807 -0.23530357 0.19147995 -0.2691378 0.12961543 -0.12397953 0.07439228 0.016714893
00000000: 9d76 883e 8f95 103e 0ba8 2a3d f9fa 593c
00000010: f93d 3bbe 3d8b 593c 4366 51be 3842 8ebe
00000020: a304 39be 7dd8 24be ba4b 8c3e d510 16be
00000030: b1d9 cb3d 7a55 c3bd f5c6 cfbd 668b 9bbd
00000040: ce56 103e 7336 0cbe 372f a1be 8610 25bd
00000050: aac6 103d a73c ac3d 6d66 413c 5e05 4f3d
00000060: 2ac2 713e aad1 44bd 10c5 21bc 3930 9dbd
00000070: f074 2ebe 9240 dc3d 1aaf 15be 442f e5bc
00000080: 58cb e63d 0d79 6cbd 1496 1fbe 5dac 1a3e
00000090: ae75 673e c314 1cbd 3f40 21bd 3a8c 01be
000000a0: 2ae5 7e3d 51d9 fbbe 7444 3f3e d992 613d
000000b0: efd0 16be 17d7 35bd eb89 0ebe 3499 3abd
000000c0: d27f 6ebe 12e0 3a3d 8489 6ebd f9b0 82bd
000000d0: b41a d93d 5ff4 27be 4cf3 42be cd56 e63d
000000e0: 7299 313c 6bf3 70be 5213 443e 6ecc 89be
000000f0: e8b9 043e fbe8 fdbd fb5a 983d aced 883c

actor.init_next_embed.0.module.weight f4 [32, 6]
0.18684496 -0.14783362 -0.29890305 -0.47788352 -0.2815477 -0.0011000856 -0.03512896 -0.097654946
0.18683255 -0.18417239 -0.12319828 -0.15321334 0.17486952 -0.26774636 -0.25778565 -0.025503496
-0.21313344 0.38747942 -0.0039338246 0.036373135 -0.033101637 0.4352866 -0.43991274 -0.33214724
0.10770709 -0.4220224 -0.12407604 -0.25895542 -0.103879474 -0.17409699 -0.025735665 -0.5772369
0.28352162 -0.73267704 -0.1546928 0.1195629 0.90795356 0.10291967 0.070973516 -0.20971371
-0.032370422 -0.34512064 -0.09052095 0.09831574 0.14582333 0.07532107 -0.31524265 0.16631176
-0.3887048 -0.5904613 0.2444619 0.065700315 1.3511522 -0.7194379 0.10900026 -0.29224053
-0.1822739 0.06897576 -0.3254239 -0.4229217 -0.3264811 0.1820992 0.016121991 0.3862159
0.26054916 -0.44962245 0.421725 -0.029234236 -0.021627972 0.10161431 0.046777714 0.088724345
-0.35586792 -0.032835547 0.14581446 0.019510357 -0.22561821 -0.32631811 0.089719206 0.009134302
0.12415758 0.06837838 -0.21748911 -0.16595605 1.2111251 -0.22806235 -0.25601846 -0.47351006
-0.19923365 0.080105126 -0.100793324 -0.06358731 -0.29770973 -0.2338026 -0.05167191 0.12480493
-0.2767044 -0.034050748 -0.11244481 -0.13100539 -0.41503456 0.10274128 0.56978077 -0.05052203
0.19700745 -0.2586066 -0.0634646 -0.0115589965 -0.056891885 0.2881259 0.22860755 0.009038447
-0.05428516 0.2829524 0.88929176 0.2441345 -0.35871825 -0.28695977 0.14146018 0.14868312
0.2652414 0.026163727 -0.03635058 -0.13241142 -0.25663733 0.16297463 -0.026364418 -0.2110019
-0.7182638 -0.096833356 -0.12584561 -0.0343001 0.11499498 -0.1477266 -0.09739232 0.13052806
-0.35130116 0.05299844 0.8156762 -0.26592296 0.33082733 -0.511781 0.2576344 0.54064614
1.5561104 -0.09954142 -0.18245748 -0.342271 -0.20638949 0.10204676 0.17315948 0.28594753
-0.06433231 -0.18077004 -0.17426111 -0.37425867 0.003535406 -0.32030162 0.18111199 -0.06417401
-0.2336894 -0.030109042 -0.51089245 -0.38239774 -0.18877986 -0.18484384 0.13603172 -0.14664663
0.43166414 0.20565565 -0.01903345 -1.2698296 0.045770377 0.15875491 0.5081222 0.23072688
-0.34367222 -0.87428993 -0.04686654 0.26482275 -0.1470847 -0.25917542 0.29571474 0.062264998
-0.10162558 0.06532701 0.045838144 -0.22645392 -0.47012034 -0.20099185 0.004311349 0.032776605
00000000: 4954 3f3e b261 17be d209 99be 26ad f4be
00000010: 0527 90be bf30 90ba 62e3 0fbd 51ff c7bd
00000020: 0851 3f3e b097 3cbe 614f fcbd f5e3 1cbe
00000030: ff10 333e 0d16 89be 7bfc 83be b5ec d0bc
00000040: a73f 5abe b463 c63e 50e7 80bb fffb 143d
00000050: 9595 07bd e3dd de3e 3e3c e1be 340f aabe
00000060: 8995 dc3d 5213 d8be 941b febd ce95 84be
00000070: c3be d4bd 7b46 32be 9ad3 d2bc ccc5 13bf
00000080: bf29 913e b990 3bbf ca67 1ebe 65dd f43d
00000090: a56f 683f 8cc7 d23d 905a 913d 31bf 56be
000000a0: d996 04bd a7b3 b0be 0c63 b9bd c359 c93d
000000b0: b652 153e ef41 9a3d 7c67 a1be a14d 2a3e
000000c0: 5104 c7be 7928 17bf 3854 7a3e e38d 863d
000000d0: 8ef2 ac3f 152d 38bf 873b df3d 8da0 95be
000000e0: 02a6 3abe 2a43 8d3d f69d a6be 3189 d8be
000000f0: 8828 a7be 3678 3a3e 4412 843c 17be c53e
00000100: b366 853e ea34 e6be 57ec d73e a37c efbc
00000110: 252d b1bc 2a1b d03d fd99 3f3d 1cb5 b53d
00000120: 5234 b6be 917e 06bd 6350 153e 2fd4 9f3c
00000130: 7608 67be 2b13 a7be b4be b73d 0aa8 153c
00000140: 5446 fe3d f709 8c3d 77b5 5ebe 62f0 29be
00000150: 2606 9b3f 2d89 69be da14 83be e96f f2be
00000160: e803 4cbe 280e a43d bb6c cebd 103a 82bd
00000170: 696d 98be f369 6fbe eda5 53bd ba99 ff3d
00000180: 33ac 8dbe cc78 0bbd 7749 e6bd 4726 06be
00000190: 697f d4be 056a d23d 27dd 113f 30f0 4ebd
000001a0: 52bc 493e 1668 84be baf9 81bd f261 3dbc
000001b0: 7707 69bd 3d85 933e 1918 6a3e ff15 143c
000001c0: 1e5a 5ebd 23df 903e a0a8 633f 65fe 793e
000001d0: eba9 b7be 64ec 92be f0da 103e 6340 183e
000001e0: b9cd 873e 5055 d63c 59e4 14bd dc96 07be
000001f0: f865 83be d2e2 263e 31fa d7bc e210 58be
00000200: 23e0 37bf 9150 c6bd acdd 00be 437e 0cbd
00000210: 7d82 eb3d a445 17be a075 c7bd 26a9 053e
00000220: bfdd b3be e414 593d 28d0 503f 0e27 88be
00000230: 3362 a93e 1404 03bf a8e8 833e c967 0a3f
00000240: a02e c73f 5fdc cbbd 22d6 3abe 253e afbe
00000250: c457 53be e4fd d03d b850 313e b767 923e
00000260: a8c0 83bd c81b 39be 8171 32be d59e bfbe
00000270: 45b2 673b 93fe a3be 6c75 393e aa6d 83bd
00000280: 464c 6fbe 3da7 f6bc d9c9 02bf a3c9 c3be
00000290: 824f 41be b447 3dbe e64b 0b3e 892a 16be
000002a0: 1503 dd3e 6597 523e 0aec 9bbc c789 a2bf
000002b0: b879 3b3d a690 223e 4c14 023f ab43 6c3e
000002c0: cef5 afbe 77d1 5fbf 21f7 3fbd d996 873e
000002d0: 5f9d 16be a4b2 84be ec67 973e 9509 7f3d
000002e0: 1221 d0bd 2bca 853d c7c0 3b3d 89e3 67be
000002f0: 9db3 f0be cfd0 4dbe 3746 8d3b c340 063d

actor.init_next_embed.0.add_bias._bias f4 [32, 1]
0.16040257 0.07302999 -0.069751084 -0.0037495703 -8.4851934e-05 -0.31029382 0.11749754 -0.10033887
-0.23556006 0.006576587 -0.17355384 0.33296618 0.010685249 0.15013814 0.36351457 0.25492868
-0.029015332 -0.22435313 -0.22122861 0.3431335 -0.104427494 0.020808367 -0.25237823 -0.040331893
0.24197501 -0.04013831 -0.123405375 0.037654623 0.041551676 0.18497379 0.20729603 0.2004975
00000000: 9240 243e bf90 953d a8d9 8ebd 5abb 75bb
00000010: 89f2 b1b8 d5de 9ebe 8da2 f03d 777e cdbd
00000020: a836 71be 6980 d73b 19b8 31be 8b7a aa3e
00000030: 2f11 2f3c d0bd 193e 951e ba3e 0386 823e
00000040: 90b1 edbc d4bc 65be c189 62be 32af af3e
00000050: 15de d5bd 4f76 aa3c b837 81be 0e33 25bd
00000060: 4cc8 773e 1268 24bd f5bb fcbd bc3b 1a3d
00000070: 1732 2a3d c569 3d3e 6945 543e 374f 4d3e

actor.init_next_embed.2.module.weight f4 [64, 32]
0.033660658 -0.11077826 -0.038860235 0.17701368 0.1471036 0.07917807 -0.20932694 -0.22928986
-0.15460686 0.30864576 0.082760766 -0.43809494 0.092106536 0.2881117 -0.014490342 -0.3135832
-0.15120526 0.06484452 -0.01700136 -0.20336235 0.06275145 -0.058364637 -0.47537297 -0.33649504
-0.56207097 0.34920004 -0.17252462 -0.093713626 0.09146861 0.055602096 0.13763043 -0.20084177
0.24030074 -0.0642499 -0.14414205 -0.06852479 -0.08928095 -0.16424774 -0.11973744 -0.00051726296
0.35916567 0.041142955 0.4777481 0.3247901 -0.023179673 -0.03753008 -0.07214385 -0.05770758
0.18079999 0.020882696 -0.07576463 0.5133532 0.16997865 0.023126371 0.057031073 -0.21796598
-0.111123964 0.21909857 -0.006710441 -0.31401432 -0.08245978 0.063159995 -0.036972795 -0.009131169
-0.10999349 0.021240937 0.16427235 -0.13596153 -6.0986822e-05 0.20141482 -0.4687026 -0.35038862
-0.31436205 -0.14313702 0.038637742 0.33353364 0.08885066 -0.25860584 -0.672793 0.12531881
-0.22962832 0.06483847 0.18449101 0.10182326 -0.079996936 -0.07864259 -0.053625967 0.38268164
-0.3838862 0.09888552 -0.20859177 -0.1672665 -0.45744902 -0.6323649 -0.23561715 -0.11994719
-0.103687935 0.16965058 0.32753724 -0.09406293 -0.3107638 0.025276536 -0.33285323 0.12738746
-0.13754794 0.23802389 -0.33769935 0.18327872 0.10855864 0.17748965 -0.3163477 -0.2517305
-0.16370371 0.20271209 0.031630926 -0.36800763 -0.016659131 0.073303364 0.16453822 0.65522164
-0.37640166 -0.43145233 -0.09380507 -0.32653445 -0.40831196 -0.15872443 0.05465693 -0.25515243
-0.18641104 -0.37342867 -0.14423417 0.24589883 0.11711619 -0.16916142 -0.06333054 -0.08362761
0.10496259 -0.12142321 -0.24883024 0.017346948 -0.030264873 0.024603644 0.17110766 -0.013828242
0.16573198 0.15233572 -0.14877227 -0.27887914 -0.17138939 0.09453281 0.15352462 0.09238419
0.2600336 -0.09358577 0.44449773 0.20568775 -0.249609 -0.058370393 -0.07840595 0.027298331
-0.02444701 -0.017593538 0.024524974 -0.10939803 0.34124726 0.20735197 0.04296935 0.14122951
0.10334848 0.2153664 0.03864676 0.6131579 0.04231563 0.29810238 0.024242768 0.50973636
-0.030297367 0.3228769 0.11054902 0.77506536 0.044147182 -0.032634296 0.2612546 0.0097374255
0.5241045 -0.08176289 0.07129253 0.34660038 -0.15539563 -0.28467223 0.27873746 -0.12450453
0.025122661 0.17120548 0.055351984 0.17913942 -0.07302074 0.027343817 -0.26705244 -0.32518414
0.18938144 0.22375606 0.07068641 0.24955931 0.02494412 0.018047258 -0.13071668 -0.09720604
-0.021633925 0.16692014 -0.21237606 -0.024889864 0.20295796 -0.2715715 0.1689204 0.15597305
-0.19378577 0.072139055 0.039633814 -0.22641523 -0.19522871 -0.1936101 0.19651496 -0.2443686
-0.18327105 0.045685492 -0.13114005 0.023750799 0.22345142 -0.29299527 -0.1431942 -0.19506988
0.06634128 -0.030222435 0.3573656 0.26631463 0.096815184 0.21210332 0.41257277 0.45936674
0.0682833 0.34825188 0.20363207 0.24279168 -0.3337647 0.013715649 -0.16326955 0.6159845
0.4829229 0.022972485 0.0932863 -0.095321044 0.0967075 0.2588183 0.070147514 0.3142287
00000000: c2df 093d b6df e2bd e92b 1fbd 1343 353e
00000010: 53a2 163e 1d28 a23d cd59 56be f6ca 6abe
00000020: 4351 1ebe d106 9e3e 7a7e a93d fb4d e0be
00000030: 5aa2 bc3d 6083 933e e668 6dbc fa8d a0be
00000040: 8dd5 1abe 34cd 843d 7046 8bbc 383e 50be
00000050: d583 803d c20f 6fbd 1664 f3be 1449 acbe
00000060: e2e3 0fbf 59ca b23e 4baa 30be eeec bfbd
00000070: e553 bb3d 06bf 633d feee 0c3e 77a9 4dbe
00000080: 6611 763e 7495 83bd f999 13be ba56 8cbd
00000090: eed8 b6bd 8f30 28be e738 f5bd ee98 07ba
000000a0: 90e4 b73e 8485 283d 669b f43e e34a a63e
000000b0: 4ce3 bdbc 24b9 19bd 28c0 93bd c95e 6cbd
000000c0: a223 393e 3012 ab3c 7d2a 9bbd 1e6b 033f
000000d0: e20e 2e3e 8473 bd3c 6a99 693d 7932 5fbe
000000e0: f694 e3bd 605b 603e 42e3 dbbb 7cc6 a0be
000000f0: ace0 a8bd 075a 813d c970 17bd e69a 15bc
00000100: 4444 e1bd 7901 ae3c 0337 283e 8039 0bbe
00000110: 1acc 7fb8 b03f 4e3e caf9 efbe 2366 b3be
00000120: 10f4 a0be 8392 12be 9c42 1e3d ecc4 aa3e
00000130: 56f7 b53d fc67 84be 293c 2cbf 9353 003e
00000140: b023 6bbe 08ca 843d 36eb 3c3e b788 d03d
00000150: 6fd5 a3bd 5e0f a1bd e7a6 5bbd d9ee c33e
00000160: bb8c c4be 7e84 ca3d 1599 55be e947 2bbe
00000170: c236 eabe abe2 21bf 9f45 71be dfa6 f5bd
00000180: 575a d4bd e2b8 2d3e f6b2 a73e 11a4 c0bd
00000190: 6f1c 9fbe bd10 cf3c bd6b aabe dc71 023e
000001a0: 5ed9 0cbe 89bc 733e eee6 acbe 6bad 3b3e
000001b0: fe53 de3d d9bf 353e 53f8 a1be d2e2 80be
000001c0: f2a1 27be c293 4f3e 6e8f 013d 7f6b bcbe
000001d0: bb78 88bc 1320 963d b57c 283e 9bbc 273f
000001e0: b8b7 c0be 52e7 dcbe df1c c0bd 862f a7be
000001f0: 440e d1be a888 22be f2df 5f3d 57a3 82be
00000200: 89e2 3ebe 0b32 bfbe 1fb2 13be e7cc 7b3e
00000210: 9dda ef3d a738 2dbe 71b3 81bd f444 abbd
00000220: a0f6 d63d bbac f8bd 5bcd 7ebe 301b 8e3c
00000230: 0aee f7bc 958d c93c d936 2f3e da8f 62bc
00000240: a5b5 293e e5fd 1b3e c257 18be 3fc9 8ebe
00000250: b380 2fbe 6b9a c13d 8f35 1d3e ec33 bd3d
00000260: 2023 853e e5a9 bfbd 3595 e33e cf9f 523e
00000270: 8099 7fbe cb15 6fbd 4c93 a0bd c0a0 df3c
00000280: 1945 c8bc 5320 90bc 99e8 c83c 130c e0bd
00000290: f6b7 ae3e 1354 543e a100 303d 789e 103e
000002a0: 5ea8 d33d 0289 5c3e 114c 1e3d ebf7 1c3f
000002b0: 2753 2d3d e0a0 983e c598 c63c 157e 023f
000002c0: 2f32 f8bc 1f50 a53e 8667 e23d af6a 463f
000002d0: add3 343d 8aab 05bd 2ac3 853e b989 1f3c
000002e0: b62b 063f 4d73 a7bd d101 923d 9b75 b13e
000002f0: 0820 1fbe 8fc0 91be adb6 8e3e 3bfc febd
00000300: 0ace cd3c 7d50 2f3e c3b8 623d 5370 373e
00000310: e68b 95bd 2400 e03c 19bb 88be 897e a6be
00000320: 35ed 413e 4f20 653e 09c4 903d 7a8c 7f3e
00000330: 9c57 cc3c d8d7 933c 98da 05be f613 c7bd
00000340: a139 b1bc 1ded 2a3e 1c79 59be d4e5 cbbc
00000350: 36d4 4f3e 6b0b 8bbe 78f9 2c3e 66b7 1f3e
00000360: c76f 46be a4bd 933d 1157 223d 65d9 67be
00000370: 09ea 47be ba41 46be 383b 493e c33b 7abe
00000380: 68ab 3bbe b620 3b3d 9449 06be 0991 c23c
00000390: 73d0 643e 7a03 96be 80a1 12be 66c0 47be
000003a0: f0dd 873d 0a95 f7bc a0f8 b63e 645a 883e
000003b0: 0a47 c63d 9d31 593e bd3c d33e 1e32 eb3e
000003c0: 1dd8 8b3d 124e b23e ed84 503e 629e 783e
000003d0: 35e3 aabe 9ab7 603c 2230 27be 29b1 1d3f
000003e0: ac41 f73e cb30 bc3c e30c bf3d ae37 c3bd
000003f0: 950e c63d d583 843e 80a9 8f3d 96e2 a03e

actor.init_next_embed.2.add_bias._bias f4 [64, 1]
-0.53193635 -0.31974515 -0.35180813 -0.4303733 0.018980267 1.0051314 -0.2742389 0.4960916
1.1092206 -0.75149053 -0.7322079 0.39520785 1.108004 -1.1824918 -0.9912315 -0.79618984
-0.8166335 0.7126856 0.54557204 -0.022728423 -0.2305465 -0.3543715 -1.1073107 0.41080955
-2.2756958 -0.75655365 -0.41704077 -0.7321863 0.43812326 0.19275968 -0.7468608 -0.6453322
-0.17976306 0.7331516 -0.08198242 -0.3233456 1.4988868 0.5734562 -0.23354523 0.544503
-1.661977 1.0228078 -0.40195858 -1.656545 0.4398024 1.2332796 0.7715931 0.6087908
-0.29990402 0.18129039 0.60728747 0.6133364 0.17461208 -0.1205324 -0.0452907 -0.5607879
-0.011614322 0.5661483 -0.64353776 0.40050814 0.4411083 0.692799 -0.13412265 0.27153957
00000000: fb2c 08bf a3b5 a3be 3220 b4be e459 dcbe
00000010: 817c 9b3c 25a8 803f 0b69 8cbe b8ff fd3e
00000020: f1fa 8d3f af61 40bf fa71 3bbf af58 ca3e
00000030: 13d3 8d3f e45b 97bf 59c1 7dbf 19d3 4bbf
00000040: e50e 51bf 9072 363f 9caa 0b3f f530 babc
00000050: 6214 6cbe 2e70 b5be 5bbc 8dbf a155 d23e
00000060: 00a5 11c0 80ad 41bf 5e86 d5be 9070 3bbf
00000070: b151 e03e cb62 453e 4532 3fbf 7e34 25bf
00000080: cf13 38be d3af 3b3f 66e6 a7bd 8e8d a5be
00000090: 86db bf3f 07ce 123f 7b26 6fbe 8c64 0b3f
000000a0: aabb d4bf 5eeb 823f 84cd cdbe ab09 d4bf
000000b0: c82d e13e 1bdc 9d3f 2087 453f b7d9 1b3f
000000c0: 058d 99be 30a4 393e 3177 1b3f 9d03 1d3f
000000d0: 82cd 323e b1d9 f6bd be82 39bd cc8f 0fbf
000000e0: ff49 3ebc 18ef 103f e4be 24bf 670f cd3e
000000f0: f2d8 e13e 465b 313f 7357 09be 3c07 8b3e

actor.embedder.layers.0.0.module.W_query.weight f4 [64, 64]
0.04466179 -0.06787691 0.14627618 -0.14935303 0.010109034 -0.104280256 -0.10635627 -0.06347766
0.14858413 -0.11547475 0.12578125 0.0027906934 0.032089084 0.022996768 0.009321589 -0.022231877
0.061105672 0.042476628 -0.025900636 0.08326295 0.03133405 -0.0850226 0.12812516 0.21647266
-0.17109211 0.16480385 0.059929986 -0.030978665 0.008286504 0.18436266 -0.025218494 0.046118766
0.11308369 -0.02816632 -0.18898696 0.1122098 -0.0055851955 0.12908296 0.09961967 -0.077527694
0.10729465 0.019192271 -0.028925339 0.16329743 -0.09340154 -0.109948635 0.17486581 -0.063183144
-0.10382032 -0.025950175 -0.02928958 -0.08874343 -0.087883435 0.031098206 0.018473985 -0.04019386
0.067918085 -0.12645881 0.19352007 -0.06897265 -0.05203543 -0.09768226 -0.0639387 -0.07048928
-0.2904222 -0.17899084 -0.13372281 -0.110017404 -0.031484164 -0.14012088 0.13563369 0.19943918
0.23221627 0.08671449 -0.16126946 -0.047471523 0.17018877 0.018055532 -0.007041554 -0.01376274
-0.09120197 0.12244732 0.035328165 0.26262435 0.04772166 -0.11263394 -0.063641705 -0.1961478
-0.17822754 -0.10925396 0.19593297 0.032718774 0.11908361 -0.12544157 0.13264605 -0.005614212
-0.12930182 -0.10066075 0.03324103 -0.060152546 -0.07151672 -0.15972418 -0.16502729 -0.09330585
-0.15646894 0.2652698 -0.19796088 0.0101285465 0.19323194 -0.08236959 -0.008806417 0.15791976
0.17967218 -0.083256036 -0.05229945 -0.17850222 -0.14806123 0.12408875 -0.010938804 -0.21010071
-0.16537178 0.32834706 -0.17857362 0.31533235 -0.09508145 0.15481949 -0.16566649 0.13455355
-0.23915236 -0.008223762 0.023165416 0.054131094 0.13081475 -0.026720334 -0.06521479 0.052322075
0.0035875358 0.04657431 -0.05521268 -0.04887168 0.100932635 0.04962116 0.04396362 0.13047116
0.008909949 0.12153125 0.11589515 0.07280059 0.09510405 0.025420826 -0.11334645 -0.10561014
-0.09866058 -0.07717869 0.054457206 -0.052195705 0.0075660204 -0.009042003 -0.027091874 -0.006304793
-0.03822936 -0.051344395 -0.01349525 0.017744558 0.08762039 0.040246494 0.021445243 0.039050642
0.032706983 0.083736785 -0.006819739 0.004425408 0.075211175 -0.08679781 0.18582468 0.17109582
-0.06063064 -0.03496795 0.04403298 0.01206705 -0.0547653 0.03936239 -0.004281006 0.016448205
-0.022539452 0.08264306 -0.057980753 -0.019233475 -0.1285204 -0.006808009 -0.086832345 -0.061643884
-0.068440996 0.06642955 -0.0111995945 0.11472063 0.104195796 0.16450043 0.025738787 -0.1206642
-0.008296002 -0.01813463 -0.04970366 -0.038513366 -0.17130911 0.0053759455 0.040647797 0.0316584
-0.025060931 0.028929438 0.015667003 0.06234533 -0.13967595 0.05439282 0.0053559477 -0.033584077
-0.036431767 0.059007585 -0.0646083 0.09915831 0.06808278 -0.018592011 0.07247401 -0.053311605
-0.021227028 -0.039288405 -0.024135085 0.17028525 -0.03617418 0.043783855 0.04268688 0.013032014
-0.09631495 0.03679575 0.18625136 -0.02447679 0.06484615 -0.10337069 0.07243206 -0.06836978
-0.073093764 0.061650123 0.10502193 -0.04828571 0.17447823 0.060402755 0.07910532 0.055027347
0.2062464 -0.11007045 -0.0279275 -0.06877643 -0.11530948 -0.11817127 0.015500342 -0.11547839
00000000: 48ef 363d 0d03 8bbd 6cc9 153e 00f0 18be
00000010: 5da0 253c e390 d5bd 51d1 d9bd 9300 82bd
00000020: 7026 183e 077e ecbd cdcc 003e 11e4 363b
00000030: d86f 033d b863 bc3c 94b9 183c a01f b6bc
00000040: f149 7a3d f9fb 2d3d 922d d4bc c485 aa3d
00000050: 2258 003d 5420 aebd 3e33 033e 02ab 5d3e
00000060: c532 2fbe 57c2 283e 2579 753d f8c6 fdbc
00000070: 1ec4 073c 91c9 3c3e 0497 cebc 08e7 3c3d
00000080: 6c98 e73d 0ebd e6bc cc85 41be 40ce e53d
00000090: 0404 b7bb 532e 043e 6605 cc3d d7c6 9ebd
000000a0: 4cbd db3d 1c39 9d3c d5f4 ecbc 7137 273e
000000b0: 4e49 bfbd c02c e1bd 0610 333e 2a66 81bd
000000c0: bf9f d4bd 7695 d4bc b4f0 efbc 1ebf b5bd
000000d0: 3bfc b3bd aac1 fe3c c156 973c 51a2 24bd
000000e0: a318 8b3d 6b7e 01be 202a 463e 8841 8dbd
000000f0: 1a23 55bd a30d c8bd 4bf2 82bd af5c 90bd
00000100: 38b2 94be 6049 37be a2ee 08be ce50 e1bd
00000110: 8af5 00bd d97b 0fbe 8fe3 0a3e c939 4c3e
00000120: 1aca 6d3e 5e97 b13d d223 25be 8071 42bd
00000130: f745 2e3e 32e9 933c d6bc e6bb 1e7d 61bc
00000140: 19c8 babd a9c5 fa3d 44b4 103d b376 863e
00000150: ca77 433d a0ac e6bd 9556 82bd f8da 48be
00000160: 4881 36be 8ac0 dfbd a7a2 483e 1f04 063d
00000170: 1ce2 f33d c173 00be 5ed4 073e 6cf7 b7bb
00000180: b267 04be 3927 cebd bf27 083d 8462 76bd
00000190: 5c77 92bd bc8e 23be eafc 28be 2317 bfbd
000001a0: 6539 20be 71d1 873e 42b6 4abe 34f2 253c
000001b0: 98de 453e 63b1 a8bd ca48 10bc b8b5 213e
000001c0: fcfb 373e 2482 aabd f337 56bd 49c9 36be
000001d0: 5d9d 17be 3e22 fe3d ab38 33bc a424 57be
000001e0: 3857 29be 1b1d a83e 01dc 36be 3e73 a13e
000001f0: 10ba c2bd 0089 1e3e 7aa4 29be 68c8 093e
00000200: 5be4 74be f5bc 06bc 66c5 bd3c 91b8 5d3d
00000210: 4df4 053e 9ae4 dabc 558f 85bd ac4f 563d
00000220: dd1c 6b3b b4c4 3e3d b126 62bd ac2d 48bd
00000230: c5b5 ce3d 8f3f 4b3d 3213 343d 3b9a 053e
00000240: 09fb 113c 60e5 f83d 705a ed3d 7a18 953d
00000250: eac5 c23d 563f d03c 2f22 e8bd 214a d8bd
00000260: 8f0e cabd dc0f 9ebd 850e 5f3d 2acb 55bd
00000270: 61ec f73b e924 14bc c7ef ddbc 7098 cebb
00000280: 6496 1cbd 804e 52bd 2e1b 5dbc 095d 913c
00000290: 5272 b33d 82d9 243d efad af3c 91f3 1f3d
000002a0: c2f7 053d 317e ab3d 1e78 dfbb 0303 913b
000002b0: 5108 9a3d 0dc3 b1bd d348 3e3e be33 2f3e
000002c0: d557 78bd 8e3a 0fbd ed5b 343d e0b4 453c
000002d0: 9451 60bd 753a 213d ae47 8cbb 63be 863c
000002e0: a8a4 b8bc c440 a93d 3a7d 6dbd 858f 9dbc
000002f0: da9a 03be b815 dfbb 28d5 b1bd 4c7e 7cbd
00000300: cb2a 8cbd 370c 883d 817e 37bc a6f2 ea3d
00000310: 9b64 d53d cd72 283e 26da d23c cb1e f7bd
00000320: f4eb 07bc 138f 94bc 1196 4bbd 31c0 1dbd
00000330: a86b 2fbe b328 b03b 4e7e 263d 3dac 013d
00000340: 954c cdbc 6efd ec3c 1658 803c d15d 7f3d
00000350: 3607 0fbe 01cb 5e3d f280 af3b 758f 09bd
00000360: 7a39 15bd f0b1 713d 5b51 84bd 8313 cb3d
00000370: fc6e 8b3d 464e 98bc 416d 943d 455d 5abd
00000380: 4ee4 adbc e1ec 20bd f1b6 c5bc 425f 2e3e
00000390: 612b 14bd b356 333d 70d8 2e3d 3a84 553c
000003a0: c640 c5bd 24b7 163d adb8 3e3e 8d83 c8bc
000003b0: 0fce 843d 03b4 d3bd 4357 943d 7505 8cbd
000003c0: 2fb2 95bd d784 7c3d bd15 d73d 3dc7 45bd
000003d0: 6caa 323e e168 773d f801 a23d 5b64 613d
000003e0: 4232 533e 9e6c e1bd 36c8 e4bc a8da 8cbd
000003f0: 6027 ecbd c703 f2bd 25f5 7d3c ef7f ecbd
