logs/experiment/Discrete_A2C_1-5Box_10x10x10Bin-2022.08.09-15-00-00/PCT-Discrete_A2C_1-5Box_10x10x10Bin-2022.08.09-15-00-00_2022.08.09-19-09-02.pt (torch, 236314 bytes, 24 tensors)

actor.init_internal_node_embed.0.module.weight f4 [32, 6]
0	0xbf02ba83	-0.51065844
1	0x3cad8763	0.021182721
2	0xbf2014ba	-0.62531626
3	0x3d472614	0.0486203
4	0xbe47862c	-0.19484776
5	0xbbf5e7ae	-0.007504425
6	0xbda26b3d	-0.0793061
7	0x3e11e690	0.14248109
8	0xbeb30178	-0.34962058
9	0xbe8b7a38	-0.27241683
10	0xbebf81b5	-0.37403646
11	0xbed8c70f	-0.4233937
12	0xbddc6b7d	-0.10762689
13	0x3d8aa5db	0.06769916
14	0x3e43116f	0.19049619
15	0x3e7b932b	0.24567859
16	0x3dcb6ece	0.09933244
17	0xbf2c9741	-0.67418295
18	0x3eade96b	0.33967146
19	0xbe7cba61	-0.24680473
20	0x3e9c1ab4	0.30489123
21	0xbf09e093	-0.538583
22	0xbd92785b	-0.07151862
23	0x3f20d47a	0.62824214
24	0xbda2ccc2	-0.07949211
25	0xbec06853	-0.37579593
26	0x3e325326	0.17414531
27	0x3d948ba6	0.07253198
28	0x3e907937	0.2821748
29	0x3f5051cd	0.8137482
30	0xbc9483e8	-0.018129304
31	0x3d41d37c	0.047320828
32	0x3e6db191	0.23212267
33	0x3bee527f	0.007273018
34	0xbd7020da	-0.05862508
35	0xbe712623	-0.23549704
36	0x3f97141c	1.1803012
37	0xbeabd6c9	-0.33562306
38	0xbf55f75b	-0.8358056
39	0xbfaaa7b6	-1.3332431
40	0x3f165634	0.58725286
41	0x3f3969be	0.72426975
42	0xbeb33d99	-0.35007933
43	0xbeb40672	-0.35161167
44	0x3d5d5424	0.05403532
45	0xbe6575d1	-0.22408225
46	0x3e940e60	0.28917217
47	0x3f17e732	0.5933715
48	0xbe057c8b	-0.1303579
49	0x3edaf70d	0.4276661
50	0x3f1d8b9f	0.6154117
51	0xbe37d725	-0.17953165
52	0xbe83c3e9	-0.25735405
53	0x3ea1d979	0.3161123
54	0x3ece394f	0.40278098
55	0xbd924298	-0.07141608
56	0x3f0776f2	0.5291587
57	0xbd9409c8	-0.07228428
58	0xbd712986	-0.05887749
59	0xbd0a6283	-0.033785354
60	0xbedc74e2	-0.43057925
61	0xbe9c4a3f	-0.30525395
62	0xbeb677d6	-0.35638303
63	0x3ef48967	0.4776108
64	0x3e8d0459	0.2754238
65	0xbe869163	-0.26282796
66	0xbddffef5	-0.10937301
67	0x3f2555f8	0.645843
68	0xbee203a3	-0.441434
69	0x3e10ee0c	0.14153308
70	0xbf2466d0	-0.6421938
71	0x3ee58df0	0.44834852
72	0x3eb9f364	0.36318505
73	0xbf12dfbf	-0.5737266
74	0xbe7733eb	-0.24140899
75	0x3e4d4690	0.20046449
76	0xbe8a839e	-0.2705354
77	0x3e31e9e8	0.17374384
78	0x3e2b984d	0.16757317
79	0x3e80c614	0.25151122
80	0xbd911b2e	-0.07085262
81	0xbe8d7c21	-0.27633765
82	0xbd39805d	-0.045288432
83	0xbe118ced	-0.14213915
84	0x3e859fe9	0.26098564
85	0xbb90f6d3	-0.004423955
86	0x3bd0d433	0.0063729524
87	0xbe1ba11b	-0.15198176
88	0xbba389ad	-0.0049907775
89	0x3d0cbb4b	0.034358304
90	0x3eb0bcd9	0.3451908
91	0xbdf1198a	-0.11772449
92	0x3ea14275	0.31496015
93	0xbe782ed1	-0.24236609
94	0xbe4ac78e	-0.19802687
95	0x3e8174a0	0.2528429
96	0xbf02c838	-0.5108676
97	0xbf0d1705	-0.5511325
98	0xbec1b2de	-0.37831777
99	0xbed27911	-0.4110799
100	0xbe1c8b2b	-0.15287463
101	0xbe9a13cd	-0.30093232
102	0x3c247a6c	0.010038953
103	0x3e1faaf1	0.15592553
104	0x3ea5b650	0.32365656
105	0xbd9ea6ea	-0.0774668
106	0xbcb035d0	-0.021510035
107	0xbc1df40f	-0.009640708
108	0xbdcb1f74	-0.099181086
109	0xbf2dee31	-0.67941576
110	0xbf25b85c	-0.64734435
111	0xbd828e4c	-0.06374797
112	0xbe323134	-0.17401582
113	0xbe2bc486	-0.16774186
114	0x3e680af1	0.22660424
115	0xbdbb3e76	-0.09142773
116	0xbf46f876	-0.7772287
117	0xbd7eedee	-0.062238626
118	0xbda06ebd	-0.07833622
119	0x3ec231a5	0.379285
120	0x3bccb66d	0.006247333
121	0xbe53c169	-0.20679249
122	0xbc95a591	-0.018267425
123	0xbede5566	-0.4342453
124	0xbf2b11ae	-0.6682385
125	0x3dc5ebc9	0.09664113
126	0xbdb7efd5	-0.08981291
127	0xbec1a4a0	-0.3782091
128	0xbf2437df	-0.6414775
129	0x3da7d768	0.08195382
130	0x3e8d576a	0.27605754
131	0x3f1d934c	0.6155288
132	0xbeb843c8	-0.35989213
133	0x3ca6bb85	0.020353088
134	0xbf46f78f	-0.77721494
135	0x3ea70dca	0.32627708
136	0x3efd37d7	0.49456665
137	0x3bd5b9eb	0.0065224073
138	0x3dbe5ea1	0.09295393
139	0xbd216a3d	-0.039407957
140	0xbedfcffd	-0.4371337
141	0xbe1d12d1	-0.15339209
142	0xbeddbf9d	-0.43310252
143	0xbf0f1db0	-0.55904675
144	0x3e2401ec	0.16016358
145	0xbe1a0dde	-0.15044352
146	0x3f3f19c8	0.74648714
147	0xbc1bf908	-0.009519823
148	0x3e05116f	0.12994932
149	0xbde2b79b	-0.11070176
150	0x3d96da4f	0.07365858
151	0xbe7c5f03	-0.24645619
152	0xbf0aa5be	-0.5415915
153	0x3e61697b	0.22012894
154	0x3ec1651a	0.37772447
155	0xbe0936d2	-0.13399819
156	0x3f0f7e25	0.56051856
157	0x3d56c36c	0.052432463
158	0x3e49242a	0.19642702
159	0x3e5c01ab	0.21485011
160	0xbe3a4350	-0.1818974
161	0xbe69596d	-0.2278802
162	0x3eb14e37	0.34629986
163	0x3cb57374	0.022149779
164	0xbe718c22	-0.23588613
165	0x3ee9baa7	0.45650217
166	0x3db24784	0.08705047
167	0xbde70c56	-0.1128165
168	0xbdd81619	-0.1055109
169	0xbe6bed28	-0.23039687
170	0x3e0e2be5	0.13883932
171	0x3f0be161	0.54640776
172	0x3f013ae7	0.504805
173	0xbf541c94	-0.82856107
174	0x3e68058d	0.22658367
175	0xbe5857d8	-0.2112726
176	0xbed25fbc	-0.41088665
177	0xbd5d1bc3	-0.053981554
178	0x3d58b77b	0.052909356
179	0x3ac3b7ee	0.0014932135
180	0xbeaa7560	-0.33292675
181	0xbec53d49	-0.3852332
182	0x3faec175	1.3652788
183	0xbdb04530	-0.086069465
184	0xbe79c41a	-0.24391213
185	0x3da4e50b	0.08051499
186	0x3e58aafc	0.21158975
187	0x3dcc625f	0.099797
188	0xbd99e9c1	-0.07515288
189	0x3da22c8b	0.07918652
190	0xbe35886b	-0.1772782
191	0xbdf810f1	-0.12112606

actor.init_internal_node_embed.0.add_bias._bias f4 [32, 1]
0	0x3c1fa724	0.009744439
1	0xbe8de189	-0.27711132
2	0xbbba8f97	-0.005693387
3	0xbcaf1d30	-0.021376222
4	0x3e159b9f	0.14610146
5	0x3d1d97ec	0.038474962
6	0x3bc9b50a	0.0061556147
7	0xbc0460c4	-0.008079711
8	0x3d361b6c	0.044459745
9	0x3dd7b8cb	0.10533293
10	0x3bc3d218	0.005975973
11	0x3c88c7c5	0.01669682
12	0xbb1cfa70	-0.0023952983
13	0x380d5093	3.369206e-05
14	0xbc59dd9d	-0.013297466
15	0x3cf3535b	0.029702833
16	0xbea15fde	-0.31518453
17	0xbd75d0b1	-0.060013477
18	0x3d07a00a	0.03311161
19	0x3ae4e97e	0.0017464606
20	0xbe7bd8e5	-0.24594457
21	0x3d6b749d	0.057484258
22	0x3d4f6216	0.05063065
23	0x3df1e17c	0.11810586
24	0x3d0a4bc9	0.03376368
25	0x3b5c02a0	0.00335709
26	0x3be4c592	0.00698156
27	0x3d91d118	0.071199596
28	0x3cdcd04d	0.026954794
29	0xbd42ffaa	-0.0476071
30	0x3d8f3328	0.06992179
31	0xbd8ed43d	-0.06974075

actor.init_internal_node_embed.2.module.weight f4 [64, 32]
0	0x3dd80d06	0.10549359
1	0x3e368974	0.17825872
2	0xbdf0c97c	-0.1175718
3	0x3e2648e8	0.16238749
4	0x3b920f08	0.0044573583
5	0x3dedd010	0.116119504
6	0x3e0d8953	0.13821916
7	0x3f0fbd20	0.56147957
8	0x3e89f141	0.26941875
9	0xbe0a72ae	-0.1352031
10	0x3f4f206e	0.8090886
11	0x3deddde4	0.11614588
12	0x3d44fede	0.048094623
13	0xbe59f8b5	-0.2128628
14	0xbf2f1717	-0.6839461
15	0x3e9ce78f	0.30645415
16	0xbc87a832	-0.016559694
17	0x3e48108f	0.19537567
18	0x3ced5c2c	0.028974615
19	0x3e67da29	0.22641815
20	0xbe6405b1	-0.22267796
21	0x3e42fcdc	0.1904177
22	0x3f8c96db	1.0983537
23	0xbd42adb4	-0.047528937
24	0x3f0ea8bf	0.55726236
25	0x3e760281	0.24024393
26	0x3e0a4d76	0.13506112
27	0x3e8c8c92	0.27450997
28	0x3e288b0b	0.1645929
29	0xbc3c6186	-0.011497861
30	0xbe1aa56a	-0.15102163
31	0x3b2f2f8f	0.0026731228
32	0x3eab0561	0.3340254
33	0x3db08c48	0.086205065
34	0xbf0a641d	-0.5405901
35	0xbf0ec20e	-0.55764854
36	0xbd45d01c	-0.04829417
37	0x3e8dbb7b	0.276821
38	0x3d8a9be9	0.06768019
39	0xbec7830f	-0.38967177
40	0xbe6a761f	-0.22896622
41	0x3e484d59	0.19560756
42	0x3eeed100	0.4664383
43	0x3e234a85	0.15946396
44	0x3eab5ffe	0.33471674
45	0x3d417a86	0.047235988
46	0xbd511378	-0.051043957
47	0x3e802be2	0.2503348
48	0xbd67721a	-0.0565053
49	0xbcf7ed94	-0.030264653
50	0xbdedb556	-0.11606853
51	0xbe02a535	-0.12758334
52	0x3d21a2d8	0.03946194
53	0x3e9f68f1	0.3113475
54	0x3f741469	0.95343643
55	0x3eb650d2	0.35608536
56	0xbe1fd232	-0.15607527
57	0x3db442b1	0.08801783
58	0x3bc12937	0.005894806
59	0x3d8b878f	0.06812965
60	0x3f2b4932	0.6690856
61	0x3e596d40	0.21233082
62	0x3da7e2ff	0.08197593
63	0xbcb2a853	-0.021808779
64	0xbe8fcd2e	-0.28086227
65	0xbbfdf4b3	-0.0077501177
66	0x3f05d708	0.52281237
67	0x3f130a6c	0.5743778
68	0x3f0f31a7	0.5593514
69	0xbc71b0c3	-0.014751616
70	0xbe9c4227	-0.3051922
71	0x3f882fe5	1.0639616
72	0xbe51ee88	-0.20501149
73	0xbe8b219d	-0.27174082
74	0xbefb3610	-0.49064684
75	0xbf36c478	-0.7139354
76	0x3c77ee0a	0.0151324365
77	0x3e6a8e9d	0.22905965
78	0x3eea4626	0.45756644
79	0xbf09e965	-0.53871757
80	0xbdcc4e16	-0.09975831
81	0x3db2d12d	0.08731303
82	0x3cfa8996	0.030583184
83	0xbed0e29c	-0.4079789
84	0xbd0dc8e2	-0.034615405
85	0x3eecfe7c	0.46287906
86	0xbdb17a6d	-0.08665929
87	0xbe895a38	-0.26826644
88	0xbd13fc8c	-0.03612952
89	0xbd9168d7	-0.07100075
90	0x3df745ea	0.12073882
91	0x3cf3041d	0.029665047
92	0x3e4f9ca6	0.202746
93	0xbe26c47d	-0.16285892
94	0x3e5ffd30	0.21873927
95	0x3dd3b0b5	0.103364386
96	0xbccc9825	-0.024974892
97	0xbe60bd23	-0.2194715
98	0xbce8bbb8	-0.028409824
99	0x3ed867c0	0.42266655
100	0x3de5b01b	0.1121523
101	0x3c50a95d	0.012735692
102	0x3d011c69	0.031521235
103	0x3e19ffad	0.15038939
104	0x3d2ecbb3	0.04267473
105	0xbc9b8f38	-0.01898919
106	0x3d9861ce	0.0744053
107	0xbd4f1242	-0.05055452
108	0xbe969e1b	-0.294175
109	0x3d7b1bb3	0.061305713
110	0xbea8e2f4	-0.32985651
111	0x3a8d8302	0.001079649
112	0x3de06e7e	0.10958575
113	0xbe9e6eee	-0.30944008
114	0x3e077522	0.13228276
115	0x3dbe008b	0.09277447
116	0xbe852a7f	-0.26008984
117	0x3f1a23f2	0.602111
118	0xbe1862cb	-0.14881437
119	0x3e933320	0.28749943
120	0x3e552691	0.20815493
121	0xbc8a5bd6	-0.016889494
122	0x3e194331	0.14967038
123	0x3eb92824	0.36163437
124	0x3de04d2f	0.109522216
125	0xbd6a5730	-0.057212055
126	0xbed4cb23	-0.4156123
127	0x3e45638a	0.19276252
128	0x3ea4e3c4	0.3220502
129	0xbdee604e	-0.116394624
130	0xbe479c07	-0.19493113
131	0x3dc89ed3	0.09795918
132	0xbf14f4b2	-0.58185875
133	0xbdc08ddc	-0.094020575
134	0x3eca32ac	0.39491785
135	0xbf06bd4d	-0.526326
136	0xbf0c3719	-0.5477157
137	0x3ef11492	0.47086006
138	0x3ece9c17	0.40353462
139	0x3eb81f9d	0.3596162
140	0xbdb42882	-0.08796789
141	0xbe52ef20	-0.20599031
142	0x3e8379ea	0.2567895
143	0xbdd25732	-0.102705374
144	0x3b8af392	0.0042404616
145	0xbdbc8a41	-0.09206057
146	0x3b004369	0.001957143
147	0x3d4cc6d0	0.04999429
148	0xbe11d0bb	-0.1423978
149	0x3ec5966d	0.38591328
150	0x3e3bad22	0.18327764
151	0xbc316b5c	-0.010828819
152	0xbe492413	-0.19642667
153	0x3e8a55ed	0.2701868
154	0x3eaeff45	0.3417913
155	0x3e067c0f	0.13133262
156	0x3f110f14	0.5666363
157	0x3d22d222	0.03975118
158	0x3e33393b	0.175023
159	0xbe091603	-0.13387303
160	0xbe9a4e59	-0.301379
161	0xbddbb714	-0.10728279
162	0xbc97c0ff	-0.018524645
163	0x3d073283	0.033007156
164	0x3f638740	0.8887825
165	0xbe88c7a0	-0.26714802
166	0xbe76223d	-0.24036498
167	0x3ec7814d	0.38965836
168	0x3e41cedb	0.18926565
169	0xbdd7f95e	-0.1054561
170	0x3f59ee51	0.85129267
171	0xbec48c37	-0.38388225
172	0xbc3d91c4	-0.011570398
173	0xbe410472	-0.18849352
174	0x3cc747a7	0.024326159
175	0x3e9259f2	0.28584248
176	0x3e59fda4	0.21288162
177	0x3e58190f	0.21103309
178	0xbdaa0555	-0.08301798
179	0xbc68790f	-0.014189019
180	0xbd16c8ca	-0.03681258
181	0x3dbe8fc8	0.09304768
182	0x3ed14718	0.40874553
183	0xbf1dff65	-0.61717826
184	0x3da3c17c	0.079958886
185	0x3e92b480	0.28653336
186	0x3e79be65	0.24389036
187	0x3edcafa2	0.43102747
188	0xbb3cf8fe	-0.0028834934
189	0xbe01cf7c	-0.12676805
190	0x3d5e38aa	0.054253258
191	0x3e4c98b1	0.19980122
192	0x3eacec52	0.33774048
193	0x3c26af74	0.010173667
194	0x3de35517	0.11100214
195	0xbd98dd57	-0.07464092
196	0x3ee54a34	0.44783175
197	0x3d39a3e0	0.0453223
198	0xbe729dff	-0.23693083
199	0x3e3111b4	0.1729191
200	0xba47da72	-0.00076237984
201	0xbe3c7190	-0.18402696
202	0x3e9bcd2c	0.3042997
203	0xbe521287	-0.2051488
204	0xbeb8bb1c	-0.36080253
205	0xbbc1d36f	-0.0059150974
206	0x3e8731b8	0.2640512
207	0xbef768cb	-0.48322138
208	0x3c26c56d	0.010178906
209	0xbeb46bc4	-0.3523847
210	0x3da5a6f6	0.08088486
211	0xbcdff686	-0.027339231
212	0x3a7e655a	0.00097044336
213	0x3d9c990a	0.076463774
214	0xba17b27d	-0.00057867897
215	0x3e82be8a	0.25535995
216	0xbe1f64e1	-0.15565826
217	0x3d840065	0.06445388
218	0xbe3753a4	-0.17903
219	0x3edca72a	0.43096286
220	0xbea79ca5	-0.32736698
221	0x3db6dbcd	0.089286424
222	0xbee168b8	-0.44025207
223	0xbdaca982	-0.084307685
224	0xbdd742c0	-0.105107784
225	0xbdf9f0f0	-0.12204158
226	0xbee911fb	-0.4552153
227	0xbea184b6	-0.31546563
228	0xbed33be6	-0.41256636
229	0xbc8d1efc	-0.017226689
230	0x3e3b35a0	0.18282175
231	0xbdbf647a	-0.09345336
232	0x3dcd116c	0.100130886
233	0x3e9159e0	0.28388882
234	0x3ef64ee4	0.48107064
235	0x3ee7519c	0.4517945
236	0xbe3d941f	-0.18513535
237	0x3de197aa	0.11015256
238	0xbe3ee9fb	-0.18643944
239	0xbd9f73f6	-0.0778579
240	0xbd79d127	-0.06099048
241	0xbe6aefa8	-0.22942984
242	0x3e5d4384	0.21607786
243	0x3e300de0	0.17192793
244	0x3cce2cba	0.025167812
245	0xbed0f4f1	-0.40811875
246	0x3f2d7bf6	0.67767274
247	0x3d05be7c	0.032652363
248	0xbf04c0a5	-0.5185645
249	0x3e0e9a24	0.13925987
250	0xbea8fa7f	-0.33003613
251	0xbed900fa	-0.42383558
252	0x3f29d44d	0.6633957
253	0x3e3b2332	0.18275145
254	0x3ecce668	0.40019536
255	0xbdb7469d	-0.08949015

actor.init_internal_node_embed.2.add_bias._bias f4 [64, 1]
0	0x3e32c1f6	0.17456803
1	0x3e956575	0.29178968
2	0xbd46d572	-0.0485434
3	0x3da1965c	0.07890007
4	0x3e1e3efb	0.15453713
5	0x3e99a57c	0.30009067
6	0x3d1af46a	0.037830748
7	0x3de22d72	0.11043824
8	0xbd9a25dc	-0.07526752
9	0xbdd20129	-0.102541275
10	0x3bf3687b	0.0074282265
11	0x3ce193d4	0.02753631
12	0xbd91d236	-0.07120173
13	0x3d9d9630	0.076946616
14	0x3e0aef59	0.13567866
15	0x3e17365c	0.1476683
16	0x3c006f92	0.0078391
17	0xbe4ceaea	-0.20011488
18	0x3cad6c64	0.021169849
19	0x3dc238fe	0.09483527
20	0xba0e7b5a	-0.0005435251
21	0x3d17fbcd	0.03710537
22	0xbd67bb3b	-0.05657504
23	0xbd95fe1f	-0.073238604
24	0x3e10dd05	0.14146812
25	0xbd1aee3a	-0.037824847
26	0xbd24a257	-0.04019388
27	0x3d333d11	0.04375941
28	0xbdccae35	-0.09994165
29	0xbc6507db	-0.013978924
30	0x3c24ffd6	0.010070762
31	0xbbfd1264	-0.0077231396
32	0x3d9409cb	0.0722843
33	0x3cf77775	0.030208329
34	0x3e86069e	0.26176924
35	0xbdaf3545	-0.08555082
36	0x3cbe4e4f	0.0232307
37	0xbe13a113	-0.14416914
38	0xbcd9cbc5	-0.026586423
39	0x3e5973d4	0.21235591
40	0xbd336cbe	-0.043804877
41	0xbe79f492	-0.24409702
42	0x3e14e3e9	0.14540066
43	0xbc1d0af8	-0.009585135
44	0xbe03790d	-0.12839146
45	0xbd81d2f3	-0.063390635
46	0xbe9bc380	-0.30422592
47	0xbe90d22f	-0.28285357
48	0x3e8eebfa	0.2791441
49	0x3c98d1a9	0.018654661
50	0x3dbec8ad	0.093156196
51	0x3d6a6d80	0.057233334
52	0xbc0d5ff4	-0.008628834
53	0xbc4b902b	-0.012424509
54	0xbd33ef15	-0.04392918
55	0x3e4ee163	0.20203166
56	0x3e5fb0ee	0.21844837
57	0xbd9fc93f	-0.078020565
58	0x3cc00efc	0.023444645
59	0x3d585944	0.052819505
60	0x3d74afad	0.05973785
61	0x3df89de3	0.121394895
62	0xbd20697b	-0.039163094
63	0x3d08c6f9	0.03339288

actor.init_leaf_node_embed.0.module.weight f4 [32, 8]
0	0xbd9e9b92	-0.077445164
1	0xbeafc41e	-0.34329313
2	0xbec99881	-0.39374164
3	0xbd9289d4	-0.07155195
4	0x3e2c14cc	0.16804808
5	0x3ebde160	0.3708601
6	0x3efdbaae	0.49556488
7	0x3e8a0761	0.26958755
8	0xbec7fb24	-0.39058793
9	0xbf2c18b4	-0.67225194
10	0xbd9326e4	-0.07185152
11	0xbea70aa8	-0.32625318
12	0xbe7da75b	-0.24770872
13	0x3ead2cc6	0.33823222
14	0xbcb4d3e4	-0.022073694
15	0x3ebabde5	0.36473003
16	0x3e47a275	0.19495566
17	0xbebfe1fa	-0.37477094
18	0xbe04b868	-0.1296097
19	0x3ed41e89	0.41429546
20	0x3b6b8dc2	0.0035942649
21	0xbea2a775	-0.31768385
22	0xbd682d08	-0.05668357
23	0xbd8a1e79	-0.067440934
24	0xbece7baa	-0.40328723
25	0xbe4b9554	-0.19881183
26	0xbe78b587	-0.24287997
27	0xbe81a482	-0.25320822
28	0x3eabb917	0.3353965
29	0x3d37deff	0.0448904
30	0x3ee70d99	0.45127562
31	0x3de9e4b1	0.114205725
32	0xbd2627fd	-0.04056548
33	0xbe39d393	-0.18147115
34	0x3d9706e9	0.07374365
35	0x3de3140e	0.110878095
36	0x3ec18e8d	0.3780407
37	0x3e0660ec	0.1312291
38	0xbeff5005	-0.49865738
39	0x3ec852a0	0.39125538
40	0x3dbb6ef1	0.0915202
41	0x3e16a6bc	0.14712042
42	0xbf087f0d	-0.53318864
43	0x3e244d1a	0.16045037
44	0xbeeec160	-0.46631908
45	0x3f05f92d	0.5233334
46	0xbdfaade4	-0.12240198
47	0xbe838a89	-0.2569163
48	0xbeb2da14	-0.34932005
49	0xbe2c6888	-0.1683675
50	0xbd9a2989	-0.075274535
51	0x3d5c631b	0.05380545
52	0x3db88d4e	0.09011327
53	0xbe488498	-0.1958183
54	0xbdcc6865	-0.09980849
55	0xbde01580	-0.10941601
56	0x3ec18eaa	0.37804157
57	0xbee361ba	-0.44410497
58	0x3e83a627	0.25712702
59	0x3ee88fa0	0.45422077
60	0xbcfad63c	-0.030619733
61	0x3ec72a02	0.38899237
62	0x3d381e3e	0.044950716
63	0x3e66c219	0.2253498
64	0x3ddaef34	0.106901556
65	0x3dfd6cab	0.123742424
66	0xbe2d29ee	-0.16910526
67	0x3eac26cf	0.3362336
68	0x3dcda1e3	0.10040643
69	0x3daf69db	0.08565112
70	0x3efb1266	0.49037474
71	0x3eb22f08	0.34801507
72	0xbdb38c4c	-0.08766994
73	0x3eac29fa	0.33625776
74	0xbe35042c	-0.17677373
75	0x3e98f5df	0.29875085
76	0x3ce84c32	0.028356645
77	0xbdf14f01	-0.11782647
78	0x3ee7a1b2	0.4524055
79	0xbe9905c9	-0.29887226
80	0x3d5fdce0	0.054654002
81	0x3dcc1558	0.099650085
82	0x3e8ff413	0.281159
83	0xbd91b31e	-0.07114242
84	0x3eb017a5	0.3439304
85	0xbce814ef	-0.028330294
86	0xbe45b2c8	-0.19306481
87	0x3cad61e2	0.021164838
88	0xbe8d8968	-0.27643895
89	0x3d023a96	0.031794153
90	0x3e3e4abc	0.18583196
91	0x3db30566	0.08741264
92	0x3eeefd00	0.466774
93	0x3dc73a66	0.097279355
94	0xbc888392	-0.0166643
95	0xbeb7411b	-0.3579186
96	0x3ec70e84	0.38878262
97	0x3d960674	0.073254496
98	0x3f1187fb	0.56848115
99	0xbeaf0781	-0.34185413
100	0xbdab765f	-0.08372187
101	0xbd870fc9	-0.06594808
102	0x3ebbf32c	0.36708963
103	0xbdeec120	-0.116579294
104	0xbe4f7198	-0.20258176
105	0x3d1de4dd	0.03854834
106	0x3e7dd2ea	0.24787489
107	0xbe0f53e5	-0.13996847
108	0xbe83f6c4	-0.25774205
109	0xbe684369	-0.22681965
110	0x3eb62cc3	0.35581025
111	0x3d9c2aa3	0.0762532
112	0x3e35a8d1	0.1774018
113	0xbcc9cc23	-0.024633473
114	0x3e23e9c8	0.16007149
115	0x3ee7a6a3	0.4524432
116	0x3df9b1d7	0.121921234
117	0x3ed1f6d3	0.41008624
118	0x3de94312	0.11389746
119	0xbd94f0af	-0.07272469
120	0x3f00ea6e	0.5035771
121	0x3e0af207	0.13568889
122	0xbdf1c14b	-0.11804446
123	0xbf063391	-0.52422434
124	0x3e4641ec	0.19361085
125	0x3ef17de6	0.47166365
126	0x3d124a72	0.035715528
127	0xbe9c02cf	-0.30470893
128	0xbd4cfb48	-0.050044328
129	0x3db54a6f	0.08852088
130	0xbe94b502	-0.29044348
131	0x3eb5bc90	0.35495424
132	0x3e40c99a	0.18826905
133	0x3c976398	0.018480107
134	0xbe77f7e4	-0.24215657
135	0x3da090b2	0.078400984
136	0xbdb3f061	-0.08786083
137	0x3ebee0dd	0.37280932
138	0x3dddb35e	0.10825227
139	0x3da521cf	0.08063089
140	0xbe8b1db1	-0.2717109
141	0x3db8151b	0.089884005
142	0x3e3de466	0.18544158
143	0x3e936ec6	0.2879545
144	0xbe4dfa1e	-0.20114943
145	0x3d566e9d	0.052351583
146	0x3d8b6117	0.06805628
147	0xbeb7c30b	-0.35890993
148	0xbe745c3c	-0.2386331
149	0x3eb88259	0.36036947
150	0x3d48bb5c	0.049006805
151	0x3df4d329	0.11954338
152	0xbec5cf5c	-0.38634765
153	0x3e08c2fc	0.1335563
154	0xbdc71446	-0.09720664
155	0x3e8eaf79	0.2786825
156	0x3d62ea72	0.055399366
157	0x3f04a528	0.5181451
158	0xbdb772ae	-0.0895742
159	0x3dd91ab7	0.106007986
160	0xbe7bc25b	-0.2458586
161	0xbe8b6c4b	-0.27231058
162	0xbe9c18c0	-0.30487633
163	0xbd39181c	-0.045189008
164	0x3cd3a4be	0.025835391
165	0x3ed563b6	0.41677636
166	0xbe10a5a2	-0.14125684
167	0xbe862f68	-0.26208043
168	0x3e06c0d0	0.1315949
169	0xbe141495	-0.14460976
170	0x3ef7c22f	0.48390338
171	0xbde30908	-0.11085707
172	0x3cb6fbc9	0.022336857
173	0xbde3f455	-0.11130587
174	0xbe47a64e	-0.19497034
175	0x3d6d99a4	0.05800785
176	0xbea629ae	-0.32453674
177	0x3eb67c50	0.35641718
178	0x3c9cbbbc	0.019132487
179	0x3ea05d9f	0.31321427
180	0x3e78ea7b	0.24308197
181	0x3e3ae35c	0.18250793
182	0x3df1c9c3	0.11806061
183	0x3e076341	0.13221456
184	0xbe976616	-0.29570073
185	0xbe13e5f0	-0.14443183
186	0x3d9672af	0.07346093
187	0xbd999032	-0.07498206
188	0x3ee736c4	0.4515897
189	0xbd32a2de	-0.043612354
190	0xbd17a27f	-0.037020203
191	0xbd7e7b2a	-0.062129177
192	0x3d6b67bf	0.057471987
193	0x3dab22e9	0.08356268
194	0x3e830169	0.25587013
195	0xbcb52929	-0.022114353
196	0x3e6357cc	0.2220146
197	0x3d82e452	0.06391205
198	0xbc8cbb4c	-0.017179154
199	0x3efce8d4	0.49396384
200	0x3e9a9528	0.30191922
201	0x3e54463a	0.20729914
202	0xbefc88f1	-0.49323228
203	0xbea59381	-0.323391
204	0x3d418709	0.04724792
205	0xbcae22c6	-0.021256816
206	0x3d3fcb40	0.046824694
207	0xbe99970f	-0.2999806
208	0x3e7316e6	0.23739204
209	0xbe30ac34	-0.1725319
210	0x3df2dae6	0.11858158
211	0x3ed6fa13	0.41987666
212	0x3e1cf13f	0.15326403
213	0x3df31d44	0.11870816
214	0x3ee3f336	0.44521493
215	0xbe8e7b1c	-0.278283
216	0x3d1b355c	0.037892684
217	0xbe32c820	-0.17459154
218	0xbec3d44b	-0.38247904
219	0x3e0f2ae0	0.139812
220	0x3f19d911	0.6009684
221	0xbd7eda60	-0.062219977
222	0x3e5e31ba	0.21698657
223	0x3eba74ee	0.36417335
224	0x3ea86de0	0.32896328
225	0xbdf1abc2	-0.11800338
226	0xbe0d9b12	-0.13828686
227	0xbdc969e7	-0.098346524
228	0x3b85ec69	0.00408702
229	0xbed8d203	-0.42347726
230	0x3dd158bd	0.102220036
231	0x3e500625	0.20314844
232	0x3de3acde	0.11116956
233	0x3e799d61	0.24376442
234	0xbe3efd18	-0.18651235
235	0xbe578145	-0.21045406
236	0x3e95e2be	0.29274553
237	0x3c19ee87	0.009395248
238	0xbe5e4b3e	-0.2170839
239	0x3e28dc8f	0.16490386
240	0x3e978dd9	0.2960041
241	0x3ef2bcaa	0.47409564
242	0xbf0297a4	-0.51012635
243	0xbe0a0149	-0.13477053
244	0xbe5aa34d	-0.21351357
245	0xbe2e9f80	-0.17053032
246	0xbd100d71	-0.03516907
247	0x3ee99f59	0.45629385
248	0x3de565b3	0.11201038
249	0x3ed7310c	0.42029607
250	0xbd8091c8	-0.062778056
251	0xbe60b00c	-0.21942157
252	0x3de84db3	0.11342945
253	0x3ec866aa	0.39140826
254	0x3e303c45	0.17210491
255	0xbdc6d1b5	-0.09707967

actor.init_leaf_node_embed.0.add_bias._bias f4 [32, 1]
0	0x3c400110	0.011719003
1	0x3ce9446f	0.028475014
2	0x3bce2f61	0.006292269
3	0x3c036bac	0.008021276
4	0xbdeea946	-0.1165338
5	0x3c72fb1b	0.014830376
6	0xbcfeb0a2	-0.031090084
7	0xbcd19dc4	-0.025587924
8	0x3da026e3	0.07819917
9	0x3d11e6cd	0.0356205
10	0x3d229bdc	0.03969942
11	0xbcf5c81f	-0.030002652
12	0x3ae6903f	0.0017590596
13	0xbd53d530	-0.051716983
14	0x3e0428c2	0.12906173
15	0x3a7f3c83	0.0009736495
16	0xbd23113a	-0.03981135
17	0xbd467e89	-0.048460517
18	0x3c3f42ee	0.011673672
19	0xbb782cd8	-0.0037868526
20	0x3d13753a	0.036000468
21	0x3d232a54	0.03983529
22	0x3df58721	0.119886644
23	0xbcae48c3	-0.02127493
24	0x3c3eaab4	0.0116373785
25	0x3c487f8c	0.012237441
26	0x3dbaba45	0.09117559
27	0xbcae4d80	-0.02127719
28	0xbdcccf69	-0.10000498
29	0x3b3dd8a0	0.002896823
30	0x3c0cd78d	0.008596313
31	0xbe1bfed5	-0.1523393

actor.init_leaf_node_embed.2.module.weight f4 [64, 32]
0	0x3e2ac72c	0.1667754
1	0x3eeb30c6	0.4593565
2	0x3e3324ac	0.17494458
3	0x3e662e98	0.22478712
4	0xbe6b8f26	-0.23003826
5	0x3ece8ade	0.40340322
6	0x3e9bc126	0.30420798
7	0xbe86f899	-0.2636154
8	0x3c31196a	0.010809282
9	0x3e2098f9	0.15683354
10	0xba2a407e	-0.00064945954
11	0xbc28443f	-0.010270177
12	0xbebc7864	-0.368106
13	0xbe0c09a6	-0.13675556
14	0x3e07a141	0.13245107
15	0x3dbdd337	0.09268802
16	0x3e309f9e	0.17248389
17	0xbe1b196a	-0.15146413
18	0x3e21f3bd	0.15815635
19	0x3ea9dade	0.33174795
20	0x3f2125e2	0.6294843
21	0xbede1c6b	-0.43381056
22	0x3f22e767	0.6363434
23	0x3ebbfd28	0.3671658
24	0x3c9a4d36	0.018835645
25	0x3bc4b9d1	0.0060035964
26	0xbc1582e8	-0.009125449
27	0x3ebfeae0	0.37483883
28	0xbe05f895	-0.13083108
29	0x3e3e2498	0.18568647
30	0x3d64392a	0.05571858
31	0xbea23953	-0.3168436
32	0xbe0a9f32	-0.1353729
33	0xbe70f055	-0.2352918
34	0xbe0c4e8f	-0.13701843
35	0xbe28e995	-0.16495354
36	0xbe80a698	-0.251271
37	0x3eb70c64	0.3575164
38	0xbe6cee4d	-0.2313778
39	0x3e645b46	0.22300443
40	0x3ea4375a	0.3207348
41	0xbe9d5dc1	-0.3073559
42	0x3dcaf88c	0.09910688
43	0xbdb99a06	-0.09062581
44	0x3e904f96	0.2818572
45	0x3d268edc	0.040663585
46	0x3d291bd6	0.041286312
47	0x3d5e5c68	0.054287344
48	0x3da4bc10	0.080436826
49	0x3e29a3f0	0.16566443
50	0x3dae23b3	0.08502903
51	0xbefafd1b	-0.4902123
52	0xbed7cf29	-0.42150238
53	0x3f158e4f	0.5842027
54	0x3e3e007d	0.18554874
55	0x3e6792b4	0.22614557
56	0x3de9814f	0.11401617
57	0x3e21c2b8	0.15796936
58	0x3e021a31	0.12705304
59	0xbdfb453b	-0.12269064
60	0x3db76322	0.08954455
61	0x3d346e79	0.044050667
62	0x3e855c52	0.26046997
63	0xbe3f33b0	-0.18672061
64	0xbd3b28b2	-0.045693107
65	0x3d4e9db4	0.050443366
66	0x3e56621d	0.20935865
67	0xbeb95ba0	-0.36202717
68	0x3dcb6287	0.09930902
69	0xbdc6e0e7	-0.097108655
70	0xbde6eab4	-0.11275235
71	0xbd52fe98	-0.05151233
72	0xbeb788f0	-0.35846663
73	0x3ed155dd	0.4088582
74	0x3dd37541	0.10325099
75	0x3df8c24f	0.121464364
76	0xbe50eab5	-0.20402034
77	0x3d289570	0.04115814
78	0x3e1b36b2	0.15157583
79	0x3e044651	0.12917449
80	0xbec3ce9b	-0.38243565
81	0xbe699174	-0.22809392
82	0x3dc1943d	0.09452102
83	0x3d56a927	0.05240741
84	0xbbefac5c	-0.007314248
85	0x3de80c5f	0.113304846
86	0x3e0a568c	0.13509578
87	0x3dbdaca0	0.09261441
88	0x3ec410b9	0.38294008
89	0xbdd3a811	-0.103347905
90	0x3e242d72	0.16032961
91	0xbb035ee5	-0.0020045575
92	0xbe1e0fbf	-0.15435694
93	0xbd35afd3	-0.044357132
94	0xbefec48c	-0.49759328
95	0xbe26b485	-0.162798
96	0xbe872369	-0.26394203
97	0x3e03a48d	0.1285574
98	0xbec63887	-0.38715002
99	0x3f0b631b	0.544481
100	0xbe84523d	-0.25843993
101	0x3dab5352	0.083655015
102	0xbe24d9e1	-0.16098739
103	0x3e38ca5c	0.18045944
104	0xbcae184d	-0.021251822
105	0x3dbc51e8	0.0919531
106	0x3e686efa	0.22698584
107	0x3df786a0	0.120862246
108	0x3f1cd444	0.6126139
109	0xbe879bd5	-0.26486078
110	0xbd4ae215	-0.049532015
111	0xbe047191	-0.12933947
112	0xbe182eae	-0.14861557
113	0x3e8cc747	0.27495787
114	0xbbb6fa34	-0.0055840258
115	0x3cf9a516	0.030474227
116	0xbeef55c0	-0.4674511
117	0xbd2b0bc4	-0.041759267
118	0xbdea5f64	-0.114439756
119	0xbe350018	-0.17675817
120	0x3dc34a1e	0.09535621
121	0xbdf17b40	-0.11791086
122	0x3e90e54c	0.2829994
123	0x3e5e6df1	0.21721627
124	0x3e523486	0.20527849
125	0xbd0d759a	-0.03453598
126	0xbda9f370	-0.08298385
127	0x3ded79ed	0.11595521
128	0xbea2fe44	-0.31834614
129	0xbec20975	-0.3789784
130	0xbe0e525f	-0.1389861
131	0xbe0170b4	-0.12640649
132	0x3c9a0e50	0.018805653
133	0xbe909d65	-0.28245082
134	0xbe6c5d67	-0.23082505
135	0xbe4f3077	-0.20233332
136	0xbf1f9d6a	-0.6234957
137	0x3ea98f8a	0.33117324
138	0x3d31075c	0.04321991
139	0xbb5cf27f	-0.0033713875
140	0x3ee9c47e	0.45657724
141	0xbc8aa1df	-0.01692289
142	0xbe85177f	-0.2599449
143	0x3e1d420f	0.1535723
144	0x3dad292d	0.08455119
145	0xbe475b3e	-0.194684
146	0xbeab8a2a	-0.33503848
147	0xbe1b4cab	-0.15165965
148	0x3e2ad094	0.16681129
149	0x3e51f5de	0.20503947
150	0x3dc486f4	0.09596053
151	0xbd88eea6	-0.066861436
152	0xbe28755d	-0.1645102
153	0x3d6ac759	0.05731902
154	0xbd51e201	-0.051240925
155	0x3c3e57f4	0.011617649
156	0xbdb46cd5	-0.088098206
157	0x3c7618cf	0.015020563
158	0x3e4b6aea	0.19865003
159	0xbe0391a6	-0.12848529
160	0xbe0e7695	-0.13912423
161	0x3e69570b	0.2278711
162	0xbe326266	-0.17420349
163	0xbec8b91b	-0.39203724
164	0x3e084ec3	0.13311295
165	0x3e627329	0.22114243
166	0x3d9a185c	0.075241774
167	0xbe3c270b	-0.18374269
168	0xbeab0400	-0.3340149
169	0xbdcf48b0	-0.10121286
170	0x3bcfcd35	0.0063416013
171	0x3d5a769d	0.053335775
172	0xbe20b26b	-0.15693061
173	0xbe6d6b5b	-0.23185484
174	0x3ee6d545	0.45084587
175	0xbe88dd58	-0.26731372
176	0x3e72ac33	0.23698501
177	0x3ce5e018	0.028060958
178	0x3ccec033	0.025238132
179	0xbc820ce7	-0.015875293
180	0xbbe9e3a6	-0.0071377335
181	0xbd78811d	-0.060670007
182	0xbe0f0207	-0.13965617
183	0xbea81256	-0.3282649
184	0xbe54436b	-0.20728843
185	0x3d41bec3	0.047301065
186	0x3d317d80	0.043332577
187	0x3e8c24b4	0.27371752
188	0xbd20e3b4	-0.039279655
189	0x3d8f49a6	0.06996469
190	0xbe7d2ffd	-0.24725337
191	0xbd8c2971	-0.06843842
192	0xbe34496b	-0.17606132
193	0xbed7a99b	-0.42121586
194	0xbebb3ba7	-0.3656895
195	0x3e06c2b7	0.13160215
196	0xbe5a8df5	-0.21343215
197	0xbe331a0f	-0.1749041
198	0x3ccd37b4	0.025050975
199	0x3cea3cba	0.02859341
200	0x3bd1887a	0.006394443
201	0xbaa553bf	-0.0012613459
202	0xbbb1d0dd	-0.00542651
203	0xbe5e7738	-0.21725166
204	0x3eb43f97	0.35204765
205	0x3df12636	0.11774866
206	0xbe51ff9f	-0.20507668
207	0xbe5e5f71	-0.21716096
208	0xbe1bc5ef	-0.15212224
209	0x3f1cdbd4	0.6127293
210	0x3da44a81	0.08022023
211	0xbce3fe06	-0.027831089
212	0x3e04b7db	0.1296076
213	0x3e8745bb	0.26420388
214	0xbe172d8f	-0.14763473
215	0x3dd0addf	0.10189413
216	0x3dc41d14	0.09575859
217	0x3e7c3b11	0.24631907
218	0xbe82aa7f	-0.25520703
219	0x3aa56464	0.001261842
220	0x3e12df0b	0.14342897
221	0xbd85fc05	-0.065422095
222	0xbe7265a7	-0.2367159
223	0x3daaacff	0.08333778
224	0x3d177075	0.03697248
225	0x3e8f6c14	0.28012145
226	0xbe98752b	-0.29776892
227	0xbea34ee5	-0.3189613
228	0xbf056b56	-0.52116907
229	0xbe86c8cd	-0.26325074
230	0x3e373d71	0.17894532
231	0xbe6cbad9	-0.23118152
232	0xbd8bdb9b	-0.06828996
233	0x3cc46b6b	0.023977002
234	0xbb4e268d	-0.0031456084
235	0xbeaf9624	-0.34294236
236	0x3e3acadf	0.18241452
237	0xbea71b72	-0.32638127
238	0xbee165e6	-0.44023055
239	0x3d82b646	0.06382422
240	0xbe923fb9	-0.28564242
241	0x3e5df486	0.2167531
242	0xbdc01a1d	-0.09379981
243	0xbe225c7d	-0.15855594
244	0xbd192ef7	-0.037398305
245	0x3f33ec43	0.7028238
246	0xbd873d17	-0.06603449
247	0xbe806cd8	-0.2508304
248	0xbd9ec67a	-0.077527
249	0x3d76b89d	0.060234655
250	0xbe46a31b	-0.19398157
251	0xbe8c49b2	-0.27399975
252	0x3e3fda59	0.18735637
253	0xbee9b530	-0.45646048
254	0x3ea05da3	0.3132144
255	0x39d71693	0.00041024815

actor.init_leaf_node_embed.2.add_bias._bias f4 [64, 1]
0	0x3e8ac666	0.2710449
1	0x3e0f8fbe	0.14019677
2	0x3d2bb110	0.041916907
3	0x3c3c19d8	0.011480771
4	0xbe39a1b4	-0.18128091
5	0x3c6bc269	0.014389613
6	0xbe545076	-0.20733818
7	0xbe8c628a	-0.2741893
8	0xbe30334c	-0.17207068
9	0xbe2ae765	-0.16689833
10	0x3e8ea478	0.27859855
11	0xbe1950e9	-0.14972271
12	0x3dc48a24	0.09596661
13	0xbdb6e22a	-0.08929856
14	0xbdd0d3bd	-0.10196636
15	0xbd95d716	-0.07316415
16	0x3e0dff3c	0.13866895
17	0xbe11c24b	-0.14234273
18	0xbea2e552	-0.31815583
19	0xbd0aa51b	-0.033848863
20	0x3d16542d	0.03670137
21	0x3daa0aa6	0.08302812
22	0x3c4831e6	0.012218928
23	0x3d319af8	0.04336068
24	0x3e72447f	0.23658942
25	0xbd3ba0a2	-0.04580749
26	0xbbec7a14	-0.0072167013
27	0xbda546da	-0.080701545
28	0xbe305e42	-0.17223457
29	0x3de4f776	0.11180012
30	0xbe145a93	-0.14487676
31	0xbcbfa143	-0.023392325
32	0x3de61434	0.11234322
33	0xbd787eef	-0.06066793
34	0xbe1d544b	-0.15364186
35	0x3e1b5459	0.15168895
36	0x3e6760bc	0.22595495
37	0xbd22328b	-0.039598983
38	0xbd0f2a74	-0.034952596
39	0xbe039dc9	-0.12853159
40	0x3d75f81b	0.060051065
41	0xbefe8274	-0.49708903
42	0x3e3eed24	0.1864515
43	0x3d6da539	0.058018897
44	0xbe114716	-0.14187273
45	0xbd21466b	-0.039373796
46	0xbe102a3c	-0.14078611
47	0xbd2ebd90	-0.04266125
48	0xbe6b361e	-0.22969863
49	0x3d3a1231	0.045427505
50	0xbd6679b5	-0.056268413
51	0xbd8803e7	-0.06641369
52	0x3dd84c96	0.105614826
53	0xbe287e92	-0.16454533
54	0xbe3f6630	-0.18691325
55	0x3dd4b8fc	0.103868455
56	0x3c9d3edb	0.01919501
57	0xbe6d67ea	-0.23184171
58	0x3e43b897	0.19113384
59	0xbe8a8185	-0.2705194
60	0x3e087559	0.13326015
61	0xbe065e27	-0.13121854
62	0x3d93aaf6	0.072103426
63	0x3cbb0c92	0.022833142

actor.init_next_embed.0.module.weight f4 [32, 6]
0	0x3e016acb	0.12638395
1	0xbe1761b2	-0.14783362
2	0xbe9909d2	-0.29890305
3	0xbeeb39aa	-0.45942432
4	0xbe55fd8d	-0.20897503
5	0xbd1ffa7e	-0.039057247
6	0xbe601896	-0.21884379
7	0xbdc7ff51	-0.097654946
8	0x3e3f5108	0.18683255
9	0xbe78f5b7	-0.24312483
10	0x3cc36831	0.023853393
11	0xbe719d53	-0.2359517
12	0x3ee72516	0.45145482
13	0xbe89160d	-0.26774636
14	0xbe83fc7b	-0.25778565
15	0xbd248006	-0.040161155
16	0xbe549437	-0.20759664
17	0x3e9f0ca5	0.31064335
18	0xbc0bb111	-0.008526103
19	0x3d14fbff	0.036373135
20	0xbd079595	-0.033101637
21	0x3ed72bd4	0.42025626
22	0xbeed1c90	-0.46310854
23	0xbeb817b9	-0.359556
24	0x3dddb5c3	0.10825684
25	0xbed81352	-0.4220224
26	0xbdfe1b94	-0.12407604
27	0xbe817550	-0.25284815
28	0xbdc45cbb	-0.095879994
29	0xbe262921	-0.16226627
30	0xbcbd96c7	-0.023143185
31	0xbf13c5cc	-0.5772369
32	0x3e9129bf	0.28352162
33	0xbf37c9ac	-0.717921
34	0xbe0004c1	-0.12501813
35	0x3e1ca3f0	0.15296912
36	0x3f7b1040	0.9807167
37	0x3dd2c78c	0.10291967
38	0x3d915a90	0.070973516
39	0xbe23e6a5	-0.16005953
40	0xbcadd61a	-0.021220256
41	0xbecae47d	-0.39627448
42	0xbdb2bdb3	-0.087275885
43	0x3dc959c3	0.09831574
44	0x3e1552b6	0.14582333
45	0x3daf6057	0.08563297
46	0xbe9c28ae	-0.30499786
47	0x3e3999e1	0.18125106
48	0xbe886782	-0.2664147
49	0xbf172879	-0.5904613
50	0x3e7a5438	0.2444619
51	0x3cce8b34	0.025212862
52	0x3faa7384	1.3316503
53	0xbf2f7775	-0.6854165
54	0x3dd920ff	0.10601997
55	0xbe95a08d	-0.29224053
56	0xbe3aa602	-0.1822739
57	0x3d7a48d7	0.06110462
58	0xbead2d93	-0.33823833
59	0xbee13966	-0.43989104
60	0xbea526d9	-0.322562
61	0x3e3a7836	0.1820992
62	0x3c841244	0.016121991
63	0x3ecaea46	0.3963186
64	0x3e8e5e1a	0.2780617
65	0xbedd0afe	-0.4317245
66	0x3d88682d	0.06660495
67	0xbcef7ca3	-0.029234236
68	0xbcb12ced	-0.021627868
69	0x3de7df6d	0.11321912
70	0x3c60420c	0.013687622
71	0x3e1ad813	0.15121488
72	0xbeb7a5b8	-0.3586862
73	0xbd067e91	-0.032835547
74	0x3e155063	0.14581446
75	0x3c8ab503	0.016932016
76	0xbe6e7103	-0.23285298
77	0xbeae830d	-0.3408436
78	0x3dada596	0.08478849
79	0x3c15a80a	0.009134302
80	0x3dfe4654	0.12415758
81	0x3e0dbba3	0.13841109
82	0xbe89d2f7	-0.26918766
83	0xbe026e09	-0.12737288
84	0x3fa93efc	1.3222346
85	0xbe69892d	-0.22806235
86	0xbe8314da	-0.25601846
87	0xbf0a773a	-0.54088175
88	0xbdfc13ef	-0.123084895
89	0x3d2514bd	0.04030298
90	0xbe31b2c3	-0.17353348
91	0xbd823a10	-0.06358731
92	0xbe986d69	-0.29770973
93	0xbe618ba3	-0.22025923
94	0x3ca7a3b1	0.020463796
95	0x3e3c6f80	0.18401909
96	0xbe8d73dd	-0.2762746
97	0xbd0b78cc	-0.034050748
98	0xbde64977	-0.11244481
99	0xbe08af39	-0.13348092
100	0xbed48f7c	-0.4151572
101	0x3dcbe86c	0.0995644
102	0x3f122af7	0.5709681
103	0xbd4ef030	-0.05052203
104	0x3e49bc52	0.19700745
105	0xbe83dc29	-0.25753906
106	0xbd627620	-0.055288434
107	0xbae69f79	-0.0017595134
108	0xbd7b6d07	-0.061383273
109	0x3e93853d	0.2881259
110	0x3e6a1819	0.22860755
111	0xbb7c3323	-0.0038482628
112	0xbd85d587	-0.06534868
113	0x3e855f92	0.26049477
114	0x3f6c3e23	0.92282313
115	0x3e79fe65	0.2441345
116	0xbeb7a9eb	-0.35871825
117	0xbe89f20a	-0.26942474
118	0x3e364631	0.17800213
119	0x3dc120c5	0.094300784
120	0x3e883e6c	0.26610124
121	0x3cd65550	0.026163727
122	0xbd14e459	-0.03635058
123	0xbe0ce68a	-0.13759819
124	0xbe8639ae	-0.2621588
125	0x3e27dd9b	0.1639313
126	0xbcf3aaa9	-0.029744463
127	0xbe5810e2	-0.2110019
128	0xbf37e023	-0.7182638
129	0xbdd21e3e	-0.102596745
130	0xbe042883	-0.12906079
131	0xbd1a7f1f	-0.03771889
132	0x3deb9fcb	0.115050875
133	0xbe1745a4	-0.1477266
134	0xbdc775a0	-0.09739232
135	0x3e04a3a2	0.12953046
136	0xbeb4444f	-0.35208365
137	0x3d6e09f3	0.058114957
138	0x3f27ed8f	0.6559686
139	0xbe88270e	-0.26592296
140	0x3ea96233	0.33082733
141	0xbf132748	-0.57481813
142	0x3ef6f149	0.4823096
143	0x3ed7249b	0.42020115
144	0x3fb33858	1.400157
145	0xbdcbdc5f	-0.09954142
146	0xbe3ad622	-0.18245748
147	0xbea96be7	-0.33090135
148	0xbe1f1405	-0.1553498
149	0x3de4e071	0.11175621
150	0x3e2d5035	0.16925128
151	0x3e9267b7	0.28594753
152	0xbd83c0a8	-0.06433231
153	0xbe430c19	-0.19047584
154	0xbe4223b7	-0.18958937
155	0xbec984ed	-0.39359227
156	0x3b3152b6	0.0027057356
157	0xbea3fe93	-0.32030162
158	0x3e39756c	0.18111199
159	0xbd852699	-0.065015025
160	0xbe663bc6	-0.2248374
161	0xbca12149	-0.019669192
162	0xbf02c432	-0.5108062
163	0xbec3c9a3	-0.38239774
164	0xbe414f82	-0.18877986
165	0xbe40d1ed	-0.1883008
166	0x3e045586	0.1292325
167	0xbe205b82	-0.15659907
168	0x3ef98d7e	0.48740762
169	0x3e529765	0.20565565
170	0xbc9bec0a	-0.01903345
171	0xbfa3a973	-1.2786087
172	0xbd11be75	-0.035582025
173	0x3e51c6e3	0.20486026
174	0x3ef2bdc6	0.4741041
175	0x3e6c43ab	0.23072688
176	0xbeaff5ce	-0.34367222
177	0xbf49461f	-0.7862262
178	0x3c8ffed9	0.017577576
179	0x3e206391	0.15662982
180	0xbe1575df	-0.14595746
181	0xbe84b2a4	-0.25917542
182	0x3e9767ec	0.29571474
183	0xbd5e9722	-0.05434335
184	0x3c4cddaf	0.012504025
185	0xbd94bf95	-0.07263104
186	0x3cfa67ff	0.030567167
187	0xbe67e389	-0.22645392
188	0xbef0b39d	-0.47012034
189	0xbe4d123e	-0.2002649
190	0xbd99ad94	-0.075038105
191	0x3bc3ba7a	0.0059731575

actor.init_next_embed.0.add_bias._bias f4 [32, 1]
0	0x3e25c82e	0.16189644
1	0x3d5b66bb	0.05356477
2	0xbd800c21	-0.062523134
3	0xbd4fca52	-0.050730057
4	0x3bbf656b	0.0058409474
5	0xbe8d8643	-0.27641496
6	0x3df404b7	0.11914962
7	0xbd85ce3a	-0.06533475
8	0xbe639a12	-0.22226742
9	0xbc80903e	-0.01569378
10	0xbe03bdde	-0.12865397
11	0x3e9c26bb	0.304983
12	0xbc06c258	-0.008225046
13	0x3e1ccd2a	0.15312639
14	0x3ec68c1e	0.38778776
15	0x3e96ac23	0.29428205
16	0xbc654b08	-0.01399494
17	0xbe572406	-0.21009836
18	0xbe85a522	-0.2610255
19	0x3eafd4a7	0.34341928
20	0xbdbbd195	-0.09170834
21	0xbb07f3e5	-0.0020744738
22	0xbe7d5844	-0.24740702
23	0xbd6ffb5d	-0.058589328
24	0x3e681ebb	0.22667973
25	0xbdbd5f7a	-0.09246726
26	0xbe0c0079	-0.13672055
27	0x3d1b01bc	0.03784345
28	0x3d20f801	0.039299015
29	0x3e2426dd	0.1603045
30	0x3e148837	0.14505087
31	0x3e1bc317	0.1521114

actor.init_next_embed.2.module.weight f4 [64, 32]
0	0x3dd65f18	0.104673564
1	0xbde034b1	-0.1094755
2	0xbc209802	-0.0098018665
3	0x3e3860ea	0.1800572
4	0x3e181ef6	0.1485556
5	0x3d9defa3	0.07711723
6	0xbe6a1205	-0.22858436
7	0xbe6b21ea	-0.22962156
8	0xbdd4cca4	-0.103905946
9	0x3ea00954	0.31257117
10	0x3da62633	0.08112755
11	0xbeed1087	-0.46301672
12	0x3dc4af30	0.09603727
13	0x3ece8f34	0.4034363
14	0x3e067d6d	0.13133784
15	0xbe9bcf7d	-0.30431738
16	0xbe170bdf	-0.14750622
17	0x3d871f0f	0.06597721
18	0xbc8ed4c8	-0.017435446
19	0xbe50afbe	-0.2037954
20	0x3d83211f	0.06402802
21	0xbd70017e	-0.058595173
22	0xbef3c567	-0.47611544
23	0xbef05992	-0.46943337
24	0xbee741b2	-0.4516731
25	0x3eb42327	0.3518307
26	0xbe31744b	-0.17329518
27	0xbdb9e861	-0.09077526
28	0x3e0202fe	0.12696454
29	0x3dcce35a	0.10004301
30	0x3e79a555	0.24379475
31	0xbddc9caa	-0.10772069
32	0x3e58beb0	0.21166492
33	0xbd729390	-0.059222758
34	0xbdc5abe1	-0.09651924
35	0xbd8b7f49	-0.06811387
36	0xbdbaa7bb	-0.09114023
37	0xbe2b94fc	-0.16756052
38	0xbdfeb96e	-0.12437712
39	0x38bd4a11	9.026018e-05
40	0x3ea3548e	0.31900448
41	0x3d2fb2dd	0.042895187
42	0x3ef3f2c2	0.47646147
43	0x3ea6e9e2	0.32600313
44	0xbcb19a1c	-0.02167993
45	0xbdbe3b78	-0.092886865
46	0xbe3a5533	-0.18196563
47	0xbd4cad38	-0.04996988
48	0x3e3c6705	0.18398674
49	0x3caaa311	0.02082971
50	0xbd9558da	-0.07292338
51	0x3f04a589	0.51815087
52	0x3e2f69ae	0.17130157
53	0x3cb8f9ac	0.02257999
54	0x3d5fd06a	0.05464212
55	0xbe207629	-0.15670075
56	0xbe1e4e4d	-0.15459557
57	0x3e5eead6	0.2176927
58	0xbc237133	-0.009975719
59	0xbe9eedf9	-0.31040934
60	0xbdfa9ef8	-0.12237352
61	0x3c2297e8	0.009923913
62	0xbd7e120d	-0.062028933
63	0xbd792c41	-0.06083322
64	0xbd7d2173	-0.061799478
65	0x3d0d0453	0.034427952
66	0x3e71d3fa	0.23616019
67	0xbe0a87ea	-0.1352841
68	0xbade7bb6	-0.0016974125
69	0x3e49707a	0.19671813
70	0xbf0210a1	-0.50806624
71	0xbeb34480	-0.350132
72	0xbebe59a1	-0.37177756
73	0xbe0f90d6	-0.14020094
74	0x3d10979c	0.035300836
75	0x3eb9903e	0.3624286
76	0x3dbd6138	0.09247059
77	0xbea4cb2c	-0.32186258
78	0xbf339656	-0.7015127
79	0x3e0aa164	0.13538128
80	0xbe65158d	-0.22371502
81	0x3d867fb7	0.065673284
82	0x3e403ed4	0.18773967
83	0x3e16fd08	0.14744961
84	0xbd9e6011	-0.07733167
85	0xbda36773	-0.07978716
86	0xbd6b656c	-0.05746977
87	0x3eecabf5	0.46224943
88	0xbecdb7fb	-0.40179428
89	0x3dc930fb	0.098237954
90	0xbe5a76bb	-0.21334355
91	0xbe248743	-0.16067223
92	0xbf065b6d	-0.52483255
93	0xbf24b924	-0.64345
94	0xbe9345e8	-0.28764272
95	0xbe47a303	-0.19495778
96	0xbe1b4d00	-0.15166092
97	0x3e29d8a9	0.16586556
98	0x3eb4f535	0.35343328
99	0xbdc2bc84	-0.09508613
100	0xbe9ecb2b	-0.3101438
101	0x3cd78fbb	0.026313653
102	0xbec11db7	-0.37717983
103	0x3e01d475	0.12678702
104	0xbb151ab8	-0.0022751521
105	0x3e72579f	0.23666237
106	0xbead0ce8	-0.3379891
107	0x3e3099f0	0.17246222
108	0x3ddd9d0e	0.108209714
109	0x3e0ec9f1	0.13944222
110	0xbe84c8e0	-0.25934505
111	0xbe82b76b	-0.25530562
112	0xbe282e1b	-0.16423838
113	0x3e4fd63f	0.20296572
114	0x3cfcc625	0.030856201
115	0xbeb84922	-0.35993296
116	0xbc88f0ed	-0.016716445
117	0x3d9552ee	0.07291208
118	0x3e2871d5	0.16449673
119	0x3f45ff75	0.7734292
120	0xbeb48dbb	-0.35264382
121	0xbedcc20c	-0.43116796
122	0xbdbf51c7	-0.0934177
123	0xbea75faf	-0.32690188
124	0xbe993f1e	-0.29930967
125	0xbe252f25	-0.16131265
126	0x3d7e4aaf	0.062082943
127	0xbe5c38a9	-0.21505989
128	0xbe535285	-0.20636947
129	0xbec49f0e	-0.384026
130	0xbdaa3b3e	-0.08312081
131	0x3e7b3edb	0.24535696
132	0x3df06d91	0.11739648
133	0xbe2a84aa	-0.1665217
134	0xbdb3ed00	-0.087854385
135	0xbda8fb6a	-0.082510784
136	0x3e0c1b7f	0.13682364
137	0xbdfd7c84	-0.12377265
138	0xbe7d7b49	-0.24754061
139	0x3c42bb96	0.011885544
140	0xbd08f0e1	-0.033432845
141	0x3d6c4736	0.0576851
142	0x3e2372b7	0.15961729
143	0xbb8178f7	-0.0039511877
144	0x3e265099	0.16241683
145	0x3e1b187b	0.15146057
146	0xbe195db3	-0.1497715
147	0xbeaebf04	-0.34130108
148	0xbe30a415	-0.17250092
149	0x3dc30688	0.0952273
150	0x3e206de4	0.1566692
151	0x3d2b00dc	0.041748866
152	0x3e8091df	0.2511129
153	0xbdc195a8	-0.09452373
154	0x3ee51a0b	0.44746432
155	0x3e4da9d8	0.20084321
156	0xbe5f2efd	-0.21795268
157	0xbdf40fac	-0.11917052
158	0xbda37917	-0.079820804
159	0x3d11c0ef	0.035584386
160	0x3d414290	0.04718262
161	0xbd02543c	-0.031818613
162	0x3dba7a6e	0.09105383
163	0xbde30d62	-0.11086537
164	0x3ead5454	0.338534
165	0x3e4f9f95	0.2027572
166	0x3d7640cb	0.060120385
167	0x3e10b2df	0.14130734
168	0x3dda1abc	0.106496304
169	0x3e5aebce	0.21379015
170	0x3d175dce	0.036954693
171	0x3f438aa8	0.7638345
172	0x3d2bc064	0.041931525
173	0x3dfebd32	0.1243843
174	0xbd5dd656	-0.054159485
175	0x3f138fc2	0.5764123
176	0xbcedb468	-0.029016688
177	0x3ea4d733	0.32195434
178	0x3de60dbb	0.11233088
179	0x3f71b395	0.94414645
180	0x3d380a27	0.044931557
181	0xbd0b4520	-0.03400147
182	0x3e843c00	0.25827026
183	0x3e810b9a	0.25204164
184	0x3efcea5a	0.49397546
185	0xbdadeef6	-0.08492844
186	0x3d8aa127	0.067690186
187	0x3eb2b734	0.34905398
188	0xbe3754c5	-0.17903431
189	0xbe870d8f	-0.26377532
190	0x3e8acf37	0.27111217
191	0xbe0c6fbd	-0.137145
192	0x3df47af1	0.11937512
193	0x3e32b910	0.17453408
194	0x3d079bc8	0.03310755
195	0x3e3662e3	0.1781116
196	0xbd94c912	-0.072649136
197	0x3cec5941	0.028851153
198	0xbe504680	-0.20339394
199	0xbea68fcb	-0.3253158
200	0x3e20e826	0.15713558
201	0x3e654c05	0.2239228
202	0x3d8fceda	0.07021876
203	0x3e6fc911	0.23416544
204	0x3ccd4f42	0.025062207
205	0x3c5f1df4	0.013617981
206	0xbd593fdd	-0.05303942
207	0xbd9fb823	-0.07798793
208	0xbcb02ab2	-0.021504734
209	0x3e2b6fa9	0.16741814
210	0xbe595f99	-0.21227874
211	0xbb53c55d	-0.0032313683
212	0x3e4ff538	0.20308387
213	0xbe8aea44	-0.27131855
214	0x3e2c605c	0.16833633
215	0x3e3db09b	0.18524401
216	0xbe10d66a	-0.14144292
217	0x3d94baa8	0.07262164
218	0x3d220576	0.03955599
219	0xbe6700a6	-0.22558841
220	0xbde7b9bb	-0.11314722
221	0xbd8591fb	-0.06521984
222	0x3e147be0	0.1450038
223	0xbe89220a	-0.26783782
224	0xbe8d2396	-0.27566212
225	0x3d2ef6d2	0.042715855
226	0xbeaa5f9b	-0.33276066
227	0x3cac4108	0.021027103
228	0x3e65ba57	0.22434364
229	0xbe94b687	-0.29045507
230	0xbdf24593	-0.118296765
231	0xbe49608a	-0.19665733
232	0x3cb5f6d3	0.022212422
233	0xbd06c532	-0.032902904
234	0x3eb8279f	0.35967728
235	0x3eb563ae	0.35427612
236	0x3dc12e16	0.09432618
237	0x3e46b7d5	0.19406064
238	0x3f01c4dd	0.50691015
239	0x3f05afa8	0.52221155
240	0x3d8209fb	0.0634956
241	0x3eb1f7d7	0.347594
242	0x3e4d73ae	0.2006366
243	0x3eb9f955	0.36323038
244	0xbeac074d	-0.3359932
245	0x3c645b40	0.013937771
246	0xbe276965	-0.16348799
247	0x3f379d66	0.71724546
248	0x3f0231e8	0.508574
249	0x3cbe1ee0	0.023208082
250	0x3dc1a99a	0.09456177
251	0xbdc7c015	-0.097534336
252	0x3d6d4e3c	0.05793594
253	0x3ea33859	0.31878927
254	0x3db89f1e	0.09014724
255	0x3ebcfa41	0.3690968

actor.init_next_embed.2.add_bias._bias f4 [64, 1]
0	0xbee427d7	-0.44561645
1	0xbec6558c	-0.38737142
2	0xbead4fb4	-0.3384987
3	0xbed5a371	-0.41726258
4	0xbc16e8f2	-0.009210812
5	0x3f9d7fe7	1.2304658
6	0xbe85b72e	-0.26116318
7	0x3f361716	0.71128976
8	0x3f8539b2	1.0408232
9	0xbf236ace	-0.63834846
10	0xbf2c7c38	-0.6737704
11	0x3e291bcb	0.16514508
12	0x3fa09258	1.254466
13	0xbf909203	-1.1294559
14	0xbf5ec3fc	-0.870178
15	0xbf57e055	-0.8432668
16	0xbf5ea8ef	-0.8697652
17	0x3f37c447	0.7178387
18	0x3f1afc36	0.60541093
19	0xbe4baf3c	-0.19891065
20	0xbe1a0d6d	-0.15044184
21	0xbea0c898	-0.3140304
22	0xbfac04c0	-1.343895
23	0x3f0d9305	0.5530246
24	0xc0116ac2	-2.272141
25	0xbf6ecd63	-0.93282145
26	0xbe8194ed	-0.25308934
27	0xbf9031f6	-1.1265247
28	0x3f0fa09c	0.56104445
29	0x3e9b04f1	0.30277207
30	0xbf0f2dc2	-0.55929196
31	0xbf46d66f	-0.7767095
32	0xbe0b5ee6	-0.1361042
33	0x3f39cb4d	0.7257584
34	0xbe8e593d	-0.27802458
35	0xbeb4cea0	-0.35313892
36	0x3fb2d377	1.3970784
37	0x3f347af0	0.7050009
38	0xbeb0cdcb	-0.34532008
39	0x3f1a70c3	0.6032831
40	0xbfd6f04e	-1.6792085
41	0x3f96c97e	1.178024
42	0xbecc5ae9	-0.3991311
43	0xbfb8c576	-1.443526
44	0x3eef4ba9	0.46737412
45	0x3fa81a9e	1.3133123
46	0x3f60095b	0.87514275
47	0x3f2ea954	0.68227124
48	0xbec651fb	-0.3873442
49	0x3e9d4f3f	0.30724522
50	0x3f33b4bb	0.7019765
51	0x3eec5a97	0.46162865
52	0x3ef4b691	0.47795537
53	0xbdb5933c	-0.08865973
54	0xbe7f5f03	-0.24938588
55	0xbf30d17c	-0.6906965
56	0xbc59b816	-0.013288518
57	0x3f25cede	0.6476878
58	0xbef7db2d	-0.48409405
59	0x3ea1d825	0.31610218
60	0x3e878f42	0.26476485
61	0x3f57f49f	0.8435764
62	0x3b99557b	0.0046793795
63	0x3e485add	0.19565912
